output/282nodes_entropy0.01_0.4_0.85_2_230823/epoch13.pth (torch, 519145 bytes, 129 tensors)

critic.ff_layer1.weight f4 [32, 283]
0	0x3ddc205d	0.1074836
1	0x3d9c1fa3	0.07623222
2	0xbaf6d810	-0.0018832702
3	0x3d2967f3	0.0413589
4	0x3c3bdf8d	0.011466873
5	0x3940216a	0.00018322995
6	0xbcfe6b0d	-0.031056905
7	0x3d2fddad	0.042936016
8	0x3d84281f	0.06452965
9	0xbc7b794e	-0.0153487455
10	0x3d720fcd	0.0590971
11	0x3c65300c	0.013988506
12	0x3d2b6a82	0.04184962
13	0x3d4463dc	0.047946796
14	0x3d33fbfd	0.043941487
15	0x3c6f1155	0.014591535
16	0x3d23e3d9	0.040012214
17	0x3c9a7378	0.018853888
18	0xbcbb61d4	-0.022873797
19	0x3d217b52	0.039424248
20	0xbc0834ae	-0.008313341
21	0x3ce62d56	0.02809779
22	0xbc670f3c	-0.014102753
23	0x3d8830a8	0.066499054
24	0xbd43814a	-0.04773072
25	0xbcad2e57	-0.02114026
26	0xbc3cc247	-0.011520929
27	0xbccc85a5	-0.02496607
28	0xb7b44655	-2.1490423e-05
29	0xbd055e62	-0.032560714
30	0x3d7ab83e	0.061210863
31	0xbd11f343	-0.035632383
32	0x3d743247	0.05961826
33	0x3cea800c	0.02862551
34	0xbc39b82f	-0.011335417
35	0x3d4d0284	0.050051227
36	0x3cc277aa	0.0237387
37	0x3d8dfd87	0.06933122
38	0x3c8e2390	0.017350942
39	0x3b480d27	0.0030525418
40	0x3ce30146	0.027710568
41	0x3b1730ec	0.0023069931
42	0x3c9ae6ee	0.018908944
43	0x3d4dd73a	0.050254084
44	0x3d335128	0.04377857
45	0xbc86b2f7	-0.016442759
46	0x3cfa3c45	0.030546317
47	0x3c85f580	0.016352415
48	0x3d2d8ab1	0.042368595
49	0xbd199a02	-0.03750039
50	0xbd2671e2	-0.04063595
51	0xbc2d90bb	-0.010593588
52	0xbcb6ae64	-0.022299953
53	0x3d7f02d4	0.062258556
54	0x3cc5d0ab	0.024147352
55	0x3ccb7756	0.024837177
56	0x3caf449e	0.021395024
57	0x3b510d80	0.0031898916
58	0x3d84327d	0.064549424
59	0xbcef0fa5	-0.029182265
60	0x3d0c7a86	0.034296535
61	0xbc672861	-0.014108748
62	0x3d0281e2	0.031862147
63	0xbc5a3c51	-0.013320045
64	0x3ce2b03d	0.027671928
65	0xbb17ca5f	-0.0023161394
66	0x3d0f7311	0.035021845
67	0xbcc71be8	-0.024305299
68	0xbce0fe23	-0.027464932
69	0xbc530f03	-0.012881997
70	0x3da2e8b3	0.0795454
71	0x3c5604a4	0.01306263
72	0x3d78b266	0.06071701
73	0xbccedf13	-0.025252854
74	0xbd30260c	-0.043005034
75	0xbcf99604	-0.03046704
76	0xbb100dbd	-0.0021980845
77	0x3d03fc7f	0.03222322
78	0x3ced6db8	0.028982982
79	0x3d7d3595	0.061818678
80	0xbd091dec	-0.0334758
81	0xbc80299c	-0.01564484
82	0x3cb7d225	0.022439072
83	0xbd098b44	-0.03358008
84	0x3d223a06	0.039606117
85	0xbb1da816	-0.0024056486
86	0x3d352e5d	0.04423367
87	0xbcf85247	-0.03031267
88	0xbc98c2f9	-0.018647658
89	0x3ca8f1a3	0.020623034
90	0x3cff0f56	0.031135242
91	0x3c422cf4	0.011851538
92	0x3d678a42	0.056528337
93	0x3d109c4c	0.035305306
94	0xbcdef8a1	-0.027218165
95	0xbcf8d748	-0.030376092
96	0x3d580a39	0.052744124
97	0xbbd29eb6	-0.006427611
98	0xbb7667a7	-0.0037598403
99	0xbcd42255	-0.025895277
100	0xbccee3f9	-0.02525519
101	0x3c879105	0.016548643
102	0xbc769786	-0.015050774
103	0xbd3f3f20	-0.04669106
104	0x3d17b9b3	0.03704233
105	0xbd09b64f	-0.03362113
106	0xbcc5ebbb	-0.024160257
107	0xbc6f33b8	-0.014599733
108	0xbd38b813	-0.04509742
109	0xbcb3b572	-0.021937106
110	0x3daa4461	0.083138235
111	0x3c186c94	0.009303231
112	0x3d4027c1	0.046912912
113	0xbceb49c4	-0.028721698
114	0xbd1a32cc	-0.0376461
115	0xbb416337	-0.00295086
116	0x3acdde40	0.0015706494
117	0xbd25562a	-0.040365376
118	0xbc9b1341	-0.01893008
119	0xbd1d63fc	-0.03842543
120	0x3c4763ad	0.012169761
121	0x3a74910c	0.0009329475
122	0xbc7e49e4	-0.015520547
123	0xbcc4330f	-0.023950128
124	0xbc4ec111	-0.012619273
125	0xbc35b77c	-0.011091109
126	0xbcaf2955	-0.021382013
127	0xbd237d95	-0.039914686
128	0x3d72fa69	0.05932084
129	0x3cae65fe	0.021288868
130	0x3d8237bc	0.06358287
131	0x3c9070ec	0.01763197
132	0xbcea8677	-0.028628571
133	0x3d6afa81	0.057367805
134	0xba57cda9	-0.0008232245
135	0xbb2dcc3e	-0.0026519443
136	0xbd1c3821	-0.038139466
137	0xbd310a5d	-0.043222774
138	0x3cd28886	0.025699865
139	0xbc09954a	-0.00839741
140	0x3d06d352	0.032916375
141	0xbcb82613	-0.022479093
142	0x3d878213	0.066166066
143	0xba36a2fe	-0.0006967037
144	0xbc47ba9f	-0.01219049
145	0x3cb7a2f4	0.02241657
146	0x3d2cdf49	0.04220513
147	0x3d822614	0.06354919
148	0x3d4c434c	0.049868867
149	0xbd04b51e	-0.03239929
150	0x3c7138dd	0.01472303
151	0xbd2bf398	-0.041980356
152	0x3b694f66	0.0035600304
153	0xbc60df9d	-0.013725189
154	0x3db238cd	0.0870224
155	0xbd319005	-0.04335024
156	0x3cdf36ab	0.027247747
157	0x3c020233	0.007935095
158	0x3cd671c8	0.026177302
159	0xbc8ea6d7	-0.01741354
160	0x3d84ceb2	0.064847365
161	0xbbe01e38	-0.00683954
162	0x3ad8dd04	0.001654536
163	0xbd481ddc	-0.0488566
164	0x3d0b70de	0.034043185
165	0x3c09106a	0.00836573
166	0xbbeb53fa	-0.0071816416
167	0x3d8180b8	0.06323379
168	0x3d04d335	0.032427985
169	0xbcfd7dff	-0.030943869
170	0xbcbc3e8f	-0.022979049
171	0xbc080fc8	-0.008304544
172	0x3d3c4cab	0.045971554
173	0x3c87933f	0.016549705
174	0xbd10dde8	-0.035367876
175	0xbacf7b00	-0.0015829504
176	0xbcbbd22b	-0.022927364
177	0x3cd55c74	0.026045062
178	0x3d80ffa9	0.06298763
179	0xbd14c111	-0.036316935
180	0x3b10de88	0.0022105295
181	0x3d28b750	0.041190445
182	0x3bb83ab5	0.005622233
183	0xbb89a2f4	-0.0042003337
184	0x3ce01b92	0.027356897
185	0x3d1af331	0.03782958
186	0x3c0989a4	0.0083946325
187	0x3c20275e	0.009775011
188	0xbcb32852	-0.021869812
189	0xbb86dba0	-0.004115537
190	0x3c19c16b	0.009384493
191	0xbca6a45d	-0.020342046
192	0x3d725547	0.059163358
193	0x3d1d42ae	0.03839367
194	0x39aaaf5f	0.00032555588
195	0x3c0deff9	0.008663171
196	0x3d061991	0.032739226
197	0xbadeaa0e	-0.0016987936
198	0x3ce95ae5	0.028485725
199	0x3cc303ee	0.023805585
200	0xbce70a10	-0.02820304
201	0xbb992169	-0.0046731723
202	0x3d4ad371	0.049518052
203	0x3ced7207	0.028985037
204	0x3c0150c8	0.007892795
205	0xbd070e21	-0.03297246
206	0xbc90bec8	-0.017669097
207	0xbd0d5213	-0.0345021
208	0xbc50dcfc	-0.012747999
209	0x3d00a9f6	0.031412087
210	0x3d3772cc	0.044787213
211	0x3d706bab	0.05869643
212	0xbc7ab0f7	-0.015300981
213	0xbcffbb7e	-0.031217333
214	0x3891fdd6	6.9614194e-05
215	0x3d6b86b3	0.057501506
216	0xba91c89a	-0.0011122406
217	0xbaaa7e28	-0.0013007568
218	0x3c92ed6e	0.01793548
219	0xbc967562	-0.01836652
220	0xbd141ad4	-0.036158398
221	0x3d7ef233	0.062242698
222	0xbbd62195	-0.006534765
223	0xbb1f9691	-0.002435122
224	0xbd32dc20	-0.04366696
225	0x3d596b46	0.05308082
226	0x3d3ab3c4	0.045581594
227	0x3cb119c9	0.02161874
228	0xbcb4c581	-0.022066833
229	0xbd5faeaf	-0.05460995
230	0xbd0abab4	-0.03386946
231	0x3d928ce3	0.07155778
232	0x3cca2238	0.02467452
233	0x3d834d1b	0.06411191
234	0x3ce4ef1a	0.027946044
235	0x3c860aa6	0.0163625
236	0xbc0eea9f	-0.00872293
237	0xbc576402	-0.013146402
238	0xbcfcdac6	-0.030866038
239	0xbd260719	-0.040534113
240	0x3d0b317c	0.03398274
241	0xbcaf2d0b	-0.021383783
242	0xbc85f9de	-0.016354498
243	0xbd19e274	-0.03756948
244	0x3c03ccbf	0.008044421
245	0xbc7a2cbc	-0.015269455
246	0xbd0ba580	-0.03409338
247	0x3ca65e64	0.02030868
248	0xbc2446b5	-0.0100266235
249	0x3d4c0593	0.049810003
250	0x3c257483	0.010098579
251	0xbd34803c	-0.044067606
252	0xbca6191d	-0.020275647
253	0xbbf3c57c	-0.0074393135
254	0xbd11e90c	-0.03562264
255	0xbd52918d	-0.05140834

critic.ff_layer2.weight f4 [283, 32]
0	0xbde3cf90	-0.11123574
1	0x3e909412	0.2823797
2	0xbddd48aa	-0.10804875
3	0xbe727e78	-0.23681056
4	0x3dff0e7e	0.12453936
5	0xbe18fc89	-0.14940085
6	0x3df9c03e	0.121948704
7	0xbdd5952d	-0.10428844
8	0xbe641a1f	-0.2227559
9	0xbd9719bd	-0.07377956
10	0xbde4ec24	-0.11177853
11	0x3d310111	0.043213908
12	0xbe5e4322	-0.21705297
13	0xbe62c5f0	-0.2214582
14	0xbd9ddcc1	-0.07708121
15	0x3eb26b71	0.34847596
16	0xbe3e3ce1	-0.18577911
17	0xbe2fe968	-0.17178881
18	0x3dc1cbea	0.09462722
19	0x3e4ebc5f	0.20189045
20	0x3eb52adc	0.35384262
21	0xbe1c321f	-0.15253495
22	0xbdd68ce9	-0.10476095
23	0xbe5263ae	-0.20545837
24	0x3ea1f458	0.31631732
25	0x3e0aa026	0.13537654
26	0xbce82a80	-0.028340578
27	0xbe80d427	-0.2516186
28	0x3d9a3e52	0.07531418
29	0xbdb77e61	-0.08959652
30	0x3d2ac5d2	0.041692562
31	0x3e8b1b99	0.27169493
32	0xbd1866b7	-0.03720733
33	0xbdc547a9	-0.09632809
34	0x3e095e87	0.13414966
35	0x3dac9b44	0.08428052
36	0x3c8d84aa	0.017275173
37	0xbdaeb69a	-0.08530922
38	0xbdc34811	-0.0953523
39	0xbe255315	-0.16144975
40	0xbdc978c7	-0.098374896
41	0xbdfa7c0a	-0.1223069
42	0xbc57baa7	-0.01316706
43	0xbe04de38	-0.12975395
44	0x3dd0ca6c	0.10194859
45	0xbe1d0a47	-0.15335952
46	0xbddbc1a8	-0.107302964
47	0xbddd6865	-0.10810927
48	0xbd814941	-0.063128
49	0x3da2b81f	0.079452746
50	0x3dbf2d58	0.093348205
51	0x3e2a00cb	0.16601865
52	0xbd849489	-0.06473643
53	0x3d1fa82a	0.038978733
54	0xbc15e80c	-0.009149563
55	0x3dc787cd	0.09742699
56	0x3d2e333f	0.04252934
57	0x3dc80c9c	0.0976803
58	0x3e15ee39	0.14641656
59	0x3dd80c49	0.10549218
60	0xbb2fce0f	-0.0026825701
61	0x3dc4a065	0.09600905
62	0xbdd0f549	-0.102030344
63	0xbd8492f4	-0.064733416
64	0xbd801c47	-0.062553935
65	0xbd81235c	-0.063055724
66	0x3d1598e4	0.03652276
67	0xbe2cb014	-0.16864043
68	0xbdcbcec1	-0.099515446
69	0xbc6ab101	-0.014324428
70	0x3d3cc1e8	0.04608336
71	0x3df42013	0.1192018
72	0xbdf01c11	-0.11724103
73	0x3d6b8d70	0.057507932
74	0x3d862250	0.06549513
75	0xbdcc143f	-0.09964799
76	0x3d211562	0.039327033
77	0xbd9cedd0	-0.07662547
78	0x3c6c48ad	0.014421624
79	0xbdc8e80b	-0.09809884
80	0xbd5313b7	-0.051532473
81	0xbd857467	-0.065163426
82	0x3e26253b	0.1622514
83	0x3d1eb696	0.038748346
84	0xbe3fc8cd	-0.18728943
85	0x3d2d536f	0.042315897
86	0x3df70c05	0.120628394
87	0xbd90000e	-0.070312604
88	0xbdd64032	-0.10461463
89	0xbd029451	-0.031879727
90	0xbe1a6f21	-0.15081455
91	0xbd52a140	-0.05142331
92	0x3cb11422	0.021616045
93	0xbdfcb328	-0.12338859
94	0xbe0c1584	-0.13680083
95	0xbdef819f	-0.11694645
96	0xbdf795de	-0.12089132
97	0xbcb2a702	-0.021808151
98	0x3d7bf157	0.061509456
99	0x3dc957ce	0.098312005
100	0x3e2f7929	0.17136063
101	0x3dc14fd5	0.09439055
102	0xbdab1c7c	-0.08355042
103	0xbcaf685f	-0.021412073
104	0xbd97896f	-0.0739926
105	0x3d92dfc7	0.071715884
106	0x3cd12c8f	0.025533943
107	0x3d92309f	0.0713818
108	0xbdfed493	-0.12442889
109	0x3ddd4aa1	0.1080525
110	0xbe2b9cfa	-0.167591
111	0x3abbb2fc	0.0014320309
112	0xbe2d4856	-0.16922125
113	0x3decb2ab	0.11557516
114	0xbda16db5	-0.07882253
115	0xbe10f469	-0.14155735
116	0x3c58046d	0.013184649
117	0x3e1aa9d8	0.15103853
118	0xbca231f0	-0.019799203
119	0x3d9c3bcb	0.07628592
120	0x3d959973	0.07304659
121	0xbe11513d	-0.14191146
122	0x3d8808b3	0.06642284
123	0x3cb80b17	0.022466226
124	0xbddb7f04	-0.10717586
125	0x3dbc1e59	0.09185476
126	0x3e2a7805	0.16647346
127	0x3de0d1c1	0.109775074
128	0xbe0426bd	-0.12905402
129	0x3d885993	0.0665771
130	0x3e0606f0	0.13088584
131	0x3d53c13e	0.051697962
132	0xbd0676de	-0.032828204
133	0x3dd8dd06	0.10589032
134	0xbe018d2d	-0.1265151
135	0xbdc7fb6a	-0.0976475
136	0x3d9c4b74	0.07631579
137	0x3df1429a	0.11780281
138	0xbd2715f6	-0.040792428
139	0x3e1ce060	0.15319967
140	0x3da38142	0.07983638
141	0x3d4fdbb7	0.050746646
142	0x3e006c16	0.12541232
143	0x3db6188b	0.088914
144	0x3ddbe444	0.107368976
145	0x3dd880ef	0.10571467
146	0xbc785f59	-0.015159451
147	0x3e01520f	0.12628959
148	0x3c915368	0.017739967
149	0xbda588bb	-0.0808272
150	0x3d9407e6	0.07228069
151	0x3ca31924	0.019909449
152	0xbdd134c8	-0.10215145
153	0x3df06966	0.11738853
154	0x3d95b8a6	0.073106095
155	0x3dd7c9a4	0.10536507
156	0x3ca53231	0.020165535
157	0x3cffec8b	0.031240722
158	0x3db48cfc	0.08815953
159	0xbd927ad6	-0.07152335
160	0x3db1bbbd	0.08678386
161	0xbde9fb13	-0.11424842
162	0xbbcd9db9	-0.0062749055
163	0xba75a024	-0.0009369871
164	0x3de91b35	0.113821425
165	0x3d5c2148	0.053742677
166	0x3e276255	0.16346104
167	0xbdc3270f	-0.09528934
168	0xbd2bb62f	-0.04192179
169	0xbc606c9b	-0.013697769
170	0x3df4a09a	0.11944695
171	0x3e278d5d	0.1636252
172	0x3d1a79cf	0.037713822
173	0xbe0a6109	-0.13513578
174	0xbde86d1d	-0.11348937
175	0x3ae767bd	0.0017654818
176	0xbe2516c0	-0.1612196
177	0xbdaa0cf0	-0.08303249
178	0xbdf7646f	-0.12079703
179	0x3daaae16	0.083339855
180	0xbd8363de	-0.064155325
181	0xbdebca31	-0.11513174
182	0x3dc38d00	0.09548378
183	0xbe1f3f74	-0.15551549
184	0xbcf9ae74	-0.030478694
185	0x3e2940fc	0.16528696
186	0x3d8bde5e	0.068295226
187	0xbe12c14e	-0.14331552
188	0x3c96b955	0.01839892
189	0xbd1f3c65	-0.038875956
190	0x3d8f0d62	0.069849744
191	0x3e03358e	0.12813398
192	0x3e1e03cd	0.15431137
193	0xbd696a73	-0.056986284
194	0x3daf8ce3	0.08571794
195	0xbe250f60	-0.16119146
196	0x3e071ef8	0.13195407
197	0x3db061ee	0.086124286
198	0xbe039397	-0.1284927
199	0xbd46e80e	-0.04856115
200	0xbd5d26ce	-0.053992085
201	0xbdac64fd	-0.084176995
202	0x3d708ada	0.05872617
203	0xbd405434	-0.046955302
204	0x3d79390d	0.060845423
205	0xbd8420f3	-0.06451597
206	0x3e16a93a	0.14712992
207	0xbd8a0889	-0.06739909
208	0xbd4cb577	-0.049977746
209	0xbd2c0dd2	-0.042005368
210	0x3c752f47	0.014964885
211	0xbd9c3353	-0.07626977
212	0xbdbe1126	-0.092806146
213	0xbe1be5a9	-0.15224327
214	0x3e01d268	0.1267792
215	0x3c88786a	0.01665898
216	0xbde9fa63	-0.114247106
217	0x3db16131	0.08661116
218	0x3b1a33a0	0.0023529306
219	0xbdabec11	-0.083946355
220	0xbc8a3250	-0.016869694
221	0xb7dbd18e	-2.6204416e-05
222	0x3dddc9fe	0.108295426
223	0xbe25c4f1	-0.16188408
224	0xbe14e982	-0.14542201
225	0xbe24e09e	-0.1610131
226	0xbe184f1a	-0.14873925
227	0xbd20264f	-0.039099034
228	0x3dcf1add	0.10112546
229	0x3ce6b29b	0.028161338
230	0x3d7a11ef	0.06105226
231	0x3c0d1b85	0.008612518
232	0xbb71adfd	-0.0036877387
233	0xbe1f4c61	-0.1555648
234	0x3e18a9f0	0.14908576
235	0x3e2aec63	0.16691737
236	0xbb4c1abe	-0.003114387
237	0x3c5fd5ec	0.013661843
238	0x3ccc49ee	0.024937596
239	0x3dbc4a96	0.09193914
240	0xbcc0e659	-0.023547338
241	0xbc10857c	-0.008820888
242	0xbde120da	-0.10992594
243	0x3d1918c9	0.037377153
244	0x3d22d0f5	0.03975006
245	0xbe11f88c	-0.1425497
246	0x3d47f139	0.048814032
247	0x3ca93161	0.020653429
248	0x3c63eb95	0.013911148
249	0x3db0d00d	0.086334325
250	0xbd4f7b7b	-0.05065487
251	0x3cec0412	0.028810535
252	0xbdef6306	-0.11688809
253	0x3dd3fb51	0.10350669
254	0xbe1663c6	-0.14686498
255	0xbe319181	-0.17340662

actor.customer_encoder.0.attention.query_embed.weight f4 [32, 32]
0	0x3ea6ec57	0.32602188
1	0x3d4c84b8	0.049931258
2	0x3e132d32	0.1437271
3	0x3ea4a033	0.32153472
4	0xbeb04dbf	-0.34434316
5	0xbdb80c2b	-0.08986696
6	0xbe1a1598	-0.150473
7	0xbe6bb65c	-0.23018783
8	0x3e624cf9	0.22099675
9	0x3e4b7f21	0.19872715
10	0x3e992f4a	0.2991889
11	0x3ebe9ad6	0.37227505
12	0xbe52f6dd	-0.20601983
13	0x3d1d9f59	0.038482044
14	0x3df71c4b	0.12065943
15	0xbda8049b	-0.082040034
16	0x3e59ab2f	0.21256708
17	0x3eb24af5	0.34822813
18	0xbec1e493	-0.378697
19	0xbdc1ee24	-0.0946925
20	0x3e371fa5	0.17883165
21	0xbe924c04	-0.2857362
22	0xbdd4f62b	-0.10398515
23	0x3e3dd0c4	0.18536669
24	0x3deb1eaf	0.11480462
25	0xbe4d1215	-0.20026429
26	0xbd5c16f7	-0.05373284
27	0x3d2de3e1	0.04245365
28	0x3ebfff14	0.37499297
29	0xbe831ba7	-0.25607035
30	0x3c6866ba	0.014184648
31	0xbde1bbc9	-0.11022145
32	0x3eb7c01b	0.35888752
33	0x3e8cbd15	0.27488008
34	0xbcec7d8c	-0.02886846
35	0xbe1f015c	-0.15527862
36	0x3ea7bd72	0.32761723
37	0xbc9e6f17	-0.019340081
38	0xbdadce36	-0.08486597
39	0x3e8d1736	0.2755677
40	0x3dc6801c	0.09692404
41	0x3cb4db6b	0.022077283
42	0x3eafd862	0.34344774
43	0xbe2576e6	-0.16158637
44	0x3e890af6	0.26766175
45	0x3e459d1c	0.19298214
46	0xbe5ae4e8	-0.21376383
47	0x3eaab7d2	0.3334337
48	0x3e007fcc	0.1254875
49	0xbe790144	-0.24316889
50	0x3e8e3f25	0.2778255
51	0xbe94919f	-0.2901735
52	0x3d06a3ce	0.03287106
53	0x3e10a777	0.14126383
54	0x3e29abfa	0.1656951
55	0xbea94627	-0.33061334
56	0x3ea8990d	0.32929268
57	0x3e9a1f09	0.30101803
58	0x3e60ec99	0.21965255
59	0x3e12ff23	0.1435514
60	0xbe55e237	-0.20887075
61	0x3e7f267f	0.24917029
62	0x3d418a46	0.04725101
63	0xbd9b5555	-0.07584635
64	0xbdfcd8f0	-0.12346065
65	0x3d42e0ae	0.047577552
66	0xbdcee08c	-0.10101423
67	0xbe920496	-0.28519124
68	0xbe50f9d7	-0.20407806
69	0xbe171ebb	-0.14757816
70	0xbd7ed254	-0.062212303
71	0xbe424482	-0.18971446
72	0xbdca13f6	-0.098670885
73	0xbe77f4ba	-0.2421445
74	0xbe88e968	-0.26740575
75	0x3e415ddb	0.1888346
76	0xbdaaba89	-0.0833636
77	0xbe0cff41	-0.13769247
78	0xbcededad	-0.029043997
79	0x3cf9eacb	0.030507466
80	0xbe7df840	-0.24801731
81	0x3e30a6da	0.17251149
82	0x3e29530f	0.1653559
83	0x3e390c64	0.18071133
84	0xbe74e6e5	-0.23916204
85	0x3eafa6f8	0.34307075
86	0x3e5d8877	0.21634088
87	0x3e0634ca	0.13106075
88	0x3e348ed5	0.17632611
89	0xbe44cbe1	-0.19218399
90	0x3dd40cb7	0.10353988
91	0x3e957f2f	0.29198596
92	0x3dfc232e	0.123113975
93	0x3b5f5f0b	0.003408375
94	0xbeb42602	-0.35185248
95	0xbddb8472	-0.10718621
96	0xbe6665b0	-0.22499728
97	0x3e9d1f38	0.3068788
98	0xbd5cbcad	-0.053890873
99	0xbdbafc47	-0.09130149
100	0xbeb8787f	-0.3602943
101	0xbe99b028	-0.3001721
102	0xbe11da00	-0.14243317
103	0x3e1d0993	0.15335684
104	0xbd718a40	-0.058969736
105	0x3e32cc1f	0.17460679
106	0x3eac73e6	0.33682173
107	0xbe537434	-0.20649797
108	0x3dc2f59c	0.095195025
109	0x3d228219	0.039674852
110	0xbe978903	-0.2959672
111	0xbd576ee1	-0.052595977
112	0x3d8326e8	0.06403905
113	0xbe120a70	-0.14261794
114	0xbe8168d2	-0.25275284
115	0x3e970da7	0.29502603
116	0x3e0b83fd	0.13624568
117	0xbea5b47f	-0.3236427
118	0xbeb0c963	-0.34528646
119	0x3d90e48c	0.07074842
120	0xbe376d29	-0.17912735
121	0x3da65ed1	0.081235535
122	0x3e1fa095	0.15588601
123	0x3d628c34	0.05530949
124	0x3e6152d8	0.22004259
125	0x3e1a83be	0.15089318
126	0xbd25f9b8	-0.040521353
127	0x3da85f5c	0.08221313
128	0xbdc72c27	-0.09725218
129	0xbe4421df	-0.19153546
130	0xbebb7d6a	-0.3661912
131	0x3e19f941	0.15036489
132	0x3e97a3fd	0.296173
133	0xbdf949af	-0.12172257
134	0x3e55bc2d	0.20872565
135	0x3e92a50e	0.28641552
136	0x3d62e1b6	0.055391036
137	0x3e2c4efe	0.16827008
138	0xbb3e93d5	-0.0029079814
139	0x3e44f2f5	0.19233306
140	0x3e3a3dcb	0.18187635
141	0x3e669b04	0.22520071
142	0x3e9f9c3c	0.31173885
143	0xbe120e61	-0.14263298
144	0x3ddd5647	0.10807472
145	0x3e003303	0.1251946
146	0xbe8524c8	-0.26004624
147	0xbe9bd8b7	-0.30438778
148	0xbd8eb7b8	-0.06968635
149	0x3e341c91	0.17589022
150	0x3e944a4b	0.2896293
151	0xbdf79ee0	-0.1209085
152	0xbe2606c8	-0.16213524
153	0xbe9ca487	-0.30594274
154	0x3e4dd681	0.20101358
155	0xbe44c5e6	-0.19216117
156	0x3dd470e4	0.10373095
157	0x3e128a0a	0.1431047
158	0xbd49b8ca	-0.049248494
159	0x3eabefc1	0.33581355
160	0x3e7fa979	0.24966992
161	0xbd32d110	-0.04365641
162	0xbb2c496b	-0.0026288878
163	0x3e6539ba	0.22385302
164	0xbe591478	-0.21199214
165	0xbe92d2e9	-0.28676537
166	0x3e71b9e8	0.23606074
167	0xbe46b406	-0.19404611
168	0x3cffbcfe	0.031218048
169	0x3cbc7ebb	0.023009649
170	0x3e8a3f7e	0.27001566
171	0x3d51a9eb	0.051187437
172	0x3d18cf6d	0.03730719
173	0x3d93d628	0.072185814
174	0xbe1bb95b	-0.15207426
175	0xbeaf3516	-0.3422019
176	0x3e97e13e	0.29664034
177	0xbe8843af	-0.26614138
178	0xbe848af6	-0.2588727
179	0xbd9ade59	-0.07561941
180	0x3e6f3ea0	0.23363733
181	0xbe1af5a3	-0.15132765
182	0x3e881d96	0.26585072
183	0x3df8ea55	0.1215407
184	0x3e7685c5	0.24074467
185	0xbe0cda73	-0.13755207
186	0x3e2910eb	0.1651036
187	0x3daacf6a	0.08340342
188	0x3ea06b8e	0.31332058
189	0xbe2f59e8	-0.1712414
190	0x3ea05542	0.31315047
191	0xbe6fa2f7	-0.2340201
192	0xbe744c9b	-0.23857348
193	0x3eae2d86	0.34019107
194	0x3e49808e	0.19677946
195	0x3e5375ae	0.2065036
196	0xbe493a54	-0.19651157
197	0x3ea20e10	0.31651354
198	0xbdaa49e2	-0.08314873
199	0x3e961b68	0.29317784
200	0x3e642567	0.22279893
201	0xbea3675b	-0.3191479
202	0xbd8a4273	-0.067509554
203	0x3ebda912	0.37043053
204	0x3e57be13	0.21068601
205	0x3d5b7bee	0.053584985
206	0xbcae4d19	-0.021276997
207	0x3e19481b	0.14968912
208	0xbdd75a19	-0.10515232
209	0xbdc03a49	-0.09386117
210	0xbe65fffd	-0.22460933
211	0xbcac8bd1	-0.021062763
212	0xbe596e38	-0.21233451
213	0xbe5645d5	-0.20925076
214	0x3e6b0c7c	0.22953981
215	0x3e5d032c	0.21583241
216	0xbe23313c	-0.1593675
217	0xbd9abf70	-0.07556045
218	0xbe223356	-0.15839896
219	0x3e3e5b05	0.18589409
220	0xbe571274	-0.21003133
221	0xbe4e6517	-0.2015575
222	0x3e214c9a	0.15751877
223	0x3c729a59	0.014807307
224	0x3de36825	0.11103848
225	0xbd12843e	-0.035770647
226	0x3eba6d27	0.36411402
227	0xbd66da6b	-0.056360643
228	0x3e938de1	0.28819183
229	0x3d579e9a	0.05264149
230	0x3eaffa78	0.3437078
231	0xbe61491c	-0.22000545
232	0x3e52ee4c	0.20598716
233	0xbdf1b383	-0.11801817
234	0x3e58a742	0.21157554
235	0xbe8c9db6	-0.27464074
236	0x3e506892	0.2035239
237	0xbdba6890	-0.09101975
238	0xbe11ccef	-0.14238332
239	0xbdfa7f15	-0.1223127
240	0x3e819974	0.25312388
241	0xbd41237b	-0.047152977
242	0xbd79cfe7	-0.060989287
243	0x3ea676ae	0.3251242
244	0x3e820cd1	0.25400403
245	0x3c741af1	0.014899001
246	0xbdfeeabb	-0.12447115
247	0x3dbec17e	0.093142495
248	0xbd9db4b4	-0.07700482
249	0x3e9a5654	0.30143988
250	0x3e09d8e9	0.13461651
251	0x3e820fb9	0.2540262
252	0x3e505308	0.20344174
253	0xbdc38140	-0.09546137
254	0xbe8d5b60	-0.27608776
255	0xbe05dd5a	-0.1307272

actor.customer_encoder.0.attention.key_embed.weight f4 [32, 32]
0	0xbe16e7fb	-0.14736931
1	0x3d352a8a	0.04423002
2	0x3d93c345	0.07214979
3	0x3ec1da4a	0.37861854
4	0x3ea847ad	0.32867184
5	0xbea021ec	-0.3127588
6	0x3e1d404b	0.15356557
7	0xbe83c96b	-0.25739607
8	0xbe2f843d	-0.17140289
9	0x3e18022e	0.14844581
10	0xbe856d15	-0.26059785
11	0x3ea3f6d7	0.3202426
12	0x3dd834f1	0.10556973
13	0x3d65eb35	0.056132514
14	0x3e66c03f	0.22534274
15	0xbea2bdab	-0.3178533
16	0x3d854eaa	0.065091446
17	0x3ddcdea9	0.107846566
18	0xbe3e2bb5	-0.1857136
19	0xbe086385	-0.13319214
20	0x3deb09ef	0.11476504
21	0x3ea32bfb	0.31869492
22	0xbe0d0779	-0.13772382
23	0x3e5ae82c	0.21377629
24	0x3e398f1f	0.18121003
25	0xbe50786a	-0.20358434
26	0xbe88d5d2	-0.26725632
27	0xbd131dc0	-0.035917044
28	0x3e78556c	0.24251336
29	0xbe887593	-0.26652202
30	0xbe7589dc	-0.2397837
31	0x3e89d90b	0.26923403
32	0xbe4ea7b6	-0.20181164
33	0xbe74e05f	-0.23913716
34	0xbca760e2	-0.02043194
35	0x3ea71bad	0.32638302
36	0x3e7327bf	0.2374563
37	0x3e413f4d	0.18871804
38	0x3d636e03	0.055524837
39	0xbe4711e2	-0.19440416
40	0xbe957538	-0.29190993
41	0x3e3c511a	0.18390313
42	0x3ddc2fc0	0.10751295
43	0x3db3ec9e	0.087853655
44	0xbde75777	-0.112959795
45	0xbeb88edd	-0.36046496
46	0x3cd5e150	0.026108414
47	0xbd7693af	-0.060199436
48	0xbcb7a837	-0.022419078
49	0x3d41ea61	0.04734266
50	0xbe441a04	-0.19150549
51	0xbe536f2b	-0.20647876
52	0xbdabe6ae	-0.08393608
53	0x3e0788cd	0.13235779
54	0xbe6073cb	-0.21919172
55	0x3eaf3817	0.3422248
56	0xbeaf7a6b	-0.34273085
57	0xbe595615	-0.21224244
58	0x3dc96fd3	0.09835782
59	0xbeb2834c	-0.34865797
60	0xbe56297a	-0.2091426
61	0x3e29c49d	0.16578908
62	0xbe7e5bdb	-0.24839728
63	0x3defaa90	0.11702454
64	0xbe3ca75c	-0.18423218
65	0xbe261384	-0.16218382
66	0x3d5d2f3f	0.054000136
67	0x3d006048	0.03134182
68	0x3ea7a9d9	0.3274677
69	0x3d9283a6	0.07154016
70	0x3d81c201	0.063358314
71	0xbe409115	-0.18805344
72	0x3e97017c	0.2949332
73	0xbb9c170b	-0.004763489
74	0x3e53d13c	0.20685285
75	0xbe90ea58	-0.2830379
76	0x3e41a4c9	0.18910517
77	0x3e907ba9	0.28219345
78	0x3e63042b	0.22169559
79	0x3e931e1a	0.28733903
80	0xbe204b90	-0.15653825
81	0xbe7f9199	-0.24957885
82	0x3e0b690d	0.13614292
83	0x3e22a4d8	0.15883195
84	0xbe5604a4	-0.20900208
85	0xbde3f3f6	-0.11130516
86	0x37ddba41	2.6431984e-05
87	0xbc792798	-0.015207194
88	0x3e2d29b5	0.16910441
89	0x3e830157	0.2558696
90	0x3dcf2663	0.101147436
91	0xbe156156	-0.14587912
92	0xbe67cdaf	-0.22637056
93	0x3e9b7b5c	0.30367553
94	0x3d007696	0.031363092
95	0xbe35d60d	-0.17757435
96	0xbe86050b	-0.26175722
97	0xbe818299	-0.2529495
98	0x3ea6de8e	0.3259167
99	0xbe4bb14d	-0.19891854
100	0xbeb0fc89	-0.3456767
101	0xbe8d5c4a	-0.27609473
102	0xbe36c756	-0.17849478
103	0x3c5b234d	0.013375116
104	0xbe6aea0f	-0.22940849
105	0x3e24c3ae	0.16090271
106	0xbd8a2ba1	-0.06746603
107	0xbe13252d	-0.1436965
108	0xbe6fa906	-0.23404321
109	0xbdc4d329	-0.09610588
110	0x3ebcef39	0.36901262
111	0x3bdd4cac	0.0067535248
112	0x3dc05c88	0.09392649
113	0xbeb623af	-0.355741
114	0x3e4fd3e5	0.20295675
115	0x3d37c2aa	0.04486338
116	0xbd718227	-0.058962014
117	0x3c77e8cb	0.015131186
118	0xbe23be32	-0.15990523
119	0xbe9036ca	-0.281668
120	0xbe3ab8ba	-0.1823453
121	0x3dcfcc0e	0.10146342
122	0x3e989f90	0.29809237
123	0xbe80bf92	-0.25146157
124	0x3e30da6b	0.1727082
125	0xbe1aa066	-0.1510025
126	0x3e8bfa66	0.27339476
127	0x3d35f571	0.044423524
128	0xbea0671f	-0.31328675
129	0xbe915f5a	-0.2839306
130	0x3db5a02e	0.088684425
131	0x3e3a109c	0.18170398
132	0x3dd56a5f	0.10420679
133	0x3dd433f6	0.10361473
134	0xbd464430	-0.048404872
135	0xbe4fafc7	-0.20281897
136	0x3d179a4e	0.03701239
137	0xbe959f2c	-0.29223
138	0x3e36f7f4	0.17868024
139	0xbe04ffa3	-0.12988143
140	0xbe9cb46f	-0.3060641
141	0x3cfad708	0.030620113
142	0x3de49aa6	0.11162309
143	0xbe8c2dd7	-0.27378723
144	0xbe5ec6b1	-0.21755482
145	0xbd48b9d3	-0.04900534
146	0xbe0d10dc	-0.13775963
147	0x3e982612	0.29716545
148	0x3d88199d	0.0664551
149	0xbdeb9a88	-0.11504084
150	0xbe906b84	-0.28207028
151	0xbe7e36bf	-0.24825571
152	0x3e01f302	0.12690356
153	0xbd98d0cb	-0.07461699
154	0x3d500db0	0.050794303
155	0x3d8d6e52	0.069058076
156	0x3e770681	0.24123575
157	0xbc1f67f8	-0.009729378
158	0x3e1e9906	0.15488061
159	0xbea79bd6	-0.3273608
160	0x3e8234ff	0.25431058
161	0xbe9f2346	-0.310816
162	0xbddb180c	-0.10697946
163	0xbea9fabf	-0.33199117
164	0x3e3caa59	0.18424357
165	0xbdd7d02a	-0.10537751
166	0xbeb6e467	-0.35721132
167	0xbe36e828	-0.17861998
168	0x3e49b082	0.19696239
169	0x3e784902	0.242466
170	0x3e71d74c	0.23617285
171	0xbeaabe56	-0.3334834
172	0xbe237bd5	-0.15965207
173	0x3d89dc49	0.06731469
174	0xbb9d5bf1	-0.00480222
175	0xbe45c744	-0.19314295
176	0x3eb0050c	0.3437885
177	0xbe6c01b6	-0.23047528
178	0x3e678474	0.2260912
179	0x3e615897	0.2200645
180	0xbea20120	-0.31641483
181	0xbe6531a4	-0.22382218
182	0xbe6ec8b6	-0.23318753
183	0x3e8615c4	0.2618848
184	0xbea1f4d5	-0.31632105
185	0x3a87e8e1	0.0010369086
186	0xbddd3452	-0.10800995
187	0xbdb3fc13	-0.08788314
188	0xbe5124cb	-0.20424192
189	0xbe926dc7	-0.28599378
190	0xbe9bb136	-0.3040864
191	0xbcfcf920	-0.03088051
192	0x3c336c3d	0.010951099
193	0x3d91e4ee	0.07123743
194	0x3dc844b8	0.09778732
195	0xbe0a9f24	-0.1353727
196	0x3e4f30fa	0.20233527
197	0x3e4bb9c9	0.1989509
198	0xbe907a5d	-0.28218356
199	0x3eaa55c3	0.33268556
200	0xbc9fd218	-0.01950936
201	0xbb235cb0	-0.0024927072
202	0xbeafd069	-0.34338692
203	0x3e35314e	0.1769459
204	0x3e0db2da	0.13837758
205	0x3db66b84	0.08907226
206	0x3e3510c9	0.17682184
207	0xbea17419	-0.31533888
208	0x3eb17b43	0.34664354
209	0x3e675121	0.22589542
210	0xbdcc61e7	-0.09979611
211	0x3e3c9984	0.18417937
212	0xbe05bcfc	-0.13060373
213	0xbdd810f4	-0.105501086
214	0xbb85f148	-0.004087601
215	0x3e5e4d62	0.21709207
216	0x3e41663e	0.18886659
217	0xbe072e21	-0.1320119
218	0xbe99ddfb	-0.3005217
219	0xbc728d69	-0.014804223
220	0xbe1fc9db	-0.15604346
221	0xbc3f57a0	-0.011678606
222	0x3e304ead	0.17217512
223	0x3e73e875	0.23819144
224	0x3c651c80	0.013983846
225	0x3e26f732	0.16305235
226	0x3d6fa93c	0.058511004
227	0xbe3fabf0	-0.18717933
228	0x3e590ddc	0.21196693
229	0xbe7067a2	-0.23477033
230	0xbbeb20b8	-0.0071755312
231	0xbe2f73cd	-0.17134018
232	0x3c09a4f7	0.008401147
233	0x3e92bdd2	0.28660446
234	0x3df62cca	0.120202616
235	0xbd05edfb	-0.03269766
236	0xbe9dde43	-0.30833635
237	0xbe8ab180	-0.27088547
238	0xbdc0750e	-0.093973264
239	0xbe2e7256	-0.17035803
240	0x3d8c6961	0.06856037
241	0xbea73941	-0.3266087
242	0x3eb17730	0.34661245
243	0xbdacf112	-0.08444418
244	0x3e6deecb	0.23235624
245	0x3e77b402	0.24189761
246	0x3e950bec	0.29110658
247	0xbd3c1811	-0.04592139
248	0x3cca5fc9	0.024703877
249	0x3e3b0758	0.1826452
250	0xbe8c0c4f	-0.2735314
251	0xbcfe77fc	-0.031063072
252	0x3e04c416	0.12965426
253	0xbd038568	-0.032109648
254	0xbe850213	-0.25978145
255	0x3d55178c	0.05202441

actor.customer_encoder.0.attention.value_embed.weight f4 [32, 32]
0	0x3d7d70c2	0.061875112
1	0x3ea91f91	0.33031896
2	0x3de62b02	0.11238672
3	0x3e055d34	0.13023835
4	0xbeaae6a3	-0.33379087
5	0x3e118846	0.1421214
6	0x3e420994	0.18948966
7	0xbdde0401	-0.108406074
8	0xbe618b69	-0.22025837
9	0xbd2fcb0f	-0.04291826
10	0xbe9bb0be	-0.3040828
11	0x3ea68cf2	0.32529408
12	0xbe5b7c2f	-0.21434091
13	0x3ea2ec31	0.31820825
14	0xbeb39560	-0.35074902
15	0x3e66c988	0.22537816
16	0xbe17544b	-0.14778249
17	0xbe8b683d	-0.27227965
18	0x3dcba2f0	0.09943187
19	0x3ea6a9a7	0.3255131
20	0xbe2c9627	-0.16854154
21	0x3d4b49b0	0.04963082
22	0xbe6d1951	-0.23154189
23	0x3e6be740	0.23037434
24	0x3ea2f533	0.31827697
25	0xbdc5625c	-0.09637901
26	0x3ead6d2a	0.33872348
27	0x3e3b5e01	0.18297578
28	0x3d4370cc	0.047714993
29	0xbe1bc289	-0.15210928
30	0x3e79a31e	0.2437863
31	0x3c94fc47	0.018186701
32	0xbe191d0d	-0.14952488
33	0xbeb213df	-0.34780785
34	0xbeaf730c	-0.3426746
35	0x3eb4796e	0.35248893
36	0xbe3f53f3	-0.18684368
37	0xbe870cee	-0.26377052
38	0x3e658d58	0.224172
39	0xbdcf21c8	-0.10113865
40	0xbe86face	-0.26363224
41	0x3d922dae	0.07137619
42	0xbd560c93	-0.052258085
43	0x3e0badbd	0.13640495
44	0x3ea831c4	0.32850468
45	0xbdb647f1	-0.089004405
46	0x3e4e3054	0.20135623
47	0xbdca4f32	-0.098783866
48	0xbdeed8ce	-0.11662446
49	0x3df17c88	0.117913306
50	0xbda1d760	-0.07902408
51	0x3dc2850b	0.09498032
52	0x3da13ea4	0.07873276
53	0xbe90f7c1	-0.2831402
54	0xbda9b5e1	-0.08286644
55	0x3ea35633	0.31901702
56	0xbb0e443e	-0.0021708156
57	0x3eab9c32	0.33517605
58	0x3e88cd43	0.26719102
59	0xbdcb336a	-0.09921916
60	0xbe23bdcf	-0.15990375
61	0x3deedad1	0.1166283
62	0xbd6f2323	-0.05838312
63	0xbd3af097	-0.0456396
64	0xbcc5fe63	-0.024169153
65	0xbe69d0c1	-0.2283354
66	0x3e63e652	0.22255829
67	0xbe0d7887	-0.13815509
68	0xbe936dd0	-0.28794718
69	0xbe8d64b9	-0.27615908
70	0xbe66f661	-0.22554924
71	0x3d85895d	0.065203406
72	0xbeae4cef	-0.3404307
73	0x3e05bd15	0.1306041
74	0xbe5f067f	-0.21779822
75	0xbc2c58d0	-0.010519221
76	0xbdaf6389	-0.08563907
77	0xbdd8ed95	-0.1059219
78	0x3e699db8	0.22814071
79	0xbdf70643	-0.12061741
80	0x3df6c6dd	0.12049649
81	0x3e766ad1	0.24064185
82	0x3e32da47	0.17466079
83	0x3e1a090f	0.15042518
84	0xbd07c214	-0.03314407
85	0xbe3bd4f6	-0.18342957
86	0xbe85a72e	-0.2610411
87	0x3eabf1bd	0.3358287
88	0xbea43c96	-0.32077473
89	0xbdb0d52d	-0.0863441
90	0x3e995800	0.2994995
91	0xbd89a7e7	-0.06721478
92	0xbe98048b	-0.29690966
93	0x3eb23131	0.34803155
94	0xbdba72db	-0.09103938
95	0x3e173a92	0.14768437
96	0x3e24b061	0.16082908
97	0xbde69623	-0.11259105
98	0xbeaf68d4	-0.34259665
99	0xbd4e061f	-0.050298806
100	0xbe8fa9bd	-0.28059188
101	0xbe31e043	-0.17370705
102	0xbe98460d	-0.29740945
103	0x3e28d696	0.16488108
104	0xbe7ed9e1	-0.24887802
105	0x3e306d40	0.17229176
106	0x3e983ce1	0.29733947
107	0x3e3479e2	0.1762462
108	0x3e57136c	0.21003503
109	0x3d75f8be	0.060051672
110	0x3e724edd	0.23662896
111	0x3eaa32b4	0.33241808
112	0x3d9a6b28	0.0753997
113	0x3e19d7bf	0.15023707
114	0x3e642a0c	0.22281665
115	0xb92f5ccb	-0.00016723869
116	0x3e9b9bb9	0.30392244
117	0x3daf4db9	0.08559746
118	0xbe5cb9f6	-0.21555313
119	0xbe8976a3	-0.26848325
120	0x3db842ce	0.08997117
121	0xbe8f0ef6	-0.27941102
122	0xbea35977	-0.31904194
123	0x3ea834b4	0.3285271
124	0x3e88a221	0.26686195
125	0xbdc3c3a9	-0.095588036
126	0x3e347773	0.17623691
127	0x3df51174	0.119662195
128	0x3ea760d0	0.3269105
129	0x3ddcd710	0.107832074
130	0x3e278ceb	0.1636235
131	0xbe817443	-0.25284013
132	0x3def5437	0.116859846
133	0xbe8b7738	-0.27239394
134	0xbe8a489c	-0.27008522
135	0x3e474ec8	0.19463646
136	0xbe312d60	-0.17302465
137	0x3e8c3b4d	0.27388993
138	0xbdb6e24a	-0.0892988
139	0x3e3c2171	0.18372132
140	0x3ea8ae4c	0.32945478
141	0x3d3c2fb7	0.045943942
142	0x3ea46289	0.32106426
143	0xbe640dce	-0.22270891
144	0x3e400d36	0.1875504
145	0x3de391f9	0.111118264
146	0x3e89baff	0.2690048
147	0x3ea68487	0.32522985
148	0xbd967925	-0.07347325
149	0x3d9b79b7	0.07591575
150	0xbe36b6d1	-0.17843176
151	0x3e19a6ce	0.15005037
152	0xbab5dd53	-0.0013875164
153	0xbe26d45d	-0.16291948
154	0xbe480e71	-0.19536759
155	0x3db4900e	0.08816539
156	0x3ea12fd0	0.3148179
157	0xbea03bed	-0.3129572
158	0x3e69c275	0.22828086
159	0x3e7eb73e	0.24874589
160	0xbe9c83ae	-0.30569214
161	0x3e252ab5	0.16129573
162	0x3d001836	0.03127309
163	0x3e88cb60	0.26717663
164	0x3e990e5e	0.29893774
165	0x3e4b073e	0.19826981
166	0xbe0d8396	-0.13819727
167	0xbe9e31d0	-0.3089738
168	0x3e7cb977	0.24680124
169	0x3a495ee9	0.0007681684
170	0x3e1332fb	0.14374916
171	0x3de45b25	0.11150197
172	0x3d3ffdee	0.046873026
173	0x3e89008c	0.2675823
174	0xbdb53c31	-0.08849371
175	0x3e125ecb	0.14293973
176	0x3e280ceb	0.16411178
177	0xbe2465a8	-0.16054404
178	0x3e1b6a94	0.15177375
179	0x3ccdc12e	0.02511653
180	0xbeb3e747	-0.35137388
181	0x3e483e07	0.19554912
182	0xbe9ff932	-0.31244808
183	0x3e240195	0.16016228
184	0xbe26c231	-0.16285016
185	0xbe300b4c	-0.1719181
186	0x3e4affaa	0.1982409
187	0xbc71df0b	-0.01476265
188	0xbe843319	-0.25820234
189	0x3dfb0473	0.12256708
190	0xbe473dc4	-0.19457155
191	0xbea52bf9	-0.3226011
192	0x3e919f09	0.28441647
193	0xbe98b0c6	-0.29822367
194	0xbe1a43ef	-0.15064977
195	0xbe5a644b	-0.21327321
196	0x3e8a4d95	0.27012315
197	0xbd029567	-0.031880762
198	0xbe97331d	-0.29531184
199	0x3e5479e9	0.2074963
200	0x3e880042	0.26562697
201	0x3ddf0893	0.10890307
202	0xbd1ffe96	-0.03906115
203	0xbeae174e	-0.34002155
204	0xbd5e9501	-0.05434132
205	0x3e46a6b9	0.19399537
206	0xbe762424	-0.24037224
207	0xbeb25d7f	-0.34836957
208	0xbb23c67b	-0.002499013
209	0x3d67e827	0.056617882
210	0xbe0dd82d	-0.13851996
211	0xbe157e79	-0.14599027
212	0xbe8c65bb	-0.27421364
213	0xbd5b2de5	-0.053510565
214	0x3ea865cc	0.32890165
215	0x3e96c0d8	0.29444003
216	0x3d7144f0	0.058903635
217	0x3a9a65db	0.0011779623
218	0x3ea1b67a	0.3158453
219	0x3d580267	0.052736666
220	0xbd47d7e2	-0.048789866
221	0xbe808552	-0.25101715
222	0x3ea7351a	0.326577
223	0xbeacdbf6	-0.33761567
224	0xbdfd234f	-0.1236025
225	0x3d9e044c	0.07715663
226	0x3d30dc2e	0.04317873
227	0xbdec86a3	-0.115491174
228	0xbea89c8e	-0.32931942
229	0x3d107c01	0.03527451
230	0xbdae0e83	-0.08498862
231	0xbe7dc4fe	-0.24782178
232	0xbe609293	-0.21930914
233	0xbe30d340	-0.17268085
234	0xbea7789a	-0.327092
235	0x3e2fa9c5	0.17154606
236	0xbbabd1ee	-0.0052435314
237	0xbe9cb5b4	-0.30607378
238	0x3e37dea9	0.17956032
239	0x3e8a125b	0.2696713
240	0x3da16e26	0.07882337
241	0xbdf31489	-0.11869151
242	0xbde843bf	-0.113410465
243	0x3dea2291	0.11432374
244	0x3eaaf5fa	0.3339079
245	0x3d101b43	0.03518225
246	0xbe09e210	-0.13465142
247	0xbd4523a0	-0.048129678
248	0x3e0acbd4	0.13554317
249	0x3e9def10	0.30846453
250	0x3ead5f91	0.33861974
251	0x3eb47b39	0.3525026
252	0xbe783aa3	-0.24241118
253	0x3d708dee	0.058729105
254	0x3c9ad413	0.018899953
255	0x3d953933	0.072863005

actor.customer_encoder.0.attention.combine.weight f4 [32, 32]
0	0xbcfd0c22	-0.030889574
1	0xbe099af4	-0.13438016
2	0x3d9407b0	0.07228029
3	0x3dfc8180	0.12329388
4	0x3d2340e5	0.03985681
5	0x3c422879	0.01185047
6	0x3e17f3b3	0.14839058
7	0xbd8cfc96	-0.068841144
8	0xbc876012	-0.016525302
9	0x3d516bad	0.05112808
10	0xbdd5ba2c	-0.104359
11	0xbe142c09	-0.14469923
12	0xbd1718c0	-0.036888838
13	0x3dd3dc9b	0.103448115
14	0xbd9d7438	-0.076881826
15	0x3d7e75dc	0.06212412
16	0xbb5f542b	-0.0034077268
17	0x3e2ba7b7	0.16763197
18	0x3de970e2	0.11398484
19	0xbdb74f49	-0.08950669
20	0xbe384979	-0.17996778
21	0x3dbe33a8	0.092871964
22	0xbe3b5987	-0.1829587
23	0xbdfed416	-0.12442796
24	0x3e1fa2fc	0.15589517
25	0x3d174a42	0.036936052
26	0x3cb467e2	0.022022191
27	0xbe01d904	-0.12680441
28	0xbd00c43a	-0.031437136
29	0x3ca189c0	0.019719005
30	0x3dc3d3a9	0.09561855
31	0xbda61859	-0.08110113
32	0xbce71650	-0.028208882
33	0x3d0ea3dd	0.03482424
34	0xbe356bdf	-0.17716931
35	0xbd6a238f	-0.057162818
36	0xbe240740	-0.1601839
37	0xbd8c763a	-0.068584874
38	0xbdc7ddec	-0.09759125
39	0x3dae1dc3	0.0850177
40	0xbdf2feb6	-0.118649885
41	0xbe2ab924	-0.16672188
42	0xbcb02451	-0.021501692
43	0xbdadd23c	-0.08487365
44	0xbdbba397	-0.09162062
45	0xbd0c8d46	-0.034314416
46	0x3d94248d	0.07233534
47	0xbe1c94b7	-0.15291105
48	0xbdf8b53c	-0.12143943
49	0x3cd124ba	0.025530208
50	0x3dabfe02	0.083980575
51	0x3c5caa28	0.013468303
52	0x3e353e0d	0.17699452
53	0x3dabc9cb	0.08388098
54	0xbe006afd	-0.12540813
55	0x3dc1de89	0.09466273
56	0xbda29d22	-0.07940127
57	0x3e00e023	0.12585501
58	0xbd40bffd	-0.047058094
59	0x3e11894f	0.14212535
60	0xbcf02358	-0.029313728
61	0xbd2487b0	-0.040168464
62	0xbe0469ce	-0.12930986
63	0x3e3d72c3	0.1850081
64	0xbde332ff	-0.11093711
65	0xbda01bff	-0.0781784
66	0xbdb03628	-0.086040795
67	0xbe407df5	-0.18798049
68	0xbdae69fb	-0.08516308
69	0x3e2222f2	0.15833643
70	0x3de3c194	0.111209065
71	0x3d37811f	0.044800874
72	0xbd856bfe	-0.065147385
73	0x3c2f00bb	0.0106813265
74	0xbd44282f	-0.047889885
75	0xbe21be17	-0.1579517
76	0x3e099dc0	0.13439083
77	0x3dac84ad	0.084237434
78	0x3e1f4ee3	0.15557437
79	0xbe1b2165	-0.15149458
80	0x3d14f609	0.03636745
81	0x3db024d3	0.08600774
82	0xbc85a4c2	-0.016313914
83	0x3db8db64	0.090262204
84	0x3dcc044e	0.099617586
85	0xbdc7f48b	-0.0976344
86	0x3dfdd97b	0.12394997
87	0x3d34f085	0.04417469
88	0xbcfcec63	-0.030874437
89	0x3d8741c6	0.06604342
90	0x3e0a2d7f	0.13493918
91	0x3d40b433	0.04704685
92	0x3dbae253	0.09125199
93	0xbe08fc5c	-0.13377517
94	0xbdc1bb42	-0.09459545
95	0xbcebd24c	-0.0287868
96	0x3db97955	0.090563454
97	0x3dd93236	0.1060528
98	0xbd215554	-0.039388016
99	0xbd554a38	-0.052072734
100	0xbd156641	-0.03647447
101	0xbd63db09	-0.05562881
102	0x3e178a1a	0.14798775
103	0x3dccbcbe	0.09996937
104	0x3dc6519f	0.09683537
105	0xbd8c2d99	-0.068446346
106	0xbd6cdfad	-0.0578305
107	0xbe1d34b6	-0.15352139
108	0x3e1af26e	0.15131542
109	0xbd96e1fb	-0.07367321
110	0xbccb0343	-0.024781829
111	0xbdde81c6	-0.10864596
112	0x3d50cf17	0.050978746
113	0x3d9106c3	0.07081368
114	0xbe3c5cb3	-0.18394737
115	0x3e10bd98	0.14134824
116	0x3d657923	0.056023728
117	0x3dadbc35	0.08483163
118	0xbe0ec8d5	-0.13943799
119	0x3d8952d0	0.06705248
120	0x3e2e2bd3	0.17008905
121	0x3e0b983b	0.1363229
122	0xbdcf097a	-0.101092294
123	0x3cdcea9f	0.026967345
124	0xbdea1532	-0.11429824
125	0x3d52fc7f	0.05151033
126	0x3d8f1e37	0.06988185
127	0x3db89e65	0.09014586
128	0xbe10b5e3	-0.14131884
129	0x3db28dc1	0.08718444
130	0xbc6b19fa	-0.014349455
131	0xbdfbd623	-0.12296703
132	0xbd965462	-0.073403135
133	0x3e1eff5d	0.15527101
134	0xbe014b6e	-0.1262643
135	0x3de1b2db	0.11020442
136	0x3e289b92	0.16465595
137	0xbdedfda2	-0.11620642
138	0xbe200a5a	-0.15628949
139	0xbdfbffcd	-0.123046495
140	0x3b74b61b	0.0037339989
141	0xbe16ee16	-0.1473926
142	0x3e0b9aa9	0.13633217
143	0x3e1684bd	0.14699073
144	0xbc32da07	-0.01091624
145	0x3dcc6aba	0.09981294
146	0x3e0002c9	0.12501062
147	0x3d66f8b3	0.05638952
148	0xbd9ea433	-0.07746162
149	0x3bfe908f	0.0077686976
150	0x3e146dfc	0.1449508
151	0xbd6124ee	-0.05496686
152	0x3d045f37	0.032317366
153	0xbc84e2d0	-0.016221434
154	0xbd826a05	-0.06367878
155	0xbd268832	-0.04065723
156	0xbda8e96a	-0.08247645
157	0xbd2e9817	-0.042625513
158	0x3e2eca5f	0.17069386
159	0xbcf23371	-0.029565545
160	0xbcd5f8a6	-0.026119541
161	0x3e1e2b35	0.1544617
162	0x3d812da6	0.06307535
163	0xbe0c8eca	-0.13726345
164	0xbd51851d	-0.051152337
165	0xbd7c48a4	-0.061592713
166	0xbdb02cd1	-0.08602298
167	0xbe1586c1	-0.14602186
168	0x3da9be73	0.082882784
169	0x3e094d60	0.13408422
170	0xbe129339	-0.14313973
171	0x3e304fec	0.17217988
172	0x3db101d1	0.086429246
173	0x3e235c87	0.15953265
174	0xbe08a9e2	-0.13346055
175	0x3d6740df	0.05645835
176	0x3e031d86	0.12804231
177	0x3dca9875	0.0989236
178	0xbd4e3af0	-0.050349176
179	0x3dfb4f20	0.12270951
180	0x3dc95cc4	0.09832147
181	0xbdf2e4f5	-0.11860076
182	0x3dbb2bdb	0.09139224
183	0xbda92a72	-0.08260049
184	0x3e1402a2	0.1445413
185	0xbd6b2603	-0.057409298
186	0xbde350ff	-0.11099433
187	0x3da91654	0.08256212
188	0xbdbee8c4	-0.0932174
189	0xbd8fba6f	-0.07017981
190	0x3de1d91c	0.110277385
191	0x3e2e6527	0.17030774
192	0x3d666588	0.05624917
193	0x3e1f3f89	0.1555158
194	0x3d88c498	0.06678122
195	0xbcd4c6c6	-0.025973689
196	0xbd78870c	-0.060675666
197	0xbd3cefe0	-0.0461272
198	0x3a5c2963	0.0008398501
199	0xbc9e1f7a	-0.019302119
200	0x3cf1de47	0.029524935
201	0x3d2b5a01	0.04183388
202	0xbdf47f39	-0.11938328
203	0xbdd2111f	-0.10257172
204	0x3e1cf2bf	0.15326975
205	0xbda19e14	-0.07891479
206	0x3db1ff53	0.08691277
207	0x3e2e180f	0.17001365
208	0xbe1cc226	-0.15308437
209	0x3cca0ef4	0.024665333
210	0x3d2ef8eb	0.042717855
211	0xbdddefa8	-0.108367264
212	0xbd1c4aa9	-0.03815714
213	0xbdabcb58	-0.08388394
214	0xbe2f89ab	-0.1714236
215	0xbd52220d	-0.051302005
216	0x3e23280c	0.15933245
217	0x3e35af1e	0.17742583
218	0xbddd0a46	-0.10792975
219	0xbd4c1174	-0.049821332
220	0xbdb48034	-0.08813515
221	0x3de4bc76	0.111687586
222	0xbe1acca2	-0.15117124
223	0xbd6affdb	-0.05737291
224	0xbd708a53	-0.058725666
225	0xbda2d2be	-0.07950352
226	0x3e1dd356	0.1541265
227	0xbe183517	-0.14864002
228	0xbe02c6ad	-0.12771101
229	0xbe224bba	-0.158492
230	0xbdaada19	-0.0834238
231	0x3dae56b5	0.08512632
232	0x3d012f45	0.03153922
233	0xbc13ffa7	-0.00903312
234	0x3e10c16a	0.14136282
235	0x3df38bf6	0.1189193
236	0x3d1055b2	0.035237975
237	0x3d134637	0.035955634
238	0xbd7e106c	-0.06202738
239	0xbe2e8857	-0.17044197
240	0x3cd81452	0.026376877
241	0x3e2351f7	0.15949236
242	0x3e0c1870	0.13681197
243	0xbc73acee	-0.014872773
244	0xbc376587	-0.01119364
245	0x3e286202	0.16443637
246	0xbe3fa3b0	-0.18714786
247	0x3e10d5ff	0.14144133
248	0x3e256954	0.1615346
249	0x3dcb4d38	0.09926838
250	0x3dac505f	0.08413767
251	0x3bdb9030	0.006700538
252	0x3d5581c5	0.05212571
253	0xbdb92f8e	-0.090422735
254	0xbcce0858	-0.025150463
255	0xbdfd35e3	-0.12363794

actor.customer_encoder.0.BN1.weight f4 [32]
0	0x3f8022ff	1.001068
1	0x3f814fdf	1.01025
2	0x3f8137da	1.009517
3	0x3f7acf78	0.9797282
4	0x3f7e4d26	0.9933647
5	0x3f7f51c1	0.9973412
6	0x3f806768	1.0031557
7	0x3f825a63	1.0183834
8	0x3f7f35bb	0.9969136
9	0x3f7d2002	0.98876965
10	0x3f808e28	1.0043383
11	0x3f80b7ad	1.0056053
12	0x3f807fcc	1.0039
13	0x3f8171d2	1.011286
14	0x3f797a44	0.9745219
15	0x3f7f1e55	0.9965566
16	0x3f7f01ab	0.9961192
17	0x3f8110c6	1.0083244
18	0x3f82c5a7	1.0216569
19	0x3f809580	1.0045624
20	0x3f7dd1d9	0.9914833
21	0x3f7d73e3	0.99004954
22	0x3f7ea1c8	0.9946561
23	0x3f7f4cb9	0.99726444
24	0x3f80a712	1.0050986
25	0x3f801c10	1.0008564
26	0x3f7d19ee	0.9886769
27	0x3f80616f	1.0029734
28	0x3f7f39b0	0.996974
29	0x3f7e07e8	0.99230814
30	0x3f81fd04	1.0155339
31	0x3f8125e5	1.008969

actor.customer_encoder.0.BN1.bias f4 [32]
0	0xbc27eebc	-0.01024979
1	0xbc432539	-0.01191073
2	0xbc2dbd7d	-0.01060426
3	0x3b0050b7	0.001957936
4	0xbbfbfd96	-0.007690142
5	0xbb921f58	-0.004459303
6	0x3ba02d2b	0.004888197
7	0x3c9cd12d	0.019142712
8	0xbaec3fb7	-0.001802436
9	0xbc064552	-0.008195238
10	0xbcd477fe	-0.025936123
11	0x39eaf4db	0.0004481439
12	0xbc072504	-0.008248571
13	0x3c0eebab	0.00872318
14	0xbc4adcf3	-0.01238178
15	0x3ba689d9	0.0050823507
16	0x3c276c72	0.0102187265
17	0x3c4e53f1	0.012593255
18	0xbc1a1745	-0.009404962
19	0x3b3c6b4b	0.0028750475
20	0xbc413659	-0.011792743
21	0x3ae26e07	0.0017275222
22	0x3c70432d	0.014664453
23	0x3b3fd8fe	0.0029273625
24	0x3cc716b5	0.02430282
25	0xbb220f94	-0.0024728524
26	0xbc6ee380	-0.014580607
27	0xbc0180d1	-0.007904247
28	0xbc7a5e2f	-0.015281244
29	0x3b56a5de	0.0032752673
30	0x3c67b0b6	0.014141252
31	0xbae17ce3	-0.0017203357

actor.customer_encoder.0.BN1.running_mean f4 [32]
0	0x3f52a337	0.82280296
1	0xbeb68941	-0.3565159
2	0x3efa02f7	0.48830387
3	0x3f115757	0.56773895
4	0xbf3b15a3	-0.7307989
5	0x3ed8e210	0.42359972
6	0x3e4bf886	0.19919023
7	0x3e0b984f	0.1363232
8	0xbeb71077	-0.3575475
9	0x3eabeb47	0.3357794
10	0xbe7017ab	-0.23446529
11	0x3eb024c6	0.34403056
12	0xbf195a54	-0.59903455
13	0x3f8ea0bb	1.1142801
14	0x3f2e266d	0.68027383
15	0x3ecbf8e0	0.39838314
16	0xbdff77b8	-0.124740064
17	0xbed9ad5e	-0.4251508
18	0x3dd92099	0.10601921
19	0x3e128b3c	0.14310926
20	0xbebafbaa	-0.3652013
21	0xbf286ca4	-0.6579077
22	0xbf104665	-0.56357414
23	0xbf05641d	-0.52105886
24	0x3e381fc8	0.17980874
25	0x3db8833b	0.09009405
26	0x3e0aa1d9	0.13538302
27	0x3ed77a4d	0.42085496
28	0x3e0a8449	0.13527025
29	0xbdfd7adb	-0.123769484
30	0x3d9bd1d9	0.07608385
31	0xbc95aaf3	-0.018269992

actor.customer_encoder.0.BN1.running_var f4 [32]
0	0x3ca5525f	0.02018088
1	0x3b4170cc	0.0029516695
2	0x3d16cb6a	0.036815085
3	0x3c904311	0.017610105
4	0x3d0488b4	0.032356933
5	0x3cfbdeb7	0.030745847
6	0x3c6ce353	0.014458495
7	0x3b36d22f	0.0027896275
8	0x3c3199e2	0.010839911
9	0x3b4315e9	0.0029767698
10	0x3cd040ea	0.025421578
11	0x3c69d900	0.014272928
12	0x3caaa7dd	0.020831997
13	0x3d6fcf6e	0.05854743
14	0x3c41f8b5	0.0118390815
15	0x3c2eee43	0.010676923
16	0x3bbb30dc	0.0057126116
17	0x3c073904	0.00825334
18	0x3c346d8d	0.011012447
19	0x3be4655b	0.0069700903
20	0x3c0fd719	0.008779311
21	0x3d0a5aaa	0.03377787
22	0x3c47de37	0.012198976
23	0x3bc4811e	0.0059968373
24	0x3c7a2aad	0.015268964
25	0x3afb1528	0.0019156085
26	0x3c84a8ed	0.016193831
27	0x3c814f55	0.015784899
28	0x3d200284	0.0390649
29	0x3c863412	0.016382251
30	0x3b942f1e	0.0045222184
31	0x3c53f660	0.012937158
