output/282nodes_entropy0.01_0.4_0.85_2_230823/epoch85.pth (torch, 519145 bytes, 129 tensors)

critic.ff_layer1.weight f4 [32, 283]
000000 5a d7 0e 3e d0 3f cb 3d 88 0a e8 b9 11 55 15 3d
       0.13949338 0.09924281 -0.00044258335 0.03645808
000010 a0 7c 11 bc a6 46 d6 bb b1 c0 54 bc 53 74 05 3d
       -0.008879811 -0.0065391837 -0.012985394 0.03258164
000020 29 7c 27 3d d2 dd d6 bc 61 58 1b 3d 8e f8 1e 3c
       0.040889893 -0.026228819 0.03792608 0.009702815
000030 da c7 bd 3c 5b 22 d4 3c 27 b1 04 3d 58 42 cb 3b
       0.023166586 0.025895288 0.03239551 0.006202977
000040 a7 9d 0f 3d 25 17 13 3c 79 af 24 3c 35 0a dd 3c
       0.03506246 0.008977686 0.010051602 0.026982406
000050 67 a1 84 bc 2c a0 2d 3d 70 0e 1b bc 37 f0 7f 3d
       -0.016190244 0.04238908 -0.009463891 0.062484946
000060 20 00 67 bc 5e 4d f9 ba a0 17 f8 bc 2b f2 85 bc
       -0.014099151 -0.001902025 -0.030284703 -0.016350826
000070 82 c7 44 3b 41 7e 1c bc b7 84 80 3d a3 15 67 bc
       0.0030026142 -0.009551586 0.06275313 -0.01410428
000080 3c ab 82 3d 41 b0 d7 3c ce 92 cf bb b1 e5 48 3d
       0.063803166 0.026329162 -0.006334639 0.049047176
000090 bb 9d c2 3c ec 20 93 3d 0b 81 23 bc a7 3f 67 bc
       0.023756852 0.07184014 -0.009979497 -0.014114297
0000a0 ce 6c 38 3d 59 48 f2 bb 5f fb 8e 3b ba d7 29 3d
       0.04502564 -0.0073938784 0.004363462 0.0414655
0000b0 f6 af 25 3d ec 2d 91 3a 6e d1 bc 38 84 d7 7f bc
       0.040451013 0.0011076308 9.003548e-05 -0.015615348
0000c0 4f f6 6b 3c bb 81 ad bb e6 09 ae bc 93 5f 4b bc
       0.014401986 -0.005295006 -0.021244954 -0.012412923
0000d0 47 15 c3 3b 41 73 26 3d 93 57 f7 3b a3 35 c9 3c
       0.005953464 0.04063726 0.0075482815 0.024561709
0000e0 92 45 10 bc 9a e6 99 3c 41 c4 ab 3d 4b 26 da bc
       -0.008805649 0.018786717 0.08387042 -0.026629588
0000f0 d8 01 57 3d 39 0d ad bc df 94 0a 3d 2f 9f d2 bc
       0.052491993 -0.02112447 0.03383338 -0.02571067
000100 50 7f e3 bb 43 4c 71 3b 05 22 be 3c 8f fd a5 bb
       -0.006942667 0.0036819137 0.023209581 -0.005065627
000110 c4 04 38 3a b2 a5 c5 bb 07 eb 08 3e fc 93 9c bb
       0.0007019753 -0.0060317153 0.13370906 -0.0047783833
000120 8e 71 8d 3d ed 6c 00 bc d1 e8 c3 bc 07 c4 43 bc
       0.069064245 -0.00783847 -0.023914726 -0.011948592
000130 df 54 8f 3c 3c 27 58 3c a5 06 d2 3c 95 c2 dd 3d
       0.017496524 0.013192948 0.025637934 0.10828129
000140 da da 1b bd 5f a6 0e bc 75 f6 d0 3b 6b fb 45 bd
       -0.03805051 -0.008706658 0.006377036 -0.048335474
000150 c3 e3 3d 3d f9 b7 87 3c 36 2c 0b 3d d2 5b 07 bc
       0.04635979 0.016567217 0.03397771 -0.008261638
000160 15 7f 56 3c 72 13 4e 3c 78 c0 18 3a 02 2e 6b 3c
       0.013091822 0.012577878 0.000582702 0.014354231
000170 c6 69 20 3d 71 4a 1a 3d 53 f7 28 bc 7b 11 83 bc
       0.039163373 0.03766865 -0.010312873 -0.015999546
000180 86 54 74 3d 82 60 56 bb 1c f5 c5 bc 8d d4 21 3c
       0.05965092 -0.0032711332 -0.024164729 0.009877336
000190 1c 76 97 bc 1c 67 a4 bc 8e ee af bc c4 fa 1b bd
       -0.018488936 -0.020068698 -0.021476056 -0.038080946
0001a0 42 78 1b 3c 85 2f a4 bc a3 16 2f bc 06 c9 e8 bb
       0.009489121 -0.02004219 -0.010686549 -0.007104042
0001b0 14 f3 1b bd ba 7e ca bb 3d 5d 4b 3d 12 1a a7 b9
       -0.038073614 -0.0061796578 0.049649466 -0.00031872146
0001c0 9f 6b 2f 3d f0 f7 92 bc 48 1a aa bb 50 9c 9b bc
       0.042827245 -0.017940491 -0.0051911213 -0.018995434
0001d0 14 aa 8f 3c 65 73 23 bc 80 57 99 bc 06 8f 61 bc
       0.017537154 -0.009976243 -0.018718481 -0.01376701
0001e0 14 51 ae bb e1 96 0a 3d 79 18 5f bc 55 c2 98 ba
       -0.005319724 0.033835296 -0.013616675 -0.0011654595
0001f0 b3 ac 39 bc 60 39 93 bc 7f dd ac bb cb 17 2f 3a
       -0.011332679 -0.017971694 -0.005275428 0.00066792656
000200 88 ab 2a 3d ff d6 22 39 48 41 f2 3c d5 04 8f 3c
       0.04166749 0.00015529616 0.029572144 0.017458359
000210 48 16 14 bd fd b0 d5 3c e9 44 90 3b f1 73 19 bb
       -0.03615406 0.026085371 0.004402746 -0.0023415054
000220 0d f9 26 bd f9 dc d5 bc 9c 63 83 3c 1a 06 dc bc
       -0.040764857 -0.026106345 0.016038708 -0.026858378
000230 dd 50 55 37 16 21 6a b9 88 71 79 3d 26 2e 9d 3c
       1.2714617e-05 -0.00022328304 0.060899287 0.019187044
000240 89 e8 99 bc 40 76 32 3c af 1b 0e 3d 1a 62 59 3d
       -0.01878764 0.010892451 0.03469437 0.053072073
000250 36 46 78 3c 2c de 02 bd 8a e1 d3 bb 21 2a cc bc
       0.015153458 -0.03195016 -0.0064660953 -0.024922432
000260 35 0a aa 3c 6b 1c 3b ba 6b cb e4 3d 83 84 00 bd
       0.02075682 -0.00071377185 0.111716114 -0.031376373
000270 57 5f 1e bb 65 ea 2f bc 69 ab 09 3c 21 b8 de bb
       -0.0024165714 -0.010737036 0.008402684 -0.006796852
000280 22 58 a0 3d 35 2d 28 bd c6 95 53 3c 7c 3d 81 bc
       0.0782931 -0.041058738 0.012914127 -0.015776388
000290 2d 2a 61 3d 18 34 1a 3d 61 47 a6 bb 15 23 97 3d
       0.054971863 0.037647337 -0.005074427 0.07379738
0002a0 1a e3 2b bc 97 50 b5 bc 7e b8 a5 bc d8 46 a7 bc
       -0.010491157 -0.022133155 -0.020229574 -0.020419523
0002b0 15 4a 8b 3d 2f fb 0d bc a5 ad 55 bd e2 0c 81 3c
       0.068012394 -0.008665844 -0.052167553 0.015753213
0002c0 53 e8 0e 3c d8 1e f1 3c 47 4d 6a 3d e0 70 2d 3b
       0.008722383 0.029433653 0.057202604 0.0026464984
0002d0 64 fa 89 bb 22 72 43 3d 7c 18 91 bc df 0d 31 bb
       -0.004210757 0.047716267 -0.01771187 -0.0027016324
0002e0 24 f1 02 3b db a1 9c 3c 1d 30 25 bc 32 d5 f1 3c
       0.0019980157 0.019120147 -0.010082272 0.029520605
0002f0 55 68 45 bc 1a aa 45 bc df a0 42 bb 5c 58 0f bd
       -0.0120488005 -0.012064481 -0.0029697937 -0.034996375
000300 28 46 67 3d 74 05 27 3c 1b e7 dd 3b 14 69 24 3b
       0.05646339 0.010194171 0.0067719347 0.0025087046
000310 a7 84 5f 3d db f1 bb bc 86 cb 4d bc 7e 77 3c 3c
       0.054569867 -0.022942474 -0.012560731 0.0115030985
000320 09 0a 3b bc b3 2f 29 bc 40 2a 8a 3d 67 f3 39 3d
       -0.011415967 -0.010326314 0.0674634 0.045398142
000330 fc 08 3f bc 8f 49 db bc ff dd 39 bb 4e f7 c0 bc
       -0.011659857 -0.026768474 -0.002836108 -0.023555424
000340 92 a9 13 ba 0a d1 8a 3d a1 6a 45 3d 48 5b 5a 3d
       -0.0005632873 0.06778152 0.048197392 0.05330971
000350 75 0d 4c bc 23 f0 03 bd 9f b7 e0 bb 87 ff 03 3d
       -0.01245438 -0.032211434 -0.006857827 0.03222611
000360 1a b2 a8 3b e2 58 2a 3c 6d c2 d8 3c fc 82 3d 39
       0.0051481845 0.010397168 0.026459897 0.0001807324
000370 db 4b 66 bc ef a8 c3 3d 04 61 a1 3b 74 ad ce bc
       -0.014056171 0.09553706 0.0049248952 -0.025229193
000380 d1 cd 84 bc a9 39 82 3d 10 ae 5b 3d 19 3d 06 3c
       -0.016211422 0.06358654 0.053632796 0.008193278
000390 9a c9 97 bc 60 64 c4 bb 51 94 64 bc f6 69 80 3d
       -0.018528748 -0.005993411 -0.013951377 0.062702104
0003a0 85 d5 a0 3b 99 59 4e 3d be 83 53 3b 94 3d d7 3b
       0.004908266 0.050378416 0.003227457 0.00656862
0003b0 0a 7e 53 bc 65 18 a4 ba 8a f4 14 bd a1 65 27 3c
       -0.012908468 -0.0012519477 -0.036366023 0.010217101
0003c0 c3 99 0f 3d 17 58 92 bc 5f f8 16 3c 5a 09 73 bc
       0.035058748 -0.01786427 0.00921449 -0.014833773
0003d0 97 84 77 b9 c9 b6 67 bc a4 c3 1b bd 40 d9 08 bb
       -0.00023605149 -0.0141427005 -0.038028374 -0.0020881444
0003e0 63 2e 84 bc ff 3e af 3d 54 69 0d 3d 92 2d b9 bc
       -0.0161354 0.085569374 0.034524277 -0.022604737
0003f0 ec f8 b7 bc cb 0b 38 3b 41 2d fd 3a f1 68 5f bc
       -0.022457562 0.00280832 0.0019315855 -0.01363586

critic.ff_layer2.weight f4 [283, 32]
000000 dd 63 cc bd f3 f0 db 3e a9 98 cf 3c 4d 9b 6a be
       -0.09979985 0.42957267 0.025341349 -0.22910805
000010 97 f4 55 3e f5 88 fb bd e9 5c 52 3e 97 94 a5 bc
       0.20894085 -0.12281982 0.20543255 -0.020212455
000020 cc 21 39 be 4e ee b6 3d 3b 15 b6 bd e3 9c fd 3d
       -0.18079299 0.08932172 -0.08890768 0.123834394
000030 14 4d 45 be e1 2a 34 be b2 5c 98 3c 17 5f 08 3f
       -0.19267684 -0.17594482 0.018598888 0.53270096
000040 d3 79 ef bd ae fb 16 be f6 f0 85 3e 96 ca 92 3e
       -0.11693158 -0.14744446 0.261604 0.28670186
000050 ce f2 01 3f 89 47 05 be 7c 04 2d bd 08 d5 26 be
       0.50761116 -0.1301557 -0.042240605 -0.16292202
000060 24 8c f0 3e 3e c4 61 3e f9 c8 2a 3e df fe 55 be
       0.4698192 0.22047517 0.16678227 -0.20898007
000070 d4 10 21 3e 98 9f 30 3e 0b 4b 6d 3e e3 bf d0 3e
       0.15729076 0.1724838 0.23173158 0.40771398
000080 b1 3f f4 bd f7 f9 d0 bd 6a b4 0f 3e 44 b4 46 3d
       -0.11926211 -0.10203927 0.14033666 0.04851176
000090 60 c2 1b bd 3e bd 71 bd 14 9c 26 be 9f a5 6a be
       -0.038027167 -0.059018366 -0.16270477 -0.22914742
0000a0 54 03 03 be 10 ef fd bd b3 be b9 bc 8d 84 4c be
       -0.12794238 -0.12399113 -0.02267394 -0.19972439
0000b0 91 d5 a7 3d 87 09 22 be f7 5d d9 bd 2e fa 9c bd
       0.081950314 -0.15823947 -0.106136255 -0.076649055
0000c0 03 6a de bd 5b 09 6e 3d d3 2c 26 3d 66 b0 d9 3d
       -0.10860064 0.05811439 0.04057009 0.106293485
0000d0 75 90 02 bd 44 aa d9 3c af 6d 22 bd bf 46 7d 3d
       -0.031876046 0.026570447 -0.039655384 0.061835047
0000e0 d5 93 3d 3d 3c ac 0b 3d 4e e3 29 3e fb 7d 55 3d
       0.04628356 0.034099802 0.16590616 0.052122097
0000f0 d0 db 80 bd ee 53 fc 3d 90 a8 ca bd 4e 04 75 bd
       -0.06291926 0.12320696 -0.09895432 -0.05981856
000100 ee 74 9f bd 1a 6d a9 bc 5d 83 33 3d f5 00 2c be
       -0.077859744 -0.020681906 0.04382645 -0.1679724
000110 cb a2 0d be 1e 48 09 bd 14 1e 44 3c 50 df 14 3e
       -0.13831632 -0.033516042 0.011970062 0.14538312
000120 51 d6 0c be 54 12 32 3d 2d 63 8f 3d 79 a6 0a be
       -0.1375363 0.04347451 0.07001338 -0.13540067
000130 7c 78 10 3d 3d f6 3f bd 22 b6 d8 3c 43 d6 e5 bc
       0.035271153 -0.04686569 0.026454035 -0.02805627
000140 76 e4 d8 bd 38 4f 99 bd e3 22 0c 3e e5 38 8b ba
       -0.105904505 -0.07485813 0.13685183 -0.0010621814
000150 5b c7 53 bd 02 4d 17 3d c1 f0 03 3e de 45 c3 bd
       -0.051703792 0.036938675 0.12884809 -0.095348105
000160 be 23 7a bd bf ff 8d bd fa 24 a4 bd 85 9c 0a bd
       -0.061069243 -0.06933545 -0.08014865 -0.033840675
000170 b2 af 84 bc 0c cb 7d bd c0 ae 56 bd b8 0f eb bd
       -0.01619706 -0.06196122 -0.05241275 -0.114776075
000180 8a 82 11 be ec b2 05 bd f9 d0 a6 3d 2d c7 87 3d
       -0.14209953 -0.032641336 0.08145327 0.06629787
000190 1c 35 0b 3e ba 0c 76 3d 18 85 00 be 0b 7e 49 bd
       0.13594478 0.06007073 -0.12550771 -0.04919247
0001a0 ee e2 01 be 02 65 1d 3d b1 ee 45 bc 7c be 25 3d
       -0.12684223 0.038426407 -0.012080834 0.040464863
0001b0 b9 ba 12 be af 07 9a 3d 18 52 0e be 85 52 32 bd
       -0.14329042 0.07520997 -0.13898504 -0.043535728
0001c0 a6 f3 22 be f5 87 3a 3d b7 e4 f3 bd 61 18 38 be
       -0.15913257 0.045539815 -0.11908858 -0.1797805
0001d0 4a e9 08 bd 01 33 ce 3d d1 d5 3c bd 52 b6 17 3d
       -0.033425607 0.10068322 -0.04610235 0.03703911
0001e0 d2 1b d0 3a a1 08 36 be 48 b4 70 3d 40 4f d1 3c
       0.0015877432 -0.17776729 0.05876568 0.025550485
0001f0 cd 80 0a be 60 ac 67 3d a0 d8 0b 3e be 1b e6 3d
       -0.13525696 0.056560874 0.13656855 0.1123576
000200 25 47 1b be 74 19 ce 3c 35 21 11 3e 17 92 13 bb
       -0.15163858 0.025158621 0.14172824 -0.0022517496
000210 18 81 b2 bd e8 e7 5a 3d 56 8a 4b be 40 e5 c1 bd
       -0.08716029 0.05344382 -0.1987699 -0.09467554
000220 bf 55 e4 bc 97 38 cb 3d dd 01 8b bd c3 8c c9 3d
       -0.027872918 0.09922903 -0.06787465 0.09841301
000230 be da 80 3c 3e d5 23 ba cb 42 89 3d 2e f3 82 bc
       0.015729304 -0.0006249732 0.06702193 -0.015985098
000240 61 c7 77 3d a4 7e 57 3d 67 c8 94 bd 65 86 80 3d
       0.060492877 0.05261101 -0.07264786 0.06275634
000250 ab 1c 0b bd bf d2 ef bd 62 20 c4 3c 14 6a 8c 3c
       -0.033962887 -0.117101185 0.023941223 0.017140426
000260 b1 eb f8 bd 2f 80 7c 3d 10 23 ae 3d 34 6c d5 3c
       -0.121543296 0.061645683 0.085027814 0.026052572
000270 00 a2 1f bd a9 f9 b3 3c 42 75 1e 3d be 4a 36 bd
       -0.038972855 0.021969633 0.038686045 -0.044504873
000280 89 55 c9 3c 16 2e c7 bd 99 73 87 bc 7b 7c e6 bc
       0.02457692 -0.09725587 -0.016534613 -0.028135529
000290 a1 3b 8d 3d 47 eb 2c 3d 25 93 f6 3d fe ce ff bd
       0.06896139 0.042216565 0.12039784 -0.124906525
0002a0 18 21 55 bd de a3 dc bc b0 6e e9 3d a3 ef ff 3d
       -0.052033514 -0.026933607 0.11398065 0.12496879
0002b0 d0 f8 61 3d 16 2c d8 bd 6e 7c e9 bd 4b 99 92 bc
       0.055168927 -0.10555284 -0.11400686 -0.017895361
0002c0 54 0f 4e be c9 51 a9 bd 46 21 48 bd 00 ab 3b 3d
       -0.20123035 -0.082675524 -0.048859857 0.045817375
0002d0 55 ad 94 bd ae 42 23 be f9 43 88 3d ff 4c 13 be
       -0.07259623 -0.15943405 0.0665359 -0.1438484
0002e0 e1 ae 1d bc ad c1 e9 3d bf 31 45 3d 73 f2 09 be
       -0.009624214 0.11413894 0.048143145 -0.13471393
0002f0 de d2 98 bc 77 74 0f bd bc 3d 86 3d a6 ff cc 3d
       -0.018655237 -0.03502318 0.06554744 0.100096986
000300 6d 4e d6 3d 9c 35 23 bd 60 34 c1 3d a6 33 0f be
       0.10464177 -0.039846048 0.09433818 -0.13984546
000310 97 ad dc 3d 10 f9 90 3d 3b f9 23 be 28 1d 44 bd
       0.10775297 0.07078755 -0.16013043 -0.047879368
000320 c4 d6 80 bd 29 23 81 bd ff 98 85 bc bf 3e 8b bd
       -0.06290963 -0.063055344 -0.016308306 -0.06799077
000330 ca 11 82 3d 33 26 8d bd d1 d6 00 3e 64 37 95 bc
       0.06351049 -0.068920515 0.12581946 -0.018214889
000340 e4 6a a2 bd 9d 99 9f bc bf ff 53 3d 5e 7e c2 bd
       -0.07930544 -0.019482428 0.05175757 -0.09496759
000350 6e c5 33 bd 1a a3 0a be 12 f7 c9 3d c9 71 11 bb
       -0.043889455 -0.13538781 0.09861578 -0.0022193065
000360 78 4f 0c bd d9 cd 7f 3d d9 a4 b7 3b f8 31 aa bd
       -0.034255475 0.06245217 0.005604368 -0.08310312
000370 a8 f4 38 bd 45 59 eb bb 06 ac 0e 3e 8c d2 b5 bd
       -0.045155197 -0.0071822726 0.13932809 -0.08878049
000380 ad 63 1b be d7 30 22 be 87 20 00 be f3 92 89 bd
       -0.15174742 -0.15838943 -0.12512408 -0.067174815
000390 ec b5 7d 3d ff 5c f3 3c 22 85 c0 3c 0e 01 99 3b
       0.061941072 0.02970743 0.023500983 0.004669315
0003a0 62 89 53 bc 33 b9 0e be 56 8e ee 3d 35 10 f7 3d
       -0.012911173 -0.13937835 0.11648242 0.12063638
0003b0 45 c6 80 3a 6f 80 89 3b 06 cb d2 bb 0e 46 d6 bc
       0.0009824714 0.0041962187 -0.0064328937 -0.026156452
0003c0 79 d3 5e bc e3 b0 8e 3c 61 7c c9 bd fe d8 4c bc
       -0.013600224 0.01741833 -0.098381765 -0.012502907
0003d0 a8 a9 dc bc 7a 24 02 be 5e 79 3e 3d a6 9a 71 3d
       -0.026936367 -0.12709227 0.046502464 0.058985375
0003e0 10 6a 43 bc 74 60 35 3d 9c 64 70 bd b3 ce 9c 3c
       -0.011927143 0.044281438 -0.0586897 0.01914153
0003f0 ff e5 1a be 30 76 16 3d 58 09 01 be ad 41 d0 bd
       -0.15126799 0.036733806 -0.1260122 -0.10168777

actor.customer_encoder.0.attention.query_embed.weight f4 [32, 32]
000000 ba 47 be 3e 46 a6 ae 3c a0 1e 35 3e f4 9b ba 3e
       0.37164098 0.02131952 0.17687464 0.36447108
000010 8c 8a bf be 75 2d 9d bd 41 e2 2e be 9e bc 5d be
       -0.3741039 -0.07674686 -0.17078497 -0.21653983
000020 e1 ad 52 3e 80 e1 2f 3e e4 07 9e 3e 7d 74 d4 3e
       0.20574142 0.17175865 0.30865395 0.41495124
000030 6d c2 7f be 63 67 a7 3d 54 93 1a 3e 4e 81 98 bd
       -0.24976511 0.08174016 0.15095264 -0.07446538
000040 10 eb 6d 3e f9 1c a6 3e e7 30 d4 be 5e 0f 06 be
       0.232342 0.3244398 -0.4144356 -0.130918
000050 eb fa 04 3e 5e a6 9a be e1 5c 0c be 92 59 1f 3e
       0.12986343 -0.30205053 -0.13707305 0.15561512
000060 f4 71 01 3e 34 69 4d be 17 11 8e bc 49 17 9c 3d
       0.12641126 -0.20059663 -0.017342133 0.07621629
000070 88 a0 d5 3e 21 e0 83 be 6a f8 44 3d 5e 9e 05 be
       0.41724038 -0.25756934 0.04808847 -0.13048694
000080 ab e4 c4 3e 6e ad 89 3e 36 de 7f bc 6e 2c 0b be
       0.3845571 0.2689013 -0.015616944 -0.13591167
000090 55 e1 a1 3e f5 74 8b bc 20 f0 bd bd c9 54 93 3e
       0.31617227 -0.017023543 -0.09274316 0.28775623
0000a0 d2 98 b0 3d b9 68 68 3c 0e 7f ae 3e 4d 3a 0d be
       0.08622898 0.014185124 0.3408131 -0.13791771
0000b0 2d 4b 7f 3e 8f 05 5c 3e 95 e6 50 be 76 1a a9 3e
       0.24931021 0.21486495 -0.2040046 0.33028
0000c0 79 4a 06 3e 53 e4 80 be ba 57 77 3e 01 e9 a4 be
       0.13114347 -0.25174198 0.24154559 -0.32209018
0000d0 f0 39 a3 b9 b5 85 0b 3e c9 c7 1a 3e a2 7c ad be
       -0.0003113295 0.13625224 0.15115274 -0.3388415
0000e0 1b 74 ab 3e d0 2a 9b 3e 4b 6d 6d 3e fe b6 21 3e
       0.3348702 0.303061 0.23186223 0.15792462
0000f0 30 99 3d be d3 38 80 3e 8a 0f 8a 3d c4 bf a3 bd
       -0.18515468 0.25043353 0.06741245 -0.07995561
000100 8b 57 25 be 71 b0 b4 3d ef 97 06 be 20 b0 a7 be
       -0.16146676 0.08822716 -0.13143896 -0.3275156
000110 f7 b4 33 be 5e b6 24 be 2b ba 1b bd 7d 7a 4d be
       -0.17549501 -0.16085193 -0.03801934 -0.20066257
000120 c4 b9 b0 bd 67 f2 55 be 3b 9e 8d be a8 58 1d 3e
       -0.08629182 -0.2089325 -0.27659783 0.15365851
000130 0f df 29 bd 4d d3 32 be 45 36 86 bd df 40 ad 3c
       -0.04147249 -0.17463417 -0.0655332 0.021149097
000140 ab 3c 8c be f6 82 4e 3e 34 37 46 3e ea 73 57 3e
       -0.27390036 0.20167145 0.19356996 0.21040311
000150 f7 7b 4c be f1 09 b8 3e 42 af 7b 3e 2c ce 23 3e
       -0.19969164 0.35945085 0.24578574 0.15996617
000160 14 a1 2a 3e d0 b7 43 be 74 0e 85 3d cc 17 86 3e
       0.16663009 -0.19113088 0.06496897 0.2619003
000170 15 ab b4 3d d2 cc 71 3b 47 97 c1 be 51 19 b5 bd
       0.08821694 0.0036895764 -0.37810728 -0.08842719
000180 16 c0 50 be 62 a7 8c 3e d7 d4 de bc a3 3b 8b bd
       -0.20385775 0.27471453 -0.0272011 -0.06798484
000190 eb b1 c3 be 70 b9 90 be b2 39 1e be a8 53 22 3e
       -0.38221678 -0.28266478 -0.15451697 0.15852225
0001a0 a4 ac 82 bd 0c 47 1c 3e a2 66 b6 3e 24 66 3a be
       -0.06380585 0.15261477 0.35625178 -0.18203026
0001b0 df ed 8c 3d d0 28 83 3d 41 22 8c be 16 46 00 bd
       0.06881308 0.06404269 -0.27369884 -0.03131684
0001c0 df 53 aa 3d 40 b4 25 be ae e9 8f be 0e 3f 89 3e
       0.083167784 -0.16182041 -0.2810797 0.2680592
0001d0 f8 4c d5 3d 7b dd ad be 66 1b bd be 20 db 22 3d
       0.10415071 -0.3395804 -0.36934966 0.039759755
0001e0 6e 7a 2e be 0b 52 9c 3d 7a fb 3c 3e 3e b2 ac 3d
       -0.1703889 0.07632836 0.18455306 0.084324345
0001f0 b2 89 7f 3e d4 d7 10 3e ca 48 9a bc f3 d1 68 3d
       0.2495487 0.14144832 -0.018833537 0.05684085
000200 b1 13 fd bd be 7d 3d be da 8e c2 be 53 cf 05 3e
       -0.123572715 -0.18504998 -0.37999612 0.13067369
000210 c8 97 9d 3e 5e 60 fd bd 7c 86 5f 3e b7 00 8d 3e
       0.30779862 -0.12371896 0.21828645 0.27539608
000220 56 fc 86 3d 77 a2 34 3e cf 3c b2 b8 f3 24 2c 3e
       0.06591098 0.176401 -8.499028e-05 0.1681097
000230 4e a0 4d 3e 49 b0 4f 3e cb 86 9a 3e c0 ff 0e be
       0.20080683 0.20282091 0.30180964 -0.13964748
000240 1d 7b d0 3d 31 80 0a 3e 21 38 68 be 90 e1 8b be
       0.10179732 0.13525464 -0.22677661 -0.27320528
000250 bd 18 15 bd bb e7 38 3e 24 f1 9b 3e f6 93 e5 bd
       -0.036400545 0.18057148 0.30457413 -0.11209862
000260 ee 09 2b be 5b 6c 9e be e6 87 40 3e ae 3c 54 be
       -0.16703007 -0.30942044 0.18801841 -0.20726272
000270 5c 58 a2 3d e1 a7 10 3e 11 8b 8e bd aa 16 ae 3e
       0.079270095 0.1412654 -0.069601186 0.34001666
000280 d4 df 87 3e f3 c2 2e bd 64 cd 07 3b 1b 4b 70 3e
       0.26537955 -0.042666387 0.0020721788 0.2346615
000290 3e f2 5d be 91 b8 93 be 78 50 6e 3e 00 61 3c be
       -0.2167444 -0.2885175 0.23272884 -0.18396378
0002a0 2a b3 b9 3c 01 87 a8 3c 41 76 85 3e 5c b8 84 3d
       0.02266844 0.020572187 0.26066783 0.06480476
0002b0 0b 6b e7 3c f2 8d ac 3d 9f e1 17 be 1a b1 b3 be
       0.028249284 0.084255114 -0.14832161 -0.35096055
0002c0 09 d2 98 3e ce c2 89 be ce db 8b be 17 31 bf bd
       0.29847744 -0.26906437 -0.27316135 -0.09335535
0002d0 68 1b 60 3e 0f 04 1c be f1 cc 84 3e 71 c2 fb 3d
       0.21885455 -0.15235923 0.25937608 0.12292946
0002e0 f6 ae 79 3e eb 28 09 be 78 72 2d 3e ca eb b3 3d
       0.24383149 -0.13394515 0.16938198 0.087852076
0002f0 47 20 a6 3e 4d be 2c be 39 c5 a5 3e d7 bd 6a be
       0.324465 -0.16869469 0.3237703 -0.2292398
000300 20 0c 53 be a8 e2 a7 3e c5 7f 5a 3e ec 0c 6d 3e
       -0.20610094 0.32790112 0.21337803 0.2314946
000310 b4 51 57 be 42 a5 a3 3e 1f 9a c1 bd 9f e9 9c 3e
       -0.21027261 0.3196202 -0.094532244 0.3064699
000320 78 fc 58 3e 89 ad a8 be 53 70 8b bd b8 0e cc 3e
       0.21190059 -0.32944897 -0.068085335 0.3985498
000330 07 f9 3f 3e 34 2b a3 3d fe e4 0a bc 02 09 18 3e
       0.1874734 0.07967225 -0.008477448 0.14847186
000340 d2 e9 c6 bd 06 2b db bd 0d 59 86 be 81 c0 67 bd
       -0.097125664 -0.107015654 -0.26239815 -0.05658007
000350 cd 1a 82 be 9e 36 5c be 1d 4e 59 3e 50 fa 4f 3e
       -0.25411072 -0.2150521 0.21221204 0.2031033
000360 1b a9 1d be fe e3 99 bd af 55 11 be e1 fa 50 3e
       -0.1539654 -0.07514189 -0.14192842 0.20408203
000370 9b 5e 39 be d7 6c 4c be 1f 33 38 3e a3 23 f8 3b
       -0.18102495 -0.19963394 0.17988251 0.0075726076
000380 14 11 08 3e 4d d4 1d bd 5c ab bf 3e c7 6f 26 bd
       0.13287765 -0.038532544 0.37435424 -0.040633943
000390 01 f5 8e 3e b3 f4 5a 3d 5e 91 ac 3e 1b 75 56 be
       0.27921298 0.05345602 0.33704656 -0.2094311
0003a0 f7 11 49 3e 5a 73 fd bd 36 be 53 3e d9 59 82 be
       0.1963576 -0.12375517 0.20678028 -0.25459173
0003b0 74 46 41 3e fa f6 94 bd d4 58 0a be d8 56 02 be
       0.18874532 -0.072736695 -0.13510448 -0.12728441
0003c0 a3 a2 83 3e 16 19 5c bd 71 b9 bb bd c1 6c 98 3e
       0.2571002 -0.05373486 -0.091662295 0.29770473
0003d0 0e 98 68 3e fa 72 3b 3c 51 72 0b be 02 f3 b4 3d
       0.22714254 0.011440987 -0.13617827 0.088354126
0003e0 76 81 94 bd 61 d7 9b 3e 94 49 13 3e 71 b2 87 3e
       -0.07251255 0.3043776 0.14383537 0.26503327
0003f0 c3 2a 64 3e 4a ab bf bd 7b a6 84 be b6 00 07 be
       0.22281937 -0.09358843 -0.25908265 -0.13183865

actor.customer_encoder.0.attention.key_embed.weight f4 [32, 32]
000000 57 25 0a be 68 64 c2 3c 5c b1 8f 3d 0a 99 cc 3e
       -0.13490807 0.023729518 0.070162505 0.3996051
000010 ed b5 ae 3e e4 6f a9 be d5 04 0c 3e d3 58 6f be
       0.34123173 -0.33093178 0.13673718 -0.23373728
000020 d0 e5 33 be 69 ea 28 3e 95 28 8e be 73 70 aa 3e
       -0.17568135 0.1649567 -0.27765337 0.33288917
000030 8d 52 b2 3d 35 19 95 3d 4f 5a 7b 3e 9f 99 aa be
       0.087071516 0.072801985 0.24546169 -0.3332033
000040 98 f6 99 3d f8 00 b6 3d 06 db 4c be 18 9d 19 be
       0.07517737 0.088869035 -0.20005426 -0.15001333
000050 db e2 c4 3d 1c f0 ab 3e f7 28 08 be b4 41 63 3e
       0.09613582 0.33581626 -0.13296877 0.22193033
000060 91 45 29 3e 43 e1 48 be 42 d2 82 be b5 7f 0e bd
       0.16530444 -0.1961718 -0.2555104 -0.03478976
000070 6f d8 83 3e 96 55 7c be 84 4e 77 be 99 04 91 3e
       0.25751063 -0.24642023 -0.24151045 0.2832382
000080 97 0e 54 be ef f7 76 be 1e 39 4e bc b6 77 a5 3e
       -0.2070869 -0.24118017 -0.01258686 0.32317895
000090 84 a6 6b 3e ce 82 46 3e 0c 20 66 3d 0e 3b 48 be
       0.2301274 0.19385836 0.056182906 -0.19553778
0000a0 c0 d8 8f be 7e cf 3b 3e a9 cd eb 3d 64 12 b5 3d
       -0.28095055 0.1834087 0.11513836 0.08841398
0000b0 ba a1 e6 bd 42 22 b7 be 48 d8 de 3c 15 dd 46 bd
       -0.11261316 -0.35768324 0.02720274 -0.048550684
0000c0 fd f4 d8 bc 71 f6 3b 3d 93 67 4a be 41 15 59 be
       -0.026484007 0.04588932 -0.19766073 -0.21199514
0000d0 f0 bb af bd 37 2e 02 3e 70 ca 66 be 80 67 a9 3e
       -0.08580768 0.12712942 -0.22538161 0.33086777
0000e0 21 9d ae be 9f 57 5c be d4 8b ce 3d e3 e9 ae be
       -0.34104255 -0.215178 0.10085264 -0.34162816
0000f0 82 6d 51 be bd 62 25 3e 44 84 76 be 6d 53 df 3d
       -0.2045193 0.16150947 -0.24073893 0.10904584
000100 e7 13 37 be 40 b3 18 be 53 40 62 3d 7e 0e dc 3c
       -0.17878686 -0.14912128 0.055237126 0.02686238
000110 3f 05 a8 3e 32 91 96 3d 8d 44 85 3d 1c f3 50 be
       0.32816502 0.073519126 0.06507216 -0.20405239
000120 b9 ce 8f 3e e8 c1 81 bc bd 74 53 3e 97 53 8f be
       0.28087404 -0.015839532 0.20650001 -0.2799346
000130 18 ed 43 3e ec 7a 8f 3e 5e 82 55 3e 27 7e 90 3e
       0.19133413 0.2802347 0.20850512 0.28221247
000140 cb c2 1c be d1 dd 78 be 35 38 0e 3e c2 1c 27 3e
       -0.15308683 -0.24303366 0.13888629 0.16319564
000150 ae 74 52 be a6 1d e6 bd e6 42 58 bb a9 9e e4 bb
       -0.20552322 -0.11236124 -0.003299886 -0.0069769216
000160 eb 92 2f 3e fc 9f 85 3e 6b cb d2 3d 34 01 13 be
       0.17145889 0.2609862 0.10292705 -0.14355928
000170 d0 ca 68 be 4e c0 99 3e 1d 25 ee 3c ed 3a 33 be
       -0.22733617 0.3002953 0.029070431 -0.17502947
000180 67 46 80 be 55 00 86 be 3c 4e a7 3e 06 c2 3b be
       -0.25053713 -0.26172128 0.32676876 -0.18335733
000190 8c f9 ad be 33 6d 93 be 23 3e 43 be 95 04 bd 3c
       -0.33979452 -0.2879425 -0.19066672 0.023073474
0001a0 5a 95 71 be 1f c7 27 3e 54 0e a2 bd 6a f8 07 be
       -0.2359213 0.16384552 -0.07912889 -0.13278356
0001b0 e1 9e 7f be 59 ed a8 bd f2 8c c3 3e 70 d8 ce bb
       -0.24962951 -0.082483955 0.3819347 -0.0063124225
0001c0 fd 1a cd 3d 3f ee bb be c4 44 44 3e 80 ce 0b 3d
       0.10014913 -0.36705205 0.19166857 0.03413248
0001d0 1b 44 98 bd a8 10 d9 3c cf 34 24 be a2 fc 8c be
       -0.07434865 0.0264972 -0.1603577 -0.27536494
0001e0 56 83 44 be b6 71 d8 3d c9 e6 9c 3e d5 ad 7e be
       -0.19190726 0.10568564 0.30644825 -0.24870999
0001f0 c1 25 3d 3e 66 5f 0b be 84 03 8c 3e 1b f2 5a 3d
       0.18471433 -0.1361061 0.27346432 0.053453546
000200 3c 7e a0 be 8a c1 8d be 1f 43 bd 3d 6f ce 33 3e
       -0.3134631 -0.2768672 0.09241318 0.17559217
000210 09 79 d0 3d 76 e6 da 3d e6 39 3e bd 4c 38 5b be
       0.101793356 0.10688488 -0.046441935 -0.21408194
000220 88 28 0f 3d bb cf 95 be 0d 6e 3a 3e 5b b7 03 be
       0.034950763 -0.29260048 0.18206044 -0.12862913
000230 9f 0c 9a be ce 90 e8 3c 7f bb c4 3d 38 fc 88 be
       -0.30087754 0.02838936 0.096060745 -0.26754928
000240 84 88 5d be 4b 49 3d bd 09 4a 0b be ff e3 97 3e
       -0.21634108 -0.046212476 -0.13602461 0.29666135
000250 54 3c 93 3d 89 6a f1 bd a2 78 92 be 67 4a 7e be
       0.07189241 -0.11787898 -0.2860766 -0.2483307
000260 95 60 03 3e 16 c1 8f bd 45 43 59 3d bd f7 94 3d
       0.12829812 -0.0701925 0.05304267 0.07273815
000270 c5 21 77 3e ec fc 76 bc d1 80 20 3e 5b 48 a8 be
       0.24133976 -0.01507495 0.1567414 -0.32867703
000280 97 79 83 3e aa 40 a7 be 5e 11 fe bd ff d4 a2 be
       0.25678703 -0.32666522 -0.12405656 -0.31803128
000290 fa c6 4c 3e 06 bd f7 bd 56 ff ba be 07 83 21 be
       0.19997779 -0.120966 -0.3652293 -0.15772639
0002a0 4a f2 48 3e 6b 56 86 3e 0f e5 61 3e 80 10 ac be
       0.19623676 0.26237807 0.22060035 -0.33606339
0002b0 dc f2 26 be ab d7 85 3d 46 e2 76 3b 80 5f 51 be
       -0.16303581 0.06535276 0.003767149 -0.20446587
0002c0 af 97 b3 3e 39 ce 78 be 15 80 71 3e 35 b8 5d 3e
       0.35076663 -0.24297418 0.23584016 0.216523
0002d0 6c 09 a2 be 97 99 56 be cb ef 5c be 82 2b 8c 3e
       -0.31647813 -0.20957027 -0.21575849 0.27376944
0002e0 2d c2 a7 be b8 c3 8c 3b de fa e1 bd 6a 0c d6 bd
       -0.32765332 0.0042957924 -0.11034177 -0.104515865
0002f0 09 a5 55 be 9e 09 8b be 82 b6 a2 be 24 64 89 bc
       -0.20863737 -0.27155775 -0.31779867 -0.016771384
000300 26 f4 98 3c d8 9e 86 3d fe d2 bb 3d b3 d2 fe bd
       0.018671107 0.06573266 0.09171103 -0.124425314
000310 5b 03 57 3e ef 57 42 3e 03 1b 94 be 33 1d af 3e
       0.20997374 0.18978857 -0.28926858 0.34201965
000320 50 36 e1 bc f6 78 ec b9 b6 05 b5 be eb bf 3a 3e
       -0.027491719 -0.0004510355 -0.3535592 0.18237273
000330 7c d6 03 3e dc e2 c3 3d cf be 40 3e db a8 a8 be
       0.12874788 0.09564754 0.18822788 -0.32941326
000340 98 db b3 3e b5 d1 60 3e 20 ea d0 bd 09 c0 38 3e
       0.35128474 0.21954997 -0.10200906 0.18042006
000350 e3 81 0e be 5e 3f c6 bd 4c 60 48 3a af 75 68 3e
       -0.13916735 -0.09680055 0.0007643744 0.22701143
000360 49 31 3b 3e f9 b5 04 be 85 6b 98 be 29 e4 9c bc
       0.1828052 -0.12960042 -0.2976953 -0.019151764
000370 e7 8d 1b be 0b 99 7d ba 5c ec 2a 3e 4e de 7c 3e
       -0.1519085 -0.0009673989 0.16691726 0.24694178
000380 e4 75 7f 3c b5 32 2c 3e 9b 00 8a 3d 87 c3 41 be
       0.015592072 0.16816218 0.06738397 -0.18922244
000390 3b 06 52 3e c2 6e 6c be 5f e6 eb bb 7c 56 36 be
       0.20510189 -0.23089126 -0.0071990932 -0.17806429
0003a0 c1 b1 0b 3c c0 f0 8e 3e d4 a4 ff 3d e5 eb e5 bc
       0.008526267 0.27918053 0.1248261 -0.028066585
0003b0 18 2e 9f be 5a 21 88 be 29 b0 c1 bd 97 a4 2a be
       -0.31089854 -0.26587945 -0.09457428 -0.16664349
0003c0 ff 15 88 3d 92 48 a6 be fc d9 ad 3e e0 92 b2 bd
       0.066448204 -0.32477242 0.3395537 -0.087194204
0003d0 e0 0b 6a 3e 4d f7 73 3e 7e 86 90 3e 65 b8 50 bd
       0.22856092 0.23824807 0.2822761 -0.050957102
0003e0 10 33 df 3c 1b 95 3a 3e cb 2b 8a be 64 f3 b5 bc
       0.027246028 0.18220942 -0.26986536 -0.022210784
0003f0 cd 85 0a 3e 27 ad 0d bd 2f 22 81 be 2d 2d 42 3d
       0.13527603 -0.03458896 -0.25221393 0.047406364

actor.customer_encoder.0.attention.value_embed.weight f4 [32, 32]
000000 c2 70 7d 3d 91 1f a9 3e 02 2b e6 3d 34 5d 05 3e
       0.061875112 0.33031896 0.11238672 0.13023835
000010 a3 e6 aa be 46 88 11 3e 94 09 42 3e 01 04 de bd
       -0.33379087 0.1421214 0.18948966 -0.108406074
000020 69 8b 61 be 0f cb 2f bd be b0 9b be f2 8c a6 3e
       -0.22025837 -0.04291826 -0.3040828 0.32529408
000030 2f 7c 5b be 31 ec a2 3e 60 95 b3 be 88 c9 66 3e
       -0.21434091 0.31820825 -0.35074902 0.22537816
000040 4b 54 17 be 3d 68 8b be f0 a2 cb 3d a7 a9 a6 3e
       -0.14778249 -0.27227965 0.09943187 0.3255131
000050 27 96 2c be b0 49 4b 3d 51 19 6d be 40 e7 6b 3e
       -0.16854154 0.04963082 -0.23154189 0.23037434
000060 33 f5 a2 3e 5c 62 c5 bd 2a 6d ad 3e 01 5e 3b 3e
       0.31827697 -0.09637901 0.33872348 0.18297578
000070 cc 70 43 3d 89 c2 1b be 1e a3 79 3e 47 fc 94 3c
       0.047714993 -0.15210928 0.2437863 0.018186701
000080 0d 1d 19 be df 13 b2 be 0c 73 af be 6e 79 b4 3e
       -0.14952488 -0.34780785 -0.3426746 0.35248893
000090 f3 53 3f be ee 0c 87 be 58 8d 65 3e c8 21 cf bd
       -0.18684368 -0.26377052 0.224172 -0.10113865
0000a0 ce fa 86 be ae 2d 92 3d 93 0c 56 bd bd ad 0b 3e
       -0.26363224 0.07137619 -0.052258085 0.13640495
0000b0 c4 31 a8 3e f1 47 b6 bd 54 30 4e 3e 32 4f ca bd
       0.32850468 -0.089004405 0.20135623 -0.098783866
0000c0 ce d8 ee bd 88 7c f1 3d 60 d7 a1 bd 0b 85 c2 3d
       -0.11662446 0.117913306 -0.07902408 0.09498032
0000d0 a4 3e a1 3d c1 f7 90 be e1 b5 a9 bd 33 56 a3 3e
       0.07873276 -0.2831402 -0.08286644 0.31901702
0000e0 3e 44 0e bb 32 9c ab 3e 43 cd 88 3e 6a 33 cb bd
       -0.0021708156 0.33517605 0.26719102 -0.09921916
0000f0 cf bd 23 be d1 da ee 3d 23 23 6f bd 97 f0 3a bd
       -0.15990375 0.1166283 -0.05838312 -0.0456396
000100 63 fe c5 bc c1 d0 69 be 52 e6 63 3e 87 78 0d be
       -0.024169153 -0.2283354 0.22255829 -0.13815509
000110 d0 6d 93 be b9 64 8d be 61 f6 66 be 5d 89 85 3d
       -0.28794718 -0.27615908 -0.22554924 0.065203406
000120 ef 4c ae be 15 bd 05 3e 7f 06 5f be d0 58 2c bc
       -0.3404307 0.1306041 -0.21779822 -0.010519221
000130 89 63 af bd 95 ed d8 bd b8 9d 69 3e 43 06 f7 bd
       -0.08563907 -0.1059219 0.22814071 -0.12061741
000140 dd c6 f6 3d d1 6a 76 3e 47 da 32 3e 0f 09 1a 3e
       0.12049649 0.24064185 0.17466079 0.15042518
000150 14 c2 07 bd f6 d4 3b be 2e a7 85 be bd f1 ab 3e
       -0.03314407 -0.18342957 -0.2610411 0.3358287
000160 96 3c a4 be 2d d5 b0 bd 00 58 99 3e e7 a7 89 bd
       -0.32077473 -0.0863441 0.2994995 -0.06721478
000170 8b 04 98 be 31 31 b2 3e db 72 ba bd 92 3a 17 3e
       -0.29690966 0.34803155 -0.09103938 0.14768437
000180 61 b0 24 3e 23 96 e6 bd d4 68 af be 1f 06 4e bd
       0.16082908 -0.11259105 -0.34259665 -0.050298806
000190 bd a9 8f be 43 e0 31 be 0d 46 98 be 96 d6 28 3e
       -0.28059188 -0.17370705 -0.29740945 0.16488108
0001a0 e1 d9 7e be 40 6d 30 3e e1 3c 98 3e e2 79 34 3e
       -0.24887802 0.17229176 0.29733947 0.1762462
0001b0 6c 13 57 3e be f8 75 3d dd 4e 72 3e b4 32 aa 3e
       0.21003503 0.060051672 0.23662896 0.33241808
0001c0 28 6b 9a 3d bf d7 19 3e 0c 2a 64 3e cb 5c 2f b9
       0.0753997 0.15023707 0.22281665 -0.00016723869
0001d0 b9 9b 9b 3e b9 4d af 3d f6 b9 5c be a3 76 89 be
       0.30392244 0.08559746 -0.21555313 -0.26848325
0001e0 ce 42 b8 3d f6 0e 8f be 77 59 a3 be b4 34 a8 3e
       0.08997117 -0.27941102 -0.31904194 0.3285271
0001f0 21 a2 88 3e a9 c3 c3 bd 73 77 34 3e 74 11 f5 3d
       0.26686195 -0.095588036 0.17623691 0.119662195
000200 d0 60 a7 3e 10 d7 dc 3d eb 8c 27 3e 43 74 81 be
       0.3269105 0.107832074 0.1636235 -0.25284013
000210 37 54 ef 3d 38 77 8b be 9c 48 8a be c8 4e 47 3e
       0.116859846 -0.27239394 -0.27008522 0.19463646
000220 60 2d 31 be 4d 3b 8c 3e 4a e2 b6 bd 71 21 3c 3e
       -0.17302465 0.27388993 -0.0892988 0.18372132
000230 4c ae a8 3e b7 2f 3c 3d 89 62 a4 3e ce 0d 64 be
       0.32945478 0.045943942 0.32106426 -0.22270891
000240 36 0d 40 3e f9 91 e3 3d ff ba 89 3e 87 84 a6 3e
       0.1875504 0.111118264 0.2690048 0.32522985
000250 25 79 96 bd b7 79 9b 3d d1 b6 36 be ce a6 19 3e
       -0.07347325 0.07591575 -0.17843176 0.15005037
000260 53 dd b5 ba 5d d4 26 be 71 0e 48 be 0e 90 b4 3d
       -0.0013875164 -0.16291948 -0.19536759 0.08816539
000270 d0 2f a1 3e ed 3b a0 be 75 c2 69 3e 3e b7 7e 3e
       0.3148179 -0.3129572 0.22828086 0.24874589
000280 ae 83 9c be b5 2a 25 3e 36 18 00 3d 60 cb 88 3e
       -0.30569214 0.16129573 0.03127309 0.26717663
000290 5e 0e 99 3e 3e 07 4b 3e 96 83 0d be d0 31 9e be
       0.29893774 0.19826981 -0.13819727 -0.3089738
0002a0 77 b9 7c 3e e9 5e 49 3a fb 32 13 3e 25 5b e4 3d
       0.24680124 0.0007681684 0.14374916 0.11150197
0002b0 ee fd 3f 3d 8c 00 89 3e 31 3c b5 bd cb 5e 12 3e
       0.046873026 0.2675823 -0.08849371 0.14293973
0002c0 eb 0c 28 3e a8 65 24 be 94 6a 1b 3e 2e c1 cd 3c
       0.16411178 -0.16054404 0.15177375 0.02511653
0002d0 47 e7 b3 be 07 3e 48 3e 32 f9 9f be 95 01 24 3e
       -0.35137388 0.19554912 -0.31244808 0.16016228
0002e0 31 c2 26 be 4c 0b 30 be aa ff 4a 3e 0b df 71 bc
       -0.16285016 -0.1719181 0.1982409 -0.01476265
0002f0 19 33 84 be 73 04 fb 3d c4 3d 47 be f9 2b a5 be
       -0.25820234 0.12256708 -0.19457155 -0.3226011
000300 09 9f 91 3e c6 b0 98 be ef 43 1a be 4b 64 5a be
       0.28441647 -0.29822367 -0.15064977 -0.21327321
000310 95 4d 8a 3e 67 95 02 bd 1d 33 97 be e9 79 54 3e
       0.27012315 -0.031880762 -0.29531184 0.2074963
000320 42 00 88 3e 93 08 df 3d 96 fe 1f bd 4e 17 ae be
       0.26562697 0.10890307 -0.03906115 -0.34002155
000330 01 95 5e bd b9 a6 46 3e 24 24 76 be 7f 5d b2 be
       -0.05434132 0.19399537 -0.24037224 -0.34836957
000340 7b c6 23 bb 27 e8 67 3d 2d d8 0d be 79 7e 15 be
       -0.002499013 0.056617882 -0.13851996 -0.14599027
000350 bb 65 8c be e5 2d 5b bd cc 65 a8 3e d8 c0 96 3e
       -0.27421364 -0.053510565 0.32890165 0.29444003
000360 f0 44 71 3d db 65 9a 3a 7a b6 a1 3e 67 02 58 3d
       0.058903635 0.0011779623 0.3158453 0.052736666
000370 e2 d7 47 bd 52 85 80 be 1a 35 a7 3e f6 db ac be
       -0.048789866 -0.25101715 0.326577 -0.33761567
000380 4f 23 fd bd 4c 04 9e 3d 2e dc 30 3d a3 86 ec bd
       -0.1236025 0.07715663 0.04317873 -0.115491174
000390 8e 9c a8 be 01 7c 10 3d 83 0e ae bd fe c4 7d be
       -0.32931942 0.03527451 -0.08498862 -0.24782178
0003a0 93 92 60 be 40 d3 30 be 9a 78 a7 be c5 a9 2f 3e
       -0.21930914 -0.17268085 -0.327092 0.17154606
0003b0 ee d1 ab bb b4 b5 9c be a9 de 37 3e 5b 12 8a 3e
       -0.0052435314 -0.30607378 0.17956032 0.2696713
0003c0 26 6e a1 3d 89 14 f3 bd bf 43 e8 bd 91 22 ea 3d
       0.07882337 -0.11869151 -0.113410465 0.11432374
0003d0 fa f5 aa 3e 43 1b 10 3d 10 e2 09 be a0 23 45 bd
       0.3339079 0.03518225 -0.13465142 -0.048129678
0003e0 d4 cb 0a 3e 10 ef 9d 3e 91 5f ad 3e 39 7b b4 3e
       0.13554317 0.30846453 0.33861974 0.3525026
0003f0 a3 3a 78 be ee 8d 70 3d 13 d4 9a 3c 33 39 95 3d
       -0.24241118 0.058729105 0.018899953 0.072863005

actor.customer_encoder.0.attention.combine.weight f4 [32, 32]
000000 6b 4a f6 bc c3 e2 02 be 89 98 91 3d 09 1d ea 3d
       -0.030064782 -0.12781815 0.07109172 0.11431319
000010 39 ee 09 3d 88 2b a8 3c f7 c5 1d 3e 33 e6 7c bd
       0.033674452 0.02052857 0.15407549 -0.061742973
000020 0c 1f c7 bc 4d fb 53 3d fd cf d5 bd 73 99 13 be
       -0.024306796 0.05175333 -0.10440061 -0.14414005
000030 c7 94 0b bd ee 22 d0 3d 73 55 b5 bd 43 3d 68 3d
       -0.034077432 0.10162912 -0.08854189 0.05669905
000040 d5 c7 00 bc bd 71 1b 3e 55 c6 cc 3d 10 46 c0 bd
       -0.007860144 0.15180106 0.09998766 -0.09388363
000050 7a b0 32 be f6 75 c5 3d 6b a2 2f be bb 58 e0 bd
       -0.17450133 0.0964164 -0.17151801 -0.10954424
000060 fb 7c 1d 3e 2b b2 40 3d 40 e7 48 3c 37 3e 00 be
       0.15379708 0.047044914 0.012262166 -0.12523733
000070 58 45 27 bd ec 02 71 3c 21 91 c6 3d c4 fe a6 bd
       -0.040837616 0.014710169 0.0969565 -0.081540614
000080 de 78 d7 bc 09 4d 2a 3d 2a 98 30 be 45 ea 4f bd
       -0.026302751 0.041577373 -0.17245546 -0.050760526
000090 38 17 2a be 93 3c 80 bd c1 60 cd bd c5 0d bc 3d
       -0.1661042 -0.062615536 -0.1002822 0.09182314
0000a0 df 37 e2 bd 15 53 2d be f8 7f bd bc 94 cf ab bd
       -0.11045813 -0.16926225 -0.02313231 -0.08389202
0000b0 78 3d c2 bd 52 d6 61 bd 1f b1 96 3d 16 e7 19 be
       -0.094843805 -0.055136032 0.07358002 -0.15029559
0000c0 66 5f 07 be 67 34 dd 3c 5d 49 bd 3d 71 04 85 3b
       -0.13219985 0.027002526 0.092425086 0.0040593673
0000d0 df 00 29 3e 04 eb ae 3d 72 4c 07 be b5 6f ba 3d
       0.16504239 0.085409194 -0.13212755 0.09103338
0000e0 49 83 b0 bd 28 2d 01 3e 82 43 e7 bc ef ff 11 3e
       -0.08618791 0.12614882 -0.028230432 0.14257787
0000f0 c1 45 db bc bb e7 30 bd 93 2d 03 be 04 41 2b 3e
       -0.02676666 -0.043189745 -0.12810354 0.1672402
000100 85 e7 e9 bd c0 30 a8 bd 5d 8d a9 bd 7f e8 46 be
       -0.11421112 -0.08212423 -0.08278916 -0.19424628
000110 c5 47 9f bd b7 08 20 3e 04 48 e7 3d b4 45 20 3d
       -0.07777361 0.15628324 0.11293033 0.039128974
000120 11 1a 8b bd 4a 9b ab 3b af b7 57 bd 40 b6 27 be
       -0.06792081 0.0052370178 -0.05266541 -0.16378117
000130 c2 95 0e 3e ff 33 b7 3d 17 7c 24 3e 00 f6 14 be
       0.13924316 0.08945464 0.16062962 -0.14546967
000140 6b 45 26 3d c1 a5 b6 3d 96 0d 20 bc 89 49 c8 3d
       0.040593546 0.08918334 -0.009768864 0.09779651
000150 83 7a d8 3d d0 19 d7 bd ff 5e f1 3d 70 89 28 3d
       0.10570242 -0.1050297 0.11785697 0.041146696
000160 40 a5 1f bd 7f db 7a 3d 09 8e 0a 3e 7e f8 52 3d
       -0.038975954 0.061244484 0.13530745 0.051506512
000170 30 b7 b2 3d d9 8c 0c be 3b 00 cd bd 7f c0 df bc
       0.087263465 -0.13725604 -0.100098096 -0.027313469
000180 f6 a1 c5 3d 77 4d cc 3d 49 17 44 bd a5 80 24 bd
       0.09650032 0.09975713 -0.04787377 -0.040161747
000190 9c de f2 bc 4a 92 8a bd 79 82 17 3e 14 a0 b8 3d
       -0.029647164 -0.06766184 0.14795865 0.090149075
0001a0 6f ba d5 3d 5c 1f 82 bd ec 00 51 bd 5e b7 18 be
       0.1043595 -0.063536376 -0.05102627 -0.14913699
0001b0 be 4e 13 3e e5 cb 8b bd 43 61 9f bc c4 1f e8 bd
       0.14385507 -0.06825999 -0.019455558 -0.11334184
0001c0 ca aa 3f 3d c8 7b a9 3d 3a 50 2f be 31 da 0f 3e
       0.046793737 0.082755625 -0.17120448 0.14048077
0001d0 30 d2 48 3d de fb b0 3d d2 b8 13 be e8 fa 65 3d
       0.049028575 0.0864179 -0.14425972 0.056147486
0001e0 7c 0a 2e 3e a1 1e fe 3d 7a 60 c0 bd db b9 b0 3c
       0.16996187 0.12408186 -0.093934014 0.021572998
0001f0 29 be e4 bd 44 2d 70 3d d7 84 93 3d 11 0d b7 3d
       -0.11169083 0.05863692 0.072030716 0.08938039
000200 41 93 1a be 92 86 b6 3d f5 6e 5e bb 4b 6b 00 be
       -0.15095235 0.08912386 -0.0033940647 -0.12540929
000210 dc 64 a6 bd 2e cf 28 3e bb ad 14 be b6 08 f5 3d
       -0.08124706 0.16485283 -0.14519398 0.11964552
000220 af 02 22 3e 65 d7 f0 bd 14 f0 22 be 86 08 f9 bd
       0.15821336 -0.11759833 -0.15911895 -0.12159829
000230 7d 3d a3 3b 92 00 2a be cf 9a ff 3d 60 7e 15 3e
       0.004981695 -0.1660178 0.12480699 0.1459899
000240 8d e0 85 bc 9a d3 ba 3d 63 98 e4 3d c7 d3 3e 3d
       -0.016342426 0.09122391 0.11161878 0.046588685
000250 a2 61 a8 bd f5 39 60 3c d4 72 19 3e 3b 1a 35 bd
       -0.08221747 0.013685693 0.1498521 -0.04421447
000260 5a 23 11 3d 04 47 7c bb 49 4a 83 bd 04 ad 23 bd
       0.035434105 -0.0038494477 -0.06410653 -0.039959922
000270 aa 49 a2 bd 1a 5d 48 bd a0 7d 31 3e a5 da 0e bd
       -0.079242066 -0.048916914 0.17333078 -0.034876484
000280 e3 d5 94 bc 27 29 23 3e 5b fb 6c 3d 0a 35 0a be
       -0.018168395 0.15933667 0.0578569 -0.13496795
000290 1f 48 4a bd 52 65 87 bd 4f 87 8e bd 78 69 18 be
       -0.049385186 -0.06611122 -0.06959402 -0.14883983
0002a0 ae d8 b2 3d 96 80 09 3e 40 23 0f be e3 e3 2d 3e
       0.087327346 0.13427958 -0.1397829 0.16981463
0002b0 0b d8 a6 3d ae b8 2e 3e 83 aa e6 bd ad 44 74 3d
       0.08146676 0.17062637 -0.11262991 0.059635807
0002c0 f0 62 fe 3d 3b e5 ed 3d 6c 26 02 bd 84 db 04 3e
       0.124212146 0.11615988 -0.031774923 0.12974364
0002d0 e2 22 c2 3d 89 c2 04 be 30 25 9c 3d a4 bb d0 bd
       0.094793096 -0.12964834 0.076242805 -0.101920396
0002e0 2f 68 0f 3e f3 ce a0 bd cf 4c be bd d4 6e a2 3d
       0.14004587 -0.078519724 -0.09291994 0.07931295
0002f0 c3 80 bf bd 21 b4 7c bd 09 86 e3 3d 77 ea 28 3e
       -0.09350731 -0.06169522 0.111095496 0.16495691
000300 10 4e 5d 3d 7c 8a 27 3e 6f be 97 3d e9 8c 00 bd
       0.054029524 0.16361421 0.07409369 -0.031384382
000310 07 46 8b bd 65 12 0f bd 97 11 44 3a 94 e5 1d bc
       -0.06800466 -0.03492965 0.0007479428 -0.009637255
000320 ad f3 cd 3c d8 5c 16 3d 11 f8 ff bd 10 6a d9 bd
       0.025140608 0.036709636 -0.12498487 -0.10615933
000330 12 f6 20 3e 1e 28 ba bd fc 4d a6 3d ea a7 32 3e
       0.15718868 -0.09089683 0.08120343 0.17446867
000340 96 4e 20 be 0e f7 43 3c cf 06 11 3d ee bf e6 bd
       -0.15654978 0.011960758 0.035406884 -0.112670764
000350 bd bc 19 bd 36 69 b1 bd 8d b3 2e be 2e f3 28 bd
       -0.03753351 -0.086626455 -0.1706068 -0.04124754
000360 1e 46 1b 3e 7b 23 40 3e 09 ac d5 bd 8c 23 33 bd
       0.15163466 0.18763535 -0.10433204 -0.043735072
000370 7c cc c2 bd 07 0c d0 3d a3 74 1c be 8b 39 88 bd
       -0.095116585 0.10158544 -0.15278868 -0.066516005
000380 b5 e1 64 bd a8 31 9c bd 0a 1b 15 3e 3c 7b 21 be
       -0.055879313 -0.07626659 0.14561096 -0.15769666
000390 0c cb 04 be 9e fd 1c be 1c 41 91 bd 10 f8 b1 3d
       -0.12968081 -0.15331122 -0.07092497 0.08689892
0003a0 b7 f7 d9 3c 9d 6a e6 bb 3a ac 0f 3e 3f 5f f2 3d
       0.026607377 -0.0070317523 0.14030543 0.11834573
0003b0 bb fc 2f 3d a7 da 59 3d 63 e9 84 bd 63 11 30 be
       0.042965632 0.05318704 -0.064898275 -0.17194133
0003c0 2f 79 19 3d f6 ea 1d 3e b8 d6 05 3e f5 bc f8 bb
       0.037469085 0.15421662 0.1307019 -0.007590885
0003d0 c2 8d 87 3b 0f 87 28 3e 80 68 36 be 7a 6c 18 3e
       0.004136772 0.16457771 -0.17813301 0.1488513
0003e0 ce ac 2a 3e f9 89 d0 3d e0 44 88 3d 70 48 fe 3b
       0.16667482 0.10182566 0.06653762 0.0077601
0003f0 e2 ea 46 3d 76 c8 b6 bd b0 0b e4 bc 2b 38 df bd
       0.048563845 -0.08924954 -0.027837604 -0.10899385

actor.customer_encoder.0.BN1.weight f4 [32]
000000 07 88 80 3f a5 13 83 3f b4 ac 80 3f f4 d4 78 3f
       1.0041512 1.024037 1.0052705 0.9719994
000010 6b 1c 7f 3f 00 7d 7c 3f 71 19 80 3f e8 f8 83 3f
       0.9965274 0.98628235 1.0007764 1.0310335
000020 79 26 7f 3f dd b5 7d 3f 29 d4 80 3f 61 f5 81 3f
       0.9966808 0.99105626 1.0064746 1.0153009
000030 62 cc 7e 3f 1f 4b 80 3f 30 a8 78 3f 75 1c 80 3f
       0.99530613 1.0022925 0.97131634 1.0008684
000040 e7 4a 7b 3f e2 12 80 3f 1b e7 84 3f c1 3a 80 3f
       0.98161167 1.0005763 1.0383028 1.001793
000050 55 c3 7d 3f 6e 7c 7d 3f 0c bf 7f 3f b7 cb 7e 3f
       0.9912618 0.9901799 0.9990089 0.99529594
000060 ef cf 80 3f ed 20 7f 3f 16 56 7d 3f 04 43 7f 3f
       1.0063456 0.99659616 0.9895948 0.9971163
000070 7f 17 80 3f d4 81 79 3f 16 8f 82 3f 29 50 80 3f
       1.000717 0.97463727 1.0199916 1.0024463

actor.customer_encoder.0.BN1.bias f4 [32]
000000 16 89 75 bc 44 df 0e bd cc 3d c2 bb c8 61 1f 3b
       -0.014986297 -0.03488089 -0.005927777 0.0024319757
000010 cc c5 25 bc 94 fe 46 bb 08 51 d7 3b 04 dc 06 3d
       -0.010117959 -0.0030364143 0.006570939 0.032924667
000020 46 7d 75 3c a0 e3 22 3c 17 ac 12 bd 65 4d 73 3a
       0.014983481 0.009941965 -0.03580865 0.0009281247
000030 c6 3b ce bb 77 f2 f3 3b 02 fc bc bc 4f 66 15 bb
       -0.0062937466 0.0074446755 -0.023069385 -0.0022796576
000040 63 0d 7b ba a6 2a 02 3b 91 b2 58 bc 6f 2f e9 b9
       -0.0009576885 0.0019861846 -0.013226167 -0.00044476564
000050 b3 18 7d bc c8 7f 86 3c 75 73 79 3c b1 70 85 3c
       -0.015447783 0.016418353 0.015225281 0.016289087
000060 0c 3f a6 3c e7 80 96 bc d1 38 13 bc d1 16 1a bb
       0.020293735 -0.018372012 -0.008985714 -0.0023512135
000070 c8 71 82 bc e1 5a fa 3c 3d 7f be 3c 48 2b c1 bb
       -0.015923396 0.030560913 0.023254031 -0.005895052

actor.customer_encoder.0.BN1.running_mean f4 [32]
000000 79 6b 35 3f 54 78 ce be 06 cf ef 3e fb 97 1b 3f
       0.70867115 -0.40326178 0.46837634 0.6077878
000010 03 aa 52 bf 25 d0 ec 3e 0c 1f e6 3d f7 9b e0 3d
       -0.8229067 0.46252552 0.112363905 0.10967248
000020 7d 16 96 be 3b 41 89 3e 12 f3 5b be 4b 7d 88 3e
       -0.29314032 0.2680758 -0.21479443 0.2665809
000030 bd c6 1b bf b4 9b 8b 3f 32 5c 09 3f 35 e0 a0 3e
       -0.60850126 1.0906892 0.53656304 0.31421056
000040 3a 73 4b be b8 9f a4 be 56 c2 1e 3e cf ac 35 3e
       -0.19868174 -0.32153106 0.15503821 0.17741702
000050 52 8b 6a be c7 88 e9 be cc 55 09 bf 40 3a e8 be
       -0.22904709 -0.45612165 -0.5364654 -0.4535694
000060 1b 7d 1e 3e 4a 00 08 3d 7c 30 47 3e 00 98 cf 3e
       0.15477411 0.0332034 0.19452089 0.40545654
000070 df ac 07 3e 8b 6f ba bd 07 7a 89 3d 89 f5 95 bd
       0.13249539 -0.091033064 0.06712728 -0.07322223

actor.customer_encoder.0.BN1.running_var f4 [32]
000000 fd 61 a2 3c 05 ee 39 3b db 48 0b 3d 4a a4 94 3c
       0.019822115 0.002837063 0.034005027 0.018144745
000010 44 e1 fc 3c 82 6e 02 3d bf e3 7f 3c d5 31 3b 3b
       0.030869134 0.03184367 0.015618264 0.0028563638
000020 f7 a7 2e 3c b2 c6 36 3b 95 f0 d5 3c b6 39 6d 3c
       0.010660163 0.0027889428 0.026115695 0.014479091
000030 54 5b aa 3c f3 2e 6a 3d f2 bd 33 3c ca bb 40 3c
       0.020795502 0.05717368 0.010970579 0.011763522
000040 22 f1 b2 3b ef 2e 04 3c dc 51 37 3c a1 c3 e0 3b
       0.005460874 0.0080678305 0.01118895 0.0068592583
000050 d7 8c 0a 3c 43 d7 08 3d cd e2 48 3c 7c 85 a0 3b
       0.00845643 0.033408415 0.012261105 0.004898725
000060 dc 74 7c 3c a4 2e 04 3b 6b 0d 81 3c 17 7d 7a 3c
       0.015408721 0.0020169402 0.015753468 0.015288613
000070 ac 8d 1e 3d d9 6a 84 3c 70 eb 76 3b 49 4c 63 3c
       0.038709328 0.01616423 0.0037676953 0.013873168
