output/282nodes_entropy0.01_0.4_0.85_2_230823/epoch62.pth (torch, 519145 bytes, 129 tensors)

critic.ff_layer1.weight f4 [32, 283]
000000 39 dc 09 3e cf da b3 3d 9f e1 ee 3b 5c 62 1b 3d
       0.13462915 0.08781969 0.0072900797 0.0379356
000010 02 0d 3d bb 46 90 38 bc 34 04 80 bc 60 76 f5 3c
       -0.0028846865 -0.011264866 -0.015627004 0.029963672
000020 8b 53 36 3d 96 87 e0 bc a2 6b 19 3d 10 e9 f7 3b
       0.044513267 -0.027408402 0.037456162 0.007565625
000030 18 37 c5 3c 3f ea f4 3c 1b b4 1e 3d 05 fe 28 3c
       0.024074122 0.029896853 0.03874598 0.010314469
000040 77 75 1d 3d 8f c9 7f 3c 63 0e 17 3c 48 fe d7 3c
       0.0384421 0.01561202 0.009219739 0.026366368
000050 99 80 39 bc 19 a2 1c 3d 5a e6 42 bc 3f 4a 63 3d
       -0.011322164 0.038240526 -0.01189574 0.05549073
000060 59 b5 98 bc 10 e8 0d bc 17 08 02 bd 87 46 91 bc
       -0.01864116 -0.008661285 -0.031745996 -0.017733825
000070 e8 83 e5 3a 30 3f 24 bc cd b6 85 3d 8e 04 79 bc
       0.0017510625 -0.010024831 0.06529007 -0.01519884
000080 ff 2d 65 3d e3 b5 cf 3c 5d da d2 bb e8 79 4f 3d
       0.05595207 0.025355285 -0.0064347223 0.05065337
000090 92 91 d8 3c 93 88 93 3d c4 e6 e8 3a 79 9d a0 bc
       0.0264366 0.07203784 0.0017768969 -0.019606339
0000a0 37 5d 3e 3d c2 cb 1f bc 4d 28 ca 3b db c3 33 3d
       0.046475615 -0.0097531695 0.006169355 0.043887954
0000b0 0e 43 2b 3d ee ad 8a bb 45 dd 31 3c 04 a0 da bb
       0.041811995 -0.00423216 0.010855977 -0.0066719074
0000c0 3a 05 b8 3c 66 b4 32 bc 86 25 85 bc 5c e2 37 bc
       0.02246343 -0.010907268 -0.016253244 -0.011223402
0000d0 ed 73 02 b8 88 d0 26 3d 8a 80 59 3a 9c f4 0d 3d
       -3.110238e-05 0.040726215 0.0008297047 0.034657106
0000e0 4e 96 84 3b 56 ea 8b 3c 57 a8 9f 3d 32 43 ea bc
       0.004046238 0.017079514 0.0779578 -0.028596494
0000f0 34 b9 5f 3d 81 fb 93 bc 45 c4 0e 3d 2a 72 16 bd
       0.054619983 -0.018064262 0.034855146 -0.03672997
000100 0d 50 c5 bb 84 80 c9 3b df 6c b8 3c 79 d1 ea bb
       -0.0060215057 0.0061493535 0.022512851 -0.0071660844
000110 bd f9 d1 bb 10 57 01 bc 09 91 ec 3d 9a f7 2e bc
       -0.006407945 -0.0078942925 0.11551101 -0.01067915
000120 f1 97 88 3d 94 ef 08 bc 16 44 c7 bc 65 52 9f bc
       0.066696055 -0.008357901 -0.024324458 -0.019448468
000130 6d 98 93 3c e2 c9 2b 3c 7d cf cb 3c b3 63 bb 3d
       0.018017018 0.010485144 0.024879212 0.091498755
000140 17 4c 17 bd 81 d6 f4 ba 64 2c 0b 3c 89 c4 3b bd
       -0.0369378 -0.001867965 0.00849447 -0.045841727
000150 c1 92 39 3d 72 f5 88 3c e4 a5 1f 3d 49 93 8d bc
       0.04530597 0.0167186 0.038976565 -0.017282145
000160 b3 40 6a 3c da c5 16 3c 47 cc 13 3a 57 78 4c 3c
       0.014297652 0.009202445 0.00056380447 0.012479863
000170 a6 7f 4c 3d 77 0d 22 3d 44 29 7b bc 1d 6e 6f bc
       0.049926423 0.039563622 -0.015329663 -0.014613655
000180 40 ba 79 3d 3f 5e 91 ba 42 62 c6 bc cc ee e2 3b
       0.060968637 -0.001109071 -0.024216775 0.0069254395
000190 05 4d 11 bd e1 eb 87 bc 03 17 b9 bc 3b cb 19 bd
       -0.035473842 -0.016591968 -0.02259398 -0.03754733
0001a0 88 aa 7b 3c ec b6 fb bc bc ae e1 bb 73 e1 d2 bb
       0.015360482 -0.030726872 -0.006887285 -0.006435567
0001b0 5f b6 25 bd f7 60 33 bc fe 78 73 3d 41 a3 07 35
       -0.040457126 -0.010948411 0.05944156 5.0528985e-07
0001c0 f2 78 38 3d 9e 3a 97 bc b1 ed 36 bc 89 d1 a8 bc
       0.045037217 -0.018460568 -0.0111650685 -0.020607727
0001d0 95 09 83 3c c3 d6 82 bc 1d 58 29 bc 70 ba af bc
       0.01599578 -0.015971547 -0.010335949 -0.021451205
0001e0 4b 1f 51 bc 59 11 fb 3c ed 39 8e bc 27 43 1a bc
       -0.0127638085 0.03064792 -0.017361606 -0.009415424
0001f0 78 18 33 bc 22 a5 22 bc 6b 77 7f bc 50 a3 32 bc
       -0.010931127 -0.009927066 -0.015592436 -0.010903195
000200 68 29 48 3d 74 2a 61 3b ae 7a d5 3c 95 cc 26 3c
       0.048867613 0.003435758 0.026059475 0.010180612
000210 3a 0c 05 bd 6b d6 0b 3d 90 6f 16 3c 7d d8 1d 3c
       -0.032482363 0.03414003 0.009181872 0.009634134
000220 9f bb 22 bd 17 a8 d9 bc 1c 4a 89 3c e9 ff d9 bc
       -0.03972971 -0.02656941 0.01675897 -0.026611285
000230 6a 5f 75 3b 51 7d 27 bb db eb 85 3d 99 a4 87 3c
       0.0037440904 -0.0025556872 0.065391265 0.016557978
000240 4d 62 7e bc 95 5e 49 3c 5f 4a 36 3d 39 de 6c 3d
       -0.015526366 0.0122906165 0.04450452 0.057829116
000250 9f 0c d6 3c c9 9c 0d bd 12 dc 11 3b 16 ff 10 bd
       0.026129065 -0.03457335 0.0022256416 -0.03539952
000260 78 63 76 3c 01 38 37 bc f3 02 dc 3d d2 f9 06 bd
       0.015038364 -0.011182786 0.1074275 -0.03295309
000270 8b 92 1a 3c 54 6f d0 bb 4e c0 6c 3c a8 6c 29 bb
       0.009434353 -0.0063609276 0.014450146 -0.0025852118
000280 ba cf 96 3d 26 d7 1e bd 46 fb 5b 3c 4b 42 91 bc
       0.073638394 -0.0387794 0.0134266075 -0.017731806
000290 46 b3 67 3d d8 61 e6 3c 7e c4 17 bb 74 49 99 3d
       0.056567453 0.028122827 -0.002315789 0.07484713
0002a0 d8 ae 1e bb 8a 54 b8 bc 6e 46 c2 bc e5 e8 fa bc
       -0.0024213102 -0.022501249 -0.023715224 -0.03062863
0002b0 ba 76 61 3d ff a2 15 bc e5 92 59 bd f0 35 67 3c
       0.055044867 -0.0091331 -0.053118605 0.014111981
0002c0 f2 bd 20 3c 93 54 fa 3c c7 d5 65 3d 1c 0f 98 bb
       0.0098109115 0.030557906 0.056112077 -0.004640473
0002d0 9d 80 fd bb fd 14 23 3d 45 c9 ab bc 47 bc 35 bc
       -0.007736279 0.039814938 -0.020969996 -0.011092252
0002e0 41 af 9c 3b 87 83 de 3c ce b3 b3 bb 40 b0 d3 3c
       0.004781634 0.027162326 -0.005484081 0.025840878
0002f0 35 83 3c bc de e1 36 bc 8b 60 60 ba 26 18 0d bd
       -0.011505892 -0.011162249 -0.0008559308 -0.034446858
000300 98 3f 70 3d 40 2a 82 3c df 37 5f 3c a9 4a 20 3a
       0.058654398 0.015889287 0.013624161 0.0006114641
000310 74 cd 48 3d 43 91 bb bc 5b 15 72 bb b1 2c 48 3c
       0.04902406 -0.022896415 -0.0036938998 0.0122176865
000320 6a ff 97 bc 74 6c 9c bb 59 22 77 3d 00 ca 38 3d
       -0.018554408 -0.004773671 0.06033549 0.045114517
000330 12 7c 74 39 15 e7 c2 bc 64 f4 37 bb 4c 9e 9c bc
       0.00023315873 -0.02379183 -0.0028069252 -0.01911845
000340 89 58 2b bc ff 45 58 3d ff 38 3d 3d 48 c8 71 3d
       -0.01045812 0.05280113 0.046196934 0.059028894
000350 ea ca 3a bc a5 a6 09 bd 4c 39 36 3b d5 9d 10 3d
       -0.011400918 -0.03360619 0.0027805148 0.03530677
000360 d5 4a 0c 3b b2 7b da 3b ba 34 f0 3c a8 85 27 bb
       0.0021406908 0.0066675777 0.029322017 -0.0025561843
000370 5a 93 83 bc 66 d0 ab 3d 7f 52 99 3b 06 57 95 bc
       -0.016061474 0.08389358 0.0046790238 -0.018229973
000380 84 00 a4 bc 55 7b 64 3d d5 6c 5a 3d 46 19 b1 3c
       -0.020019777 0.05578168 0.053326447 0.021618497
000390 70 e8 66 bc 46 c3 59 bc c2 cc 5a bc 5d 0a 80 3d
       -0.014093503 -0.013291186 -0.013354482 0.06251977
0003a0 b2 37 06 3c a2 dc 3f 3d 3a e2 2e 3c c3 51 06 3b
       0.00819199 0.04684127 0.010674054 0.002049551
0003b0 54 83 58 bc 46 cc 2e bc 95 04 00 bd 84 f9 9e 3b
       -0.013214905 -0.01066882 -0.03125437 0.004851522
0003c0 88 be 12 3d 3b 71 a1 bc 2b 86 0f 3c a2 35 97 bc
       0.035826236 -0.019707313 0.0087600155 -0.018458191
0003d0 d7 94 ea 3a ba 57 43 bc 47 4b 2c bd d5 f2 07 bb
       0.0017897141 -0.011922771 -0.042063978 -0.0020744104
0003e0 ae e3 68 bc 37 3f a6 3d 38 10 10 3d a9 43 f7 bc
       -0.014214439 0.08117526 0.035171717 -0.03018363
0003f0 f9 bd 82 bc 57 32 10 bb a6 9c 70 bc f1 4d 8b bc
       -0.015959727 -0.002200266 -0.014685785 -0.017004939

critic.ff_layer2.weight f4 [283, 32]
000000 ca d2 cf bd 34 47 cf 3e a9 be 33 bb 90 21 6b be
       -0.10147627 0.4048401 -0.0027426875 -0.22962022
000010 17 8c 57 3e 69 23 01 be b6 fe 53 3e 95 c7 15 bd
       0.21049534 -0.12611164 0.20702633 -0.03656729
000020 73 13 41 be 1e 6c 35 3d 8d 9f bf bd bc e2 ff 3d
       -0.18855076 0.04429256 -0.09356604 0.12494418
000030 2a 54 47 be e5 6b 3a be 7c f7 a1 bb ce 1a 01 3f
       -0.194657 -0.18205221 -0.0049428325 0.50431526
000040 ca 55 fc bd 63 e8 1a be 6a c0 6b 3e f2 7f 93 3e
       -0.123210505 -0.15127711 0.23022619 0.28808552
000050 d1 10 f6 3e c9 d6 07 be dc fb 59 bd 3a 47 29 be
       0.48059705 -0.13265528 -0.053218707 -0.16531077
000060 5f 44 e3 3e 29 45 63 3e 09 ee e7 3d af c7 5a be
       0.443881 0.22194351 0.113246985 -0.21365236
000070 8d e9 22 3e 65 f4 eb 3d 2a 43 49 3e 5e c6 c4 3e
       0.15909405 0.11521224 0.19654527 0.38432592
000080 20 46 dc bd 53 8b d4 bd e0 3e 14 3e db 9f 5c 3d
       -0.10755563 -0.103781365 0.1447711 0.053863388
000090 7a 2b 01 bd 60 03 68 bd 54 69 17 be 32 62 5c be
       -0.031535603 -0.056643844 -0.14786273 -0.21521834
0000a0 ad c9 e4 bd a0 dd fb bd a3 20 56 bc 5d de 3e be
       -0.11171279 -0.12298131 -0.013069305 -0.18639512
0000b0 e4 f2 a6 3d 9d ad 1b be b5 b3 d7 bd 80 6d ab bd
       0.081517965 -0.15202947 -0.10532323 -0.08370495
0000c0 bc 19 bf bd 86 0a 7d 3d bf 7e 15 3d 9e 43 ef 3d
       -0.0933108 0.061777614 0.036497828 0.11682819
0000d0 3d 87 37 bd aa b0 e7 3c 21 5c 0a bd 33 f3 8d 3d
       -0.044806708 0.028282482 -0.033779267 0.06931152
0000e0 82 a8 43 3d 4b 76 3f 3d 03 20 28 3e 74 ad 89 3d
       0.047768123 0.046743672 0.16418462 0.06722537
0000f0 68 93 65 bd a1 8f d9 3d 39 37 c2 bd ba 2e 8b bd
       -0.05604878 0.10623098 -0.09483189 -0.06796022
000100 38 3e 8f bd f0 b3 92 bc 59 02 3b 3d 74 ae 25 be
       -0.06994289 -0.017908067 0.045656536 -0.1617983
000110 33 05 02 be f3 bf dc bc 2a 26 ac 3c 8d 7a 0c 3e
       -0.12697296 -0.026946997 0.021014292 0.13718624
000120 4e 3a 02 be 1e 74 26 3d ca 52 83 3d d5 84 02 be
       -0.12717554 0.04063808 0.06412275 -0.12745984
000130 5e ad 13 3d 08 96 23 bd 63 df 05 3d 3a ea 07 bd
       0.036054008 -0.039938003 0.03268374 -0.03318236
000140 f2 e6 c5 bd 86 43 90 bd 8b f0 14 3e b0 e1 0f 3c
       -0.0966319 -0.07044129 0.14544885 0.008781835
000150 7d 5c 8b bd 5f 57 2a 3d 8f cf 0d 3e 9a ec b2 bd
       -0.0680475 0.04158723 0.13848709 -0.087365344
000160 e4 4b 8a bd fe 4b 6d bd e0 8e be bd 6a f6 0b bd
       -0.06752756 -0.0579338 -0.09304595 -0.034170546
000170 0c 88 e7 bb 4f 28 92 bd 81 ba 7e bd a3 66 d6 bd
       -0.0070657786 -0.071365945 -0.062189583 -0.10468795
000180 7a 70 08 be b7 e2 f8 bc aa 0b be 3d 39 ae 96 3d
       -0.13324156 -0.030381544 0.092795685 0.07357449
000190 0a fc 16 3e 56 0e 7e 3d 63 2f e0 bd 64 34 58 bd
       0.14744583 0.06202539 -0.10946538 -0.05278434
0001a0 95 d0 fa bd 84 dc 2d 3d 49 07 b0 b9 0a c2 50 3d
       -0.12246815 0.04244663 -0.00033574764 0.0509663
0001b0 04 f9 08 be e9 21 9e 3d c4 06 06 be fb b3 50 bd
       -0.13376242 0.077213116 -0.13088518 -0.050952893
0001c0 e3 32 27 be 17 4e 89 3d f6 92 e5 bd 17 ea 2a be
       -0.16328005 0.067043476 -0.11209671 -0.1669086
0001d0 9b 94 0a bd 40 3d c8 3d 1a 97 14 bd f8 26 27 3d
       -0.033833127 0.097773075 -0.036276914 0.040808648
0001e0 08 2f f5 bb 1d 33 2b be 3c 0b 68 3d 10 fc d6 3c
       -0.007482413 -0.16718717 0.05665134 0.02624324
0001f0 49 be 02 be 48 24 70 3d 71 f3 0f 3e ab 94 d3 3d
       -0.127679 0.05862835 0.1405771 0.103310905
000200 10 f3 12 be f1 f7 88 3c 32 49 10 3e d1 2a 4f 3c
       -0.14350533 0.01671979 0.14090422 0.012644486
000210 f2 f3 90 bd d0 5f 89 3d 23 ae 38 be e1 cf cb bd
       -0.07077779 0.06707728 -0.18035178 -0.09951759
000220 5e d1 ee bb 80 22 d8 3d 2f 17 89 bd 08 6c ea 3d
       -0.007288142 0.10553455 -0.06693875 0.114463866
000230 68 43 db 3c 2c be 25 3c 44 51 a2 3d 7f 6d 4e bc
       0.02676554 0.010116141 0.079256564 -0.012599348
000240 40 58 85 3d a5 5f 80 3d 82 cd 89 bd d6 bb a5 3d
       0.06510973 0.06268243 -0.06728651 0.080924675
000250 5c f4 25 bd fc 83 df bd f0 27 00 3d 59 35 ba 3c
       -0.040516242 -0.10913846 0.031288087 0.022730516
000260 95 be 04 be 8e 27 a0 3d 31 bc 9e 3d fb 9e ea 3c
       -0.12963326 0.078200445 0.077507384 0.02864026
000270 48 81 c0 bc e3 b6 0b 3d d7 ee 29 3d 5e fe 5e bd
       -0.023499146 0.03410996 0.04148754 -0.054441802
000280 37 70 1b 3d df f0 d5 bd d2 ea 4a bc c7 89 4c bc
       0.037948813 -0.10446333 -0.012385087 -0.012484021
000290 8e 95 af 3d 2a bd 3f 3d a9 d2 08 3e 78 09 dd bd
       0.08573447 0.04681126 0.1336161 -0.10792822
0002a0 51 7a 59 bd a9 89 86 bc 4d f0 fd 3d 64 aa 0e 3e
       -0.053095166 -0.016423063 0.12399349 0.13932186
0002b0 b1 09 5b 3d 8f 0e e0 bd 24 5a d6 bd ce 60 ab bc
       0.05347604 -0.10940277 -0.10466412 -0.020920184
0002c0 98 69 43 be 47 a0 9b bd 00 e1 79 bd 7c f0 72 3d
       -0.1908325 -0.0759893 -0.061005592 0.059311375
0002d0 99 7d 9c bd 6b 0f 16 be 7e 70 98 3d bd 80 0c be
       -0.07641143 -0.14654319 0.07443331 -0.13720985
0002e0 e8 19 a6 bc 5b 19 06 3e d3 3d 32 3d f4 e2 08 be
       -0.020276025 0.1309561 0.04351599 -0.13367826
0002f0 c2 61 8c bb 52 5b 35 bd 9e 00 81 3d 01 3b ce 3d
       -0.0042841146 -0.044276543 0.06298946 0.10069848
000300 6d ec db 3d 3a 8f 03 bd 8b d4 bd 3d 10 1f 0b be
       0.10738454 -0.032119013 0.09269055 -0.13586068
000310 e6 f1 ef 3d f3 fe 8a 3d f5 f7 19 be 18 56 30 bd
       0.1171606 0.06786909 -0.15035994 -0.043050855
000320 86 06 81 bd 40 24 84 bd 93 18 37 bc 33 0c 6d bd
       -0.06300072 -0.06452227 -0.011175293 -0.057872962
000330 9e cb 65 3d 7c 3b 8e bd 33 cf 03 3e 84 40 c8 bc
       0.056102388 -0.069449395 0.12872009 -0.024444826
000340 f0 67 92 bd 38 ea c8 bc 70 3b 34 3d 11 c4 ac bd
       -0.07148731 -0.024525747 0.044001997 -0.08435834
000350 ad 6e 3c bd ec 28 08 be 87 01 d0 3d 62 4f e2 3b
       -0.046003986 -0.1329686 0.10156541 0.006906436
000360 ec 52 39 bd 64 e9 96 3d 38 65 ec 3b b9 8e a5 bd
       -0.045245096 0.073687345 0.0072142147 -0.08083863
000370 18 3f 1b bd 83 23 c7 bb 1b 96 05 3e 2f 05 cb bd
       -0.037901968 -0.0060772314 0.13045542 -0.09913098
000380 26 cd 1b be 9c 8f 26 be c8 8d 02 be e9 85 83 bd
       -0.15214977 -0.1626572 -0.12749398 -0.06422026
000390 12 54 98 3d d7 2c 08 3d 4e 76 12 3d 35 7b 62 3c
       0.0743791 0.033245888 0.035757355 0.01382332
0003a0 b2 61 ca bb 7c 52 09 be e9 1d ed 3d 50 a2 06 3e
       -0.006176197 -0.13410372 0.115779705 0.13147855
0003b0 f2 76 ff 3a ef 23 ac 3b 39 21 06 bc 70 02 bd bc
       0.0019490405 0.005253307 -0.008186632 -0.023072451
0003c0 c1 97 27 bc d8 d0 06 3c 5f a2 d1 bd 9a 7f 07 bb
       -0.010229052 0.008228503 -0.10236048 -0.0020675422
0003d0 32 64 d7 bc 8a 1a 05 be de b3 2b 3d fc 21 4a 3d
       -0.026292894 -0.12998405 0.04191958 0.049348816
0003e0 63 73 d3 bc a0 44 64 3d f7 31 92 bd 7a 94 b9 3c
       -0.025811857 0.05572951 -0.07138436 0.022653807
0003f0 56 f3 12 be 84 c6 48 3d e7 22 0a be 2f 1c eb bd
       -0.14350638 0.049017444 -0.13489877 -0.11479985

actor.customer_encoder.0.attention.query_embed.weight f4 [32, 32]
000000 10 88 bc 3e 2c e6 f8 3c 18 ca 2f 3e a5 69 b7 3e
       0.36822557 0.030383192 0.17166936 0.35822788
000010 b1 f7 bc be d0 e3 a3 bd b4 ab 2e be 39 ee 61 be
       -0.36907724 -0.08002436 -0.17057687 -0.22063531
000020 0d 5e 55 3e 76 fd 34 3e 2a e9 9c 3e d3 ef d1 3e
       0.20836659 0.17674813 0.3064664 0.41003284
000030 51 af 79 be 5e e7 9b 3d 39 c9 14 3e 89 60 9e bd
       -0.24383284 0.07612489 0.14529885 -0.07733256
000040 0a bb 68 3e fb 72 a7 3e 36 78 d2 be b7 b7 01 be
       0.227276 0.3270491 -0.4110734 -0.12667738
000050 69 5d 0a 3e aa b7 98 be e6 5b 07 be b5 3d 25 3e
       0.13512196 -0.29827625 -0.1321865 0.1613682
000060 8f 40 fd 3d 82 bb 4c be cf 24 c0 bc f0 fb 91 3d
       0.12365829 -0.19993404 -0.023455052 0.071281314
000070 72 dd d2 3e e6 83 82 be fa 4e 32 3d d4 eb 01 be
       0.41184574 -0.25491256 0.04353235 -0.12687618
000080 a8 3d c4 3e 0e 2e 8d 3e 95 50 97 bc b4 7b 0f be
       0.3832829 0.275742 -0.018471042 -0.14012033
000090 26 58 a3 3e 55 82 9b bc 79 c1 c0 bd 51 81 90 3e
       0.3190319 -0.018983046 -0.09411902 0.2822366
0000a0 1f 7c b4 3d fb 2b 8a 3c 2a e9 ad 3e 16 1d 10 be
       0.08812737 0.016866675 0.33966953 -0.14073595
0000b0 77 4c 81 3e 3b b5 58 3e 24 50 54 be c5 72 a7 3e
       0.2525365 0.21162884 -0.20733696 0.3270475
0000c0 3e d5 02 3e d2 20 80 be 5c 78 78 3e 84 8f a2 be
       0.12776658 -0.2502504 0.24264663 -0.3175012
0000d0 cf 7c 14 3b ca fe 0d 3e b8 7f 1d 3e 4f b7 ab be
       0.00226574 0.13866726 0.15380752 -0.3353829
0000e0 2b 67 aa 3e 7b 87 9b 3e e0 10 6a 3e 50 14 1f 3e
       0.33281836 0.303768 0.22858 0.15535092
0000f0 88 f3 40 be 0d 5a 81 3e d6 06 84 3d ae 9a 9f bd
       -0.188429 0.25264016 0.06446616 -0.07793175
000100 6a d8 21 be 77 6a a5 3d 2b c9 01 be 25 f2 a4 be
       -0.15805212 0.08076947 -0.12674396 -0.32215992
000110 51 7f 38 be a0 b5 21 be cc c6 20 bd 6e 16 4b be
       -0.18017317 -0.1579194 -0.039252087 -0.19832775
000120 0a 56 b5 bd 96 4e 5b be d7 bd 8c be d4 ac 21 3e
       -0.08854301 -0.21416697 -0.27488586 0.15788585
000130 0c 99 40 bd b6 cd 2d be 6b 8e 75 bd 79 bc bc 3c
       -0.047020957 -0.16973004 -0.059950273 0.02303909
000140 83 d0 89 be 25 c5 4b 3e dd 25 43 3e 23 07 54 3e
       -0.26916894 0.19899423 0.19057412 0.20705847
000150 29 41 51 be 7c 50 b6 3e 6e 2d 77 3e 7c b6 1e 3e
       -0.20435013 0.3560828 0.24138424 0.154993
000160 ca d9 2c 3e e3 0c 44 be e9 1e 91 3d 8d 5c 88 3e
       0.16879955 -0.19145541 0.07085974 0.2663311
000170 7d f7 bd 3d 8a c6 f2 3a 32 c1 bf be b0 46 bb bd
       0.0927572 0.0018522304 -0.37452084 -0.09144342
000180 78 6d 53 be 80 f8 8d 3e 2c ac ee bc f9 86 8e bd
       -0.20647228 0.27728653 -0.029134832 -0.06959338
000190 99 0d c3 be d3 2f 91 be 24 6c 1c be c7 20 23 3e
       -0.38096312 -0.283568 -0.15275627 0.15930472
0001a0 0b ac 81 bd f3 aa 1d 3e d4 b9 b5 3e 9e 85 3c be
       -0.06331643 0.15397243 0.35493338 -0.18410346
0001b0 37 10 91 3d a6 03 7f 3d e6 cb 8c be 35 d5 03 bd
       0.07083171 0.06225934 -0.27499312 -0.032185752
0001c0 f5 7a a7 3d 2e 51 24 be 94 66 8e be 28 58 8a 3e
       0.08177749 -0.16046593 -0.27812636 0.27020383
0001d0 be 28 dc 3d 14 93 ad be 60 3b bc be f7 41 2c 3d
       0.107499585 -0.33901274 -0.3676405 0.042055096
0001e0 a9 92 2e be 2a 63 9c 3d 0d b6 3a 3e 60 b8 a7 3d
       -0.17048134 0.076361015 0.1823351 0.081894636
0001f0 82 fc 7c 3e 88 b5 10 3e 3b 2b a5 bc 77 26 70 3d
       0.24705699 0.14131749 -0.020162215 0.058630433
000200 06 c5 fa bd e7 78 44 be 06 2a c1 be 58 f8 09 3e
       -0.122446105 -0.19186746 -0.37727374 0.13473642
000210 7c 2e 9c 3e 3b 86 f9 bd cd db 60 3e dc b9 8f 3e
       0.30504215 -0.121838056 0.21958847 0.28071487
000220 82 36 83 3d fb f1 31 3e c4 13 68 3a ff d0 2e 3e
       0.06406881 0.17377464 0.0008853043 0.17071913
000230 4c 74 4a 3e d7 d3 52 3e c8 33 9c 3e c3 fb 0b be
       0.19770926 0.20588623 0.30508256 -0.13670258
000240 d0 63 d7 3d 2f f1 08 3e f1 d9 68 be 27 dd 8d be
       0.105170846 0.13373254 -0.22739388 -0.27707788
000250 a2 62 1e bd 21 83 36 3e 49 a7 9a 3e ec 67 ec bd
       -0.038668282 0.17823459 0.30205753 -0.11543259
000260 96 06 29 be b1 b9 9e be 11 cd 43 3e 82 c2 51 be
       -0.16506419 -0.31001046 0.19121195 -0.20484355
000270 6d 8a a8 3d 94 74 0e 3e a3 f4 88 bd ab 21 ad 3e
       0.082295276 0.13911659 -0.06687286 0.3381475
000280 18 b6 87 3e 17 e6 17 bd d7 f7 47 38 5f e9 6c 3e
       0.26506114 -0.037084665 4.7676116e-05 0.23135899
000290 df ad 5b be d7 85 94 be 7d 73 6c 3e 71 d1 41 be
       -0.21453045 -0.29008362 0.2309093 -0.18927552
0002a0 fe f7 c6 3c a6 bc b9 3c e6 27 85 3e ee e8 80 3d
       0.024288174 0.022672962 0.26007003 0.06294428
0002b0 92 72 fa 3c cd c7 a7 3d ad 9f 1a be b2 13 b5 be
       0.03057221 0.08192406 -0.15099974 -0.3536659
0002c0 7d 63 97 3e d8 48 89 be fc 83 8c be 51 22 b8 bd
       0.2956809 -0.26813388 -0.27444446 -0.0899092
0002d0 57 12 61 3e 53 f1 19 be eb c4 85 3e 1b 68 00 3e
       0.21979652 -0.15033464 0.261268 0.12539713
0002e0 ec d2 77 3e f3 88 08 be 68 fd 2a 3e 78 99 b0 3d
       0.24201554 -0.13333492 0.1669823 0.08623022
0002f0 53 0d a5 3e 7a a6 2a be ba ac a4 3e 58 6d 69 be
       0.32236728 -0.16665068 0.3216303 -0.22795618
000300 90 f6 55 be 21 d7 ab 3e 28 59 56 3e 9c 9d 67 3e
       -0.20894837 0.33562568 0.20932448 0.22618717
000310 fa 76 53 be 88 5b a2 3e 9b f7 c2 bd c0 4e 9a 3e
       -0.20650855 0.31710458 -0.09519883 0.30138206
000320 ee 55 5b 3e 66 e8 a6 be e7 8e 8f bd 6c dd c9 3e
       0.21419498 -0.3259918 -0.07009678 0.39426744
000330 7d 91 44 3e 41 db 99 3d 0c 0d 4e bc 3f 1a 14 3e
       0.19196124 0.075125225 -0.012576353 0.14463137
000340 c7 2b cf bd 0a fd d6 bd 8f 6b 84 be 14 2b 50 bd
       -0.10115772 -0.10497482 -0.2586331 -0.050822333
000350 25 39 7f be 17 37 59 be 40 30 5d 3e 03 c9 54 3e
       -0.24924143 -0.21212421 0.21600437 0.20779805
000360 85 11 20 be cd 51 98 bd 16 f7 15 be 56 ec 4c 3e
       -0.15631683 -0.07437477 -0.14645037 0.2001203
000370 42 69 3e be e9 fb 49 be 78 f9 33 3e 2b 08 2e 3c
       -0.1859484 -0.19725002 0.17575634 0.010622065
000380 92 54 07 3e 0e 5b 04 bd 9e 71 be 3e 3a 93 35 bd
       0.13215855 -0.0323134 0.37196058 -0.04432986
000390 a9 3c 90 3e 66 d2 53 3d d6 c2 ab 3e f0 f5 5b be
       0.2817128 0.051714323 0.33547086 -0.21480536
0003a0 86 d4 4a 3e d4 9b f8 bd 4a e2 52 3e 7b 81 83 be
       0.19807634 -0.12139097 0.20594135 -0.25684723
0003b0 0d 10 44 3e ba 88 9a bd 1c 66 0d be 95 53 05 be
       0.19146748 -0.0754561 -0.13808483 -0.13020165
0003c0 c9 10 82 3e 5c 0e 57 bd 5f f5 bb bd 6d 63 9a 3e
       0.2540343 -0.05250393 -0.0917766 0.3015398
0003d0 72 51 6a 3e f6 63 5f 3c 13 2c 09 be 9c fa ba 3d
       0.22882631 0.013634672 -0.13395719 0.09129831
0003e0 aa 67 98 bd 6d 2c 9c 3e 81 6c 10 3e 2a a6 86 3e
       -0.07441647 0.30502644 0.14103891 0.26298648
0003f0 71 7e 61 3e a3 5b bb bd 80 eb 85 be 89 55 05 be
       0.2202089 -0.09148338 -0.26156235 -0.1302091

actor.customer_encoder.0.attention.key_embed.weight f4 [32, 32]
000000 3a d4 0c be 15 8f ca 3c e2 85 8e 3d 8d 5b cb 3e
       -0.13752833 0.02472643 0.0695913 0.39718285
000010 10 f7 ad 3e c0 4b a8 be b2 6e 0e 3e 9e 9e 6f be
       0.33977556 -0.32870293 0.13909414 -0.23400351
000020 73 45 31 be 9a 14 29 3e 10 fc 8c be 21 2d a9 3e
       -0.17311649 0.16511765 -0.27536058 0.33042243
000030 c9 81 b7 3d 96 50 90 3d 8c fb 79 3e 53 46 a9 be
       0.089603014 0.070466205 0.24412364 -0.33061466
000040 b3 de 95 3d cd 10 ba 3d 85 f5 4a be 52 82 17 be
       0.07317867 0.09085236 -0.19820221 -0.14795807
000050 7f e2 c9 3d df c7 aa 3e 5b 73 07 be 96 1b 61 3e
       0.09857654 0.33355615 -0.13227598 0.2198318
000060 ea 5b 2b 3e 65 d6 4a be f2 f5 83 be c2 21 13 bd
       0.16734281 -0.19808348 -0.2577358 -0.035920866
000070 45 ab 82 3e 90 d2 7e be 1d fa 76 be 00 e7 8f 3e
       0.25521293 -0.2488501 -0.24118848 0.28105927
000080 38 18 52 be 41 0a 76 be 5c d7 57 bc 26 e5 a5 3e
       -0.20517051 -0.24027349 -0.013173904 0.3240139
000090 10 74 6c 3e 81 b9 45 3e 79 9a 63 3d 6c d9 48 be
       0.2309115 0.19309045 0.05556724 -0.1961419
0000a0 ba 3c 91 be 44 a9 3a 3e b8 68 e9 3d 60 9e b6 3d
       -0.28366643 0.18228632 0.11396927 0.089169264
0000b0 a9 50 e8 bd bc 09 b7 be f9 19 e1 3c 80 59 50 bd
       -0.1134351 -0.35749614 0.027478205 -0.050866604
0000c0 f5 01 d2 bc 34 37 3d 3d 76 1a 4a be e9 5e 58 be
       -0.025635699 0.046195224 -0.19736657 -0.21129955
0000d0 0f bc b0 bd 5f 17 03 3e 4d 81 66 be 08 4a aa 3e
       -0.08629619 0.12801884 -0.22510262 0.33259606
0000e0 56 c4 ae be 35 aa 5b be 2a 05 cf 3d 68 18 af be
       -0.34134167 -0.21451648 0.10108407 -0.34198308
0000f0 54 80 51 be 7d 63 26 3e 2b 63 77 be 53 b6 e1 3d
       -0.2045911 0.1624889 -0.24158923 0.11021104
000100 ea a9 37 be 72 0e 19 be af e7 60 3d 64 1b e4 3c
       -0.17935911 -0.14946917 0.05490845 0.027845092
000110 7a b8 a7 3e 69 a8 96 3d 12 8e 85 3d 0e 7b 4e be
       0.32757932 0.073563404 0.065212384 -0.20164129
000120 77 8e 90 3e d0 24 7f bc 1b a1 53 3e 4d 6f 8f be
       0.28233692 -0.015572742 0.20666926 -0.28014603
000130 f6 af 42 3e 5e fe 8f 3e 79 42 59 3e 23 26 90 3e
       0.19012436 0.28123754 0.21216764 0.28154096
000140 46 47 1e be 47 ef 78 be bd 82 0d 3e 92 2a 27 3e
       -0.15456876 -0.24310027 0.13819404 0.16324833
000150 11 d4 53 be 75 af e6 bd f6 dd 52 bb 64 92 f8 bb
       -0.20686366 -0.112639345 -0.0032175756 -0.0075858105
000160 10 30 30 3e c2 b8 84 3e 5a e0 d0 3d c6 80 13 be
       0.17205834 0.2592221 0.10199042 -0.14404592
000170 39 a4 68 be 92 16 9a 3e 8f 6b f4 3c e7 d5 33 be
       -0.22718896 0.30095345 0.029836444 -0.17562066
000180 4a 16 81 be eb 6e 85 be 8d 39 a8 3e 7f 4a 3d be
       -0.25212318 -0.26061186 0.32856408 -0.18485449
000190 37 2e af be db 78 92 be a0 cb 41 be 34 e2 b6 3c
       -0.34214947 -0.2860783 -0.18925333 0.022324659
0001a0 a9 75 6f be 30 00 27 3e c3 a5 9d bd 85 c8 08 be
       -0.23384728 0.16308665 -0.07697632 -0.13357742
0001b0 25 bf 7e be 52 4c a9 bd 68 5e c3 3e 4a 16 88 bb
       -0.24877603 -0.0826651 0.38157964 -0.0041530477
0001c0 5d 55 c9 3d eb 4b bb be 63 74 43 3e 98 0e 0e 3d
       0.09830735 -0.36581358 0.19087367 0.034681886
0001d0 dc 42 97 bd 98 48 c9 3c 76 ea 25 be 7b 44 8e be
       -0.07385799 0.024570748 -0.16202721 -0.2778662
0001e0 39 df 42 be a0 78 d5 3d 8e 73 9c 3e 39 4f 7d be
       -0.19030465 0.10423398 0.3055691 -0.24737252
0001f0 f0 e5 3c 3e 4a 10 0d be b6 33 8d 3e 8d e0 51 3d
       0.18447089 -0.13775745 0.27578515 0.05123954
000200 79 28 a1 be 04 ce 8e be ab eb b6 3d f9 bb 34 3e
       -0.3147619 -0.27891552 0.08931669 0.17649831
000210 9c 97 d3 3d 1c 54 d9 3d 34 c5 3b bd ec 80 56 be
       0.103316516 0.10611746 -0.045842364 -0.20947617
000220 43 8e 14 3d 45 80 94 be 96 71 39 3e 5d c3 05 be
       0.036268484 -0.29004112 0.18109736 -0.13062806
000230 bb e7 99 be e3 63 df 3c e1 c5 cb 3d a7 cf 89 be
       -0.3005961 0.02726931 0.09949852 -0.2691624
000240 23 67 5e be 7c d1 3d bd 2d 84 09 be d3 a0 98 3e
       -0.21719031 -0.046342358 -0.13429327 0.298102
000250 f1 27 94 3d 89 66 f0 bd 77 f3 90 be 1f 6d 7d be
       0.07234181 -0.11738307 -0.2831075 -0.24748658
000260 00 81 03 3e 1a 73 93 bd 02 b5 4f 3d ad 51 8e 3d
       0.12842178 -0.07199688 0.050709732 0.06949172
000270 6b 20 75 3e cd db 69 bc 24 b1 1e 3e 81 f6 a7 be
       0.23938148 -0.014273596 0.15497261 -0.32805255
000280 7d c7 82 3e 71 44 a6 be 8d 0e f6 bd d3 23 a5 be
       0.25542822 -0.32474092 -0.12014494 -0.32253894
000290 c1 de 49 3e d3 9a f0 bd ee 41 ba be 9a 61 27 be
       0.1971388 -0.117482804 -0.36378425 -0.16345826
0002a0 a8 88 4a 3e df cf 84 3e de bf 65 3e 52 f1 ab be
       0.19778693 0.25939843 0.22436473 -0.3358255
0002b0 df 2a 24 be 17 07 84 3d a0 40 af ba 17 c8 4b be
       -0.16031979 0.06446665 -0.00133707 -0.19900547
0002c0 5c 7e b3 3e ed 0f 77 be fb 05 70 3e c6 2c 5d 3e
       0.35057342 -0.24127169 0.23439781 0.21599111
0002d0 19 23 a1 be f3 a3 59 be ce 4d 60 be 25 5e 8a 3e
       -0.3147209 -0.21253948 -0.2190468 0.27024952
0002e0 e2 11 a7 be c7 3d ac 3b 36 07 de bd 35 0f ce bd
       -0.3263083 0.005256388 -0.10841219 -0.10061494
0002f0 f2 93 54 be 28 38 8d be 88 91 a1 be 00 7d a2 bc
       -0.20759562 -0.27581906 -0.31556344 -0.019834995
000300 88 aa 95 3c c3 e0 8b 3d 96 e3 c3 3d bf a4 02 be
       0.018269792 0.06829979 0.09564893 -0.12758158
000310 20 75 54 3e 32 dc 44 3e e9 a1 93 be a6 f2 ab 3e
       0.20747805 0.19224623 -0.28834465 0.33583564
000320 91 50 e0 bc 63 a2 62 bb 33 a1 b3 be 91 3a 3b 3e
       -0.027382167 -0.0034581653 -0.35083923 0.1828406
000330 71 e1 05 3e 9d 48 c2 3d 41 01 3b 3e b8 8e a6 be
       0.1307428 0.09486506 0.18262197 -0.3253076
000340 f9 f6 b3 3e 4d 43 62 3e 71 a3 d2 bd ff 76 38 3e
       0.35149363 0.22095986 -0.1028508 0.18014143
000350 89 ca 0c be ed 71 ca bd d8 a8 2e bb 19 fe 65 3e
       -0.13749136 -0.09885011 -0.0026650932 0.22460212
000360 63 2c 3c 3e 06 56 03 be 43 a5 97 be 6b f8 7a bc
       0.18376307 -0.12825784 -0.29618272 -0.0153180165
000370 39 df 1a be 3c 84 7f bb 8f 11 2d 3e 41 bd 7a 3e
       -0.15124215 -0.003898873 0.1690123 0.24486257
000380 82 e2 73 3c 54 87 2b 3e a6 6f 86 3d 0a 81 42 be
       0.014885547 0.16750842 0.06564264 -0.18994537
000390 e7 89 53 3e 5f b7 6c be 2b 66 d9 bb 46 1b 36 be
       0.20658074 -0.23116826 -0.006634494 -0.17783841
0003a0 85 0f 07 3c 06 70 8f 3e 98 81 fe 3d e9 75 f3 bc
       0.008243446 0.28015155 0.12427062 -0.02971931
0003b0 d6 35 9e be 67 52 89 be 5c ec c3 bd a5 bb 2a be
       -0.3090045 -0.2682068 -0.09566566 -0.16673143
0003c0 e2 b0 89 3d 51 29 a6 be 8e ff ae 3e 4b cb af bd
       0.06723191 -0.32453397 0.34179348 -0.08583697
0003d0 45 34 6c 3e f8 58 74 3e a9 7a 91 3e 22 8e 4c bd
       0.23066814 0.23862064 0.28413895 -0.049940236
0003e0 22 9f dc 3c 3d 00 3b 3e 1e a7 8a be 74 0b c4 bc
       0.02693135 0.1826181 -0.27080625 -0.023931243
0003f0 1b 76 08 3e 98 87 0f bd d9 2a 82 be 88 75 45 3d
       0.13326304 -0.03504142 -0.25423315 0.04820779

actor.customer_encoder.0.attention.value_embed.weight f4 [32, 32]
000000 c2 70 7d 3d 91 1f a9 3e 02 2b e6 3d 34 5d 05 3e
       0.061875112 0.33031896 0.11238672 0.13023835
000010 a3 e6 aa be 46 88 11 3e 94 09 42 3e 01 04 de bd
       -0.33379087 0.1421214 0.18948966 -0.108406074
000020 69 8b 61 be 0f cb 2f bd be b0 9b be f2 8c a6 3e
       -0.22025837 -0.04291826 -0.3040828 0.32529408
000030 2f 7c 5b be 31 ec a2 3e 60 95 b3 be 88 c9 66 3e
       -0.21434091 0.31820825 -0.35074902 0.22537816
000040 4b 54 17 be 3d 68 8b be f0 a2 cb 3d a7 a9 a6 3e
       -0.14778249 -0.27227965 0.09943187 0.3255131
000050 27 96 2c be b0 49 4b 3d 51 19 6d be 40 e7 6b 3e
       -0.16854154 0.04963082 -0.23154189 0.23037434
000060 33 f5 a2 3e 5c 62 c5 bd 2a 6d ad 3e 01 5e 3b 3e
       0.31827697 -0.09637901 0.33872348 0.18297578
000070 cc 70 43 3d 89 c2 1b be 1e a3 79 3e 47 fc 94 3c
       0.047714993 -0.15210928 0.2437863 0.018186701
000080 0d 1d 19 be df 13 b2 be 0c 73 af be 6e 79 b4 3e
       -0.14952488 -0.34780785 -0.3426746 0.35248893
000090 f3 53 3f be ee 0c 87 be 58 8d 65 3e c8 21 cf bd
       -0.18684368 -0.26377052 0.224172 -0.10113865
0000a0 ce fa 86 be ae 2d 92 3d 93 0c 56 bd bd ad 0b 3e
       -0.26363224 0.07137619 -0.052258085 0.13640495
0000b0 c4 31 a8 3e f1 47 b6 bd 54 30 4e 3e 32 4f ca bd
       0.32850468 -0.089004405 0.20135623 -0.098783866
0000c0 ce d8 ee bd 88 7c f1 3d 60 d7 a1 bd 0b 85 c2 3d
       -0.11662446 0.117913306 -0.07902408 0.09498032
0000d0 a4 3e a1 3d c1 f7 90 be e1 b5 a9 bd 33 56 a3 3e
       0.07873276 -0.2831402 -0.08286644 0.31901702
0000e0 3e 44 0e bb 32 9c ab 3e 43 cd 88 3e 6a 33 cb bd
       -0.0021708156 0.33517605 0.26719102 -0.09921916
0000f0 cf bd 23 be d1 da ee 3d 23 23 6f bd 97 f0 3a bd
       -0.15990375 0.1166283 -0.05838312 -0.0456396
000100 63 fe c5 bc c1 d0 69 be 52 e6 63 3e 87 78 0d be
       -0.024169153 -0.2283354 0.22255829 -0.13815509
000110 d0 6d 93 be b9 64 8d be 61 f6 66 be 5d 89 85 3d
       -0.28794718 -0.27615908 -0.22554924 0.065203406
000120 ef 4c ae be 15 bd 05 3e 7f 06 5f be d0 58 2c bc
       -0.3404307 0.1306041 -0.21779822 -0.010519221
000130 89 63 af bd 95 ed d8 bd b8 9d 69 3e 43 06 f7 bd
       -0.08563907 -0.1059219 0.22814071 -0.12061741
000140 dd c6 f6 3d d1 6a 76 3e 47 da 32 3e 0f 09 1a 3e
       0.12049649 0.24064185 0.17466079 0.15042518
000150 14 c2 07 bd f6 d4 3b be 2e a7 85 be bd f1 ab 3e
       -0.03314407 -0.18342957 -0.2610411 0.3358287
000160 96 3c a4 be 2d d5 b0 bd 00 58 99 3e e7 a7 89 bd
       -0.32077473 -0.0863441 0.2994995 -0.06721478
000170 8b 04 98 be 31 31 b2 3e db 72 ba bd 92 3a 17 3e
       -0.29690966 0.34803155 -0.09103938 0.14768437
000180 61 b0 24 3e 23 96 e6 bd d4 68 af be 1f 06 4e bd
       0.16082908 -0.11259105 -0.34259665 -0.050298806
000190 bd a9 8f be 43 e0 31 be 0d 46 98 be 96 d6 28 3e
       -0.28059188 -0.17370705 -0.29740945 0.16488108
0001a0 e1 d9 7e be 40 6d 30 3e e1 3c 98 3e e2 79 34 3e
       -0.24887802 0.17229176 0.29733947 0.1762462
0001b0 6c 13 57 3e be f8 75 3d dd 4e 72 3e b4 32 aa 3e
       0.21003503 0.060051672 0.23662896 0.33241808
0001c0 28 6b 9a 3d bf d7 19 3e 0c 2a 64 3e cb 5c 2f b9
       0.0753997 0.15023707 0.22281665 -0.00016723869
0001d0 b9 9b 9b 3e b9 4d af 3d f6 b9 5c be a3 76 89 be
       0.30392244 0.08559746 -0.21555313 -0.26848325
0001e0 ce 42 b8 3d f6 0e 8f be 77 59 a3 be b4 34 a8 3e
       0.08997117 -0.27941102 -0.31904194 0.3285271
0001f0 21 a2 88 3e a9 c3 c3 bd 73 77 34 3e 74 11 f5 3d
       0.26686195 -0.095588036 0.17623691 0.119662195
000200 d0 60 a7 3e 10 d7 dc 3d eb 8c 27 3e 43 74 81 be
       0.3269105 0.107832074 0.1636235 -0.25284013
000210 37 54 ef 3d 38 77 8b be 9c 48 8a be c8 4e 47 3e
       0.116859846 -0.27239394 -0.27008522 0.19463646
000220 60 2d 31 be 4d 3b 8c 3e 4a e2 b6 bd 71 21 3c 3e
       -0.17302465 0.27388993 -0.0892988 0.18372132
000230 4c ae a8 3e b7 2f 3c 3d 89 62 a4 3e ce 0d 64 be
       0.32945478 0.045943942 0.32106426 -0.22270891
000240 36 0d 40 3e f9 91 e3 3d ff ba 89 3e 87 84 a6 3e
       0.1875504 0.111118264 0.2690048 0.32522985
000250 25 79 96 bd b7 79 9b 3d d1 b6 36 be ce a6 19 3e
       -0.07347325 0.07591575 -0.17843176 0.15005037
000260 53 dd b5 ba 5d d4 26 be 71 0e 48 be 0e 90 b4 3d
       -0.0013875164 -0.16291948 -0.19536759 0.08816539
000270 d0 2f a1 3e ed 3b a0 be 75 c2 69 3e 3e b7 7e 3e
       0.3148179 -0.3129572 0.22828086 0.24874589
000280 ae 83 9c be b5 2a 25 3e 36 18 00 3d 60 cb 88 3e
       -0.30569214 0.16129573 0.03127309 0.26717663
000290 5e 0e 99 3e 3e 07 4b 3e 96 83 0d be d0 31 9e be
       0.29893774 0.19826981 -0.13819727 -0.3089738
0002a0 77 b9 7c 3e e9 5e 49 3a fb 32 13 3e 25 5b e4 3d
       0.24680124 0.0007681684 0.14374916 0.11150197
0002b0 ee fd 3f 3d 8c 00 89 3e 31 3c b5 bd cb 5e 12 3e
       0.046873026 0.2675823 -0.08849371 0.14293973
0002c0 eb 0c 28 3e a8 65 24 be 94 6a 1b 3e 2e c1 cd 3c
       0.16411178 -0.16054404 0.15177375 0.02511653
0002d0 47 e7 b3 be 07 3e 48 3e 32 f9 9f be 95 01 24 3e
       -0.35137388 0.19554912 -0.31244808 0.16016228
0002e0 31 c2 26 be 4c 0b 30 be aa ff 4a 3e 0b df 71 bc
       -0.16285016 -0.1719181 0.1982409 -0.01476265
0002f0 19 33 84 be 73 04 fb 3d c4 3d 47 be f9 2b a5 be
       -0.25820234 0.12256708 -0.19457155 -0.3226011
000300 09 9f 91 3e c6 b0 98 be ef 43 1a be 4b 64 5a be
       0.28441647 -0.29822367 -0.15064977 -0.21327321
000310 95 4d 8a 3e 67 95 02 bd 1d 33 97 be e9 79 54 3e
       0.27012315 -0.031880762 -0.29531184 0.2074963
000320 42 00 88 3e 93 08 df 3d 96 fe 1f bd 4e 17 ae be
       0.26562697 0.10890307 -0.03906115 -0.34002155
000330 01 95 5e bd b9 a6 46 3e 24 24 76 be 7f 5d b2 be
       -0.05434132 0.19399537 -0.24037224 -0.34836957
000340 7b c6 23 bb 27 e8 67 3d 2d d8 0d be 79 7e 15 be
       -0.002499013 0.056617882 -0.13851996 -0.14599027
000350 bb 65 8c be e5 2d 5b bd cc 65 a8 3e d8 c0 96 3e
       -0.27421364 -0.053510565 0.32890165 0.29444003
000360 f0 44 71 3d db 65 9a 3a 7a b6 a1 3e 67 02 58 3d
       0.058903635 0.0011779623 0.3158453 0.052736666
000370 e2 d7 47 bd 52 85 80 be 1a 35 a7 3e f6 db ac be
       -0.048789866 -0.25101715 0.326577 -0.33761567
000380 4f 23 fd bd 4c 04 9e 3d 2e dc 30 3d a3 86 ec bd
       -0.1236025 0.07715663 0.04317873 -0.115491174
000390 8e 9c a8 be 01 7c 10 3d 83 0e ae bd fe c4 7d be
       -0.32931942 0.03527451 -0.08498862 -0.24782178
0003a0 93 92 60 be 40 d3 30 be 9a 78 a7 be c5 a9 2f 3e
       -0.21930914 -0.17268085 -0.327092 0.17154606
0003b0 ee d1 ab bb b4 b5 9c be a9 de 37 3e 5b 12 8a 3e
       -0.0052435314 -0.30607378 0.17956032 0.2696713
0003c0 26 6e a1 3d 89 14 f3 bd bf 43 e8 bd 91 22 ea 3d
       0.07882337 -0.11869151 -0.113410465 0.11432374
0003d0 fa f5 aa 3e 43 1b 10 3d 10 e2 09 be a0 23 45 bd
       0.3339079 0.03518225 -0.13465142 -0.048129678
0003e0 d4 cb 0a 3e 10 ef 9d 3e 91 5f ad 3e 39 7b b4 3e
       0.13554317 0.30846453 0.33861974 0.3525026
0003f0 a3 3a 78 be ee 8d 70 3d 13 d4 9a 3c 33 39 95 3d
       -0.24241118 0.058729105 0.018899953 0.072863005

actor.customer_encoder.0.attention.combine.weight f4 [32, 32]
000000 b3 e6 e2 bc 25 5e 02 be 70 13 8c 3d e2 27 ec 3d
       -0.027697897 -0.12731226 0.06839645 0.115310445
000010 53 13 08 3d 0d c8 a5 3c 8e 35 20 3e 29 86 7c bd
       0.033221554 0.020236993 0.1564543 -0.061651383
000020 b0 5d bc bc f7 2b 5a 3d 7a f4 d1 bd 89 e5 12 be
       -0.022993892 0.053264584 -0.10251708 -0.14345373
000030 c9 78 12 bd b9 ac d9 3d b5 1b ad bd e7 0a 6a 3d
       -0.03575972 0.10628647 -0.0845255 0.057139304
000040 dc 5d da bb b9 92 1d 3e 93 21 d0 3d ae 71 bc bd
       -0.006664021 0.15388002 0.10162654 -0.0920137
000050 b4 d7 32 be 19 4a c1 3d a6 a5 31 be cf c4 e7 bd
       -0.17465097 0.09437961 -0.17348346 -0.11316835
000060 d6 44 1e 3e 26 1d 2f 3d b2 a3 64 3c cf 33 02 be
       0.15455946 0.042752407 0.013955044 -0.12715076
000070 78 f8 26 bd fa 34 92 3c 70 44 c9 3d b6 99 a5 bd
       -0.040764302 0.017847527 0.098275065 -0.08085959
000080 1a 9d db bc 4a 97 26 3d d3 ad 30 be 47 35 50 bd
       -0.02680831 0.040671624 -0.17253809 -0.05083206
000090 69 52 29 be ae 82 81 bd 2c f8 ce bd 92 5e ba 3d
       -0.16535343 -0.06323753 -0.10105929 0.09100069
0000a0 c8 1a e4 bd b2 fd 2d be ed e4 c4 bc 8d 42 ad bd
       -0.111379206 -0.16991308 -0.024034942 -0.08459959
0000b0 4a e5 bf bd f6 99 60 bd ca 2b 94 3d f0 99 19 be
       -0.09369905 -0.05483433 0.072349146 -0.15000129
0000c0 c7 13 06 be 5d 76 db 3c 82 a1 bc 3d 1e 89 9d 3b
       -0.13093482 0.026789838 0.09210493 0.0048076054
0000d0 5e 56 2a 3e fe 08 af 3d 85 8f 06 be 85 15 bd 3d
       0.16634509 0.08546637 -0.13140686 0.0923262
0000e0 f6 cb af bd d1 4b 02 3e a7 ef f8 bc b8 f0 12 3e
       -0.08583824 0.12724234 -0.030387713 0.1434964
0000f0 d2 86 d2 bc 28 96 34 bd 84 44 04 be 9b 2e 2d 3e
       -0.025699053 -0.044088513 -0.12916762 0.1691231
000100 12 cd df bd 0c 3e 9e bd d2 ac b4 bd fb 2e 42 be
       -0.10927786 -0.07726678 -0.08822025 -0.18963234
000110 1f d9 aa bd bd 75 22 3e e7 4c ef 3d 24 17 33 3d
       -0.08342194 0.15865226 0.1168459 0.04372324
000120 56 f0 83 bd 56 27 2f 3c 10 29 42 bd ef 53 22 be
       -0.06442325 0.010690531 -0.04740244 -0.1585233
000130 50 1d 0a 3e ea 3c bd 3d 78 c4 21 3e e6 ad 1a be
       0.13487744 0.09240134 0.15797603 -0.151054
000140 c3 cd 1c 3d f2 b3 b1 3d 42 79 6f bc c2 9f bf 3d
       0.038282167 0.086769 -0.014616312 0.09356643
000150 35 5a d1 3d 27 e7 cc bd a0 13 fc 3d 67 04 2e 3d
       0.10222284 -0.10005026 0.12308431 0.042484667
000160 5a 9d 0a bd 74 0a 7a 3d 5a 0c 08 3e e7 f5 3e 3d
       -0.03384147 0.061045125 0.13285962 0.04662123
000170 cc 0d ae 3d 7d d5 07 be 93 d3 c2 bd 3c aa d4 bc
       0.08498725 -0.13265033 -0.09513011 -0.02596008
000180 a1 18 c8 3d 61 95 d6 3d c4 52 47 bd 2c 6d 2a bd
       0.097703226 0.104777105 -0.048662916 -0.04160802
000190 33 4d 0f bd 06 b1 7a bd 33 eb 19 3e 52 05 c5 3d
       -0.034985732 -0.06120398 0.15031128 0.096201554
0001a0 78 9d d6 3d f5 3d 7b bd e9 7b 4a bd 93 52 16 be
       0.104792535 -0.061338384 -0.049434576 -0.14679937
0001b0 ae c7 12 3e c6 9b 8a bd 06 8e bd bc 9d 9f ed bd
       0.14333984 -0.06767993 -0.023139011 -0.116027094
0001c0 6c 98 3c 3d 7b 73 9d 3d f1 05 36 be 95 2e 0d 3e
       0.0460438 0.07688042 -0.17775704 0.13787301
0001d0 b9 b6 49 3d ec ea b7 3d 73 fd 0d be 5b 5e 7a 3d
       0.049246524 0.08980355 -0.13866214 0.06112514
0001e0 d0 62 30 3e b7 dd 02 3e 84 8a c9 bd 74 47 a5 3c
       0.17225194 0.1277989 -0.09840873 0.020175673
0001f0 de a1 eb bd 2f a2 71 3d e3 fe 97 3d f4 a9 b9 3d
       -0.11505483 0.05899256 0.07421663 0.09065619
000200 fd 12 1e be 1c 7d b4 3d ac e9 cc b8 e0 b2 05 be
       -0.15436931 0.08812925 -9.771003e-05 -0.13056517
000210 be ca a2 bd d9 08 2a 3e 61 6f 15 be b9 7a f3 3d
       -0.07948826 0.16604938 -0.14593269 0.11888642
000220 5f 4c 1c 3e 06 bf f9 bd fe 97 27 be c1 42 01 be
       0.15263508 -0.12194638 -0.16366574 -0.12623121
000230 c5 ae 23 3c f7 f5 29 be cc 31 ff 3d 6f 13 19 3e
       0.009990399 -0.16597734 0.1246067 0.1494882
000240 61 b2 5b bc ee 37 b7 3d 5e 69 e5 3d 89 9c 4d 3d
       -0.013409228 0.089462146 0.11201738 0.05019811
000250 83 29 9d bd 6d ac 2a 3c 26 d1 18 3e bc 6c 2a bd
       -0.07673933 0.010417086 0.14923534 -0.041607603
000260 46 ba 03 3d 06 93 b4 ba a0 f9 86 bd 35 25 0f bd
       0.032160066 -0.0013776727 -0.06590581 -0.034947593
000270 d7 45 a4 bd d7 ae 5c bd e4 d5 2c 3e da d0 0b bd
       -0.080211334 -0.053877678 0.16878468 -0.034134723
000280 c1 8e a1 bc 7e bc 22 3e aa d1 6c 3d 43 db 0a be
       -0.01972139 0.15892217 0.05781714 -0.13560204
000290 d0 e9 52 bd 61 f2 83 bd 61 16 96 bd 10 4d 16 be
       -0.051492512 -0.064427145 -0.07328487 -0.14677835
0002a0 2c 5e af 3d bc a0 0a 3e 12 33 0f be a4 5d 2f 3e
       0.08562884 0.13537878 -0.13984326 0.17125565
0002b0 30 18 aa 3d 9e 53 2e 3e a3 0a f5 bd 1a 42 6a 3d
       0.08305395 0.17024085 -0.119649194 0.057191946
0002c0 aa 97 01 3e 60 63 e4 3d 47 0a 20 bd aa 0b 03 3e
       0.12655511 0.11151767 -0.0390723 0.12797418
0002d0 37 5f c6 3d 5c 62 ff bd bc 27 ab 3d 76 0d c2 bd
       0.096861295 -0.124699324 0.08357188 -0.09475224
0002e0 86 09 15 3e fe d9 92 bd 7c 97 d0 bd 7f dc a2 3d
       0.14554414 -0.07170485 -0.10185143 0.079522125
0002f0 13 bb b8 bd f6 48 80 bd e4 fc e2 3d 6d 0e 2f 3e
       -0.090200566 -0.06263916 0.11083391 0.17095347
000300 27 01 55 3d 0f 57 22 3e af f3 97 3d 9b fd f9 bc
       0.052003052 0.15853523 0.07419526 -0.030516436
000310 59 b3 82 bd df 32 25 bd d0 e5 2f bb 9a 53 6e bc
       -0.06381864 -0.040331718 -0.002683986 -0.014546299
000320 ba e5 c1 3c 23 70 14 3d 48 c2 00 be d1 17 db bd
       0.023669112 0.036239754 -0.12574112 -0.10697902
000330 fd 3f 22 3e 95 b9 b6 bd da a7 a6 3d f7 40 33 3e
       0.15844722 -0.08922116 0.08137484 0.17505251
000340 80 be 1c be 9b 45 82 3c 6f 6e 17 3d 34 6d e2 bd
       -0.15307045 0.015902331 0.036970552 -0.11055985
000350 1e 26 13 bd 80 c3 b1 bd 14 5b 2f be f4 2c 2f bd
       -0.035925023 -0.08679867 -0.17124587 -0.04276748
000360 fe 30 1e 3e b8 cf 3f 3e de 13 da bd dd 05 32 bd
       0.15448377 0.18731582 -0.106483206 -0.043462623
000370 00 8e b8 bd e9 9b d1 3d b9 e6 1d be b1 60 80 bd
       -0.09011459 0.102348156 -0.15420045 -0.062684424
000380 86 7f 63 bd 3b 8b 9c bd b7 bc 16 3e c1 d1 1f be
       -0.055541538 -0.076437436 0.14720426 -0.15607359
000390 6b c7 03 be ac de 1d be cf f1 91 bd 43 8b b0 3d
       -0.1286904 -0.15416974 -0.071261995 0.08620312
0003a0 61 e5 e7 3c d1 31 0a bc 1f 7c 0f 3e 85 95 f0 3d
       0.028307619 -0.008434729 0.14012192 0.117472686
0003b0 e4 27 27 3d d8 cf 4e 3d 4c 56 7e bd 8d 52 2e be
       0.040809527 0.050491184 -0.062094018 -0.17023678
0003c0 59 0a 0d 3d 8d 91 1f 3e c2 33 09 3e cc 39 04 bc
       0.034433696 0.15582867 0.1339865 -0.0080704205
0003d0 e4 b7 06 3a 50 61 26 3e 48 76 3a be 62 cf 14 3e
       0.0005139096 0.1624806 -0.18209183 0.14532235
0003e0 da 4f 26 3e 81 28 ca 3d af db 94 3d 4e 9d 03 3c
       0.16241398 0.09871007 0.07268464 0.00803311
0003f0 89 87 40 3d 5b 0b b8 bd b0 fa e0 bc e4 85 e9 bd
       0.047004256 -0.08986541 -0.027463287 -0.11402491

actor.customer_encoder.0.BN1.weight f4 [32]
000000 52 98 80 3f 48 26 83 3f 78 fb 80 3f 7a af 78 3f
       1.0046484 1.0246058 1.0076742 0.97142756
000010 00 85 7e 3f eb 08 7d 3f 9f 62 80 3f 55 82 83 3f
       0.9942169 0.9884173 1.0030097 1.0274149
000020 26 40 7f 3f 05 b6 7d 3f c5 b0 80 3f 5e 0b 82 3f
       0.9970726 0.99105865 1.0053946 1.0159719
000030 34 e0 7e 3f af 56 80 3f 4d d3 78 3f 5f 17 7f 3f
       0.99560857 1.0026454 0.9719742 0.99645036
000040 cc 64 7c 3f 8d 28 80 3f ae 93 84 3f ee 64 80 3f
       0.98591304 1.0012375 1.0357568 1.0030801
000050 6d 08 7e 3f f2 f1 7c 3f 49 6b 7f 3f 18 e6 7f 3f
       0.99231607 0.9880668 0.9977308 0.9996047
000060 1f 87 80 3f 28 0f 7f 3f 6c 9d 7d 3f 87 38 7f 3f
       1.0041236 0.996325 0.9906833 0.9969563
000070 2b 34 80 3f 40 a5 79 3f 5b 58 82 3f 38 5a 80 3f
       1.001592 0.97517776 1.0183214 1.0027533

actor.customer_encoder.0.BN1.bias f4 [32]
000000 a3 58 8a bc be d8 06 bd d4 62 fe bb 1d e2 50 3b
       -0.016887968 -0.032921545 -0.007763246 0.0031873055
000010 4d 39 cb bb a1 fc 01 ba 44 2c 21 3c 0b 17 00 3d
       -0.006201899 -0.0004958604 0.009837214 0.031271975
000020 ec 2d 36 3c cb d8 2f 3c df a3 0c bd f1 ee fe 39
       0.011119347 0.01073284 -0.034335967 0.0004862468
000030 80 fd d3 bb 90 f3 b0 3b 17 10 98 bc d4 72 c7 bb
       -0.0064694285 0.0054001287 -0.01856236 -0.0060866866
000040 f0 55 79 3b 98 ad 69 3b 09 31 4e bc a5 de 96 ba
       0.0038045608 0.0035656448 -0.012584933 -0.0011510445
000050 92 ae 6a bc 9e 60 66 3c 12 82 7a 3c 8e 01 2e 3c
       -0.014323847 0.014061121 0.0152898 0.010620488
000060 f1 67 9d 3c f5 48 61 bc cb 1f 60 bc e4 c1 14 bc
       0.019214602 -0.0137503045 -0.013679455 -0.00907943
000070 fd 98 5f bc 7c 93 ed 3c 42 e1 bb 3c e5 68 8c bb
       -0.013647315 0.02900099 0.02293456 -0.0042849653

actor.customer_encoder.0.BN1.running_mean f4 [32]
000000 4a bb 3b 3f c6 74 ca be 1d 02 ee 3e a2 24 15 3f
       0.73332655 -0.39542216 0.46485987 0.5825902
000010 22 40 56 bf f6 0a e4 3e cb 1b 08 3e 77 0d ff 3d
       -0.8369161 0.44539613 0.13291852 0.1245374
000020 8f 26 9c be 82 c9 93 3e e1 03 6e be 7b bd 8c 3e
       -0.30498168 0.28864676 -0.23243667 0.27488312
000030 e2 54 1a bf 65 4f 8e 3f 19 e4 0b 3f 12 93 ab 3e
       -0.6028577 1.1117979 0.54644924 0.33510643
000040 da 87 49 be 5e 4a a5 be 77 93 f7 3d 09 94 44 3e
       -0.1968073 -0.322833 0.120886736 0.19197096
000050 a7 b9 84 be ae 37 f1 be bd 27 0c bf d8 09 f3 be
       -0.25922891 -0.47112793 -0.54748136 -0.47468448
000060 c2 bb 3d 3e b1 19 6d 3d bf 9f 2f 3e 60 52 cb 3e
       0.18528655 0.05788583 0.17150782 0.39711285
000070 b9 d2 15 3e 80 c3 81 bd 88 46 49 3d 4a fd 9b bd
       0.14631166 -0.06336117 0.04913953 -0.076166704

actor.customer_encoder.0.BN1.running_var f4 [32]
000000 cb 09 9d 3c f8 1d 3b 3b bd c8 08 3d be 17 92 3c
       0.019169709 0.0028551798 0.033394564 0.017833587
000010 9b a5 fa 3c fe 3c fd 3c 56 7c 79 3c 55 94 39 3b
       0.030596545 0.030912872 0.015227398 0.0028317173
000020 7a 12 2a 3c 12 fa 37 3b 7e 55 d0 3c 52 49 67 3c
       0.010380382 0.0028072638 0.02543139 0.014116602
000030 7f a9 a5 3c 56 ee 65 3d d8 59 30 3c a6 dc 39 3c
       0.020222424 0.056135498 0.010763608 0.011344111
000040 a3 c8 af 3b 0b 57 02 3c e8 9a 34 3c 0e a3 db 3b
       0.005364494 0.007955323 0.011023261 0.0067027872
000050 99 6a 07 3c 51 a9 05 3d b3 c4 46 3c 20 e4 9b 3b
       0.008265161 0.032632176 0.012131858 0.004757419
000060 6a 19 77 3c 46 0e ff 3a 43 53 7a 3c eb 6c 76 3c
       0.015081743 0.001945921 0.01527864 0.0150406165
000070 dc eb 1a 3d 9a 94 80 3c 2e 60 7b 3b a9 44 5b 3c
       0.03782259 0.015695859 0.0038356888 0.013383069
