output/282nodes_entropy0.01_0.4_0.85_2_230823/epoch8.pth (torch, 514363 bytes, 129 tensors)

critic.ff_layer1.weight f4 [32, 283]
0	0x3db39d9c	0.08770296
1	0x3d959fdc	0.073058814
2	0xba98d122	-0.0011659006
3	0x3d63d5d4	0.055623844
4	0x3b2ef242	0.002669469
5	0x3c35570c	0.011068117
6	0xbc9edc03	-0.01939202
7	0x3d416eb5	0.04722472
8	0x3d6f95bc	0.058492407
9	0xbcc39646	-0.023875367
10	0x3d75192f	0.05983847
11	0x3c4badf9	0.012431615
12	0x3d137e72	0.03600926
13	0x3d0cca57	0.034372654
14	0x3d3c9dbb	0.04604886
15	0x3bad6ce1	0.0052925204
16	0x3d6f2402	0.05838395
17	0x3ca3afa6	0.019981217
18	0xbc82ae02	-0.015952114
19	0x3ced5954	0.028973259
20	0xbca9f75a	-0.02074783
21	0x3cb5e112	0.022202048
22	0xbc1bc213	-0.00950672
23	0x3d647b06	0.055781387
24	0xbd20bf9f	-0.039245244
25	0xbcb8b98b	-0.022549411
26	0xbc2677fb	-0.0101604415
27	0xbcd8eeed	-0.026481116
28	0x3c0ee6cb	0.0087220175
29	0xbd327db0	-0.043576896
30	0x3d8fdd6c	0.07024655
31	0xbd0cfbb0	-0.034419715
32	0x3d6df0cf	0.05809098
33	0x3cdae569	0.02672072
34	0xbc3cbd1c	-0.011519697
35	0x3d1296c4	0.035788313
36	0x3c8d790b	0.017269632
37	0x3d902dac	0.07039961
38	0x3c985485	0.01859499
39	0xbbf68da8	-0.007524211
40	0x3ca8ca66	0.020604324
41	0xbbc60c3d	-0.0060439394
42	0x3c8b1e35	0.016982177
43	0x3d4fca1a	0.05072985
44	0x3d1b4324	0.037905827
45	0xbcbdf350	-0.02318731
46	0x3d204b76	0.039134465
47	0x3c4a9e8d	0.012366903
48	0x3d34b72b	0.044119995
49	0xbce7f017	-0.028312726
50	0xbd2d7229	-0.0423452
51	0xbb061c84	-0.0020463774
52	0xbcec2fb6	-0.028831344
53	0x3d6b9ce8	0.057522684
54	0x3cb63623	0.022242611
55	0x3d00e937	0.03147241
56	0x3cff545e	0.03116816
57	0x3a7a31be	0.00095441553
58	0x3d83c6a6	0.064343736
59	0xbd0fdf68	-0.035125166
60	0x3cbfcd08	0.023413196
61	0xbc8c319a	-0.017113496
62	0x3d11337a	0.035449483
63	0xbc9f368e	-0.019435193
64	0x3ccaea9b	0.024770072
65	0xbbab612a	-0.0052300887
66	0x3d1a3259	0.03764567
67	0xbc95654b	-0.018236777
68	0xbcdf5e95	-0.02726678
69	0xbc816d52	-0.015799198
70	0x3d8dc4a9	0.069222756
71	0x3cb5bd60	0.022185028
72	0x3d7bbdeb	0.061460417
73	0xbce7d625	-0.028300354
74	0xbd3583e9	-0.044315252
75	0xbd0acdfa	-0.03388784
76	0xbc2ea850	-0.010660246
77	0x3d085d66	0.033292197
78	0x3cddb28e	0.02706268
79	0x3d66c0a9	0.05633608
80	0xbcfad758	-0.030620262
81	0xbcc368ae	-0.023853626
82	0x3cb1aa75	0.021687726
83	0xbca7d789	-0.020488517
84	0x3d29f627	0.041494515
85	0xbb016318	-0.0019742902
86	0x3d370159	0.04467902
87	0xbd09f1b1	-0.03367776
88	0xbbd5e778	-0.0065278374
89	0x3c97f674	0.018550135
90	0x3ca5ea45	0.02025331
91	0xbb933b17	-0.004493128
92	0x3d388d2d	0.04505651
93	0x3d125ba7	0.035731938
94	0xbcf47e3f	-0.029845355
95	0xbcc7dfe4	-0.024398752
96	0x3d59d916	0.053185545
97	0xbc4b2d9d	-0.012401012
98	0x39d4cd26	0.00040588639
99	0xbd34b3e1	-0.04411686
100	0xbcf155d6	-0.029459875
101	0x3c77ccdd	0.015124527
102	0xbc0ab960	-0.008467048
103	0xbd3959ba	-0.045251586
104	0x3cd1889d	0.025577838
105	0xbd010556	-0.03149923
106	0xbd12a8f9	-0.035805676
107	0xbc5ac896	-0.0133534875
108	0xbd276afd	-0.040873516
109	0xbce35cd3	-0.027754223
110	0x3d9d82d2	0.076909676
111	0x3c8cf7bc	0.017207973
112	0x3d1912fb	0.037371617
113	0xbd1a42ee	-0.037661485
114	0xbcaf0e2c	-0.021369062
115	0xbc0a8104	-0.008453611
116	0x3c624a2f	0.013811632
117	0xbd35b97a	-0.044366337
118	0xbc8e972c	-0.017406069
119	0xbd06a7c4	-0.032874838
120	0x3bdc9946	0.006732139
121	0xbb7f59b5	-0.0038963382
122	0xbb9e2781	-0.0048264866
123	0xbd11b342	-0.035571344
124	0xbce7e7e7	-0.028308822
125	0xbc795c9e	-0.015219836
126	0xbbef15a2	-0.00729628
127	0xbd3109c7	-0.043222215
128	0x3d5d9465	0.0540966
129	0x3c96812f	0.018372146
130	0x3d6f89d0	0.058481038
131	0x3cd1a944	0.025593407
132	0xbcf9908e	-0.030464437
133	0x3d55c3b4	0.05218859
134	0xbc7f80f4	-0.01559471
135	0x3a2aba3a	0.0006512735
136	0xbcd274d8	-0.025690481
137	0xbd1fa37f	-0.03897428
138	0x3d053ed5	0.032530624
139	0xbb6a2632	-0.0035728333
140	0x3d114a3d	0.03547119
141	0xbd08cc1c	-0.03339778
142	0x3d6487cc	0.05579357
143	0xbba0758e	-0.004896826
144	0x3a845135	0.0010095002
145	0x3c4fbb53	0.012678939
146	0x3d4b99c1	0.049707178
147	0x3d832fcc	0.06405601
148	0x3d582658	0.052770942
149	0xbd14662b	-0.036230247
150	0x3cf0473f	0.029330848
151	0xbd08e612	-0.033422537
152	0x3c1030b4	0.008800674
153	0xbcb23cd1	-0.021757515
154	0x3d97675b	0.0739276
155	0xbd266d15	-0.040631372
156	0x3d27c1aa	0.040956177
157	0x3c7b3896	0.015333315
158	0x3d021b20	0.03176415
159	0xbc93dec7	-0.018050564
160	0x3d66b400	0.056324005
161	0x3af3c2fa	0.0018597536
162	0x3b562e76	0.0032681501
163	0xbd3f98ec	-0.046776697
164	0x3cd89554	0.026438393
165	0x3c00d995	0.007864376
166	0xbc152559	-0.009103143
167	0x3d887f51	0.06664909
168	0x3d03917d	0.03212117
169	0xbcd0f72b	-0.025508484
170	0xbcbeb0c6	-0.023277652
171	0x3a41b104	0.0007388743
172	0x3d56d7c1	0.052451853
173	0xbae93cca	-0.0017794606
174	0xbcc29ca4	-0.023756333
175	0xbbf4c4b1	-0.0074697365
176	0xbd0b8c9a	-0.034069635
177	0x3c8372fe	0.016046043
178	0x3d7e9214	0.06215103
179	0xbd319f35	-0.043364722
180	0x3c8f337e	0.017480608
181	0x3d4f03cf	0.05054074
182	0x3c522549	0.012826272
183	0x3a457487	0.00075323175
184	0x3d0e7b23	0.0347854
185	0x3d19946f	0.037495073
186	0x3ccae4ce	0.024767306
187	0x3c120927	0.008913315
188	0xbc186701	-0.009301902
189	0x3c2f3d14	0.0106957145
190	0x3b96e0fe	0.004604458
191	0xbc2f8073	-0.010711777
192	0x3d51edcd	0.051252175
193	0x3d30783c	0.043083414
194	0x3b08b814	0.0020861672
195	0xba5d3d16	-0.00084395835
196	0x3c890be3	0.0167293
197	0xbacb7968	-0.0015523853
198	0x3cd1d94b	0.025616309
199	0x3cd9822d	0.02655133
200	0xbd00add9	-0.031415794
201	0xbc254ba0	-0.010088831
202	0x3d742965	0.05960979
203	0x3cf8b4ae	0.030359592
204	0x3c12818a	0.008942017
205	0xbcd0f307	-0.02550651
206	0xbcbd223e	-0.023087617
207	0xbd05447d	-0.03253602
208	0xbc091216	-0.008366128
209	0x3cfe4a4d	0.031041289
210	0x3d5da058	0.054107994
211	0x3d343c69	0.044002924
212	0xbd023c50	-0.0317958
213	0xbcc06d8b	-0.023489734
214	0x3acaa421	0.0015460291
215	0x3d5581ad	0.05212562
216	0x3c3bc2b3	0.011459994
217	0xbc78c098	-0.015182637
218	0x3cc46c29	0.023977356
219	0xbca5fbbf	-0.020261643
220	0xbcfa86b6	-0.030581813
221	0x3d7060c4	0.058686033
222	0xbbe39e4c	-0.0069463607
223	0xb815da13	-3.5727466e-05
224	0xbd49cc02	-0.049266823
225	0x3d4cd96c	0.050012037
226	0x3d3eab47	0.04655006
227	0x3ccf4bb3	0.02530465
228	0xbcf6b2f9	-0.030114638
229	0xbd661cc6	-0.056179784
230	0xbcc8abbe	-0.024495956
231	0x3d803712	0.06260504
232	0x3cbf2ede	0.023337778
233	0x3d6fbd6a	0.05853025
234	0x3cefb0a7	0.02925904
235	0x3cc75317	0.024331613
236	0x3c5424d5	0.012948235
237	0xbce26aa4	-0.02763874
238	0xbd00fa94	-0.03148897
239	0xbd2c9c0e	-0.042141013
240	0x3d0d9d16	0.034573637
241	0xbce0e463	-0.027452653
242	0xbc8e108e	-0.017341878
243	0xbd01cfbb	-0.031692248
244	0x3b14c230	0.0022698753
245	0xbc946b59	-0.018117594
246	0xbd283ff5	-0.04107662
247	0x3ca9a43a	0.020708192
248	0xbc354081	-0.011062742
249	0x3d2e613c	0.0425732
250	0x3c3a535d	0.011372414
251	0xbd117bbd	-0.035518397
252	0xbc90a68c	-0.01765754
253	0xbc80e072	-0.015732024
254	0xbcdd789e	-0.027035054
255	0xbd56b467	-0.05241814

critic.ff_layer2.weight f4 [283, 32]
0	0xbdadf30a	-0.08493622
1	0x3e88f851	0.2675195
2	0xbdad6b66	-0.0846775
3	0xbe577512	-0.21040753
4	0x3db601b1	0.08887041
5	0xbdfb7c97	-0.12279623
6	0x3db1d071	0.08682335
7	0xbdaa4d7d	-0.08315561
8	0xbe4607a6	-0.19338855
9	0xbd554bf7	-0.0520744
10	0xbda5c7f6	-0.0809478
11	0x3c9dea57	0.019276781
12	0xbe48b8eb	-0.1960179
13	0xbe4afac8	-0.19822228
14	0xbd693016	-0.056930624
15	0x3ea80ee4	0.3282386
16	0xbe2c3c57	-0.16819893
17	0xbe146751	-0.14492537
18	0x3db36f58	0.087614715
19	0x3e1dd0ab	0.15411632
20	0x3ead9f2e	0.33910507
21	0xbdf3976b	-0.11894115
22	0xbda23b0c	-0.079214185
23	0xbe3bbec1	-0.18334486
24	0x3e98b034	0.29821932
25	0x3dbf9872	0.093552485
26	0xbc464419	-0.012101197
27	0xbe708c22	-0.23490956
28	0x3d531206	0.05153086
29	0xbd8de0e1	-0.06927658
30	0x3d228d18	0.03968534
31	0x3e870c4a	0.26376563
32	0xbcb602e9	-0.022218185
33	0xbdb8db8b	-0.090262495
34	0x3df2085d	0.118180014
35	0x3db5334f	0.08847677
36	0x3ca600f1	0.02026412
37	0xbdd4ebb1	-0.10396517
38	0xbdc3326b	-0.09531101
39	0xbe1ece41	-0.15508367
40	0xbdc59964	-0.096483976
41	0xbe1725cb	-0.1476051
42	0xbcb9ae9a	-0.022666264
43	0xbe015484	-0.12629896
44	0x3dd1d718	0.10246104
45	0xbe1b4abf	-0.15165232
46	0xbdee7bac	-0.11644682
47	0xbdd1d9a2	-0.10246588
48	0xbd5f7b11	-0.054560725
49	0x3d97256a	0.07380183
50	0x3dd77a62	0.105213895
51	0x3e2d2ccb	0.16911618
52	0xbd7c037c	-0.06152676
53	0x3d399d90	0.04531628
54	0xb9e42639	-0.00043516027
55	0x3dc44878	0.09584135
56	0x3d6a6dfa	0.057233788
57	0x3dc9c19e	0.09851383
58	0x3e03e544	0.12880427
59	0x3df3adff	0.118984215
60	0xbad0c5ad	-0.0015928053
61	0x3dbff26e	0.09372412
62	0xbde5aa7d	-0.11214159
63	0xbd70a023	-0.05874647
64	0xbd6e25de	-0.05814158
65	0xbd80582c	-0.062668175
66	0x3caa32d1	0.020776184
67	0xbe26f105	-0.16302879
68	0xbdc968d5	-0.09834448
69	0xbc10fddf	-0.00884959
70	0x3d1e4a59	0.038645122
71	0x3e024fbf	0.12725733
72	0xbdf8bbdd	-0.12145207
73	0x3d4d27c4	0.05008675
74	0x3d8e1baf	0.06938874
75	0xbdc56f13	-0.09640326
76	0x3d095a24	0.03353323
77	0xbda8be17	-0.08239382
78	0x3b82e149	0.0039941412
79	0xbdd3b813	-0.10337844
80	0xbd43b140	-0.04777646
81	0xbd856e80	-0.06515217
82	0x3e218b3d	0.15775771
83	0x3d282910	0.041054785
84	0xbe3fb4a6	-0.18721256
85	0x3d194830	0.03742236
86	0x3dc58b16	0.09645669
87	0xbd880250	-0.06641066
88	0xbde83def	-0.11339938
89	0xbd02e018	-0.031951994
90	0xbe1e6beb	-0.15470855
91	0xbd850cf4	-0.06496611
92	0x3ca1b85b	0.019741228
93	0xbe0bc89c	-0.13650745
94	0xbe216984	-0.15762907
95	0xbdeb0963	-0.114764
96	0xbdfd7ad5	-0.12376944
97	0xbc2af560	-0.0104344785
98	0x3d4246cb	0.047430795
99	0x3dd8087a	0.10548492
100	0x3e33ac93	0.175463
101	0x3dbfc63f	0.09363984
102	0xbda11a8d	-0.07866392
103	0xbcd3399d	-0.025784308
104	0xbda8977b	-0.082320176
105	0x3dc201d8	0.09473008
106	0x3d0481ba	0.03235028
107	0x3d955bc2	0.07292892
108	0xbdfd4193	-0.12366023
109	0x3df06123	0.11737277
110	0xbe24c046	-0.16088971
111	0x3d22ccd3	0.039746117
112	0xbe234a73	-0.15946369
113	0x3e0286d6	0.12746748
114	0xbdc69061	-0.09695507
115	0xbe0b8463	-0.1362472
116	0x3d35a3cb	0.04434566
117	0x3e208fa3	0.15679793
118	0xbc7ca3b9	-0.015419894
119	0x3d9567b9	0.07295174
120	0x3de03b57	0.10948818
121	0xbe112936	-0.14175877
122	0x3d87d222	0.066318765
123	0x3cac5c81	0.021040203
124	0xbdd9c92a	-0.10634072
125	0x3dd4b82d	0.10386691
126	0x3e1b2ff8	0.15155017
127	0x3de6168f	0.112347715
128	0xbe07352d	-0.13203879
129	0x3dbfdd0f	0.093683355
130	0x3e0d53af	0.13801454
131	0x3d56588b	0.052330535
132	0xbd02a93e	-0.031899683
133	0x3df1cdb0	0.1180681
134	0xbdfeb6a1	-0.124371774
135	0xbdd05bb0	-0.10173738
136	0x3dab4143	0.08362057
137	0x3dfd19ff	0.12358474
138	0xbd1a6d44	-0.03770186
139	0x3e20d60e	0.15706655
140	0x3dac00ae	0.08398567
141	0x3d8ca588	0.0686751
142	0x3e0279eb	0.1274182
143	0x3e0c2660	0.13686514
144	0x3ddeb7f3	0.10874929
145	0x3df3c11c	0.11902067
146	0xbb22078d	-0.002472374
147	0x3e04f39c	0.12983555
148	0x3d712b57	0.058879223
149	0xbda11170	-0.07864654
150	0x3dac21ce	0.08404885
151	0x3cdfa06d	0.027298177
152	0xbd98ae49	-0.07455117
153	0x3df510d0	0.11966097
154	0x3d721086	0.05909779
155	0x3df8a41d	0.12140677
156	0x3cbc8b4e	0.023015644
157	0x3d1fb25a	0.03898845
158	0x3dc40b1b	0.09572431
159	0xbd7f0e5a	-0.062269546
160	0x3dcdfeca	0.10058363
161	0xbde8c934	-0.113665015
162	0xbc86faed	-0.016477073
163	0xb97c3e2f	-0.00024055758
164	0x3de8f05b	0.11373969
165	0x3d85c966	0.06532554
166	0x3e294cbd	0.1653318
167	0xbdc0dada	-0.094167426
168	0xbd0e24e1	-0.03470314
169	0xbc93b931	-0.018032642
170	0x3dfb9b3d	0.12285469
171	0x3e283807	0.16427623
172	0x3d1284fe	0.035771362
173	0xbe0d329e	-0.1378884
174	0xbdfbc038	-0.12292522
175	0x3c2134fa	0.009839291
176	0xbe1ac739	-0.1511506
177	0xbda3212f	-0.07965314
178	0xbe06c955	-0.1316274
179	0x3dac948a	0.08426769
180	0xbd38ac42	-0.045086153
181	0xbe0581f6	-0.13037857
182	0x3ddf72be	0.10910557
183	0xbe1992dd	-0.1499743
184	0xbcf38dd4	-0.029730715
185	0x3e2a0966	0.16605148
186	0x3d922cdb	0.07137462
187	0xbe195c16	-0.14976534
188	0x3c9dcd01	0.019262793
189	0xbd30d219	-0.043169115
190	0x3d926216	0.07147615
191	0x3e0ceef0	0.13763022
192	0x3e19807a	0.14990416
193	0xbd35776a	-0.044303335
194	0x3da3ef15	0.08004586
195	0xbe26307f	-0.16229437
196	0x3e05bffa	0.13061514
197	0x3dab86ee	0.08375345
198	0xbe0039c5	-0.12522037
199	0xbd61dfe9	-0.055145178
200	0xbd8b406a	-0.067993954
201	0xbdc1978e	-0.09452735
202	0x3d7fe488	0.062473804
203	0xbd4d6300	-0.050143242
204	0x3d81b3a6	0.06333093
205	0xbd70133d	-0.058612097
206	0x3e0e55fb	0.13899986
207	0xbd9753dc	-0.07389042
208	0xbd2e2609	-0.042516742
209	0xbd4f9263	-0.050676715
210	0x3c4447a8	0.011979975
211	0xbd980e60	-0.07424617
212	0xbdd0df21	-0.101988085
213	0xbe2c99ce	-0.16855547
214	0x3df35214	0.118808895
215	0x3cda4c7b	0.026647797
216	0xbe00790b	-0.12546174
217	0x3db53806	0.08848576
218	0x3c2887ad	0.010286254
219	0xbd8f00b6	-0.069825575
220	0xbc78d858	-0.015188299
221	0xbbb302e1	-0.0054629897
222	0x3de0640a	0.10956581
223	0xbe266eb3	-0.16253166
224	0xbe1159bd	-0.14194389
225	0xbe1e33eb	-0.15449493
226	0xbe177982	-0.14792445
227	0xbc69537a	-0.014241094
228	0x3dcb6c58	0.09932774
229	0x3d4160bb	0.04721139
230	0x3d7ad40d	0.061237384
231	0x3ca6fe00	0.020384789
232	0x3ab27d26	0.0013617619
233	0xbe20cbfa	-0.15702811
234	0x3e241e7a	0.16027251
235	0x3e2c2538	0.16811073
236	0xbade480f	-0.0016958731
237	0x3c9599b4	0.018261768
238	0x3d0ea878	0.034828633
239	0x3dfa29c2	0.12214996
240	0xbc8e0fe2	-0.017341558
241	0xbca76652	-0.020434532
242	0xbdca6b16	-0.09883706
243	0x3d192e19	0.037397478
244	0x3d3f161d	0.04665195
245	0xbe1631ea	-0.14667478
246	0x3d495d4e	0.049161248
247	0x3cf3794a	0.029720921
248	0x3d2eb3eb	0.042652052
249	0x3db0d1da	0.08633776
250	0xbd347a8f	-0.044062193
251	0x3ce6a10b	0.028152963
252	0xbdf0f146	-0.11764769
253	0x3dca5be5	0.09880809
254	0xbe1620c0	-0.1466093
255	0xbe2df68d	-0.16988583

actor.customer_encoder.0.attention.query_embed.weight f4 [32, 32]
0	0x3e9e2238	0.30885482
1	0x3d47b61a	0.04875765
2	0x3dfedcdf	0.124444716
3	0x3ea035e5	0.31291118
4	0xbea740cc	-0.32666624
5	0xbdd73bd7	-0.105094604
6	0xbe190c52	-0.14946106
7	0xbe65fa92	-0.22458866
8	0x3e68e8cd	0.22745056
9	0x3e5a72ea	0.21332899
10	0x3e9211d7	0.28529236
11	0x3eb40853	0.351626
12	0xbe41ec08	-0.18937695
13	0x3ca1b509	0.019739645
14	0x3dde71a0	0.10861516
15	0xbdbf2e5a	-0.09335013
16	0x3e5479b1	0.20749547
17	0x3eb1af90	0.34704256
18	0xbeb9094d	-0.36139908
19	0xbda48de1	-0.08034874
20	0x3e495051	0.19659545
21	0xbe8ac966	-0.2710678
22	0xbdad206a	-0.08453448
23	0x3e4f35ea	0.2023541
24	0x3dd2f0ed	0.10299859
25	0xbe4aeefd	-0.1981773
26	0xbd910c6d	-0.07082448
27	0x3cb777d1	0.022396
28	0x3eb5aca3	0.35483274
29	0xbe7baf28	-0.24578536
30	0xbb98f7df	-0.0046682204
31	0xbdc1e14f	-0.09466802
32	0x3eb44047	0.3520529
33	0x3e89bfa2	0.26904017
34	0xbd1113f8	-0.035419434
35	0xbe1e9b13	-0.15488844
36	0x3eaa9ea1	0.3332415
37	0xbcd4386a	-0.025905807
38	0xbdb3a502	-0.08771707
39	0x3e904c1b	0.28183064
40	0x3dcf09b6	0.10109274
41	0x3cd4913f	0.025948165
42	0x3eaaff79	0.33398035
43	0xbe2cd328	-0.16877425
44	0x3e8af0f0	0.27136946
45	0x3e3ff2aa	0.18744913
46	0xbe5cd368	-0.2156502
47	0x3ea9433b	0.33059105
48	0x3e0046cc	0.12527007
49	0xbe7f7258	-0.24945962
50	0x3e94a5b7	0.2903268
51	0xbe93941f	-0.28823945
52	0x3d207f10	0.039183676
53	0x3e1617f3	0.14657573
54	0x3e312aa1	0.17301418
55	0xbea6efa2	-0.326047
56	0x3ea5f438	0.32412887
57	0x3e99fe36	0.3007676
58	0x3e5d2fde	0.21600291
59	0x3e0ae03f	0.13562106
60	0xbe5ce9b9	-0.21573533
61	0x3e81dd92	0.25364357
62	0x3d1e9764	0.038718596
63	0xbd8a8dfa	-0.06765361
64	0xbddf1e4a	-0.10894449
65	0x3d2e6a79	0.04258201
66	0xbdacd5de	-0.084392294
67	0xbe8bd58e	-0.27311367
68	0xbe61c88c	-0.22049159
69	0xbe09a472	-0.13441637
70	0xbd8820f6	-0.06646912
71	0xbe44afd7	-0.19207703
72	0xbdd39fab	-0.103331886
73	0xbe84b980	-0.25922775
74	0xbe837aec	-0.2567972
75	0x3e53660a	0.20644394
76	0xbdce79b0	-0.10081804
77	0xbdf6bc4b	-0.12047633
78	0xbc559245	-0.013035362
79	0x3d2a2e78	0.041548222
80	0xbe769f3b	-0.24084179
81	0x3e2c2e0f	0.16814445
82	0x3e1b2ae4	0.1515308
83	0x3e29ea73	0.16593342
84	0xbe8258a3	-0.2545825
85	0x3ea87599	0.3290222
86	0x3e4ca2f6	0.1998404
87	0x3decf82d	0.11570773
88	0x3e40d903	0.18832783
89	0xbe484fca	-0.19561687
90	0x3df9644a	0.12177332
91	0x3e9ddf8b	0.30834612
92	0x3e0f764c	0.1400997
93	0xbbbe1089	-0.005800311
94	0xbeac5763	-0.3366042
95	0xbdf54eb3	-0.11977901
96	0xbe711528	-0.23543227
97	0x3ea2f280	0.31825638
98	0xbd8f611a	-0.070009425
99	0xbdd5eac6	-0.1044517
100	0xbeb113b4	-0.34585345
101	0xbe9f6a8f	-0.31135985
102	0xbe0cd01d	-0.13751264
103	0x3e18f016	0.14935336
104	0xbd69b117	-0.05705365
105	0x3e3eb6e5	0.18624456
106	0x3ea5f00f	0.32409713
107	0xbe636745	-0.22207363
108	0x3de223b3	0.11041965
109	0x3cc11e1b	0.023573926
110	0xbe9de64c	-0.30839765
111	0xbd8a4a42	-0.06752445
112	0x3d68ad32	0.056805797
113	0xbe082891	-0.13296725
114	0xbe70a08b	-0.23498742
115	0x3ea1191e	0.31464475
116	0x3e1dc909	0.1540872
117	0xbea0094c	-0.31257093
118	0xbea8f35d	-0.3299817
119	0x3db4d041	0.08828784
120	0xbe3f0359	-0.18653621
121	0x3dad4c77	0.0846185
122	0x3e104024	0.14086968
123	0x3d1d34a9	0.0383803
124	0x3e4ec08d	0.2019064
125	0x3e216648	0.15761673
126	0xbd6898ee	-0.05678647
127	0x3dc80705	0.09766964
128	0xbdb9bd97	-0.090693645
129	0xbe3e5493	-0.1858695
130	0xbeb7f0c7	-0.35925886
131	0x3e19b5e6	0.15010795
132	0x3e94a01f	0.29028413
133	0xbdeba227	-0.115055375
134	0x3e582735	0.21108706
135	0x3e8f801c	0.28027427
136	0x3d535b18	0.051600546
137	0x3e2838e7	0.16427957
138	0x3bd154c7	0.00638828
139	0x3e4c718a	0.19965187
140	0x3e363c20	0.17796373
141	0x3e6c7eca	0.23095241
142	0x3ea0a652	0.31376892
143	0xbe0eda7b	-0.13950531
144	0x3ddda54c	0.108225435
145	0x3e061cdf	0.13096951
146	0xbe8b122f	-0.2716231
147	0xbe9d096a	-0.30671245
148	0xbd9c0e7b	-0.076199494
149	0x3e2e9349	0.17048372
150	0x3e9063aa	0.28201038
151	0xbe01081f	-0.12600754
152	0xbe20d9bb	-0.15708058
153	0xbe9cb3c7	-0.3060591
154	0x3e51d338	0.2049073
155	0xbe3c383a	-0.18380824
156	0x3de3329b	0.110936366
157	0x3e0e0f8d	0.1387312
158	0xbd25949a	-0.04042492
159	0x3ea7a155	0.32740274
160	0x3e7e9b41	0.24863912
161	0xbd51f12d	-0.051255394
162	0xba6eb6a2	-0.0009106194
163	0x3e69c29e	0.22828147
164	0xbe5a6909	-0.2132913
165	0xbe9336e8	-0.28752828
166	0x3e6d656e	0.23183224
167	0xbe40e8bc	-0.18838781
168	0x3d09fb68	0.033687025
169	0x3cb54ca5	0.022131274
170	0x3e89e14e	0.26929706
171	0x3d561066	0.052261733
172	0x3d0d8587	0.03455117
173	0x3d98be3c	0.07458159
174	0xbe1926b3	-0.14956169
175	0xbead885c	-0.33893096
176	0x3e98df19	0.2985771
177	0xbe8c6fdb	-0.2742909
178	0xbe867a42	-0.2626515
179	0xbda9302f	-0.082611434
180	0x3e6a0f38	0.22857368
181	0xbe1ad9db	-0.15122168
182	0x3e87a727	0.26494715
183	0x3df10b5d	0.117697455
184	0x3e74ec18	0.23918188
185	0xbe0df357	-0.13862358
186	0x3e2b83c3	0.16749482
187	0x3dae378b	0.08506688
188	0x3ea20ad5	0.3164889
189	0xbe2e2206	-0.17005166
190	0x3ea1201d	0.31469813
191	0xbe7163f7	-0.2357329
192	0xbe7cd8b3	-0.24692039
193	0x3eab5bb2	0.33468395
194	0x3e42c61f	0.1902089
195	0x3e534d27	0.206349
196	0xbe43c87d	-0.19119449
197	0x3e9f24ac	0.31082666
198	0xbdad6df4	-0.084682375
199	0x3e994323	0.29934034
200	0x3e681505	0.22664268
201	0xbea18b68	-0.3155167
202	0xbd9bef02	-0.076139465
203	0x3eb99996	0.3624999
204	0x3e5beaf1	0.21476342
205	0x3d432f7a	0.0476527
206	0xbcbd3ce2	-0.02310032
207	0x3e161a11	0.14658381
208	0xbdd7eefc	-0.105436295
209	0xbdcaa562	-0.098948255
210	0xbe581f27	-0.21105634
211	0xbc8d26ae	-0.017230358
212	0xbe51278c	-0.20425242
213	0xbe518f47	-0.20464812
214	0x3e724c5e	0.23661944
215	0x3e61e2d4	0.22059184
216	0xbe2785d3	-0.16359644
217	0xbd9b1915	-0.075731434
218	0xbe2663ae	-0.16248962
219	0x3e36251e	0.17787597
220	0xbe5f12ca	-0.21784511
221	0xbe4a7ea0	-0.19774866
222	0x3e190b40	0.14945698
223	0x3cb6b661	0.022303762
224	0x3dd8950e	0.10575305
225	0xbd2bed9b	-0.041974645
226	0x3eb7e97b	0.3592032
227	0xbd6192eb	-0.055071753
228	0x3e95bce5	0.29245678
229	0x3d412b42	0.047160394
230	0x3eae6fc4	0.34069645
231	0xbe5afa09	-0.21384443
232	0x3e569fbe	0.20959374
233	0xbdebccdd	-0.11513684
234	0x3e508b0a	0.20365539
235	0xbe8f5b97	-0.27999565
236	0x3e52cc0f	0.20585655
237	0xbdc24d5b	-0.09487411
238	0xbe12cbea	-0.143356
239	0xbdfdfd8a	-0.12401874
240	0x3e81c717	0.25347206
241	0xbd5c0ad3	-0.05372126
242	0xbd54f0ab	-0.05198733
243	0x3ea68272	0.32521397
244	0x3e8404aa	0.25784808
245	0x3c9d4fed	0.01920315
246	0xbdf341df	-0.11877798
247	0x3dc4d401	0.09610749
248	0xbda6c58d	-0.081431486
249	0x3e9a3878	0.30121207
250	0x3e076ea2	0.13225797
251	0x3e7df227	0.24799405
252	0x3e4b77df	0.19869946
253	0xbdbbc51e	-0.091684565
254	0xbe90bc09	-0.2826846
255	0xbdfe9439	-0.12430615

actor.customer_encoder.0.attention.key_embed.weight f4 [32, 32]
0	0xbe1e3def	-0.15453313
1	0x3d580091	0.052734915
2	0x3d8aa862	0.06770398
3	0x3ebc4c77	0.36777088
4	0x3ea718eb	0.32636198
5	0xbe9bdce8	-0.30441976
6	0x3e26a6fd	0.16274638
7	0xbe881773	-0.2658039
8	0xbe2dc263	-0.16968684
9	0x3e14bb95	0.14524682
10	0xbe8190b8	-0.25305724
11	0x3e9fd696	0.31218404
12	0x3dee6211	0.116397984
13	0x3d3b247a	0.045689084
14	0x3e5c5302	0.2151604
15	0xbe9f95a1	-0.31168845
16	0x3d78044a	0.060550965
17	0x3df0a438	0.11750072
18	0xbe336216	-0.17517886
19	0xbdfca810	-0.12336743
20	0x3e00ff40	0.1259737
21	0x3e9f1b5c	0.3107556
22	0xbe0a78d2	-0.13522652
23	0x3e59cd56	0.21269736
24	0x3e416759	0.1888708
25	0xbe5426c3	-0.20717911
26	0xbe8c98c2	-0.27460295
27	0xbd2998e3	-0.04140557
28	0x3e6e3349	0.23261751
29	0xbe8dbde6	-0.27683944
30	0xbe78dc99	-0.24302901
31	0x3e8705d9	0.2637165
32	0xbe4f39a9	-0.2023684
33	0xbe753a6a	-0.23948064
34	0xbc93776f	-0.018001286
35	0x3ea79326	0.32729453
36	0x3e7087f7	0.23489366
37	0x3e426745	0.18984707
38	0x3d61b96f	0.055108484
39	0xbe468584	-0.1938687
40	0xbe93fd28	-0.2890408
41	0x3e3b2699	0.18276443
42	0x3ddfb4b7	0.109231405
43	0x3db60d02	0.088892
44	0xbdebef2d	-0.115202285
45	0xbeb73a18	-0.3578651
46	0x3cec228a	0.028825063
47	0xbd703a82	-0.058649547
48	0xbcc67b20	-0.024228632
49	0x3d3f9c7b	0.04678009
50	0xbe4754d9	-0.1946596
51	0xbe552e5c	-0.20818466
52	0xbdb18862	-0.08668591
53	0x3e064939	0.1311387
54	0xbe62c15f	-0.22144078
55	0x3ead85e6	0.3389122
56	0xbeaf1a27	-0.3419964
57	0xbe5b146e	-0.21394512
58	0x3dca6397	0.098822765
59	0xbeb15d1b	-0.34641346
60	0xbe53ad88	-0.20671666
61	0x3e2a2da4	0.16618973
62	0xbe7b62e9	-0.2454945
63	0x3deabfe8	0.114623845
64	0xbe3eeefd	-0.18645854
65	0xbe245596	-0.16048273
66	0x3d6adf74	0.057342008
67	0x3ced9ea1	0.029006304
68	0x3ea5b06d	0.32361165
69	0x3d990e66	0.074734494
70	0x3d859fd2	0.06524624
71	0xbe429fd4	-0.19006282
72	0x3e98a2ca	0.29811698
73	0xbbe147a0	-0.0068749934
74	0x3e578677	0.21047388
75	0xbe9144f4	-0.2837292
76	0x3e4269be	0.1898565
77	0x3e90a7b0	0.28252935
78	0x3e631f7e	0.22179982
79	0x3e94fb95	0.29098192
80	0xbe22f95c	-0.15915436
81	0xbe7dc0b4	-0.24780542
82	0x3e092e9d	0.13396688
83	0x3e232903	0.15933613
84	0xbe5607ca	-0.20901409
85	0xbdea600b	-0.114441
86	0xbb51e8dd	-0.0032029666
87	0xbc9fcbf5	-0.019506434
88	0x3e2fa2f2	0.17152002
89	0x3e81f8c0	0.25385094
90	0x3dcd7b4b	0.10033282
91	0xbe1273af	-0.14301942
92	0xbe6750a7	-0.2258936
93	0x3e9a2b3b	0.30111107
94	0x3d0f6e40	0.035017252
95	0xbe39a902	-0.18130878
96	0xbe87d09f	-0.26526353
97	0xbe80b721	-0.25139716
98	0x3ea5457b	0.32279572
99	0xbe52dd2e	-0.20592186
100	0xbeafbbe7	-0.34323046
101	0xbe8bef6d	-0.27331105
102	0xbe329a01	-0.1744156
103	0x3c184e8e	0.009296073
104	0xbe6b9aab	-0.2300822
105	0x3e26bb91	0.16282488
106	0xbd8545e5	-0.06507472
107	0xbe17e669	-0.14833988
108	0xbe672eeb	-0.22576492
109	0xbdd4f7ca	-0.103988245
110	0x3eb8f3c4	0.36123478
111	0x3c36e42f	0.011162802
112	0x3dc2d9c8	0.09514195
113	0xbeb465a9	-0.3523381
114	0x3e57a57f	0.21059225
115	0x3d4a1755	0.049338657
116	0xbd4e5506	-0.050374053
117	0x3c5296d8	0.012853347
118	0xbe205609	-0.1565782
119	0xbe8f414f	-0.27979514
120	0xbe395efb	-0.18102638
121	0x3dd36876	0.10322659
122	0x3e979723	0.29607496
123	0xbe825a5f	-0.25459573
124	0x3e2a6215	0.16638978
125	0xbe2106e5	-0.15725286
126	0x3e898825	0.26861683
127	0x3d353441	0.044239286
128	0xbe9f974e	-0.31170124
129	0xbe924032	-0.28564602
130	0x3dbf2447	0.09333091
131	0x3e3be40a	0.18348709
132	0x3dd0a080	0.10186863
133	0x3dd3a1da	0.10333605
134	0xbd509144	-0.050919786
135	0xbe50a47f	-0.2037525
136	0x3d1cf304	0.038317695
137	0xbe96ae86	-0.29430026
138	0x3e377874	0.17917043
139	0xbe01dbaa	-0.12681451
140	0xbe9e69ff	-0.30940244
141	0x3d0cfb5c	0.034419402
142	0x3de9dc0d	0.114189245
143	0xbe8b41ca	-0.2719863
144	0xbe5e4582	-0.21706203
145	0xbd5298f8	-0.051415414
146	0xbe122e4f	-0.14275478
147	0x3e9634f3	0.29337272
148	0x3d7ff850	0.06249267
149	0xbdeab696	-0.11460607
150	0xbe925d6d	-0.28586903
151	0xbe80ca5f	-0.25154397
152	0x3e008cd5	0.12553723
153	0xbd97a0db	-0.074037276
154	0x3d5e0d8a	0.05421213
155	0x3d975822	0.07389857
156	0x3e7b9cce	0.24571535
157	0xbc073bad	-0.008253974
158	0x3e220f5e	0.15826175
159	0xbea8358f	-0.32853362
160	0x3e7e8e6d	0.24859019
161	0xbe9dbc72	-0.30807835
162	0xbdde22ea	-0.10846503
163	0xbeae18a9	-0.3400319
164	0x3e3c2882	0.18374828
165	0xbdccfb9d	-0.10008929
166	0xbeb38923	-0.35065565
167	0xbe39dd37	-0.18150793
168	0x3e4ba006	0.19885263
169	0x3e77ee45	0.24211986
170	0x3e76b87c	0.24093813
171	0xbeadbc52	-0.3393274
172	0xbe1bb7bb	-0.15206806
173	0x3d77ab9b	0.06046639
174	0xbc1bf82a	-0.009519616
175	0xbe415281	-0.18879129
176	0x3eaed9ee	0.34150642
177	0xbe6621cd	-0.22473831
178	0x3e6c5dd9	0.23082675
179	0x3e67b81a	0.22628823
180	0xbe9e5fd8	-0.30932498
181	0xbe6a5379	-0.22883405
182	0xbe6d65ff	-0.2318344
183	0x3e858487	0.26077673
184	0xbe9fc598	-0.3120544
185	0xba580d82	-0.0008241759
186	0xbde58c48	-0.11208397
187	0xbdb7f285	-0.08981804
188	0xbe576808	-0.21035779
189	0xbe96733b	-0.2938479
190	0xbe9c7ab0	-0.30562353
191	0xbd0bcd61	-0.03413141
192	0x3bdfd553	0.00683085
193	0x3d9c1bd6	0.07622497
194	0x3dc438cc	0.09581146
195	0xbe116b86	-0.14201173
196	0x3e4dd939	0.20102395
197	0x3e50ea11	0.20401789
198	0xbe8d749e	-0.27628034
199	0x3ea867ba	0.32891637
200	0xbc9ca775	-0.019122818
201	0xbb8c515a	-0.004282159
202	0xbead9aec	-0.3390726
203	0x3e307286	0.17231187
204	0x3e13f0cc	0.14447325
205	0x3daada4c	0.08342418
206	0x3e301928	0.17197096
207	0xbea039f5	-0.31294218
208	0x3eaffbe3	0.34371862
209	0x3e6daf6d	0.23211451
210	0xbdc24b96	-0.09487073
211	0x3e430969	0.19046558
212	0xbdfef024	-0.12448147
213	0xbde20ee3	-0.11037996
214	0xbb4e9205	-0.003152014
215	0x3e5e0f5c	0.21685547
216	0x3e466a3d	0.19376464
217	0xbe096510	-0.13417459
218	0xbe9c29b4	-0.30500567
219	0xbc8def67	-0.01732607
220	0xbe25ac9b	-0.16179125
221	0xbc93aab5	-0.018025735
222	0x3e2f4e23	0.1711965
223	0x3e70c381	0.23512079
224	0x3c82fc45	0.015989432
225	0x3e25c87b	0.16189758
226	0x3d7e249a	0.062046625
227	0xbe3c0035	-0.18359454
228	0x3e56581a	0.20932046
229	0xbe7113ea	-0.23542753
230	0xbc24fab4	-0.010069538
231	0xbe2e79c4	-0.17038637
232	0x3c263385	0.010144119
233	0x3e91f99b	0.28510746
234	0x3df6752d	0.12034068
235	0xbceee651	-0.029162558
236	0xbea076f8	-0.31340766
237	0xbe880761	-0.2656813
238	0xbdb85727	-0.09000998
239	0xbe2e3b10	-0.17014718
240	0x3d8ad71f	0.06779312
241	0xbea87ef7	-0.32909366
242	0x3eaec8fc	0.34137714
243	0xbdb50e1e	-0.08840583
244	0x3e686302	0.22694018
245	0x3e784164	0.24243695
246	0x3e936a6e	0.28792137
247	0xbd4989f7	-0.04920384
248	0x3cc386c6	0.023867976
249	0x3e3a4828	0.18191588
250	0xbe8ad50d	-0.2711567
251	0xbce1abbd	-0.027547712
252	0x3e09d3e1	0.13459732
253	0xbcede459	-0.029039549
254	0xbe8318a5	-0.2560474
255	0x3d4f98f8	0.05068299

actor.customer_encoder.0.attention.value_embed.weight f4 [32, 32]
0	0x3d7d70c2	0.061875112
1	0x3ea91f91	0.33031896
2	0x3de62b02	0.11238672
3	0x3e055d34	0.13023835
4	0xbeaae6a3	-0.33379087
5	0x3e118846	0.1421214
6	0x3e420994	0.18948966
7	0xbdde0401	-0.108406074
8	0xbe618b69	-0.22025837
9	0xbd2fcb0f	-0.04291826
10	0xbe9bb0be	-0.3040828
11	0x3ea68cf2	0.32529408
12	0xbe5b7c2f	-0.21434091
13	0x3ea2ec31	0.31820825
14	0xbeb39560	-0.35074902
15	0x3e66c988	0.22537816
16	0xbe17544b	-0.14778249
17	0xbe8b683d	-0.27227965
18	0x3dcba2f0	0.09943187
19	0x3ea6a9a7	0.3255131
20	0xbe2c9627	-0.16854154
21	0x3d4b49b0	0.04963082
22	0xbe6d1951	-0.23154189
23	0x3e6be740	0.23037434
24	0x3ea2f533	0.31827697
25	0xbdc5625c	-0.09637901
26	0x3ead6d2a	0.33872348
27	0x3e3b5e01	0.18297578
28	0x3d4370cc	0.047714993
29	0xbe1bc289	-0.15210928
30	0x3e79a31e	0.2437863
31	0x3c94fc47	0.018186701
32	0xbe191d0d	-0.14952488
33	0xbeb213df	-0.34780785
34	0xbeaf730c	-0.3426746
35	0x3eb4796e	0.35248893
36	0xbe3f53f3	-0.18684368
37	0xbe870cee	-0.26377052
38	0x3e658d58	0.224172
39	0xbdcf21c8	-0.10113865
40	0xbe86face	-0.26363224
41	0x3d922dae	0.07137619
42	0xbd560c93	-0.052258085
43	0x3e0badbd	0.13640495
44	0x3ea831c4	0.32850468
45	0xbdb647f1	-0.089004405
46	0x3e4e3054	0.20135623
47	0xbdca4f32	-0.098783866
48	0xbdeed8ce	-0.11662446
49	0x3df17c88	0.117913306
50	0xbda1d760	-0.07902408
51	0x3dc2850b	0.09498032
52	0x3da13ea4	0.07873276
53	0xbe90f7c1	-0.2831402
54	0xbda9b5e1	-0.08286644
55	0x3ea35633	0.31901702
56	0xbb0e443e	-0.0021708156
57	0x3eab9c32	0.33517605
58	0x3e88cd43	0.26719102
59	0xbdcb336a	-0.09921916
60	0xbe23bdcf	-0.15990375
61	0x3deedad1	0.1166283
62	0xbd6f2323	-0.05838312
63	0xbd3af097	-0.0456396
64	0xbcc5fe63	-0.024169153
65	0xbe69d0c1	-0.2283354
66	0x3e63e652	0.22255829
67	0xbe0d7887	-0.13815509
68	0xbe936dd0	-0.28794718
69	0xbe8d64b9	-0.27615908
70	0xbe66f661	-0.22554924
71	0x3d85895d	0.065203406
72	0xbeae4cef	-0.3404307
73	0x3e05bd15	0.1306041
74	0xbe5f067f	-0.21779822
75	0xbc2c58d0	-0.010519221
76	0xbdaf6389	-0.08563907
77	0xbdd8ed95	-0.1059219
78	0x3e699db8	0.22814071
79	0xbdf70643	-0.12061741
80	0x3df6c6dd	0.12049649
81	0x3e766ad1	0.24064185
82	0x3e32da47	0.17466079
83	0x3e1a090f	0.15042518
84	0xbd07c214	-0.03314407
85	0xbe3bd4f6	-0.18342957
86	0xbe85a72e	-0.2610411
87	0x3eabf1bd	0.3358287
88	0xbea43c96	-0.32077473
89	0xbdb0d52d	-0.0863441
90	0x3e995800	0.2994995
91	0xbd89a7e7	-0.06721478
92	0xbe98048b	-0.29690966
93	0x3eb23131	0.34803155
94	0xbdba72db	-0.09103938
95	0x3e173a92	0.14768437
96	0x3e24b061	0.16082908
97	0xbde69623	-0.11259105
98	0xbeaf68d4	-0.34259665
99	0xbd4e061f	-0.050298806
100	0xbe8fa9bd	-0.28059188
101	0xbe31e043	-0.17370705
102	0xbe98460d	-0.29740945
103	0x3e28d696	0.16488108
104	0xbe7ed9e1	-0.24887802
105	0x3e306d40	0.17229176
106	0x3e983ce1	0.29733947
107	0x3e3479e2	0.1762462
108	0x3e57136c	0.21003503
109	0x3d75f8be	0.060051672
110	0x3e724edd	0.23662896
111	0x3eaa32b4	0.33241808
112	0x3d9a6b28	0.0753997
113	0x3e19d7bf	0.15023707
114	0x3e642a0c	0.22281665
115	0xb92f5ccb	-0.00016723869
116	0x3e9b9bb9	0.30392244
117	0x3daf4db9	0.08559746
118	0xbe5cb9f6	-0.21555313
119	0xbe8976a3	-0.26848325
120	0x3db842ce	0.08997117
121	0xbe8f0ef6	-0.27941102
122	0xbea35977	-0.31904194
123	0x3ea834b4	0.3285271
124	0x3e88a221	0.26686195
125	0xbdc3c3a9	-0.095588036
126	0x3e347773	0.17623691
127	0x3df51174	0.119662195
128	0x3ea760d0	0.3269105
129	0x3ddcd710	0.107832074
130	0x3e278ceb	0.1636235
131	0xbe817443	-0.25284013
132	0x3def5437	0.116859846
133	0xbe8b7738	-0.27239394
134	0xbe8a489c	-0.27008522
135	0x3e474ec8	0.19463646
136	0xbe312d60	-0.17302465
137	0x3e8c3b4d	0.27388993
138	0xbdb6e24a	-0.0892988
139	0x3e3c2171	0.18372132
140	0x3ea8ae4c	0.32945478
141	0x3d3c2fb7	0.045943942
142	0x3ea46289	0.32106426
143	0xbe640dce	-0.22270891
144	0x3e400d36	0.1875504
145	0x3de391f9	0.111118264
146	0x3e89baff	0.2690048
147	0x3ea68487	0.32522985
148	0xbd967925	-0.07347325
149	0x3d9b79b7	0.07591575
150	0xbe36b6d1	-0.17843176
151	0x3e19a6ce	0.15005037
152	0xbab5dd53	-0.0013875164
153	0xbe26d45d	-0.16291948
154	0xbe480e71	-0.19536759
155	0x3db4900e	0.08816539
156	0x3ea12fd0	0.3148179
157	0xbea03bed	-0.3129572
158	0x3e69c275	0.22828086
159	0x3e7eb73e	0.24874589
160	0xbe9c83ae	-0.30569214
161	0x3e252ab5	0.16129573
162	0x3d001836	0.03127309
163	0x3e88cb60	0.26717663
164	0x3e990e5e	0.29893774
165	0x3e4b073e	0.19826981
166	0xbe0d8396	-0.13819727
167	0xbe9e31d0	-0.3089738
168	0x3e7cb977	0.24680124
169	0x3a495ee9	0.0007681684
170	0x3e1332fb	0.14374916
171	0x3de45b25	0.11150197
172	0x3d3ffdee	0.046873026
173	0x3e89008c	0.2675823
174	0xbdb53c31	-0.08849371
175	0x3e125ecb	0.14293973
176	0x3e280ceb	0.16411178
177	0xbe2465a8	-0.16054404
178	0x3e1b6a94	0.15177375
179	0x3ccdc12e	0.02511653
180	0xbeb3e747	-0.35137388
181	0x3e483e07	0.19554912
182	0xbe9ff932	-0.31244808
183	0x3e240195	0.16016228
184	0xbe26c231	-0.16285016
185	0xbe300b4c	-0.1719181
186	0x3e4affaa	0.1982409
187	0xbc71df0b	-0.01476265
188	0xbe843319	-0.25820234
189	0x3dfb0473	0.12256708
190	0xbe473dc4	-0.19457155
191	0xbea52bf9	-0.3226011
192	0x3e919f09	0.28441647
193	0xbe98b0c6	-0.29822367
194	0xbe1a43ef	-0.15064977
195	0xbe5a644b	-0.21327321
196	0x3e8a4d95	0.27012315
197	0xbd029567	-0.031880762
198	0xbe97331d	-0.29531184
199	0x3e5479e9	0.2074963
200	0x3e880042	0.26562697
201	0x3ddf0893	0.10890307
202	0xbd1ffe96	-0.03906115
203	0xbeae174e	-0.34002155
204	0xbd5e9501	-0.05434132
205	0x3e46a6b9	0.19399537
206	0xbe762424	-0.24037224
207	0xbeb25d7f	-0.34836957
208	0xbb23c67b	-0.002499013
209	0x3d67e827	0.056617882
210	0xbe0dd82d	-0.13851996
211	0xbe157e79	-0.14599027
212	0xbe8c65bb	-0.27421364
213	0xbd5b2de5	-0.053510565
214	0x3ea865cc	0.32890165
215	0x3e96c0d8	0.29444003
216	0x3d7144f0	0.058903635
217	0x3a9a65db	0.0011779623
218	0x3ea1b67a	0.3158453
219	0x3d580267	0.052736666
220	0xbd47d7e2	-0.048789866
221	0xbe808552	-0.25101715
222	0x3ea7351a	0.326577
223	0xbeacdbf6	-0.33761567
224	0xbdfd234f	-0.1236025
225	0x3d9e044c	0.07715663
226	0x3d30dc2e	0.04317873
227	0xbdec86a3	-0.115491174
228	0xbea89c8e	-0.32931942
229	0x3d107c01	0.03527451
230	0xbdae0e83	-0.08498862
231	0xbe7dc4fe	-0.24782178
232	0xbe609293	-0.21930914
233	0xbe30d340	-0.17268085
234	0xbea7789a	-0.327092
235	0x3e2fa9c5	0.17154606
236	0xbbabd1ee	-0.0052435314
237	0xbe9cb5b4	-0.30607378
238	0x3e37dea9	0.17956032
239	0x3e8a125b	0.2696713
240	0x3da16e26	0.07882337
241	0xbdf31489	-0.11869151
242	0xbde843bf	-0.113410465
243	0x3dea2291	0.11432374
244	0x3eaaf5fa	0.3339079
245	0x3d101b43	0.03518225
246	0xbe09e210	-0.13465142
247	0xbd4523a0	-0.048129678
248	0x3e0acbd4	0.13554317
249	0x3e9def10	0.30846453
250	0x3ead5f91	0.33861974
251	0x3eb47b39	0.3525026
252	0xbe783aa3	-0.24241118
253	0x3d708dee	0.058729105
254	0x3c9ad413	0.018899953
255	0x3d953933	0.072863005

actor.customer_encoder.0.attention.combine.weight f4 [32, 32]
0	0xbd119311	-0.035540644
1	0xbe118022	-0.14209035
2	0x3d93b60b	0.07212456
3	0x3dff334e	0.124609575
4	0x3d349c8e	0.044094615
5	0x3bd24138	0.006416466
6	0x3e1135b7	0.14180647
7	0xbd9850cb	-0.07437285
8	0xbcad4b9c	-0.021154217
9	0x3d577786	0.05260422
10	0xbdd579be	-0.10423611
11	0xbe139637	-0.14412771
12	0xbd0ee4c8	-0.03488615
13	0x3dd8e57b	0.10590645
14	0xbda23e80	-0.07922077
15	0x3d7a0c92	0.061047144
16	0x3b0ba742	0.002130941
17	0x3e2eecfd	0.17082591
18	0x3de7b9d0	0.11314738
19	0xbdb32365	-0.08746985
20	0xbe3505d1	-0.17678
21	0x3dc37bf3	0.09545126
22	0xbe3928d7	-0.18081985
23	0xbdfcade0	-0.123378515
24	0x3e2767b2	0.1634815
25	0x3d1f1ca6	0.03884568
26	0x3c74c612	0.014939802
27	0xbe029f9d	-0.127562
28	0xbcc06109	-0.02348377
29	0x3cb73ffa	0.022369374
30	0x3dbf9467	0.093544774
31	0xbd9551e0	-0.07291007
32	0xbcde3bfb	-0.02712821
33	0x3d0f9caf	0.035061534
34	0xbe36da3c	-0.17856687
35	0xbd5cd162	-0.05391062
36	0xbe248f86	-0.16070375
37	0xbd8c8f82	-0.068633094
38	0xbdcbe2e1	-0.09955383
39	0x3daee6d7	0.08540123
40	0xbdefb469	-0.117043324
41	0xbe270862	-0.16311792
42	0xbc8c929b	-0.01715975
43	0xbda6a576	-0.08137028
44	0xbdc49f81	-0.096007355
45	0xbd0e9616	-0.0348111
46	0x3d8ea66f	0.069653384
47	0xbe214260	-0.15747976
48	0xbe01490e	-0.12625524
49	0x3cc85c35	0.02445803
50	0x3da6a88f	0.08137619
51	0x3c113e6e	0.008864982
52	0x3e30f6f6	0.17281708
53	0x3db22a51	0.086994775
54	0xbdfb8d7d	-0.12282846
55	0x3dc25f85	0.09490875
56	0xbda6bfe9	-0.08142073
57	0x3dffefe6	0.12496929
58	0xbd376a86	-0.044779323
59	0x3e0f158b	0.13973062
60	0xbd13f6cd	-0.03612404
61	0xbd2315e7	-0.03981581
62	0xbe006ab1	-0.125407
63	0x3e38b547	0.18037902
64	0xbde913d2	-0.113807335
65	0xbda94e51	-0.08266891
66	0xbdac3680	-0.084088326
67	0xbe42b912	-0.19015911
68	0xbda891d0	-0.082309365
69	0x3e2099ec	0.15683717
70	0x3dde046a	0.10840686
71	0x3d298922	0.041390546
72	0xbd87bd04	-0.06627849
73	0x3c236833	0.0099735735
74	0xbd48d442	-0.04903055
75	0xbe229f4b	-0.15881078
76	0x3e0ae426	0.13563594
77	0x3dad1719	0.08451671
78	0x3e1fc40b	0.15602128
79	0xbe1a059c	-0.15041202
80	0x3d1fc499	0.03900585
81	0x3db26886	0.087113425
82	0xbc7f7bc7	-0.015593476
83	0x3dbc9cd0	0.09209597
84	0x3dcf4498	0.10120505
85	0xbdc901c2	-0.098147884
86	0x3dfcec0f	0.12349712
87	0x3d3869d7	0.04502281
88	0xbcec18e6	-0.028820466
89	0x3d89fef3	0.06738081
90	0x3e07f0e6	0.13275489
91	0x3d4456de	0.047934406
92	0x3dc41b7b	0.09575554
93	0xbe0948aa	-0.13406625
94	0xbdc478ce	-0.09593354
95	0xbcd31a69	-0.02576943
96	0x3db95c1c	0.090507716
97	0x3dd428e8	0.10359365
98	0xbd1e5dd1	-0.03866369
99	0xbd5171bd	-0.05113386
100	0xbd074191	-0.033021513
101	0xbd75cd84	-0.060010448
102	0x3e183d69	0.14867176
103	0x3dc5ba5e	0.09654687
104	0x3dc7222e	0.09723316
105	0xbd915e93	-0.07098117
106	0xbd757b3c	-0.05993198
107	0xbe1fed56	-0.1561788
108	0x3e1c24e5	0.15248449
109	0xbd965fd4	-0.073424965
110	0xbca85611	-0.020548852
111	0xbdd801de	-0.10547231
112	0x3d5862cf	0.052828606
113	0x3d986982	0.07441999
114	0xbe37436d	-0.17896815
115	0x3e140824	0.1445623
116	0x3d660b0a	0.05616287
117	0x3da7228f	0.081608884
118	0xbe1403f2	-0.1445463
119	0x3d801dca	0.06255682
120	0x3e2cfc23	0.16893058
121	0x3e08e238	0.13367546
122	0xbdc7ca26	-0.09755354
123	0x3ce4b9f7	0.027920706
124	0xbde50057	-0.111817054
125	0x3d545ec5	0.05184819
126	0x3d8bd699	0.06828041
127	0x3db76fcd	0.08956871
128	0xbe132077	-0.14367853
129	0x3dace55c	0.08442184
130	0xbc3c928e	-0.011509551
131	0xbdf9da84	-0.12199882
132	0xbd8ee375	-0.06976978
133	0x3e1d0b6f	0.15336393
134	0xbe05b218	-0.13056219
135	0x3ddbd01f	0.10733055
136	0x3e28396b	0.16428153
137	0xbdf3af86	-0.11898713
138	0xbe2205d6	-0.15822539
139	0xbe007f9b	-0.12548678
140	0x3ba074b2	0.0048967237
141	0xbe19f173	-0.15033512
142	0x3e0c18b5	0.136813
143	0x3e18bfe3	0.14916949
144	0xbc29888b	-0.010347496
145	0x3dca86d1	0.098889954
146	0x3e03c839	0.12869348
147	0x3d69dd93	0.057096075
148	0xbd9f459a	-0.07776947
149	0x3baa8160	0.005203411
150	0x3e112a5c	0.14176315
151	0xbd660e96	-0.056166254
152	0x3cdbae3d	0.026816482
153	0xbc7b7187	-0.015346891
154	0xbd727f6c	-0.05920355
155	0xbd18fedd	-0.03735243
156	0xbdacb25a	-0.08432455
157	0xbd3e262b	-0.04642312
158	0x3e2c607c	0.16833681
159	0xbd096b75	-0.033549745
160	0xbccd220a	-0.025040645
161	0x3e1b6327	0.15174542
162	0x3d78cf31	0.060744468
163	0xbe0970dc	-0.13421959
164	0xbd4ea1e1	-0.05044735
165	0xbd864018	-0.06555194
166	0xbdb41339	-0.08792729
167	0xbe177909	-0.14792265
168	0x3dad7096	0.0846874
169	0x3e0b05b2	0.13576391
170	0xbe118997	-0.14212643
171	0x3e31d971	0.17368104
172	0x3db04f0c	0.08608827
173	0x3e24fcd1	0.16112067
174	0xbe09673d	-0.13418289
175	0x3d638674	0.055548146
176	0x3e04bebb	0.12963383
177	0x3dcf346a	0.10117419
178	0xbd57d8de	-0.052697055
179	0x3dfaa4ff	0.12238502
180	0x3dc910a8	0.0981763
181	0xbdedb27e	-0.1160631
182	0x3dc106d0	0.094251275
183	0xbda67a15	-0.08128754
184	0x3e168ace	0.14701387
185	0xbd698a42	-0.05701662
186	0xbde8e462	-0.113716856
187	0x3da55323	0.08072498
188	0xbdc3c1ce	-0.0955845
189	0xbd8c3424	-0.068458825
190	0x3de66b2b	0.112509094
191	0x3e2f8d64	0.1714378
192	0x3d784af1	0.060618345
193	0x3e2077d0	0.15670705
194	0x3d7faf6a	0.062423147
195	0xbcb2d61a	-0.021830607
196	0xbd7d53d5	-0.061847527
197	0xbd44b7c6	-0.048026823
198	0x3b70ccca	0.0036743158
199	0xbc9af5ea	-0.01891609
200	0x3d1238b8	0.035698622
201	0x3d45d941	0.048302893
202	0xbde5cf78	-0.11221212
203	0xbdc60403	-0.09668734
204	0x3e15682e	0.14590523
205	0xbd99bd38	-0.07506794
206	0x3db64601	0.08900071
207	0x3e27f412	0.16401699
208	0xbe226fd0	-0.15862966
209	0x3cf65715	0.03007082
210	0x3d2a8c24	0.041637555
211	0xbde34c62	-0.11098553
212	0xbd3478e5	-0.044060607
213	0xbda4385d	-0.08018563
214	0xbe2ef48a	-0.17085472
215	0xbd655a8a	-0.055994548
216	0x3e2850c3	0.16437058
217	0x3e2f3a97	0.17112194
218	0xbddb48ac	-0.107072204
219	0xbd6ba4c8	-0.057530195
220	0xbdb940da	-0.090455726
221	0x3df46814	0.11933914
222	0xbe13d2f8	-0.14435947
223	0xbd6a6bda	-0.05723176
224	0xbd7212fe	-0.059100144
225	0xbda4e0fe	-0.08050726
226	0x3e1dcbe3	0.15409808
227	0xbe18a1af	-0.14905427
228	0xbe02a453	-0.12757997
229	0xbe22fc2e	-0.15916511
230	0xbdaba6d4	-0.08381429
231	0x3dad6039	0.08465619
232	0x3ce3d3dd	0.027810985
233	0xbc214443	-0.009842935
234	0x3e10024a	0.14063373
235	0x3df12a64	0.117756635
236	0x3d15ad9d	0.036542524
237	0x3d14726c	0.036241934
238	0xbd803c20	-0.06261468
239	0xbe2e0ff2	-0.1699827
240	0x3ce42dcc	0.027853869
241	0x3e233758	0.1593908
242	0x3e0bb955	0.13644917
243	0xbc5e5c6b	-0.013571839
244	0xbc186fa9	-0.009303966
245	0x3e27a5f7	0.16371904
246	0xbe3fc914	-0.18729049
247	0x3e114fd1	0.14190604
248	0x3e27d91a	0.16391411
249	0x3dcc65bc	0.09980342
250	0x3da7a126	0.081850335
251	0x3bd79bea	0.0065798657
252	0x3d60e20f	0.054903086
253	0xbdb75e69	-0.08953554
254	0xbcd37d88	-0.025816694
255	0xbdf783d3	-0.1208569

actor.customer_encoder.0.BN1.weight f4 [32]
0	0x3f807f32	1.0038817
1	0x3f80bb55	1.0057169
2	0x3f80bced	1.0057656
3	0x3f7c2b1c	0.9850328
4	0x3f7f95cd	0.9983795
5	0x3f7fd1e9	0.9992967
6	0x3f800d3e	1.0004041
7	0x3f82328b	1.0171674
8	0x3f7f6c75	0.9977487
9	0x3f7d3d35	0.9892152
10	0x3f807500	1.0035706
11	0x3f80447b	1.0020899
12	0x3f8017b8	1.0007238
13	0x3f819b9a	1.0125611
14	0x3f7ad367	0.97978824
15	0x3f80830c	1.0039992
16	0x3f7dc0d9	0.9912239
17	0x3f8123b9	1.0089027
18	0x3f82cf3b	1.0219492
19	0x3f80033a	1.0000985
20	0x3f7c6a34	0.98599553
21	0x3f7df337	0.9919924
22	0x3f7e951a	0.9944626
23	0x3f7e9454	0.9944508
24	0x3f80c238	1.0059271
25	0x3f7f1e9a	0.9965607
26	0x3f7dc158	0.99123144
27	0x3f803283	1.0015415
28	0x3f8076d4	1.0036263
29	0x3f7e3fdc	0.9931619
30	0x3f81ae43	1.0131305
31	0x3f80a5c4	1.0050588

actor.customer_encoder.0.BN1.bias f4 [32]
0	0xbb746d4b	-0.003729659
1	0xbb64c157	-0.0034905279
2	0xbc1df567	-0.009641028
3	0x3b3347fd	0.002735614
4	0xbbfc4206	-0.0076983003
5	0x38f031b5	0.000114533505
6	0x3b5d340e	0.003375295
7	0x3c6199c5	0.013769572
8	0xbc03d41f	-0.008046179
9	0xbc501923	-0.012701306
10	0xbca50eca	-0.020148654
11	0xbaaade38	-0.0013036197
12	0xbc070f67	-0.008243418
13	0x3bc9b109	0.0061551374
14	0xbc3f4555	-0.011674245
15	0x3c375ebc	0.01119202
16	0x3c0dbe93	0.0086513935
17	0x3c623682	0.013806941
18	0xbc0a96ab	-0.008458774
19	0x3c08f5c6	0.008359378
20	0xbbb3e908	-0.005490426
21	0x3b0f8a8c	0.0021902649
22	0x3c372cfa	0.011180157
23	0x3b88e11e	0.0041772267
24	0x3cb84f32	0.0224987
25	0xbb896da9	-0.0041939807
26	0xbc22ef27	-0.009944714
27	0xbbe43109	-0.0069638533
28	0xbc0d2b45	-0.008616273
29	0x3b23c5aa	0.0024989643
30	0x3bb06009	0.005382542
31	0xbaa4dabc	-0.0012577395

actor.customer_encoder.0.BN1.running_mean f4 [32]
0	0x3f58b4f1	0.84651095
1	0xbeba684e	-0.36407703
2	0x3effc17f	0.49952313
3	0x3f161e9c	0.58640456
4	0xbf3613a4	-0.7112372
5	0x3ee389ad	0.44440976
6	0x3e5958a9	0.21225227
7	0x3e1836fe	0.14864728
8	0xbec02a23	-0.37532148
9	0x3e9c2a40	0.30500984
10	0xbe46652c	-0.19374532
11	0x3eaca70c	0.33721197
12	0xbf1bd7f0	-0.6087637
13	0x3f8ea660	1.1144524
14	0x3f2bbee6	0.6708816
15	0x3ebf0fe8	0.37316823
16	0xbd91a73a	-0.07111974
17	0xbed36057	-0.4128444
18	0x3db971f5	0.09054939
19	0x3e04b643	0.12960152
20	0xbeb3248d	-0.34988824
21	0xbf365b36	-0.71232927
22	0xbf06a3ff	-0.5259399
23	0xbef4baf8	-0.47798896
24	0x3e3c5fc7	0.18395911
25	0x3d6c20fa	0.057648636
26	0x3e267825	0.16256769
27	0x3ecaa2c3	0.39577302
28	0x3e15aaf7	0.14615999
29	0xbe37855a	-0.17921963
30	0x3dab2d70	0.08358276
31	0xbc654c29	-0.013995209

actor.customer_encoder.0.BN1.running_var f4 [32]
0	0x3ca6dcd9	0.02036898
1	0x3b423faa	0.0029639998
2	0x3d14ee2e	0.03635996
3	0x3c8ef831	0.017452331
4	0x3d0367cf	0.03208142
5	0x3d00689d	0.031349767
6	0x3c74085f	0.014894574
7	0x3b30511c	0.0026903814
8	0x3c353c71	0.011061774
9	0x3b40f58b	0.002944323
10	0x3cd430ef	0.02590224
11	0x3c67adc4	0.01414055
12	0x3ca6b11a	0.02034812
13	0x3d69441d	0.056949724
14	0x3c3a7cd3	0.0113822995
15	0x3c2aeb67	0.010432101
16	0x3bc537e4	0.0060186256
17	0x3c0946b4	0.008378673
18	0x3c3344da	0.010941708
19	0x3bf46802	0.0074586878
20	0x3c108cf0	0.008822665
21	0x3d0cf04a	0.034408845
22	0x3c40a233	0.011757421
23	0x3bd0c6c8	0.006371353
24	0x3c7d4412	0.015458124
25	0x3b03cb3f	0.0020110158
26	0x3c8426ba	0.016131748
27	0x3c7a9408	0.015294082
28	0x3d1fc53d	0.03900646
29	0x3c87910d	0.016548658
30	0x3b903ba4	0.004401641
31	0x3c564903	0.013078931
