output/282nodes_entropy0.01_0.4_0.85_2_230823/epoch3.pth (torch, 514363 bytes, 129 tensors)

critic.ff_layer1.weight f4 [32, 283]
0	0x3d8ecb99	0.06972427
1	0x3d8a595f	0.067553274
2	0xb9d833a4	-0.00041237206
3	0x3d7c4211	0.061586443
4	0xbb161e35	-0.0022906188
5	0x3c9d1abb	0.019177785
6	0xbc54a38d	-0.012978447
7	0x3d3ccb78	0.04609248
8	0x3d7a32d1	0.06108362
9	0xbce46ef3	-0.027884936
10	0x3d675b28	0.056483418
11	0x3c817d2e	0.01580676
12	0x3d374d8a	0.04475168
13	0x3cbee77c	0.02330374
14	0x3d1606d0	0.03662759
15	0x3b5ece40	0.0033997446
16	0x3d754cad	0.059887577
17	0x3c93930c	0.018014453
18	0xbc9f89e8	-0.019474939
19	0x3cf308c1	0.02966726
20	0xbc9dbbcc	-0.019254588
21	0x3c2b72dd	0.010464397
22	0xbc166c73	-0.00918113
23	0x3d4950f1	0.049149457
24	0xbd0b2ce7	-0.03397837
25	0xbc842291	-0.016129764
26	0xbb88778c	-0.0041646417
27	0xbcad14a8	-0.021128014
28	0x3c86168f	0.016368179
29	0xbd3e8687	-0.046515014
30	0x3d802bc7	0.0625835
31	0xbd29f269	-0.041490946
32	0x3d5551b2	0.052079864
33	0x3cb84b4c	0.022496842
34	0xbc3ef238	-0.011654429
35	0x3d2825ff	0.04105186
36	0x3c7f7aa5	0.015593206
37	0x3d78f45d	0.060779918
38	0x3c84b1a8	0.016197994
39	0xbc6dbc70	-0.014510259
40	0x3cb19acb	0.021680256
41	0xbbee3b13	-0.007270226
42	0x3d01ffde	0.031738155
43	0x3d703535	0.058644492
44	0x3d23c1d4	0.03997977
45	0xbc84b631	-0.016200157
46	0x3d23f4ee	0.040028505
47	0x3c976153	0.018479025
48	0x3d2a71da	0.041612484
49	0xbcabb539	-0.020960437
50	0xbd548fff	-0.051895138
51	0xbc494b90	-0.012286082
52	0xbd08bb2b	-0.033381622
53	0x3d55629f	0.052096006
54	0x3cc1ed69	0.023672776
55	0x3d0e9ec1	0.03481937
56	0x3cfde0fd	0.030991072
57	0x3c60288d	0.013681543
58	0x3d80477e	0.06263636
59	0xbcecff53	-0.028930342
60	0x3c98c3b2	0.018648002
61	0xbce6636d	-0.028123582
62	0x3cf6f131	0.030144306
63	0xbc725314	-0.014790315
64	0x3ced5dd7	0.02897541
65	0xbba2296b	-0.004948785
66	0x3d487a17	0.04894456
67	0xbc8116a6	-0.01575787
68	0xbd00aef2	-0.03141684
69	0xbcb0f341	-0.021600368
70	0x3d8e2c24	0.06942013
71	0x3cca3a95	0.024686137
72	0x3d866879	0.06562895
73	0xbd1981be	-0.037477247
74	0xbd2b5c78	-0.041836232
75	0xbd0fe58b	-0.03513102
76	0xbc98e1c8	-0.018662348
77	0x3d00bc04	0.031429306
78	0x3cf2a311	0.029618772
79	0x3d622599	0.055211637
80	0xbc942216	-0.01808266
81	0xbce41021	-0.027839722
82	0x3cf5066d	0.02991029
83	0xbc6a6e6c	-0.014308553
84	0x3d264650	0.0405944
85	0xbb9ff808	-0.0048818626
86	0x3d30a176	0.04312273
87	0xbd0d36be	-0.034476034
88	0xbc9a7b36	-0.01885758
89	0x3cbff673	0.023432946
90	0x3cd372b6	0.025811534
91	0xbc23ced0	-0.009998038
92	0x3d2cdcd3	0.042202782
93	0x3d4c7e74	0.049925283
94	0xbd028b28	-0.03187099
95	0xbccad254	-0.024758495
96	0x3d5f271e	0.054480664
97	0xbc7fbf46	-0.015609568
98	0xbbac4425	-0.005257147
99	0xbd335723	-0.043784272
100	0xbcb71b0d	-0.022351766
101	0x3cbe12c3	0.023202306
102	0xba6309bb	-0.0008660813
103	0xbcfc382b	-0.030788502
104	0x3cb48b6e	0.022039142
105	0xbd0a95a0	-0.0338341
106	0xbd2e9dce	-0.042630963
107	0xbc9138ae	-0.017727222
108	0xbd3088d2	-0.043099232
109	0xbd05a9c9	-0.032632623
110	0x3d90252f	0.07038342
111	0x3cedbe44	0.02902139
112	0x3cfc32ae	0.030785885
113	0xbd37d5b3	-0.044881534
114	0xbcdd0947	-0.026981963
115	0xbbe6f6a8	-0.0070484467
116	0x3c502091	0.012703077
117	0xbd173cb0	-0.03692311
118	0xbbaa9366	-0.0052055595
119	0xbcd01afa	-0.025403488
120	0x3c3fad05	0.011698966
121	0xbb7f8ecd	-0.0038995028
122	0x3c145cc2	0.009055318
123	0xbcf334c8	-0.029688254
124	0xbcd69338	-0.026193246
125	0xbca9cb1e	-0.020726737
126	0xbc147cc9	-0.009062954
127	0xbcdb15a6	-0.026743721
128	0x3d5c398d	0.053765822
129	0x3c21be0e	0.009871973
130	0x3d7531f5	0.059862096
131	0x3ce28cbe	0.027655002
132	0xbd2432e9	-0.040087614
133	0x3d4b9b51	0.04970867
134	0xbc322c88	-0.010874875
135	0xbbb50c19	-0.005525124
136	0xbcf7d27b	-0.030251732
137	0xbd23703f	-0.039901968
138	0x3ca9314e	0.020653393
139	0x3994caac	0.00028379762
140	0x3d065685	0.032797355
141	0xbd160892	-0.036629267
142	0x3d6528f4	0.05594726
143	0xbccc3191	-0.024925979
144	0x399e3936	0.00030178734
145	0x3cdf23e9	0.027238803
146	0x3d1ec9a9	0.038766537
147	0x3d5b2d91	0.053510252
148	0x3d781058	0.06056246
149	0xbd0b380d	-0.033989
150	0x3ccef69e	0.02526408
151	0xbca86aca	-0.020558733
152	0x3bb4a731	0.005513095
153	0xbd05ef00	-0.03269863
154	0x3d7eebbc	0.062236533
155	0xbd014088	-0.031555682
156	0x3d4074b7	0.046986308
157	0x3cc348c3	0.023838406
158	0x3cfe9919	0.031078862
159	0xbc95bcd0	-0.01827851
160	0x3d74f062	0.05979956
161	0x3c65e32e	0.014031215
162	0x3c5234bd	0.012829957
163	0xbd2157ee	-0.039390497
164	0x3cfd21d7	0.030899925
165	0x3c09f84a	0.008421013
166	0xbc7c4cd6	-0.0153991785
167	0x3d7add1e	0.06124603
168	0x3cedc2c9	0.029023545
169	0xbcb556f6	-0.022136193
170	0xbca8acfe	-0.020590302
171	0x3bf5004d	0.0074768425
172	0x3d380c56	0.04493364
173	0xbc222d34	-0.009898473
174	0xbc94fab4	-0.01818595
175	0xbc15f351	-0.009152249
176	0xbd16cd86	-0.036817096
177	0x3ce3bf3b	0.027801147
178	0x3d650049	0.055908475
179	0xbd34095a	-0.04395423
180	0x3ca95447	0.02067007
181	0x3d3205a9	0.04346243
182	0x3c85d04e	0.016334679
183	0xbbeaef2e	-0.0071696257
184	0x3d21c5b6	0.039495192
185	0x3d35a80a	0.044349708
186	0x3cf0241c	0.029314093
187	0x3c0834ad	0.00831334
188	0xbbaa2e62	-0.0051935175
189	0x3c83bccf	0.016081242
190	0xbb7b5c54	-0.0038354592
191	0xbba2bb57	-0.0049661803
192	0x3d56a2b1	0.05240125
193	0x3d680a32	0.056650348
194	0x3b340de2	0.0027474095
195	0x3b928100	0.0044709444
196	0x3bf004a7	0.0073247734
197	0x3a9c0174	0.0011902289
198	0x3cf6d2cb	0.03012981
199	0x3ce2d8c0	0.027691245
200	0xbd142f94	-0.036178187
201	0xbc269029	-0.010166206
202	0x3d722f15	0.059126932
203	0x3d00452f	0.03131598
204	0x3baa72a9	0.005201657
205	0xbcda6c34	-0.026662923
206	0xbc96a62d	-0.018389786
207	0xbd1c0a6a	-0.03809587
208	0xbb95bc37	-0.004569556
209	0x3ce48172	0.027893756
210	0x3d3e3644	0.04643847
211	0x3d17c561	0.03705347
212	0xbd144dff	-0.036207195
213	0xbcc001d5	-0.023438374
214	0x3bd5d0ce	0.0065251356
215	0x3d6f018a	0.058351077
216	0x3c89206a	0.016739089
217	0xbc026a5a	-0.0079599265
218	0x3d0bb8b6	0.0341117
219	0xbc0bbbe6	-0.008528685
220	0xbccade1a	-0.02476411
221	0x3d548600	0.051885605
222	0xbc9a993c	-0.018871896
223	0xba9aec80	-0.001181975
224	0xbd3abccc	-0.045590207
225	0x3d38b46d	0.045093942
226	0x3d4c9c33	0.04995365
227	0x3d030cda	0.031994678
228	0xbcdeace5	-0.027182052
229	0xbd591d7c	-0.053006634
230	0xbd040e62	-0.03224028
231	0x3d473bee	0.048641138
232	0x3d0e1a3e	0.034692995
233	0x3d740b60	0.05958116
234	0x3d05f0e7	0.032700446
235	0x3c98df03	0.018661028
236	0x3c5ade05	0.013358598
237	0xbcde3235	-0.02712355
238	0xbd058d15	-0.03260525
239	0xbd4eceab	-0.050490063
240	0x3d2245c7	0.039617326
241	0xbca60770	-0.020267218
242	0xbb8e59b8	-0.0043441914
243	0xbcdad81a	-0.026714373
244	0x3a9f0c7d	0.0012134459
245	0xbccda499	-0.0251029
246	0xbcec26c5	-0.02882708
247	0x3cd9be8d	0.02658012
248	0xbb8f2355	-0.0043682256
249	0x3d302c15	0.04301079
250	0xbc1dd000	-0.009632111
251	0xbd1b27b6	-0.03787967
252	0xbb354ba6	-0.0027663498
253	0xbc8ce89e	-0.017200764
254	0xbc225f00	-0.009910345
255	0xbd312573	-0.043248605

critic.ff_layer2.weight f4 [283, 32]
0	0x3cd30297	0.02575807
1	0x3e2de256	0.16980872
2	0xbc9d9d0d	-0.019239927
3	0xbdbf4403	-0.09339144
4	0x3e1db517	0.15401112
5	0xbc45e91b	-0.012079502
6	0x3e19b3b7	0.15009962
7	0x3c4f813b	0.012665088
8	0xbda8fbfb	-0.082511865
9	0x3d0c1234	0.034197047
10	0x3c99ed18	0.018789813
11	0x3da7aaec	0.08186898
12	0xbdd7e3cb	-0.10541495
13	0xbde5686c	-0.112015575
14	0x3d0adcb3	0.03390188
15	0x3e60d20b	0.21955125
16	0xbda4ffde	-0.08056615
17	0xbd70554c	-0.058675095
18	0x3d6df91a	0.05809889
19	0x3e3c5e84	0.1839543
20	0x3e5f925a	0.21833172
21	0xba5ab3c0	-0.0008342825
22	0x3cb32399	0.02186756
23	0xbdd02f7c	-0.10165307
24	0x3e4fbf42	0.20287803
25	0x3e11ffc0	0.14257717
26	0x3d963ee7	0.073362164
27	0xbe0e6219	-0.13904609
28	0x3e00ddde	0.12584636
29	0xbca10996	-0.019657891
30	0x3d201c3e	0.039089434
31	0x3e23ab71	0.15983368
32	0xbc0baaf4	-0.008524645
33	0xbdc0fb3c	-0.09422919
34	0x3de5d84c	0.11222896
35	0x3dde3a77	0.10850995
36	0x3c7873d1	0.0151643315
37	0xbde181ae	-0.110110626
38	0xbdc1951f	-0.09452271
39	0xbe2094ab	-0.15681712
40	0xbdc6bbe0	-0.09703803
41	0xbe210e1b	-0.15728037
42	0xbcae755c	-0.021296196
43	0xbe03e46c	-0.12880105
44	0x3dd6907f	0.10476779
45	0xbe15f6e1	-0.14644958
46	0xbdf0ce27	-0.117580704
47	0xbdddfaac	-0.108388275
48	0xbd4174b5	-0.04723044
49	0x3d911941	0.07084895
50	0x3df30923	0.11866977
51	0x3e2f41c8	0.17114937
52	0xbd5c20a1	-0.053742055
53	0x3d40f1f6	0.047105752
54	0x3bc4ea3a	0.0060093673
55	0x3dcce6bc	0.100049466
56	0x3d9fffcd	0.07812462
57	0x3dd20c2c	0.10256228
58	0x3dfa52be	0.12222813
59	0x3e0bd679	0.13656034
60	0xba1d9d90	-0.00060125533
61	0x3dee5b8e	0.116385564
62	0xbdcc4ccd	-0.09975586
63	0xbd32405a	-0.0435184
64	0xbd5cb987	-0.05388787
65	0xbd4d1359	-0.05006728
66	0x3c858054	0.016296543
67	0xbe2f4925	-0.17117746
68	0xbdcfe01e	-0.10150169
69	0xbc5a52e1	-0.013325424
70	0x3d141ecd	0.036162186
71	0x3e075550	0.13216138
72	0xbdf45948	-0.119310915
73	0x3d4a881d	0.049446214
74	0x3d950124	0.07275608
75	0xbdc71fb6	-0.09722845
76	0x3cfb1ea7	0.030654265
77	0xbdb42dfb	-0.087978326
78	0x3ae346df	0.0017339847
79	0xbdc334bd	-0.095315434
80	0xbd478c32	-0.048717685
81	0xbd90b646	-0.07066016
82	0x3e1ef922	0.15524724
83	0x3d371ff6	0.044708215
84	0xbe2ccf30	-0.16875911
85	0x3cdcfb27	0.026975228
86	0x3dc4469c	0.0958378
87	0xbd8f87ca	-0.070083216
88	0xbdd57dba	-0.10424371
89	0xbd0112b5	-0.03151198
90	0xbe1ee4fd	-0.1551704
91	0xbd87e0e8	-0.06634694
92	0x3c9c601b	0.019088795
93	0xbe070fe6	-0.13189659
94	0xbe272031	-0.16320874
95	0xbdda17f0	-0.10649097
96	0xbe02f91d	-0.12790342
97	0x3beb2d5f	0.0071770395
98	0x3d712842	0.058876283
99	0x3dd2f275	0.10300151
100	0x3e357da8	0.17723715
101	0x3dc3edfb	0.095668755
102	0xbda1be34	-0.078976065
103	0xbce94745	-0.028476367
104	0xbdbb47b8	-0.09144539
105	0x3dd13fee	0.10217272
106	0x3d5701f5	0.0524921
107	0x3d982c98	0.074303806
108	0xbdfe03c2	-0.124030605
109	0x3e0d24fd	0.13783641
110	0xbe21b260	-0.15790701
111	0x3daa1092	0.08303942
112	0xbe1ad904	-0.15121847
113	0x3e07b9c2	0.13254455
114	0xbdd69e96	-0.104794666
115	0xbe09eeef	-0.13470052
116	0x3da14fdd	0.07876561
117	0x3e1cffd3	0.15331964
118	0xbc6bda7f	-0.014395355
119	0x3d939373	0.07205858
120	0x3e1aed9d	0.15129705
121	0xbe159a29	-0.14609589
122	0x3d903c67	0.07042771
123	0x3cdbf271	0.026849004
124	0xbdd2f390	-0.10300362
125	0x3dc73828	0.09727508
126	0x3e1e3248	0.15448868
127	0x3e06a693	0.1314948
128	0xbe038d50	-0.12846875
129	0x3e122e29	0.14275421
130	0x3e117f4f	0.1420872
131	0x3d899104	0.06717113
132	0xbcf25142	-0.029579762
133	0x3e051804	0.12997442
134	0xbdfa6e19	-0.12228031
135	0xbdcfd1fa	-0.10147472
136	0x3dc1320c	0.09433374
137	0x3def2ea5	0.116788186
138	0xbca8d160	-0.02060765
139	0x3e249f22	0.1607633
140	0x3dba69c2	0.09102203
141	0x3da3ae38	0.07992214
142	0x3e0bdf24	0.1365934
143	0x3e2cb5e1	0.16866256
144	0x3de85660	0.113446
145	0x3e083013	0.13299589
146	0x3c22ca59	0.009935939
147	0x3e067b76	0.13133034
148	0x3db60cab	0.08889135
149	0xbdaff604	-0.08591846
150	0x3db64e13	0.0890161
151	0x3c7a7cbb	0.015288527
152	0xbd85b8a1	-0.06529356
153	0x3dfa7285	0.12228874
154	0x3d415ee4	0.047209635
155	0x3e070a8c	0.13187617
156	0x3cf71a17	0.030163808
157	0x3d4bb80d	0.04973607
158	0x3dce6724	0.10078266
159	0xbd61fca0	-0.055172563
160	0x3de2ed33	0.110803984
161	0xbdbba244	-0.09161809
162	0xbcc6a7eb	-0.024249991
163	0x3c5e3c70	0.013564214
164	0x3df574c3	0.11985161
165	0x3da88284	0.08228019
166	0x3e2bd3d3	0.16780023
167	0xbdbd571c	-0.092451304
168	0xbc6bcb8c	-0.014391791
169	0xbc8fb17d	-0.017540688
170	0x3e0e3d10	0.13890481
171	0x3e28555a	0.16438809
172	0x3d2892ee	0.041155748
173	0xbe0e636f	-0.13905118
174	0xbe02c138	-0.1276902
175	0x3d0a2c25	0.033733506
176	0xbe20fd0c	-0.1572153
177	0xbd84e478	-0.064888895
178	0xbe0c8a9b	-0.13724749
179	0x3db1bdf3	0.08678808
180	0xbc95c195	-0.018280784
181	0xbe064de5	-0.13115652
182	0x3dde6d0d	0.108606435
183	0xbe183244	-0.14862925
184	0xbcbb0158	-0.02282779
185	0x3e2eade3	0.1705852
186	0x3d9e5ef1	0.077329524
187	0xbe18f546	-0.14937314
188	0x3c8f4609	0.01748945
189	0xbcd31eb5	-0.025771478
190	0x3d9df348	0.07712418
191	0x3e212bb7	0.15739332
192	0x3e1c2796	0.15249476
193	0xbc96f287	-0.018426193
194	0x3da17316	0.07883279
195	0xbe33ae12	-0.17546871
196	0x3e06bc9a	0.13157883
197	0x3db51275	0.08841411
198	0xbdff58b0	-0.12468088
199	0xbd46f9ae	-0.048577957
200	0xbd878b65	-0.06618384
201	0xbdcb0f22	-0.09914996
202	0x3d959b75	0.07305042
203	0xbd444b3b	-0.047923308
204	0x3d9720d7	0.073793106
205	0xbd76ee1c	-0.060285673
206	0x3e0da44c	0.13832206
207	0xbd91a5d1	-0.07111705
208	0xbcf1bb63	-0.029508298
209	0xbd5396ae	-0.05165737
210	0x3bc53490	0.006018229
211	0xbd98c6a0	-0.0745976
212	0xbdee8a63	-0.11647489
213	0xbe25bf63	-0.1618629
214	0x3de6bb4e	0.11266194
215	0x3cd01fb3	0.02540574
216	0xbdeab966	-0.11461143
217	0x3db42915	0.08796898
218	0x3c4e0831	0.012575195
219	0xbd84f8c4	-0.06492761
220	0xbc5f00be	-0.013611017
221	0x3c6667a4	0.014062796
222	0x3e000aef	0.12504171
223	0xbe25e9bc	-0.16202444
224	0xbe0936f2	-0.13399866
225	0xbe0c1467	-0.13679658
226	0xbe12a3b0	-0.14320254
227	0x39190b0a	0.0001459533
228	0x3dbf4ff7	0.09341424
229	0x3d445e3e	0.04794144
230	0x3d82af6c	0.06381115
231	0x3cd70b31	0.026250454
232	0x3b398e51	0.0028313587
233	0xbe207636	-0.15670094
234	0x3e272e4f	0.16326259
235	0x3e2cb805	0.16867073
236	0x3bb238b9	0.005438891
237	0x3d10700c	0.035263106
238	0x3d18cc39	0.037304137
239	0x3e30034c	0.17188758
240	0x3b253186	0.002520652
241	0xbcf4d725	-0.029887745
242	0xbdc84af3	-0.097799204
243	0x3d2acb6f	0.041697916
244	0x3d9a8ae6	0.07546024
245	0xbe1276ed	-0.14303179
246	0x3d63690a	0.055520095
247	0x3d21c14f	0.039490994
248	0x3da4ed38	0.080530584
249	0x3dae9fa3	0.08526542
250	0xbd2c58e4	-0.04207696
251	0x3cd8687f	0.026417015
252	0xbdec5b99	-0.11540908
253	0x3dd974af	0.10617959
254	0xbe12e0df	-0.14343594
255	0xbe2369c6	-0.15958318

actor.customer_encoder.0.attention.query_embed.weight f4 [32, 32]
0	0x3e9c9766	0.30584258
1	0x3d56e033	0.052459907
2	0x3de298c5	0.11064295
3	0x3e9d18e5	0.30683056
4	0xbea0a2a4	-0.31374085
5	0xbdec5f99	-0.11541671
6	0xbe1a6fd6	-0.15081725
7	0xbe6836e1	-0.22677185
8	0x3e696be7	0.22795068
9	0x3e641f7a	0.22277632
10	0x3e8d3eb8	0.27586913
11	0x3eaee567	0.34159395
12	0xbe36e9fd	-0.17862697
13	0x3bfe6448	0.0077634193
14	0x3dca7991	0.09886468
15	0xbdce15d9	-0.10062761
16	0x3e529f6c	0.20568627
17	0x3eb1f51a	0.3475731
18	0xbeb22139	-0.34790972
19	0xbd934565	-0.0719097
20	0x3e55d5ba	0.20882311
21	0xbe857070	-0.26062346
22	0xbd921d8a	-0.071345404
23	0x3e5eabdb	0.21745245
24	0x3dc2329b	0.094823085
25	0xbe431df1	-0.1905439
26	0xbda54b61	-0.08071018
27	0x3c043b79	0.00807082
28	0x3eae7d8a	0.34080154
29	0xbe76530b	-0.24055116
30	0xbca054b0	-0.019571632
31	0xbda71a6f	-0.08159339
32	0x3eb31b20	0.34981632
33	0x3e88adb9	0.2669504
34	0xbd1d6fc6	-0.038436674
35	0xbe20e042	-0.15710548
36	0x3eac5518	0.3365867
37	0xbce9b08b	-0.028526565
38	0xbdb37b5e	-0.08763765
39	0x3e90492e	0.28180832
40	0x3dcff2f3	0.10153761
41	0x3ce593da	0.028024603
42	0x3ea9dfac	0.3317846
43	0xbe2fd468	-0.1717087
44	0x3e8ce5dd	0.27519122
45	0x3e3b9088	0.18316853
46	0xbe5f5ba2	-0.21812299
47	0x3eaa41c0	0.33253288
48	0x3e028150	0.12744641
49	0xbe8074bf	-0.2508907
50	0x3e98f67a	0.29875547
51	0xbe92fc2f	-0.28708026
52	0x3d3edca2	0.04659713
53	0x3e189dd0	0.1490395
54	0x3e34fcea	0.17674604
55	0xbea57162	-0.32313067
56	0x3ea454e4	0.32096016
57	0x3e9ca54f	0.3059487
58	0x3e5c9025	0.21539362
59	0x3e0741b4	0.13208658
60	0xbe61079a	-0.21975556
61	0x3e815430	0.25259542
62	0x3d071ee4	0.032988444
63	0xbd819a81	-0.063282974
64	0xbddca83f	-0.10774278
65	0x3d03e322	0.032199033
66	0xbd93e977	-0.07222264
67	0xbe88ae57	-0.2669551
68	0xbe6dccb0	-0.23222613
69	0xbdff2bd6	-0.12459533
70	0xbd85f58e	-0.065409765
71	0xbe4187ae	-0.18899414
72	0xbdd19f9a	-0.1023552
73	0xbe8a4161	-0.27003005
74	0xbe7df54b	-0.24800603
75	0x3e5c412c	0.21509236
76	0xbde2bf63	-0.1107166
77	0xbde2708f	-0.11056625
78	0xbb07eb58	-0.002073964
79	0x3d5e2b72	0.05424065
80	0xbe6fe06f	-0.23425458
81	0x3e28231c	0.16419643
82	0x3e1296c9	0.14315332
83	0x3e1ed473	0.1551073
84	0xbe8695a8	-0.26286054
85	0x3ea319ea	0.31855708
86	0x3e418f08	0.18902218
87	0x3dcef722	0.101057306
88	0x3e487501	0.19575883
89	0xbe4ec5ff	-0.20192717
90	0x3e0a0c73	0.13481312
91	0x3ea3cbe2	0.31991488
92	0x3e1b1316	0.15144
93	0xbc5e96dd	-0.013585773
94	0xbea6ed13	-0.32602748
95	0xbe061e35	-0.1309746
96	0xbe71aa36	-0.23600087
97	0x3eaa9d8a	0.33323318
98	0xbd9e04a5	-0.077157296
99	0xbde04930	-0.109514594
100	0xbeae2846	-0.340151
101	0xbea209c8	-0.31648088
102	0xbe0ca71f	-0.13735627
103	0x3e139c54	0.14415103
104	0xbd63c606	-0.05560877
105	0x3e44cd0f	0.19218849
106	0x3ea386df	0.31938836
107	0xbe67b80a	-0.22628799
108	0x3deab8a7	0.11461001
109	0x3ca27581	0.01983142
110	0xbea10860	-0.31451702
111	0xbda9e9eb	-0.082965694
112	0x3d3f043e	0.046634905
113	0xbe0040be	-0.12524697
114	0xbe717bee	-0.23582432
115	0x3ea6d03c	0.32580745
116	0x3e1de48f	0.1541922
117	0xbe9d529a	-0.30727082
118	0xbea648df	-0.3247747
119	0x3dc8b29d	0.09799693
120	0xbe40cd4c	-0.18828315
121	0x3da0dca9	0.078545876
122	0x3e06ae14	0.13152343
123	0x3d00bed6	0.031431995
124	0x3e486bf4	0.19572431
125	0x3e293349	0.1652347
126	0xbd77426b	-0.060366075
127	0x3dd2ab9d	0.10286639
128	0xbdb6f973	-0.089342974
129	0xbe3cfd6d	-0.1845605
130	0xbeb6dca3	-0.35715207
131	0x3e1b2f2b	0.15154712
132	0x3e9377cf	0.28802344
133	0xbde8190d	-0.11332903
134	0x3e57af36	0.21062931
135	0x3e8f5ca9	0.28000382
136	0x3d53a545	0.051671285
137	0x3e26c677	0.16286646
138	0x3c03b649	0.008039066
139	0x3e4e44b5	0.20143397
140	0x3e33855c	0.17531341
141	0x3e6f69b7	0.23380171
142	0x3ea18a10	0.31550646
143	0xbe105519	-0.14094962
144	0x3dd9c54b	0.10633334
145	0x3e06e891	0.13174655
146	0xbe8e260e	-0.27763408
147	0xbe9d7ffc	-0.30761707
148	0xbda6d344	-0.081457645
149	0x3e2cf8ce	0.16891786
150	0x3e8f151d	0.27945796
151	0xbe035e49	-0.12828936
152	0xbe1ecf5b	-0.15508787
153	0xbe9ee433	-0.31033477
154	0x3e520c7b	0.20512573
155	0xbe399ace	-0.1812546
156	0x3de8f999	0.11375732
157	0x3e0f3686	0.13985643
158	0xbd157123	-0.03648485
159	0x3ea5e99c	0.32404792
160	0x3e7df0ff	0.24798964
161	0xbd6bb5fd	-0.057546604
162	0x3b723cb4	0.0036962451
163	0x3e6b75f4	0.22994214
164	0xbe5e5bb5	-0.21714671
165	0xbe9138f7	-0.28363773
166	0x3e6e5a4f	0.23276637
167	0xbe3ebef0	-0.18627524
168	0x3d08baae	0.033381157
169	0x3c9bbf58	0.019012138
170	0x3e8c5305	0.2740709
171	0x3d5f3834	0.05449696
172	0x3d05bcc0	0.03265071
173	0x3d9d0bd9	0.076682754
174	0xbe160b97	-0.14652859
175	0xbea98f65	-0.33117214
176	0x3e9b4a97	0.30330345
177	0xbe8dff68	-0.27733922
178	0xbe86812b	-0.26270422
179	0xbdb18ea9	-0.086697884
180	0x3e6af6c0	0.2294569
181	0xbe1eb369	-0.15498127
182	0x3e85d1b5	0.26136556
183	0x3de55ca0	0.111993074
184	0x3e76285d	0.24038835
185	0xbe0a8a3e	-0.13529298
186	0x3e308c77	0.17241083
187	0x3db76e4e	0.08956586
188	0x3ea3c3df	0.31985375
189	0xbe33aa4e	-0.17545435
190	0x3ea2b573	0.3177906
191	0xbe757f88	-0.2397443
192	0xbe7f4203	-0.24927525
193	0x3ea96172	0.33082157
194	0x3e3d5eac	0.18493146
195	0x3e503a01	0.20334627
196	0xbe3e4082	-0.18579295
197	0x3e9ca5a9	0.3059514
198	0xbdb01b03	-0.08598902
199	0x3e9940eb	0.2993234
200	0x3e6810fe	0.22662732
201	0xbea01257	-0.31263992
202	0xbdabb79c	-0.0838463
203	0x3eb72a78	0.3577459
204	0x3e61aec3	0.22039323
205	0x3d2728f3	0.040810537
206	0xbcd9878e	-0.026553895
207	0x3e1708a3	0.14749388
208	0xbdd098c7	-0.1018539
209	0xbdd0c271	-0.10193337
210	0xbe423693	-0.18966131
211	0xbc715ea4	-0.014732037
212	0xbe432ff6	-0.19061264
213	0xbe4d27bf	-0.20034693
214	0x3e786743	0.24258141
215	0x3e683b28	0.22678816
216	0xbe2c41d9	-0.16821994
217	0xbd87e99f	-0.066363566
218	0xbe27be5b	-0.16381209
219	0x3e2fc620	0.17165422
220	0xbe667a61	-0.22507621
221	0xbe4a5a51	-0.19761015
222	0x3e0ee2a1	0.1395364
223	0x3d06a5ce	0.032872967
224	0x3dd530f5	0.104097284
225	0xbd3426db	-0.043982368
226	0x3eb736ce	0.35784
227	0xbd675bf5	-0.05648418
228	0x3e969bae	0.2941565
229	0x3d3c87bf	0.046027895
230	0x3eaeb191	0.34119847
231	0xbe5ab17f	-0.21356772
232	0x3e56d249	0.20978655
233	0xbde9a382	-0.1140814
234	0x3e4fd91b	0.20297663
235	0xbe902b33	-0.28157958
236	0x3e554be0	0.20829725
237	0xbdc7a106	-0.0974751
238	0xbe143ae4	-0.1447559
239	0xbdf8ca20	-0.12147927
240	0x3e82e944	0.25568593
241	0xbd60a580	-0.054845333
242	0xbd3e2b71	-0.046428148
243	0x3ea6aa5e	0.32551855
244	0x3e86b419	0.2630928
245	0x3ca5f7d9	0.020259785
246	0xbdef32e0	-0.116796255
247	0x3dc75af9	0.097341485
248	0xbdaaaa78	-0.083332956
249	0x3e9c605a	0.3054226
250	0x3e07c441	0.13258459
251	0x3e7c2cf1	0.24626519
252	0x3e492a17	0.19644962
253	0xbdbf503f	-0.093414776
254	0xbe926ddb	-0.28599438
255	0xbdf9bc86	-0.12194161

actor.customer_encoder.0.attention.key_embed.weight f4 [32, 32]
0	0xbe2980a6	-0.16552982
1	0x3d70f3ec	0.058826372
2	0x3d88bf97	0.06677168
3	0x3eb3b2df	0.35097405
4	0x3ea57ca5	0.3232166
5	0xbe95db38	-0.29268813
6	0x3e3308c0	0.17483807
7	0xbe8d2805	-0.27569595
8	0xbe2909e6	-0.16507682
9	0x3e12e9e6	0.14347038
10	0xbe772de2	-0.24138597
11	0x3e99ed20	0.30063725
12	0x3e07cbb3	0.13261299
13	0x3cfb8391	0.030702384
14	0x3e4fcd2d	0.20293112
15	0xbe98c5e1	-0.2983847
16	0x3d66c9c3	0.05634476
17	0x3e03b297	0.12861095
18	0xbe27add5	-0.16374905
19	0xbde4dbb3	-0.11174717
20	0x3e112d50	0.14177442
21	0x3e998bee	0.2998957
22	0xbe09d39a	-0.13459626
23	0x3e54ba51	0.20774199
24	0x3e49dfdc	0.19714302
25	0xbe57608d	-0.21032925
26	0xbe9093dd	-0.2823781
27	0xbd34f7f7	-0.04418179
28	0x3e60f7d2	0.21969536
29	0xbe95f756	-0.29290265
30	0xbe7b608c	-0.24548548
31	0x3e82b914	0.25531828
32	0xbe4d312f	-0.20038293
33	0xbe79908f	-0.24371551
34	0xbc8de00f	-0.017318754
35	0x3ead1d6a	0.33811504
36	0x3e6f5f72	0.23376253
37	0x3e3e5703	0.1858788
38	0x3d4c2d56	0.049847923
39	0xbe3ef85f	-0.18649434
40	0xbe91d16d	-0.28480092
41	0x3e3c3804	0.18380743
42	0x3dd96394	0.10614696
43	0x3dbc9500	0.09208107
44	0xbdfefd14	-0.124506146
45	0xbeb359d7	-0.3502948
46	0x3d1f060d	0.03882413
47	0xbd80ad3e	-0.06283043
48	0xbcd66968	-0.026173308
49	0x3d28b046	0.041183732
50	0xbe4d1b51	-0.20029952
51	0xbe5aeb2d	-0.21378775
52	0xbdc3f913	-0.095689915
53	0x3e099730	0.1343658
54	0xbe634514	-0.2219432
55	0x3eac3ed1	0.33641675
56	0xbeb02e16	-0.3441016
57	0xbe5e40df	-0.21704434
58	0x3dcc5072	0.09976281
59	0xbeb10e3d	-0.34581175
60	0xbe4dfa54	-0.20115024
61	0x3e3412c7	0.17585288
62	0xbe786185	-0.24255951
63	0x3deafad9	0.11473627
64	0xbe3df51f	-0.18550538
65	0xbe26f4a0	-0.16304255
66	0x3d717c62	0.05895651
67	0x3d03609f	0.032074567
68	0x3ea5759b	0.32316288
69	0x3d958a13	0.07301726
70	0x3d803a68	0.0626114
71	0xbe407bf2	-0.18797281
72	0x3e999f9d	0.30004588
73	0xbbb5b176	-0.0055448366
74	0x3e567342	0.20942405
75	0xbe904cc5	-0.2818357
76	0x3e3fb24d	0.1872036
77	0x3e920b26	0.2852413
78	0x3e658b1f	0.22416352
79	0x3e953c44	0.29147542
80	0xbe22abaa	-0.15885797
81	0xbe807231	-0.2508712
82	0x3e066ef6	0.13128266
83	0x3e1f9dd5	0.15587552
84	0xbe58f05d	-0.21185441
85	0xbde72189	-0.11285693
86	0xbb7cee46	-0.003859417
87	0xbcb02e24	-0.021506377
88	0x3e2dcb3e	0.16972062
89	0x3e8205a5	0.2539493
90	0x3dd158f1	0.10222042
91	0xbe10bdfa	-0.1413497
92	0xbe641fab	-0.22277705
93	0x3e9ba55e	0.30399603
94	0x3d15000e	0.036377005
95	0xbe398991	-0.18118884
96	0xbe8a2446	-0.269808
97	0xbe7cab16	-0.24674639
98	0x3ea4afb1	0.32165292
99	0xbe5fd328	-0.21857893
100	0xbeaf4fed	-0.34240666
101	0xbe88baa4	-0.26704895
102	0xbe2b6732	-0.16738585
103	0x3966849c	0.0002198391
104	0xbe6e2eca	-0.23260036
105	0x3e256369	0.16151203
106	0xbd72c401	-0.059268955
107	0xbe1dcf64	-0.15411144
108	0xbe5ae021	-0.21374561
109	0xbdeb16b4	-0.1147894
110	0x3eb3089e	0.34967512
111	0x3c993125	0.018700192
112	0x3dc4fb23	0.09618213
113	0xbeb0d7d8	-0.34539676
114	0x3e611a77	0.21982752
115	0x3d68adf1	0.05680651
116	0xbd1ce0e8	-0.038300425
117	0x3bf82241	0.0075724428
118	0xbe1f5cb4	-0.15562707
119	0xbe8e5f56	-0.2780711
120	0xbe35da34	-0.17759019
121	0x3dd7f182	0.10544111
122	0x3e964c5d	0.29355136
123	0xbe830d07	-0.25595877
124	0x3e217d1a	0.15770379
125	0xbe2ce121	-0.16882755
126	0x3e87562f	0.2643294
127	0x3d2c9be8	0.04214087
128	0xbea1f602	-0.31633002
129	0xbe955a63	-0.29170522
130	0x3dc0339e	0.09384845
131	0x3e414267	0.18872987
132	0x3dc9fbf4	0.09862509
133	0x3dd3b181	0.103365906
134	0xbd530e0b	-0.051527064
135	0xbe45d56c	-0.19319695
136	0x3d4ab8ce	0.04949265
137	0xbe954bf4	-0.2915951
138	0x3e391a03	0.18076329
139	0xbe045c44	-0.12925822
140	0xbea0f688	-0.31438088
141	0x3d1dd52d	0.03853338
142	0x3e00d87d	0.12582584
143	0xbe8a706f	-0.27038905
144	0xbe63d4c4	-0.22249132
145	0xbd602aa9	-0.054728184
146	0xbe178083	-0.14795117
147	0x3e94fb08	0.29097772
148	0x3d672ec4	0.056441084
149	0xbdec6914	-0.115434796
150	0xbe926209	-0.2859042
151	0xbe84a55b	-0.25907406
152	0x3e011d5a	0.12608853
153	0xbda607c8	-0.08106953
154	0x3d52720e	0.051378302
155	0x3d96457f	0.07337474
156	0x3e7d9626	0.24764308
157	0xbb98dd3c	-0.004665045
158	0x3e26a5ae	0.1627414
159	0xbeaa73cd	-0.33291474
160	0x3e78fc08	0.24314892
161	0xbe9d42af	-0.30714938
162	0xbddeb926	-0.10875158
163	0xbeb29b27	-0.34883997
164	0x3e3c468e	0.1838629
165	0xbdc44357	-0.095831566
166	0xbeb0fc25	-0.3456737
167	0xbe3de0e8	-0.18542826
168	0x3e4d817a	0.20068923
169	0x3e787d6c	0.24266595
170	0x3e7b3586	0.24532136
171	0xbeb073c5	-0.34463325
172	0xbe133ede	-0.1437945
173	0x3d5acee5	0.053419966
174	0xbc82898f	-0.015934734
175	0xbe3a4bd6	-0.18192992
176	0x3eaedac3	0.34151277
177	0xbe62715e	-0.22113559
178	0x3e70b743	0.23507409
179	0x3e6c1651	0.23055388
180	0xbe9a89d9	-0.30183294
181	0xbe6e25d8	-0.23256624
182	0xbe6c8f7d	-0.23101611
183	0x3e84b6ce	0.2592072
184	0xbe9ec4f4	-0.31009638
185	0xb9e7e78a	-0.00044232263
186	0xbde9a633	-0.11408653
187	0xbdb933df	-0.09043097
188	0xbe5cbc62	-0.21556237
189	0xbe9ab87b	-0.30218872
190	0xbe9d667d	-0.30742255
191	0xbd16059c	-0.036626443
192	0x3c2f1eb2	0.010688471
193	0x3da2de5d	0.07952569
194	0x3dc7c1cc	0.09753761
195	0xbe159cb5	-0.1461056
196	0x3e4fcd00	0.20293045
197	0x3e50aa5b	0.20377485
198	0xbe8de29a	-0.27711946
199	0x3ea420b1	0.32056192
200	0xbcda026f	-0.026612489
201	0xbbb90ce6	-0.0056472896
202	0xbeae1dcb	-0.34007105
203	0x3e3362f5	0.17518218
204	0x3e17a640	0.14809513
205	0x3da5f38d	0.08103094
206	0x3e26394a	0.16232792
207	0xbe9f7275	-0.3114201
208	0x3eb28a28	0.3487103
209	0x3e6ec261	0.23316337
210	0xbdbd2bb6	-0.09236853
211	0x3e42ba20	0.19016314
212	0xbdf673ac	-0.120337814
213	0xbddff1b4	-0.10934773
214	0xbb8cee62	-0.0043008784
215	0x3e625255	0.2210172
216	0x3e44dcaa	0.19224802
217	0xbe02d8b3	-0.12777977
218	0xbe9a1bf6	-0.30099458
219	0xbc72290c	-0.014780294
220	0xbe254897	-0.16140972
221	0xbca9d284	-0.020730264
222	0x3e2cc50a	0.1687204
223	0x3e73ff45	0.23827846
224	0x3ca6a715	0.020343343
225	0x3e1ec8f0	0.15506339
226	0x3d7f3f64	0.062316313
227	0xbe2f27d9	-0.17105044
228	0x3e57903c	0.21051115
229	0xbe789461	-0.24275352
230	0xbc98ad45	-0.018637309
231	0xbe264b97	-0.16239773
232	0x3c562e56	0.013072571
233	0x3e93dc91	0.28879216
234	0x3de9b58c	0.114115804
235	0xbcc571dd	-0.024102146
236	0xbea557ed	-0.32293645
237	0xbe83f19d	-0.25770274
238	0xbda7074f	-0.08155691
239	0xbe328815	-0.17434724
240	0x3d8d7007	0.06906133
241	0xbead164d	-0.33806077
242	0x3eabe7d4	0.33575308
243	0xbdc7376d	-0.097273685
244	0x3e5f1589	0.21785559
245	0x3e7f0795	0.24905236
246	0x3e93d592	0.2887388
247	0xbd4e5f9a	-0.05038414
248	0x3c9580ae	0.018249836
249	0x3e3a4caf	0.18193315
250	0xbe88c887	-0.2671549
251	0xbcdcd1be	-0.026955482
252	0x3e115990	0.14194322
253	0xbc8cd0e1	-0.017189445
254	0xbe8262a8	-0.25465894
255	0x3d5c42e0	0.053774714

actor.customer_encoder.0.attention.value_embed.weight f4 [32, 32]
0	0x3d7d70c2	0.061875112
1	0x3ea91f91	0.33031896
2	0x3de62b02	0.11238672
3	0x3e055d34	0.13023835
4	0xbeaae6a3	-0.33379087
5	0x3e118846	0.1421214
6	0x3e420994	0.18948966
7	0xbdde0401	-0.108406074
8	0xbe618b69	-0.22025837
9	0xbd2fcb0f	-0.04291826
10	0xbe9bb0be	-0.3040828
11	0x3ea68cf2	0.32529408
12	0xbe5b7c2f	-0.21434091
13	0x3ea2ec31	0.31820825
14	0xbeb39560	-0.35074902
15	0x3e66c988	0.22537816
16	0xbe17544b	-0.14778249
17	0xbe8b683d	-0.27227965
18	0x3dcba2f0	0.09943187
19	0x3ea6a9a7	0.3255131
20	0xbe2c9627	-0.16854154
21	0x3d4b49b0	0.04963082
22	0xbe6d1951	-0.23154189
23	0x3e6be740	0.23037434
24	0x3ea2f533	0.31827697
25	0xbdc5625c	-0.09637901
26	0x3ead6d2a	0.33872348
27	0x3e3b5e01	0.18297578
28	0x3d4370cc	0.047714993
29	0xbe1bc289	-0.15210928
30	0x3e79a31e	0.2437863
31	0x3c94fc47	0.018186701
32	0xbe191d0d	-0.14952488
33	0xbeb213df	-0.34780785
34	0xbeaf730c	-0.3426746
35	0x3eb4796e	0.35248893
36	0xbe3f53f3	-0.18684368
37	0xbe870cee	-0.26377052
38	0x3e658d58	0.224172
39	0xbdcf21c8	-0.10113865
40	0xbe86face	-0.26363224
41	0x3d922dae	0.07137619
42	0xbd560c93	-0.052258085
43	0x3e0badbd	0.13640495
44	0x3ea831c4	0.32850468
45	0xbdb647f1	-0.089004405
46	0x3e4e3054	0.20135623
47	0xbdca4f32	-0.098783866
48	0xbdeed8ce	-0.11662446
49	0x3df17c88	0.117913306
50	0xbda1d760	-0.07902408
51	0x3dc2850b	0.09498032
52	0x3da13ea4	0.07873276
53	0xbe90f7c1	-0.2831402
54	0xbda9b5e1	-0.08286644
55	0x3ea35633	0.31901702
56	0xbb0e443e	-0.0021708156
57	0x3eab9c32	0.33517605
58	0x3e88cd43	0.26719102
59	0xbdcb336a	-0.09921916
60	0xbe23bdcf	-0.15990375
61	0x3deedad1	0.1166283
62	0xbd6f2323	-0.05838312
63	0xbd3af097	-0.0456396
64	0xbcc5fe63	-0.024169153
65	0xbe69d0c1	-0.2283354
66	0x3e63e652	0.22255829
67	0xbe0d7887	-0.13815509
68	0xbe936dd0	-0.28794718
69	0xbe8d64b9	-0.27615908
70	0xbe66f661	-0.22554924
71	0x3d85895d	0.065203406
72	0xbeae4cef	-0.3404307
73	0x3e05bd15	0.1306041
74	0xbe5f067f	-0.21779822
75	0xbc2c58d0	-0.010519221
76	0xbdaf6389	-0.08563907
77	0xbdd8ed95	-0.1059219
78	0x3e699db8	0.22814071
79	0xbdf70643	-0.12061741
80	0x3df6c6dd	0.12049649
81	0x3e766ad1	0.24064185
82	0x3e32da47	0.17466079
83	0x3e1a090f	0.15042518
84	0xbd07c214	-0.03314407
85	0xbe3bd4f6	-0.18342957
86	0xbe85a72e	-0.2610411
87	0x3eabf1bd	0.3358287
88	0xbea43c96	-0.32077473
89	0xbdb0d52d	-0.0863441
90	0x3e995800	0.2994995
91	0xbd89a7e7	-0.06721478
92	0xbe98048b	-0.29690966
93	0x3eb23131	0.34803155
94	0xbdba72db	-0.09103938
95	0x3e173a92	0.14768437
96	0x3e24b061	0.16082908
97	0xbde69623	-0.11259105
98	0xbeaf68d4	-0.34259665
99	0xbd4e061f	-0.050298806
100	0xbe8fa9bd	-0.28059188
101	0xbe31e043	-0.17370705
102	0xbe98460d	-0.29740945
103	0x3e28d696	0.16488108
104	0xbe7ed9e1	-0.24887802
105	0x3e306d40	0.17229176
106	0x3e983ce1	0.29733947
107	0x3e3479e2	0.1762462
108	0x3e57136c	0.21003503
109	0x3d75f8be	0.060051672
110	0x3e724edd	0.23662896
111	0x3eaa32b4	0.33241808
112	0x3d9a6b28	0.0753997
113	0x3e19d7bf	0.15023707
114	0x3e642a0c	0.22281665
115	0xb92f5ccb	-0.00016723869
116	0x3e9b9bb9	0.30392244
117	0x3daf4db9	0.08559746
118	0xbe5cb9f6	-0.21555313
119	0xbe8976a3	-0.26848325
120	0x3db842ce	0.08997117
121	0xbe8f0ef6	-0.27941102
122	0xbea35977	-0.31904194
123	0x3ea834b4	0.3285271
124	0x3e88a221	0.26686195
125	0xbdc3c3a9	-0.095588036
126	0x3e347773	0.17623691
127	0x3df51174	0.119662195
128	0x3ea760d0	0.3269105
129	0x3ddcd710	0.107832074
130	0x3e278ceb	0.1636235
131	0xbe817443	-0.25284013
132	0x3def5437	0.116859846
133	0xbe8b7738	-0.27239394
134	0xbe8a489c	-0.27008522
135	0x3e474ec8	0.19463646
136	0xbe312d60	-0.17302465
137	0x3e8c3b4d	0.27388993
138	0xbdb6e24a	-0.0892988
139	0x3e3c2171	0.18372132
140	0x3ea8ae4c	0.32945478
141	0x3d3c2fb7	0.045943942
142	0x3ea46289	0.32106426
143	0xbe640dce	-0.22270891
144	0x3e400d36	0.1875504
145	0x3de391f9	0.111118264
146	0x3e89baff	0.2690048
147	0x3ea68487	0.32522985
148	0xbd967925	-0.07347325
149	0x3d9b79b7	0.07591575
150	0xbe36b6d1	-0.17843176
151	0x3e19a6ce	0.15005037
152	0xbab5dd53	-0.0013875164
153	0xbe26d45d	-0.16291948
154	0xbe480e71	-0.19536759
155	0x3db4900e	0.08816539
156	0x3ea12fd0	0.3148179
157	0xbea03bed	-0.3129572
158	0x3e69c275	0.22828086
159	0x3e7eb73e	0.24874589
160	0xbe9c83ae	-0.30569214
161	0x3e252ab5	0.16129573
162	0x3d001836	0.03127309
163	0x3e88cb60	0.26717663
164	0x3e990e5e	0.29893774
165	0x3e4b073e	0.19826981
166	0xbe0d8396	-0.13819727
167	0xbe9e31d0	-0.3089738
168	0x3e7cb977	0.24680124
169	0x3a495ee9	0.0007681684
170	0x3e1332fb	0.14374916
171	0x3de45b25	0.11150197
172	0x3d3ffdee	0.046873026
173	0x3e89008c	0.2675823
174	0xbdb53c31	-0.08849371
175	0x3e125ecb	0.14293973
176	0x3e280ceb	0.16411178
177	0xbe2465a8	-0.16054404
178	0x3e1b6a94	0.15177375
179	0x3ccdc12e	0.02511653
180	0xbeb3e747	-0.35137388
181	0x3e483e07	0.19554912
182	0xbe9ff932	-0.31244808
183	0x3e240195	0.16016228
184	0xbe26c231	-0.16285016
185	0xbe300b4c	-0.1719181
186	0x3e4affaa	0.1982409
187	0xbc71df0b	-0.01476265
188	0xbe843319	-0.25820234
189	0x3dfb0473	0.12256708
190	0xbe473dc4	-0.19457155
191	0xbea52bf9	-0.3226011
192	0x3e919f09	0.28441647
193	0xbe98b0c6	-0.29822367
194	0xbe1a43ef	-0.15064977
195	0xbe5a644b	-0.21327321
196	0x3e8a4d95	0.27012315
197	0xbd029567	-0.031880762
198	0xbe97331d	-0.29531184
199	0x3e5479e9	0.2074963
200	0x3e880042	0.26562697
201	0x3ddf0893	0.10890307
202	0xbd1ffe96	-0.03906115
203	0xbeae174e	-0.34002155
204	0xbd5e9501	-0.05434132
205	0x3e46a6b9	0.19399537
206	0xbe762424	-0.24037224
207	0xbeb25d7f	-0.34836957
208	0xbb23c67b	-0.002499013
209	0x3d67e827	0.056617882
210	0xbe0dd82d	-0.13851996
211	0xbe157e79	-0.14599027
212	0xbe8c65bb	-0.27421364
213	0xbd5b2de5	-0.053510565
214	0x3ea865cc	0.32890165
215	0x3e96c0d8	0.29444003
216	0x3d7144f0	0.058903635
217	0x3a9a65db	0.0011779623
218	0x3ea1b67a	0.3158453
219	0x3d580267	0.052736666
220	0xbd47d7e2	-0.048789866
221	0xbe808552	-0.25101715
222	0x3ea7351a	0.326577
223	0xbeacdbf6	-0.33761567
224	0xbdfd234f	-0.1236025
225	0x3d9e044c	0.07715663
226	0x3d30dc2e	0.04317873
227	0xbdec86a3	-0.115491174
228	0xbea89c8e	-0.32931942
229	0x3d107c01	0.03527451
230	0xbdae0e83	-0.08498862
231	0xbe7dc4fe	-0.24782178
232	0xbe609293	-0.21930914
233	0xbe30d340	-0.17268085
234	0xbea7789a	-0.327092
235	0x3e2fa9c5	0.17154606
236	0xbbabd1ee	-0.0052435314
237	0xbe9cb5b4	-0.30607378
238	0x3e37dea9	0.17956032
239	0x3e8a125b	0.2696713
240	0x3da16e26	0.07882337
241	0xbdf31489	-0.11869151
242	0xbde843bf	-0.113410465
243	0x3dea2291	0.11432374
244	0x3eaaf5fa	0.3339079
245	0x3d101b43	0.03518225
246	0xbe09e210	-0.13465142
247	0xbd4523a0	-0.048129678
248	0x3e0acbd4	0.13554317
249	0x3e9def10	0.30846453
250	0x3ead5f91	0.33861974
251	0x3eb47b39	0.3525026
252	0xbe783aa3	-0.24241118
253	0x3d708dee	0.058729105
254	0x3c9ad413	0.018899953
255	0x3d953933	0.072863005

actor.customer_encoder.0.attention.combine.weight f4 [32, 32]
0	0xbd0bb84d	-0.03411131
1	0xbe0b28fc	-0.13589853
2	0x3d8d444f	0.068977945
3	0x3dfa9407	0.12235265
4	0x3d0ca531	0.034337226
5	0x3c85fddd	0.016356403
6	0x3e11d6cb	0.14242093
7	0xbd86a2db	-0.06574031
8	0xbcf8a774	-0.030353285
9	0x3d6aadc0	0.057294607
10	0xbdd11b79	-0.10210318
11	0xbe0ecded	-0.13945742
12	0xbd073707	-0.033011463
13	0x3dd62dc7	0.1045795
14	0xbdb699af	-0.089160316
15	0x3d63b2af	0.055590328
16	0x3b0df93a	0.0021663443
17	0x3e23b13b	0.15985577
18	0x3dce6fca	0.10079916
19	0xbdbcefbf	-0.092254154
20	0xbe303412	-0.17207363
21	0x3dcf92ed	0.10135446
22	0xbe2d2ae9	-0.169109
23	0xbde09348	-0.10965592
24	0x3e2a5073	0.16632251
25	0x3d4f77f8	0.05065152
26	0x3b8a76d4	0.004225591
27	0xbe018bb2	-0.12650946
28	0xbce56f37	-0.028007133
29	0x3c840cf0	0.01611945
30	0x3dc56634	0.09638634
31	0xbd9165e8	-0.07099515
32	0xbcf75465	-0.03019161
33	0x3d0eb52c	0.034840748
34	0xbe33410b	-0.1750528
35	0xbd651870	-0.05593151
36	0xbe24af8e	-0.16082594
37	0xbd861bbf	-0.06548261
38	0xbdd0941b	-0.10184499
39	0x3dafa37a	0.085761026
40	0xbdef1185	-0.116732635
41	0xbe28f5e7	-0.16500054
42	0xbca53232	-0.020165537
43	0xbda78051	-0.08178771
44	0xbdbf51f4	-0.09341803
45	0xbd1aad1a	-0.03776274
46	0x3d8cecc8	0.068811
47	0xbe1f274f	-0.15542339
48	0xbe00b075	-0.12567313
49	0x3ca71e6f	0.020400254
50	0x3da763ea	0.08173354
51	0x3c07917e	0.008274434
52	0x3e323430	0.1740272
53	0x3db3f430	0.087868094
54	0xbdf99356	-0.12186305
55	0x3dc554ce	0.09635316
56	0xbdae978e	-0.085250005
57	0x3e01b610	0.12667108
58	0xbd37ede8	-0.04490462
59	0x3e130ac9	0.14359583
60	0xbd151924	-0.03640093
61	0xbd383077	-0.044968095
62	0xbe031f73	-0.12804966
63	0x3e377fe0	0.17919874
64	0xbdd0225a	-0.10162802
65	0xbd9b1da5	-0.075740136
66	0xbdc4c9eb	-0.09608825
67	0xbe359d9b	-0.17735903
68	0xbdb692a6	-0.0891469
69	0x3e18d124	0.14923531
70	0x3de7f40d	0.11325846
71	0x3d40ebbd	0.047099818
72	0xbd61da77	-0.055139985
73	0x3cb811fa	0.02246951
74	0xbd1114f6	-0.03542038
75	0xbe163244	-0.14667612
76	0x3dfb1460	0.122597456
77	0x3dbc7d08	0.09203535
78	0x3e1cd2c7	0.1531478
79	0xbe271149	-0.16315188
80	0x3cec5a7e	0.028851744
81	0x3dc506b7	0.096204214
82	0xbccf47ba	-0.025302757
83	0x3daa5c18	0.08318347
84	0x3db99951	0.09062446
85	0xbdb4c4eb	-0.088266216
86	0x3e05d9a2	0.13071302
87	0x3d3cb99f	0.04607546
88	0xbca4d7f4	-0.020122506
89	0x3d8407a4	0.0644677
90	0x3e070aad	0.13187666
91	0x3d0f33d4	0.034961537
92	0x3db16864	0.08662489
93	0xbdfa407a	-0.12219329
94	0xbdabc41f	-0.083870165
95	0xbcec2f17	-0.028831048
96	0x3dcb5ed8	0.099301994
97	0x3dd55e2d	0.10418353
98	0xbd3ae8c9	-0.045632157
99	0xbd271237	-0.040788855
100	0xbcfa919a	-0.030587006
101	0xbd9168ae	-0.07100044
102	0x3e1ced8e	0.15324995
103	0x3dc0ed40	0.09420252
104	0x3dde210d	0.10846148
105	0xbd855a4c	-0.065113634
106	0xbd51a922	-0.05118669
107	0xbe1ab34a	-0.15107456
108	0x3e109ea9	0.14123024
109	0xbd8b6e8c	-0.068081945
110	0xbc67e395	-0.014153381
111	0xbde3891d	-0.11110137
112	0x3d3257b2	0.043540664
113	0x3db21bd5	0.08696715
114	0xbe3526ea	-0.17690626
115	0x3e10a1f3	0.14124279
116	0x3d36539b	0.044513326
117	0x3da84acc	0.08217391
118	0xbe19cdba	-0.15019885
119	0x3d5498d3	0.051903557
120	0x3e2dcd97	0.16972958
121	0x3dfacfe1	0.12246681
122	0xbdb2d57a	-0.08732124
123	0x3c943a06	0.018094074
124	0xbdf409b3	-0.119159125
125	0x3d8048c6	0.062638804
126	0x3d9d3792	0.07676615
127	0x3da84de4	0.082179815
128	0xbe155946	-0.14584836
129	0x3db10caa	0.086449936
130	0xbb8fa8bf	-0.00438413
131	0xbdf54984	-0.119769126
132	0xbd85792e	-0.06517254
133	0x3e1b291c	0.151524
134	0xbe0addbe	-0.1356115
135	0x3dd9becd	0.106320955
136	0x3e30a28f	0.17249511
137	0xbdfbdb1e	-0.12297653
138	0xbe228a30	-0.15873027
139	0xbe0374cd	-0.12837525
140	0x3a95f325	0.001144026
141	0xbe213b0d	-0.15745182
142	0x3e10c4fb	0.14137642
143	0x3e1b9920	0.15195131
144	0xbc9077ee	-0.017635312
145	0x3dcf447d	0.10120485
146	0x3e0c8845	0.13723858
147	0x3d607859	0.054802272
148	0xbdb0ce9a	-0.08633156
149	0x39b136fb	0.00033801034
150	0x3e0773fb	0.13227837
151	0xbd855836	-0.065109655
152	0x3c82a619	0.015948342
153	0xbcac9bab	-0.021070322
154	0xbd33633e	-0.043795817
155	0xbd152837	-0.036415305
156	0xbdb75492	-0.089516774
157	0xbd425131	-0.04744071
158	0x3e2bf0e1	0.16791107
159	0xbd3e9cb9	-0.04653618
160	0xbccaf63d	-0.024775619
161	0x3e18f09e	0.14935538
162	0x3d78af69	0.06071416
163	0xbe06f357	-0.13178764
164	0xbd447a1a	-0.047968008
165	0xbd8ca35f	-0.06867098
166	0xbdb8a6bf	-0.09016179
167	0xbe1a35b9	-0.15059556
168	0x3dacd36b	0.08438762
169	0x3e0989f9	0.13431539
170	0xbe12c272	-0.14331988
171	0x3e30da47	0.17270766
172	0x3db0d182	0.086337104
173	0x3e22f572	0.15913942
174	0xbe08918b	-0.1333677
175	0x3d687f65	0.056762118
176	0x3e047373	0.12934665
177	0x3dd091ed	0.10184083
178	0xbd500cb7	-0.050793376
179	0x3dfb5789	0.122725554
180	0x3dc78981	0.09743024
181	0xbdeedf1e	-0.1166365
182	0x3dbd4571	0.092417605
183	0xbdacc1ed	-0.08435426
184	0x3e122c4e	0.14274713
185	0xbd6d3e03	-0.057920467
186	0xbde3e847	-0.11128288
187	0x3da76ee6	0.08175449
188	0xbdc96fd7	-0.09835785
189	0xbd8ffc8c	-0.07030591
190	0x3de58952	0.112078324
191	0x3e2c496f	0.16824888
192	0x3d70e86c	0.058815405
193	0x3e21697d	0.15762897
194	0x3d881f4c	0.066465944
195	0xbcca5db0	-0.024702877
196	0xbd782d85	-0.060590286
197	0xbd3d2b0b	-0.046183627
198	0x3b8c5cee	0.004283539
199	0xbc9c8ab3	-0.019109106
200	0x3d21c430	0.03949374
201	0x3d3e02e9	0.046389494
202	0xbde820a2	-0.11334349
203	0xbdc93fb5	-0.09826604
204	0x3e14df49	0.14538302
205	0xbd9dc5a4	-0.077037126
206	0x3dbdf8bd	0.09275959
207	0x3e2a3fc7	0.16625892
208	0xbe249e3b	-0.16075985
209	0x3cfd5a0b	0.030926725
210	0x3d3a2abe	0.04545092
211	0xbde2b0d4	-0.110688835
212	0xbd3deda2	-0.046369202
213	0xbda95f60	-0.082701445
214	0xbe335391	-0.17512347
215	0xbd79ff14	-0.061034277
216	0x3e24bdd4	0.16088039
217	0x3e2b5d7e	0.16734883
218	0xbdd00d17	-0.10158747
219	0xbd6a4064	-0.057190314
220	0xbdbac5c7	-0.09119754
221	0x3df4c45d	0.11951516
222	0xbe141fae	-0.1446521
223	0xbd793e49	-0.060850415
224	0xbd69c342	-0.057070978
225	0xbd9997b5	-0.07499639
226	0x3e1a89bb	0.15091603
227	0xbe18c0cc	-0.14917296
228	0xbe0b2470	-0.13588119
229	0xbe1b5396	-0.15168604
230	0xbda94c98	-0.08266562
231	0x3dbca54e	0.09211217
232	0x3cb7a7d4	0.022418894
233	0xbbe87210	-0.0070936754
234	0x3e10b45e	0.14131305
235	0x3df82a0c	0.12117395
236	0x3d1f13aa	0.038837112
237	0x3d0cb8e5	0.034356017
238	0xbd912a5a	-0.07088156
239	0xbe316141	-0.17322256
240	0x3cf0dd29	0.029402332
241	0x3e1cad09	0.15300383
242	0x3e0325b5	0.12807353
243	0xbc8b7326	-0.01702268
244	0xbbd89368	-0.006609369
245	0x3e2dbb95	0.16966088
246	0xbe3637ba	-0.17794695
247	0x3e1d1645	0.15340526
248	0x3e2df67a	0.16988555
249	0x3ddffdef	0.10937106
250	0x3d95e25f	0.073185675
251	0x3bd18d43	0.0063950135
252	0x3d691d47	0.056912687
253	0xbdbb9ec4	-0.091611415
254	0xbccc8c08	-0.024969116
255	0xbdef6e0d	-0.116909124

actor.customer_encoder.0.BN1.weight f4 [32]
0	0x3f8038da	1.001735
1	0x3f805f6f	1.0029124
2	0x3f807f4c	1.0038848
3	0x3f7f1e5c	0.996557
4	0x3f8044ce	1.0020998
5	0x3f7f9b80	0.9984665
6	0x3f7ec55c	0.99519897
7	0x3f80f9b1	1.00762
8	0x3f7ee1e7	0.9956345
9	0x3f7da573	0.9908058
10	0x3f8022d0	1.0010624
11	0x3f80355f	1.0016288
12	0x3f80175c	1.0007129
13	0x3f82081b	1.0158724
14	0x3f7b6afe	0.9821013
15	0x3f80b398	1.0054808
16	0x3f7e85bf	0.9942283
17	0x3f8110c3	1.008324
18	0x3f820eba	1.0160744
19	0x3f7fa5d2	0.99862397
20	0x3f7caf32	0.98704827
21	0x3f7efc4a	0.9960371
22	0x3f7f8b57	0.9982199
23	0x3f7e6a49	0.9938093
24	0x3f80442d	1.0020806
25	0x3f7f5f3b	0.99754685
26	0x3f7df048	0.99194765
27	0x3f802856	1.001231
28	0x3f7fac5b	0.9987237
29	0x3f7f47a2	0.9971868
30	0x3f811bff	1.0086669
31	0x3f80a787	1.0051125

actor.customer_encoder.0.BN1.bias f4 [32]
0	0xba2f76bb	-0.00066934124
1	0xbb606455	-0.003423949
2	0xbba34916	-0.0049830778
3	0xba83b691	-0.0010048916
4	0xbbd3bf63	-0.006462024
5	0xbbb7d2b4	-0.0056098346
6	0xbb5c6ee2	-0.0033635427
7	0x3b8ac620	0.004235044
8	0xbbbd5bd1	-0.0057787676
9	0xbc27c584	-0.0102399625
10	0xbc0af048	-0.008480139
11	0xba56a403	-0.0008187892
12	0xbbb0ae2c	-0.0053918567
13	0x3afafc47	0.0019148671
14	0xbb50fcd0	-0.003188897
15	0x3c2a82c3	0.010407153
16	0x3c1f9f6a	0.009742597
17	0x3c358f5f	0.011081546
18	0xbb942221	-0.00452067
19	0x3ba5340b	0.0050416044
20	0xbbe014d1	-0.006838419
21	0xbb39d834	-0.0028357627
22	0x3b866549	0.0041014296
23	0x3b0f2c5e	0.0021846513
24	0x3c46d5a2	0.012135895
25	0x39c46f89	0.00037467133
26	0xbbfc7509	-0.0077043814
27	0xbb7f5187	-0.0038958506
28	0xbbb602d4	-0.0055545364
29	0xbbac9641	-0.005266935
30	0xbacf42a5	-0.0015812708
31	0x3ad41d16	0.0016182985

actor.customer_encoder.0.BN1.running_mean f4 [32]
0	0x3f491814	0.78552365
1	0xbebc40ea	-0.36768275
2	0x3f01c4d2	0.5069095
3	0x3f1f2c9b	0.6217744
4	0xbf313eec	-0.69236636
5	0x3eeda89f	0.4641771
6	0x3e53cb30	0.20682979
7	0x3def2371	0.11676682
8	0xbee64f58	-0.4498241
9	0x3e74316f	0.23846982
10	0xbe30a5db	-0.17250769
11	0x3e94b059	0.29040793
12	0xbf28eb49	-0.65984017
13	0x3f8e6894	1.1125665
14	0x3f2e1561	0.6800137
15	0x3ec6f2f6	0.3885724
16	0xbc39c494	-0.011338372
17	0xbec75b7c	-0.38936985
18	0x39ccfcf8	0.00039098389
19	0x3df127a1	0.11775137
20	0xbeb576b2	-0.3544212
21	0xbf3f8ffb	-0.7482907
22	0xbefc5293	-0.4928175
23	0xbee49c01	-0.44650272
24	0x3e8858ef	0.2663035
25	0x3c23f0a2	0.010006102
26	0x3e019d39	0.12657632
27	0x3e99607a	0.29956418
28	0x3e2c35e8	0.16817439
29	0xbe6e6bcb	-0.23283307
30	0x3d880574	0.06641665
31	0xbc8bb250	-0.0170528

actor.customer_encoder.0.BN1.running_var f4 [32]
0	0x3cabe9e1	0.020985546
1	0x3b40f4f2	0.0029442874
2	0x3d24cb9c	0.04023324
3	0x3c931204	0.017952926
4	0x3d110ca3	0.035412442
5	0x3d04bec4	0.03240849
6	0x3c71e141	0.014763177
7	0x3b35455e	0.0027659754
8	0x3c48ea7e	0.012262939
9	0x3b597b54	0.0033185082
10	0x3cd7dd67	0.02635069
11	0x3c7344d5	0.014847954
12	0x3cb395f3	0.021922087
13	0x3d778647	0.06043079
14	0x3c53f9b9	0.0129379565
15	0x3c275956	0.01021417
16	0x3bcfe8ba	0.006344882
17	0x3c0f7065	0.008754824
18	0x3c34751a	0.011014247
19	0x3bff4cde	0.0077911457
20	0x3c140a28	0.009035625
21	0x3d13ffcf	0.03613263
22	0x3c55e05f	0.0130539825
23	0x3beef524	0.0072924066
24	0x3c83049c	0.015993409
25	0x3b05c13b	0.0020409364
26	0x3c8c3401	0.017114641
27	0x3c84c822	0.016208712
28	0x3d293987	0.041314628
29	0x3c8c09d3	0.017094528
30	0x3b933ffd	0.004493712
31	0x3c55a1fa	0.0130391065
