output/282nodes_entropy0.01_0.4_0.85_2_230823/epoch77.pth (torch, 519145 bytes, 129 tensors)

critic.ff_layer1.weight f4 [32, 283]
000000 fd c1 0c 3e 3c 48 c5 3d 4b f4 85 3b 92 ce 17 3d
       0.13745876 0.09632918 0.00408796 0.037062235
000010 d0 61 af bb f1 e1 bc bb d2 a0 33 bc 73 a2 09 3d
       -0.0053522363 -0.005764239 -0.0109636355 0.03360219
000020 43 71 33 3d 9e 78 d0 bc 84 8e 23 3d 65 f3 1b 3c
       0.043809187 -0.02544814 0.039930835 0.009518479
000030 fa a1 bc 3c da 7b ed 3c b9 f0 06 3d 2f f5 b2 3b
       0.023026455 0.028989721 0.032944415 0.005461357
000040 68 05 17 3d 1b 86 4e 3c 40 80 36 3c d3 e2 db 3c
       0.03687039 0.012605215 0.011138976 0.026841557
000050 06 fd 6c bc ec d5 29 3d aa 5a f9 bb 84 d6 74 3d
       -0.014464622 0.041463777 -0.007609685 0.05977489
000060 52 6c 5f bc 35 30 d4 ba de 02 04 bd ee 83 9c bc
       -0.013636665 -0.0016188683 -0.032229297 -0.019105878
000070 1c 50 61 3b e2 f2 1e bc 65 a4 80 3d 8b 07 6e bc
       0.0034380024 -0.009701462 0.06281356 -0.014528166
000080 62 04 75 3d 45 22 d0 3c b5 54 e0 bb 9c 0b 4e 3d
       0.059818633 0.025406966 -0.0068460354 0.05030404
000090 00 58 bc 3c 40 ae 93 3d e1 ea b1 bb 9c 99 8c bc
       0.02299118 0.0721097 -0.005429611 -0.01716309
0000a0 67 18 36 3d 02 29 13 bc 32 55 80 3b 06 2e 27 3d
       0.044456866 -0.008981945 0.003916406 0.040815376
0000b0 9a 69 26 3d 18 cb 12 bb ee a4 41 3b 2c 2f 7c bc
       0.040628053 -0.0022398885 0.0029547769 -0.015392106
0000c0 9d c0 50 3c fd 21 c9 bb 07 8a 9a bc 29 d3 15 bc
       0.012741235 -0.006138085 -0.018864645 -0.009144583
0000d0 9d 7a 50 3b fa a5 2d 3d 52 20 03 3c e4 1d dc 3c
       0.0031811364 0.042394616 0.008003311 0.026869722
0000e0 0c 92 c7 bb e3 4d 8b 3c 06 01 ab 3d c4 51 d9 bc
       -0.006090408 0.017004913 0.083498046 -0.026528247
0000f0 69 36 55 3d 34 61 a0 bc ec aa 0f 3d 78 74 fd bc
       0.052053843 -0.0195776 0.035075113 -0.030939326
000100 b9 5a ee bb fe f0 90 3b a5 97 e6 3c 63 0b 14 bb
       -0.0072739986 0.0044232598 0.028148482 -0.0022589795
000110 91 92 2e 3b 87 8b cb bb e6 aa 03 3e 7d c1 e2 bb
       0.0026637653 -0.0062117013 0.12858161 -0.0069200383
000120 96 18 8b 3d 58 a8 ba bb 9b fc be bc b3 d1 48 bc
       0.06791799 -0.0056963377 -0.023313811 -0.012257027
000130 dc b9 a7 3c 08 e7 51 3c fb 02 bf 3c 19 0a d3 3d
       0.020474367 0.01281143 0.02331685 0.1030466
000140 0c c6 1e bd bc e7 15 bc 52 ae a6 3b 0e be 41 bd
       -0.03876309 -0.009149488 0.0050866986 -0.04730039
000150 1a 69 40 3d 91 58 84 3c 99 2f 04 3d 58 4a 3d bc
       0.046975233 0.016155513 0.032271955 -0.011553369
000160 9b 1d 72 3c c9 de 45 3c 64 dc ea 3a d2 20 8d 3c
       0.014777566 0.012077042 0.0017918465 0.017227564
000170 0e c3 2c 3d 81 54 1a 3d d7 51 39 bc 5d df 62 bc
       0.042178206 0.037678245 -0.011311016 -0.013847199
000180 fa ed 70 3d 0b 59 33 3a e3 36 c5 bc 3c c5 16 3c
       0.058820702 0.00068415765 -0.024074024 0.009202298
000190 ad f8 ae bc ba 04 9a bc 40 ed b2 bc 04 d9 0e bd
       -0.021358812 -0.018801082 -0.021841645 -0.03487493
0001a0 a0 b8 41 3c 8c c0 cd bc 92 7c f0 bb 9d a7 dc bb
       0.011823803 -0.025116228 -0.0073390687 -0.0067338482
0001b0 ca 9b 18 bd 19 e2 18 bc 16 f2 54 3d a5 a3 da 37
       -0.037257947 -0.00933125 0.051988684 2.6063828e-05
0001c0 ef 64 2e 3d d4 81 86 bc 29 79 e8 bb 7a 7c 90 bc
       0.042576727 -0.016419329 -0.0070945215 -0.01763748
0001d0 50 48 9c 3c 9a fc 3c bc ab a3 5c bc e0 30 74 bc
       0.01907745 -0.011534834 -0.013466756 -0.014904231
0001e0 29 6c d8 bb 87 a3 0a 3d e7 bb 4c bc 13 f4 e1 bb
       -0.0066046906 0.033847358 -0.012495971 -0.006895551
0001f0 00 f1 30 bc 8e 4b 73 bc 05 c3 00 bc 70 f7 8d ba
       -0.010799646 -0.014849557 -0.007858996 -0.0010831188
000200 0b 40 2c 3d f6 52 b2 3a 91 e3 fc 3c 4e fc 5e 3c
       0.042053264 0.0013605047 0.03087023 0.013609959
000210 85 78 11 bd 34 96 f1 3c 63 45 a7 3b 09 bd 76 ba
       -0.035515327 0.029490568 0.005104707 -0.00094123237
000220 86 88 31 bd 32 cf d6 bc c2 05 88 3c e9 eb f6 bc
       -0.04334309 -0.026221845 0.016604308 -0.030141788
000230 53 60 b9 3a ee cd 42 bb 31 11 81 3d 46 e2 92 3c
       0.0014143087 -0.0029724794 0.06302107 0.017930161
000240 6e 7d 99 bc e8 8b 7c 3c 02 a8 20 3d 19 f0 63 3d
       -0.018736567 0.015414216 0.039222725 0.055648897
000250 b6 0a 8b 3c 14 9f 04 bd e4 58 cf bb fb 54 ef bc
       0.01697288 -0.03237827 -0.0063277353 -0.029215327
000260 35 97 95 3c 14 d9 ca bb c8 ec de 3d 06 ae 05 bd
       0.018260578 -0.0061904285 0.10885006 -0.032636665
000270 bd 6c a4 ba d1 81 dc bb 97 57 4a 3c e8 2a 07 bc
       -0.0012544614 -0.0067293425 0.012349985 -0.008249976
000280 b8 e0 9f 3d 51 b1 2c bd 25 b1 5e 3c ab a3 7b bc
       0.078065336 -0.04216129 0.013592039 -0.015358846
000290 12 1d 4f 3d 0f 76 15 3d 0f 4a a6 bb 17 ef 9c 3d
       0.050564833 0.036489543 -0.0050747464 0.0766279
0002a0 53 06 21 bc 28 2f c1 bc 47 ce aa bc b6 c9 d0 bc
       -0.009828168 -0.023582056 -0.020850314 -0.025486808
0002b0 6f d9 87 3d dc fc 3e bc d2 5e 4f bd 16 df 6c 3c
       0.06633269 -0.011656966 -0.050627537 0.014457485
0002c0 46 79 0c 3c 0e 27 f0 3c ac 54 68 3d 81 3c 3a bb
       0.008573836 0.029315498 0.056721374 -0.002841741
0002d0 a8 41 cf bb 8c 1b 38 3d f2 46 81 bc ee 41 9f bb
       -0.0063249655 0.044948146 -0.0157809 -0.0048601544
0002e0 57 92 77 3b 5f 0e b5 3c ab 55 0d bc 07 1d f4 3c
       0.0037776434 0.02210158 -0.008626382 0.029798998
0002f0 7f 3b 58 bc fd cf 4d bc 90 be f1 b9 63 30 0f bd
       -0.013197779 -0.012561795 -0.00046109082 -0.034958255
000300 f4 76 76 3d be 55 39 3c 24 ac cd 3b 75 ef ad 3a
       0.060172036 0.011311946 0.0062766243 0.0013270216
000310 65 f0 5d 3d 54 e1 b6 bc f3 e0 3b bc 91 ad 39 3c
       0.054184336 -0.022324242 -0.011467206 0.011332885
000320 dc 89 55 bc 32 ac 24 bc 0a 62 89 3d ac 0e 3b 3d
       -0.0130333565 -0.01005082 0.067081526 0.04566829
000330 69 b7 11 bc e6 9b d6 bc 79 8c 5e bb 54 0f a8 bc
       -0.008893826 -0.026197385 -0.003395824 -0.020515122
000340 d9 6c 0e bb 92 4a 87 3d d7 18 44 3d 22 3f 63 3d
       -0.0021732359 0.0660602 0.04787525 0.05548013
000350 8e d2 3a bc 47 28 01 bd 78 11 1b bb 95 58 11 3d
       -0.011402739 -0.031532552 -0.0023661535 0.03548487
000360 16 88 93 3b ee 18 0e 3c 42 b8 cd 3c c0 9e 00 3b
       0.0045023067 0.008672936 0.025112275 0.0019625872
000370 fd 4a 3e bc 31 ed bb 3d f0 89 dd 3a aa de db bc
       -0.011614558 0.091761 0.001690207 -0.026839573
000380 31 86 95 bc c6 17 80 3d 4f 44 5f 3d 6c 5a 48 3c
       -0.018252464 0.062545344 0.054508504 0.0122285895
000390 d3 a8 99 bc bf a1 10 bc 66 bb 28 bc d2 02 80 3d
       -0.01875726 -0.008827626 -0.0102985855 0.06250538
0003a0 ce 23 d3 3b b5 83 53 3d 7d f2 78 3b 4f 59 7d 3b
       0.0064434772 0.051639277 0.003798633 0.0038657968
0003b0 aa 3c 50 bc 1b 21 22 bb 24 ed 0a bd 1b a9 0b 3c
       -0.012709776 -0.002473897 -0.03391756 0.008524205
0003c0 f2 99 09 3d e6 b9 9a bc 96 cf 02 3c a7 7c 83 bc
       0.03359408 -0.018887471 0.007984063 -0.01605065
0003d0 38 ce f8 ba e7 90 42 bc 46 e5 21 bd 5b 3c 92 bb
       -0.0018982356 -0.011875368 -0.039525293 -0.0044627613
0003e0 03 c1 7c bc cd d0 ac 3d e7 98 14 3d 34 2e bf bc
       -0.015426877 0.08438263 0.03627863 -0.023337461
0003f0 79 4d 9c bc 1b 6b f6 b8 7a c7 aa ba 1c 7b 64 bc
       -0.01907991 -0.00011750144 -0.0013029419 -0.013945367

critic.ff_layer2.weight f4 [283, 32]
000000 22 5d cc bd fd ae d8 3e 17 f3 8f 3c 8f 3c 6a be
       -0.09978701 0.42321005 0.017571969 -0.22874664
000010 5a 80 56 3e 51 f7 fb bd 8f 06 53 3e 1f 84 c6 bc
       0.209474 -0.12303031 0.2060797 -0.024232922
000020 4a 8d 3a be cf 77 a0 3d e2 be b7 bd 07 8f fe 3d
       -0.1821796 0.07835352 -0.08971955 0.12429624
000030 b8 6f 45 be 7d 55 35 be 53 f4 50 3c ef 66 06 3f
       -0.19280899 -0.17708392 0.012753564 0.52500814
000040 97 0c f0 bd 79 df 17 be 0c 96 81 3e 53 16 93 3e
       -0.11721151 -0.14831342 0.2530979 0.2872797
000050 de 1f 00 3f 21 5e 05 be 52 91 34 bd cd 3a 27 be
       0.50048625 -0.13024189 -0.0440839 -0.16331024
000060 90 f8 ec 3e 0a 64 62 3e d1 43 1d 3e a5 d6 56 be
       0.46283388 0.22108474 0.15357901 -0.20980318
000070 c7 ce 21 3e b6 f3 22 3e d7 6a 64 3e b0 39 ce 3e
       0.15801536 0.15913281 0.22306381 0.40278387
000080 ac e1 e9 bd 71 20 d7 bd 6b 04 0f 3e b8 5e 54 3d
       -0.114199966 -0.105042346 0.13966529 0.051848143
000090 03 72 12 bd 83 b4 6c bd a9 6a 22 be e7 1f 67 be
       -0.03575326 -0.057789337 -0.15861 -0.22570764
0000a0 70 76 f7 bd 20 88 01 be 41 bd c0 bc 7e 0c 48 be
       -0.12083137 -0.12649584 -0.023527743 -0.19536015
0000b0 e3 34 ab 3d 40 8a 1e be 61 1e d9 bd 70 72 a8 bd
       0.08359697 -0.15482426 -0.106014974 -0.08224952
0000c0 57 aa d5 bd 83 41 68 3d cc 3b 22 3d 4c 86 df 3d
       -0.1043288 0.0567031 0.039607808 0.10914287
0000d0 d8 fe 13 bd 73 32 e5 3c f6 54 0e bd ba ac 84 3d
       -0.03613171 0.027978158 -0.034748994 0.064782575
0000e0 7d 80 3a 3d 9e b3 18 3d e3 31 28 3e a8 9a 65 3d
       0.045532692 0.03728067 0.1642528 0.056055695
0000f0 18 ac 78 bd f0 5f f4 3d 10 a6 ca bd 4c d4 7d bd
       -0.060710996 0.11932361 -0.09894955 -0.06197004
000100 06 c9 9e bd 4d b4 85 bc 56 fd 34 3d 90 0d 28 be
       -0.07753186 -0.016321326 0.044186912 -0.16411424
000110 42 3a 0a be 36 c0 f9 bc 02 e8 5f 3c a0 af 12 3e
       -0.13498786 -0.030487161 0.013666155 0.14324808
000120 ac 17 0c be d5 59 3a 3d 72 ba 8f 3d 87 29 09 be
       -0.13680905 0.045495827 0.070179835 -0.13394748
000130 c2 39 04 3d 53 f6 3a bd 82 43 e9 3c b5 b1 ec bc
       0.032281645 -0.04564507 0.028474573 -0.028893331
000140 f3 29 d3 bd c0 1c 94 bd 9f 29 0f 3e e1 4a b2 3a
       -0.103107356 -0.07232046 0.13980721 0.0013602638
000150 12 20 5d bd 18 3e 1c 3d a2 57 06 3e 4a 4f c9 bd
       -0.053985663 0.038145155 0.13119367 -0.09829576
000160 fb b4 80 bd f3 df 88 bd 84 c1 aa bd cd 18 10 bd
       -0.06284519 -0.0668334 -0.083376914 -0.035179902
000170 08 73 5c bc 3e a2 8a bd b8 ee 6c bd 24 e6 e4 bd
       -0.01345516 -0.067692265 -0.057844847 -0.11176708
000180 69 9a 0e be e6 89 05 bd 52 b5 ad 3d 53 08 92 3d
       -0.1392609 -0.032602213 0.0848185 0.07130494
000190 e6 a3 0c 3e 15 7b 7a 3d 8a 72 fc bd 71 46 46 bd
       0.13734397 0.061152536 -0.12326534 -0.048407022
0001a0 c4 6a fc bd a1 68 34 3d b1 f0 d3 bb c9 29 2f 3d
       -0.123250514 0.044045094 -0.0064679016 0.04276446
0001b0 4e ab 0e be 9b d0 9e 3d 30 05 0b be a8 5e 3f bd
       -0.13932535 0.07754632 -0.13576198 -0.04672113
0001c0 5d b9 22 be 03 e7 56 3d 65 f0 ef bd 84 d9 34 be
       -0.15891023 0.052466404 -0.117157735 -0.176611
0001d0 58 83 0f bd 6d 80 d0 3d 9b 04 35 bd 00 03 23 3d
       -0.03503737 0.10180745 -0.044193845 0.039797783
0001e0 5e 0a 28 bb cc 81 33 be cb 19 67 3d c2 5c e7 3c
       -0.0025640945 -0.17529982 0.056421082 0.028242473
0001f0 46 8a 09 be 1f 1f 6b 3d c8 49 0d 3e 71 5d e2 3d
       -0.13431653 0.057402726 0.13797677 0.11052979
000200 1e b4 18 be 7d b5 cb 3c 0e 93 0e 3e da 76 5f 3a
       -0.14912459 0.024866814 0.13923284 0.0008524485
000210 ec 46 a9 bd a4 f5 70 3d 61 cc 45 be b8 01 c4 bd
       -0.082654804 0.05882801 -0.19316246 -0.0957064
000220 7a 67 ac bc 73 44 d3 3d a9 28 8c bd 4a 58 d5 3d
       -0.021045435 0.1031579 -0.06843693 0.104172304
000230 d4 71 9f 3c 03 69 f0 3b cd 59 90 3d 05 c9 60 bc
       0.019463457 0.007336737 0.07048378 -0.013719802
000240 c7 57 79 3d 5b 75 62 3d 13 48 8b bd 3e f6 89 3d
       0.060874727 0.0552877 -0.068008564 0.0673642
000250 aa 40 0f bd 68 ff ee bd 11 a4 d4 3c f1 73 8b 3c
       -0.034973778 -0.116698086 0.02595714 0.017023059
000260 4b b8 01 be 6e 25 89 3d f8 e9 af 3d 88 a8 d8 3c
       -0.12667958 0.06696592 0.08589548 0.02644755
000270 f9 d3 09 bd aa cb d4 3c 11 ca 1a 3d d2 37 4b bd
       -0.03364942 0.02597602 0.03779036 -0.04961378
000280 df 25 e5 3c 74 fc ce bd bf b3 87 bc e8 e7 df bc
       0.02797216 -0.10106745 -0.016565202 -0.027332261
000290 69 3a 95 3d 15 c4 31 3d 9c 64 fa 3d 78 56 f6 bd
       0.072865315 0.04339989 0.12226221 -0.12028211
0002a0 2d 07 52 bd b9 3b ad bc a5 d5 ec 3d 79 63 02 3e
       -0.051276375 -0.021146642 0.11564187 0.12733258
0002b0 f4 e6 63 3d f6 b9 d4 bd 30 b5 e2 bd cd 8a 9c bc
       0.055640176 -0.10387032 -0.11069715 -0.019109154
0002c0 84 2a 4c be 87 73 a1 bd 96 40 5f bd 49 3d 45 3d
       -0.19938093 -0.07883363 -0.054504953 0.04815415
0002d0 74 d4 96 bd 0a 0f 21 be a5 61 93 3d 9d 92 0f be
       -0.07364741 -0.15728393 0.071963586 -0.14020772
0002e0 61 80 60 bc 3d 0d f1 3d d3 c5 43 3d 0d f8 09 be
       -0.013702483 0.11770103 0.04779608 -0.1347353
0002f0 2f 80 85 bc 33 a9 11 bd 1f 87 89 3d 4a a1 d0 3d
       -0.016296474 -0.03556175 0.067152254 0.101870134
000300 08 52 d4 3d 58 6b 25 bd ba 14 ba 3d 10 43 0f be
       0.10367209 -0.040385574 0.090859845 -0.13990426
000310 e2 60 e4 3d e0 f3 94 3d 35 7c 1f be 21 7d 43 bd
       0.111512914 0.07273078 -0.15574725 -0.047726754
000320 b8 dc 87 bd 4d 38 78 bd 65 dd 6a bc 5d 52 84 bd
       -0.06633896 -0.060600568 -0.014335011 -0.06461022
000330 0b 8b 77 3d 32 b6 8c bd dc f9 f9 3d ff 5c ac bc
       0.060435336 -0.068706885 0.1220586 -0.021040438
000340 c8 8d 98 bd 8f 36 b9 bc a4 04 43 3d 37 f7 bc bd
       -0.074489176 -0.022609023 0.047611848 -0.0922684
000350 21 69 39 bd a4 f1 09 be cd c2 d3 3d 59 db a9 ba
       -0.045266274 -0.13471085 0.1033989 -0.0012959047
000360 5f df 22 bd 31 0d 89 3d 7b ef b3 3b 9e bb a9 bd
       -0.039763805 0.06691969 0.005491195 -0.08287738
000370 49 af 30 bd 54 1a ff bb 90 16 09 3e 7b 70 be bd
       -0.043135915 -0.007785121 0.13387513 -0.09298798
000380 4a 23 1e be 07 04 21 be a7 60 fe bd be 15 8a bd
       -0.15443149 -0.15724193 -0.12420779 -0.06742428
000390 49 2f 83 3d 44 3e fe 3c 62 9d d7 3c 6b 03 3d 3c
       0.06405503 0.03103555 0.026320163 0.011536459
0003a0 4a fa 13 bc 13 bd 0e be 9d f6 ee 3d b7 09 ff 3d
       -0.0090318415 -0.13939314 0.116681315 0.12453025
0003b0 46 64 1d 3b 77 a9 27 3b 9e 62 93 bb cb 0e d0 bc
       0.0024016066 0.0025583187 -0.00449784 -0.025397679
0003c0 10 22 43 bc 46 b9 96 3c 24 17 c5 bd 22 3e 36 bc
       -0.011909977 0.018398892 -0.09623554 -0.011123212
0003d0 d3 98 c4 bc ed 99 06 be 64 c6 40 3d bd 93 6a 3d
       -0.023998654 -0.13144656 0.0470642 0.0572698
0003e0 35 ed 80 bc b3 fa 40 3d ff 59 7f bd 43 64 a8 3c
       -0.01573811 0.047114085 -0.062341686 0.020555621
0003f0 aa 1e 1a be 17 24 24 3d 00 60 02 be af fc d1 bd
       -0.1505076 0.04007348 -0.12731934 -0.10253274

actor.customer_encoder.0.attention.query_embed.weight f4 [32, 32]
000000 85 5d be 3e be 65 b8 3c e0 f2 33 3e 15 73 ba 3e
       0.37180725 0.022509452 0.17573118 0.36415926
000010 ba fd be be 4e 9e 9f bd 93 55 2f be 30 d9 5d be
       -0.37302953 -0.07793866 -0.17122488 -0.21664882
000020 87 a0 52 3e 08 c1 30 3e ed 49 9d 3e 55 29 d4 3e
       0.20569049 0.17261136 0.30720463 0.41437784
000030 a8 17 7f be 33 ea a5 3d 84 c8 19 3e 96 ba 9b bd
       -0.24911368 0.081013106 0.15017897 -0.07603948
000040 86 85 6d 3e 6d 0e a6 3e 31 cc d3 be 72 76 05 be
       0.23195466 0.3243288 -0.41366723 -0.13033465
000050 87 9a 05 3e 08 1a 9a be 00 4f 0b be 1e fd 20 3e
       0.13047229 -0.30097985 -0.13604355 0.15721557
000060 74 b1 00 3e 57 f6 4c be 95 e3 95 bc a9 bc 99 3d
       0.12567693 -0.20015846 -0.018296996 0.07506687
000070 48 30 d5 3e 58 57 83 be ff b2 40 3d cb 1b 04 be
       0.41638398 -0.25652575 0.047045704 -0.12901227
000080 12 07 c5 3e 2d 63 8a 3e 2a f9 81 bc c1 8a 0b be
       0.38481957 0.2702879 -0.015865881 -0.13627149
000090 34 04 a2 3e 09 33 8d bc 3c 88 be bd 37 e6 92 3e
       0.31643832 -0.01723625 -0.093033284 0.28691265
0000a0 22 dd b0 3d 42 a7 6c 3c 68 70 ae 3e 6a 59 0d be
       0.08635928 0.014444174 0.34070134 -0.1380364
0000b0 bb 79 7f 3e aa d6 5b 3e a3 3d 51 be d0 91 a8 3e
       0.2494878 0.21468607 -0.20433669 0.32923746
0000c0 ea b7 05 3e 1e b9 80 be 80 bb 76 3e a8 9d a4 be
       0.13058439 -0.25141233 0.24094963 -0.32151532
0000d0 0b e3 1a ba 27 ce 0b 3e 78 f9 1a 3e 95 47 ad be
       -0.0005908466 0.1365286 0.15134227 -0.33843675
0000e0 36 5d ab 3e 96 13 9b 3e ed 0e 6d 3e 25 8c 21 3e
       0.33469552 0.3028838 0.23150225 0.15776117
0000f0 67 c6 3d be b7 6c 80 3e 20 af 89 3d 45 76 a3 bd
       -0.18532716 0.25082943 0.067228556 -0.079815425
000100 99 77 25 be 96 3f b3 3d 58 31 05 be b8 a1 a7 be
       -0.16158904 0.087523624 -0.13007104 -0.3274057
000110 73 23 35 be 22 03 23 be 65 11 1a bd 49 d1 4d be
       -0.17689304 -0.15919164 -0.037614245 -0.20099367
000120 47 57 b0 bd 1e 2b 57 be ea c4 8c be 6c ef 1d 3e
       -0.08610397 -0.21012542 -0.27493984 0.15423363
000130 0e d3 2c bd 5f 08 32 be a1 52 84 bd 4e 18 b9 3c
       -0.042193465 -0.17386006 -0.06461073 0.022594597
000140 16 2b 8c be 00 d6 4e 3e 01 51 45 3e 5a fe 56 3e
       -0.27376622 0.20198822 0.19269182 0.20995465
000150 a6 35 4d be a1 47 b7 3e 2f 65 7a 3e a3 f0 21 3e
       -0.20039997 0.35796836 0.24452661 0.15814452
000160 1f a6 2b 3e 59 50 44 be 5e 45 87 3d a2 c8 86 3e
       0.16762589 -0.19171275 0.066050276 0.26324946
000170 0f 74 b6 3d 6c 58 1b 3b 84 02 c1 be a1 a9 b8 bd
       0.08908855 0.0023703827 -0.37697232 -0.09016729
000180 47 b9 50 be 63 93 8c 3e 0f 7d e6 bc 36 2d 8b bd
       -0.20383178 0.27456197 -0.028135804 -0.06795733
000190 ce 3c c3 be 0c 60 91 be e4 cd 1e be eb e1 22 3e
       -0.38132328 -0.2839359 -0.15508229 0.15906493
0001a0 3f bd 82 bd b2 08 1d 3e 01 8e b5 3e 27 ce 3a be
       -0.06383752 0.15335348 0.35459903 -0.18242703
0001b0 54 04 8e 3d 9b 0b 82 3d 55 6c 8c be 75 4b 04 bd
       0.06934419 0.0634987 -0.274264 -0.032298524
0001c0 0b bd aa 3d b3 ac 26 be 9d 66 8f be 0d 44 89 3e
       0.08336838 -0.16276817 -0.28007975 0.2680973
0001d0 62 f7 d6 3d 2e 59 ad be 98 a6 bc be d4 45 28 3d
       0.10496403 -0.338571 -0.3684585 0.04108222
0001e0 e3 5b 2f be ad 7e 9e 3d 94 64 3c 3e bb 89 aa 3d
       -0.17124896 0.07739005 0.18397743 0.08327051
0001f0 15 e0 7e 3e d3 ba 11 3e 3d 6e a1 bc cb 6d 6f 3d
       0.24890168 0.14231424 -0.019705886 0.058454316
000200 ad b5 fd bd 4a eb 3e be f0 6d c2 be 5f 26 06 3e
       -0.123881675 -0.18644443 -0.379745 0.13100575
000210 45 73 9d 3e d1 db fc bd 23 e1 5f 3e ef 6c 8d 3e
       0.30752006 -0.12346614 0.21863227 0.27622172
000220 a8 b5 86 3d 46 59 34 3e af fb 9d 38 cf 39 2c 3e
       0.06577617 0.1761218 7.533223e-05 0.16818927
000230 bc 75 4d 3e fb d8 4f 3e 39 b4 9a 3e 5a f1 0d be
       0.20064443 0.20297615 0.30215624 -0.138616
000240 25 a6 d1 3d d5 3b 0a 3e 2e 96 67 be af 16 8c be
       0.10236768 0.13499387 -0.22615883 -0.27361056
000250 4a c4 13 bd df 96 38 3e 77 d8 9b 3e 67 73 e6 bd
       -0.036075868 0.18026303 0.30438587 -0.1125248
000260 49 d4 2a be 09 5a 9e be 3a e6 40 3e 4e 12 54 be
       -0.16682543 -0.30928066 0.18837824 -0.20710108
000270 0a 9e a2 3d 46 34 10 3e 6c 33 8e bd c3 ff ad 3e
       0.079403 0.1408244 -0.06943402 0.33984193
000280 cb 04 88 3e 6f 3a 29 bd a5 70 05 3b d6 ed 6f 3e
       0.26566157 -0.041315492 0.002036133 0.23430571
000290 d2 d8 5d be dd b9 93 be 9a 0f 6e 3e 80 66 3d be
       -0.21664742 -0.2885274 0.23248139 -0.18496132
0002a0 13 1d bb 3c fc bf a9 3c 17 a3 85 3e 8b c3 84 3d
       0.022841012 0.020721428 0.2610099 0.06482609
0002b0 fb f2 e7 3c 63 7a ac 3d 17 22 18 be 45 fd b3 be
       0.028314104 0.08421781 -0.14856754 -0.35154167
0002c0 64 85 98 3e 54 89 89 be 4e a2 8c be a2 7c be bd
       0.2978927 -0.26862586 -0.2746758 -0.093011156
0002d0 f4 7e 5f 3e d3 e4 1b be 2d cc 84 3e 6d ed fb 3d
       0.21825773 -0.15224008 0.25937024 0.12301145
0002e0 15 9e 79 3e ef 8d 09 be 06 38 2d 3e 56 1e b4 3d
       0.2437671 -0.1343305 0.16915902 0.087948486
0002f0 f2 27 a6 3e f4 78 2c be 10 cd a5 3e c6 fe 6a be
       0.3245235 -0.16843015 0.32383013 -0.22948751
000300 ed f1 52 be 7d 7e a8 3e 99 e6 59 3e ef bf 6c 3e
       -0.206001 0.32909003 0.21279372 0.23120092
000310 ee d2 56 be ee 6a a3 3e 2a e4 c1 bd 39 bb 9c 3e
       -0.20978901 0.31917518 -0.09467347 0.3061159
000320 40 f7 58 3e cb 7f a8 be 65 fd 8c bd b4 d8 cb 3e
       0.21188068 -0.32909998 -0.06884269 0.3981377
000330 3f 4f 40 3e a4 53 a2 3d 2f bf 10 bc d6 54 16 3e
       0.1878023 0.079261094 -0.008834644 0.146808
000340 20 c6 c7 bd 6c 7e da bd 4c 06 86 be 89 5b 63 bd
       -0.09754586 -0.10668644 -0.2617668 -0.055507217
000350 b6 f3 81 be 9c c6 5b be 86 d0 59 3e 99 dd 50 3e
       -0.2538125 -0.21462482 0.21270952 0.20397033
000360 b3 e6 1d be ac f9 99 bd f0 e9 11 be ac 5c 50 3e
       -0.15420036 -0.07518324 -0.14249396 0.20347852
000370 ca fd 39 be 9f ef 4b be 74 98 37 3e 6d 72 07 3c
       -0.18163219 -0.19915627 0.1792925 0.008267027
000380 97 60 08 3e ca 2f 18 bd fd 97 bf 3e 61 de 27 bd
       0.13318096 -0.03715495 0.37420645 -0.04098356
000390 77 0e 8f 3e 99 63 5a 3d a9 68 ac 3e 76 68 57 be
       0.27940723 0.05331764 0.336736 -0.21035942
0003a0 5a 3b 49 3e 43 00 fd bd e7 d2 53 3e a2 5d 82 be
       0.19651547 -0.123535655 0.20685922 -0.2546206
0003b0 77 65 41 3e d7 2b 95 bd 4b a8 0a be 7e 30 03 be
       0.18886362 -0.072837524 -0.13540761 -0.12811467
0003c0 e4 56 83 3e 1b b9 5a bd b3 d6 bd bd d1 9d 98 3e
       0.2565223 -0.053399187 -0.09269466 0.29807904
0003d0 cf 1f 68 3e db 12 3f 3c 3d 59 0b be 91 7b b5 3d
       0.22668384 0.01166221 -0.1360826 0.08861459
0003e0 73 cc 94 bd a9 b7 9b 3e f0 fc 12 3e 00 ae 87 3e
       -0.07265558 0.3041356 0.143543 0.2649994
0003f0 6a 20 64 3e 7f ee be bd 6e ae 84 be e3 07 07 be
       0.2227799 -0.09322833 -0.2591433 -0.13186602

actor.customer_encoder.0.attention.key_embed.weight f4 [32, 32]
000000 d5 bf 0a be 43 5b b9 3c 7f 0a 8d 3d be c1 cc 3e
       -0.1354974 0.022626525 0.068867676 0.39991564
000010 d1 f3 ae 3e de 8e a9 be e1 25 0c 3e 3f 54 6d be
       0.34170392 -0.33116812 0.13686325 -0.23176669
000020 a3 dd 32 be 0b 6f 2a 3e a6 41 8e be a2 17 aa 3e
       -0.1746736 0.16643922 -0.2778446 0.33221155
000030 50 89 b2 3d a6 69 94 3d 61 7b 7c 3e cf a2 aa be
       0.087175965 0.07246713 0.2465644 -0.33327338
000040 ad 43 99 3d 8d 76 b5 3d 45 46 4c be 6b 67 19 be
       0.07483611 0.088605024 -0.1994868 -0.14980857
000050 d1 23 c5 3d 67 00 ac 3e 44 c3 06 be 9d 0a 63 3e
       0.09625972 0.33594057 -0.13160425 0.22172017
000060 15 36 29 3e 71 83 49 be d3 27 83 be 45 10 14 bd
       0.16524537 -0.19679047 -0.2561632 -0.03614833
000070 13 90 83 3e 18 13 7c be af ef 77 be 31 08 91 3e
       0.25695857 -0.24616659 -0.24212526 0.28326562
000080 bd 30 53 be 71 29 77 be 33 1b 50 bc cb 4c a5 3e
       -0.20624061 -0.24136902 -0.012701797 0.3228515
000090 74 6c 6c 3e 71 06 46 3e a4 81 63 3d 04 4b 49 be
       0.23088247 0.19338395 0.055543557 -0.19657522
0000a0 cf 77 90 be 77 e8 3b 3e 6c b5 ea 3d 56 dc b5 3d
       -0.28216407 0.18350397 0.11460385 0.08879916
0000b0 d5 4f e5 bd af 73 b7 be c1 4c d1 3c b6 3b 46 bd
       -0.111968674 -0.35830447 0.025549294 -0.04839679
0000c0 99 9d cd bc 71 1d 3a 3d 84 ce 49 be eb 6c 59 be
       -0.025099562 0.045438234 -0.19707686 -0.21232955
0000d0 40 29 ae bd 1a dd 02 3e 90 84 66 be 08 c6 a9 3e
       -0.085039616 0.12779656 -0.22511506 0.33158898
0000e0 19 12 af be 2e ca 5a be 85 7f d0 3d f7 e5 ae be
       -0.34193495 -0.21366188 0.101805724 -0.34159824
0000f0 f6 6e 51 be ea 54 25 3e 6f 5d 77 be fa f5 e0 3d
       -0.20452484 0.16145673 -0.24156736 0.10984416
000100 43 35 36 be 1d e0 18 be a9 66 65 3d 75 6b df 3c
       -0.17793755 -0.14929242 0.056006107 0.02727292
000110 6f ef a7 3e 54 df 95 3d 62 7d 83 3d 58 9b 51 be
       0.3279986 0.07317987 0.06420399 -0.20469415
000120 a5 9a 8f 3e d6 99 83 bc 4d 49 53 3e 64 c1 8e be
       0.28047672 -0.016064566 0.20633431 -0.2788192
000130 9d 31 43 3e 9d ef 8f 3e 9e 13 55 3e 1f 9d 90 3e
       0.19061895 0.28112498 0.20808265 0.28244874
000140 2f 1e 1c be 04 a1 79 be 3f 63 0d 3e 00 f0 25 3e
       -0.15245889 -0.24377829 0.1380739 0.16204834
000150 5a 37 53 be 50 4b e5 bd b3 26 83 bb 15 39 e9 bb
       -0.20626584 -0.11196005 -0.004002416 -0.0071174004
000160 8f e8 2e 3e e0 17 86 3e da 47 d5 3d 42 21 12 be
       0.17080902 0.2619009 0.10414095 -0.142705
000170 4c aa 67 be aa f6 99 3e c4 d2 f1 3c 16 0d 33 be
       -0.22623557 0.30071002 0.029519446 -0.1748546
000180 2b b6 80 be 79 cf 85 be 4f 31 a7 3e 41 f9 3b be
       -0.25138983 -0.26134852 0.32654807 -0.18356802
000190 10 5a ae be 70 1b 93 be ea 71 42 be 68 0a c4 3c
       -0.34053087 -0.2873187 -0.18988767 0.023930743
0001a0 01 90 70 be 84 ae 27 3e 8b c7 a0 bd 43 b2 08 be
       -0.23492433 0.16375166 -0.0785056 -0.13349251
0001b0 55 93 7f be 9b f7 a8 bd 76 1b c4 3e 98 5d cf bb
       -0.24958546 -0.08250352 0.383022 -0.006328296
0001c0 47 97 ca 3d 90 95 bb be d2 22 44 3e 65 b3 0e 3d
       0.09892135 -0.36637545 0.19153908 0.034839053
0001d0 38 75 98 bd 4d f6 d2 3c e7 2f 24 be 14 54 8d be
       -0.07444233 0.025752211 -0.16033898 -0.2760321
0001e0 a6 93 43 be 35 bc d5 3d 4d 59 9c 3e 7d 1c 7f be
       -0.19099292 0.10436288 0.3053688 -0.24913211
0001f0 a5 a2 3c 3e ce ba 0b be 80 5c 8c 3e 26 a3 57 3d
       0.18421419 -0.13645479 0.27414322 0.052645825
000200 eb 52 a0 be 45 68 8e be e9 07 bc 3d f6 77 34 3e
       -0.3131326 -0.27813926 0.09181196 0.17623886
000210 4b 33 d2 3d a1 3c d9 3d 5c da 40 bd a2 59 5a be
       0.102636896 0.10607267 -0.047083244 -0.21323255
000220 7b 8f 0e 3d 6e 3f 95 be 04 aa 39 3e 60 9f 03 be
       0.034804802 -0.29149956 0.18131262 -0.12853765
000230 41 20 9a be ae b8 e7 3c e5 10 c5 3d 09 24 89 be
       -0.30102733 0.028286304 0.09622363 -0.26785305
000240 97 c2 5c be 0d ec 40 bd 4a df 0a be a0 ab 97 3e
       -0.21558605 -0.047100116 -0.1356174 0.29623127
000250 43 43 93 3d 70 c3 ef bd f6 16 92 be 4a cc 7d be
       0.071905635 -0.117071986 -0.28533143 -0.24784961
000260 31 7c 02 3e c8 81 8e bd e9 7d 5a 3d 06 d8 93 3d
       0.12742688 -0.069583476 0.053342734 0.072189376
000270 95 20 77 3e fa ba 6b bc af b8 1f 3e 6b e8 a7 be
       0.24133523 -0.01438784 0.15597795 -0.32794508
000280 9a 21 83 3e 83 04 a7 be 69 07 fd bd 04 22 a3 be
       0.25611573 -0.3262063 -0.12354929 -0.3186189
000290 99 fd 4b 3e fc fe f5 bd 97 a9 ba be fd cb 21 be
       0.19920959 -0.12011525 -0.36457512 -0.15800472
0002a0 88 c6 49 3e 77 fe 85 3e 02 c4 62 3e 37 38 ac be
       0.1970464 0.26170704 0.22145084 -0.3363664
0002b0 49 d2 26 be 0f f5 85 3d 9c e2 87 3b ee c7 50 be
       -0.16291155 0.06540882 0.004146887 -0.20388767
0002c0 fc 2a b3 3e 30 1b 78 be bf 10 71 3e db 11 5e 3e
       0.34993732 -0.24229121 0.23541544 0.21686499
0002d0 2f 18 a2 be 5c 79 57 be 48 76 5d be 26 be 8b 3e
       -0.31659076 -0.21042389 -0.21627152 0.2729351
0002e0 0b 5a a7 be ec 23 63 3b a9 a4 e2 bd fc 1e d5 bd
       -0.32685885 0.0034658862 -0.11066563 -0.104063004
0002f0 b0 a3 55 be ef 62 8b be 54 64 a2 be 5d b6 90 bc
       -0.20863223 -0.27223918 -0.3171717 -0.017665083
000300 a1 62 97 3c 75 b5 89 3d b8 22 bd 3d cb 61 00 be
       0.018479647 0.06724063 0.09235138 -0.12537305
000310 ba 3a 56 3e 7c 41 43 3e f1 c1 93 be 50 5b ae 3e
       0.2092084 0.19067949 -0.28858903 0.3405404
000320 6b b5 e3 bc d4 c0 de ba d6 9e b4 be cd af 3a 3e
       -0.027796468 -0.0016994723 -0.35277432 0.18231125
000330 af 55 04 3e 08 78 c3 3d 41 a4 3f 3e 6e 74 a8 be
       0.1292331 0.095443785 0.18715002 -0.3290133
000340 53 a1 b3 3e 85 da 61 3e ca 1f d1 bd c8 4c 39 3e
       0.35084018 0.22056015 -0.102111414 0.18095696
000350 72 17 0e be a5 f1 c7 bd a6 3c 6f b7 d0 33 68 3e
       -0.13876131 -0.09762887 -1.4259631e-05 0.22676015
000360 fe 08 3c 3e 05 e6 04 be 65 82 98 be 0c f8 97 bc
       0.18362805 -0.1297837 -0.29786983 -0.018550895
000370 4d b2 1b be 70 09 f7 ba ba 85 2b 3e 0e 37 7c 3e
       -0.15204735 -0.0018847417 0.16750231 0.24630377
000380 62 4c 7f 3c 1d e9 2b 3e 9f 2e 89 3d f1 89 42 be
       0.015582176 0.16788144 0.066983454 -0.18997933
000390 87 d4 52 3e f7 95 6c be 8c 6f ec bb 1c 3f 37 be
       0.20588885 -0.23104082 -0.007215446 -0.17895168
0003a0 15 ca 02 3c 6b 2d 8f 3e de 2f ff 3d 78 18 e9 bc
       0.00798275 0.2796434 0.12460302 -0.02845405
0003b0 fe 81 9e be d5 c8 88 be e8 b8 c5 bd 07 01 2a be
       -0.3095855 -0.26715723 -0.09654409 -0.16601954
0003c0 8f 3e 8a 3d 6a 59 a6 be 31 6d ae 3e e1 3a b2 bd
       0.06750213 -0.32490093 0.3406768 -0.087026365
0003d0 a3 86 6b 3e 1e 45 74 3e 4b d6 90 3e 46 97 4e bd
       0.23000579 0.23854491 0.28288493 -0.050437234
0003e0 52 ad da 3c 6d bd 3b 3e 9e 03 8a be 36 b6 b8 bc
       0.026693974 0.18333979 -0.26955885 -0.022547822
0003f0 d6 d7 09 3e 9a be 0f bd 5b a9 81 be b2 5d 44 3d
       0.13461241 -0.03509388 -0.2532452 0.047940917

actor.customer_encoder.0.attention.value_embed.weight f4 [32, 32]
000000 c2 70 7d 3d 91 1f a9 3e 02 2b e6 3d 34 5d 05 3e
       0.061875112 0.33031896 0.11238672 0.13023835
000010 a3 e6 aa be 46 88 11 3e 94 09 42 3e 01 04 de bd
       -0.33379087 0.1421214 0.18948966 -0.108406074
000020 69 8b 61 be 0f cb 2f bd be b0 9b be f2 8c a6 3e
       -0.22025837 -0.04291826 -0.3040828 0.32529408
000030 2f 7c 5b be 31 ec a2 3e 60 95 b3 be 88 c9 66 3e
       -0.21434091 0.31820825 -0.35074902 0.22537816
000040 4b 54 17 be 3d 68 8b be f0 a2 cb 3d a7 a9 a6 3e
       -0.14778249 -0.27227965 0.09943187 0.3255131
000050 27 96 2c be b0 49 4b 3d 51 19 6d be 40 e7 6b 3e
       -0.16854154 0.04963082 -0.23154189 0.23037434
000060 33 f5 a2 3e 5c 62 c5 bd 2a 6d ad 3e 01 5e 3b 3e
       0.31827697 -0.09637901 0.33872348 0.18297578
000070 cc 70 43 3d 89 c2 1b be 1e a3 79 3e 47 fc 94 3c
       0.047714993 -0.15210928 0.2437863 0.018186701
000080 0d 1d 19 be df 13 b2 be 0c 73 af be 6e 79 b4 3e
       -0.14952488 -0.34780785 -0.3426746 0.35248893
000090 f3 53 3f be ee 0c 87 be 58 8d 65 3e c8 21 cf bd
       -0.18684368 -0.26377052 0.224172 -0.10113865
0000a0 ce fa 86 be ae 2d 92 3d 93 0c 56 bd bd ad 0b 3e
       -0.26363224 0.07137619 -0.052258085 0.13640495
0000b0 c4 31 a8 3e f1 47 b6 bd 54 30 4e 3e 32 4f ca bd
       0.32850468 -0.089004405 0.20135623 -0.098783866
0000c0 ce d8 ee bd 88 7c f1 3d 60 d7 a1 bd 0b 85 c2 3d
       -0.11662446 0.117913306 -0.07902408 0.09498032
0000d0 a4 3e a1 3d c1 f7 90 be e1 b5 a9 bd 33 56 a3 3e
       0.07873276 -0.2831402 -0.08286644 0.31901702
0000e0 3e 44 0e bb 32 9c ab 3e 43 cd 88 3e 6a 33 cb bd
       -0.0021708156 0.33517605 0.26719102 -0.09921916
0000f0 cf bd 23 be d1 da ee 3d 23 23 6f bd 97 f0 3a bd
       -0.15990375 0.1166283 -0.05838312 -0.0456396
000100 63 fe c5 bc c1 d0 69 be 52 e6 63 3e 87 78 0d be
       -0.024169153 -0.2283354 0.22255829 -0.13815509
000110 d0 6d 93 be b9 64 8d be 61 f6 66 be 5d 89 85 3d
       -0.28794718 -0.27615908 -0.22554924 0.065203406
000120 ef 4c ae be 15 bd 05 3e 7f 06 5f be d0 58 2c bc
       -0.3404307 0.1306041 -0.21779822 -0.010519221
000130 89 63 af bd 95 ed d8 bd b8 9d 69 3e 43 06 f7 bd
       -0.08563907 -0.1059219 0.22814071 -0.12061741
000140 dd c6 f6 3d d1 6a 76 3e 47 da 32 3e 0f 09 1a 3e
       0.12049649 0.24064185 0.17466079 0.15042518
000150 14 c2 07 bd f6 d4 3b be 2e a7 85 be bd f1 ab 3e
       -0.03314407 -0.18342957 -0.2610411 0.3358287
000160 96 3c a4 be 2d d5 b0 bd 00 58 99 3e e7 a7 89 bd
       -0.32077473 -0.0863441 0.2994995 -0.06721478
000170 8b 04 98 be 31 31 b2 3e db 72 ba bd 92 3a 17 3e
       -0.29690966 0.34803155 -0.09103938 0.14768437
000180 61 b0 24 3e 23 96 e6 bd d4 68 af be 1f 06 4e bd
       0.16082908 -0.11259105 -0.34259665 -0.050298806
000190 bd a9 8f be 43 e0 31 be 0d 46 98 be 96 d6 28 3e
       -0.28059188 -0.17370705 -0.29740945 0.16488108
0001a0 e1 d9 7e be 40 6d 30 3e e1 3c 98 3e e2 79 34 3e
       -0.24887802 0.17229176 0.29733947 0.1762462
0001b0 6c 13 57 3e be f8 75 3d dd 4e 72 3e b4 32 aa 3e
       0.21003503 0.060051672 0.23662896 0.33241808
0001c0 28 6b 9a 3d bf d7 19 3e 0c 2a 64 3e cb 5c 2f b9
       0.0753997 0.15023707 0.22281665 -0.00016723869
0001d0 b9 9b 9b 3e b9 4d af 3d f6 b9 5c be a3 76 89 be
       0.30392244 0.08559746 -0.21555313 -0.26848325
0001e0 ce 42 b8 3d f6 0e 8f be 77 59 a3 be b4 34 a8 3e
       0.08997117 -0.27941102 -0.31904194 0.3285271
0001f0 21 a2 88 3e a9 c3 c3 bd 73 77 34 3e 74 11 f5 3d
       0.26686195 -0.095588036 0.17623691 0.119662195
000200 d0 60 a7 3e 10 d7 dc 3d eb 8c 27 3e 43 74 81 be
       0.3269105 0.107832074 0.1636235 -0.25284013
000210 37 54 ef 3d 38 77 8b be 9c 48 8a be c8 4e 47 3e
       0.116859846 -0.27239394 -0.27008522 0.19463646
000220 60 2d 31 be 4d 3b 8c 3e 4a e2 b6 bd 71 21 3c 3e
       -0.17302465 0.27388993 -0.0892988 0.18372132
000230 4c ae a8 3e b7 2f 3c 3d 89 62 a4 3e ce 0d 64 be
       0.32945478 0.045943942 0.32106426 -0.22270891
000240 36 0d 40 3e f9 91 e3 3d ff ba 89 3e 87 84 a6 3e
       0.1875504 0.111118264 0.2690048 0.32522985
000250 25 79 96 bd b7 79 9b 3d d1 b6 36 be ce a6 19 3e
       -0.07347325 0.07591575 -0.17843176 0.15005037
000260 53 dd b5 ba 5d d4 26 be 71 0e 48 be 0e 90 b4 3d
       -0.0013875164 -0.16291948 -0.19536759 0.08816539
000270 d0 2f a1 3e ed 3b a0 be 75 c2 69 3e 3e b7 7e 3e
       0.3148179 -0.3129572 0.22828086 0.24874589
000280 ae 83 9c be b5 2a 25 3e 36 18 00 3d 60 cb 88 3e
       -0.30569214 0.16129573 0.03127309 0.26717663
000290 5e 0e 99 3e 3e 07 4b 3e 96 83 0d be d0 31 9e be
       0.29893774 0.19826981 -0.13819727 -0.3089738
0002a0 77 b9 7c 3e e9 5e 49 3a fb 32 13 3e 25 5b e4 3d
       0.24680124 0.0007681684 0.14374916 0.11150197
0002b0 ee fd 3f 3d 8c 00 89 3e 31 3c b5 bd cb 5e 12 3e
       0.046873026 0.2675823 -0.08849371 0.14293973
0002c0 eb 0c 28 3e a8 65 24 be 94 6a 1b 3e 2e c1 cd 3c
       0.16411178 -0.16054404 0.15177375 0.02511653
0002d0 47 e7 b3 be 07 3e 48 3e 32 f9 9f be 95 01 24 3e
       -0.35137388 0.19554912 -0.31244808 0.16016228
0002e0 31 c2 26 be 4c 0b 30 be aa ff 4a 3e 0b df 71 bc
       -0.16285016 -0.1719181 0.1982409 -0.01476265
0002f0 19 33 84 be 73 04 fb 3d c4 3d 47 be f9 2b a5 be
       -0.25820234 0.12256708 -0.19457155 -0.3226011
000300 09 9f 91 3e c6 b0 98 be ef 43 1a be 4b 64 5a be
       0.28441647 -0.29822367 -0.15064977 -0.21327321
000310 95 4d 8a 3e 67 95 02 bd 1d 33 97 be e9 79 54 3e
       0.27012315 -0.031880762 -0.29531184 0.2074963
000320 42 00 88 3e 93 08 df 3d 96 fe 1f bd 4e 17 ae be
       0.26562697 0.10890307 -0.03906115 -0.34002155
000330 01 95 5e bd b9 a6 46 3e 24 24 76 be 7f 5d b2 be
       -0.05434132 0.19399537 -0.24037224 -0.34836957
000340 7b c6 23 bb 27 e8 67 3d 2d d8 0d be 79 7e 15 be
       -0.002499013 0.056617882 -0.13851996 -0.14599027
000350 bb 65 8c be e5 2d 5b bd cc 65 a8 3e d8 c0 96 3e
       -0.27421364 -0.053510565 0.32890165 0.29444003
000360 f0 44 71 3d db 65 9a 3a 7a b6 a1 3e 67 02 58 3d
       0.058903635 0.0011779623 0.3158453 0.052736666
000370 e2 d7 47 bd 52 85 80 be 1a 35 a7 3e f6 db ac be
       -0.048789866 -0.25101715 0.326577 -0.33761567
000380 4f 23 fd bd 4c 04 9e 3d 2e dc 30 3d a3 86 ec bd
       -0.1236025 0.07715663 0.04317873 -0.115491174
000390 8e 9c a8 be 01 7c 10 3d 83 0e ae bd fe c4 7d be
       -0.32931942 0.03527451 -0.08498862 -0.24782178
0003a0 93 92 60 be 40 d3 30 be 9a 78 a7 be c5 a9 2f 3e
       -0.21930914 -0.17268085 -0.327092 0.17154606
0003b0 ee d1 ab bb b4 b5 9c be a9 de 37 3e 5b 12 8a 3e
       -0.0052435314 -0.30607378 0.17956032 0.2696713
0003c0 26 6e a1 3d 89 14 f3 bd bf 43 e8 bd 91 22 ea 3d
       0.07882337 -0.11869151 -0.113410465 0.11432374
0003d0 fa f5 aa 3e 43 1b 10 3d 10 e2 09 be a0 23 45 bd
       0.3339079 0.03518225 -0.13465142 -0.048129678
0003e0 d4 cb 0a 3e 10 ef 9d 3e 91 5f ad 3e 39 7b b4 3e
       0.13554317 0.30846453 0.33861974 0.3525026
0003f0 a3 3a 78 be ee 8d 70 3d 13 d4 9a 3c 33 39 95 3d
       -0.24241118 0.058729105 0.018899953 0.072863005

actor.customer_encoder.0.attention.combine.weight f4 [32, 32]
000000 ee 3f f0 bc c7 2e 03 be 97 57 8e 3d 50 2c eb 3d
       -0.029327359 -0.12810813 0.069503 0.11483061
000010 ea 1d 0a 3d 7a 96 a3 3c 49 66 1e 3e 6a 22 7e bd
       0.033719935 0.019969214 0.15468706 -0.06204454
000020 d7 e7 c0 bc 68 1a 57 3d a9 be d4 bd 27 33 13 be
       -0.02354805 0.052515417 -0.10387928 -0.14374982
000030 63 a6 0b bd 1b 33 d6 3d 91 63 b2 bd e9 a3 69 3d
       -0.034094226 0.10458966 -0.08710397 0.057041083
000040 b4 32 bc bb a6 17 1d 3e 56 56 cd 3d 51 7f bd bd
       -0.005743349 0.15341052 0.10026233 -0.09252799
000050 95 d0 31 be b3 ee c4 3d 33 ca 2f be f7 f4 e2 bd
       -0.17364724 0.09615841 -0.17166977 -0.110818796
000060 c8 66 1f 3e 19 01 3b 3d df 3a 3a 3c e9 f8 00 be
       0.15566552 0.045655344 0.011366575 -0.12594952
000070 45 39 20 bd c8 e6 85 3c b2 78 c6 3d cf 54 a2 bd
       -0.039117116 0.016345397 0.096909896 -0.07926332
000080 92 8f d9 bc e4 74 2a 3d 88 2e 30 be 21 e5 50 bd
       -0.026557717 0.04161538 -0.1720525 -0.050999764
000090 81 ee 29 be d9 b6 7f bd 00 ac cd bd f3 02 bc 3d
       -0.16594888 -0.062430236 -0.10042572 0.0918025
0000a0 44 92 e3 bd cd f8 2d be d7 16 c2 bc 2d 11 ad bd
       -0.11111882 -0.16989441 -0.023692532 -0.08450542
0000b0 fb 42 c1 bd fc c2 64 bd 28 e7 95 3d 98 9e 19 be
       -0.09436604 -0.055850014 0.0731948 -0.15001905
0000c0 ee ab 07 be 16 76 d7 3c 5c 89 bd 3d 5b 0f 88 3b
       -0.1324918 0.026301425 0.09254715 0.004152221
0000d0 09 60 29 3e 18 20 ae 3d e5 62 07 be d0 a8 bb 3d
       0.16540541 0.08502215 -0.13221319 0.09163058
0000e0 bc f0 b2 bd 48 b3 01 3e 67 c4 e5 bc 0b b8 12 3e
       -0.08737323 0.12666047 -0.028047753 0.1432802
0000f0 fc d8 e4 bc fc a2 34 bd 48 a7 03 be 05 64 2a 3e
       -0.027935497 -0.044100747 -0.12856781 0.16639717
000100 37 c5 e9 bd bb 1f a8 bd fd b3 aa bd 4e f1 46 be
       -0.11414569 -0.08209177 -0.08335111 -0.19427988
000110 0f 97 a0 bd 33 30 20 3e b0 18 e7 3d 2a 29 22 3d
       -0.07841312 0.15643387 0.11284006 0.03959004
000120 d1 31 8b bd a8 f6 ba 3b 85 c0 56 bd 9c 52 27 be
       -0.06796611 0.0057056732 -0.052429695 -0.16340107
000130 e4 bd 0e 3e 1e 89 b9 3d d6 d1 23 3e 5d 68 15 be
       0.13939625 0.09059356 0.15998015 -0.14590593
000140 36 31 2a 3d 3a 34 b6 3d b3 15 32 bc b0 75 c8 3d
       0.041550837 0.0889668 -0.010869431 0.09788072
000150 ed 8b d9 3d a2 d0 d5 bd 5a ce f3 3d 2c ab 2b 3d
       0.10622392 -0.10440184 0.11904593 0.04191129
000160 39 b7 18 bd 76 d8 7c 3d 8b d2 08 3e 68 1d 52 3d
       -0.03728411 0.06172987 0.13361566 0.051297575
000170 af d6 b5 3d 70 29 0c be f7 f2 cc bd 22 d0 cf bc
       0.08878838 -0.13687682 -0.10007279 -0.0253678
000180 d6 fb c6 3d a1 ca cf 3d 09 b3 47 bd c1 2f 26 bd
       0.09716003 0.1014607 -0.048754726 -0.040572885
000190 9a 2f 02 bd f8 5b 86 bd bd 9c 18 3e 84 13 bd 3d
       -0.031783678 -0.065605104 0.14903541 0.09232238
0001a0 41 85 d6 3d 31 28 7f bd f0 fa 4d bd 71 76 17 be
       0.10474635 -0.06229419 -0.05028814 -0.14791276
0001b0 7e 4d 13 3e 63 27 89 bd 06 08 ad bc 3a aa ea bd
       0.1438503 -0.066969655 -0.02112199 -0.114582494
0001c0 ca d1 42 3d 48 ad a5 3d af 88 32 be 55 12 0f 3e
       0.04756335 0.080896914 -0.17434953 0.13971837
0001d0 d4 24 4b 3d bc ba b4 3d 5d bc 10 be e7 c1 6e 3d
       0.04959567 0.08824679 -0.14134355 0.05829039
0001e0 a2 6e 30 3e 4c cf 00 3e d1 f5 c6 bd 36 de aa 3c
       0.17229703 0.12579077 -0.097148545 0.020857912
0001f0 25 8e e4 bd 9f 2b 72 3d aa 2d 95 3d ce 86 bb 3d
       -0.111599244 0.05912363 0.072841 0.09156571
000200 8c 6d 1b be 26 08 b8 3d 01 fa 1b bb 34 24 01 be
       -0.15178508 0.08985929 -0.0023800137 -0.12611467
000210 5b 8e a7 bd 92 69 2a 3e 1f c0 15 be aa 12 f7 3d
       -0.08181449 0.16641834 -0.1462407 0.12064107
000220 4c bf 20 3e 45 ca f2 bd 5c 0e 24 be 99 9d fa bd
       0.15697974 -0.11854986 -0.16021103 -0.122370906
000230 c2 88 c9 3b fa 5d 2b be 8f 95 fc 3d b8 b7 15 3e
       0.006150336 -0.16735068 0.123332135 0.14620864
000240 e0 54 86 bc f4 ba b7 3d ef 37 e3 3d 45 06 3e 3d
       -0.016397893 0.08971205 0.11094653 0.046392698
000250 dc 96 a6 bd 74 b9 63 3c 52 4d 1a 3e 97 1f 2d bd
       -0.08134243 0.013899196 0.15068558 -0.042266455
000260 11 72 0e 3d 9b 54 01 bb 11 e9 84 bd a0 7e 1e bd
       0.03477675 -0.0019734267 -0.064897664 -0.038694978
000270 16 29 a3 bd db 20 4f bd 48 75 30 3e c4 8b 0f bd
       -0.07966821 -0.050568443 0.17232239 -0.0350454
000280 b1 cb 98 bc dc 5f 23 3e 8e 35 6d 3d 14 62 0a be
       -0.018651815 0.15954536 0.0579124 -0.13513976
000290 5e 1c 4e bd 43 3d 85 bd fd 0b 91 bd a1 59 17 be
       -0.05032002 -0.06505825 -0.07082365 -0.14780284
0002a0 8d d4 b1 3d d4 cc 09 3e 28 42 0f be ff 55 2e 3e
       0.08683119 0.13457042 -0.1399008 0.17024992
0002b0 8a 09 a8 3d a8 2f 2e 3e 7f eb eb bd 68 e3 70 3d
       0.082049444 0.17010367 -0.11519527 0.05881062
0002c0 53 71 ff 3d ca fc e9 3d 0e 4c 0c bd 7d 16 04 3e
       0.12472787 0.11425169 -0.03425222 0.12899204
0002d0 d2 86 c3 3d 8d 00 03 be b2 72 a1 3d bb 4e cb bd
       0.09547199 -0.12793179 0.078832045 -0.09927126
0002e0 45 f9 10 3e f6 d8 9b bd de 4f c4 bd fb e4 a2 3d
       0.14157589 -0.076097414 -0.09585546 0.07953831
0002f0 9a 49 be bd c4 f6 7e bd 4d 34 e3 3d 12 8f 2a 3e
       -0.09291382 -0.062247053 0.1109396 0.1665614
000300 83 58 5c 3d cf 4b 26 3e b6 6b 98 3d 7e ec f5 bc
       0.05379535 0.16239856 0.07442419 -0.030019995
000310 c0 62 88 bd 27 39 15 bd c7 d7 d6 b9 bf fc 35 bc
       -0.0665946 -0.036431458 -0.00040978027 -0.011107623
000320 5c 3b d1 3c f6 24 15 3d 92 cb ff bd b6 b6 d9 bd
       0.025541 0.0364122 -0.1249 -0.106305525
000330 90 36 20 3e f9 ff bc bd dd 1f a7 3d e7 b8 32 3e
       0.15645814 -0.092285104 0.08160374 0.17453347
000340 56 77 21 be a6 d5 57 3c e5 82 18 3d d8 82 e7 bd
       -0.1576818 0.013173496 0.037234206 -0.11304253
000350 94 69 1f bd 36 10 b2 bd e4 36 30 be 41 7f 2e bd
       -0.038919047 -0.08694498 -0.17208439 -0.042601828
000360 03 2b 1a 3e fb 0d 3f 3e 49 52 d1 bd bd 93 33 bd
       0.1505547 0.18657677 -0.10220773 -0.043842066
000370 7b 77 c2 bd 59 37 d0 3d df 76 1c be 2c 49 8b bd
       -0.09495445 0.10166807 -0.1527972 -0.06801066
000380 45 05 5f bd 91 ca 9b bd e3 01 14 3e 95 22 1f be
       -0.054448385 -0.07606996 0.14453845 -0.15540536
000390 f0 0a 05 be 43 71 1d be 60 bf 90 bd 0b 05 b2 3d
       -0.12992454 -0.15375237 -0.07067752 0.08692368
0003a0 4a 10 e9 3c 14 c0 c2 bb d2 41 11 3e 8a dd f4 3d
       0.02845015 -0.0059433077 0.14185265 0.11956318
0003b0 fe 0d 27 3d 3e 51 57 3d db b5 83 bd e5 b7 30 be
       0.04078483 0.052567713 -0.064311706 -0.1725765
0003c0 71 d0 13 3d 5b 58 1e 3e 36 40 06 3e 85 dc 0c bc
       0.036087457 0.15463392 0.13110432 -0.008597498
0003d0 17 05 f7 3a b1 e2 28 3e 19 08 37 be 2d 2f 17 3e
       0.0018846121 0.16492726 -0.17874183 0.1476409
0003e0 92 fb 29 3e f0 3d ce 3d b8 95 8b 3d e5 b8 d0 3b
       0.16599873 0.100704074 0.06815666 0.0063696974
0003f0 a4 21 44 3d c4 a0 b4 bd f5 ed d7 bc e4 30 e2 bd
       0.047883645 -0.08819726 -0.026358584 -0.110444814

actor.customer_encoder.0.BN1.weight f4 [32]
000000 92 86 80 3f e1 26 83 3f 87 b7 80 3f 6d c4 78 3f
       1.0041068 1.024624 1.0056008 0.9717472
000010 ae bf 7e 3f 9c 76 7c 3f 0e 0b 80 3f 44 e7 83 3f
       0.9951123 0.98618484 1.0003374 1.0304952
000020 85 3a 7f 3f bc b0 7d 3f 88 c4 80 3f 04 e6 81 3f
       0.9969867 0.990978 1.0059977 1.014832
000030 a3 c9 7e 3f 3f 47 80 3f de d0 78 3f 84 0a 80 3f
       0.99526423 1.0021743 0.97193706 1.0003209
000040 9a 76 7b 3f df 2e 80 3f 04 ca 84 3f 57 53 80 3f
       0.98227847 1.0014304 1.037415 1.0025433
000050 b1 c9 7d 3f a0 79 7d 3f d9 8e 7f 3f e1 19 7f 3f
       0.9913588 0.9901371 0.99827343 0.99648863
000060 78 d9 80 3f 83 df 7e 3f 46 6e 7d 3f 81 89 7f 3f
       1.0066366 0.995598 0.9899639 0.9981919
000070 8b 0e 80 3f 29 7b 79 3f 09 94 82 3f 8c 58 80 3f
       1.0004438 0.9745355 1.0201427 1.0027022

actor.customer_encoder.0.BN1.bias f4 [32]
000000 9a e6 7c bc 19 91 07 bd 17 86 ec bb 90 39 08 3b
       -0.015435839 -0.03309736 -0.007218133 0.0020786263
000010 34 7b 16 bc 64 45 1f bb 37 d5 d2 3b 87 17 02 3d
       -0.009184647 -0.0024302835 0.0064341086 0.03176072
000020 5f 3e 4a 3c 60 83 17 3c 71 5c 17 bd 05 99 b8 3a
       0.012343972 0.009247631 -0.036953393 0.0014083689
000030 0b af c4 bb 09 7c de 3b 88 e2 b1 bc dc 48 57 bb
       -0.006002312 0.0067896885 -0.021714464 -0.0032849824
000040 6e 9c 91 3a b5 61 52 3b 2d 3c 56 bc f8 14 8d ba
       0.0011109242 0.0032101695 -0.01307587 -0.0010763695
000050 b0 63 70 bc 19 fc 84 3c d0 f7 85 3c e1 58 79 3c
       -0.014672205 0.01623349 0.016353518 0.015218944
000060 5c cf a7 3c b8 72 86 bc f8 d5 1b bc 9e 96 92 bb
       0.020484619 -0.016412124 -0.009511463 -0.0044735214
000070 53 93 84 bc c9 50 ff 3c 85 93 c7 3c e7 19 c0 bb
       -0.01618353 0.031166451 0.024362335 -0.005862463

actor.customer_encoder.0.BN1.running_mean f4 [32]
000000 5b c2 39 3f 52 96 d0 be 77 07 f2 3e 42 a5 19 3f
       0.7256219 -0.40739685 0.4727132 0.6001779
000010 b3 4d 56 bf f6 32 eb 3e 38 04 f4 3d 27 a7 f3 3d
       -0.8371231 0.45937318 0.11914867 0.11897116
000020 a5 b3 98 be e0 3b 88 3e 9c 8c 59 be 4f b0 8e 3e
       -0.29824558 0.2660818 -0.21245044 0.27868888
000030 ae c8 19 bf 77 81 8d 3f aa 25 0c 3f da cd a2 3e
       -0.6007184 1.1055135 0.5474497 0.31797677
000040 7f 01 43 be 02 2d a1 be 8b cd 14 3e 43 bd 36 3e
       -0.1904354 -0.3147965 0.14531533 0.17845635
000050 53 ba 72 be d5 db f0 be b7 e3 09 bf 93 0c ed be
       -0.2370389 -0.4704272 -0.5386309 -0.46298656
000060 0c ed 2f 3e 2e e8 48 3d 44 ac 38 3e 0f 34 c9 3e
       0.1718027 0.04904955 0.18034464 0.3929753
000070 97 4f 15 3e 4c b5 b4 bd df fc 84 3d 14 94 98 bd
       0.14581142 -0.08823642 0.06493544 -0.07450119

actor.customer_encoder.0.BN1.running_var f4 [32]
000000 78 d4 9c 3c af 0e 37 3b df 4c 02 3d 1c 0d 8e 3c
       0.019144282 0.0027932336 0.03181159 0.017340235
000010 fc 1e ed 3c 43 2e fe 3c 2f 27 7c 3c db 5c 35 3b
       0.028945439 0.031027919 0.0153902015 0.0027673754
000020 7a 3b 24 3c db d3 27 3b c1 ee d2 3c 72 29 62 3c
       0.010023946 0.0025608453 0.025748612 0.013803827
000030 ea 0c a0 3c 75 f8 5c 3d 45 be 26 3c 40 04 3b 3c
       0.019537408 0.053947885 0.0101772 0.0114145875
000040 65 de ad 3b 8d ce 03 3c 5d 00 33 3c 3d 1a dd 3b
       0.0053060525 0.008044851 0.01092538 0.0067475126
000050 61 82 05 3c 8b 9b 04 3d 00 31 3c 3c 19 af 98 3b
       0.008148761 0.0323749 0.011486292 0.004659545
000060 af 36 77 3c 10 00 03 3b 08 b8 73 3c 19 f6 6a 3c
       0.015088721 0.001998905 0.014875419 0.014340901
000070 c4 8c 17 3d fc aa 80 3c 69 ab 6f 3b 17 08 5f 3c
       0.03699948 0.015706532 0.0036570674 0.013612769
