output/282nodes_entropy0.01_0.4_0.85_2_230823/epoch5.pth (torch, 514363 bytes, 129 tensors)

critic.ff_layer1.weight f4 [32, 283]
000000 e9 23 90 3d 4e bd 92 3d a3 11 43 bb e1 23 77 3d
       0.07038099 0.07165013 -0.002976515 0.06033695
000010 7a c7 78 bb 25 11 84 3c 4e 57 62 bc 10 06 42 3d
       -0.0037960694 0.016121456 -0.01381476 0.047369063
000020 65 ae 76 3d 30 b8 e1 bc 00 12 5a 3d e4 13 5c 3c
       0.06022491 -0.027553648 0.053239822 0.013432477
000030 e9 65 42 3d a7 d9 d6 3c 7d d3 1e 3d d4 99 bf 3b
       0.04746047 0.026226832 0.03877591 0.005847195
000040 60 9b 80 3d 73 83 c3 3c c2 8c 7a bc bc c6 07 3d
       0.062796354 0.02386639 -0.015292348 0.033148512
000050 49 72 c5 bc 43 3e 19 3c d4 45 ce bb 6e a6 4d 3d
       -0.024102347 0.009353223 -0.0062949453 0.050207548
000060 19 7f 0d bd b2 a1 72 bc d8 7a c7 bb a7 0c af bc
       -0.034545038 -0.014809059 -0.006087642 -0.021368338
000070 d7 49 a3 3c f1 5a 41 bd 0b 41 7b 3d 92 6f 2c bd
       0.01993267 -0.04720587 0.061341327 -0.04209859
000080 eb c0 52 3d b2 c6 be 3c 34 e1 78 bc 83 c0 1f 3d
       0.051453512 0.023288105 -0.015190411 0.039001953
000090 b2 98 a3 3c c8 3e 75 3d cb 00 74 3c d9 ab 3c bc
       0.019970272 0.059874326 0.014892767 -0.011515581
0000a0 96 a6 a0 3c 2f c8 61 bb 12 a8 db 3c af 0d 6b 3d
       0.019610684 -0.0034451594 0.02681354 0.057386097
0000b0 22 71 12 3d da 0d 97 bc b1 aa 27 3d c9 5c 5d 3c
       0.035752423 -0.018439222 0.04093427 0.013510891
0000c0 e3 24 2e 3d 48 5c ac bc 81 53 39 bd a4 a5 24 bc
       0.042515647 -0.021040097 -0.04524565 -0.010049257
0000d0 aa 9b 00 bd 00 35 54 3d d0 31 cb 3c bf 16 06 3d
       -0.031398453 0.051808357 0.024804026 0.032736536
0000e0 66 13 00 3d 6b c9 68 3c 82 36 81 3d ea 68 da bc
       0.0312685 0.014208178 0.06309225 -0.026661355
0000f0 69 90 ab 3c 34 93 e7 bc 00 13 03 3d ae 1b 66 bc
       0.020942884 -0.028268434 0.03200054 -0.014044685
000100 7d 79 ff 3c 60 be fc b9 a7 6b 44 3d 79 a1 21 bc
       0.03118586 -0.00048207026 0.047954228 -0.009865158
000110 f3 74 f0 bc 85 b8 bf bc 28 c7 8a 3d 9a 81 af 3c
       -0.02935264 -0.023403415 0.06776267 0.021424104
000120 92 2a 7d 3d cb 07 13 bd 17 0d 34 bd 1a 58 0e bd
       0.061808176 -0.035896104 -0.043957796 -0.03475199
000130 0d 3f 96 bc 41 40 e3 3c d6 02 d2 3c 3e 97 6d 3d
       -0.018340612 0.0277406 0.025636118 0.058005564
000140 e5 9b ba bc bb 29 b2 bc 98 b9 03 3d 46 b8 6e bc
       -0.022779414 -0.021748414 0.032159418 -0.014570301
000150 2e 5c 29 3d f3 6a 70 bb ad 12 36 3d 23 05 0e bd
       0.041347675 -0.003668484 0.044451404 -0.034672868
000160 98 ff 81 bc d9 e3 bd 3c d6 5d cc 3c e9 c3 fd bb
       -0.015868947 0.023179935 0.024947088 -0.0077443016
000170 6a 9b 41 3d b9 ea 3d 3d 71 e7 08 bd 06 43 c9 bc
       0.047267355 0.046366427 -0.033423845 -0.024568092
000180 22 38 5a 3d 31 66 8f bc 1b 2a e7 bb e8 90 36 bd
       0.05327619 -0.017504783 -0.00705458 -0.044571787
000190 ec 5f ad bc 2a bc a0 3c 35 0a d3 3a 68 a6 1e bd
       -0.021163903 0.019620974 0.0016101064 -0.038732916
0001a0 03 b0 a8 3c 06 c6 12 bd ca 9f 25 bd 1d d4 8f bc
       0.020591741 -0.03583338 -0.04043559 -0.017557198
0001b0 9e bb 3c bd a1 ec ca bc 24 76 8c 3d 71 85 ef 3c
       -0.046077363 -0.024771037 0.06858471 0.029238435
0001c0 4b d6 1e 3d bb d6 21 bd cf 19 c2 bc 53 91 e7 bb
       0.038778584 -0.039511424 -0.023693947 -0.0070668845
0001d0 63 f8 79 3c 29 ba 37 bd e1 3e 07 bc 8b 43 cf bc
       0.015256974 -0.04485527 -0.008254738 -0.025300762
0001e0 03 e4 74 3c c5 ff 5a bb 28 88 f6 3b 44 39 05 bd
       0.01494694 -0.003341661 0.0075235553 -0.032525316
0001f0 7c 8f bc bc e7 ec a3 bc 05 3e 19 bc 87 91 08 bd
       -0.023017637 -0.020010425 -0.0093531655 -0.03334191
000200 f7 e2 52 3d 84 17 5c 3c 73 cc 67 3d 2c 27 ed 3c
       0.05148598 0.013433341 0.056591462 0.028949343
000210 77 48 fd bc 31 86 54 3d 51 81 43 bc 88 0d d9 bb
       -0.030918343 0.051885787 -0.011932687 -0.0066239275
000220 ba ec da bc d2 0f 36 bd af 13 b0 3c 96 3e 37 bb
       -0.026724208 -0.04444868 0.02149376 -0.0027960888
000230 f7 ce 12 3d 59 96 1a bd 58 55 64 3d 1c 4c bf bc
       0.03584191 -0.03774104 0.055745453 -0.023351721
000240 b3 c4 57 bb 27 c9 b0 3c b4 28 18 3d cd c1 5f 3d
       -0.0032923638 0.021580292 0.037148193 0.054628182
000250 e1 ce 69 3d ef de 03 bd 80 6e bf 3c de c5 d3 bc
       0.05708206 -0.032195028 0.02336812 -0.025851186
000260 37 ea 37 3c 89 32 e9 bc ab af 82 3d 66 6b e8 bc
       0.011225275 -0.02846648 0.06381162 -0.028371524
000270 aa 30 47 3d c0 2d bb 3c 71 cc fd 3c 52 7a 72 bc
       0.048630394 0.022848964 0.030981274 -0.014799671
000280 ac ca 6d 3d 05 52 e3 3b c4 e3 7e 3c 1a d6 27 bd
       0.05805461 0.0069372677 0.015557233 -0.040975668
000290 55 e1 04 3d 49 cd f5 3b db 0a 37 bc 7c 05 75 3d
       0.032441456 0.0075012785 -0.011172022 0.059819683
0002a0 b0 81 07 3d 19 2b c7 bc 5e 38 b3 bc ec 8d 27 3b
       0.033082664 -0.024312543 -0.021877464 0.002556677
0002b0 4d 4b 3b 3d b0 e7 4a bb 2a e3 a3 bc 1e 88 25 bc
       0.04572611 -0.003096085 -0.020005781 -0.010103254
0002c0 a9 84 10 bd fe 52 af 3c af 53 68 3d 9f 1b 2f bd
       -0.035282765 0.021401878 0.056720432 -0.04275095
0002d0 89 73 b4 3c b5 6c 37 3d 48 05 7d 3c 08 04 1c bb
       0.022027748 0.044781405 0.015443154 -0.0023806114
0002e0 3e db 1e 3d 20 ce 3c 3d af 06 f8 3c 0e b6 1c 3c
       0.038783304 0.046095014 0.030276624 0.00956489
0002f0 51 b1 84 bb 08 f7 8e 3c 57 1c 29 ba c2 b5 cc bb
       -0.004049458 0.017451778 -0.00064510613 -0.006247253
000300 d4 a7 51 3d 8d b1 4b 3d 9c 5c 22 3b 85 b8 26 3a
       0.051185444 0.049729872 0.0024774438 0.0006359893
000310 f5 40 11 3c 65 3a f5 3a 77 64 f2 3c 33 c1 d6 3c
       0.008865585 0.001870942 0.029588921 0.026215171
000320 c1 29 1b bd 10 f2 1b bc 40 e5 6f 3d f0 67 fb 3c
       -0.037881617 -0.009518161 0.05856824 0.03068921
000330 14 23 d6 3b 05 e1 c2 bc aa 99 8f bc 15 84 15 bd
       0.0065349434 -0.023788938 -0.017529327 -0.036502916
000340 7e d2 a8 3a 77 1e ec 3c 3f fe 3a 3d bb 51 25 3d
       0.0012880114 0.02882312 0.045652624 0.040361147
000350 c1 3d 0f bd fa d3 c4 bc e8 32 e6 b9 b1 40 65 3d
       -0.034971002 -0.02402686 -0.00043906947 0.055969898
000360 76 31 9e 3c ca c3 31 bc 37 2e f7 3c d7 26 02 bc
       0.019310694 -0.010849902 0.030173404 -0.00794383
000370 fe a0 d8 bc c9 74 56 3d ab 1a 5b bc 22 6b 08 3b
       -0.026443955 0.05235747 -0.013373057 0.002081581
000380 94 90 3a bd 7f 67 46 3d e7 df 54 3d b6 ef 00 3d
       -0.045548037 0.048438545 0.051971342 0.031478606
000390 f4 05 dd bc 2c bd 5a bd f9 fc c4 bc a9 9d 64 3d
       -0.026980378 -0.053403065 -0.024046408 0.05581442
0003a0 ba 12 f2 3c 0c c9 64 3d b6 01 03 3d 0a 00 af 3c
       0.029549945 0.055855796 0.031984054 0.021362323
0003b0 3d e2 32 3c 88 74 ea bc 4a 3d ff bc 0b 64 31 bd
       0.010918197 -0.02862002 -0.031157155 -0.0433083
0003c0 67 55 1e 3d e8 60 9f bc 9d 2d e9 bb ee 17 da bc
       0.038655665 -0.019455388 -0.007116033 -0.026622739
0003d0 0f 94 9a 3b 64 06 cb bc 5f 92 08 bd 30 3f dd 3c
       0.004717357 -0.02478332 -0.033342715 0.02700767
0003e0 2f 92 a6 bb f5 91 26 3d aa 9a 22 bb 42 ab 14 bd
       -0.0050833444 0.04066654 -0.0024811425 -0.036296137
0003f0 ed 46 88 bb 5a 46 85 bc ea e8 69 bc 1a ce 2f bd
       -0.0041588456 -0.016268898 -0.014276722 -0.042921163

critic.ff_layer2.weight f4 [283, 32]
000000 8f 43 66 bc 2f c0 7c 3e b2 f1 10 bd 41 9d 0a be
       -0.014054193 0.24682687 -0.03538675 -0.1353655
000010 60 ba f8 3d ff d5 6a bd b0 33 f3 3d 3c ab d2 bc
       0.12144923 -0.05733299 0.11875093 -0.025716417
000020 35 57 01 be a5 de 06 39 bf 5a 88 bc e7 db 62 3d
       -0.12630923 0.00012862177 -0.016644834 0.055385496
000030 ac a5 0f be b9 24 1f be 06 cc 1f bc 5f c4 9b 3e
       -0.14028043 -0.15541352 -0.009753233 0.30423257
000040 04 9c e7 bd 1b b2 a7 bd 48 8f ae 3d 55 92 29 3e
       -0.113090545 -0.08188268 0.085234225 0.16559727
000050 9d a8 a2 3e a7 f1 57 bd 14 0a a9 bc 61 67 09 be
       0.31769267 -0.052720692 -0.020634688 -0.13418342
000060 91 e7 8d 3e 0d 4e ef 3d 53 fd 11 3d 58 16 36 be
       0.27715734 0.11684809 0.03564198 -0.17781961
000070 39 db bb 3d 6d a0 0e bd 50 08 3d 3d 4a f4 7f 3e
       0.09172673 -0.034820963 0.046150506 0.24995533
000080 99 d4 3a bc 24 3a c7 bd 5a 66 de 3d 40 4f d4 3d
       -0.011403226 -0.09727886 0.10859366 0.10366678
000090 5b 3d 87 3c f8 d1 e2 bd 52 22 c1 bd 68 78 20 be
       0.016508749 -0.110752046 -0.09430374 -0.15670931
0000a0 da 25 c2 bd 4c 14 20 be d8 9c b8 bc 76 25 02 be
       -0.09479876 -0.15632743 -0.022535726 -0.12709603
0000b0 d3 15 d1 3d 18 79 1f be a3 e7 ee bd a7 69 e5 bd
       0.10209241 -0.15573537 -0.11665275 -0.11201792
0000c0 b8 93 49 bd a1 cf 94 3d e4 f6 e0 3d 5f 8a 2d 3e
       -0.04921314 0.072661646 0.10984591 0.16947316
0000d0 d1 b9 63 bd b5 cb 46 3d 68 5d b6 3b 92 37 bf 3d
       -0.05559713 0.048534114 0.005565334 0.09336771
0000e0 d2 8c 87 3d 3d 48 cf 3d 1b 6c fa 3d 55 d7 06 3e
       0.06618656 0.101212 0.12227651 0.1316808
0000f0 07 14 1f bb 6d 04 d8 3d 02 b3 dc bd 7a 3d 4f bd
       -0.0024273412 0.10547719 -0.107763305 -0.050595738
000100 1f 68 60 bd bc 67 75 bd d7 4c 51 3c 5b 64 2b be
       -0.054786798 -0.059913382 0.012774668 -0.16737501
000110 bd e6 c9 bd 6b 18 89 bc 69 80 18 3d d9 4b 09 3e
       -0.09858463 -0.016735276 0.037231836 0.1340784
000120 30 bd ef bd 77 25 4e 3d cc d6 99 3d 30 66 c5 bd
       -0.117060065 0.050328698 0.075116724 -0.09638631
000130 82 fd fb 3c 7a 91 b4 bd e7 2c 53 3b 7c ef cd bd
       0.03076053 -0.0881681 0.0032222809 -0.10055444
000140 a8 1f 38 bd 12 ce 95 bd 55 57 22 3e b4 85 2b 3d
       -0.044952065 -0.073146954 0.15853627 0.041875556
000150 52 e5 31 be a2 a8 fe 3c 70 0f c6 3d f5 8f 90 bd
       -0.17372635 0.03108627 0.09670913 -0.070587076
000160 03 48 e4 bd 32 19 fe bc 7c 4e 20 be 91 6f 8c bd
       -0.11146548 -0.031017873 -0.1565494 -0.06857217
000170 a2 61 a9 3c 2f 9e 0a be 18 a0 26 be 1f 91 e6 bd
       0.020676438 -0.13536905 -0.16272008 -0.112581484
000180 02 24 00 be 4e ee ab 3b 78 23 61 3d 1f fd cf 3d
       -0.12513736 0.005246914 0.054965466 0.10155701
000190 d4 fd 33 3e 38 9b c7 3d e6 1f 9f bd 3f 0a d3 bc
       0.17577296 0.097464025 -0.07769756 -0.025761722
0001a0 46 55 b7 bd 49 34 ce 3d e2 47 41 3d e4 a0 99 3d
       -0.089518115 0.10068566 0.047187693 0.075013906
0001b0 dc bf f6 bd 36 32 03 3e d2 7d 21 be 89 fd a1 3d
       -0.12048313 0.12812123 -0.15770653 0.07909686
0001c0 07 0b 20 be 01 d9 08 3e 6d 96 d0 bd 10 50 0a be
       -0.15629207 0.1336403 -0.101849414 -0.13507104
0001d0 e2 67 9b 3d e0 c0 1f 3e d7 b5 5b bc bd e6 89 3d
       0.075881734 0.1560092 -0.013410053 0.06733463
0001e0 6a c7 12 3e a6 b3 14 be 2b 7c 8f 3d b5 42 b6 3c
       0.14333883 -0.14521655 0.07006105 0.022248605
0001f0 87 da d4 bd 8e 59 bc 3d e6 3c 1b 3e d3 88 02 3e
       -0.10393243 0.09196769 0.1515995 0.12747507
000200 33 b0 04 be 82 25 00 3e 82 15 10 3e 35 29 77 3d
       -0.1295784 0.12514308 0.14070705 0.060342032
000210 5c db f5 bc 10 05 fc 3d d6 e8 fa bd 40 db cf bd
       -0.030011825 0.12305653 -0.12251441 -0.101492405
000220 28 fc ba 3d 8c 16 f1 3d 41 60 c9 bc 5c 22 24 3e
       0.09130126 0.117718786 -0.02458203 0.16028732
000230 5d ba b5 3d 0c 51 9f 3d e1 c8 0c 3e 1d 4a 2a 3e
       0.088734366 0.0777913 0.13748504 0.16629834
000240 5b 46 ed 3d eb ff 01 3e ad 8a e3 3b dd 7e 07 3e
       0.11585685 0.12695281 0.0069440217 0.13231988
000250 7e 5c b6 3d 68 d0 a5 bd 8c 0a b2 3d d5 fa a9 3c
       0.0890436 -0.08096391 0.08693418 0.020749489
000260 09 50 80 bd e3 52 fb 3d 1f 72 48 3d 10 52 03 3e
       -0.062652655 0.12271669 0.04893696 0.12824273
000270 25 ac de 3c 8e e4 4f 3d 21 f7 c9 3d db be 6b bd
       0.027181694 0.050755076 0.09861589 -0.05755506
000280 25 e4 e0 3d 67 d8 c3 bd 2f 9c d7 bc 1f 0b ab 3b
       0.10981015 -0.0956276 -0.026319591 0.0052198316
000290 d3 d6 ed 3d 34 f0 9b 3d c6 af 2a 3e 9f 0f bf bd
       0.1161324 0.076141745 0.16668615 -0.09329151
0002a0 f3 34 be bc 75 e6 97 bc 55 89 09 3e d1 fb 27 3e
       -0.023218608 -0.018542508 0.13431294 0.16404654
0002b0 25 20 3a 3d 74 b8 0b be 49 96 03 be a5 f1 bb 3c
       0.04544081 -0.13644582 -0.12850298 0.022942374
0002c0 4c 92 20 be df fb 93 bd 58 86 0e be 08 bd b0 3d
       -0.15680808 -0.07225775 -0.13918436 0.08629805
0002d0 df 97 d4 bc b0 d7 05 be a8 01 d3 3d c0 0a 13 be
       -0.025951324 -0.1307056 0.1030305 -0.1435957
0002e0 ca db c6 bc f9 11 2d 3e c5 84 99 3d a6 b6 17 be
       -0.024274725 0.16901387 0.07496027 -0.14815769
0002f0 2a d2 88 3c f9 98 06 bd a7 73 94 3d 05 6d 17 3e
       0.016701777 -0.03286073 0.072486214 0.14787681
000300 fe 5e 18 3e 76 b3 03 bd 56 bf a0 3d f4 50 2f be
       0.14879987 -0.03215357 0.078489944 -0.17120725
000310 ab 2f 05 3e ea b9 ab 3d c2 c9 fd bd c7 07 4c bd
       0.13006465 0.0838507 -0.12391998 -0.049812105
000320 c4 99 83 bd 14 99 c5 bd e4 e4 88 3d ea f2 48 bd
       -0.06425813 -0.09648338 0.066842824 -0.049059786
000330 bb bd 8c 3d 84 75 7a bd 87 83 0e 3e cc 43 94 bd
       0.06872126 -0.061147228 0.13917361 -0.07239494
000340 2e 55 0e bd 1e 99 5a bd fa f4 58 3c a4 9a 96 bd
       -0.034749202 -0.05336868 0.013242001 -0.07353714
000350 34 75 e2 bd 13 2b 27 be a1 48 ef 3d 7c af dc 3c
       -0.11057511 -0.16325025 0.11683775 0.026939146
000360 92 6f ed bd 3f 69 b6 3d b4 8c 0f 3c b6 14 87 bd
       -0.11593546 0.08906793 0.008761574 -0.06595747
000370 a0 09 63 bc 45 3a 16 3c a5 8f f5 3d 7e 0f 25 be
       -0.013857275 0.009169166 0.11990289 -0.16119191
000380 5e 03 0a be 18 51 13 be 61 33 14 be c8 24 ca bb
       -0.13477847 -0.14386404 -0.14472724 -0.0061689354
000390 ce da c5 3d ae ea 3c 3d b5 0d 83 3d 2b 73 f2 3c
       0.09660874 0.046122245 0.06399099 0.029595932
0003a0 d2 87 c5 b9 18 c4 20 be 5d 73 26 3e c9 0b 2c 3e
       -0.00037675962 -0.15699804 0.16254945 0.1680137
0003b0 92 6a 12 3b 7c 7b e7 3c ba 2b 0e 3d a9 e8 26 3e
       0.0022341353 0.028257124 0.03470967 0.1629969
0003c0 06 d5 26 ba be bc e9 bc 75 05 c5 bd 95 f5 23 3d
       -0.00063641404 -0.028532382 -0.096201815 0.040029127
0003d0 42 c0 86 3d 6f e5 17 be 65 97 51 3d a2 99 15 3d
       0.06579639 -0.14833616 0.05116977 0.03652347
0003e0 4c 6c 8f 3d 8a 7a af 3d 70 10 2d bd 29 2f e4 3c
       0.07003078 0.08568294 -0.042252004 0.027854519
0003f0 a8 51 f3 bd ce b7 de 3d e2 9f 14 be 63 20 26 be
       -0.11880809 0.10874902 -0.14514115 -0.16223292

actor.customer_encoder.0.attention.query_embed.weight f4 [32, 32]
000000 9a 82 9d 3e 55 13 4e 3d c4 7f eb 3d 95 3e 9f 3e
       0.30763704 0.050311405 0.11498979 0.31102434
000010 97 f8 a2 be d1 a6 e6 bd a6 cf 19 be 0d cb 64 be
       -0.31830284 -0.112622865 -0.15020618 -0.22343083
000020 40 0a 68 3e f0 e0 5f 3e c0 d8 8d 3e d6 c5 b0 3e
       0.2266016 0.2186315 0.2770443 0.34525937
000030 8c 35 3c be 62 b4 52 3c ae bd d4 3d 83 8a ce bd
       -0.18379802 0.012860389 0.10387741 -0.10085013
000040 ca cd 53 3e ad c7 b1 3e 0b 36 b4 be ab 33 97 bd
       0.20683971 0.34722653 -0.35197482 -0.07382902
000050 23 5e 50 3e 92 25 87 be 36 ec 9a bd 83 ff 59 3e
       0.2034841 -0.2639585 -0.07564585 0.21288876
000060 ad e8 c8 3d 6e e4 46 be a1 0b 9e bd 91 ed 48 3c
       0.098100044 -0.19423077 -0.07717062 0.0122636715
000070 e9 1a b1 3e c4 13 77 be 63 d7 6f bc 60 6e ad bd
       0.34590843 -0.24128634 -0.014638755 -0.08468318
000080 16 66 b3 3e d3 71 89 3e a0 ac 1a bd 53 cc 1f be
       0.35038823 0.26844653 -0.037762284 -0.15605287
000090 6b b0 ab 3e d9 da df bc 69 0f b1 bd 07 a7 90 3e
       0.33533034 -0.027326034 -0.086455174 0.28252432
0000a0 36 9d ce 3d f8 e5 dc 3c 1d 20 aa 3e 2f 30 2f be
       0.10088579 0.026965126 0.33227625 -0.17108224
0000b0 96 0f 8c 3e 42 29 3d 3e 28 06 5e be ab 3d a9 3e
       0.2735564 0.1847277 -0.21682036 0.3305486
0000c0 d7 12 01 3e a4 10 7f be f4 da 97 3e c2 5f 92 be
       0.12604843 -0.24908692 0.29659235 -0.28588682
0000d0 98 d8 33 3d 9f 66 17 3e 5c bb 33 3e dc c0 a5 be
       0.04390773 0.1478524 0.1755194 -0.32373703
0000e0 4c 6c a5 3e f0 04 9b 3e 11 1d 5c 3e 6b f8 07 3e
       0.32309186 0.30277205 0.21495463 0.13278358
0000f0 aa 22 60 be 2b 96 81 3e 2c 30 0f 3d 7b 9f 84 bd
       -0.21888223 0.25309882 0.03495805 -0.06475731
000100 27 f6 e0 bd 0d e1 21 3d 78 ea 9b bd d9 91 8b be
       -0.1098445 0.039521266 -0.07613081 -0.2725971
000110 b7 c0 69 be 96 7f 01 be 75 95 83 bd 2c ae 46 be
       -0.22827421 -0.12646326 -0.06424991 -0.19402379
000120 ec 33 cf bd 82 e2 87 be 86 59 7e be f6 60 58 3e
       -0.10117325 -0.2654 -0.24838838 0.21130738
000130 59 95 d7 bd 6d 17 ec bd a7 2f 04 bc 8d 38 55 3d
       -0.10526533 -0.115279056 -0.008068002 0.052055884
000140 c1 b3 74 be 6a 44 2c 3e e9 ba 14 3e 00 c0 23 3e
       -0.23896696 0.16822973 0.14524426 0.15991211
000150 8c 76 84 be 00 7b a4 3e 97 eb 44 3e 14 d3 d8 3d
       -0.25871694 0.32125092 0.19230495 0.10587135
000160 b4 8c 46 3e 66 70 4c be 46 23 04 3e ad 12 a2 3e
       0.19389611 -0.19964752 0.12904081 0.31654873
000170 a6 4f 16 3e 5e f9 4d bc 93 82 a8 be 70 f3 03 be
       0.14678821 -0.012571661 -0.3291212 -0.12885833
000180 7f b4 71 be 50 97 a5 3e 21 40 9e bd d7 26 d9 bd
       -0.2360401 0.32342005 -0.07727075 -0.10603111
000190 0b d7 ad be c8 31 a3 be 79 7b 10 be a7 80 19 3e
       -0.33953127 -0.31873918 -0.14109601 0.14990483
0001a0 22 ca 61 bd 21 72 44 3e 29 20 a1 3e 96 d7 67 be
       -0.05512441 0.19184162 0.3146985 -0.22640833
0001b0 d6 a4 e9 3d b9 bf a0 3c 74 45 a0 be 8b 71 a3 bd
       0.11408393 0.01962267 -0.3130299 -0.07980641
0001c0 9b 4e 52 3d f7 23 08 be 46 2e 6d be 56 cf a3 3e
       0.051344495 -0.1329497 -0.23162183 0.31994122
0001d0 72 34 1f 3e b5 98 9c be 19 ae a5 be 09 65 c6 3d
       0.1554735 -0.30585256 -0.32359388 0.0968724
0001e0 48 9e 43 be 78 6b a9 3d e5 44 09 3e bc cd fc 3c
       -0.19103348 0.08272451 0.13405187 0.03085982
0001f0 36 fa 48 3e 50 d4 29 3e e7 35 80 bd 69 52 d9 3d
       0.19626698 0.16584897 -0.06260281 0.106114216
000200 2b 6e b7 bd cb bb 3d be a2 b5 b6 be e8 38 1a 3e
       -0.0895656 -0.18528669 -0.3568545 0.1506077
000210 dd 96 93 3e a3 4a e8 bd 84 29 57 3e 8c da 8e 3e
       0.28826037 -0.11342361 0.2101193 0.27901113
000220 88 0d 55 3d 83 3d 27 3e 7b b3 0b 3c 81 67 4e 3e
       0.052014858 0.16332059 0.008526678 0.20156671
000230 ea 8a 34 3e a3 b0 6e 3e 1a 1a a1 3e bc 1c 0e be
       0.17631117 0.23309569 0.31465226 -0.13878149
000240 20 32 dc 3d 95 ed 05 3e 6a ad 8d be 96 14 9e be
       0.10751748 0.13078912 -0.27671367 -0.3087508
000250 bc 3b a3 bd ca 29 2d 3e ab 21 8f 3e 82 85 03 be
       -0.07970378 0.16910473 0.27955374 -0.12843898
000260 ec e8 1f be e8 8c 9d be cf e7 52 3e 0e 3c 39 be
       -0.15616196 -0.30771565 0.2059624 -0.18089315
000270 c4 d1 e8 3d 7a 26 0e 3e c3 bc 17 bd e0 18 a6 3e
       0.113681346 0.13881865 -0.03704525 0.32440853
000280 19 9c 7d 3e c6 ff 59 bd 1f a5 db 3a ac c3 69 3e
       0.24766578 -0.05322244 0.0016757584 0.22828549
000290 30 cd 5c be c0 87 91 be b9 c4 6f 3e d3 8b 40 be
       -0.21562648 -0.28423882 0.23414887 -0.18803339
0002a0 08 a3 08 3d ba 72 a6 3c 2b 1d 8c 3e e4 97 59 3d
       0.033358604 0.020318378 0.27366003 0.05312337
0002b0 a7 a7 0a 3d 91 7c 9a 3d 01 b5 17 be 3a 40 ab be
       0.033851292 0.075432904 -0.14815141 -0.33447438
0002c0 22 ca 99 3e b5 3c 8c be 6e 7a 86 be e3 0f ab bd
       0.30037028 -0.27390066 -0.2626528 -0.083526395
0002d0 e5 f6 6a 3e 9c bf 1d be 4e 80 86 3e 99 58 ea 3d
       0.22945745 -0.15405124 0.26269764 0.1144268
0002e0 a6 c9 76 3e a7 2e 0d be 26 b0 2d 3e 91 93 b3 3d
       0.2410036 -0.13787328 0.16961727 0.087683804
0002f0 46 c8 a2 3e 2e 14 32 be d3 30 a2 3e fd 0c 75 be
       0.31793422 -0.1739051 0.31677875 -0.23930736
000300 0d 5d 7d be ba a9 aa 3e 65 01 41 3e 35 a6 52 3e
       -0.24742527 0.33332616 0.18848188 0.20571215
000310 02 2e 42 be 7a 95 9e 3e 0e 1c ab bd a1 a7 99 3e
       -0.18962863 0.30973417 -0.083549604 0.30010703
000320 c2 a1 66 3e 16 7e a1 be 68 25 a3 bd 91 cb b8 3e
       0.22522643 -0.31541508 -0.07966119 0.3609281
000330 4e ad 5d 3e d5 1e 39 3d 5d 82 c1 bc 06 cb 15 3e
       0.21648142 0.04519542 -0.023621732 0.14628229
000340 b9 0d d3 bd 02 62 ca bd 19 0b 4c be 86 cc 68 bc
       -0.10305352 -0.09881975 -0.19926108 -0.014208918
000350 09 86 4a be e2 ba 50 be 42 3a 74 3e a7 85 64 3e
       -0.19777693 -0.2038379 0.23850349 0.2231661
000360 32 40 28 be e6 9b 92 bd 26 61 26 be ad d0 33 3e
       -0.16430739 -0.071586415 -0.16247997 0.17560072
000370 e8 24 62 be e8 b4 4b be 11 f1 14 3e 99 63 de 3c
       -0.22084391 -0.19893229 0.14545085 0.027147101
000380 1b 90 d5 3d 8f e9 2e bd 90 07 b7 3e 2c d0 64 bd
       0.104278766 -0.042703208 0.35747957 -0.05586259
000390 fb 82 96 3e a8 4d 3d 3d c0 12 af 3e 0b 0d 5a be
       0.29396805 0.046216637 0.34193993 -0.21294038
0003a0 17 77 56 3e d7 4b ea bd fc 83 4f 3e 1b 45 90 be
       0.20943867 -0.114402466 0.20265192 -0.28177723
0003b0 72 79 54 3e 87 73 c6 bd 33 9b 13 be 6f 56 fd bd
       0.20749453 -0.09690004 -0.14414673 -0.123700015
0003c0 2c 27 82 3e 51 ec 5a bd 5b 18 42 bd f0 62 a7 3e
       0.2542051 -0.053448025 -0.04738651 0.3269267
0003d0 c2 db 85 3e 6d 33 a4 3c e9 66 ef bd 1d f9 c7 3d
       0.26144224 0.020044053 -0.116895504 0.097643115
0003e0 78 2b a8 bd f0 ff 9a 3e 2e b2 06 3e c0 c6 7b 3e
       -0.08211416 0.3027339 0.13153908 0.24587536
0003f0 5c 14 49 3e 72 31 bd bd 11 21 92 be bd a6 fa bd
       0.19636673 -0.092379466 -0.28540853 -0.12238834

actor.customer_encoder.0.attention.key_embed.weight f4 [32, 32]
000000 64 f6 24 be 57 2c 6c 3d c9 96 8a 3d 5c 8e b7 3e
       -0.16109616 0.057659473 0.06767041 0.358508
000010 7f 51 a5 3e 46 06 98 be e0 86 2e 3e 14 a6 8a be
       0.3228874 -0.29692286 0.17043638 -0.27079833
000020 cf a7 2a be 08 99 12 3e 7a a6 7b be 12 7a 9c 3e
       -0.16665576 0.1431619 -0.24575225 0.30561882
000030 4e 4a ff 3d 7d c6 1c 3d d8 bc 56 3e 98 35 9c be
       0.12465344 0.03827523 0.20970476 -0.3050964
000040 f2 3e 67 3d 0c af ff 3d 81 e7 2d be 44 a0 ed bd
       0.056456514 0.124845594 -0.16982843 -0.11602834
000050 fb 11 09 3e 96 71 9b 3e 67 67 0b be a4 41 56 3e
       0.13385765 0.30360097 -0.13613664 0.20923477
000060 41 b0 47 3e 76 8d 57 be d2 72 8f be eb 4c 2f bd
       0.1950083 -0.21050057 -0.28017288 -0.042797964
000070 84 ce 66 3e a6 5d 92 be 84 5a 78 be 65 12 84 3e
       0.22539717 -0.28587073 -0.24253279 0.25795284
000080 d0 ef 4e be 0f 2c 77 be 48 1b 8e bc 52 c9 a9 3e
       -0.20208669 -0.24137901 -0.017346993 0.33161408
000090 54 a2 6f 3e c1 21 41 3e e3 25 5a 3d b5 57 43 be
       0.23401767 0.18860532 0.053258788 -0.19076426
0000a0 8d c1 92 be 41 98 3b 3e 25 35 de 3d 60 51 b8 3d
       -0.28663293 0.18319799 0.1084998 0.08999896
0000b0 67 f7 f3 bd 62 92 b5 be 55 eb 08 3d c8 66 75 bd
       -0.119124226 -0.35463244 0.033427555 -0.059912473
0000c0 c8 d3 d0 bc b8 63 36 3d f5 0b 4a be 69 7f 57 be
       -0.02549161 0.044528693 -0.19731124 -0.21044697
0000d0 69 87 b9 bd 42 36 07 3e 42 42 63 be da a8 ac 3e
       -0.090590306 0.13204291 -0.22193244 0.33722574
0000e0 bd 6a af be 69 de 5c be b8 ad ca 3d 9c 13 b1 be
       -0.34261122 -0.21569218 0.098964155 -0.34585273
0000f0 f2 3e 51 be 44 f7 2d 3e 79 b8 79 be 42 a9 e9 3d
       -0.20434168 0.16988856 -0.24386777 0.114092365
000100 28 62 3f be fe f5 25 be d5 c2 69 3d 68 31 fc 3c
       -0.18689787 -0.1620712 0.057070572 0.030785277
000110 2a ba a5 3e 0d 57 97 3d f6 4e 84 3d 04 36 40 be
       0.32368594 0.073896505 0.06460373 -0.18770605
000120 a6 84 99 3e 5c 8a b8 bb 61 f3 56 3e 19 53 91 be
       0.29984015 -0.005631728 0.20991279 -0.2838371
000130 3a 3d 41 3e 89 1e 91 3e 50 37 65 3e f1 ce 94 3e
       0.18871012 0.2834361 0.22384381 0.29064134
000140 97 9d 23 be 00 09 7f be a9 67 08 3e 80 46 22 3e
       -0.15978085 -0.24905777 0.13320793 0.15847206
000150 3f 46 57 be 56 1c e9 bd 3d 14 30 bb 7b 4b a6 bc
       -0.2102289 -0.11382358 -0.0026867532 -0.020299664
000160 98 29 2f 3e 2b 7c 81 3e 21 d4 cc 3d 4d ce 12 be
       0.1710571 0.25290045 0.10001398 -0.1433651
000170 3b b0 66 be 25 f8 9a 3e 43 ad 10 3d db b9 39 be
       -0.22528164 0.30267444 0.035321485 -0.18137304
000180 e9 0d 88 be ed 18 7f be 97 b3 a5 3e 1b 6c 57 be
       -0.26573113 -0.24911852 0.3236358 -0.21037333
000190 76 c7 af be e3 dc 8a be a3 cb 30 be f0 a8 9a 3b
       -0.34331864 -0.27121648 -0.17265181 0.004719846
0001a0 92 a0 6d be d8 87 25 3e 63 6c 81 bd 6a b1 18 be
       -0.23205784 0.16165102 -0.06319501 -0.14911428
0001b0 8c 4c 63 be 17 4d db bd aa 5b b6 3e 77 3d 64 3c
       -0.22197169 -0.10708063 0.3561681 0.01393067
0001c0 18 11 c5 3d 1b 3e b3 be 16 42 5a 3e 84 6b 51 3d
       0.09622401 -0.3500832 0.21314272 0.051127926
0001d0 00 88 3e bd 69 3a 38 3c ef 0d 21 be 95 e6 8e be
       -0.04651642 0.011244395 -0.15727971 -0.27910295
0001e0 db 77 38 be 19 15 d7 3d 6f bc 97 3e 03 eb 81 be
       -0.18014471 0.10502071 0.2963595 -0.25374612
0001f0 fd 6e 28 3e c9 01 25 be 79 fe 88 3e 20 71 33 3d
       0.16448589 -0.16113962 0.26756647 0.043809056
000200 84 54 a1 be 87 49 93 be e3 9d c0 3d 7f 75 3c 3e
       -0.31509793 -0.28767034 0.094051145 0.18404196
000210 2a e2 cb 3d b6 cd d6 3d 68 a8 4b bd 07 b0 4c be
       0.09955247 0.10488455 -0.04972115 -0.19989024
000220 ca cc 34 3d b9 50 96 be ff d0 39 3e 28 23 04 be
       0.044140615 -0.29358461 0.18146132 -0.12904036
000230 92 de 9e be 56 05 10 3d e3 8f f3 3d 2a 1c 8a be
       -0.31029183 0.03516134 0.118926786 -0.26974612
000240 42 b6 61 be 4a 2c 53 bd cb 2b 14 be cc 4a 96 3e
       -0.22042182 -0.05155591 -0.1446983 0.2935394
000250 02 70 79 3d 56 82 ee bd 48 9d 92 be ec 0c 83 be
       0.060897835 -0.11645953 -0.2863562 -0.25595796
000260 5c 09 02 3e 19 bf 9f bd 7d 02 55 3d 36 74 97 3d
       0.12698883 -0.07800121 0.052004326 0.07395212
000270 ad 78 7b 3e c7 a9 0a bc 51 97 24 3e 12 e4 a9 be
       0.24557753 -0.00846333 0.16073348 -0.33181816
000280 dc b5 7c 3e ef 54 9d be d8 10 dd bd f3 1f b1 be
       0.24678749 -0.30728862 -0.10794228 -0.34594688
000290 f1 97 3c 3e 6a 7d c8 bd d5 7c b2 be 94 0e 3e be
       0.18417336 -0.09789546 -0.34860864 -0.18560249
0002a0 5b 29 4b 3e 99 fe 77 3e 67 fa 78 3e 34 b7 ae be
       0.19839995 0.24218215 0.24314271 -0.34124148
0002b0 0d 27 16 be 77 d7 65 3d 88 84 79 bc f4 8c 3c be
       -0.14663334 0.056113686 -0.015229352 -0.18413144
0002c0 45 9c af 3e 16 55 64 be d7 0e 6f 3e 4a 58 69 3e
       0.34298912 -0.22298083 0.23345505 0.22787586
0002d0 12 d1 9b be 5a ff 6b be fd 47 6d be 32 4e 85 3e
       -0.30432945 -0.23046628 -0.23171993 0.2603622
0002e0 3e 99 9f be 94 52 9a 3a 68 7e e4 bd ec ce b6 bd
       -0.31171602 0.0011773878 -0.111569226 -0.08926186
0002f0 b0 c8 59 be 4f 22 99 be f5 3a 9d be ed ae 0e bd
       -0.21267962 -0.29908988 -0.30709043 -0.03483479
000300 6c ea 0c 3c 81 6d 9e 3d 3b 79 c3 3d 42 95 13 be
       0.008600812 0.0773573 0.09544607 -0.14412406
000310 a2 17 50 3e 05 3f 50 3e 03 a6 8d be 3b 69 a6 3e
       0.20321515 0.2033654 -0.2766572 0.3250216
000320 2e 4b be bc 13 9c 90 bb 65 39 ae be cc 3e 31 3e
       -0.023229208 -0.0044131367 -0.34028164 0.17309111
000330 e1 8c 16 3e c5 5b a6 3d a9 90 2a 3e 3e 07 a0 be
       0.14702179 0.081229724 0.16656746 -0.31255525
000340 8c 8e b1 3e dc 1a 6e 3e 34 45 bd bd 16 54 43 3e
       0.34679067 0.23252434 -0.09241715 0.19075045
000350 1c ee f8 bd a1 de df bd 53 69 22 bb 8c 69 61 3e
       -0.12154791 -0.10931135 -0.0024782016 0.22012919
000360 df 3c 45 3e 8d bf 05 be de 3f 9b be fa 99 8c bc
       0.19261502 -0.13061352 -0.30322164 -0.017163265
000370 8a 5e 26 be 0d 6b 9e bc 9e 91 2c 3e 1b 42 73 3e
       -0.16247001 -0.019338155 0.16852424 0.23755686
000380 b5 e1 88 3c 00 4a 22 3e ca 22 7c 3d 14 92 36 be
       0.016709188 0.15848541 0.061556615 -0.17829162
000390 d5 fb 56 3e c1 11 74 be 8a 41 55 bc 6f fd 29 be
       0.20994504 -0.23834898 -0.013016114 -0.16600583
0003a0 6c 4b 4b 3c b5 09 93 3e 8b 97 f1 3d 22 2b e6 bc
       0.012408119 0.28718343 0.11796483 -0.02809674
0003b0 47 69 a2 be fe 85 86 be 98 41 af bd d1 0a 30 be
       -0.31720945 -0.26274103 -0.08557433 -0.17191626
0003c0 90 9b 8a 3d f3 5a aa be 04 b9 ad 3e 49 57 bb bd
       0.067679524 -0.33272514 0.33930218 -0.09147508
0003d0 ed 9b 64 3e f1 d1 7a 3e 25 e1 93 3e e4 c1 4c bd
       0.22325106 0.24494149 0.2888271 -0.049989596
0003e0 3f 94 b2 3c 92 63 39 3e 92 7b 8a be 46 77 e5 bc
       0.021799205 0.1810439 -0.27047402 -0.028010976
0003f0 f8 36 0c 3e b6 78 c6 bc 2c e0 82 be d2 6e 53 3d
       0.13692844 -0.024227481 -0.25561655 0.05161936

actor.customer_encoder.0.attention.value_embed.weight f4 [32, 32]
000000 c2 70 7d 3d 91 1f a9 3e 02 2b e6 3d 34 5d 05 3e
       0.061875112 0.33031896 0.11238672 0.13023835
000010 a3 e6 aa be 46 88 11 3e 94 09 42 3e 01 04 de bd
       -0.33379087 0.1421214 0.18948966 -0.108406074
000020 69 8b 61 be 0f cb 2f bd be b0 9b be f2 8c a6 3e
       -0.22025837 -0.04291826 -0.3040828 0.32529408
000030 2f 7c 5b be 31 ec a2 3e 60 95 b3 be 88 c9 66 3e
       -0.21434091 0.31820825 -0.35074902 0.22537816
000040 4b 54 17 be 3d 68 8b be f0 a2 cb 3d a7 a9 a6 3e
       -0.14778249 -0.27227965 0.09943187 0.3255131
000050 27 96 2c be b0 49 4b 3d 51 19 6d be 40 e7 6b 3e
       -0.16854154 0.04963082 -0.23154189 0.23037434
000060 33 f5 a2 3e 5c 62 c5 bd 2a 6d ad 3e 01 5e 3b 3e
       0.31827697 -0.09637901 0.33872348 0.18297578
000070 cc 70 43 3d 89 c2 1b be 1e a3 79 3e 47 fc 94 3c
       0.047714993 -0.15210928 0.2437863 0.018186701
000080 0d 1d 19 be df 13 b2 be 0c 73 af be 6e 79 b4 3e
       -0.14952488 -0.34780785 -0.3426746 0.35248893
000090 f3 53 3f be ee 0c 87 be 58 8d 65 3e c8 21 cf bd
       -0.18684368 -0.26377052 0.224172 -0.10113865
0000a0 ce fa 86 be ae 2d 92 3d 93 0c 56 bd bd ad 0b 3e
       -0.26363224 0.07137619 -0.052258085 0.13640495
0000b0 c4 31 a8 3e f1 47 b6 bd 54 30 4e 3e 32 4f ca bd
       0.32850468 -0.089004405 0.20135623 -0.098783866
0000c0 ce d8 ee bd 88 7c f1 3d 60 d7 a1 bd 0b 85 c2 3d
       -0.11662446 0.117913306 -0.07902408 0.09498032
0000d0 a4 3e a1 3d c1 f7 90 be e1 b5 a9 bd 33 56 a3 3e
       0.07873276 -0.2831402 -0.08286644 0.31901702
0000e0 3e 44 0e bb 32 9c ab 3e 43 cd 88 3e 6a 33 cb bd
       -0.0021708156 0.33517605 0.26719102 -0.09921916
0000f0 cf bd 23 be d1 da ee 3d 23 23 6f bd 97 f0 3a bd
       -0.15990375 0.1166283 -0.05838312 -0.0456396
000100 63 fe c5 bc c1 d0 69 be 52 e6 63 3e 87 78 0d be
       -0.024169153 -0.2283354 0.22255829 -0.13815509
000110 d0 6d 93 be b9 64 8d be 61 f6 66 be 5d 89 85 3d
       -0.28794718 -0.27615908 -0.22554924 0.065203406
000120 ef 4c ae be 15 bd 05 3e 7f 06 5f be d0 58 2c bc
       -0.3404307 0.1306041 -0.21779822 -0.010519221
000130 89 63 af bd 95 ed d8 bd b8 9d 69 3e 43 06 f7 bd
       -0.08563907 -0.1059219 0.22814071 -0.12061741
000140 dd c6 f6 3d d1 6a 76 3e 47 da 32 3e 0f 09 1a 3e
       0.12049649 0.24064185 0.17466079 0.15042518
000150 14 c2 07 bd f6 d4 3b be 2e a7 85 be bd f1 ab 3e
       -0.03314407 -0.18342957 -0.2610411 0.3358287
000160 96 3c a4 be 2d d5 b0 bd 00 58 99 3e e7 a7 89 bd
       -0.32077473 -0.0863441 0.2994995 -0.06721478
000170 8b 04 98 be 31 31 b2 3e db 72 ba bd 92 3a 17 3e
       -0.29690966 0.34803155 -0.09103938 0.14768437
000180 61 b0 24 3e 23 96 e6 bd d4 68 af be 1f 06 4e bd
       0.16082908 -0.11259105 -0.34259665 -0.050298806
000190 bd a9 8f be 43 e0 31 be 0d 46 98 be 96 d6 28 3e
       -0.28059188 -0.17370705 -0.29740945 0.16488108
0001a0 e1 d9 7e be 40 6d 30 3e e1 3c 98 3e e2 79 34 3e
       -0.24887802 0.17229176 0.29733947 0.1762462
0001b0 6c 13 57 3e be f8 75 3d dd 4e 72 3e b4 32 aa 3e
       0.21003503 0.060051672 0.23662896 0.33241808
0001c0 28 6b 9a 3d bf d7 19 3e 0c 2a 64 3e cb 5c 2f b9
       0.0753997 0.15023707 0.22281665 -0.00016723869
0001d0 b9 9b 9b 3e b9 4d af 3d f6 b9 5c be a3 76 89 be
       0.30392244 0.08559746 -0.21555313 -0.26848325
0001e0 ce 42 b8 3d f6 0e 8f be 77 59 a3 be b4 34 a8 3e
       0.08997117 -0.27941102 -0.31904194 0.3285271
0001f0 21 a2 88 3e a9 c3 c3 bd 73 77 34 3e 74 11 f5 3d
       0.26686195 -0.095588036 0.17623691 0.119662195
000200 d0 60 a7 3e 10 d7 dc 3d eb 8c 27 3e 43 74 81 be
       0.3269105 0.107832074 0.1636235 -0.25284013
000210 37 54 ef 3d 38 77 8b be 9c 48 8a be c8 4e 47 3e
       0.116859846 -0.27239394 -0.27008522 0.19463646
000220 60 2d 31 be 4d 3b 8c 3e 4a e2 b6 bd 71 21 3c 3e
       -0.17302465 0.27388993 -0.0892988 0.18372132
000230 4c ae a8 3e b7 2f 3c 3d 89 62 a4 3e ce 0d 64 be
       0.32945478 0.045943942 0.32106426 -0.22270891
000240 36 0d 40 3e f9 91 e3 3d ff ba 89 3e 87 84 a6 3e
       0.1875504 0.111118264 0.2690048 0.32522985
000250 25 79 96 bd b7 79 9b 3d d1 b6 36 be ce a6 19 3e
       -0.07347325 0.07591575 -0.17843176 0.15005037
000260 53 dd b5 ba 5d d4 26 be 71 0e 48 be 0e 90 b4 3d
       -0.0013875164 -0.16291948 -0.19536759 0.08816539
000270 d0 2f a1 3e ed 3b a0 be 75 c2 69 3e 3e b7 7e 3e
       0.3148179 -0.3129572 0.22828086 0.24874589
000280 ae 83 9c be b5 2a 25 3e 36 18 00 3d 60 cb 88 3e
       -0.30569214 0.16129573 0.03127309 0.26717663
000290 5e 0e 99 3e 3e 07 4b 3e 96 83 0d be d0 31 9e be
       0.29893774 0.19826981 -0.13819727 -0.3089738
0002a0 77 b9 7c 3e e9 5e 49 3a fb 32 13 3e 25 5b e4 3d
       0.24680124 0.0007681684 0.14374916 0.11150197
0002b0 ee fd 3f 3d 8c 00 89 3e 31 3c b5 bd cb 5e 12 3e
       0.046873026 0.2675823 -0.08849371 0.14293973
0002c0 eb 0c 28 3e a8 65 24 be 94 6a 1b 3e 2e c1 cd 3c
       0.16411178 -0.16054404 0.15177375 0.02511653
0002d0 47 e7 b3 be 07 3e 48 3e 32 f9 9f be 95 01 24 3e
       -0.35137388 0.19554912 -0.31244808 0.16016228
0002e0 31 c2 26 be 4c 0b 30 be aa ff 4a 3e 0b df 71 bc
       -0.16285016 -0.1719181 0.1982409 -0.01476265
0002f0 19 33 84 be 73 04 fb 3d c4 3d 47 be f9 2b a5 be
       -0.25820234 0.12256708 -0.19457155 -0.3226011
000300 09 9f 91 3e c6 b0 98 be ef 43 1a be 4b 64 5a be
       0.28441647 -0.29822367 -0.15064977 -0.21327321
000310 95 4d 8a 3e 67 95 02 bd 1d 33 97 be e9 79 54 3e
       0.27012315 -0.031880762 -0.29531184 0.2074963
000320 42 00 88 3e 93 08 df 3d 96 fe 1f bd 4e 17 ae be
       0.26562697 0.10890307 -0.03906115 -0.34002155
000330 01 95 5e bd b9 a6 46 3e 24 24 76 be 7f 5d b2 be
       -0.05434132 0.19399537 -0.24037224 -0.34836957
000340 7b c6 23 bb 27 e8 67 3d 2d d8 0d be 79 7e 15 be
       -0.002499013 0.056617882 -0.13851996 -0.14599027
000350 bb 65 8c be e5 2d 5b bd cc 65 a8 3e d8 c0 96 3e
       -0.27421364 -0.053510565 0.32890165 0.29444003
000360 f0 44 71 3d db 65 9a 3a 7a b6 a1 3e 67 02 58 3d
       0.058903635 0.0011779623 0.3158453 0.052736666
000370 e2 d7 47 bd 52 85 80 be 1a 35 a7 3e f6 db ac be
       -0.048789866 -0.25101715 0.326577 -0.33761567
000380 4f 23 fd bd 4c 04 9e 3d 2e dc 30 3d a3 86 ec bd
       -0.1236025 0.07715663 0.04317873 -0.115491174
000390 8e 9c a8 be 01 7c 10 3d 83 0e ae bd fe c4 7d be
       -0.32931942 0.03527451 -0.08498862 -0.24782178
0003a0 93 92 60 be 40 d3 30 be 9a 78 a7 be c5 a9 2f 3e
       -0.21930914 -0.17268085 -0.327092 0.17154606
0003b0 ee d1 ab bb b4 b5 9c be a9 de 37 3e 5b 12 8a 3e
       -0.0052435314 -0.30607378 0.17956032 0.2696713
0003c0 26 6e a1 3d 89 14 f3 bd bf 43 e8 bd 91 22 ea 3d
       0.07882337 -0.11869151 -0.113410465 0.11432374
0003d0 fa f5 aa 3e 43 1b 10 3d 10 e2 09 be a0 23 45 bd
       0.3339079 0.03518225 -0.13465142 -0.048129678
0003e0 d4 cb 0a 3e 10 ef 9d 3e 91 5f ad 3e 39 7b b4 3e
       0.13554317 0.30846453 0.33861974 0.3525026
0003f0 a3 3a 78 be ee 8d 70 3d 13 d4 9a 3c 33 39 95 3d
       -0.24241118 0.058729105 0.018899953 0.072863005

actor.customer_encoder.0.attention.combine.weight f4 [32, 32]
000000 c8 c6 0f bd a9 87 0d be ea b7 93 3d 7f 7e fa 3d
       -0.035101682 -0.13821281 0.07212813 0.122311585
000010 7f dd 21 3d 58 e3 41 3c ca 99 12 3e f7 29 8f bd
       0.039517876 0.011833988 0.14316478 -0.06990426
000020 c5 52 d6 bc 39 59 5a 3d 6d a4 d5 bd 23 eb 12 be
       -0.026162514 0.053307746 -0.10431752 -0.1434751
000030 0c 8b 09 bd 43 3b d6 3d 2e 28 aa bd f7 95 74 3d
       -0.03357987 0.10460522 -0.08308445 0.05971333
000040 3a fc b9 3a 7e e5 28 3e 6f 8e dd 3d 8d 3a b7 bd
       0.0014189549 0.16493794 0.10818183 -0.089467146
000050 55 98 32 be 16 ac c5 3d 47 b4 34 be 2c 41 f0 bd
       -0.17440923 0.096519634 -0.17646895 -0.117311805
000060 c6 c1 26 3e 2d 2b 34 3d dd 80 3d 3c ea 0a 01 be
       0.16284856 0.043986488 0.011566368 -0.1260182
000070 06 fc db bc 30 fa 96 3c 78 a3 c1 3d 69 00 97 bd
       -0.026853573 0.018429846 0.09455007 -0.07373125
000080 26 a0 f5 bc 3f 4a 03 3d c6 7f 35 be f8 06 5a bd
       -0.029983591 0.03205323 -0.17724523 -0.053229302
000090 a6 2f 22 be b4 b2 8f bd 48 ab d2 bd 2c e2 a9 3d
       -0.15838489 -0.07016507 -0.102865756 0.08295092
0000a0 b3 e5 ed bd e7 d8 26 be d3 5c 92 bc 17 71 a5 bd
       -0.11616077 -0.16293679 -0.017866528 -0.08078211
0000b0 e1 20 c3 bd 13 78 0f bd 30 42 8e 3d 6b ec 20 be
       -0.095277555 -0.03502662 0.06946218 -0.15715186
0000c0 ec 75 ff bd b9 b5 cf 3c 0d e0 a7 3d 44 ad 13 3c
       -0.12473664 0.025355207 0.08197031 0.009013478
0000d0 1f 04 31 3e 15 5e b5 3d f4 b6 fa bd 16 63 c1 3d
       0.17286728 0.08855835 -0.12241927 0.09442727
0000e0 23 b3 a4 bd 75 11 00 3e ca 10 3d bd 93 ad 0f 3e
       -0.0804198 0.1250666 -0.04615859 0.14031057
0000f0 0b 64 0c bd a8 69 25 bd 1b 1a 01 be c9 63 3a 3e
       -0.034275096 -0.040383965 -0.12607615 0.18202128
000100 30 a1 dc bd bf 15 a0 bd 93 3d b8 bd b1 b6 3c be
       -0.107729316 -0.07816648 -0.08996119 -0.18429066
000110 87 b3 b2 bd d6 cb 1e 3e 56 08 e3 3d 3b 41 3b 3d
       -0.087256484 0.15507445 0.11085574 0.045716505
000120 7e 59 7c bd 31 51 88 3c 09 03 2b bd a7 a3 1b be
       -0.061608784 0.016640278 -0.04175094 -0.15199147
000130 22 20 04 3e a1 49 b4 3d 54 b2 1c 3e fb 7e 21 be
       0.12902883 0.08803106 0.15302402 -0.15771095
000140 9b 69 09 3d 1d 7d b8 3d 8f dc b3 bc 0c 30 b2 3d
       0.03354798 0.090082385 -0.021955756 0.087005705
000150 ab 7b c5 3d b7 aa bc bd f0 e5 03 3e d5 80 3f 3d
       0.096427284 -0.09212249 0.12880683 0.046753723
000160 ec 5f c8 bc 17 89 89 3d 27 ab 05 3e 92 ae 29 3d
       -0.024459802 0.06715601 0.1305357 0.04142625
000170 43 b8 b9 3d a9 dd 03 be 59 37 b8 bd 5c e2 da bc
       0.09068348 -0.12877525 -0.08994932 -0.026719265
000180 e0 04 c2 3d cd 1b d7 3d aa 72 29 bd 64 f9 3f bd
       0.09473586 0.105033495 -0.041369118 -0.046868697
000190 da b7 06 bd 48 cd 81 bd 29 9c 1a 3e ef d1 c5 3d
       -0.03289018 -0.063379824 0.15098633 0.09659182
0001a0 2e ee cd 3d 85 54 8d bd 5e bc 65 bd a9 08 1e be
       0.10055195 -0.069008864 -0.056087844 -0.15432991
0001b0 4d 8d 17 3e 33 0b 94 bd 55 82 99 bc 09 78 dd bd
       0.14799996 -0.072286986 -0.018738905 -0.108139105
0001c0 e3 18 46 3d 1d 12 9f 3d 11 56 36 be 9c 61 12 3e
       0.048363578 0.07767127 -0.17806269 0.14295048
0001d0 5f 8d 53 3d c8 89 a7 3d ca 35 16 be ba 91 6f 3d
       0.051648494 0.081805766 -0.14668956 0.058488585
0001e0 bb 8a 2b 3e 30 00 05 3e b9 8a be bd 7a 30 c9 3c
       0.1675214 0.12988353 -0.09303803 0.024559248
0001f0 01 d2 ed bd fb 68 61 3d 54 f6 91 3d a4 fe ae 3d
       -0.11612321 0.055031758 0.071270615 0.085446626
000200 e7 c3 15 be 6b 0b b2 3d df bb fc bb 69 e0 f8 bd
       -0.14625512 0.08693584 -0.0077128257 -0.12152178
000210 3f c1 91 bd 0b 2c 21 3e 3a 1d 0c be fb ea e1 3d
       -0.07116937 0.15739457 -0.13683024 0.11031147
000220 75 90 28 3e 3b 39 f6 bd 9a 99 22 be d4 96 00 be
       0.16461356 -0.120226346 -0.15878907 -0.12557536
000230 48 84 a2 3b 29 16 20 be ef d5 08 3e da ab 18 3e
       0.004959617 -0.15633453 0.13362859 0.14909306
000240 57 39 4b bc 41 53 c2 3d dd bc 03 3e 71 a9 5d 3d
       -0.012403808 0.09488536 0.12865014 0.05411667
000250 86 7e a3 bd b4 31 bf 3b 13 7e 11 3e be d5 5d bd
       -0.07983117 0.0058347825 0.1420825 -0.05415892
000260 3d e9 bd 3c 87 f3 3d bc 64 18 68 bd 24 04 11 bd
       0.023182506 -0.011593706 -0.056663886 -0.03540434
000270 48 1c af bd ac a4 4d bd e1 46 2b 3e 2e a2 1a bd
       -0.08550316 -0.05020587 0.16726257 -0.037752323
000280 61 3d bb bc 21 01 1d 3e 49 dc 73 3d d1 63 05 be
       -0.022856416 0.15332462 0.059536252 -0.13026358
000290 5f bc 51 bd 87 ef 89 bd 0c d6 b6 bd 43 7b 16 be
       -0.051205035 -0.06735139 -0.08927545 -0.14695458
0002a0 69 e5 b0 3d ef cc 0b 3e c7 03 10 be 12 1f 33 3e
       0.086375065 0.13652395 -0.14063941 0.17492321
0002b0 9f 2a ac 3d 7d e7 22 3e 22 72 0a be 03 09 5e 3d
       0.08406567 0.15908618 -0.135201 0.054207813
0002c0 c2 51 01 3e 7d 21 d0 3d 5e a2 59 bd 99 41 f5 3d
       0.12628844 0.101626374 -0.05313336 0.119754024
0002d0 ef 22 c2 3d de 79 ea bd 42 43 c1 3d bb 0c a9 bd
       0.09479319 -0.114490256 0.094366565 -0.08254381
0002e0 e4 fe 13 3e e7 50 6a bd 26 b2 e2 bd 9d 82 a2 3d
       0.14452702 -0.05720606 -0.11069135 0.07935069
0002f0 91 e6 cc bd f5 f9 8b bd 61 7b ea 3d 50 92 2a 3e
       -0.100049146 -0.06834785 0.11449314 0.16657376
000300 51 ee 74 3d 18 ec 1f 3e 3f 76 81 3d 92 32 bc bc
       0.05979759 0.15617406 0.06321382 -0.022973333
000310 9b e8 7a bd 1d cb 44 bd 04 08 74 3b e0 8b 9f bc
       -0.061256986 -0.048045266 0.0037236223 -0.019475877
000320 51 a5 1f 3d 2c c3 47 3d 69 f9 e5 bd b6 ae c4 bd
       0.038976017 0.048770115 -0.11229212 -0.09603636
000330 ee e4 14 3e ed b3 98 bd 97 56 ba 3d 8b 78 28 3e
       0.14540455 -0.07456193 0.09098547 0.16452233
000340 b7 6a 22 be 56 70 04 3d 19 cc 2d 3d 6f f0 e2 bd
       -0.15861021 0.032333694 0.04243097 -0.11081015
000350 a4 f8 38 bd 85 60 a3 bd 45 da 2f be a3 b3 6e bd
       -0.045158997 -0.07977394 -0.17173107 -0.058276784
000360 9f f2 29 3e 9c 34 2d 3e 78 2b da bd b0 3a 70 bd
       0.16596459 0.169146 -0.10652822 -0.05864972
000370 e7 1b b6 bd aa 35 f8 3d 3f 31 13 be 00 27 67 bd
       -0.08892041 0.121196106 -0.14374255 -0.056433678
000380 c2 59 6e bd 7c 36 9d bd c1 b6 1e 3e 3b 65 1b be
       -0.05819107 -0.07676408 0.15499403 -0.15175335
000390 b8 cd 05 be a9 d0 1e be f9 69 a4 bd 2c 55 b4 3d
       -0.13066757 -0.15509285 -0.08028025 0.08805308
0003a0 1a 71 c6 3c 2b cb 49 bc c2 b1 0d 3e a8 f6 eb 3d
       0.024223853 -0.012316505 0.1383734 0.11521655
0003b0 c3 e4 1e 3d 46 ba 0c 3d de c7 80 bd 4a 13 2c be
       0.038792383 0.03435733 -0.06288122 -0.16804233
0003c0 52 77 e3 3c e1 58 1f 3e 3e 42 0b 3e 73 ad 59 bc
       0.027766857 0.15561248 0.13599488 -0.013285982
0003d0 28 eb f9 bb a6 39 25 3e 52 15 40 be a2 75 13 3e
       -0.0076269098 0.16135272 -0.18758133 0.14400342
0003e0 e0 3c 25 3e cf 2c cf 3d 4a 5c aa 3d 48 4b 15 3c
       0.16136503 0.101159684 0.08318384 0.009112187
0003f0 7b 39 5d 3d be da bc bd 61 f1 de bc 77 34 fb bd
       0.054009896 -0.09221409 -0.027214708 -0.12265866

actor.customer_encoder.0.BN1.weight f4 [32]
000000 a0 36 80 3f 38 72 80 3f 8d 74 80 3f ca 77 7d 3f
       1.001667 1.0034857 1.0035568 0.9901091
000010 4e 46 80 3f 50 e6 7f 3f 6f 62 7f 3f 10 ab 81 3f
       1.0021455 0.99960804 0.9975957 1.0130329
000020 df d5 7e 3f f1 2f 7d 3f bd 45 80 3f a1 19 80 3f
       0.9954509 0.9890128 1.0021282 1.0007821
000030 bf c6 7f 3f 5e e8 81 3f 36 b0 7a 3f 32 b5 80 3f
       0.9991264 1.0149038 0.97925127 1.0055296
000040 30 2a 7e 3f 62 66 81 3f 75 21 82 3f fe 04 80 3f
       0.99283123 1.010937 1.016646 1.0001523
000050 62 9d 7c 3f a5 77 7e 3f d5 43 7f 3f a7 49 7e 3f
       0.9867765 0.99401313 0.9971288 0.99331135
000060 a8 a6 80 3f fb 61 7f 3f 78 2d 7e 3f e4 5c 80 3f
       1.005086 0.9975888 0.9928813 1.0028348
000070 f9 f0 7f 3f cd 3c 7f 3f 41 7d 81 3f 52 db 80 3f
       0.9997707 0.9970215 1.011635 1.0066931

actor.customer_encoder.0.BN1.bias f4 [32]
000000 0c 21 1e bb 84 84 47 bb 60 af 12 bc f0 30 0a 3b
       -0.0024128584 -0.0030443976 -0.0089529455 0.0021086298
000010 37 dd e8 bb 92 74 80 ba 5f f9 95 39 fc a2 18 3c
       -0.007106449 -0.0009800366 0.0002860529 0.009316202
000020 1c 8e ad bb dc 46 69 bc 3d c9 85 bc 00 57 44 bb
       -0.005296482 -0.014238086 -0.01633131 -0.0029959083
000030 7e ea 15 bc fd 48 86 3b 0e 52 1d bc 6b 2e 50 3c
       -0.009150146 0.0040980563 -0.009602083 0.012706379
000040 36 dc 2d 3c 85 20 5b 3c 66 fc 04 bc 03 ba d7 3b
       0.010611584 0.0133744525 -0.008116817 0.0065834536
000050 c8 f6 7c bb d2 44 6a 39 80 06 15 3c d3 9f e8 3b
       -0.0038599242 0.00022341617 0.009095788 0.0070991307
000060 e1 ae 84 3c 2a fd 50 bb b4 3b 24 bc 54 6c 8f bb
       0.01619667 -0.0031889179 -0.010024 -0.0043769274
000070 07 96 17 bc 0d e1 74 bb 71 9d 31 3b 91 72 f1 b9
       -0.009252078 -0.0037365586 0.00271019 -0.0004605246

actor.customer_encoder.0.BN1.running_mean f4 [32]
000000 9a 00 4f 3f 84 1b ae be eb 00 00 3f 16 41 16 3f
       0.8086029 -0.34005368 0.500014 0.58693063
000010 32 44 3b bf 8e c8 e6 3e e5 2f 5e 3e 42 24 02 3e
       -0.7315093 0.45074886 0.21697958 0.12709144
000020 51 ae c5 be 03 ac 8f 3e c9 a0 48 be e7 9b aa 3e
       -0.38609555 0.28060922 -0.19592585 0.3332207
000030 49 64 1e bf 90 6e 90 3f 71 ec 2a 3f ea 27 c3 3e
       -0.61871773 1.1283741 0.6676703 0.3811639
000040 ff 90 4a bd 80 e2 d2 be 3d 34 6f 3d 72 4a 06 3e
       -0.049454685 -0.4118843 0.058399428 0.13114336
000050 a5 84 b7 be ff ed 3c bf 17 51 02 bf bb 4c f5 be
       -0.35843387 -0.73800653 -0.50904983 -0.47910103
000060 1b 0b 73 3e 42 c3 4c 3d f2 9d 09 3e 5d e5 bc 3e
       0.23734705 0.0499909 0.13439158 0.3689374
000070 4f 5c 13 3e 60 5c 38 be 1e e7 68 3d f5 69 57 3b
       0.14390682 -0.18003988 0.056861036 0.0032869552

actor.customer_encoder.0.BN1.running_var f4 [32]
000000 c3 52 a7 3c 9d e5 3d 3b 73 e8 17 3d 92 2d 8d 3c
       0.020425206 0.0028975972 0.037086915 0.017233644
000010 ee 74 04 3d c1 51 01 3d ca 95 71 3c c7 d7 2e 3b
       0.032338075 0.031572107 0.014745185 0.0026678906
000020 93 7b 34 3c 13 a9 3f 3b a7 df d5 3c 29 2b 68 3c
       0.0110157905 0.0029245063 0.026107622 0.014170446
000030 c0 35 a7 3c 84 ac 6a 3d 8b c6 3d 3c 3b 02 2c 3c
       0.020411372 0.05729343 0.011582981 0.010498579
000040 c2 5b c2 3b 9e 1e 0c 3c d2 89 34 3c 85 78 f4 3b
       0.0059313485 0.008552222 0.011019187 0.007460656
000050 5b 02 12 3c 24 7d 0e 3d 91 4e 44 3c 60 d0 d7 3b
       0.008911694 0.034787312 0.011981622 0.0065861195
000060 b1 c3 7d 3c f4 a7 03 3b f0 96 81 3c 83 80 78 3c
       0.015488551 0.0020089122 0.015819043 0.015167358
000070 80 37 20 3d 64 15 8a 3c b3 b3 91 3b ed b3 53 3c
       0.03911543 0.016855903 0.0044464706 0.012921316
