output/282nodes_entropy0.01_0.4_0.85_2_230823/epoch4.pth (torch, 514363 bytes, 129 tensors)

critic.ff_layer1.weight f4 [32, 283]
0.0750949 0.07103065 -0.000617442 0.061898865 -0.0028336495 0.0189604 -0.012696314 0.045078326
0.06215678 -0.02689405 0.054690156 0.012993595 0.048062976 0.02363543 0.03932274 0.0042013745
0.06381969 0.020209651 -0.01740482 0.03223741 -0.020497503 0.010488017 -0.00532378 0.052272968
-0.031202905 -0.013087478 -0.0062299776 -0.020475626 0.016148929 -0.043952577 0.061364196 -0.042337064
0.051938523 0.022302054 -0.013473928 0.04205391 0.021544842 0.061333887 0.01696491 -0.012013411
0.021306394 -0.007139755 0.030840762 0.05718322 0.03988596 -0.01572766 0.0425466 0.01655566
0.039035182 -0.021131134 -0.046420515 -0.012388515 -0.03239042 0.052940596 0.023821771 0.034296308
0.03088507 0.013313202 0.063667834 -0.02589649 0.020677825 -0.02732337 0.03227568 -0.014419405
0.031700626 -0.002836014 0.049750846 -0.013370276 -0.032053944 -0.02222703 0.06797591 0.023714049
0.06335441 -0.033553854 -0.042262826 -0.03399504 -0.018131461 0.030962177 0.028899467 0.054266647
-0.018974867 -0.02278015 0.03086205 -0.014324287 0.040538494 -0.003934748 0.042859614 -0.03615782
-0.015926698 0.024405759 0.025109364 -0.007777746 0.0443917 0.047382947 -0.029714994 -0.027034115
0.054411355 -0.01700386 -0.004937788 -0.042261086 -0.021026568 0.021665888 0.0025221421 -0.03368735
0.02281092 -0.033519015 -0.039380327 -0.017935796 -0.044338457 -0.029459525 0.06866006 0.030388277
0.033666853 -0.04135891 -0.02432038 -0.0065897387 0.014588934 -0.037705485 -0.0071108877 -0.02345205
0.013608003 -0.003742055 0.008362666 -0.031589482 -0.02198526 -0.017676784 -0.010142247 -0.027389472
0.05564117 0.011029485 0.057465564 0.026744235 -0.036726702 0.050691772 -0.009717941 -0.006254998
-0.026416 -0.040755693 0.022408018 -0.00081448804 0.032233022 -0.03725384 0.057041842 -0.021330126
0.00016956188 0.026707679 0.037718188 0.05574804 0.06142212 -0.029570771 0.024057077 -0.020768434
0.012085903 -0.032012917 0.06249353 -0.0259234 0.047189094 0.023594858 0.033168186 -0.014434421
0.057439923 0.012950874 0.015352279 -0.03604774 0.030960975 0.008027768 -0.013991694 0.060648173
0.03073064 -0.020766463 -0.020075666 0.0057765874 0.04757813 -0.0046088067 -0.019026604 -0.012150941
-0.034504052 0.024766637 0.054488197 -0.041274197 0.022384098 0.04255041 0.015406337 -0.0039401227
0.040935956 0.047564294 0.030455802 0.010479604 -0.0060293037 0.017415602 -0.0016022251 -0.0070904815
0.05275664 0.054277685 0.0029123253 0.0030302072 0.007909462 -0.00011065494 0.03173455 0.026820764
-0.03494289 -0.011036646 0.058888804 0.03119898 0.0075793527 -0.026080497 -0.018632771 -0.036257464
-0.0015561462 0.027987693 0.04345221 0.039205626 -0.036522646 -0.02334886 0.0050039045 0.058609746
0.018336168 -0.010675665 0.03186407 -0.0066771586 -0.02346266 0.05216505 -0.016337829 0.0016605988
-0.04705983 0.04555255 0.05028138 0.032022025 -0.02548339 -0.047869507 -0.02849207 0.05100222
0.02948526 0.05909559 0.0350023 0.01824497 0.01211654 -0.026232017 -0.031886898 -0.04911954
0.03998169 -0.020087745 -0.004231213 -0.026609924 1.9856956e-05 -0.024893548 -0.032551475 0.025538573
-0.003800557 0.041373942 -0.007104401 -0.033364676 -0.0009455673 -0.017012719 -0.009383431 -0.041870084
00000000: 5bcb 993d 8478 913d d5db 21ba aa89 7d3d
00000010: c0b4 39bb d752 9b3c 3304 50bc 0da4 383d
00000020: 1c98 7e3d e950 dcbc c902 603d 16e3 543c
00000030: afdd 443d 179f c13c e210 213d afab 893b
00000040: e6b3 823d b68e a53c 8e94 8ebc 600b 043d
00000050: 61ea a7bc efd5 2b3c 1a73 aebb 2e1c 563d
00000060: 3c9d ffbc dc6c 56bc d724 ccbb 80bc a7bc
00000070: c24a 843c 9e07 34bd 0659 7b3d a169 2dbd
00000080: 7dbd 543d ccb2 b63c c0c1 5cbc b940 2c3d
00000090: cf7e b03c 3e39 7b3d fff9 8a3c e6d3 44bc
000000a0: bf8a ae3c 9bf4 e9bb c4a5 fc3c f438 6a3d
000000b0: 765f 233d 4bd7 80bc 5845 2e3d bc9f 873c
000000c0: 5be3 1f3d 331b adbc 7023 3ebd 33f9 4abc
000000d0: d1ab 04bd 3dd8 583d e025 c33c 497a 0c3d
000000e0: b002 fd3c 9e1f 5a3c 4864 823d e024 d4bc
000000f0: 8b64 a93c 43d5 dfbc 8133 043d 5e3f 6cbc
00000100: 84d8 013d 6bdc 39bb 8bc7 4b3d 010f 5bbc
00000110: ff4a 03bd 7615 b6bc f436 8b3d f743 c23c
00000120: f5bf 813d c46f 09bd c91b 2dbd 623e 0bbd
00000130: 6e88 94bc 64a4 fd3c 93be ec3c b446 5e3d
00000140: 2e71 9bbc 709d babc 69d2 fc3c 6ab0 6abc
00000150: b10b 263d 0fef 80bb 908d 2f3d 391a 14bd
00000160: b578 82bc 96ee c73c 27b2 cd3c 76dc febb
00000170: 12d4 353d 9f14 423d dc6c f3bc a676 ddbc
00000180: 71de 5e3d ae4b 8bbc 2bcd a1bb f619 2dbd
00000190: e93f acbc a97c b13c 864a 253b bffb 09bd
000001a0: f7dd ba3c 3c4b 09bd 444d 21bd 17ee 92bc
000001b0: 3e9c 35bd 1a55 f1bc a59d 8c3d d6f0 f83c
000001c0: 41e6 093d f667 29bd 893b c7bc bcee d7bb
000001d0: 6d06 6f3c 1171 1abd 7302 e9bb 831e c0bc
000001e0: 1af4 5e3c 443d 75bb 9003 093c f963 01bd
000001f0: 6f1a b4bc e7ce 90bc ab2b 26bc e35f e0bc
00000200: ffe7 633d 03b5 343c 0361 6b3d ba16 db3c
00000210: bd6e 16bd 2da2 4f3d 0038 1fbc baf6 ccbb
00000220: 5e66 d8bc 71ef 26bd 0591 b73c 5e83 55ba
00000230: c606 043d 7c97 18bd b5a4 693d 84bc aebc
00000240: 6ccc 3139 10ca da3c 637e 1a3d 0f58 643d
00000250: c395 7b3d 673e f2bc 5913 c53c 9022 aabc
00000260: f403 463c fa1f 03bd 37f9 7f3d 4f5d d4bc
00000270: 5a49 413d 014a c13c 5ddb 073d 5a7e 6cbc
00000280: 2046 6b3d e72f 543c 2088 7b3c cca6 13bd
00000290: dfa1 fd3c e686 033c 6b3d 65bc 386a 783d
000002a0: d3be fb3c 6e1e aabc b975 a4bc 8749 bd3b
000002b0: 49e1 423d 7905 97bb aedd 9bbc be14 47bc
000002c0: 1f54 0dbd 67e3 ca3c 042f 5f3d 220f 29bd
000002d0: db5e b73c 5749 2e3d dc6a 7c3c 251c 81bb
000002e0: 76ac 273d c7d2 423d 727e f93c a5b2 2b3c
000002f0: 7791 c5bb 2aab 8e3c c101 d2ba 4557 e8bb
00000300: 5917 583d 4752 5e3d b6dc 3e3b 7196 463b
00000310: b096 013c 6b0f e8b8 16fc 013d 38b7 db3c
00000320: 4720 0fbd 0cd3 34bc 6335 713d 0195 ff3c
00000330: 385c f83b c4a6 d5bc c1a3 98bc b582 14bd
00000340: 9af7 cbba 7246 e53c f2fa 313d 1496 203d
00000350: c598 15bd 1c46 bfbc cbf7 a33b c610 703d
00000360: bb35 963c fce8 2ebc e683 023d 11cc dabb
00000370: c434 c0bc 05ab 553d e9d6 85bc 73a8 d93a
00000380: cfc1 40bd 5095 3a3d d9f3 4d3d 8729 033d
00000390: 8bc2 d0bc d112 44bd 3468 e9bc b4e7 503d
000003a0: 128b f13c 380e 723d 925e 0f3d 7a76 953c
000003b0: 7484 463c 87e4 d6bc d69b 02bd 9231 49bd
000003c0: d7c3 233d 0e8f a4bc fda5 8abb 0efd d9bc
000003d0: 7d92 a637 8eed cbbc b254 05bd 4536 d13c
000003e0: c412 79bb b977 293d 09cc e8bb 66a9 08bd
000003f0: f3df 77ba 425e 8bbc f6bc 19bc f77f 2bbd

critic.ff_layer2.weight f4 [283, 32]
0.013010554 0.19738087 -0.021045174 -0.10880175 0.1392548 -0.023086261 0.13490319 -0.0015042339
-0.10020912 0.021840082 0.002885532 0.07158652 -0.11501274 -0.128543 0.014999992 0.25176623
-0.093725376 -0.06910022 0.063441925 0.17538112 0.26063555 -0.020490399 0.0021351615 -0.10904558
0.22457668 0.13000269 0.056871735 -0.15220872 0.111785956 -0.01930588 0.04048188 0.19582519
-0.009072155 -0.09333563 0.10893954 0.10601643 0.014700355 -0.111587055 -0.0948391 -0.15592031
-0.09492437 -0.15617123 -0.0216358 -0.12701385 0.10384843 -0.15164027 -0.11782721 -0.110667534
-0.04884331 0.07278448 0.117968954 0.1709615 -0.054648533 0.048352767 0.003924653 0.099324316
0.072269015 0.10325232 0.1213315 0.13721585 -0.002283043 0.112660855 -0.10443644 -0.046502277
-0.054386213 -0.054905243 0.01134956 -0.17031856 -0.09721817 -0.013782737 0.03721941 0.13293363
-0.11812706 0.049551867 0.07389812 -0.09752374 0.02852726 -0.089176096 0.004335114 -0.09824857
-0.047588192 -0.07244507 0.15536858 0.042310014 -0.16848525 0.029378116 0.093483746 -0.06812931
-0.10718311 -0.03128225 -0.15618014 -0.06789174 0.020355 -0.1367913 -0.16428922 -0.107089326
-0.12819372 0.0043589463 0.05577367 0.10256 0.1761167 0.09688644 -0.07803458 -0.029199978
-0.09331704 0.10142957 0.05016113 0.07498424 -0.12173746 0.13545118 -0.15780136 0.0823269
-0.15141715 0.1322532 -0.10147342 -0.13529749 0.07822042 0.15266846 -0.012851876 0.069870636
0.14828922 -0.14635058 0.06932764 0.02574957 -0.102884345 0.09684679 0.15357952 0.13021898
-0.12701166 0.13689728 0.14037211 0.06573382 -0.032941878 0.12951681 -0.12258466 -0.10164445
0.09469921 0.11641741 -0.021529987 0.16046198 0.09153523 0.077927954 0.13724074 0.16909933
0.112028085 0.12877743 0.008796405 0.13179205 0.08557769 -0.08455783 0.087588355 0.016170904
-0.063326076 0.12199363 0.048977572 0.1321055 0.027462503 0.05200544 0.10099981 -0.058125407
0.11070943 -0.09440597 -0.02754617 0.007989132 0.117281266 0.08098486 0.16759193 -0.09326749
-0.016163805 -0.017364064 0.13563521 0.16432755 0.04326924 -0.13192494 -0.12677972 0.03115155
-0.15707025 -0.06569042 -0.14062889 0.08695272 -0.021261424 -0.13221519 0.10459221 -0.14795369
-0.021671284 0.16985558 0.07607915 -0.14776812 0.016798625 -0.031553306 0.07866355 0.15241618
0.15031439 -0.024791677 0.07902109 -0.17438877 0.13027622 0.0839821 -0.124093 -0.048809666
-0.06608539 -0.09743746 0.07205334 -0.04819223 0.06983438 -0.061768577 0.13808165 -0.07475452
-0.030416377 -0.050223675 0.006759866 -0.07422981 -0.112457976 -0.16262054 0.117048174 0.030621426
-0.11598962 0.0893698 0.010983978 -0.06495808 -0.014187021 0.013499825 0.12361751 -0.1608604
-0.13365203 -0.13882717 -0.14500222 -0.0005739441 0.092836864 0.047731157 0.063554704 0.027006663
-0.00018152977 -0.15716751 0.16271703 0.16761485 0.004851852 0.026771666 0.036384877 0.17125224
0.0012758182 -0.027125029 -0.096395604 0.040932614 0.0738008 -0.14348638 0.05147511 0.039486367
0.07874854 0.08524253 -0.042996444 0.024411147 -0.11812174 0.104409 -0.14367469 -0.16259038
00000000: 382a 553c 361e 4a3e ee66 acbc 74d3 debd
00000010: cf98 0e3e 661f bdbc 1024 0a3e b729 c5ba
00000020: 703a cdbd f9e9 b23c 321b 3d3b f49b 923d
00000030: cd8b ebbd c7a0 03be 87c2 753c 81e7 803e
00000040: 17f3 bfbd 6b84 8dbd d7ed 813d 1c97 333e
00000050: 0672 853e 7bdb a7bc 11ee 0b3b 4a53 dfbd
00000060: 6ef7 653e 6d1f 053e 56f2 683d 9adc 1bbe
00000070: 09f0 e43d 5d27 9ebc 54d0 253d 6686 483e
00000080: 60a3 14bc c026 bfbd b21b df3d 241f d93d
00000090: c2d9 703c c187 e4bd 013b c2bd 93a9 1fbe
000000a0: b567 c2bd 5aeb 1fbe 903d b1bc eb0f 02be
000000b0: 7cae d43d 9647 1bbe 644f f1bd a9a5 e2bd
000000c0: ec0f 48bd 0810 953d b599 f13d 8810 2f3e
000000d0: 24d7 5fbd 8d0d 463d 609a 803b 8c6a cb3d
000000e0: c701 943d f475 d33d a67c f83d 5082 0c3e
000000f0: 1b9f 15bb bcba e63d c6e2 d5bd 2c79 3ebd
00000100: 14c4 5ebd 52e4 60bd 81f3 393c fd67 2ebe
00000110: 521a c7bd fdd0 61bc 6173 183d c11f 083e
00000120: 9aec f1bd e6f6 4a3d e657 973d 87ba c7bd
00000130: 00b2 e93c f5a1 b6bd 920d 8e3b 8c36 c9bd
00000140: d6eb 42bd 155e 94bd f118 1f3e 444d 2d3d
00000150: 6687 2cbe 60aa f03c 6874 bf3d 6187 8bbd
00000160: d282 dbbd d121 00bd b0ed 1fbe d30a 8bbd
00000170: 87bf a63c 0513 0cbe 6f3b 28be a651 dbbd
00000180: 3745 03be 7ed5 8e3b ef72 643d fa0a d23d
00000190: f057 343e 666c c63d 98d0 9fbd cb34 efbc
000001a0: 011d bfbd 4eba cf3d c275 4d3d 5691 993d
000001b0: 7d51 f9bd b7b3 0a3e ae96 21be 019b a83d
000001c0: 190d 1bbe 626d 073e 4cd1 cfbd 6d8b 0abe
000001d0: 0732 a03d 1f55 1c3e ad90 52bc 5618 8f3d
000001e0: 21d9 173e eddc 15be a6fb 8d3d c3f0 d23c
000001f0: 07b5 d2bd 9c57 c63d f343 1d3e 2058 053e
00000200: 580f 02be cd2e 0c3e b5bd 0f3e 749f 863d
00000210: 10ee 06bd 0ea0 043e ab0d fbbd f72a d0bd
00000220: a9f1 c13d 406c ee3d a85f b0bc 2550 243e
00000230: d376 bb3d b198 9f3d d688 0c3e 6028 2d3e
00000240: fb6e e53d 3bde 033e cc1e 103c 7ff4 063e
00000250: 5b43 af3d a82c adbd 8661 b33d d878 843c
00000260: 1ab1 81bd ccd7 f93d b59c 483d aa46 073e
00000270: 0bf9 e03c a803 553d fdd8 ce3d e814 6ebd
00000280: a0bb e23d eb57 c1bd 81a8 e1bc d9e4 023c
00000290: 2931 f03d 64db a53d 389d 2b3e 0703 bfbd
000002a0: f569 84bc 153f 8ebc f5e3 0a3e 7b45 283e
000002b0: 163b 313d 5517 07be 8bd2 01be 8931 ff3c
000002c0: 06d7 20be b388 86bd 0501 10be 4514 b23d
000002d0: 702c aebc 6b63 07be 7134 d63d 2c81 17be
000002e0: fa87 b1bc 9fee 2d3e 63cf 9b3d 8750 17be
000002f0: 459d 893c 0a3e 01bd 5b1a a13d fd12 1c3e
00000300: 04ec 193e ea17 cbbc cfd5 a13d f892 32be
00000310: 2167 053e cffe ab3d 7924 febd a5ec 47bd
00000320: c757 87bd 4b8d c7bd b490 933d 3765 45bd
00000330: 5405 8f3d 0c01 7dbd 4765 0d3e e618 99bd
00000340: c42b f9bc 57b7 4dbd de81 dd3b cc05 98bd
00000350: 5e50 e6bd 0086 26be f4b6 ef3d c9d9 fa3c
00000360: f78b edbd 8407 b73d 25f6 333c be08 85bd
00000370: ae70 68bc 5f2e 5d3c 2d2b fd3d 97b8 24be
00000380: 14dc 08be b628 0ebe 767b 14be bd74 16ba
00000390: 4121 be3d bf81 433d f828 823d 143d dd3c
000003a0: 0759 3eb9 85f0 20be 4b9f 263e 3aa3 2b3e
000003b0: 49fc 9e3b 4150 db3c 4f08 153d bf5c 2f3e
000003c0: 5b39 a73a 4f35 debc 0f6b c5bd f5a8 273d
000003d0: e024 973d 18ee 12be 91d7 523d 75bc 213d
000003e0: ea46 a13d a393 ae3d 0a1d 30bd e3f9 c73c
000003f0: d0e9 f1bd 63d4 d53d 751f 13be 187e 26be

actor.customer_encoder.0.attention.query_embed.weight f4 [32, 32]
0.30599588 0.053732082 0.111215666 0.3074577 -0.3151014 -0.11366108 -0.14828615 -0.22601275
0.22665337 0.22113635 0.27653974 0.34178683 -0.1797908 0.008659676 0.10039743 -0.10211674
0.20518531 0.3499565 -0.34763354 -0.069366366 0.20811628 -0.2624929 -0.072415255 0.21717687
0.09741339 -0.19297294 -0.08090666 0.008337496 0.34071967 -0.24166434 -0.018547587 -0.082518026
0.34999132 0.2698696 -0.03942072 -0.15773593 0.33692718 -0.02810902 -0.0855524 0.2811828
0.10063625 0.028091595 0.33159402 -0.17229481 0.2754488 0.1828028 -0.21846092 0.32999894
0.12581941 -0.24787527 0.29931405 -0.28416595 0.046589937 0.14874679 0.17707746 -0.32161847
0.32256755 0.3041391 0.21375713 0.13104826 -0.220964 0.25277603 0.032733195 -0.062967636
-0.107034355 0.034424983 -0.07405422 -0.26864767 -0.22991125 -0.12693453 -0.06804185 -0.19123179
-0.100976504 -0.26711914 -0.24920298 0.21441133 -0.108724885 -0.1120407 -0.0051285154 0.052935354
-0.23614985 0.16336995 0.14268261 0.15421718 -0.26240584 0.32126114 0.19072132 0.10337086
0.19306551 -0.19946264 0.13274692 0.31858438 0.15047364 -0.011088541 -0.3273518 -0.12930895
-0.23811662 0.32771483 -0.07781466 -0.10881338 -0.3394102 -0.31739515 -0.13819966 0.14722401
-0.054452688 0.19231784 0.31793737 -0.22792917 0.11538327 0.018437369 -0.31405765 -0.08025371
0.048591245 -0.12869911 -0.23138647 0.32458746 0.15683931 -0.3066705 -0.32344037 0.097365566
-0.18977623 0.079766154 0.13209349 0.030334711 0.19459686 0.16481476 -0.062456995 0.103943735
-0.08920424 -0.18704821 -0.35587612 0.15216364 0.28747135 -0.11368666 0.20855783 0.28032666
0.052532036 0.16278176 0.008336728 0.20241784 0.17483799 0.23452082 0.31582487 -0.13855176
0.107736 0.12901975 -0.27876607 -0.3106063 -0.081933856 0.1691939 0.27878976 -0.12993115
-0.15657593 -0.3086839 0.20690148 -0.17984265 0.115352765 0.13991122 -0.035766225 0.32356963
0.24819954 -0.0533954 0.0019457827 0.2284202 -0.21581256 -0.2841748 0.23443964 -0.1879996
0.032700706 0.020045334 0.27326155 0.053583797 0.033790518 0.075569145 -0.14803186 -0.33427513
0.30121693 -0.2738731 -0.26188928 -0.08365706 0.2300556 -0.15422978 0.26247013 0.11451153
0.24113382 -0.13651505 0.17017701 0.08791626 0.31811318 -0.17454462 0.31669775 -0.23855343
-0.24780482 0.33417603 0.18609568 0.2038906 -0.18739448 0.3078914 -0.08375539 0.29886672
0.22515856 -0.31391445 -0.08227542 0.35926932 0.21879636 0.04267057 -0.025541488 0.14513013
-0.102989905 -0.098646104 -0.19288926 -0.012338941 -0.19347213 -0.20209204 0.24075522 0.2264869
-0.16571225 -0.06893588 -0.16391131 0.1729724 -0.22386216 -0.1983299 0.14206123 0.03104449
0.10401311 -0.04123964 0.35649148 -0.05726979 0.29486138 0.04618159 0.3431978 -0.21413232
0.20898332 -0.113786265 0.20257422 -0.28255412 0.20889701 -0.09825982 -0.14530793 -0.12397827
0.2540909 -0.05199477 -0.045396388 0.32848486 0.26355755 0.020216545 -0.11604594 0.09909977
-0.08198126 0.30381167 0.13071916 0.24483381 0.19486149 -0.093213975 -0.28676394 -0.121341325
00000000: 7eab 9c3e 2c16 5c3d 0ac5 e33d 186b 9d3e
00000010: f854 a1be 24c7 e8bd 53d8 17be e36f 67be
00000020: d217 683e 9171 623e 9e96 8d3e affe ae3e
00000030: 141b 38be 50e1 0d3c 2b9d cd3d 9522 d1bd
00000040: 191c 523e 802d b33e 06fd b1be f40f 8ebd
00000050: 6f1c 553e 7865 86be 734e 94bd 9d63 5e3e
00000060: ac80 c73d b39a 45be 64b2 a5bd fe99 083c
00000070: cf72 ae3e db76 77be 1cf1 97bc 36ff a8bd
00000080: 1032 b33e 592c 8a3e 9f77 21bd 8785 21be
00000090: b881 ac3e e344 e6bc 1936 afbd 31f7 8f3e
000000a0: 611a ce3d 5820 e63c b1c6 a93e 0d6e 30be
000000b0: a007 8d3e a830 3b3e 38b4 5fbe 9ff5 a83e
000000c0: ced6 003e 04d3 7dbe b13f 993e 337e 91be
000000d0: 17d5 3e3d 1451 183e cb53 353e 2dab a4be
000000e0: 9327 a53e 1fb8 9b3e 26e3 5a3e 8431 063e
000000f0: 6344 62be dc6b 813e 3e13 063d 2df5 80bd
00000100: d434 dbbd 3601 0d3d bda9 97bd 308c 89be
00000110: db6d 6bbe 20fb 01be 8759 8bbd 44d2 43be
00000120: c5cc cebd d7c3 88be 112f 7fbe a58e 5b3e
00000130: 27ab debd 9875 e5bd 1b0d a8bb bed2 583d
00000140: 44d1 71be 744a 273e 641b 123e 1ceb 1d3e
00000150: 0f5a 86be 577c a43e 734c 433e 1ab4 d33d
00000160: f7b2 453e ef3f 4cbe cfee 073e 7e1d a33e
00000170: c315 1a3e b6ac 35bc a89a a7be 9169 04be
00000180: d8d4 73be 3dca a73e 4b5d 9fbd 8dd9 debd
00000190: 2cc7 adbe 9e81 a2be 3684 0dbe e4c1 163e
000001a0: c809 5fbd f8ee 443e b0c8 a23e 4466 69be
000001b0: 104e ec3d f709 973c 2acc a0be 0f5c a4bd
000001c0: 9d07 473d b3c9 03be 93f0 6cbe 5430 a63e
000001d0: 7c9a 203e ea03 9dbe fa99 a5be 9967 c73d
000001e0: b354 42be 705c a33d 8443 073e 8080 f83c
000001f0: 6644 473e 33c5 283e e8d2 7fbd 74e0 d43d
00000200: b6b0 b6bd 9189 3fbe 6535 b6be c9d0 1b3e
00000210: 722f 933e 8dd4 e8bd 2f90 553e fa86 8f3e
00000220: d52b 573d 43b0 263e c696 083c 9f46 4f3e
00000230: bb08 333e 3a26 703e ccb3 a13e 83e0 0dbe
00000240: b1a4 dc3d c11d 043e 6dba 8ebe ca07 9fbe
00000250: f0cc a7bd 2a41 2d3e 88bd 8e3e ac0c 05be
00000260: 7155 20be d10b 9ebe fbdd 533e ac28 38be
00000270: 123e ec3d e344 0f3e 9b7f 12bd ebaa a53e
00000280: 0528 7e3e 23b5 5abd a209 ff3a fce6 693e
00000290: f8fd 5cbe 5c7f 91be f210 703e f882 40be
000002a0: 2df1 053d 1d36 a43c f0e8 8b3e af7a 5b3d
000002b0: ed67 0a3d ffc3 9a3d aa95 17be 1c26 abbe
000002c0: 1b39 9a3e 1839 8cbe 5a16 86be 6554 abbd
000002d0: b293 6b3e 69ee 1dbe 7c62 863e 0585 ea3d
000002e0: c9eb 763e 9aca 0bbe e242 2e3e 710d b43d
000002f0: bbdf a23e d3bb 32be 3526 a23e 5a47 74be
00000300: 8cc0 7dbe 1f19 ab3e de8f 3e3e b3c8 503e
00000310: 57e4 3fbe f1a3 9d3e f287 abbd 0f05 993e
00000320: f78f 663e 65b9 a0be 0480 a8bd 26f2 b73e
00000330: 270c 603e 56c7 2e3d 623c d1bc fe9c 143e
00000340: 5fec d2bd f806 cabd c384 45be 4529 4abc
00000350: 8f1d 46be 37f1 4ebe 8988 763e 2fec 673e
00000360: 79b0 29be 412e 8dbd 5ed8 27be ad1f 313e
00000370: 1f3c 65be fe16 4bbe 8078 113e 0451 fe3c
00000380: d304 d53d e6ea 28bd 0d86 b63e ba93 6abd
00000390: 12f8 963e e828 3d3d 9fb7 af3e 8145 5bbe
000003a0: b9ff 553e c608 e9bd 9e6f 4f3e efaa 90be
000003b0: 19e9 553e 723c c9bd 9acb 14be 52e8 fdbd
000003c0: 3418 823e 78f8 54bd 90f1 39bd 2b2f a83e
000003d0: 04f1 863e 2b9d a53c 7ea9 edbd d2f4 ca3d
000003e0: cae5 a7bd 348d 9b3e 3edb 053e b7b5 7a3e
000003f0: c589 473e f8e6 bebd b9d2 92be cd81 f8bd

actor.customer_encoder.0.attention.key_embed.weight f4 [32, 32]
-0.16406402 0.059779488 0.06668657 0.35322037 0.32269037 -0.29356804 0.1741165 -0.27429408
-0.16622625 0.14226408 -0.24261338 0.30215296 0.12988445 0.033275217 0.20548049 -0.30169615
0.05563672 0.12844054 -0.16564274 -0.11216332 0.1391016 0.30055833 -0.1353634 0.20887648
0.1974086 -0.21105696 -0.28246236 -0.04412829 0.2211358 -0.29084274 -0.24422407 0.25599936
-0.20195995 -0.24421197 -0.016428921 0.3348593 0.23367341 0.18713792 0.050563175 -0.18845816
-0.2837718 0.18438327 0.10784632 0.091012485 -0.12163611 -0.35247418 0.03608502 -0.058895536
-0.02533536 0.041348014 -0.19942136 -0.2138217 -0.09322173 0.13340291 -0.22214352 0.33503896
-0.34439752 -0.21602118 0.100522436 -0.34497023 -0.2018996 0.17278945 -0.24289848 0.1137636
-0.18753737 -0.16358188 0.05826482 0.030876502 0.32314694 0.07395708 0.06385138 -0.18741645
0.30189165 -0.004929696 0.2105695 -0.28381678 0.18863699 0.28369838 0.22413988 0.29299703
-0.15961677 -0.25030082 0.13226548 0.15698178 -0.21057971 -0.11381402 -0.003115631 -0.022563573
0.17031902 0.25294325 0.10093836 -0.14228025 -0.22434391 0.30266398 0.03599264 -0.18226534
-0.26753986 -0.24540055 0.32299405 -0.21553153 -0.34399492 -0.26770303 -0.16852444 0.0011658159
-0.23385666 0.15948915 -0.060306437 -0.1514482 -0.21791962 -0.1107016 0.3527047 0.014846782
0.09508709 -0.34554213 0.2163603 0.055767253 -0.042421035 0.007998254 -0.15760554 -0.2777153
-0.17702973 0.104446664 0.29387322 -0.25456133 0.16064253 -0.16602914 0.26679084 0.04230153
-0.31604958 -0.29124704 0.094640054 0.18630072 0.09922532 0.10384942 -0.051372234 -0.19651185
0.04801739 -0.29145646 0.18127406 -0.12915505 -0.3119215 0.036583483 0.1218428 -0.26803887
-0.2207201 -0.054357506 -0.14650731 0.29101378 0.058950808 -0.11558736 -0.28609744 -0.2586699
0.12553042 -0.078849144 0.052707028 0.07435763 0.24711981 -0.006624494 0.16168281 -0.3325351
0.24658537 -0.30531174 -0.10856398 -0.34710184 0.18395996 -0.09689822 -0.34677067 -0.1862244
0.19697578 0.24119398 0.24359332 -0.34183136 -0.14603682 0.05554729 -0.01568542 -0.18560682
0.34206197 -0.22082372 0.23423083 0.23019314 -0.30361286 -0.2315276 -0.23178172 0.26157525
-0.31010032 0.000487624 -0.11315588 -0.08992755 -0.21398984 -0.30021915 -0.30715302 -0.034959774
0.010643544 0.08070473 0.096190125 -0.1446715 0.20260546 0.20384407 -0.27621713 0.32248446
-0.026936842 -0.0067927646 -0.34052193 0.17486608 0.14639428 0.08218882 0.16522962 -0.31492397
0.34685373 0.23433061 -0.09275539 0.19165862 -0.12191379 -0.10971471 -0.004021923 0.22226451
0.19372742 -0.1298797 -0.30297998 -0.01619453 -0.16188672 -0.019622533 0.16913636 0.238263
0.017564336 0.15520635 0.06260587 -0.17491435 0.21013461 -0.2405654 -0.016421258 -0.16395164
0.01468399 0.28903586 0.116603926 -0.026512064 -0.3195558 -0.26058456 -0.0837471 -0.17066188
0.06876545 -0.33659217 0.33723384 -0.09561608 0.22082114 0.2470837 0.28880134 -0.051934116
0.019173773 0.18174843 -0.2680459 -0.026892593 0.13983831 -0.021020403 -0.25500262 0.05206235
00000000: 6600 28be 56db 743d f892 883d 4dd9 b43e
00000010: ac37 a53e 8d4e 96be 994b 323e 4670 8cbe
00000020: 3737 2abe adad 113e a46f 78be cbb3 9a3e
00000030: 6e00 053e 984b 083d 7a69 523e eb77 9abe
00000040: 54e3 633d eb85 033e 409e 29be e2b5 e5bd
00000050: a670 0e3e c8e2 993e b49c 0abe b7e3 553e
00000060: 7b25 4a3e 511f 58be e89e 90be debf 34bd
00000070: 6c71 623e 57e9 94be e015 7abe 5912 833e
00000080: 97ce 4ebe b412 7abe f295 86bc ae72 ab3e
00000090: 1548 6f3e 15a1 3f3e 551b 4f3d 2dfb 40be
000000a0: 8a4a 91be f8ce 3c3e 88de dc3d c164 ba3d
000000b0: 5a1c f9bd 7f77 b4be e3cd 133d 723c 71bd
000000c0: 1a8c cfbc 895c 293d 1d35 4cbe 13f4 5abe
000000d0: 09eb bebd c69a 083e 9779 63be 3a8a ab3e
000000e0: df54 b0be a834 5dbe b5de cd3d f09f b0be
000000f0: c5be 4ebe b8ef 303e 61ba 78be e4fc e83d
00000100: cc09 40be 0282 27be 18a7 6e3d b8f0 fc3c
00000110: 8473 a53e cf76 973d 83c4 823d 19ea 3fbe
00000120: 8b91 9a3e 4a89 a1bb 889f 573e 6f50 91be
00000130: 0e2a 413e ea40 913e ed84 653e b503 963e
00000140: 9472 23be 6e27 80be 9a70 073e d5bf 203e
00000150: 35a2 57be 5317 e9bd 9d2f 4cbb 3ed7 b8bc
00000160: 1c68 2e3e c781 813e c5b8 ce3d eab1 11be
00000170: 69ba 65be c6f6 9a3e 056d 133d c4a3 3abe
00000180: fcfa 88be 484a 7bbe 7a5f a53e 4cb4 5cbe
00000190: 1a20 b0be 5f10 89be ac91 2cbe 4ace 983a
000001a0: 1f78 6fbe 2051 233e e203 77bd 3d15 1bbe
000001b0: 5226 5fbe 85b7 e2bd b695 b43e eb3f 733c
000001c0: 05bd c23d e6ea b0be 8e8d 5d3e 346c 643d
000001d0: aec1 2dbd 1c0b 033c 5963 21be b330 8ebe
000001e0: 4847 35be 22e8 d53d 8d76 963e dd55 82be
000001f0: 7a7f 243e 8b03 2abe cf98 883e 5e44 2d3d
00000200: 40d1 a1be 551e 95be a5d2 c13d 9ec5 3e3e
00000210: a536 cb3d 01af d43d b16b 52bd 673a 49be
00000220: e2ad 443d c839 95be e89f 393e 3941 04be
00000230: 2db4 9fbe 90d8 153d b888 f93d 643c 89be
00000240: 7304 62be faa5 5ebd 0306 16be c2ff 943e
00000250: 6776 713d 11b9 ecbd 5d7b 92be 6270 84be
00000260: 0c8b 003e a97b a1bd 53e3 573d d048 983d
00000270: fa0c 7d3e 4912 d9bb 2e90 253e 0a42 aabe
00000280: e080 7c3e d251 9cbe cb56 debd 55b7 b1be
00000290: 0060 3c3e 9372 c6bd ed8b b1be 9cb1 3ebe
000002a0: 05b4 493e 8efb 763e 8770 793e 8504 afbe
000002b0: ad8a 15be 8e85 633d b67e 80bc b70f 3ebe
000002c0: bf22 af3e 9d1f 62be 35da 6f3e c0b7 6b3e
000002d0: 2573 9bbe 9215 6dbe 3058 6dbe 31ed 853e
000002e0: 78c5 9ebe c9a7 ff39 45be e7bd ef2b b8bd
000002f0: 2720 5bbe 53b6 99be 2943 9dbe fb31 0fbd
00000300: 4262 2e3c 8548 a53d 54ff c43d c424 14be
00000310: ce77 4f3e 80bc 503e 556c 8dbe af1c a53e
00000320: a7aa dcbc d795 debb e458 aebe 1810 333e
00000330: 62e8 153e 9d52 a83d f431 293e b73d a1be
00000340: d096 b13e 5df4 6f3e 8af6 bdbd 2842 443e
00000350: f0ad f9bd 1bb2 e0bd 56ca 83bb 4f99 633e
00000360: 7b60 463e 2fff 04be 3120 9bbe 64aa 84bc
00000370: a2c5 25be 6fbf a0bc 1532 2d3e 37fb 733e
00000380: 15e3 8f3c 6aee 1e3e 8237 803d bf1c 33be
00000390: 872d 573e c756 76be e085 86bc f0e2 27be
000003a0: 1e95 703c 82fc 933e 0ace ee3d d42f d9bc
000003b0: d19c a3be 576b 85be 9983 abbd fdc1 2ebe
000003c0: e6d4 8c3d cf55 acbe eaa9 ac3e 5dd2 c3bd
000003d0: f01e 623e 8203 7d3e c5dd 933e deb8 54bd
000003e0: 5112 9d3c 431c 3a3e 503d 89be db4d dcbc
000003f0: c631 0f3e fb32 acbc b48f 82be 553f 553d

actor.customer_encoder.0.attention.value_embed.weight f4 [32, 32]
0.061875112 0.33031896 0.11238672 0.13023835 -0.33379087 0.1421214 0.18948966 -0.108406074
-0.22025837 -0.04291826 -0.3040828 0.32529408 -0.21434091 0.31820825 -0.35074902 0.22537816
-0.14778249 -0.27227965 0.09943187 0.3255131 -0.16854154 0.04963082 -0.23154189 0.23037434
0.31827697 -0.09637901 0.33872348 0.18297578 0.047714993 -0.15210928 0.2437863 0.018186701
-0.14952488 -0.34780785 -0.3426746 0.35248893 -0.18684368 -0.26377052 0.224172 -0.10113865
-0.26363224 0.07137619 -0.052258085 0.13640495 0.32850468 -0.089004405 0.20135623 -0.098783866
-0.11662446 0.117913306 -0.07902408 0.09498032 0.07873276 -0.2831402 -0.08286644 0.31901702
-0.0021708156 0.33517605 0.26719102 -0.09921916 -0.15990375 0.1166283 -0.05838312 -0.0456396
-0.024169153 -0.2283354 0.22255829 -0.13815509 -0.28794718 -0.27615908 -0.22554924 0.065203406
-0.3404307 0.1306041 -0.21779822 -0.010519221 -0.08563907 -0.1059219 0.22814071 -0.12061741
0.12049649 0.24064185 0.17466079 0.15042518 -0.03314407 -0.18342957 -0.2610411 0.3358287
-0.32077473 -0.0863441 0.2994995 -0.06721478 -0.29690966 0.34803155 -0.09103938 0.14768437
0.16082908 -0.11259105 -0.34259665 -0.050298806 -0.28059188 -0.17370705 -0.29740945 0.16488108
-0.24887802 0.17229176 0.29733947 0.1762462 0.21003503 0.060051672 0.23662896 0.33241808
0.0753997 0.15023707 0.22281665 -0.00016723869 0.30392244 0.08559746 -0.21555313 -0.26848325
0.08997117 -0.27941102 -0.31904194 0.3285271 0.26686195 -0.095588036 0.17623691 0.119662195
0.3269105 0.107832074 0.1636235 -0.25284013 0.116859846 -0.27239394 -0.27008522 0.19463646
-0.17302465 0.27388993 -0.0892988 0.18372132 0.32945478 0.045943942 0.32106426 -0.22270891
0.1875504 0.111118264 0.2690048 0.32522985 -0.07347325 0.07591575 -0.17843176 0.15005037
-0.0013875164 -0.16291948 -0.19536759 0.08816539 0.3148179 -0.3129572 0.22828086 0.24874589
-0.30569214 0.16129573 0.03127309 0.26717663 0.29893774 0.19826981 -0.13819727 -0.3089738
0.24680124 0.0007681684 0.14374916 0.11150197 0.046873026 0.2675823 -0.08849371 0.14293973
0.16411178 -0.16054404 0.15177375 0.02511653 -0.35137388 0.19554912 -0.31244808 0.16016228
-0.16285016 -0.1719181 0.1982409 -0.01476265 -0.25820234 0.12256708 -0.19457155 -0.3226011
0.28441647 -0.29822367 -0.15064977 -0.21327321 0.27012315 -0.031880762 -0.29531184 0.2074963
0.26562697 0.10890307 -0.03906115 -0.34002155 -0.05434132 0.19399537 -0.24037224 -0.34836957
-0.002499013 0.056617882 -0.13851996 -0.14599027 -0.27421364 -0.053510565 0.32890165 0.29444003
0.058903635 0.0011779623 0.3158453 0.052736666 -0.048789866 -0.25101715 0.326577 -0.33761567
-0.1236025 0.07715663 0.04317873 -0.115491174 -0.32931942 0.03527451 -0.08498862 -0.24782178
-0.21930914 -0.17268085 -0.327092 0.17154606 -0.0052435314 -0.30607378 0.17956032 0.2696713
0.07882337 -0.11869151 -0.113410465 0.11432374 0.3339079 0.03518225 -0.13465142 -0.048129678
0.13554317 0.30846453 0.33861974 0.3525026 -0.24241118 0.058729105 0.018899953 0.072863005
00000000: c270 7d3d 911f a93e 022b e63d 345d 053e
00000010: a3e6 aabe 4688 113e 9409 423e 0104 debd
00000020: 698b 61be 0fcb 2fbd beb0 9bbe f28c a63e
00000030: 2f7c 5bbe 31ec a23e 6095 b3be 88c9 663e
00000040: 4b54 17be 3d68 8bbe f0a2 cb3d a7a9 a63e
00000050: 2796 2cbe b049 4b3d 5119 6dbe 40e7 6b3e
00000060: 33f5 a23e 5c62 c5bd 2a6d ad3e 015e 3b3e
00000070: cc70 433d 89c2 1bbe 1ea3 793e 47fc 943c
00000080: 0d1d 19be df13 b2be 0c73 afbe 6e79 b43e
00000090: f353 3fbe ee0c 87be 588d 653e c821 cfbd
000000a0: cefa 86be ae2d 923d 930c 56bd bdad 0b3e
000000b0: c431 a83e f147 b6bd 5430 4e3e 324f cabd
000000c0: ced8 eebd 887c f13d 60d7 a1bd 0b85 c23d
000000d0: a43e a13d c1f7 90be e1b5 a9bd 3356 a33e
000000e0: 3e44 0ebb 329c ab3e 43cd 883e 6a33 cbbd
000000f0: cfbd 23be d1da ee3d 2323 6fbd 97f0 3abd
00000100: 63fe c5bc c1d0 69be 52e6 633e 8778 0dbe
00000110: d06d 93be b964 8dbe 61f6 66be 5d89 853d
00000120: ef4c aebe 15bd 053e 7f06 5fbe d058 2cbc
00000130: 8963 afbd 95ed d8bd b89d 693e 4306 f7bd
00000140: ddc6 f63d d16a 763e 47da 323e 0f09 1a3e
00000150: 14c2 07bd f6d4 3bbe 2ea7 85be bdf1 ab3e
00000160: 963c a4be 2dd5 b0bd 0058 993e e7a7 89bd
00000170: 8b04 98be 3131 b23e db72 babd 923a 173e
00000180: 61b0 243e 2396 e6bd d468 afbe 1f06 4ebd
00000190: bda9 8fbe 43e0 31be 0d46 98be 96d6 283e
000001a0: e1d9 7ebe 406d 303e e13c 983e e279 343e
000001b0: 6c13 573e bef8 753d dd4e 723e b432 aa3e
000001c0: 286b 9a3d bfd7 193e 0c2a 643e cb5c 2fb9
000001d0: b99b 9b3e b94d af3d f6b9 5cbe a376 89be
000001e0: ce42 b83d f60e 8fbe 7759 a3be b434 a83e
000001f0: 21a2 883e a9c3 c3bd 7377 343e 7411 f53d
00000200: d060 a73e 10d7 dc3d eb8c 273e 4374 81be
00000210: 3754 ef3d 3877 8bbe 9c48 8abe c84e 473e
00000220: 602d 31be 4d3b 8c3e 4ae2 b6bd 7121 3c3e
00000230: 4cae a83e b72f 3c3d 8962 a43e ce0d 64be
00000240: 360d 403e f991 e33d ffba 893e 8784 a63e
00000250: 2579 96bd b779 9b3d d1b6 36be cea6 193e
00000260: 53dd b5ba 5dd4 26be 710e 48be 0e90 b43d
00000270: d02f a13e ed3b a0be 75c2 693e 3eb7 7e3e
00000280: ae83 9cbe b52a 253e 3618 003d 60cb 883e
00000290: 5e0e 993e 3e07 4b3e 9683 0dbe d031 9ebe
000002a0: 77b9 7c3e e95e 493a fb32 133e 255b e43d
000002b0: eefd 3f3d 8c00 893e 313c b5bd cb5e 123e
000002c0: eb0c 283e a865 24be 946a 1b3e 2ec1 cd3c
000002d0: 47e7 b3be 073e 483e 32f9 9fbe 9501 243e
000002e0: 31c2 26be 4c0b 30be aaff 4a3e 0bdf 71bc
000002f0: 1933 84be 7304 fb3d c43d 47be f92b a5be
00000300: 099f 913e c6b0 98be ef43 1abe 4b64 5abe
00000310: 954d 8a3e 6795 02bd 1d33 97be e979 543e
00000320: 4200 883e 9308 df3d 96fe 1fbd 4e17 aebe
00000330: 0195 5ebd b9a6 463e 2424 76be 7f5d b2be
00000340: 7bc6 23bb 27e8 673d 2dd8 0dbe 797e 15be
00000350: bb65 8cbe e52d 5bbd cc65 a83e d8c0 963e
00000360: f044 713d db65 9a3a 7ab6 a13e 6702 583d
00000370: e2d7 47bd 5285 80be 1a35 a73e f6db acbe
00000380: 4f23 fdbd 4c04 9e3d 2edc 303d a386 ecbd
00000390: 8e9c a8be 017c 103d 830e aebd fec4 7dbe
000003a0: 9392 60be 40d3 30be 9a78 a7be c5a9 2f3e
000003b0: eed1 abbb b4b5 9cbe a9de 373e 5b12 8a3e
000003c0: 266e a13d 8914 f3bd bf43 e8bd 9122 ea3d
000003d0: faf5 aa3e 431b 103d 10e2 09be a023 45bd
000003e0: d4cb 0a3e 10ef 9d3e 915f ad3e 397b b43e
000003f0: a33a 78be ee8d 703d 13d4 9a3c 3339 953d

actor.customer_encoder.0.attention.combine.weight f4 [32, 32]
-0.03658274 -0.1389553 0.071823 0.11934369 0.038651697 0.013592096 0.14364965 -0.06962034
-0.03064326 0.05317378 -0.10563929 -0.14393865 -0.030473853 0.10546752 -0.08481279 0.059909422
0.0043997057 0.16229288 0.1059372 -0.088331975 -0.17021705 0.09679347 -0.17410113 -0.1142616
0.1639634 0.046657737 0.0076490967 -0.123819076 -0.026368128 0.016246794 0.09313867 -0.07109508
-0.030921703 0.0318097 -0.17640844 -0.054442383 -0.15836611 -0.069335565 -0.10312138 0.08291279
-0.11716578 -0.16362855 -0.018719904 -0.08133881 -0.09426331 -0.035280373 0.069104 -0.15657769
-0.124053545 0.023960425 0.08200581 0.009442668 0.1741019 0.08808136 -0.12223965 0.09516568
-0.0814186 0.12565088 -0.046501394 0.14181572 -0.03404385 -0.04194479 -0.12733221 0.18219244
-0.1057871 -0.07704342 -0.09201804 -0.18077755 -0.08866639 0.1537673 0.109973684 0.046888534
-0.0596543 0.019216884 -0.039054006 -0.14926152 0.12646972 0.08831964 0.15151677 -0.16047773
0.0314255 0.09147077 -0.02381065 0.08466333 0.09392617 -0.08944511 0.13062541 0.047520626
-0.022713445 0.06761851 0.13015068 0.039044987 0.0892605 -0.12703489 -0.08758653 -0.027571369
0.09655405 0.10420742 -0.04285821 -0.04214124 -0.031344324 -0.067597404 0.1500566 0.09509572
0.104269624 -0.066767 -0.052791607 -0.15220729 0.14371192 -0.071788974 -0.017419418 -0.1105413
0.044686045 0.08225333 -0.17718405 0.1410682 0.046695054 0.08264956 -0.14855388 0.0548094
0.16814646 0.126771 -0.08958131 0.020916767 -0.11814827 0.058519006 0.07454595 0.08246931
-0.14520285 0.08885994 -0.0061829723 -0.11835679 -0.070208125 0.15600085 -0.13769624 0.11054469
0.16964933 -0.12049221 -0.15737961 -0.12529367 0.0014316048 -0.15875201 0.13588357 0.14893787
-0.01739323 0.097041495 0.1316848 0.05196606 -0.08541786 0.004962935 0.13848653 -0.05851545
0.019304326 -0.0148394955 -0.04991396 -0.036926884 -0.08865619 -0.049235668 0.16889213 -0.044082474
-0.020672027 0.15372394 0.05760514 -0.12725267 -0.051107533 -0.07016809 -0.08842499 -0.14722873
0.08879313 0.13841887 -0.1383677 0.17689061 0.08143554 0.15992409 -0.13478233 0.052249018
0.12382727 0.10378658 -0.053808343 0.118172064 0.09215182 -0.113371104 0.09435112 -0.08374164
0.14436121 -0.058757372 -0.10889624 0.07731507 -0.10279526 -0.06668497 0.116684176 0.16410346
0.059514076 0.1564447 0.064468846 -0.024229279 -0.060354464 -0.047893073 0.0048846575 -0.019935438
0.039589245 0.04759538 -0.11284243 -0.09736869 0.14532205 -0.07478017 0.09281341 0.16559944
-0.15943246 0.032525375 0.04434563 -0.11014823 -0.045572042 -0.08182682 -0.17400226 -0.06041226
0.16367285 0.16725412 -0.10378922 -0.05817769 -0.09004142 0.12103719 -0.14410305 -0.05833916
-0.059712708 -0.07637351 0.15561448 -0.15330818 -0.13224766 -0.15214542 -0.08169191 0.08946281
0.02128859 -0.01270243 0.13689516 0.115246885 0.041521423 0.033013336 -0.065940395 -0.16777284
0.030139599 0.15273395 0.13408582 -0.013330907 -0.004974959 0.16314334 -0.18456624 0.1479126
0.16328081 0.10516211 0.07911627 0.010669645 0.056083877 -0.09432229 -0.02866554 -0.11991713
00000000: c8d7 15bd 4c4a 0ebe f017 933d 776a f43d
00000010: 3e51 1e3d 62b1 5e3c e518 133e 1c95 8ebd
00000020: 9307 fbbc c0cc 593d 6959 d8bd a764 13be
00000030: 4da4 f9bc 5bff d73d 54b2 adbd 9563 753d
00000040: 682b 903b 1b30 263e 9af5 d83d 65e7 b4bd
00000050: 614d 2ebe a83b c63d 9147 32be fc01 eabd
00000060: 06e6 273e 2f1c 3f3d 46a5 fa3b db94 fdbd
00000070: f901 d8bc ff17 853c 7dbf be3d 4c9a 91bd
00000080: 834f fdbc e34a 023d 6aa4 34be fafe 5ebd
00000090: ba2a 22be ceff 8dbd 4d31 d3bd 2ece a93d
000000a0: 9df4 efbd 3e8e 27be 7c5a 99bc f694 a6bd
000000b0: 1f0d c1bd 2782 10bd 6686 8d3d e755 20be
000000c0: c90f febd a748 c43c aaf2 a73d 6cb5 1a3c
000000d0: c547 323e 0064 b43d c858 fabd 39e6 c23d
000000e0: ccbe a6bd a0aa 003e 3f78 3ebd 2438 113e
000000f0: 9071 0bbd 4dce 2bbd 6063 02be a890 3a3e
00000100: e8a6 d8bd f1c8 9dbd f473 bcbd c01d 39be
00000110: b996 b5bd 2d75 1d3e e239 e13d 310e 403d
00000120: 1158 74bd ba6c 9d3c 18f7 1fbd 03d8 18be
00000130: 4781 013e ede0 b43d 3627 1b3e 4654 24be
00000140: 06b8 003d 0755 bb3d 8d0e c3bc f863 ad3d
00000150: 5d5c c03d ff2e b7bd abc2 053e fda4 423d
00000160: 8c11 babc 937b 8a3d 3846 053e a3ed 1f3d
00000170: 36ce b63d 6f15 02be 9160 b3bd 5add e1bc
00000180: 21be c53d b36a d53d 178c 2fbd 4b9c 2cbd
00000190: e862 00bd 8270 8abd 70a8 193e 8bc1 c23d
000001a0: 508b d53d 23bd 88bd 033c 58bd 3adc 1bbe
000001b0: 3829 133e 1906 93bd 2bb3 8ebc 7a63 e2bd
000001c0: b708 373d 6f74 a83d bc6f 35be 2f74 103e
000001d0: 5043 3f3d 2c44 a93d 821e 18be d27f 603d
000001e0: 962e 2c3e 42d0 013e 6876 b7bd a459 ab3c
000001f0: b8f7 f1bd a0b1 6f3d 8cab 983d abe5 a83d
00000200: 0eb0 14be 33fc b53d 889a cabb 0b65 f2bd
00000210: 47c9 8fbd b0be 1f3e 3e00 0dbe 4165 e23d
00000220: 8eb8 2d3e 9fc4 f6bd 1f28 21be fc4c 00be
00000230: b0a4 bb3a e38f 22be 1025 0b3e 2b83 183e
00000240: 3f7c 8ebc b1bd c63d 61d8 063e 5dda 543d
00000250: 8fef aebd 1ea0 a23b 6acf 0d3e e6ad 6fbd
00000260: 1b24 9e3c 5b21 73bc 9572 4cbd a540 17bd
00000270: 6091 b5bd 57ab 49bd 0ff2 2c3e d38f 34bd
00000280: 6258 a9bc cf69 1d3e 5ef3 6b3d 864e 02be
00000290: 2256 51bd 4ab4 8fbd 2918 b5bd 21c3 16be
000002a0: 2cd9 b53d adbd 0d3e 43b0 0dbe d022 353e
000002b0: adc7 a63d 24c3 233e 6104 0abe 1103 563d
000002c0: 2799 fd3d 0f8e d43d 2366 5cbd 3204 f23d
000002d0: 18ba bc3d 1c2f e8bd 293b c13d bd80 abbd
000002e0: 6dd3 133e 92ab 70bd fe04 dfbd 5d57 9e3d
000002f0: 5286 d2bd 2192 88bd 1df8 ee3d bd0a 283e
00000300: 08c5 733d 0a33 203e 3e08 843d 7b7c c6bc
00000310: 3e36 77bd 872b 44bd 7a0f a03b a54f a3bc
00000320: 5528 223d 60f3 423d ef19 e7bd 3c69 c7bd
00000330: 4ecf 143e 5926 99bd f514 be3d e692 293e
00000340: 4342 23be 5439 053d c3a3 353d 6595 e1bd
00000350: c0a9 3abd d294 a7bd a62d 32be d972 77bd
00000360: db99 273e aa44 2b3e 718f d4bd bb4b 6ebd
00000370: a367 b8bd 59e2 f73d c08f 13be 0bf5 6ebd
00000380: 5095 74bd b769 9cbd 6759 1f3e d2fc 1cbe
00000390: ee6b 07be 02cc 1bbe 174e a7bd 4738 b73d
000003a0: 6965 ae3c da1d 50bc 3f2e 0c3e 8f06 ec3d
000003b0: 5e12 2a3d fe38 073d c20b 87bd a5cc 2bbe
000003c0: 52e7 f63c 4a66 1c3e cb4d 093e e069 5abc
000003d0: fb04 a3bb 0c0f 273e effe 3cbe 6776 173e
000003e0: 1633 273e 3b5f d73d b607 a23d bccf 2e3c
000003f0: 35b8 653d 0b2c c1bd ffd3 eabc 1d97 f5bd

actor.customer_encoder.0.BN1.weight f4 [32]
1.0013849 1.0004048 1.0041546 0.9930337 1.0018919 1.0016756 0.99423736 1.0098846
0.998154 0.9893393 1.0018314 0.9998314 0.9970264 1.0167077 0.97845834 1.0057203
0.9941222 1.008294 1.0150716 0.99927723 0.98633814 0.99686164 0.9989985 0.9955624
1.0014158 0.997703 0.99456465 1.0031308 1.0002046 0.996924 1.010822 1.0083832
00000000: 612d 803f 440d 803f 2388 803f 7537 7e3f
00000010: fe3d 803f e836 803f 5786 7e3f e643 813f
00000020: 0587 7f3f 5745 7d3f 033c 803f f3f4 7f3f
00000030: 1f3d 7f3f 7a23 823f 3f7c 7a3f 71bb 803f
00000040: cb7e 7e3f c70f 813f deed 813f a2d0 7f3f
00000050: a880 7c3f 5332 7f3f 5ebe 7f3f 2ddd 7e3f
00000060: 652e 803f 7769 7f3f ca9b 7e3f 9766 803f
00000070: b406 803f 6936 7f3f 9e62 813f b312 813f

actor.customer_encoder.0.BN1.bias f4 [32]
-0.0027369699 -0.00043179916 -0.009857127 0.0036587445 -0.0071854424 -0.0018372488 -0.0013617364 0.006398859
-0.0064321486 -0.014383659 -0.01656371 -0.004987108 -0.007498932 0.004043729 -0.00646196 0.011623221
0.0106527535 0.012137076 -0.005600856 0.004992602 -0.0044240938 -0.0032753989 0.00862212 0.0053753406
0.014758914 -0.001198984 -0.009688755 -0.0059191557 -0.009183323 -0.003726831 0.0018670174 0.00046527034
00000000: bc5e 33bb 1a63 e2b9 ca7f 21bc 8cc7 6f3b
00000010: dc73 ebbb d7cf f0ba 4b7c b2ba 85ad d13b
00000020: c6c4 d2bb 70a9 6bbc 9eb0 87bc e56a a3bb
00000030: 9ab9 f5bb 4281 843b d9be d3bb 536f 3e3c
00000040: e388 2e3c 96da 463c 6387 b7bb fb98 a33b
00000050: fdf7 90bb 13a8 56bb cb43 0d3c a023 b03b
00000060: 5fcf 713c 3a27 9dba 95bd 1ebc 7af5 c1bb
00000070: a675 16bc d93d 74bb b5b6 f43a 87ef f339

actor.customer_encoder.0.BN1.running_mean f4 [32]
0.8043229 -0.35074505 0.49707872 0.5946158 -0.73186517 0.46289852 0.21210508 0.119195536
-0.40494922 0.2577727 -0.18137343 0.32173055 -0.6274153 1.1269621 0.6899052 0.38963598
-0.03178818 -0.39801708 0.04044533 0.11120877 -0.35418 -0.74873614 -0.4987676 -0.473463
0.25450704 0.05147517 0.13055892 0.33296263 0.15028824 -0.19531348 0.047733836 0.0043213232
00000000: 1be8 4d3f db94 b3be 1a81 fe3e be38 183f
00000010: 845b 3bbf 0901 ed3e 1332 593e ca1c f43d
00000020: 8155 cfbe c9fa 833e f5b9 39be deb9 a43e
00000030: 4a9e 20bf 4b40 903f a19d 303f 5e7e c73e
00000040: 5334 02bd e5c8 cbbe 01aa 253d 6cc1 e33d
00000050: 1557 b5be 2cad 3fbf 785e ffbe be69 f2be
00000060: bf4e 823e a1d7 523d 3db1 053e 147a aa3e
00000070: 29e5 193e 4200 48be 8e84 433d e399 8d3b

actor.customer_encoder.0.BN1.running_var f4 [32]
0.020702012 0.002997139 0.03694396 0.017177867 0.0326314 0.031761594 0.014959414 0.0027036082
0.011163935 0.0029624025 0.026406854 0.01427151 0.020232065 0.057248335 0.011827951 0.010505583
0.0060194214 0.008716184 0.010988366 0.007635686 0.008834584 0.034948606 0.012068535 0.0066139987
0.015660755 0.0020113648 0.016031876 0.014992512 0.039427772 0.016931128 0.0043379 0.0129911
00000000: 4497 a93c a66b 443b 8d52 173d 99b8 8c3c
00000010: 81a8 053d 7218 023d 5418 753c 052f 313b
00000020: f0e8 363c de24 423b 3053 d83c 0dd3 693c
00000030: b7bd a53c 3b7d 6a3d 06ca 413c 9c1f 2c3c
00000040: 913e c53b 53ce 0e3c 8c08 343c c734 fa3b
00000050: eebe 103c 4526 0f3d 1bbb 453c 3eba d83b
00000060: fc4a 803c 1ad1 033b 4855 833c 27a3 753c
00000070: 047f 213d 26b3 8a3c f124 8e3b 9fd8 543c

actor.customer_encoder.0.FFN_layer1.weight f4 [32, 32]
-0.010483497 -0.15390278 0.091092184 -0.08964874 0.110979386 -0.12408395 0.16367823 -0.028992781
0.16294225 0.08038594 0.11959459 0.026892025 -0.104862325 0.017739987 0.15085632 -0.16110927
0.051518966 0.0198394 0.13167635 -0.11682327 -0.12669925 0.045986146 -0.04604932 -0.061342027
0.04194086 0.132988 -0.13288036 -0.016231138 -0.07878243 -0.020910254 -0.08417892 0.1757419
0.09793794 0.059021104 -0.050805353 0.08809706 -0.0979604 -0.14938556 -0.10795973 -0.06874623
-0.13524331 0.109219514 -0.007278163 -0.07171396 -0.101947196 0.13875175 0.14840777 -0.109647445
0.14676405 0.0008635007 -0.055793297 0.07964457 -0.12388401 -0.17026809 -0.016191421 0.12551004
0.13853963 0.1542469 0.084661275 0.043630313 0.01186189 -0.11973574 0.13900246 0.14844494
-0.15214385 -0.18337752 -0.036520813 -0.09785744 -0.0738053 0.16362257 -0.025276927 0.17845425
-0.017775496 -0.0012385363 -0.0030593341 -0.05140205 -0.04376192 -0.07384859 -0.105983905 0.016128473
0.046189528 0.040054128 0.0437859 -0.06492239 -0.1712721 0.070617005 0.027345948 -0.1793652
0.18010098 -0.05000414 -0.13934633 -0.10581904 -0.042312562 -0.14994809 0.03667491 -0.101199985
-0.10606797 0.16729753 -0.059125774 -0.016375087 -0.10087022 -0.018526422 -0.11097933 -0.10625966
-0.10533548 -0.057717446 0.04609284 0.07150442 0.10995715 -0.089818805 -0.14168975 -0.02567065
0.14792055 0.010684303 0.15850873 0.13576248 0.11573851 -0.0158565 0.027092392 -0.11700093
0.028676936 0.05022216 -0.123348214 -0.12173668 -0.09093599 0.0054284767 -0.026266221 0.06339952
-0.09375227 0.15634458 -0.08947009 0.107468456 0.16008505 0.15765268 -0.08981491 -0.08776149
-0.06619909 -0.11532773 -0.049821258 -0.058641482 0.06762245 0.14858796 0.06525665 0.008519571
-0.06161273 -0.064145274 0.16568029 -0.15826282 -0.014712584 -0.16918653 -0.05800559 -0.13181902
-0.17542084 0.06592629 -0.09435137 0.032551296 0.1505102 -0.02777795 0.059349276 -0.07118522
0.14175372 0.17633474 -0.059018485 -0.12727235 0.13095738 0.12365482 0.07942356 0.009876667
0.02986375 0.027052669 0.018152013 -0.038004775 0.028663393 0.17206928 -0.04478251 -0.14803518
-0.10519285 -0.00055101194 0.06693664 0.014207351 0.15542734 0.049678702 0.07021818 -0.15288746
0.10855678 0.14299724 0.056480836 0.072225645 -0.15240784 0.15982585 -0.014111588 -0.1627137
0.07591637 0.09704636 0.12237022 0.17646497 0.020050267 0.10513475 0.1735872 0.0840424
0.05651388 -0.030183828 -0.12974523 0.07543401 -0.14507452 0.01837074 -0.15383412 -0.17122152
-0.0669426 -0.17890278 0.09495003 0.03434444 -0.06657712 0.15639484 0.069359265 0.10178381
-0.10950549 -0.15584403 -0.048614472 0.12406922 -0.13855076 -0.12265837 0.016356627 0.06106223
0.0949952 0.031843875 -0.025557337 -0.07151254 -0.0062464927 0.11857464 -0.13442038 -0.16311307
-0.015244909 0.0073994007 0.092395514 0.06326929 0.17339094 -0.0676936 0.058400724 -0.11726304
-0.12614208 -0.088287264 0.16425498 -0.115307346 -0.057213455 0.045824364 -0.11688745 0.056623206
-0.12959832 0.14042705 0.13109353 0.07545645 0.12476121 0.09204081 0.045094106 0.045647126
00000000: f9c2 2bbc b198 1dbe 8a8e ba3d c299 b7bd
00000010: 2949 e33d ba1f febd 449b 273e 4582 edbc
00000020: 55da 263e 62a1 a43d 02ee f43d aa4c dc3c
00000030: 0fc2 d6bd 7353 913c 147a 1a3e d4f9 24be
00000040: 8d05 533d 3d86 a23c 2ad6 063e 0a41 efbd
00000050: 73bd 01be f85b 3c3d 369e 3cbd c741 7bbd
00000060: 2eca 2b3d 022e 083e ca11 08be 2af7 84bc
00000070: af58 a1bd fb4b abbc ff65 acbd aff5 333e
00000080: b093 c83d 1dc0 713d 4619 50bd 3b6c b43d
00000090: 769f c8bd 87f8 18be fe19 ddbd d3ca 8cbd
000000a0: 397d 0abe 7bae df3d a87d eebb c5de 92bd
000000b0: b1c9 d0bd f014 0e3e 35f8 173e d78e e0bd
000000c0: 5149 163e 8d5c 623a 8387 64bd b11c a33d
000000d0: e6b6 fdbd c25a 2ebe dfa3 84bc b485 003e
000000e0: 55dd 0d3e e6f2 1d3e e462 ad3d b3b5 323d
000000f0: 5f58 423c 0338 f5bd a956 0e3e f301 183e
00000100: 99cb 1bbe 51c7 3bbe d996 15bd 7b69 c8bd
00000110: 3c27 97bd ad8c 273e 8f11 cfbc b6bc 363e
00000120: eb9d 91bc 6256 a2ba 1c7f 48bb f58a 52bd
00000130: b33f 33bd ee3d 97bd 170e d9bd dc1f 843c
00000140: 3b31 3d3d cc0f 243d d858 333d 08f6 84bd
00000150: f461 2fbe a69f 903d 9c04 e03c 83ab 37be
00000160: 646c 383e 24d1 4cbd ceb0 0ebe a7b7 d8bd
00000170: f04f 2dbd fe8b 19be 6e38 163d f041 cfbd
00000180: 2a3a d9bd 0b50 2b3e de2d 72bd 0c25 86bc
00000190: 0c95 cebd b9c4 97bc 2249 e3bd aa9e d9bd
000001a0: 21ba d7bd 2169 6cbd d9cb 3c3d e970 923d
000001b0: 3731 e13d ecf2 b7bd 1e17 11be 414b d2bc
000001c0: 7c78 173e 370d 2f3c 1d50 223e 5205 0b3e
000001d0: 5008 ed3d 7ee5 81bc ddf0 dd3c 2f9e efbd
000001e0: e5eb ea3c c0b5 4d3d fd9d fcbd 1551 f9bd
000001f0: a63c babd 5de1 b13b 422c d7bc 9cd7 813d
00000200: 3101 c0bd cb18 203e 183c b7bd 6c18 dc3d
00000210: 56ed 233e b46f 213e e1f0 b7bd 4cbc b3bd
00000220: 6393 87bd f230 ecbd 6011 4cbd 0d32 70bd
00000230: a47d 8a3d 7127 183e 47a5 853d ac95 0b3c
00000240: a15d 7cbd 995e 83bd 18a8 293e a60f 22be
00000250: 0d0d 71bc 3c3f 2dbe 4597 6dbd 91fb 06be
00000260: 85a1 33be 5d04 873d 4b3b c1bd 8254 053d
00000270: 591f 1a3e 958e e3bc 3a18 733d 8ec9 91bd
00000280: e327 113e 1891 343e 5ebd 71bd af53 02be
00000290: b119 063e bd3e fd3d d2a8 a23d bed1 213c
000002a0: d3a4 f43c 8f9d dd3c 88b3 943c e5aa 1bbd
000002b0: 7ecf ea3c ee32 303e dd6d 37bd 8996 17be
000002c0: 596f d7bd c971 10ba 1416 893d f3c5 683c
000002d0: 5828 1f3e e57b 4b3d 8dce 8f3d 888e 1cbe
000002e0: 0453 de3d de6d 123e 7358 673d 0aeb 933d
000002f0: cd10 1cbe 63a9 233e 4a34 67bc 6c9e 26be
00000300: 0b7a 9b3d 3ec0 c63d 3d9d fa3d 3cb3 343e
00000310: 7540 a43c e350 d73d d8c0 313e 6c1e ac3d
00000320: 197b 673d 1344 f7bc efdb 04be 257d 9a3d
00000330: 6a8e 14be 3c7e 963c b186 1dbe b254 2fbe
00000340: 3419 89bd 4a32 37be 2975 c23d c1ac 0c3d
00000350: 9659 88bd f825 203e 3b0c 8e3d 0874 d03d
00000360: 6a44 e0bd 9495 1fbe f81f 47bd 0118 fe3d
00000370: 40e0 0dbe 5034 fbbd 55fe 853c 641c 7a3d
00000380: d88c c23d b96e 023d 9f5d d1bc 2b75 92bd
00000390: 61af ccbb 43d7 f23d 7fa5 09be 1d07 27be
000003a0: c8c5 79bc ac76 f23b dc39 bd3d 5493 813d
000003b0: 658d 313e f1a2 8abd 9935 6f3d 9b27 f0bd
000003c0: 642b 01be f4cf b4bd 7532 283e 4226 ecbd
000003d0: a858 6abd 54b2 3b3d b062 efbd bced 673d
000003e0: 6cb5 04be 1ccc 0f3e 623d 063e e988 9a3d
000003f0: ce82 ff3d e47f bc3d 99b4 383d 7bf8 3a3d

actor.customer_encoder.0.FFN_layer1.bias f4 [32]
0.0458159 0.09287125 -0.032377236 0.11548518 0.040155374 -0.13457248 0.15826575 -0.010457948
-0.046294205 0.04829634 0.021356981 -0.16932261 0.17187084 -0.009534879 0.05659222 -0.030106988
-0.15169743 -0.14465408 -0.034045722 -0.044475246 0.14328143 0.03098689 0.1757099 0.14483455
0.021121476 -0.05758528 0.0043416787 -0.061337233 -0.17351387 0.05223801 0.07530112 -0.056199014
00000000: 74a9 3b3d 4833 be3d fe9d 04bd 7e83 ec3d
00000010: f679 243d 5ecd 09be 6b10 223e d057 2bbc
00000020: fe9e 3dbd 62d2 453d d6f4 ae3c e862 2dbe
00000030: e9fe 2f3e 2e38 1cbc 3ecd 673d eea2 f6bc
00000040: 9256 1bbe 3320 14be 8773 0bbd ad2b 36bd
00000050: 5eb8 123e 38d8 fd3c 4ced 333e 824f 143e
00000060: f206 ad3c 8bde 6bbd a444 8e3b c03c 7bbd
00000070: 9fad 31be 86f7 553d 7937 9a3d f030 66bd
