output/282nodes_entropy0.01_0.4_0.85_2_230823/epoch43.pth (torch, 519145 bytes, 129 tensors)

critic.ff_layer1.weight f4 [32, 283]
00000000: 74ae 003e 5128 9d3d cf48 64bb ad19 003d
00000010: ec7f 113a 9891 91bc cab1 5fbc b928 3b3d
00000020: f637 563d 62cd e8bc 3b31 5b3d c7e2 533c
00000030: 9f38 0e3d 691b df3c 603d 2a3d af98 963c
00000040: a0b6 3b3d 833c a93c 9bef 8b3b cbda f13c
00000050: a22b a1bb 1453 193d 77f4 a1bb a254 693d
00000060: 7381 c1bc 680f 75bc 6b00 c5bc 8837 c1bc
00000070: c305 8e3b b085 35bc e0d5 833d 5bac 31bc
00000080: 230e 853d 6728 8c3c 180b 7abc ba08 603d
00000090: 079a 183d 992d 803d cf56 1f3c 9dbd 06bc
000000a0: 82be 353d 931d 863b fc53 933c bfbd 3d3d
000000b0: e645 0c3d 0a50 ebbb a589 1f3b 669f 42b9
000000c0: 2a10 d03c 14ca 84bc d85a a8bc 30b2 53bc
000000d0: 1a0c 573b 8d02 393d 8da3 16ba 3d55 e03c
000000e0: cf9a a13c 8ec6 8f3c a754 893d 3f7f 03bd
000000f0: 1217 673d 7816 a7bc d931 083d cfa0 07bd
00000100: 4b54 b1bb e42d 023c 6f12 f63c ebaf 89bb
00000110: e06b 04bc ce0c c1bb bc63 bc3d 37b1 0fbc
00000120: 7239 653d 26fc fabb d7c9 f7bc 7361 a4bc
00000130: bb41 be3c 3053 683c 86df cb3c 5351 803d
00000140: 347b 2ebd a1fd d43a b07c b33c d833 0fbd
00000150: 058f 413d b10d 203c 6b8b 2f3d 85d3 b0bc
00000160: 97ad 1d3c da49 e1b9 339b 903b 9551 8a3c
00000170: 984a 863d 844e 3a3d 5a6f 9dbc a57a e9bc
00000180: 6c53 733d 8ca8 ddb9 daf8 8fbc 58bc 01bb
00000190: 1346 ffbc eb9c 52bc 50d9 babc b90d febc
000001a0: e7c4 a03c 6c77 0cbd 068d 8bbb c628 7a3a
000001b0: 1c67 19bd f4e2 b6bc f685 8c3d 0f4e 873b
000001c0: f400 323d 8202 e8bc cea8 61bc 5c4e 2fbc
000001d0: a3a8 8d3c 99c0 b0bc ba2b 96bc e5db d6bc
000001e0: 096d 0ebc 9c24 ba3c 1eba c0bc d3af 4bbc
000001f0: aa75 be38 c0a1 9fbb 27d3 51bb 82fe 8ebc
00000200: 0b8f 623d 06b0 793b 519a 223d 9b3a 173c
00000210: 58d5 08bd 17ff 2a3d 8f44 283c 0c73 323b
00000220: b7cd 11bd 9c50 09bd 8f5c a23c bbd2 f6bc
00000230: 69c8 5d3c 8d3f 55bb 3f61 a03d a849 a53c
00000240: d8c5 bbbc 8ee6 843c f236 3a3d f779 7c3d
00000250: 6ef4 053d ca8d f4bc 37a7 313c 6747 15bd
00000260: dcc4 593c 496b 09bc c2bb cf3d fd69 21bd
00000270: 5026 fa3b dd4a 87bb 6282 b23c 1947 5fbc
00000280: 4293 6f3d ed67 2bbd 4c06 e83b cc8a 01bd
00000290: 922e 343d 0999 fe3c 60fa 2fbc 1312 9c3d
000002a0: 8e2b 173c 0b30 d3bc 1a10 d9bc b4bb c7bc
000002b0: 4ee3 473d cbc5 3fbb b390 33bd 0bf6 263c
000002c0: 2d7c f43b 2065 e93c 64e1 653d 6378 65bc
000002d0: faad 67bc 3907 443d f896 7ebc d0a9 c3bb
000002e0: 6e9b 873c c74a 013d 0561 0cbb ae2d 983c
000002f0: 2379 b1bc 6b1e 8bbc 97f8 9a39 0c0c 13bd
00000300: 133c 883d b9f9 de3c 7fd5 ac3b 9c4c 55bb
00000310: d05f 2b3d 4179 a0bc 095c 863b 16a7 c73c
00000320: f13b cabc 61a4 e73a ef65 573d 3b2c 493d
00000330: dc44 b43b 1081 d1bc 7735 11bc 4fe7 98bc
00000340: 9b68 80bc 620d 4a3d bad4 393d bfbe 8f3d
00000350: 7cfe 0dbc 5afd dbbc feb1 333b 7aca 413d
00000360: 6d37 ef3b 582d c93b 0859 d23c 1d8d 6d3b
00000370: e210 86bc 2af2 aa3d 9d54 eb3a edbb 78bc
00000380: 66c7 e5bc 4a05 4e3d f44a 353d f390 df3c
00000390: 022e 11bc a4ed f5bc 0644 a3bc de71 943d
000003a0: 0f9b b13c 8309 4d3d 9d6f 3f3c 667e 563c
000003b0: b508 06bc 6238 d5bc 1a38 a4bc 7c6e 57bc
000003c0: 2015 2c3d f649 68bc 493b 3cbb bcc2 e8bc
000003d0: e280 a53b 9e44 56bc 8b73 2cbd de9b 27ba
000003e0: 7faa 82bc 82c4 863d 42db d43c 0161 19bd
000003f0: b087 c8bc 1c6f 11bc ca4b debc 3990 dcbc
0.12566549 0.07673705 -0.0034833436 0.031274486 0.0005550373 -0.01776962 -0.013653228 0.045693133
0.052299462 -0.028418247 0.053513747 0.012932486 0.034721967 0.02723475 0.041562438 0.018383352
0.04582846 0.020658737 0.0042705066 0.029523274 -0.0049185315 0.037432745 -0.0049424726 0.056965478
-0.023621297 -0.014957286 -0.02404805 -0.02358605 0.004334183 -0.011079237 0.06437278 -0.010844315
0.06496837 0.01710911 -0.015261434 0.054695822 0.037256267 0.06258697 0.009725287 -0.008223918
0.044371136 0.004092881 0.017984383 0.046323534 0.034246348 -0.0071811723 0.0024343517 -0.00018560662
0.025398333 -0.01620964 -0.02055113 -0.012920901 0.003281361 0.04516845 -0.0005746417 0.027384395
0.019727139 0.017550733 0.06705599 -0.032103773 0.056418486 -0.020396456 0.033250663 -0.033112343
-0.00541166 0.0079455115 0.030038087 -0.0042018793 -0.00808236 -0.005891419 0.0919871 -0.008770279
0.055962987 -0.007659453 -0.030247612 -0.020065999 0.023224702 0.01417999 0.024886858 0.06265511
-0.042597964 0.0016249904 0.021910042 -0.03496155 0.047255535 0.009768889 0.04285757 -0.021585235
0.009623907 -0.00042970368 0.0044130324 0.016884604 0.065571964 0.045485035 -0.019218136 -0.028500864
0.05940573 -0.00042277982 -0.017574716 -0.00197961 -0.031161344 -0.012854795 -0.0228087 -0.031012403
0.01962514 -0.034293577 -0.0042587547 0.0009542819 -0.03745185 -0.022325017 0.068614885 0.0041291784
0.04345794 -0.028321508 -0.013773156 -0.010699835 0.017292326 -0.021576213 -0.018331397 -0.0262279
-0.008692988 0.022722535 -0.023526248 -0.0124320565 9.081823e-05 -0.004871577 -0.0032016726 -0.017455343
0.055312198 0.0038099303 0.03969795 0.009230281 -0.033406585 0.04174718 0.010270252 0.0027229218
-0.035596576 -0.03352414 0.019819526 -0.030129781 0.013536551 -0.00325391 0.07831048 0.020176724
-0.022921488 0.016223218 0.045462556 0.061639752 0.03270381 -0.029852767 0.01084309 -0.036445048
0.013291564 -0.008387395 0.10143234 -0.03940772 0.0076339617 -0.0041287974 0.021790687 -0.013627791
0.058490045 -0.04184716 0.007080829 -0.031626508 0.043989725 0.031078832 -0.010740846 0.07620635
0.009226693 -0.025779745 -0.026496936 -0.024381496 0.04880076 -0.002926218 -0.043839168 0.010190497
0.007461092 0.028490603 0.056123152 -0.014005753 -0.0141406 0.04785845 -0.015538923 -0.005971171
0.016553607 0.031565454 -0.0021420133 0.01857647 -0.021664208 -0.016982278 0.00029558383 -0.03590016
0.06652083 0.027218686 0.005274474 -0.0032546883 0.04183942 -0.019589068 0.004100327 0.024371665
-0.024686785 0.001767289 0.052587446 0.049114447 0.0055013727 -0.025574237 -0.008862845 -0.018664984
-0.01567488 0.04932917 0.045368887 0.07018804 -0.008666631 -0.026854206 0.0027419324 0.047312237
0.0073003084 0.0061394386 0.025677219 0.003624744 -0.016365472 0.083469704 0.0017954294 -0.015181524
-0.028049182 0.050298013 0.044260934 0.027290797 -0.008861067 -0.030020542 -0.019929897 0.07248281
0.021680383 0.0500579 0.0116843255 0.013091659 -0.008180787 -0.026027862 -0.020046283 -0.0131489
0.042012334 -0.01417779 -0.002872186 -0.02841317 0.0050507644 -0.013077883 -0.042102378 -0.00063937705
-0.01595044 0.0658045 0.025983457 -0.037446026 -0.024478763 -0.008876588 -0.027135748 -0.02692424

critic.ff_layer2.weight f4 [283, 32]
00000000: 7c3d d7bd df32 bf3e 6627 1dbd f27e 6dbe
00000010: 5f67 563e 7b36 08be a0c0 523e 2c00 83bd
00000020: 793b 4dbe 4f7f 29bc c76c cdbd 1302 fd3d
00000030: 086a 4cbe 698e 45be b3eb 0fbd c4e3 ee3e
00000040: 48fe 0bbe 00c0 21be 520a 3f3e 10c5 923e
00000050: 8eed e43e b46d 0dbe f88e 95bd 419b 30be
00000060: d31a d23e 62fc 613e 42e6 403d 344a 66be
00000070: 2f7a 213e 223b cc3c 8483 173e 76da b33e
00000080: f629 a2bd 2422 adbd b938 193e d0e7 663d
00000090: 35ef 88bc 20e5 7abd 34b0 05be 3152 3ebe
000000a0: c72c e5bd 333c fabd 4b0b d7bb ca85 2abe
000000b0: b3c5 993d dcd6 11be 9dbc e1bd 637a 9abd
000000c0: bf0a a8bd bc3f 8f3d 3536 643d 5217 0a3e
000000d0: acbc 32bd b70b 133d 1c3b babc cf13 b53d
000000e0: 1116 7b3d 310d 853d 5358 213e b80a a83d
000000f0: 3a53 15bd 2010 bf3d 2e54 cdbd c8f1 8bbd
00000100: 307c 89bd c969 63bc c891 333d 4e5f 25be
00000110: 68dd f3bd 75e7 9cbc be56 e83c 6701 fb3d
00000120: 04ff f3bd b6fb 4c3d 4e47 883d fd56 f9bd
00000130: dbbc 253d bd8a 28bd 8e98 093d 5854 aebc
00000140: 4fa1 98bd 5750 93bd 618f 213e 944f b43c
00000150: feac a5bd 67e7 363d 7dc0 0e3e 974d b3bd
00000160: 07d7 53bd 9c36 4cbd 2a42 e9bd 4c08 e6bc
00000170: f2df c138 f9f6 9ebd fa54 a6bd 89e0 b3bd
00000180: e7f8 03be d50c 0bbd 0412 ac3d 044e b43d
00000190: 8cbd 263e 20bc 953d 4dc9 c4bd e316 1ebd
000001a0: 79db e7bd e369 843d 017a 123c b803 853d
000001b0: 7ce0 eebd f570 a93d 2299 0dbe 5082 41bd
000001c0: 6548 24be c789 b03d d681 d0bd 1e3d 19be
000001d0: 3f59 bcbc 7458 d43d 1826 03bd 9569 713d
000001e0: 6e6b afbb 1fad 1abe c690 6d3d 1d42 863c
000001f0: 93c9 e7bd 3658 8b3d caca 0e3e 3ddd c43d
00000200: 307d 04be 0754 793c 7bb9 103e f833 043d
00000210: 8cbb 52bd 8c87 993d 65a7 24be 7cb1 b1bd
00000220: ecec a63c 6aee f93d e7ae 78bd 0a88 063e
00000230: c720 373d 2fb8 d33c 8e12 ae3d 5f44 843b
00000240: 9f4d a43d 7448 ab3d b5f6 74bd ea1c cd3d
00000250: 762e 0cbd 8232 a9bd 2759 483d 01fd 093d
00000260: 0f2e 06be 23e2 c13d bb56 973d dd2f 573d
00000270: 6a96 cfbb 1548 2b3d 24fa 463d 79ec 58bd
00000280: bbab 203d 338b cbbd 25d1 6abc b60a 70bc
00000290: 40ce ce3d 1791 403d b4bc 183e 68dd bebd
000002a0: 6a3e 4dbd 8d60 61bc ebf3 0a3e 6c8a 1a3e
000002b0: d6c3 303d c8cf ffbd 8808 d4bd 8c42 46bc
000002c0: bdd2 2dbe af5e a4bd 989f 80bd cad2 903d
000002d0: 6b28 9ebd 79b8 07be df67 aa3d cb93 07be
000002e0: efb4 acbc 3573 123e aa46 2d3d 6176 0cbe
000002f0: e3b7 c13b 6ed4 50bd 976c 923d 45af e23d
00000300: 44d5 f73d 4636 a4bc 50d5 b03d 21c6 0fbe
00000310: 2038 f43d 2a08 963d 4248 15be 1704 52bd
00000320: 511f 60bd 10a8 9cbd 03f9 883a 4f5b 63bd
00000330: 2464 753d 5b82 78bd 486b 0e3e 78e7 0cbd
00000340: 0947 5cbd 014e 21bd 2652 3d3d 101a aabd
00000350: 89cf 5abd 0989 0cbe 3a18 dd3d deb7 893c
00000360: ada1 60bd 4050 9a3d a955 e93b acd2 acbd
00000370: 0d3e 1ebd af1e e339 f2af ef3d 1202 ddbd
00000380: 7eb2 20be fb71 26be 0a46 09be 64aa 70bd
00000390: cdeb a13d 9690 e03c f827 263d b83c 873c
000003a0: 3a47 22bc a15d 0fbe 739c 003e 289e 0e3e
000003b0: 7495 05ba 75a5 883c 243a 5339 1202 8abc
000003c0: c125 89bc b047 df3b 1120 e5bd f6a2 f23b
000003d0: 9964 a4bc 60d2 09be 8801 0d3d 61fd 1b3d
000003e0: 5579 e8bc e441 7f3d 5493 a5bd 7c93 9a3c
000003f0: 74af 0ebe e0b4 623d 4f0b 16be 031e 0fbe
-0.10509774 0.373435 -0.03836765 -0.23192957 0.2093787 -0.13302033 0.20581293 -0.06396517
-0.20042218 -0.010345294 -0.10030513 0.12353911 -0.19962323 -0.19292606 -0.03513689 0.46658146
-0.1367122 -0.15795898 0.1865628 0.28665972 0.4471249 -0.1381138 -0.0730266 -0.17246725
0.4103609 0.22068933 0.04709459 -0.22489244 0.15769266 0.02493054 0.14796263 0.3512761
-0.0791816 -0.084537774 0.14963044 0.056373417 -0.016715625 -0.061253667 -0.13055497 -0.18586041
-0.11190181 -0.12218513 -0.0065626255 -0.16652599 0.07508411 -0.14242119 -0.11022303 -0.07542875
-0.08205175 0.06994578 0.05571576 0.13485458 -0.043636963 0.035899844 -0.022733264 0.08841669
0.06130034 0.06496657 0.1575635 0.082051694 -0.036456324 0.093292475 -0.100258216 -0.068332255
-0.0671314 -0.013880202 0.0438402 -0.16149637 -0.11907464 -0.019153336 0.028361674 0.12256127
-0.11913875 0.050044738 0.06654225 -0.12174795 0.04046331 -0.041147936 0.033592753 -0.021280453
-0.07452642 -0.07193058 0.15777351 0.022010602 -0.08089636 0.044654276 0.13940616 -0.087550335
-0.051718738 -0.049856767 -0.11389573 -0.028080128 9.24467e-05 -0.0776195 -0.08121677 -0.08783061
-0.12887917 -0.033947784 0.08401874 0.08803943 0.16283244 0.073112726 -0.096087076 -0.038596045
-0.11321158 0.06465509 0.008940221 0.0649485 -0.11663911 0.08273498 -0.13827947 -0.047243416
-0.16043241 0.08620029 -0.10181014 -0.1496472 -0.022991775 0.103684336 -0.03201875 0.05893858
-0.005353383 -0.15105103 0.057999395 0.016388947 -0.11317744 0.06803934 0.13944545 0.0961251
-0.1293838 0.015217788 0.14133255 0.032276124 -0.05144839 0.07496557 -0.16079481 -0.086764306
0.020376645 0.12203677 -0.060713675 0.13137832 0.044708993 0.025844662 0.08499633 0.004036471
0.080226175 0.08363429 -0.05980559 0.100152805 -0.034223996 -0.08261587 0.048913147 0.03368855
-0.13103507 0.0946696 0.073895894 0.05253588 -0.0063350694 0.04181679 0.048578396 -0.052959893
0.039226275 -0.099386595 -0.0143320905 -0.014650991 0.10097933 0.04701337 0.14915735 -0.09319574
-0.05010835 -0.01375593 0.1356961 0.15091866 0.043155514 -0.12490803 -0.1035319 -0.012100827
-0.16974922 -0.08025872 -0.0628044 0.07071455 -0.07722553 -0.13253964 0.08320593 -0.13239972
-0.02108237 0.1430176 0.04230372 -0.13717033 0.0059118136 -0.05098384 0.07149618 0.11068586
0.12101224 -0.02004541 0.08634436 -0.14040424 0.119247675 0.07325776 -0.14578345 -0.05127343
-0.054717366 -0.07649243 0.0010450188 -0.055507 0.059909955 -0.06067119 0.13908112 -0.034400433
-0.053778682 -0.03938103 0.04622092 -0.08305752 -0.053420577 -0.1372415 0.107956365 0.016811308
-0.054841686 0.07534838 0.007120807 -0.0843862 -0.038633395 0.00043319675 0.11703481 -0.107914105
-0.1569309 -0.16254418 -0.13405624 -0.058756247 0.079063036 0.027412694 0.04056546 0.016508445
-0.009904677 -0.1400056 0.1255968 0.1392752 -0.00050958176 0.016680459 0.00020144187 -0.01684669
-0.016741635 0.0068139657 -0.11187757 0.0074046804 -0.0200675 -0.13459158 0.03442529 0.038083438
-0.028378168 0.062318698 -0.08084741 0.018869154 -0.13934118 0.055348277 -0.14652751 -0.13976292

actor.customer_encoder.0.attention.query_embed.weight f4 [32, 32]
00000000: 475d bb3e aeb4 283d 3989 283e dac3 b33e
00000010: cf88 b9be 7ad0 acbd 0564 2dbe 9b84 66be
00000020: b607 553e f46e 3a3e 0166 9a3e 53de ce3e
00000030: c80a 72be 9961 8c3d 440e 0e3e 4014 aabd
00000040: 9dbb 653e ddcc a93e 24f9 cebe 2290 f5bd
00000050: b205 133e 784a 96be 2cab 00be 08aa 2e3e
00000060: 0d3f f73d d8c1 49be 05da f9bc 99d2 833d
00000070: f7ea ce3e ae2a 81be 5e63 143d 15c0 f5bd
00000080: 6553 c53e 406f 903e 4d11 abbc 5ced 12be
00000090: 02be a43e 7f45 abbc 9f86 c4bd ea3b 8d3e
000000a0: c4c8 b33d 0254 993c 2ea3 ac3e 8b8f 11be
000000b0: 9c88 823e 8cec 553e e14e 57be 08c2 a43e
000000c0: e981 013e b72b 7ebe 061d 7a3e e93a a0be
000000d0: cfe2 873b 6978 103e 10b2 1f3e 6180 a9be
000000e0: 486a a93e 1dfe 9c3e 64db 673e a217 1d3e
000000f0: fa8b 43be 9266 823e bb3d 7a3d f403 99bd
00000100: 443b 1ebe f764 923d c3fc f4bd c9b1 a1be
00000110: 6d60 3fbe 3457 1dbe 675e 2dbd e530 49be
00000120: 73ff b3bd 7568 61be a877 8abe 95eb 273e
00000130: ec05 60bd e744 26be 5553 5abd c0b0 e23c
00000140: cf61 88be 5bc1 463e 773e 3c3e 48ab 4d3e
00000150: a7cc 59be 2f0b b43e e666 703e 2100 163e
00000160: b31c 2f3e a642 46be e7b1 a03d c7f5 8b3e
00000170: cc1f cd3d 19dd 6539 7f6b bcbe a839 c8bd
00000180: 934f 58be 46ee 8f3e 0b75 0cbd 07e6 94bd
00000190: a324 c1be e4a4 92be 83c8 18be f5df 243e
000001a0: c07d 81bd 41eb 203e 7285 b33e 83bb 41be
000001b0: 889a 9a3d d1d4 6b3d 3c43 8ebe 7a34 12bd
000001c0: 6860 a43d d410 21be 697f 8abe 6144 8d3e
000001d0: 4403 ec3d 2d77 acbe 5fd1 b9be d4c1 443d
000001e0: 3573 2fbe df56 9e3d e39e 353e f64a 9b3d
000001f0: d58c 763e 3126 113e f385 cabc dbd8 823d
00000200: 5d7f ffbd d5c8 4abe 83ee bfbe 960c 0d3e
00000210: 0ccd 9a3e c67a f5bd 629d 623e bab1 923e
00000220: a27d 843d 1b27 303e 8273 713b 7c15 303e
00000230: 4d2b 483e 4e73 553e ec9f 9d3e a178 06be
00000240: 528e d93d 81e5 063e fa94 6abe dbf5 8fbe
00000250: b396 25bd 1d0e 343e 7092 993e b29d f5bd
00000260: 7e24 27be 2830 a0be 69e9 453e 2abd 4fbe
00000270: 7486 ad3d 8c5e 0c3e 9514 82bd 6d5c ab3e
00000280: d093 893e 8977 05bd 7220 1fba 1b18 6b3e
00000290: 063f 5abe eb11 95be 7499 693e af0f 48be
000002a0: a365 c33c d995 c03c 40b6 843e c1de 813d
000002b0: 37fd ff3c b800 a63d 806f 1cbe b0f2 b6be
000002c0: 9b05 973e 42df 88be aaa0 8ebe 8e38 b6bd
000002d0: 8f43 5f3e 7948 18be 260c 863e f880 023e
000002e0: ec4c 763e e607 06be 4b6d 2a3e 3fe0 b03d
000002f0: 1e15 a53e 4cd7 28be 89f0 a33e f523 68be
00000300: a787 56be 5a13 b03e 7c22 523e b215 623e
00000310: 0476 4fbe 2f22 a13e 2991 c3bd 971e 973e
00000320: eb7d 5b3e e66c a5be bcdf 95bd d2f2 c73e
00000330: 7c1e 493e 4519 903d a060 88bc 7a40 0e3e
00000340: 77da d3bd 51be cfbd f988 81be 3758 32bd
00000350: c32d 79be 6e43 56be b800 613e c0f3 5a3e
00000360: 5d34 22be 3701 93bd bc17 1abe b0d8 483e
00000370: 91cf 43be 2f00 48be 77dc 2e3e 5c1e 753c
00000380: fe48 0a3e 093b dcbc 7f90 bd3e 52eb 3fbd
00000390: 685c 913e ea16 4d3d 719e aa3e 9626 62be
000003a0: 734c 4a3e 26c1 f5bd 04ba 503e fdcb 83be
000003b0: 98b6 453e ec6d 9ebd e2d6 0fbe 4c4b 0abe
000003c0: 7799 813e eb07 51bd fbae bcbd 7701 9c3e
000003d0: 60b0 6a3e 2a12 813c 1da2 07be 1e33 c23d
000003e0: bbfc 9bbd b297 9d3e c6f1 0e3e e810 863e
000003f0: 67ff 5f3e 0055 b7bd ab45 87be c1a5 02be
0.36594602 0.041187935 0.16458596 0.3511036 -0.3623719 -0.08438201 -0.16932686 -0.22511522
0.20803723 0.18206388 0.30155948 0.40403995 -0.23636925 0.06854553 0.1387263 -0.08304644
0.2243485 0.3316411 -0.40424454 -0.11990382 0.14357641 -0.2935369 -0.12565297 0.1705705
0.12072573 -0.19702852 -0.030499468 0.06436653 0.4041364 -0.25227875 0.036227576 -0.11999527
0.38540187 0.28209877 -0.020882273 -0.14348358 0.32176214 -0.020907162 -0.095959894 0.27584773
0.087785274 0.018716816 0.33718246 -0.14214914 0.2549485 0.20891017 -0.21026184 0.32179284
0.12647213 -0.24821363 0.24425134 -0.31294945 0.0041469107 0.14108433 0.15595269 -0.33105758
0.330889 0.30662623 0.22642285 0.15341046 -0.19096366 0.2546888 0.061094027 -0.07471457
-0.15452296 0.07148164 -0.11962273 -0.31580952 -0.18689127 -0.15365297 -0.042326357 -0.19647558
-0.087889574 -0.22012503 -0.27044415 0.16398461 -0.054693148 -0.16237222 -0.053302128 0.027672172
-0.26637122 0.19409697 0.18383203 0.2008487 -0.21269475 0.35164782 0.23476753 0.14648487
0.17100792 -0.19361362 0.07846432 0.2733595 0.100158304 0.00021921507 -0.36800763 -0.09776622
-0.21124105 0.28111476 -0.03429131 -0.07270437 -0.37723264 -0.28641427 -0.14920239 0.16101058
-0.06322813 0.15714742 0.35062748 -0.18919186 0.07549006 0.057576004 -0.2778567 -0.035694577
0.080262005 -0.15729076 -0.2705033 0.2759123 0.1152406 -0.33684674 -0.3629255 0.04803641
-0.17133792 0.07731413 0.17736392 0.07582657 0.2407716 0.14174725 -0.024722075 0.06389018
-0.124754645 -0.19803174 -0.37486658 0.13774332 0.30234563 -0.11986308 0.2213035 0.2865122
0.06469275 0.17202418 0.003684253 0.17195696 0.19547768 0.20844766 0.30786073 -0.13131954
0.106228486 0.13173486 -0.22908393 -0.2811726 -0.04042692 0.17583509 0.29994535 -0.119929686
-0.16322514 -0.3128674 0.1932732 -0.20287004 0.084729105 0.13707942 -0.06351582 0.33468953
0.26870584 -0.0325847 -0.00060702034 0.22958414 -0.21313104 -0.29115233 0.22812444 -0.19537233
0.023852175 0.023508953 0.25920296 0.06341315 0.031248672 0.08105606 -0.15276909 -0.3573203
0.29496464 -0.26732832 -0.27856952 -0.08897506 0.21803115 -0.14871396 0.26181144 0.1274451
0.24052781 -0.1308895 0.16643254 0.086365215 0.32242674 -0.16488379 0.3201945 -0.22669967
-0.20950185 0.34389764 0.20520967 0.22078589 -0.20259863 0.31471393 -0.095491715 0.29515526
0.21434753 -0.32309645 -0.073180646 0.39052445 0.19640535 0.0703607 -0.016647637 0.13891783
-0.10344403 -0.10143722 -0.25299814 -0.04354116 -0.24333863 -0.2092416 0.2197293 0.21382046
-0.15840288 -0.07177966 -0.15048116 0.1961391 -0.19122149 -0.1953132 0.17076288 0.0149608515
0.13504407 -0.026883619 0.37024304 -0.04685528 0.28390813 0.05007068 0.33324006 -0.22085032
0.19755726 -0.11999731 0.2038346 -0.25741568 0.19307935 -0.0773581 -0.14046815 -0.13505286
0.25312397 -0.05103294 -0.092130624 0.30469868 0.22918844 0.015755732 -0.13245435 0.09482406
-0.07616564 0.30779797 0.13959417 0.26184773 0.21874772 -0.08951759 -0.2642034 -0.12758543

actor.customer_encoder.0.attention.key_embed.weight f4 [32, 32]
00000000: be6e 0fbe c825 d13c 72c1 893d 79ed c93e
00000010: 91da ad3e 9f30 a7be edf5 103e 32ab 70be
00000020: 306b 2fbe 06c8 283e d2f6 8bbe 57a8 a73e
00000030: 9410 be3d e638 893d 12de 773e 0119 a8be
00000040: 7b3d 933d 479a be3d 5a7d 47be bfad 14be
00000050: 78a3 d03d 11bc a93e 9f17 05be f6d1 5f3e
00000060: 253d 2d3e b85f 4cbe 2223 85be a265 1dbd
00000070: 590c 813e 1fc3 80be 8b01 79be 5f0b 8f3e
00000080: 283a 52be 14ca 77be 99a5 86bc bfff a53e
00000090: 3bf1 6f3e 40a3 433e f945 633d 5aad 47be
000000a0: bf1b 92be a540 3d3e 724c e43d f35f b23d
000000b0: f9c8 e3bd d1a1 b8be e494 d53c 6f93 56bd
000000c0: ac02 c0bc 5e53 3a3d bf73 46be 73b8 56be
000000d0: dc08 abbd e541 053e 7709 63be f1d5 ab3e
000000e0: 9da2 afbe a31e 5abe 04e4 cc3d 42af b0be
000000f0: 0f74 54be 7b29 273e 9637 7bbe 067f e73d
00000100: cf7c 39be 82cc 1bbe c496 5e3d 8de9 f03c
00000110: 815d a73e aa2a 963d 33ca 853d 3c29 49be
00000120: b48b 923e c53f 5cbc a4da 533e e804 90be
00000130: 3465 413e 3c86 903e ed1f 5f3e cb2d 903e
00000140: 4076 20be adff 79be e466 0c3e aeca 263e
00000150: d488 55be f303 e7bd 8547 2bbb 8146 1bbc
00000160: 7477 303e f747 833e 6aa0 cd3d 5c75 14be
00000170: fc9e 68be 1ea4 9a3e 4027 fe3c 2be1 34be
00000180: 7c93 81be 26ea 84be d600 a93e aa59 3ebe
00000190: 3d24 b0be a3bd 91be 26ce 40be 2145 af3c
000001a0: 1a31 6ebe dca2 253e 1a5e 9abd 4a4d 09be
000001b0: e73c 7ebe 658f a9bd 044b c33e 2b12 32bb
000001c0: 4ad7 c63d 8fc5 babe 27bd 423e df46 103d
000001d0: 31d1 96bd ae8b bd3c 966e 27be bb3e 8fbe
000001e0: fca0 41be eb66 d33d 7d30 9c3e fc11 7cbe
000001f0: 97bf 3c3e 3c40 0ebe d319 8e3e bce7 4a3d
00000200: 7286 a0be 780f 90be ea61 b13d 1eb5 373e
00000210: ae67 d83d c772 d43d 3bc4 41bd ba05 52be
00000220: 4a9f 0f3d ca91 93be 39c7 363e 7a5b 05be
00000230: 5c04 9bbe ab2d e83c f694 d43d 17b8 8bbe
00000240: 3c90 5dbe 2790 44bd 5f4f 09be ae74 983e
00000250: b044 903d 97e9 ebbd f3b0 8fbe a913 7bbe
00000260: f900 023e 97a1 93bd 44fb 4e3d 1a59 893d
00000270: 704b 753e 3538 3cbc 51b4 1c3e 05de a6be
00000280: 535a 823e 2d0d a4be 1df3 ebbd 745d a7be
00000290: d42b 453e c021 e7bd dc20 b9be c5c2 2dbe
000002a0: 6141 4b3e f1db 813e 7997 6a3e a299 abbe
000002b0: 3ece 22be 13ab 843d 8ce8 86bb ce8e 47be
000002c0: 1a83 b23e 6a8b 73be 1c4a 6d3e 51f2 5d3e
000002d0: 1cfa a0be b0e7 5dbe da45 65be 6b59 883e
000002e0: 3073 a5be 43ae 913b f134 dcbd 9130 c4bd
000002f0: e848 53be 6e7b 8fbe 9a9a 9fbe 273f c5bc
00000300: 5844 6e3c b530 953d ee6d cc3d 1526 08be
00000310: 84e6 4e3e 9f67 4a3e 708b 91be 581b a93e
00000320: 766d c2bc eaef f8bb aeae b0be cbc2 383e
00000330: 30d4 093e b773 bd3d 4eda 363e fe6c a3be
00000340: 7d15 b23e 37a6 663e 16d3 d2bd b31b 3b3e
00000350: a88e 09be b424 d5bd cb0a dcbb 6380 603e
00000360: 1098 403e 38ff 05be 2cb2 98be 08f2 45bc
00000370: 5ea7 1cbe 261c 19bc 2e56 313e ec41 753e
00000380: 1c8e 663c 1fd2 293e 198d 7f3d 87d4 42be
00000390: c382 563e 8618 6ebe 1512 d0bb 437b 34be
000003a0: cf3b ff3b e723 913e b619 fb3d 0ffd 01bd
000003b0: 91f4 9cbe 6adc 8abe c964 c7bd 2051 2bbe
000003c0: 369d 8c3d 0b74 a6be 53d9 b03e cda9 adbd
000003d0: 8445 6f3e 39b4 753e 5038 933e cb1b 43bd
000003e0: c111 d33c a118 3c3e 8537 8bbe e7ba debc
000003f0: 8cbb 053e 6027 0fbd 53d8 83be 52e6 4d3d
-0.14007089 0.02553071 0.0672635 0.3943899 0.33955815 -0.32654282 0.14156313 -0.23502806
-0.17130733 0.16482553 -0.27336746 0.3274562 0.09280506 0.06700306 0.24205807 -0.32831576
0.07189461 0.0930677 -0.19481412 -0.14519404 0.10187429 0.33151296 -0.12997292 0.21857437
0.16917856 -0.19958389 -0.26003367 -0.038427003 0.25204733 -0.25148866 -0.24316995 0.27938363
-0.20529997 -0.2419818 -0.016436385 0.3242168 0.23431866 0.19105244 0.055486653 -0.19499722
-0.28536794 0.18481691 0.11147393 0.08709707 -0.11122317 -0.36060956 0.026071973 -0.052386697
-0.023438774 0.04548966 -0.19380091 -0.209688 -0.08351299 0.13013418 -0.2217158 0.33561662
-0.34303752 -0.2130075 0.10004428 -0.3450871 -0.20747398 0.16324417 -0.24532923 0.11303525
-0.18114017 -0.15214732 0.054343 0.02940824 0.32688525 0.07332356 0.06532707 -0.19644636
0.2862221 -0.013442938 0.20688874 -0.28128743 0.18886262 0.28227413 0.21789522 0.28159937
-0.15670109 -0.24413939 0.13711125 0.16288254 -0.20852977 -0.1128005 -0.0026135158 -0.009477259
0.17233068 0.25640842 0.10040362 -0.14497894 -0.22716898 0.30203336 0.031024575 -0.1766402
-0.25307834 -0.2595989 0.3300845 -0.18588892 -0.34402648 -0.28464994 -0.1882864 0.021395268
-0.23260918 0.16175407 -0.0753748 -0.1340839 -0.2482792 -0.082793035 0.3814317 -0.0027171473
0.09709032 -0.3647885 0.19017468 0.035223838 -0.07364119 0.023137894 -0.16350779 -0.27977547
-0.18909067 0.103223644 0.30505744 -0.24616235 0.1843246 -0.13891691 0.27754077 0.049537405
-0.31352574 -0.28136802 0.08661254 0.17940184 0.1056665 0.103734545 -0.04730628 -0.20509997
0.03506402 -0.28822166 0.17849435 -0.13023177 -0.30276763 0.028342089 0.103799745 -0.27288887
-0.21637052 -0.047989037 -0.13409184 0.2977652 0.07044351 -0.11519163 -0.2806469 -0.24519219
0.12695684 -0.07208555 0.050532594 0.06706448 0.23954558 -0.01148801 0.1530316 -0.32591262
0.25459537 -0.32041302 -0.115209796 -0.32688487 0.19255 -0.11285734 -0.36157882 -0.1696883
0.19849159 0.25363114 0.22909345 -0.3351565 -0.15898988 0.06477942 -0.004117077 -0.1948807
0.34865648 -0.23783651 0.23172802 0.21674468 -0.31440818 -0.21670413 -0.22389928 0.2663072
-0.32314444 0.0044458224 -0.10752285 -0.09579576 -0.2063328 -0.28023857 -0.3117264 -0.024077965
0.014542662 0.07284681 0.09981905 -0.13295777 0.20205122 0.19766091 -0.28426695 0.33028674
-0.023733836 -0.0075969594 -0.3450827 0.18043058 0.1345985 0.092505865 0.17856714 -0.31919092
0.3478202 0.22524343 -0.10294168 0.18272285 -0.13433325 -0.10407391 -0.006715154 0.21923976
0.18808007 -0.1308564 -0.29823434 -0.0120816305 -0.1529822 -0.00934509 0.17318031 0.23950928
0.014071967 0.16584061 0.06239042 -0.19026385 0.20948319 -0.23251542 -0.006349812 -0.17625146
0.007789112 0.28347704 0.12260763 -0.031735476 -0.3065534 -0.27121288 -0.0973602 -0.16730165
0.06865923 -0.3251041 0.34540805 -0.084796526 0.23366362 0.2399453 0.287539 -0.047633927
0.025765302 0.1836877 -0.27190796 -0.027188731 0.13059825 -0.03494966 -0.2575098 0.05026848

actor.customer_encoder.0.attention.value_embed.weight f4 [32, 32]
00000000: c270 7d3d 911f a93e 022b e63d 345d 053e
00000010: a3e6 aabe 4688 113e 9409 423e 0104 debd
00000020: 698b 61be 0fcb 2fbd beb0 9bbe f28c a63e
00000030: 2f7c 5bbe 31ec a23e 6095 b3be 88c9 663e
00000040: 4b54 17be 3d68 8bbe f0a2 cb3d a7a9 a63e
00000050: 2796 2cbe b049 4b3d 5119 6dbe 40e7 6b3e
00000060: 33f5 a23e 5c62 c5bd 2a6d ad3e 015e 3b3e
00000070: cc70 433d 89c2 1bbe 1ea3 793e 47fc 943c
00000080: 0d1d 19be df13 b2be 0c73 afbe 6e79 b43e
00000090: f353 3fbe ee0c 87be 588d 653e c821 cfbd
000000a0: cefa 86be ae2d 923d 930c 56bd bdad 0b3e
000000b0: c431 a83e f147 b6bd 5430 4e3e 324f cabd
000000c0: ced8 eebd 887c f13d 60d7 a1bd 0b85 c23d
000000d0: a43e a13d c1f7 90be e1b5 a9bd 3356 a33e
000000e0: 3e44 0ebb 329c ab3e 43cd 883e 6a33 cbbd
000000f0: cfbd 23be d1da ee3d 2323 6fbd 97f0 3abd
00000100: 63fe c5bc c1d0 69be 52e6 633e 8778 0dbe
00000110: d06d 93be b964 8dbe 61f6 66be 5d89 853d
00000120: ef4c aebe 15bd 053e 7f06 5fbe d058 2cbc
00000130: 8963 afbd 95ed d8bd b89d 693e 4306 f7bd
00000140: ddc6 f63d d16a 763e 47da 323e 0f09 1a3e
00000150: 14c2 07bd f6d4 3bbe 2ea7 85be bdf1 ab3e
00000160: 963c a4be 2dd5 b0bd 0058 993e e7a7 89bd
00000170: 8b04 98be 3131 b23e db72 babd 923a 173e
00000180: 61b0 243e 2396 e6bd d468 afbe 1f06 4ebd
00000190: bda9 8fbe 43e0 31be 0d46 98be 96d6 283e
000001a0: e1d9 7ebe 406d 303e e13c 983e e279 343e
000001b0: 6c13 573e bef8 753d dd4e 723e b432 aa3e
000001c0: 286b 9a3d bfd7 193e 0c2a 643e cb5c 2fb9
000001d0: b99b 9b3e b94d af3d f6b9 5cbe a376 89be
000001e0: ce42 b83d f60e 8fbe 7759 a3be b434 a83e
000001f0: 21a2 883e a9c3 c3bd 7377 343e 7411 f53d
00000200: d060 a73e 10d7 dc3d eb8c 273e 4374 81be
00000210: 3754 ef3d 3877 8bbe 9c48 8abe c84e 473e
00000220: 602d 31be 4d3b 8c3e 4ae2 b6bd 7121 3c3e
00000230: 4cae a83e b72f 3c3d 8962 a43e ce0d 64be
00000240: 360d 403e f991 e33d ffba 893e 8784 a63e
00000250: 2579 96bd b779 9b3d d1b6 36be cea6 193e
00000260: 53dd b5ba 5dd4 26be 710e 48be 0e90 b43d
00000270: d02f a13e ed3b a0be 75c2 693e 3eb7 7e3e
00000280: ae83 9cbe b52a 253e 3618 003d 60cb 883e
00000290: 5e0e 993e 3e07 4b3e 9683 0dbe d031 9ebe
000002a0: 77b9 7c3e e95e 493a fb32 133e 255b e43d
000002b0: eefd 3f3d 8c00 893e 313c b5bd cb5e 123e
000002c0: eb0c 283e a865 24be 946a 1b3e 2ec1 cd3c
000002d0: 47e7 b3be 073e 483e 32f9 9fbe 9501 243e
000002e0: 31c2 26be 4c0b 30be aaff 4a3e 0bdf 71bc
000002f0: 1933 84be 7304 fb3d c43d 47be f92b a5be
00000300: 099f 913e c6b0 98be ef43 1abe 4b64 5abe
00000310: 954d 8a3e 6795 02bd 1d33 97be e979 543e
00000320: 4200 883e 9308 df3d 96fe 1fbd 4e17 aebe
00000330: 0195 5ebd b9a6 463e 2424 76be 7f5d b2be
00000340: 7bc6 23bb 27e8 673d 2dd8 0dbe 797e 15be
00000350: bb65 8cbe e52d 5bbd cc65 a83e d8c0 963e
00000360: f044 713d db65 9a3a 7ab6 a13e 6702 583d
00000370: e2d7 47bd 5285 80be 1a35 a73e f6db acbe
00000380: 4f23 fdbd 4c04 9e3d 2edc 303d a386 ecbd
00000390: 8e9c a8be 017c 103d 830e aebd fec4 7dbe
000003a0: 9392 60be 40d3 30be 9a78 a7be c5a9 2f3e
000003b0: eed1 abbb b4b5 9cbe a9de 373e 5b12 8a3e
000003c0: 266e a13d 8914 f3bd bf43 e8bd 9122 ea3d
000003d0: faf5 aa3e 431b 103d 10e2 09be a023 45bd
000003e0: d4cb 0a3e 10ef 9d3e 915f ad3e 397b b43e
000003f0: a33a 78be ee8d 703d 13d4 9a3c 3339 953d
0.061875112 0.33031896 0.11238672 0.13023835 -0.33379087 0.1421214 0.18948966 -0.108406074
-0.22025837 -0.04291826 -0.3040828 0.32529408 -0.21434091 0.31820825 -0.35074902 0.22537816
-0.14778249 -0.27227965 0.09943187 0.3255131 -0.16854154 0.04963082 -0.23154189 0.23037434
0.31827697 -0.09637901 0.33872348 0.18297578 0.047714993 -0.15210928 0.2437863 0.018186701
-0.14952488 -0.34780785 -0.3426746 0.35248893 -0.18684368 -0.26377052 0.224172 -0.10113865
-0.26363224 0.07137619 -0.052258085 0.13640495 0.32850468 -0.089004405 0.20135623 -0.098783866
-0.11662446 0.117913306 -0.07902408 0.09498032 0.07873276 -0.2831402 -0.08286644 0.31901702
-0.0021708156 0.33517605 0.26719102 -0.09921916 -0.15990375 0.1166283 -0.05838312 -0.0456396
-0.024169153 -0.2283354 0.22255829 -0.13815509 -0.28794718 -0.27615908 -0.22554924 0.065203406
-0.3404307 0.1306041 -0.21779822 -0.010519221 -0.08563907 -0.1059219 0.22814071 -0.12061741
0.12049649 0.24064185 0.17466079 0.15042518 -0.03314407 -0.18342957 -0.2610411 0.3358287
-0.32077473 -0.0863441 0.2994995 -0.06721478 -0.29690966 0.34803155 -0.09103938 0.14768437
0.16082908 -0.11259105 -0.34259665 -0.050298806 -0.28059188 -0.17370705 -0.29740945 0.16488108
-0.24887802 0.17229176 0.29733947 0.1762462 0.21003503 0.060051672 0.23662896 0.33241808
0.0753997 0.15023707 0.22281665 -0.00016723869 0.30392244 0.08559746 -0.21555313 -0.26848325
0.08997117 -0.27941102 -0.31904194 0.3285271 0.26686195 -0.095588036 0.17623691 0.119662195
0.3269105 0.107832074 0.1636235 -0.25284013 0.116859846 -0.27239394 -0.27008522 0.19463646
-0.17302465 0.27388993 -0.0892988 0.18372132 0.32945478 0.045943942 0.32106426 -0.22270891
0.1875504 0.111118264 0.2690048 0.32522985 -0.07347325 0.07591575 -0.17843176 0.15005037
-0.0013875164 -0.16291948 -0.19536759 0.08816539 0.3148179 -0.3129572 0.22828086 0.24874589
-0.30569214 0.16129573 0.03127309 0.26717663 0.29893774 0.19826981 -0.13819727 -0.3089738
0.24680124 0.0007681684 0.14374916 0.11150197 0.046873026 0.2675823 -0.08849371 0.14293973
0.16411178 -0.16054404 0.15177375 0.02511653 -0.35137388 0.19554912 -0.31244808 0.16016228
-0.16285016 -0.1719181 0.1982409 -0.01476265 -0.25820234 0.12256708 -0.19457155 -0.3226011
0.28441647 -0.29822367 -0.15064977 -0.21327321 0.27012315 -0.031880762 -0.29531184 0.2074963
0.26562697 0.10890307 -0.03906115 -0.34002155 -0.05434132 0.19399537 -0.24037224 -0.34836957
-0.002499013 0.056617882 -0.13851996 -0.14599027 -0.27421364 -0.053510565 0.32890165 0.29444003
0.058903635 0.0011779623 0.3158453 0.052736666 -0.048789866 -0.25101715 0.326577 -0.33761567
-0.1236025 0.07715663 0.04317873 -0.115491174 -0.32931942 0.03527451 -0.08498862 -0.24782178
-0.21930914 -0.17268085 -0.327092 0.17154606 -0.0052435314 -0.30607378 0.17956032 0.2696713
0.07882337 -0.11869151 -0.113410465 0.11432374 0.3339079 0.03518225 -0.13465142 -0.048129678
0.13554317 0.30846453 0.33861974 0.3525026 -0.24241118 0.058729105 0.018899953 0.072863005

actor.customer_encoder.0.attention.combine.weight f4 [32, 32]
00000000: d5f3 e7bc b0a0 02be 60c2 8c3d 7db6 e63d
00000010: df52 083d 3e31 a43c 3e71 213e 663f 7dbd
00000020: d137 b8bc e330 523d 13c6 d7bd 9e07 15be
00000030: 82ef 05bd 203f e03d 5415 a6bd d455 7a3d
00000040: 085a 9fba 227e 213e 514f d33d 6575 b3bd
00000050: c6ce 2ebe d215 bc3d 8fa0 33be 06f1 ebbd
00000060: 165c 203e c174 2b3d 4c69 4a3c ea2c 00be
00000070: 0770 15bd 7e7b 903c 812d c33d 9ee4 9cbd
00000080: cf88 d0bc ac4d 2e3d fca6 32be 8887 50bd
00000090: 0964 2bbe da1d 7abd 3e6a cbbd bb90 be3d
000000a0: 5aa8 e5bd a300 2dbe f74d bfbc f0d5 abbd
000000b0: c1b6 bfbd 2354 5abd 08df 8f3d 83ef 1abe
000000c0: 368b 05be cab6 c43c 01af b63d 6921 963b
000000d0: 4062 2b3e 8aa8 b03d 190d 04be fb9f c13d
000000e0: 470e afbd f45d 033e fec9 08bd 11e0 123e
000000f0: e3e8 e5bc 3146 35bd 0af9 03be 20b1 2e3e
00000100: 9655 e1bd 8c78 a0bd 33d1 b4bd abe0 41be
00000110: 33ae acbd aff5 213e 7b22 ea3d 5930 343d
00000120: 0d03 86bd 0ad9 333c fc90 43bd 53b3 21be
00000130: fffd 0a3e 068a ba3d 4b99 1e3e 9069 1bbe
00000140: ec9a 213d 220a af3d 3e30 95bc e714 be3d
00000150: 324a d33d 4e0d c8bd 812d 013e f23f 3b3d
00000160: 34dd fcbc 530d 853d 920b 043e 0ddb 403d
00000170: eafc b43d 1bb3 08be bab5 c3bd 5907 bcbc
00000180: 14fe bf3d e23b d63d afe4 35bd 8fd2 3fbd
00000190: 629a 11bd cb2e 70bd fe2c 173e 92d2 c73d
000001a0: 9dad cb3d f676 85bd 6bbd 5dbd 92cb 19be
000001b0: 301f 183e c4ae 91bd 1187 d0bc 9290 e6bd
000001c0: 939d 4b3d c69b 963d aa49 3abe 826f 0f3e
000001d0: 52a3 5e3d 981d b53d 1be7 0cbe 74e8 863d
000001e0: 9e4d 303e 851c 093e 7a1c d2bd 26a8 ca3c
000001f0: 4372 e6bd feba 5c3d 6f20 903d 7930 be3d
00000200: f6bb 18be ffc1 bd3d 54c3 aabb b1c2 01be
00000210: 6cca a9bd cf79 2c3e e22c 10be 0074 f93d
00000220: dbf8 1f3e f6fc f1bd 2da6 23be 6b26 fbbd
00000230: 405f d73b 0ebe 27be f444 fc3d a306 153e
00000240: b6f6 80bc ac22 b53d f706 e43d ca77 423d
00000250: e2ea a2bd 3a96 5b3c 4888 1b3e 56fe 29bd
00000260: 5b7c 043d 30ad 2fbb b778 87bd fef6 1bbd
00000270: d82d adbd 24cf 52bd d859 303e 90e5 0fbd
00000280: 1011 b9bc f5c3 223e 278f 743d 432f 0dbe
00000290: b490 5cbd 4845 75bd ffa5 9fbd b927 13be
000002a0: 6e54 a93d 68dc 093e ff1b 11be 124c 2f3e
000002b0: 00c9 af3d 7c06 2b3e c1a1 01be 2a88 683d
000002c0: 06c8 033e c8de d73d cb10 40bd 34c1 013e
000002d0: 7acf cb3d 54f5 f8bd dd76 b63d 7c0a b2bd
000002e0: 1154 173e e1f1 83bd a338 e0bd 73e8 a63d
000002f0: 1b6c b4bd 0206 87bd 9f19 e03d 75ec 323e
00000300: 0985 563d b5ae 213e 3efa 943d e1b2 d9bc
00000310: 20da 82bd 0748 27bd 19f3 c2bb 19fd 71bc
00000320: 4285 c93c 0b39 1d3d fa38 fdbd d7e2 d5bd
00000330: 3070 203e 842a bbbd 1207 9d3d 8b69 2f3e
00000340: dc06 1fbe e09c 653c fbe6 0f3d 9884 e9bd
00000350: 0561 1dbd 7e01 a9bd c6ee 2bbe 8e2e 25bd
00000360: 2f52 1f3e d0c0 413e d5c2 ddbd 265a 38bd
00000370: 0ec8 b9bd a2b6 d23d 745b 1cbe 165a 80bd
00000380: 71c6 6abd 444c a6bd 8a0e 1a3e 7647 1ebe
00000390: 6475 fcbd 8529 24be 77cf 96bd 9ea7 a53d
000003a0: 47fa 0a3d 934e 30bc 0e6c 0e3e 8508 ed3d
000003b0: 3b49 1f3d f238 493d b04e 63bd eef3 29be
000003c0: 0e35 093d 7326 273e 932b 113e 9027 d0bb
000003d0: ce92 6ebb 3f0d 233e 6fd9 41be 4d6f 0c3e
000003e0: 48c6 243e 5e98 bd3d 75d2 a43d 5b25 ed3b
000003f0: a124 513d b186 b2bd e540 e8bc d492 efbd
-0.02831451 -0.1275661 0.068730116 0.112652756 0.033282157 0.020043012 0.15765855 -0.06182804
-0.022487553 0.051316153 -0.105358265 -0.14553687 -0.032699116 0.1094954 -0.08109537 0.06111701
-0.0012157569 0.15770772 0.10317863 -0.087626256 -0.17071065 0.091838494 -0.17541717 -0.11520581
0.15660128 0.041859392 0.012354206 -0.12517133 -0.03648379 0.01763701 0.095301636 -0.07660793
-0.02545586 0.042554542 -0.17446512 -0.050910503 -0.16737379 -0.061063625 -0.099323735 0.09304949
-0.11213751 -0.16894774 -0.023352606 -0.08390415 -0.093610294 -0.053302895 0.07024962 -0.15130429
-0.13041386 0.024012942 0.08920098 0.0045816195 0.16736698 0.08625896 -0.12895621 0.09454342
-0.08547645 0.12828809 -0.03339576 0.14343287 -0.02806515 -0.044256393 -0.1288797 0.17059755
-0.11002652 -0.078354925 -0.08828964 -0.1893336 -0.08431663 0.15816377 0.11432358 0.04399142
-0.06543551 0.010977039 -0.04774569 -0.15791063 0.13573454 0.09108357 0.15488164 -0.15176988
0.039454386 0.085468546 -0.01821148 0.092813306 0.10316886 -0.09768163 0.12615015 0.04571528
-0.030867197 0.06496682 0.12895039 0.047083903 0.08837302 -0.13349573 -0.09556146 -0.022952722
0.093746334 0.104606405 -0.044407543 -0.046831664 -0.03554762 -0.058638375 0.14763257 0.0975696
0.099452235 -0.065168306 -0.05413572 -0.15019062 0.14855647 -0.07113412 -0.02545503 -0.11258043
0.04971082 0.0735393 -0.18192163 0.1400738 0.054354973 0.08843535 -0.13760035 0.06587306
0.17217109 0.13389786 -0.10259338 0.024738383 -0.112522624 0.053889267 0.07037436 0.09286589
-0.14915451 0.092655174 -0.005211273 -0.12671925 -0.08290562 0.16843341 -0.14079621 0.12180328
0.15622275 -0.118158266 -0.1598136 -0.12263187 0.006572634 -0.16381094 0.12317839 0.14553313
-0.015742641 0.08844504 0.11134141 0.04747752 -0.079549566 0.013402516 0.15188706 -0.04150232
0.032345157 -0.0026806109 -0.066148214 -0.038077347 -0.084560096 -0.051467076 0.17221773 -0.035131037
-0.022591144 0.15895064 0.059706833 -0.1378756 -0.053848937 -0.059880525 -0.07795333 -0.14370622
0.08268057 0.13462985 -0.14170836 0.17118862 0.085832596 0.16701692 -0.1265936 0.05677048
0.12869272 0.10540539 -0.046891015 0.12671357 0.099516824 -0.121561676 0.0890939 -0.08693406
0.14778163 -0.06442619 -0.109483026 0.08149805 -0.08809682 -0.06592943 0.10942387 0.17473014
0.052372966 0.15789302 0.072742924 -0.026574554 -0.0638926 -0.040840175 -0.0059493897 -0.014769816
0.024599675 0.03838448 -0.12364383 -0.10443657 0.15667796 -0.091389686 0.07667364 0.17130105
-0.1552996 0.014014453 0.03513239 -0.114022434 -0.038422603 -0.08252238 -0.16790304 -0.0403276
0.15558694 0.18921208 -0.10828177 -0.045007847 -0.090713605 0.10288741 -0.15269262 -0.062671825
-0.057318155 -0.08120015 0.15044609 -0.15456948 -0.12327078 -0.16031463 -0.073637895 0.08088611
0.03393009 -0.010760921 0.13908407 0.115738906 0.038888197 0.049126573 -0.055494964 -0.16596958
0.033497863 0.16323261 0.14176778 -0.0063523725 -0.003640342 0.15923022 -0.189306 0.13714333
0.16091263 0.09257577 0.08047954 0.007237119 0.051060323 -0.087170966 -0.028351257 -0.11697927

actor.customer_encoder.0.BN1.weight f4 [32]
00000000: d990 803f d102 833f 0d14 813f f231 793f
00000010: 9ac7 7d3f 86e4 7c3f c81f 803f 3523 833f
00000020: d8db 7e3f 3869 7d3f ce87 803f a725 823f
00000030: fb97 7e3f 22a0 803f 743e 793f ad8b 7e3f
00000040: a700 7d3f cd6c 803f 6bb3 843f 536e 803f
00000050: a5d1 7d3f fa22 7d3f 5634 7f3f 1c9c 7f3f
00000060: 7a97 803f e4b8 7f3f 90ce 7d3f 0dc5 7f3f
00000070: 73ab 7f3f 8405 7a3f 7c84 823f f191 803f
1.0044204 1.0235234 1.0084244 0.97341835 0.9913269 0.987862 1.0009699 1.0245119
0.99554205 0.98988676 1.0041444 1.016774 0.99450654 1.0048869 0.9736092 0.9943188
0.9882912 1.0033203 1.0367254 1.0033668 0.9914802 0.98881495 0.99689233 0.9984758
1.0046227 0.99891496 0.99143314 0.9991005 0.99870986 0.97664666 1.0196681 1.0044538

actor.customer_encoder.0.BN1.bias f4 [32]
00000000: 0b07 4dbc 7bad b4bc 78a9 35bc 09b0 a83b
00000010: c035 22bc 2a0a a0bb 9e23 ba3b 2d9b c83c
00000020: 3add 9c3b cb30 543b a5d1 17bd 7a52 133a
00000030: b86a b2bb 648f de3b 930b 7bbc fae5 7fbb
00000040: bf97 063c 7b15 af3b 2c75 11bc bf09 3c3a
00000050: 4740 63bc ec45 133c 7076 753c b46d 2c3c
00000060: 1b3c a73c c904 1ebc 577b 6abc 9f70 fdbb
00000070: 1891 89bc 5b4a d53c 1453 9b3c 4fad 38bb
-0.012513886 -0.022055378 -0.011087768 0.005147938 -0.00990051 -0.004884024 0.0056805154 0.024488056
0.0047871144 0.0032377716 -0.037065167 0.0005619895 -0.005444851 0.006791996 -0.015322584 -0.0039046989
0.00821489 0.005343137 -0.008878034 0.0007173083 -0.013870305 0.008988839 0.014981851 0.010524202
0.020414403 -0.009644696 -0.014311633 -0.0077343727 -0.016792819 0.026036432 0.018960513 -0.0028179472

actor.customer_encoder.0.BN1.running_mean f4 [32]
00000000: 2008 443f e116 cdbe 9da8 f53e eda7 113f
00000010: 918b 58bf c45d d63e 8c91 fa3d 15ed 303e
00000020: 707e 96be c89a a13e 95bc 84be 8638 9c3e
00000030: 1def 17bf d805 8e3f 8390 173f 0e41 c03e
00000040: 5c18 45be 2c80 b1be 477e 013e 0d92 2e3e
00000050: 142b 96be d536 03bf d88c 10bf 46a6 02bf
00000060: 12ba 2f3e b4b7 b93d 49bc 223e 5de7 d63e
00000070: 7adc 083e 08df 46bd b2b0 5f3d fd74 1ebd
0.765749 -0.40056518 0.47980204 0.5689686 -0.8458796 0.41868412 0.12234792 0.1727794
-0.2939334 0.315634 -0.25925127 0.30511874 -0.5934923 1.1095533 0.5920488 0.37549633
-0.19247574 -0.346681 0.12645827 0.17047901 -0.2932974 -0.5125554 -0.5646491 -0.51034963
0.17160824 0.09068242 0.15892138 0.4197339 0.13365355 -0.048552543 0.05461187 -0.038685787

actor.customer_encoder.0.BN1.running_var f4 [32]
00000000: 8360 9f3c d1fb 393b d4bf 003d 7c16 8e3c
00000010: f3a6 e63c 0057 fb3c 8238 7d3c be38 343b
00000020: 3e24 263c a0e7 2a3b d094 d23c 82e4 603c
00000030: f24d 9f3c 08a1 5b3d 2f02 233c 07db 393c
00000040: 4d31 af3b 511d 043c e637 313c 9846 db3b
00000050: 6236 063c bc0c 043d 9e92 373c 51ed 963b
00000060: 5fa7 743c 32a4 013b 5c37 713c de46 6b3c
00000070: 049b 173d 0e5d 813c 8674 773b f821 593c
0.0194552 0.0028378854 0.03143294 0.017344706 0.02815578 0.030681133 0.015455367 0.0027499641
0.010140477 0.0026078 0.025705725 0.0137263555 0.019446347 0.05362037 0.009949251 0.011343724
0.0053464533 0.00806363 0.01081655 0.006691765 0.008191677 0.032238707 0.01120439 0.004605927
0.0149324825 0.0019781706 0.014722671 0.014360158 0.03701307 0.015791442 0.0037758662 0.013252728

actor.customer_encoder.0.FFN_layer1.weight f4 [32, 32]
00000000: 70f0 bfbc fc6e 34be 8baf c23d fc12 a4bd
00000010: 9869 d93d 8009 f2bd 5016 253e 7afb 8dbc
00000020: b004 2d3e 202c 953d 7241 fc3d bf5b de3c
00000030: 0ac5 e3bd 4282 b63c 9156 243e c11e 18be
00000040: 77e8 6e3d 6820 77bc 1dec 033e 4c05 04be
00000050: 302e 0bbe 407a 213d 4bbc 45bd c5d0 94bd
00000060: 0a2b 343d 0af5 f83d 714b 01be fa0e 53bc
00000070: 9bd7 96bd 1e8b cbbc eed9 a5bd b9df 283e
00000080: 1c29 dc3d e358 9e3d 757d 4fbd 74b5 ba3d
00000090: 4715 d7bd 368e 11be 7ef0 d7bd ac56 88bd
000000a0: ef33 0fbe 831d df3d 2a86 dcbb 9fc6 86bd
000000b0: 74bd dbbd 3c13 153e e71d 263e ac42 edbd
000000c0: 55db 113e 66a1 4d3c ebbd 7abd 4ac6 ad3d
000000d0: 9cc8 07be 537d 37be 73f7 96bc 09e8 f53d
000000e0: c151 193e 9ee5 1f3e 9e34 a63d 4577 343d
000000f0: 3467 753c 6044 00be 0f29 173e ec65 153e
00000100: 2f86 27be 191e 6abe 9028 0bbd 341b 95bd
00000110: 6de9 a6bd 80f4 293e 0959 ccbc 2622 543e
00000120: 97f9 3dbc b029 b8bc 6eec 0fbc 2c36 7fbd
00000130: 5f15 6cbd 5c07 96bd 6313 a3bd ff89 b13c
00000140: a201 813d a4b2 a83c 4052 6c3d a62d 7abd
00000150: 3fdf 2cbe ac18 823d fb6a f03c 6961 47be
00000160: 8088 383e 1b61 6fbd 69c7 05be 78e6 ddbd
00000170: c19e 3fbd 821c 1dbe f19f ef3c f160 d7bd
00000180: 6bd4 ecbd 3ccd 393e e6f1 67bd 1ce8 b6bc
00000190: 8622 dcbd c8c1 a3bb a196 d2bd e419 e4bd
000001a0: 4bd9 bfbd 699f 2dbd 0e5a 7e3d ae06 8c3d
000001b0: 8ecb e13d 0504 aebd 2c10 14be ea56 a6bc
000001c0: 7168 063e 0455 053d 6ce9 1a3e 550c 113e
000001d0: 026c e03d 6810 c2bc 62ef ae3c 6ef0 01be
000001e0: a752 193d 1b94 e23c 7ac7 09be 52aa eebd
000001f0: 2b5e b4bd 7af0 2e3b 510a 34bc 5a36 3a3d
00000200: 91c1 adbd 71a6 1b3e a38d b6bd 1810 d23d
00000210: fbad 2c3e e430 1b3e b0f8 bcbd f593 cbbd
00000220: 196e 93bd a2af e8bd 7f0f 4cbd 5f2a 67bd
00000230: 8fae 953d 5867 123e 97c3 733d e4bc d33c
00000240: d522 35bd 7809 7fbd 0dc5 413e 4bdb 22be
00000250: dccd db3a de4c 25be 701c 5ebd ea79 00be
00000260: 2367 3fbe 21fa bc3d 8cb8 aebd 37cf 0e3d
00000270: bdd8 193e eda0 ebbc 3197 423d 79f8 7cbd
00000280: 9230 f43d 39b8 3c3e 0b5c 79bd 5a5c 18be
00000290: ea52 063e 5452 083e 6b1f a43d f39e 35bb
000002a0: 3783 313d 79a2 0c3d 7e39 c13c 53db 4abd
000002b0: 6b9f 3e3d 3e0a 233e 6fc1 5ebd 357d 0cbe
000002c0: 845c edbd 130c 46bb f137 8a3d 3d93 1a3c
000002d0: a150 2b3e 6caf 2a3d 96fd 913d 1a78 22be
000002e0: 8de1 e83d 1ab3 173e 2555 433d b825 943d
000002f0: d841 22be 9404 1a3e 10e9 49bc 9d10 2fbe
00000300: a342 a23d 8bf8 c23d 4b00 073e c38e 393e
00000310: 2c0c 433c 2773 eb3d 69e1 3f3e 11c9 af3d
00000320: 7015 433d 7b0c 26bd 2b79 fabd 9b18 aa3d
00000330: 18a8 1bbe 34fd d53c 3822 19be c91a 2fbe
00000340: b0bd 73bd 5188 2dbe 8b7e b93d efd5 033d
00000350: 14f7 95bd 3d90 163e 8974 763d d581 c33d
00000360: ca32 ccbd 39d7 2abe 1ff6 1abd 4dd2 083e
00000370: 18b1 06be caa6 08be 8fed bc3c b501 5c3d
00000380: bef0 a43d 2e88 663c 3d48 d5bc b02c a8bd
00000390: eb7f 01bc 16e9 0e3e 0d53 e6bd 2752 2abe
000003a0: 185d 0cbc bfd8 9a3b 587e f03d ce13 4a3d
000003b0: 031b 3e3e 3af1 b2bd e637 8c3d 4010 afbd
000003c0: 8323 edbd 3620 a8bd e43f 543e d8fc ddbd
000003d0: 8963 babc 232a fa3c 32e0 e0bd fb50 113d
000003e0: 9cbc f7bd bfdf 143e e803 0b3e bd60 973d
000003f0: 432b e73d 7af8 883d c26c d03c faa6 bf3c
-0.02343008 -0.17620462 0.095061384 -0.080114335 0.106158435 -0.11818218 0.16121793 -0.017331827
0.1689632 0.07283807 0.1231717 0.027143357 -0.111215666 0.022278909 0.16048647 -0.14855482
0.058327165 -0.01508341 0.12883039 -0.12892646 -0.13591838 0.039423227 -0.048275273 -0.07266382
0.043986358 0.121561125 -0.12626435 -0.012881989 -0.07365342 -0.02484661 -0.080982074 0.16491593
0.107500285 0.077317975 -0.050656755 0.09116641 -0.10502105 -0.14214405 -0.10543917 -0.06657156
-0.13984655 0.10894301 -0.006729861 -0.06580853 -0.10729495 0.14558119 0.16222344 -0.11584982
0.14243825 0.012550687 -0.061216276 0.08485086 -0.1326012 -0.17918901 -0.01842854 0.12007148
0.14972593 0.15614936 0.08115505 0.044059057 0.014978219 -0.12526083 0.14761756 0.14589661
-0.1635978 -0.22863044 -0.03397423 -0.07280579 -0.08149991 0.16597176 -0.024944799 0.20716152
-0.011595151 -0.022480816 -0.008784397 -0.06230752 -0.05763757 -0.073256224 -0.07962682 0.021672247
0.062991396 0.020592995 0.057695627 -0.06107869 -0.16882037 0.06352362 0.029347887 -0.19470753
0.1802082 -0.058442216 -0.1306435 -0.10834974 -0.04678226 -0.15342906 0.02925107 -0.10516537
-0.11563953 0.18144697 -0.056627177 -0.022327475 -0.10748772 -0.0049974658 -0.102826364 -0.11137751
-0.09367617 -0.042388353 0.0620976 0.068372115 0.11025153 -0.084968604 -0.14459294 -0.020305116
0.13125779 0.03255178 0.15128106 0.1416486 0.10958101 -0.023689464 0.021354381 -0.12689373
0.03743234 0.027658513 -0.13455 -0.1165358 -0.088070236 0.0026693628 -0.010988788 0.04546199
-0.084841855 0.15200211 -0.08913734 0.10256976 0.16863243 0.15155369 -0.09227121 -0.0994033
-0.07198734 -0.11361624 -0.049819466 -0.056436893 0.07308685 0.14297235 0.0595127 0.025846906
-0.04422267 -0.06226489 0.18922825 -0.15903966 0.0016769725 -0.16142604 -0.05422634 -0.12546507
-0.18691687 0.09227396 -0.08531293 0.034865584 0.15024085 -0.028763259 0.04750747 -0.0617604
0.119233266 0.1842965 -0.060878795 -0.1487898 0.13117567 0.13312656 0.08013805 -0.002771315
0.043338027 0.034334633 0.023586985 -0.04952557 0.04653875 0.15921876 -0.05438369 -0.13719638
-0.115899116 -0.00302196 0.06748951 0.009434518 0.16729976 0.0416712 0.07128446 -0.15866128
0.113711454 0.14814416 0.047688622 0.07233757 -0.1584543 0.15040809 -0.012323633 -0.17096181
0.07922866 0.09520062 0.13183706 0.18120866 0.0119047575 0.11496573 0.18738331 0.08583272
0.047627866 -0.040539246 -0.12230142 0.08305474 -0.15200841 0.026121713 -0.1495446 -0.17100061
-0.059507072 -0.16946532 0.09057339 0.032186445 -0.07322517 0.1470346 0.06016973 0.09546248
-0.09970625 -0.16683663 -0.037832376 0.13361473 -0.13153493 -0.13344875 0.023062496 0.053712565
0.080537304 0.014070554 -0.026035422 -0.082116485 -0.007904033 0.13956103 -0.112463094 -0.16632901
-0.008567117 0.004725545 0.11742848 0.049335293 0.18564992 -0.087374166 0.06846599 -0.08548021
-0.11579039 -0.08209269 0.20727497 -0.10839242 -0.02275254 0.03053767 -0.10980262 0.03547762
-0.12096521 0.14538477 0.13575709 0.07391498 0.112875484 0.06688018 0.025442485 0.02339505

actor.customer_encoder.0.FFN_layer1.bias f4 [32]
00000000: 227b 293d 5259 ae3d aac8 7dbc caa3 c63d
00000010: 578d b93c e082 06be 78e2 2e3e 504f 44bc
00000020: a7f5 87bd eda4 9a3d b01d d93c 14ea 25be
00000030: a0e9 1f3e 1068 18bc 4d6e 8d3d 5ce1 6fbc
00000040: 7b2e 19be 8ac2 00be 9439 02bd c9cb 39bd
00000050: 898c 0e3e 6dec 0a3d 6180 1d3e 396c 293e
00000060: 33d5 c63c 4cbf 6cbd 9f4d 99bb dda5 66bd
00000070: 260b 33be 378d 6e3d 5574 8f3d 43be 53bd
0.041377194 0.0851313 -0.015489737 0.09699209 0.022650404 -0.13135862 0.17078578 -0.0119818
-0.06638651 0.07550988 0.026503414 -0.16202575 0.15616465 -0.009302154 0.06905804 -0.014641132
-0.14959137 -0.12574211 -0.031793192 -0.04536036 0.13920797 0.03391688 0.15381004 0.1654519
0.024271583 -0.057799622 -0.0046784426 -0.056310523 -0.17484722 0.05824014 0.070046104 -0.05169512
