output/282nodes_entropy0.01_0.4_0.85_2_230823/epoch67.pth (torch, 519145 bytes, 129 tensors)

critic.ff_layer1.weight f4 [32, 283]
00000000: bc49 0a3e a0af b93d 2a54 113c a0a3 263d
00000010: 04b1 07bb 9cf1 f4bb ecb4 49bc 7d9a 013d
00000020: fccb 303d 3bfd edbc 81c1 103d aa75 0c3c
00000030: 1015 b23c 3d3f fe3c 22c2 0c3d 7737 053c
00000040: 1742 1f3d 49f1 823c 7059 d53b 47ea dc3c
00000050: 2228 2fbc 730f 213d 5d41 febb a0b6 683d
00000060: 5dbb 82bc c336 ddbb 5d83 03bd d5ca 9bbc
00000070: 9f97 8d3b 2a2d fbbb fa7e 883d 5d40 70bc
00000080: 0d71 623d 5ff8 c43c 2c1b c9bb c735 463d
00000090: 42e2 d03c 3f6e 973d 656d 42b9 f83a 9ebc
000000a0: 486a 3c3d edc2 a9bb ad45 ee3b 0ac5 303d
000000b0: 5c65 2f3d 32de 59bb 115d 3e3c 7291 19bc
000000c0: 0871 973c 33a3 08bc ea9e 91bc 3836 4ebc
000000d0: d5c2 00ba 839f 2b3d fe5c 443b 97e6 ff3c
000000e0: 57d9 09bb 34e2 8a3c d543 a73d 39a4 e4bc
000000f0: c5aa 513d 0529 95bc 9578 093d d17c 0ebd
00000100: cd7c e5bb 7021 b23b e1d0 bc3c 5385 7bbb
00000110: d8ce 0dbb 4d58 16bc 401c f43d 145d 35bc
00000120: 3333 903d a0e4 bcbb 118e c3bc cf24 6bbc
00000130: ec21 ab3c ed80 4f3c 520f d73c 7372 c73d
00000140: af6d 15bd db3c a9bb 59f9 213c 4e8d 40bd
00000150: 9e85 373d c681 923c 7a70 193d 8687 7dbc
00000160: b569 833c 45a6 113c df97 403b 23dd 373c
00000170: cbbd 433d 6112 2a3d a9da 57bc bc11 23bc
00000180: ae47 7e3d 97f1 8eba 7f7e cdbc 018a cd3b
00000190: e777 eebc a238 5cbc ab32 b9bc a4a5 17bd
000001a0: 6c3d 873c b343 e3bc 76d4 c1bb 8c1a cdbb
000001b0: ccea 1abd fdcc 48bc 64d0 673d 614d 1139
000001c0: a12e 3c3d e988 9dbc 88e6 2bbc d253 96bc
000001d0: e158 9b3c aa0a 36bc 2b1d 61bc 3f5c 9ebc
000001e0: 2b45 5bbc 8236 fd3c 7cc5 51bc 3b83 05bc
000001f0: 9222 27bc f009 39bc 96fc 64bc 9671 e1bb
00000200: 4b64 3e3d 8bf6 a03a c7d3 fc3c 1786 263c
00000210: f21c 03bd 8b61 033d ef5e c53b ae0c 873b
00000220: 1509 16bd 126d c9bc bab1 8a3c fb84 dabc
00000230: 6537 863b 2611 3cbb 0b39 813d 0545 9d3c
00000240: daee 8cbc 5b3f 673c 65c0 2d3d cdd4 673d
00000250: 8ce2 ad3c 202d f1bc 11c7 5dba 9fce 07bd
00000260: 0b20 a13c cc50 0dbc fed9 d93d 5887 05bd
00000270: 2fca 033c 84ad a7bb b2d7 813c 3e67 47bb
00000280: 6ed3 9a3d 01bc 1abd 35a1 5d3c 7e23 86bc
00000290: 564b 623d ac4b e83c a14f 97bb 29b5 983d
000002a0: 568f cebb aca6 abbc 734f c4bc b67c e5bc
000002b0: 3ac4 673d 0691 05bc 27e6 52bd b89d 773c
000002c0: 07da 003c 3b4b f43c 111a 693d 9dd6 74bb
000002d0: 47d2 a3bb cce2 2a3d f486 9abc 2be7 02bc
000002e0: bc8c 8a3b 4781 d13c 49dd b6bb 1a4d e53c
000002f0: a616 2ebc cf68 0fbc 5627 0e3b 1e68 08bd
00000300: 8607 7b3d e37d 7a3c 5520 233c 49b4 e9b9
00000310: 1ea6 473d 3a54 bcbc 8c97 01bc 83a3 3f3c
00000320: e0f3 9bbc 2834 e0bb 6900 803d 144f 333d
00000330: 16f9 5fbb abae c8bc d328 19bb 3bb0 9cbc
00000340: ffcf e0bb 013e 703d b8bd 473d a0a7 693d
00000350: 0505 2dbc 5e6a fcbc 93de d7ba 43db 043d
00000360: 36a7 1e3b c2a4 113c 5252 e53c cd97 8a3a
00000370: 5b7b 4bbc 3f36 ad3d 604b 243b fb30 cbbc
00000380: 0dad 90bc e8ae 783d 38b4 613d 2330 9e3c
00000390: bf18 85bc 99c2 3fbc 55ee 32bc 3602 803d
000003a0: 1c25 d83b 30ca 4c3d e4dd ef3b 05a4 ee3a
000003b0: 8931 5dbc 96ef 94bb ca9b e9bc 43a8 0f3c
000003c0: ebf5 183d f840 94bc 3c12 403c 06cd 75bc
000003d0: 1807 0e3a 8403 32bc f56b 1ebd f6e2 d4bb
000003e0: e459 56bc 0110 a23d 46dc 0b3d 40c1 d3bc
000003f0: 1c3e 55bc d158 9fba bfd3 fdbb cee1 6ebc
0.1350469 0.09066701 0.008870164 0.04068339 -0.0020704875 -0.007475091 -0.012311202 0.031641472
0.043163285 -0.029051414 0.03534079 0.008572975 0.021738559 0.031036014 0.034364827 0.0081309
0.038881388 0.015984194 0.006510906 0.02696718 -0.010690721 0.039321374 -0.0077592568 0.05681479
-0.015958482 -0.006750913 -0.0321077 -0.019017616 0.004321053 -0.007665296 0.06664844 -0.014663783
0.055283595 0.024044214 -0.0061372723 0.04839113 0.025498513 0.07394075 -0.00018542034 -0.019315228
0.045999795 -0.0051807077 0.0072714896 0.04315666 0.042821273 -0.003324401 0.011618868 -0.009373056
0.018486515 -0.008339691 -0.017775971 -0.012586169 -0.0004911845 0.04190017 0.0029962654 0.031237883
-0.0021034086 0.016953565 0.08167235 -0.027910339 0.05118825 -0.018208036 0.03356226 -0.034787003
-0.007003403 0.005436115 0.02304882 -0.0038379028 -0.002163818 -0.009176326 0.11919451 -0.011069555
0.070410155 -0.005764559 -0.023871453 -0.014352038 0.020890199 0.012665016 0.026252422 0.09738626
-0.036481556 -0.0051647252 0.009886109 -0.04700976 0.04480516 0.017884146 0.03746078 -0.015474206
0.016041616 0.008889739 0.0029387397 0.011222157 0.047788423 0.041521434 -0.013174691 -0.009952959
0.062080078 -0.001090574 -0.025084732 0.006272555 -0.029109908 -0.013441237 -0.022607168 -0.0370232
0.01650878 -0.027742242 -0.00591522 -0.006259268 -0.037821576 -0.012255904 0.05659522 0.00013857103
0.045942906 -0.019230323 -0.010491975 -0.018350516 0.01896328 -0.011110941 -0.013739864 -0.019331096
-0.01338319 0.03090978 -0.012803432 -0.008148964 -0.010201113 -0.011293873 -0.013976237 -0.0068799956
0.046482366 0.0012280507 0.030862702 0.010163805 -0.032010026 0.032075446 0.00602328 0.0041213846
-0.036629755 -0.024588142 0.01693045 -0.026674738 0.004095959 -0.0028696745 0.06309708 0.01919795
-0.017203737 0.014114226 0.04241981 0.056599427 0.02122619 -0.029440463 -0.0008460144 -0.033156034
0.0196686 -0.0086252205 0.10637282 -0.032599777 0.00804381 -0.00511712 0.015849922 -0.0030426527
0.07559858 -0.03777695 0.013527204 -0.016374346 0.055247627 0.028356396 -0.004617647 0.074564286
-0.006303708 -0.020953499 -0.023963666 -0.028013568 0.05658362 -0.008152252 -0.05148902 0.015113287
0.007864482 0.029821029 0.056909624 -0.0037359365 -0.0049994322 0.041720197 -0.018863179 -0.007989685
0.0042282026 0.02557434 -0.0055805785 0.027990866 -0.010625517 -0.008753016 0.0021690927 -0.03330242
0.06128647 0.015288803 0.009956439 -0.00044575546 0.048742406 -0.022989381 -0.007909667 0.011696699
-0.019037187 -0.006842155 0.06250078 0.043776587 -0.0034175566 -0.02449735 -0.002337028 -0.019127002
-0.0068607326 0.05865288 0.048764914 0.057044625 -0.010560279 -0.030812439 -0.001646953 0.032435667
0.0024208552 0.008889379 0.027993355 0.0010573805 -0.012419547 0.08457612 0.002506934 -0.02480363
-0.017660642 0.06071368 0.05510351 0.019310063 -0.016247151 -0.011704111 -0.010921081 0.06250422
0.0065962207 0.04999751 0.0073201526 0.0018206841 -0.01350058 -0.0045451624 -0.028516669 0.008768144
0.0373439 -0.018097386 0.011723097 -0.015002495 0.0005417927 -0.010865096 -0.038677175 -0.0064967824
-0.013082955 0.07913209 0.034145616 -0.025848985 -0.013015296 -0.0012157207 -0.0077461894 -0.014580203

critic.ff_layer2.weight f4 [283, 32]
00000000: 5178 ccbd 86ef d23e 54d0 ee3b 7600 6abe
00000010: d38b 573e 7b3f febd 5215 543e ab14 00bd
00000020: 1073 3ebe e273 6f3d ecdf babd 0b15 003e
00000030: 21db 45be 796a 37be 5c74 413b 750a 033f
00000040: c0a8 f5bd 73fd 18be c074 753e 238f 933e
00000050: a4dc f93e ba14 06be 99df 47bd 66be 27be
00000060: 80df e63e b94d 633e 2a46 043e 84a7 58be
00000070: 2bda 223e fbe6 083e 3f7f 533e a069 c83e
00000080: 5eb2 e0bd dc28 d5bd e4f4 133e 5d89 523d
00000090: 2432 12bd 0f1a 6ebd 1f0c 1ebe 0ac4 60be
000000a0: 91fc eabd fd53 fbbd bc7f 84bc 02d4 43be
000000b0: 58bf a93d b4fa 1ebe 2c1a ddbd d013 a5bd
000000c0: add5 cebd 8fa6 723d 1764 0e3d 4102 e43d
000000d0: bbc9 22bd f723 dc3c c386 15bd e412 853d
000000e0: 2ea6 453d d634 2b3d 520a 283e f13b 813d
000000f0: d2a3 7ebd 4d37 e73d 1fef c5bd 6fe0 86bd
00000100: 9de3 94bd 5a37 8ebc d83c 3c3d e7d1 25be
00000110: d448 04be ea29 c3bc 90b9 983c bc2f 0b3e
00000120: f35f 07be 1011 343d 621c 853d 02db 03be
00000130: f99a 073d 93ad 2fbd 08e2 053d 465b febc
00000140: f278 cdbd f8dc 96bd a02f 123e dacf d73b
00000150: 92fb 7fbd fff0 303d bb3c 0d3e 47dc bfbd
00000160: 2a8d 87bd 2b14 77bd e4cf b5bd 05b2 13bd
00000170: 861e 17bc a460 90bd 9e64 73bd c7db dbbd
00000180: 4604 08be 6d6c efbc c7f9 b83d 9274 8e3d
00000190: 8d81 113e b2d1 7a3d d97a ecbd 0f2b 51bd
000001a0: e8a5 f5bd 16b1 293d 6032 36ba d389 463d
000001b0: 2440 0bbe 288e a33d 09ea 07be 3a7d 45bd
000001c0: ade1 24be 9b6e 833d 1c5e edbd cfaf 2ebe
000001d0: ec03 0fbd 4b42 cf3d a388 1abd a284 293d
000001e0: 5fc0 8ebb f6f4 2ebe 09cf 703d 1e32 e43c
000001f0: 9da8 05be ed7e 723d 4599 0d3e 13e5 dc3d
00000200: 84ed 14be 7901 a23c ed94 103e 0119 b23b
00000210: ef84 9dbd 8850 823d 3ea1 40be 4d03 cdbd
00000220: 04d6 0fbc 2fa1 d83d 3c7c 86bd 9f2f e23d
00000230: 8279 c53c b1e1 e23b 7240 9d3d 9f33 5abc
00000240: b486 843d 5f4a 743d 3098 85bd e8f7 983d
00000250: ee19 23bd f01d ebbd cefe ee3c 0337 b33c
00000260: cbcc 04be 15f0 953d e0e0 a63d 995c da3c
00000270: 96e8 f2bc 29b3 ed3c 3886 1b3d 110c 5dbd
00000280: ea61 093d 6d42 d9bd a4cc 37bc 9126 8dbc
00000290: d713 a83d dd5a 2e3d 1980 043e 5fc5 e6bd
000002a0: a29a 56bd f135 94bc 7c9d f13d e3e2 0a3e
000002b0: 7c59 613d 01ab dbbd f1c4 d9bd 5bee bbbc
000002c0: 8eb3 46be bd7e 9abd 3a65 65bd 2889 683d
000002d0: 6cd3 99bd 8474 1bbe 5a8f 953d 97ed 0bbe
000002e0: e830 a9bc 38fa 013e eb98 313d a189 0abe
000002f0: cfab 09bc 895e 31bd 963f 833d fb6a cd3d
00000300: a34c d93d 4b79 0bbd 5662 be3d a5c9 09be
00000310: 5db4 ef3d c4f6 8b3d 50ce 19be 3ea8 40bd
00000320: fede 81bd ef4b 7fbd 2ae1 19bc 37cf 77bd
00000330: 0f52 5e3d facf 91bd 422c 033e ae3a c0bc
00000340: 4711 8bbd 16e6 ebbc 0e63 3a3d f3e0 b1bd
00000350: b29d 3bbd dfe4 07be 618d ca3d 8c7f d53a
00000360: f1c8 33bd 27cc 953d ed73 9a3b d098 a9bd
00000370: 462b 1abd 660c a4bb 7340 0b3e 36d7 c6bd
00000380: c206 1ebe 7da5 22be 5aeb 04be 088b 89bd
00000390: 84c4 8f3d 4813 fd3c be7c 043d 4c58 4f3c
000003a0: d99d 20bc f948 0ebe 2d88 ef3d 26fa 033e
000003b0: 87da 1c3b a865 ad3b 1a03 0cbc 6ca9 c5bc
000003c0: 7844 21bc e725 493c 5e21 ccbd 7469 aebb
000003d0: b650 d1bc 8346 04be 51bd 373d 45c3 553d
000003e0: e3e3 b7bc f1ed 593d ead4 8ebd bb4c 9f3c
000003f0: 62ff 15be d093 423d 8030 08be dba6 e3bd
-0.09983886 0.41198367 0.0072880182 -0.22851738 0.21049432 -0.12414452 0.20711258 -0.03126971
-0.1859858 0.058460124 -0.09124741 0.12508027 -0.19321872 -0.1791171 0.0029518818 0.5118783
-0.11995077 -0.14940433 0.23970318 0.28820142 0.48801148 -0.13093844 -0.048797224 -0.16381225
0.45092392 0.22197618 0.1291739 -0.21157652 0.15903537 0.13369362 0.2065401 0.39143085
-0.10971521 -0.10408184 0.14448887 0.05140053 -0.03569235 -0.05813032 -0.15434311 -0.21949783
-0.114739545 -0.12271879 -0.01617419 -0.19123843 0.08288449 -0.15525323 -0.107960075 -0.080604196
-0.10099349 0.059240874 0.034763422 0.111332424 -0.039743166 0.026872618 -0.036505472 0.06497744
0.048254184 0.041798435 0.16410187 0.06310261 -0.06216795 0.11289845 -0.09664749 -0.06585776
-0.07269976 -0.017360378 0.045956463 -0.16193353 -0.12918407 -0.023823697 0.01864317 0.13592428
-0.13220195 0.043961585 0.06499554 -0.12876514 0.033106778 -0.042890143 0.032686263 -0.031049382
-0.10032834 -0.07366365 0.1427598 0.006586057 -0.062495776 0.04319858 0.13792698 -0.093681864
-0.06618722 -0.060321968 -0.088775426 -0.036058445 -0.009223586 -0.07049683 -0.059422128 -0.107352786
-0.1328288 -0.029226506 0.09032016 0.06955828 0.14209576 0.061235137 -0.11546869 -0.051066454
-0.11994535 0.041428648 -0.00069502555 0.048471283 -0.13598686 0.079860985 -0.13272871 -0.04821513
-0.16101713 0.06417581 -0.115902156 -0.17059253 -0.03491585 0.10120066 -0.037727963 0.041386254
-0.0043564285 -0.17085633 0.058791194 0.027855929 -0.13052602 0.059203077 0.13827999 0.1078588
-0.1454373 0.019776093 0.1411931 0.0054351096 -0.07691371 0.06363016 -0.18811509 -0.10010395
-0.008779053 0.10577618 -0.065666646 0.11044239 0.024105791 0.006923877 0.076783076 -0.0133179715
0.06471005 0.05964124 -0.06523168 0.07469159 -0.03981965 -0.114803195 0.029174235 0.021876818
-0.12968747 0.07321183 0.0814836 0.026655482 -0.029651921 0.029016094 0.037969798 -0.053966586
0.033540644 -0.10608373 -0.011218224 -0.017230304 0.08206909 0.042567123 0.1293949 -0.11268114
-0.052393563 -0.018092128 0.11797616 0.13563113 0.05501698 -0.10725976 -0.10633267 -0.022940805
-0.19404432 -0.07543705 -0.05600474 0.056771427 -0.07511029 -0.15181166 0.07302733 -0.13664852
-0.020653203 0.12693107 0.043358725 -0.13529064 -0.008402779 -0.043303046 0.064086124 0.100301705
0.106103204 -0.03405122 0.092961 -0.13455828 0.117043234 0.06834176 -0.15020108 -0.04703545
-0.063413605 -0.062328275 -0.009392062 -0.06050035 0.054277476 -0.071197465 0.12809852 -0.02346548
-0.06790405 -0.028796237 0.045504622 -0.08685484 -0.045804687 -0.13270901 0.09890247 0.0016288622
-0.043892805 0.073143296 0.0047135265 -0.082811 -0.037638925 -0.005006361 0.13598804 -0.09709017
-0.15432265 -0.15883441 -0.12980404 -0.06715971 0.07019904 0.030892983 0.032345526 0.012655329
-0.009803259 -0.13895024 0.11695895 0.12888393 0.0023933963 0.0052916594 -0.008545661 -0.024128638
-0.009842984 0.012277103 -0.09967302 -0.0053226296 -0.025551181 -0.12917523 0.04485828 0.052188177
-0.022447532 0.053205434 -0.06974204 0.019445768 -0.14648202 0.047504246 -0.13299751 -0.111158095

actor.customer_encoder.0.attention.query_embed.weight f4 [32, 32]
00000000: 47c8 bc3e b7ca df3c 484d 303e c53e b83e
00000010: 312d bdbe eaa6 a4bd 8dda 2fbe d49b 60be
00000020: 29cb 553e 48af 343e 0bc1 9c3e 0b4d d23e
00000030: 32d5 7abe 61ee 9d3d 53aa 153e e0c8 9dbd
00000040: 0846 693e fe6e a63e 77fb d2be 473d 03be
00000050: 85c4 083e 87a4 98be a1bf 07be 5545 243e
00000060: 8380 fc3d f303 4dbe a373 b9bc fcfc 923d
00000070: 1163 d33e 5227 82be c79c 343d b727 02be
00000080: c020 c43e c42c 8c3e df50 95bc 7a64 0ebe
00000090: 0930 a33e 025a 9cbc e176 c1bd 5d5e 913e
000000a0: dc37 b53d 0efb 883c 8ad3 ad3e 81d7 0fbe
000000b0: 54f9 803e dd55 593e 80be 53be 4893 a73e
000000c0: 44da 023e 62c4 80be e867 773e 4d5f a3be
000000d0: b2fe 8c3a 25eb 0d3e 564c 1d3e 0015 acbe
000000e0: 3569 aa3e da0a 9b3e 4e58 6a3e 3641 1f3e
000000f0: bf58 40be eb7b 813e d812 853d 9242 a0bd
00000100: 8d97 22be a525 ab3d f92e 02be 00b5 a5be
00000110: af47 38be f813 21be 6418 1bbd 26f7 4bbe
00000120: 3e03 b6bd 900f 5bbe 4385 8cbe d2fb 203e
00000130: 7859 3cbd c5a5 2ebe fccb 78bd ace2 bb3c
00000140: 3f3a 8abe 83ca 4d3e 65ed 433e 5147 553e
00000150: 41f3 4fbe fd16 b63e 8d71 773e 5469 1f3e
00000160: e28b 2d3e b024 44be e756 8f3d ce25 883e
00000170: 1f30 bc3d 40b0 573a 6be9 bfbe c449 bbbd
00000180: b282 52be 3544 8d3e 68f9 eabc ae7d 8dbd
00000190: 8223 c3be 5139 91be db45 1dbe 3203 233e
000001a0: 6b1f 82bd cb61 1d3e 3ab3 b53e a9e1 3bbe
000001b0: ac2b 903d ac47 803d feaa 8cbe 9e42 02bd
000001c0: a486 a93d 605f 25be 19ab 8ebe c3e2 893e
000001d0: 35e1 da3d a785 adbe 3467 bcbe f95a 2a3d
000001e0: 38ec 2ebe edf9 9d3d f486 3b3e d8e1 a83d
000001f0: 3fae 7d3e d1d4 103e 7106 a4bc 20e7 6f3d
00000200: 0c62 fabd 3d57 42be e949 c1be 59d5 083e
00000210: b756 9c3e 1a47 f9bd a03c 613e 19da 8e3e
00000220: 2184 823d ca1c 323e 940a 923a 518b 2e3e
00000230: cb20 4b3e 0231 523e 75e6 9b3e fd32 0cbe
00000240: 7637 d73d 9b44 0a3e 40f8 67be 7722 8dbe
00000250: 75a1 19bd c794 363e 13c0 9a3e 81ed eabd
00000260: e006 29be 3443 9ebe cd7d 433e a7ed 51be
00000270: 7057 a73d 7f2e 0e3e a3f1 89bd d946 ad3e
00000280: 787d 873e 5504 1ebd 0499 4e39 67c6 6d3e
00000290: d5f4 5bbe db88 94be 856d 6c3e 8f28 40be
000002a0: 2e77 c93c a5ba b83c 061c 853e e018 813d
000002b0: d08b f63c eab9 a83d 1b21 1abe 6001 b5be
000002c0: 0458 973e 9db6 89be 2ada 8cbe 4989 babd
000002d0: ea3e 603e 4615 1abe 11b4 853e 80a8 ff3d
000002e0: 0af4 773e 3ba7 09be c01d 2b3e e6af b03d
000002f0: dd3a a53e f885 2abe 0be5 a43e 25be 69be
00000300: 28c8 55be e1a9 aa3e d2af 563e b9f4 683e
00000310: 9ec6 53be c739 a23e bd9f c4bd ad15 9b3e
00000320: 86c3 5b3e def9 a6be 3028 90bd 9920 ca3e
00000330: fdb9 433e 247c 9b3d 1c8c 44bc 824a 143e
00000340: 0dfe cebd b063 dabd d620 85be b1b1 57bd
00000350: ac78 80be 0e26 59be 06eb 5c3e ddfe 533e
00000360: 8b3d 20be 64c5 99bd 6186 15be e83d 4d3e
00000370: 3685 3dbe 7b76 49be 8c90 343e 9bda 293c
00000380: c1fe 063e 65a8 0bbd 118b be3e a19b 31bd
00000390: fb16 903e 6889 533d 13a9 ab3e 8d3d 5abe
000003a0: 312c 4b3e a8e3 f8bd 2bbb 523e b56a 83be
000003b0: 227d 433e 776e 99bd 34db 0cbe e11f 05be
000003c0: 940e 823e 5679 5bbd eda8 bdbd 16af 993e
000003d0: e64a 693e 98b6 5d3c 1255 09be c1a5 b93d
000003e0: 4246 98bd eaa6 9b3e e6a1 103e b3b3 863e
000003f0: def9 613e 26f5 babd abae 85be 7da6 05be
0.3687155 0.027318342 0.1721698 0.3598539 -0.3694854 -0.08039649 -0.17173214 -0.21934444
0.2087828 0.1764499 0.3061603 0.41074404 -0.2449539 0.07711483 0.14615755 -0.077043295
0.22780621 0.32506555 -0.41207477 -0.12816344 0.13356216 -0.29813024 -0.13256694 0.16042073
0.12329199 -0.20021038 -0.022638148 0.07177159 0.4128652 -0.25420624 0.044094827 -0.12710463
0.38306236 0.27377903 -0.018227039 -0.13905516 0.31872585 -0.019085888 -0.094465025 0.28392306
0.08848545 0.016721275 0.33950454 -0.14047052 0.25190222 0.2122416 -0.20678139 0.32729554
0.12778574 -0.25149828 0.24160731 -0.31908646 0.0010757057 0.13859232 0.15361151 -0.33609772
0.33283392 0.30281717 0.22885248 0.1555222 -0.18783854 0.25289854 0.06497735 -0.07825197
-0.15878125 0.083567895 -0.12713231 -0.32364655 -0.17996095 -0.15730274 -0.037865058 -0.19918498
-0.08887337 -0.21392655 -0.2744542 0.15721062 -0.04598376 -0.17055424 -0.06074141 0.022935234
-0.26997563 0.20096783 0.19133528 0.20827986 -0.20307638 0.35564414 0.2416441 0.15567523
0.16947892 -0.1915462 0.06998997 0.26591343 0.09188866 0.00082278624 -0.3748277 -0.09144929
-0.20557669 0.275911 -0.02868338 -0.06908737 -0.38113028 -0.2836404 -0.15358679 0.15919188
-0.06353649 0.15369336 0.35488302 -0.18347801 0.0703958 0.0626367 -0.27474207 -0.031801812
0.08277634 -0.16149664 -0.27864912 0.26930818 0.10687486 -0.3389103 -0.36797488 0.041590665
-0.17082298 0.07713685 0.183132 0.08246201 0.24773501 0.14143683 -0.020022603 0.058570027
-0.12225732 -0.18978591 -0.377517 0.13362636 0.30534908 -0.12171765 0.21995783 0.2790077
0.06372858 0.17393795 0.0011142069 0.17045332 0.19836728 0.20526507 0.30449262 -0.13691325
0.10508625 0.13502733 -0.22653294 -0.27565357 -0.037507493 0.17830192 0.30224666 -0.114710815
-0.16506529 -0.30910647 0.19090958 -0.20500813 0.08170974 0.13884924 -0.06735542 0.33843115
0.26462913 -0.03857835 0.00019702694 0.23220216 -0.21480115 -0.29010662 0.23088653 -0.18765472
0.024592962 0.022549937 0.25997943 0.06303573 0.030095965 0.08238585 -0.15051691 -0.35352612
0.29559338 -0.26897135 -0.27510196 -0.09108216 0.21899 -0.15047178 0.26113942 0.12483311
0.24214187 -0.134427 0.16710567 0.086273 0.32271472 -0.16652668 0.32205996 -0.2282644
-0.20877135 0.33332732 0.20965508 0.22749604 -0.20681235 0.31684706 -0.0960078 0.30289975
0.21461305 -0.3261251 -0.07038915 0.39477995 0.19113918 0.07592037 -0.011996295 0.14481547
-0.1010705 -0.10663545 -0.26001614 -0.052659694 -0.25092065 -0.21205923 0.2157403 0.20702691
-0.15648477 -0.075083524 -0.14602043 0.20043147 -0.18507847 -0.19674103 0.17633265 0.010367061
0.13183118 -0.03409614 0.37215474 -0.04336131 0.28142533 0.051644713 0.3352743 -0.21312542
0.19841076 -0.12152797 0.20579211 -0.25667349 0.19090703 -0.074917726 -0.13755494 -0.13000442
0.25401747 -0.05358251 -0.09260736 0.30016392 0.22782478 0.013532303 -0.13411358 0.09064818
-0.074352756 0.30400783 0.1412426 0.26308975 0.22067973 -0.091287896 -0.26109824 -0.13051791

actor.customer_encoder.0.attention.key_embed.weight f4 [32, 32]
00000000: de7a 0dbe 4a08 d03c 4d65 8e3d d9d1 ca3e
00000010: 0ed2 ad3e 53e4 a7be 4433 0f3e 72e8 70be
00000020: 7c05 31be a29a 283e 9598 8cbe 33d4 a83e
00000030: a8a6 b93d ec4c 8e3d cba1 783e b8c7 a8be
00000040: 5d5d 953d 6ba5 bb3d 410f 4abe 83c1 16be
00000050: fd11 cc3d 236a aa3e 4f4f 07be 97ac 603e
00000060: 98f5 2b3e 00f8 4abe 6832 84be aac1 13bd
00000070: 3845 823e 4dd5 7fbe 5a4b 77be 069c 8f3e
00000080: 1006 51be 4852 77be 6b5b 53bc d39a a63e
00000090: f8d8 6c3e 8a95 443e 9b09 5d3d eb60 48be
000000a0: 514d 91be 9e65 3b3e a6c4 e73d 62e7 b83d
000000b0: c390 eabd 2594 b6be 4f8b e33c f970 50bd
000000c0: e032 cabc 5972 363d b3ac 4abe b60f 5abe
000000d0: dba4 b2bd 673d 043e 8593 66be 2a50 aa3e
000000e0: 2475 afbe 55b4 5abe a0b9 d13d 0be9 aebe
000000f0: 7a54 50be 28c3 273e b86b 77be 7f15 e33d
00000100: d531 36be b783 1abe e743 603d 9586 eb3c
00000110: bd5a a83e d9b7 933d d051 823d 87c1 4ebe
00000120: c1da 8f3e 94f9 6dbc 1648 523e 74e1 8ebe
00000130: bf53 423e cb15 903e e6c0 573e a5fe 8f3e
00000140: 7f2a 1cbe b0a3 7abe 13bb 0d3e 07b9 253e
00000150: d2e3 53be 5680 e3bd 3d21 37bb fb1c d8bb
00000160: 4446 2e3e 3ad5 853e 903e d43d 9775 13be
00000170: b0e3 67be 1ca5 9a3e 7d92 ec3c 6159 32be
00000180: ac13 81be 9961 85be bf06 a83e a529 3dbe
00000190: ac19 afbe aa84 92be a7c3 41be fd75 b83c
000001a0: 4692 6fbe 7df6 263e 16f6 9dbd 60de 08be
000001b0: 12d0 7ebe 2361 a9bd 3776 c33e d659 93bb
000001c0: 5138 c93d 4942 bbbe 80a4 433e 55bf 0e3d
000001d0: 244e 97bd 76de c93c 87a4 25be 0d23 8ebe
000001e0: f2d1 42be a239 d53d b159 9c3e 0fb2 7dbe
000001f0: 07be 3c3e 7cf0 0cbe 141a 8d3e 0066 523d
00000200: 2dfc a0be 0a50 8ebe 6c22 b83d 90f6 333e
00000210: 2177 d33d be03 da3d 2f74 3bbd b1b2 58be
00000220: 97f3 103d ace8 94be b6b7 393e 796b 05be
00000230: 119c 99be d76c dc3c 310f c73d 1986 89be
00000240: 71cd 5dbe bb58 3cbd 723d 09be 0ca0 983e
00000250: db82 953d 8bcd f0bd fe39 91be 2e33 7dbe
00000260: b782 033e a08d 91bd 031d 523d 57b2 8f3d
00000270: f135 753e aff7 73bc f18f 1e3e f1f2 a7be
00000280: dd76 823e 6e2d a6be 12dc f7bd 1ede a4be
00000290: efdb 493e 2e93 f0bd 83f0 b9be 47bc 25be
000002a0: b616 4b3e fbf3 843e 4fa0 653e 3e51 acbe
000002b0: e1a1 24be ac49 843d 43d4 1c3a f7e3 4cbe
000002c0: 35e6 b23e ad84 76be bb3c 703e 2917 5e3e
000002d0: 0259 a1be 98dd 59be 16af 5fbe e27a 8a3e
000002e0: 1fae a6be 4a78 773b 3de1 e0bd 9017 d0bd
000002f0: f243 55be 3b09 8dbe 5190 a1be da97 a3bc
00000300: ffb5 973c 9984 8a3d 5d60 c23d 355a 01be
00000310: e1be 543e a01c 443e b7d9 93be a814 ad3e
00000320: 98c2 debc b735 37bb d401 b4be b170 3b3e
00000330: 3aa8 043e b337 c43d d999 3d3e bb41 a7be
00000340: 78c2 b33e 3abd 613e 23d3 d3bd 8e3b 383e
00000350: 2a0c 0ebe 124b c9bd ef58 0dbb e45f 663e
00000360: fcfa 3b3e 8311 04be afd1 97be ce75 83bc
00000370: d78b 1abe 70e4 36bb 4733 2d3e fb26 7b3e
00000380: be91 813c 514d 2b3e fcfb 873d 65ad 41be
00000390: e156 533e 7232 6dbe ce78 f7bb b12c 36be
000003a0: 552e 003c 0357 8f3e ded7 fd3d dcaf e9bc
000003b0: 76cc 9ebe ecb1 88be 2d10 c3bd ff00 2bbe
000003c0: ce75 8a3d 5489 a6be aa73 ae3e 0c16 b2bd
000003d0: c501 6b3e 72d5 743e 171d 913e dfc1 4cbd
000003e0: 0a1d d83c df7e 3b3e 2b1e 8abe c416 bdbc
000003f0: e9c3 093e 5d7f 0cbd 7ae2 81be 585b 463d
-0.13816401 0.025394578 0.06952915 0.39613226 0.33949322 -0.32791385 0.139844 -0.23526171
-0.17287248 0.16465238 -0.2746016 0.32974395 0.0906499 0.069482654 0.24280469 -0.32964873
0.07293198 0.0916241 -0.19732381 -0.14722256 0.099643685 0.332841 -0.13213848 0.21940838
0.16792905 -0.19821167 -0.25819707 -0.036073364 0.25443435 -0.24983712 -0.24149838 0.28048724
-0.20412469 -0.24152482 -0.012900214 0.32539997 0.23129642 0.1919767 0.05396424 -0.19568221
-0.283793 0.18300483 0.113168046 0.09028508 -0.11453392 -0.356599 0.027776388 -0.05088899
-0.024682462 0.044542644 -0.19792442 -0.21295056 -0.0872285 0.12914048 -0.22517212 0.33264285
-0.3426906 -0.21357854 0.10240483 -0.34162173 -0.20344725 0.1638304 -0.24162185 0.110880844
-0.17792447 -0.15089308 0.054752257 0.028750697 0.32881728 0.072128005 0.06363261 -0.20191012
0.28096583 -0.014524836 0.20535311 -0.27906382 0.18977259 0.28141627 0.21069679 0.28123966
-0.15250586 -0.24476504 0.13840894 0.16183864 -0.20692375 -0.111084625 -0.0027943396 -0.0065952516
0.17018992 0.2613924 0.10363495 -0.14400326 -0.2264545 0.30204093 0.028878445 -0.17416908
-0.2521032 -0.26051024 0.32817647 -0.18472917 -0.34199274 -0.2861684 -0.18922292 0.022517199
-0.23395643 0.16304965 -0.07712953 -0.1336608 -0.2488406 -0.082704805 0.38176128 -0.0044967933
0.098251946 -0.3657401 0.1910572 0.034850437 -0.07387951 0.02464221 -0.16176043 -0.27761117
-0.190254 0.10411383 0.3053718 -0.24774955 0.18431865 -0.13763613 0.2755896 0.051366806
-0.31442395 -0.2779544 0.089909405 0.17574525 0.103254564 0.10645245 -0.0457651 -0.21161915
0.035388555 -0.29083765 0.18136486 -0.13029279 -0.30001882 0.026907368 0.097196944 -0.2686012
-0.21660401 -0.045983057 -0.13402346 0.29809606 0.07300349 -0.11757954 -0.28364557 -0.24726555
0.12842833 -0.07107091 0.0512972 0.070164375 0.23946358 -0.014890595 0.15484597 -0.32802537
0.2548131 -0.32456535 -0.12102522 -0.32200712 0.19712804 -0.11746822 -0.36316308 -0.16185103
0.19832882 0.25967392 0.22424434 -0.33655733 -0.16077377 0.06459364 0.0005982557 -0.20008837
0.3494126 -0.2407405 0.23460667 0.21688522 -0.3151322 -0.21275938 -0.21844134 0.27046877
-0.3255472 0.0037760907 -0.10980461 -0.10160744 -0.208267 -0.27546105 -0.31555417 -0.01996987
0.0185194 0.06763572 0.09491036 -0.12632068 0.2077594 0.19151545 -0.2887704 0.33804822
-0.027192399 -0.00279556 -0.35157645 0.18304707 0.12954798 0.09580936 0.1851572 -0.32667336
0.35109305 0.2204484 -0.103430055 0.17991468 -0.13871828 -0.09828772 -0.00215679 0.22497517
0.18357462 -0.12897305 -0.29652163 -0.016047385 -0.15092407 -0.0027907155 0.16914092 0.24526589
0.015816566 0.16728713 0.06639859 -0.18913801 0.2063861 -0.23163775 -0.007552243 -0.17790486
0.007823546 0.27996072 0.12394689 -0.02852624 -0.31015366 -0.26698244 -0.0952457 -0.16699599
0.06760751 -0.32526648 0.3407262 -0.08695611 0.22949894 0.23909548 0.28342506 -0.049989577
0.026381034 0.18310116 -0.2697614 -0.023082145 0.1345364 -0.03430115 -0.253681 0.048426956

actor.customer_encoder.0.attention.value_embed.weight f4 [32, 32]
00000000: c270 7d3d 911f a93e 022b e63d 345d 053e
00000010: a3e6 aabe 4688 113e 9409 423e 0104 debd
00000020: 698b 61be 0fcb 2fbd beb0 9bbe f28c a63e
00000030: 2f7c 5bbe 31ec a23e 6095 b3be 88c9 663e
00000040: 4b54 17be 3d68 8bbe f0a2 cb3d a7a9 a63e
00000050: 2796 2cbe b049 4b3d 5119 6dbe 40e7 6b3e
00000060: 33f5 a23e 5c62 c5bd 2a6d ad3e 015e 3b3e
00000070: cc70 433d 89c2 1bbe 1ea3 793e 47fc 943c
00000080: 0d1d 19be df13 b2be 0c73 afbe 6e79 b43e
00000090: f353 3fbe ee0c 87be 588d 653e c821 cfbd
000000a0: cefa 86be ae2d 923d 930c 56bd bdad 0b3e
000000b0: c431 a83e f147 b6bd 5430 4e3e 324f cabd
000000c0: ced8 eebd 887c f13d 60d7 a1bd 0b85 c23d
000000d0: a43e a13d c1f7 90be e1b5 a9bd 3356 a33e
000000e0: 3e44 0ebb 329c ab3e 43cd 883e 6a33 cbbd
000000f0: cfbd 23be d1da ee3d 2323 6fbd 97f0 3abd
00000100: 63fe c5bc c1d0 69be 52e6 633e 8778 0dbe
00000110: d06d 93be b964 8dbe 61f6 66be 5d89 853d
00000120: ef4c aebe 15bd 053e 7f06 5fbe d058 2cbc
00000130: 8963 afbd 95ed d8bd b89d 693e 4306 f7bd
00000140: ddc6 f63d d16a 763e 47da 323e 0f09 1a3e
00000150: 14c2 07bd f6d4 3bbe 2ea7 85be bdf1 ab3e
00000160: 963c a4be 2dd5 b0bd 0058 993e e7a7 89bd
00000170: 8b04 98be 3131 b23e db72 babd 923a 173e
00000180: 61b0 243e 2396 e6bd d468 afbe 1f06 4ebd
00000190: bda9 8fbe 43e0 31be 0d46 98be 96d6 283e
000001a0: e1d9 7ebe 406d 303e e13c 983e e279 343e
000001b0: 6c13 573e bef8 753d dd4e 723e b432 aa3e
000001c0: 286b 9a3d bfd7 193e 0c2a 643e cb5c 2fb9
000001d0: b99b 9b3e b94d af3d f6b9 5cbe a376 89be
000001e0: ce42 b83d f60e 8fbe 7759 a3be b434 a83e
000001f0: 21a2 883e a9c3 c3bd 7377 343e 7411 f53d
00000200: d060 a73e 10d7 dc3d eb8c 273e 4374 81be
00000210: 3754 ef3d 3877 8bbe 9c48 8abe c84e 473e
00000220: 602d 31be 4d3b 8c3e 4ae2 b6bd 7121 3c3e
00000230: 4cae a83e b72f 3c3d 8962 a43e ce0d 64be
00000240: 360d 403e f991 e33d ffba 893e 8784 a63e
00000250: 2579 96bd b779 9b3d d1b6 36be cea6 193e
00000260: 53dd b5ba 5dd4 26be 710e 48be 0e90 b43d
00000270: d02f a13e ed3b a0be 75c2 693e 3eb7 7e3e
00000280: ae83 9cbe b52a 253e 3618 003d 60cb 883e
00000290: 5e0e 993e 3e07 4b3e 9683 0dbe d031 9ebe
000002a0: 77b9 7c3e e95e 493a fb32 133e 255b e43d
000002b0: eefd 3f3d 8c00 893e 313c b5bd cb5e 123e
000002c0: eb0c 283e a865 24be 946a 1b3e 2ec1 cd3c
000002d0: 47e7 b3be 073e 483e 32f9 9fbe 9501 243e
000002e0: 31c2 26be 4c0b 30be aaff 4a3e 0bdf 71bc
000002f0: 1933 84be 7304 fb3d c43d 47be f92b a5be
00000300: 099f 913e c6b0 98be ef43 1abe 4b64 5abe
00000310: 954d 8a3e 6795 02bd 1d33 97be e979 543e
00000320: 4200 883e 9308 df3d 96fe 1fbd 4e17 aebe
00000330: 0195 5ebd b9a6 463e 2424 76be 7f5d b2be
00000340: 7bc6 23bb 27e8 673d 2dd8 0dbe 797e 15be
00000350: bb65 8cbe e52d 5bbd cc65 a83e d8c0 963e
00000360: f044 713d db65 9a3a 7ab6 a13e 6702 583d
00000370: e2d7 47bd 5285 80be 1a35 a73e f6db acbe
00000380: 4f23 fdbd 4c04 9e3d 2edc 303d a386 ecbd
00000390: 8e9c a8be 017c 103d 830e aebd fec4 7dbe
000003a0: 9392 60be 40d3 30be 9a78 a7be c5a9 2f3e
000003b0: eed1 abbb b4b5 9cbe a9de 373e 5b12 8a3e
000003c0: 266e a13d 8914 f3bd bf43 e8bd 9122 ea3d
000003d0: faf5 aa3e 431b 103d 10e2 09be a023 45bd
000003e0: d4cb 0a3e 10ef 9d3e 915f ad3e 397b b43e
000003f0: a33a 78be ee8d 703d 13d4 9a3c 3339 953d
0.061875112 0.33031896 0.11238672 0.13023835 -0.33379087 0.1421214 0.18948966 -0.108406074
-0.22025837 -0.04291826 -0.3040828 0.32529408 -0.21434091 0.31820825 -0.35074902 0.22537816
-0.14778249 -0.27227965 0.09943187 0.3255131 -0.16854154 0.04963082 -0.23154189 0.23037434
0.31827697 -0.09637901 0.33872348 0.18297578 0.047714993 -0.15210928 0.2437863 0.018186701
-0.14952488 -0.34780785 -0.3426746 0.35248893 -0.18684368 -0.26377052 0.224172 -0.10113865
-0.26363224 0.07137619 -0.052258085 0.13640495 0.32850468 -0.089004405 0.20135623 -0.098783866
-0.11662446 0.117913306 -0.07902408 0.09498032 0.07873276 -0.2831402 -0.08286644 0.31901702
-0.0021708156 0.33517605 0.26719102 -0.09921916 -0.15990375 0.1166283 -0.05838312 -0.0456396
-0.024169153 -0.2283354 0.22255829 -0.13815509 -0.28794718 -0.27615908 -0.22554924 0.065203406
-0.3404307 0.1306041 -0.21779822 -0.010519221 -0.08563907 -0.1059219 0.22814071 -0.12061741
0.12049649 0.24064185 0.17466079 0.15042518 -0.03314407 -0.18342957 -0.2610411 0.3358287
-0.32077473 -0.0863441 0.2994995 -0.06721478 -0.29690966 0.34803155 -0.09103938 0.14768437
0.16082908 -0.11259105 -0.34259665 -0.050298806 -0.28059188 -0.17370705 -0.29740945 0.16488108
-0.24887802 0.17229176 0.29733947 0.1762462 0.21003503 0.060051672 0.23662896 0.33241808
0.0753997 0.15023707 0.22281665 -0.00016723869 0.30392244 0.08559746 -0.21555313 -0.26848325
0.08997117 -0.27941102 -0.31904194 0.3285271 0.26686195 -0.095588036 0.17623691 0.119662195
0.3269105 0.107832074 0.1636235 -0.25284013 0.116859846 -0.27239394 -0.27008522 0.19463646
-0.17302465 0.27388993 -0.0892988 0.18372132 0.32945478 0.045943942 0.32106426 -0.22270891
0.1875504 0.111118264 0.2690048 0.32522985 -0.07347325 0.07591575 -0.17843176 0.15005037
-0.0013875164 -0.16291948 -0.19536759 0.08816539 0.3148179 -0.3129572 0.22828086 0.24874589
-0.30569214 0.16129573 0.03127309 0.26717663 0.29893774 0.19826981 -0.13819727 -0.3089738
0.24680124 0.0007681684 0.14374916 0.11150197 0.046873026 0.2675823 -0.08849371 0.14293973
0.16411178 -0.16054404 0.15177375 0.02511653 -0.35137388 0.19554912 -0.31244808 0.16016228
-0.16285016 -0.1719181 0.1982409 -0.01476265 -0.25820234 0.12256708 -0.19457155 -0.3226011
0.28441647 -0.29822367 -0.15064977 -0.21327321 0.27012315 -0.031880762 -0.29531184 0.2074963
0.26562697 0.10890307 -0.03906115 -0.34002155 -0.05434132 0.19399537 -0.24037224 -0.34836957
-0.002499013 0.056617882 -0.13851996 -0.14599027 -0.27421364 -0.053510565 0.32890165 0.29444003
0.058903635 0.0011779623 0.3158453 0.052736666 -0.048789866 -0.25101715 0.326577 -0.33761567
-0.1236025 0.07715663 0.04317873 -0.115491174 -0.32931942 0.03527451 -0.08498862 -0.24782178
-0.21930914 -0.17268085 -0.327092 0.17154606 -0.0052435314 -0.30607378 0.17956032 0.2696713
0.07882337 -0.11869151 -0.113410465 0.11432374 0.3339079 0.03518225 -0.13465142 -0.048129678
0.13554317 0.30846453 0.33861974 0.3525026 -0.24241118 0.058729105 0.018899953 0.072863005

actor.customer_encoder.0.attention.combine.weight f4 [32, 32]
00000000: cfee e0bc cb24 02be ab56 8b3d bda2 eb3d
00000010: 6d75 073d 1a24 a73c 12d9 203e 8eef 7bbd
00000020: 52fc b4bc fa28 5a3d 5184 d2bd d3d0 12be
00000030: a280 11bd 2cdf da3d 6834 acbd 8d98 6b3d
00000040: fd11 c4bb 855a 1e3e 30b8 d03d 44d0 bbbd
00000050: 8d91 32be fca0 c13d 7baa 31be a265 e8bd
00000060: 09c8 1e3e 5ece 2d3d 5696 603c 093c 02be
00000070: c8c9 23bd d60d 943c 12d8 c83d da3c a4bd
00000080: 6c71 d8bc b5e7 293d 76ad 30be 43f1 50bd
00000090: 3adf 29be 0816 80bd c546 cdbd 58b5 bb3d
000000a0: 2dfd e3bd 5f1b 2ebe d376 c4bc 9593 adbd
000000b0: 802e c0bd 6c8b 60bd f79c 953d a365 19be
000000c0: b593 06be e317 d93c e33f bd3d ab18 a03b
000000d0: 4849 2a3e 07dc ad3d 6f15 07be 9f54 bc3d
000000e0: 1408 b2bd d4c2 013e 42fb efbc c023 133e
000000f0: 202b debc 137a 35bd 0045 04be 2bef 2b3e
00000100: 1a64 e2bd 45b7 a0bd 30a3 b1bd 0d1d 43be
00000110: b0eb a7bd a5e2 213e 089e ec3d 756b 2e3d
00000120: 8fda 84bd 28bd 183c 80a2 47bd 4c8e 23be
00000130: 6d0f 0b3e 3e56 ba3d d263 223e 3953 19be
00000140: 34ee 1c3d 5715 b33d 9f60 56bc 37fe c03d
00000150: e041 d23d 1e1d cfbd bded f83d 78a4 2b3d
00000160: b9a8 10bd 1fc0 793d f720 093e f6c6 433d
00000170: 8e65 af3d 1f16 09be 1f3d c5bd 0706 dbbc
00000180: 47af c83d 7359 d43d 2522 49bd 855a 26bd
00000190: cc8d 0abd 261f 81bd 1ee7 193e e6e2 c13d
000001a0: fc90 d83d 0eaa 79bd 476c 48bd 1b01 16be
000001b0: 33f8 113e 94e6 89bd d1d2 b5bc 14e3 edbd
000001c0: 63ea 3a3d b2e0 a03d 3065 34be f315 0d3e
000001d0: 6493 453d 1683 b73d 3b16 0fbe bfb5 733d
000001e0: b160 303e 3a59 013e 88b0 c6bd ce64 9f3c
000001f0: 8eeb eabd ef60 753d 211e 993d 1f61 b83d
00000200: 96b8 1dbe f29b b33d 176e 21ba 0c3e 05be
00000210: b03a a2bd 5139 293e 9a22 15be b76f f23d
00000220: 92c4 1c3e bc65 f8bd c5e9 26be 13bc 00be
00000230: 783b 1a3c fb02 29be 32e1 ff3d 56a9 183e
00000240: d925 57bc a993 b83d f1a5 e53d 0f9e 4d3d
00000250: d0db 9dbd 29b7 2c3c 69d3 183e bef3 2cbd
00000260: b936 083d 1a7c 06bb 0319 87bd d17c 12bd
00000270: b4ea a2bd df3f 58bd 1a70 2d3e e504 09bd
00000280: c07c 9fbc a41b 233e 40d4 6d3d eb23 0bbe
00000290: 0919 51bd 2c01 84bd 97cf 93bd 9997 16be
000002a0: 3397 af3d e910 0a3e 5680 0fbe 62b1 2e3e
000002b0: e3fe a93d 2953 2e3e f8aa f1bd c4aa 6d3d
000002c0: 4f11 013e fcd3 e53d af72 19bd 23a6 033e
000002d0: 6524 c63d 4022 01be 6dc7 a73d b7ee c4bd
000002e0: 8235 133e ab7f 95bd 8450 ccbd 9685 a33d
000002f0: 3223 bcbd a1b0 80bd 18a8 e23d 292b 2d3e
00000300: 7e00 543d 6e33 233e f13b 993d d83f 00bd
00000310: 2dec 83bd c632 20bd 872e 2abb 8209 5fbc
00000320: da64 bb3c 9b69 123d 4322 01be 3f0b dcbd
00000330: 189c 223e e5cc b7bd b325 a63d 5866 333e
00000340: a231 1dbe 8d77 703c 03ce 153d f092 e2bd
00000350: 9eb9 11bd cf72 b2bd 9345 2fbe 9f75 2cbd
00000360: 648f 1d3e 851d 403e e5b6 d9bd 54d2 2fbd
00000370: 7c91 b9bd f053 d03d da55 1ebe b711 81bd
00000380: c172 66bd ac19 9ebd e7c4 163e 82ba 1fbe
00000390: a987 03be f251 1ebe 818b 94bd fed0 af3d
000003a0: c738 e53c 1a61 08bc 6c3c 0f3e e9f6 f03d
000003b0: 6824 2a3d 5383 4f3d 83d1 80bd 4588 2ebe
000003c0: 13b9 103d e789 1f3e 4f72 083e 7735 03bc
000003d0: d752 a63a ff2d 273e 4694 39be 6091 153e
000003e0: 72ba 273e 7711 cc3d fb88 913d c05a 043c
000003f0: 78c4 453d 78b9 b7bd 68d4 e4bc 2447 e6bd
-0.027457623 -0.12709348 0.0680364 0.11505649 0.03307097 0.020402957 0.15707806 -0.061507754
-0.022092972 0.053261735 -0.102791436 -0.14337473 -0.035523064 0.10687098 -0.08408433 0.05751853
-0.0059835897 0.15464218 0.10191381 -0.09170583 -0.17438336 0.094545335 -0.1735019 -0.1134751
0.15505995 0.042433135 0.013707718 -0.12718214 -0.039987355 0.018073004 0.09806837 -0.08019419
-0.026421271 0.04148074 -0.1725367 -0.051011335 -0.1658906 -0.06254202 -0.10023264 0.09165448
-0.11132274 -0.17002629 -0.023982441 -0.08475415 -0.09383869 -0.054820463 0.07305329 -0.14980178
-0.13142283 0.026500648 0.09240701 0.004885753 0.16629517 0.084892325 -0.1319177 0.09195828
-0.08692947 0.12671977 -0.029294614 0.14369106 -0.027120173 -0.044305872 -0.12916946 0.16790454
-0.11054249 -0.07847456 -0.08673704 -0.1905405 -0.08199251 0.15809114 0.115535796 0.042582948
-0.06486999 0.009322442 -0.048738956 -0.1597225 0.13580103 0.09098481 0.15858391 -0.14973153
0.038313106 0.087443046 -0.01308456 0.09423488 0.10266471 -0.101129755 0.1215472 0.041904896
-0.035317156 0.060974237 0.13391481 0.047797166 0.08564292 -0.13387345 -0.096307985 -0.026736272
0.097990565 0.103686236 -0.04910483 -0.04061367 -0.033826634 -0.06304769 0.1502957 0.094671056
0.105745286 -0.060953192 -0.048931386 -0.14648859 0.14254837 -0.067334324 -0.022195252 -0.11615577
0.045633685 0.07855357 -0.17616725 0.13777904 0.048236266 0.089605495 -0.13973324 0.0594995
0.17224385 0.12631693 -0.097016394 0.019457247 -0.1147071 0.059906896 0.0747645 0.090028994
-0.15402445 0.087699786 -0.0006158067 -0.1301195 -0.0792135 0.1652577 -0.1456398 0.11837714
0.1530936 -0.12128779 -0.16300113 -0.12571745 0.0094135925 -0.16505043 0.124941245 0.14908347
-0.013131582 0.09012539 0.112132914 0.050199565 -0.077079415 0.010541716 0.14924397 -0.04222464
0.033255313 -0.0020520748 -0.065965675 -0.035763565 -0.07954922 -0.052795287 0.16937295 -0.033451933
-0.019468665 0.15928513 0.058063745 -0.1358792 -0.051049266 -0.06445536 -0.07217329 -0.14706267
0.08573761 0.13483013 -0.140138 0.17059854 0.08300569 0.1702391 -0.11800188 0.058024183
0.12604259 0.112220734 -0.037462886 0.12856345 0.096749105 -0.12610722 0.08192334 -0.09615844
0.1437588 -0.07299741 -0.09976295 0.07984464 -0.091864005 -0.06283689 0.110672176 0.16910996
0.051758282 0.15937588 0.07482136 -0.031310886 -0.06441531 -0.03911092 -0.0025967674 -0.013613107
0.022875238 0.035745244 -0.12610726 -0.107443325 0.15879858 -0.089746274 0.08112659 0.1751951
-0.15350965 0.014676941 0.03657342 -0.11063182 -0.03557741 -0.08713304 -0.17116384 -0.04210436
0.1538673 0.18761261 -0.106305875 -0.042925194 -0.09060952 0.1017226 -0.15462437 -0.06302207
-0.05626178 -0.0771974 0.1472355 -0.15598491 -0.12844719 -0.15460947 -0.07253171 0.08584784
0.027981175 -0.008323932 0.13987893 0.117658444 0.041538626 0.05066235 -0.06289961 -0.1704417
0.03533275 0.1557995 0.13324855 -0.0080083525 0.0012689483 0.1632614 -0.18122968 0.14606237
0.16379717 0.09964269 0.07106205 0.008078277 0.04828307 -0.08970922 -0.027933314 -0.11244038

actor.customer_encoder.0.BN1.weight f4 [32]
00000000: 2d8b 803f 5a35 833f bcec 803f abca 783f
00000010: fdf7 7e3f d2b8 7c3f 2a37 803f 7faf 833f
00000020: 9744 7f3f e277 7d3f bfb4 803f 8d10 823f
00000030: bfe3 7e3f bc71 803f 71f1 783f 1aa3 7f3f
00000040: f694 7b3f 5a28 803f f9c2 843f 546e 803f
00000050: 49f7 7d3f 97eb 7c3f 877a 7f3f d962 7f3f
00000060: a895 803f 5605 7f3f c63f 7d3f 0698 7f3f
00000070: 5a13 803f 458d 793f 407b 823f 7c6b 803f
1.0042473 1.0250657 1.0072246 0.97184247 0.9959715 0.98719513 1.0016835 1.0287932
0.99714035 0.9901105 1.0055159 1.0161301 0.9956626 1.0034709 0.9724341 0.9985825
0.9827417 1.0012314 1.0372001 1.003367 0.9920545 0.9879698 0.99796337 0.99760205
1.0045671 0.99617517 0.98925436 0.99841344 1.0005906 0.97481185 1.0193863 1.0032802

actor.customer_encoder.0.BN1.bias f4 [32]
00000000: a70b 80bc 9c8c 06bd 3a65 ecbb 7429 1b3b
00000010: f887 f3bb 8c00 38b9 32dc 013c d4af 053d
00000020: 8281 383c 01e0 173c c223 12bd 92dc b13a
00000030: 53eb dfbb c296 c23b a214 a7bc 6e14 79bb
00000040: b344 b43a 6ed1 863b 2394 70bc bb86 eeb8
00000050: a9b7 6abc bdc2 813c 50d4 6f3c 9bf6 4e3c
00000060: c7a9 9c3c f765 76bc 04f6 56bc 3aff d1bb
00000070: fe9a 6bbc d0a8 f63c ecc9 c03c a2db a7bb
-0.015630556 -0.03284894 -0.0072142156 0.002367583 -0.00743198 -0.00017547811 0.007926034 0.032638386
0.011261346 0.009269715 -0.035678633 0.0013569763 -0.0068334728 0.005938382 -0.02039558 -0.0038006562
0.0013753384 0.0041143214 -0.014683756 -0.0001137382 -0.014326015 0.015839929 0.014638022 0.0126320375
0.019123925 -0.015038959 -0.013120178 -0.006408599 -0.014380215 0.030109793 0.023533784 -0.005122618

actor.customer_encoder.0.BN1.running_mean f4 [32]
00000000: 5f76 3c3f 05eb cbbe 773c ef3e 15b8 163f
00000010: 2602 53bf 481c e33e acaf 023e 7f03 fd3d
00000020: f14b 9abe 2257 8f3e 754c 64be ab20 8b3e
00000030: 0b07 1abf 4472 8d3f c655 0a3f 5f12 a73e
00000040: 5981 4bbe c0de 9dbe 9411 fd3d c0e2 3e3e
00000050: cd1c 80be 4004 eebe 2974 09bf 3440 edbe
00000060: 8227 363e fa7d 643d 08e2 393e 1665 ca3e
00000070: 2b4a 113e de3d 82bd 0055 623d b473 99bd
0.7361812 -0.39827743 0.4672582 0.58874637 -0.82425153 0.44357514 0.12762326 0.123541825
-0.30136064 0.27996165 -0.22294791 0.2717336 -0.60166997 1.1050496 0.5403713 0.32631204
-0.19873561 -0.30834007 0.123568684 0.18641186 -0.25021973 -0.46487617 -0.5369287 -0.46338046
0.17788509 0.055784203 0.1815263 0.39530247 0.14188449 -0.063594565 0.055256844 -0.07492772

actor.customer_encoder.0.BN1.running_var f4 [32]
00000000: 271c 9a3c 8ea8 3a3b 156b 0e3d c286 913c
00000010: d828 013d 2f06 fb3c 13ed 743c cbf0 3b3b
00000020: 0a50 2c3c d66a 3f3b ec19 cc3c b7b7 653c
00000030: 907a a73c 04bc 673d c4b3 363c 2c5b 343c
00000040: 79c4 b33b 01e8 ff3b 00a4 303c e588 d93b
00000050: 7b66 053c dcc6 063d ce67 4b3c 934e 9f3b
00000060: e0c1 783c 6d49 003b d980 803c c399 7c3c
00000070: 23da 1a3d 57b2 7d3c 6564 813b 4de9 593c
0.018812252 0.0028481814 0.03477009 0.017764453 0.031533092 0.030642597 0.014949101 0.002867746
0.01051713 0.0029207966 0.024914704 0.014020852 0.020444185 0.05657579 0.011151258 0.011008065
0.005486068 0.0078096394 0.010781288 0.0066386336 0.008142109 0.03290449 0.012414886 0.0048616617
0.015182942 0.0019575015 0.01568644 0.015417519 0.037805688 0.015484414 0.0039487355 0.013300252

actor.customer_encoder.0.FFN_layer1.weight f4 [32, 32]
00000000: 248d 93bc 7862 30be 956e c03d 0a92 a4bd
00000010: 3bb6 dc3d c36b f9bd 74e5 1e3e 937a a2bc
00000020: 969c 2c3e 42d3 983d a1af f33d aeaf e23c
00000030: d6ed e3bd b191 b53c bf31 233e 0dc1 1ebe
00000040: a902 673d 9eb9 99bc 0039 023e db70 01be
00000050: a4d7 0cbe 9f27 2f3d 8b88 42bd e4cd 90bd
00000060: 055f 283d f61d ff3d 9d74 02be 9f8c 5bbc
00000070: b989 96bd bfac 9ebc 34e2 a6bd 9458 2b3e
00000080: ff4f da3d a426 9b3d 7289 56bd 8a71 c23d
00000090: e9c2 d8bd 42d0 13be abf1 dcbd 7bc5 7ebd
000000a0: 272b 0dbe f81d e63d 3ac1 03bc e402 85bd
000000b0: c8f5 e1bd f3e8 173e 404c 2a3e 69a6 efbd
000000c0: 1495 0e3e 5118 2e3c 1a8b 80bd 20a3 ad3d
000000d0: 95f8 09be 3fc7 35be b07f 94bc 0ccd f33d
000000e0: 0741 183e d364 1e3e 85de a13d c43f 2d3d
000000f0: 3fe6 863c 16ee fabd 20dc 193e 1425 153e
00000100: 7187 1fbe afa3 6dbe 4070 fcbc 2ebf 90bd
00000110: 877e abbd 47e3 2a3e 1fd8 e2bc a8da 523e
00000120: 35f4 7dbc 53f3 e2bc 2259 2cbc e045 73bd
00000130: 698d 73bd 2d4d 94bd b688 a0bd b075 b23c
00000140: cf0b 8d3d 0f4c 913c 24bf 6e3d 35ce 7ebd
00000150: ab3f 2ebe 3018 7f3d 6f8a df3c e240 4abe
00000160: a4f2 373e 649d 5dbd 2c49 00be 2ac4 d6bd
00000170: 3c12 37bd 36cf 1dbe 4edd eb3c f99d d4bd
00000180: 38b7 e8bd b545 3a3e 294a 6bbd 50d2 adbc
00000190: 5e14 d9bd 6bb0 debb 0b50 d4bd b793 e3bd
000001a0: 8e69 bebd 4fb3 26bd 98c9 7f3d dda6 8c3d
000001b0: b87a e03d 38a8 acbd c4c6 13be f486 adbc
000001c0: 8a8a 053e 44cf 043d 8e74 1a3e bff4 113e
000001d0: 40f7 dc3d fead b2bc 23ee b33c 0cd4 00be
000001e0: a2b7 133d 69a4 d33c 44f4 0abe d013 f0bd
000001f0: 29b3 b3bd 7f98 973b 162f 33bc 5af2 383d
00000200: e293 a3bd 8b16 1c3e c2b0 b6bd 699f ce3d
00000210: bda6 2f3e dca2 193e bae2 bdbd d072 d5bd
00000220: fadf 97bd e066 e6bd 0d85 4abd 7a09 64bd
00000230: c3cf 983d 66a6 103e 8eb2 6b3d 2b37 fc3c
00000240: 65b0 1fbd 1f59 73bd 5b6b 473e 87ad 21be
00000250: 6a1e b53b 72ee 22be 8eb0 59bd add5 fcbd
00000260: dfc2 42be 2d4e cc3d c91f a9bd 7ed3 113d
00000270: 1ff6 193e 7bcf edbc 670f 333d d997 73bd
00000280: b07b e83d b254 3b3e 4035 76bd 7509 1abe
00000290: 2e6b 053e a180 0a3e 8d18 ab3d 21cd 2ebb
000002a0: f292 323d 7b30 063d 483d c03c 361b 53bd
000002b0: 71ba 453d daa9 213e 1cf3 5abd d8ce 0abe
000002c0: 52ec e9bd 33d6 13bb e512 903d 51f6 213c
000002d0: c497 2f3e 9aef 213d ac1d 913d 4273 23be
000002e0: 1a41 ec3d b9bc 183e 2ebd 453d 9bec 943d
000002f0: fce6 23be 13e0 163e d296 4bbc 98b9 2fbe
00000300: 6604 993d 17d6 c63d f8ce 083e 6009 343e
00000310: ee53 3e3c 4a27 f13d 336e 433e 5eb7 a63d
00000320: 3fb3 433d c04f 2bbd 19be f5bd 7b7c a73d
00000330: cf3f 18be e1c7 c43c 2c8f 1cbe e476 2cbe
00000340: 55f5 6ebd 22d2 2abe e84d bd3d bc15 053d
00000350: 750d 8ebd 46b4 143e d619 723d aae7 c13d
00000360: 449b cabd 661c 29be 18b6 15bd 4ccd 0a3e
00000370: f7a7 07be 9bf3 0cbe 84e5 b93c 7a24 583d
00000380: 082c a43d 2d2b 263c ae23 f3bc f5c9 a3bd
00000390: c076 8ebb fbbb 0b3e b4fc e9bd 317c 28be
000003a0: 78c2 b6bb a413 003c 6ce7 ee3d 662d 443d
000003b0: fc65 3c3e 3bc5 b3bd d9e7 923d 257c aebd
000003c0: 3ea7 eabd 5d83 a8bd 37c0 543e d8f9 dbbd
000003d0: d6d9 c8bc 400f 0d3d 0bfd d6bd 36fb 113d
000003e0: ce43 00be 4445 153e 24ef 0a3e 5e16 923d
000003f0: 66a9 e63d 566e 8f3d e982 a03c cdaf d03c
-0.018011637 -0.17225063 0.09396092 -0.08035667 0.10776945 -0.12178757 0.15517217 -0.019833839
0.16856608 0.07462169 0.11898733 0.027671661 -0.11129348 0.022164198 0.15936945 -0.1550333
0.05639902 -0.018765267 0.12717056 -0.12640707 -0.13754135 0.042762395 -0.0474935 -0.070705205
0.041106243 0.124568865 -0.12739797 -0.013400226 -0.07350487 -0.019369481 -0.081486136 0.16733009
0.10659789 0.075757295 -0.05237717 0.09494312 -0.10584051 -0.14434913 -0.10788282 -0.06220005
-0.13785993 0.11236185 -0.008041674 -0.06494692 -0.11033207 0.14834957 0.1663065 -0.11701662
0.13924056 0.010625915 -0.062765315 0.08478379 -0.13473733 -0.17751788 -0.018127292 0.11904344
0.14868556 0.15468149 0.0790377 0.04229714 0.016467212 -0.122524425 0.15025377 0.14564925
-0.1557901 -0.23206972 -0.030815244 -0.07067715 -0.083737426 0.16688262 -0.027690945 0.20591223
-0.015500118 -0.027703917 -0.010519298 -0.05939281 -0.05946103 -0.072412826 -0.078385755 0.021784633
0.06887018 0.017736463 0.058287755 -0.062208373 -0.17016475 0.062278926 0.02728769 -0.19751313
0.17963654 -0.054105178 -0.12527913 -0.10486634 -0.044695124 -0.15411076 0.02879205 -0.103816934
-0.11363071 0.18190654 -0.05744377 -0.021218449 -0.10599588 -0.006795933 -0.103668295 -0.11112159
-0.09297477 -0.040698346 0.062448114 0.06867764 0.10960907 -0.08430523 -0.14431292 -0.021182515
0.1304113 0.032424226 0.15083525 0.1425352 0.10789347 -0.021811482 0.021964138 -0.1258089
0.036063798 0.025835233 -0.13569742 -0.11722529 -0.087744065 0.0046263332 -0.010936519 0.045153
-0.07987191 0.15242974 -0.089204326 0.10088999 0.1715345 0.15003532 -0.0927176 -0.10422289
-0.07415767 -0.112500906 -0.049443293 -0.0556731 0.074615024 0.14125976 0.05754333 0.030788025
-0.038986582 -0.059411164 0.19474547 -0.15788852 0.0055273073 -0.15911272 -0.05314689 -0.12345443
-0.1901965 0.09975848 -0.08258016 0.035602085 0.15035294 -0.029029598 0.04371586 -0.059470985
0.113517165 0.18294027 -0.060109377 -0.1504267 0.13029167 0.1352563 0.08354292 -0.002667256
0.04359717 0.03276108 0.023466721 -0.051539622 0.048273508 0.1578745 -0.053454503 -0.13555467
-0.11422028 -0.0022558093 0.07034854 0.009885387 0.17147738 0.039535142 0.070857376 -0.15961936
0.11535855 0.14915742 0.04827612 0.072716914 -0.16006082 0.14733915 -0.012426095 -0.17160642
0.07471542 0.09708803 0.13360202 0.17581701 0.01161669 0.11775072 0.19085006 0.08140443
0.047778364 -0.041824102 -0.11999149 0.0817804 -0.14868091 0.024021091 -0.1528899 -0.16842228
-0.058339436 -0.16681722 0.09243375 0.03249143 -0.069361605 0.14521894 0.05910667 0.094680145
-0.09892896 -0.1651474 -0.03655061 0.13554877 -0.13247667 -0.13764803 0.02269245 0.05276916
0.08016211 0.01014213 -0.0296801 -0.079975046 -0.004347652 0.13645928 -0.114251524 -0.16453625
-0.0055773817 0.007817183 0.11665234 0.047894858 0.18398279 -0.08777853 0.07173128 -0.085197724
-0.1145768 -0.082281806 0.20776449 -0.10741013 -0.024517935 0.03443837 -0.10497483 0.035639964
-0.12525865 0.14577204 0.13567787 0.071331725 0.11262779 0.07003467 0.019593673 0.025474453

actor.customer_encoder.0.FFN_layer1.bias f4 [32]
00000000: 1e09 213d 5249 a33d 1112 1ebc 291a b33d
00000010: 8d0f 823c 99b4 04be 5dec 303e 527c 3ebc
00000020: 9c92 8abd f246 a03d be23 f93c 8a3f 1fbe
00000030: 7c65 183e 3d3c 83bc fade 8c3d 20a9 57bc
00000040: 27f8 1ebe 097f fabd 0275 03bd 07f0 44bd
00000050: 7348 0d3e a873 0b3d 4ac7 163e 3f69 2e3e
00000060: 4fb6 b73c 06cd 6abd 9178 b8bb b7b2 56bd
00000070: edb0 36be 7843 773d 5642 8d3d c6f4 5fbd
0.039315335 0.07972969 -0.009647862 0.08745224 0.015876556 -0.12959518 0.17277665 -0.01162632
-0.06766245 0.07826032 0.030412551 -0.15551582 0.14882463 -0.016019935 0.06878467 -0.013162881
-0.1552435 -0.12231261 -0.03209401 -0.04808047 0.13797168 0.034045845 0.1472446 0.17032336
0.022425799 -0.05732443 -0.005629607 -0.05241653 -0.1784093 0.060367078 0.06897418 -0.054676794
