output/282nodes_entropy0.01_0.4_0.85_2_230823/epoch2.pth (torch, 514363 bytes, 129 tensors)

critic.ff_layer1.weight f4 [32, 283]
0.067718364 0.06644803 -0.00085972063 0.059120957 -0.0029774979 0.020228203 -0.013954206 0.046518628
0.05978162 -0.028698763 0.056536276 0.016204875 0.04602611 0.022436768 0.03878443 0.003654589
0.058757506 0.017275132 -0.020059366 0.026761616 -0.019063802 0.008596328 -0.008037171 0.049506865
-0.035879 -0.01528384 -0.005652063 -0.024298714 0.01720687 -0.04555168 0.06179426 -0.041531824
0.05101967 0.023121627 -0.01132704 0.04117381 0.01682711 0.059455123 0.015178269 -0.015081724
0.023498686 -0.006080946 0.03433107 0.05887844 0.03991957 -0.015592333 0.040356554 0.018726122
0.042519175 -0.023404352 -0.052463427 -0.013024066 -0.032574594 0.05222073 0.024328567 0.033062894
0.03038834 0.012795997 0.06081873 -0.029927919 0.015719647 -0.027849542 0.028611131 -0.013200158
0.026963549 -0.004795108 0.048547372 -0.019176595 -0.03292275 -0.022098938 0.06871224 0.023484172
0.06275455 -0.03806712 -0.042629324 -0.036346234 -0.022916822 0.03225961 0.03018044 0.05738494
-0.020623453 -0.026360972 0.030192988 -0.016075488 0.042779285 -0.0068377466 0.040609524 -0.034732427
-0.01977656 0.023371799 0.025127795 -0.009867888 0.04275583 0.049571123 -0.033411402 -0.024715776
0.05394499 -0.015870795 -0.008394734 -0.0426717 -0.021635141 0.02272039 -0.0021418962 -0.029357463
0.022704002 -0.033654146 -0.04298888 -0.018594291 -0.04419866 -0.030303488 0.06931784 0.027205674
0.029881159 -0.045911487 -0.027767388 -0.007118004 0.012625245 -0.036580175 -0.00624209 -0.026289992
0.010065874 -0.005196496 0.007808278 -0.03104725 -0.026030248 -0.02156109 -0.009534906 -0.029400146
0.05429645 0.0048329937 0.060544055 0.02526278 -0.04198254 0.04896585 -0.011088519 -0.0055141486
-0.03383805 -0.039913002 0.023605464 0.00084888615 0.031666968 -0.038715124 0.056971863 -0.027607346
-0.0007573247 0.02606965 0.037658557 0.054874256 0.060706444 -0.037168603 0.025023473 -0.018873235
0.0026758136 -0.034902662 0.062627785 -0.031179145 0.046449468 0.023913344 0.031813897 -0.017279994
0.059066713 0.014784854 0.01388468 -0.039093435 0.033159707 0.008515504 -0.01774726 0.05849935
0.029744862 -0.022135565 -0.021587238 0.0071340133 0.044024304 -0.007221195 -0.017155088 -0.008712859
-0.035762172 0.030162035 0.052951973 -0.04547434 0.018732749 0.044176437 0.016788375 -0.010479762
0.03839697 0.04218058 0.029632945 0.005544687 -0.0056824666 0.014715211 -0.004142501 -0.0062710745
0.0495776 0.053915143 0.0015270637 0.0016698575 0.005520799 0.003183543 0.029392648 0.02927453
-0.037544094 -0.011346634 0.059543036 0.030296056 0.002333653 -0.027741374 -0.022740653 -0.035887104
-0.0060356488 0.027184587 0.046994317 0.035377853 -0.03624786 -0.024388293 0.0027627412 0.059170548
0.017729722 -0.005969415 0.032614544 -0.007795699 -0.024055209 0.05174674 -0.01681895 -0.0024026218
-0.047022473 0.04545746 0.05246659 0.029373543 -0.02571247 -0.053270727 -0.034792006 0.049820013
0.034090754 0.05857602 0.033339493 0.019792808 0.010094862 -0.029254612 -0.03320584 -0.050142303
0.040195044 -0.022859203 -0.005977662 -0.02583514 0.00054853235 -0.028244393 -0.029454328 0.02424678
-0.0035517975 0.0429691 -0.009761051 -0.035235744 -0.0002644077 -0.016271098 -0.011833207 -0.045729212
00000000: edaf 8a3d e815 883d e05e 61ba d128 723d
00000010: 2022 43bb 9eb5 a53c 2fa0 64bc 518a 3e3d
00000020: 92dd 743d ab19 ebbc 9592 673d 16c0 843c
00000030: e085 3c3d 50cd b73c 6cdc 1e3d d481 6f3b
00000040: b6ab 703d 9484 8d3c 8a53 a4bc 2d3b db3c
00000050: b12b 9cbc 9dd7 0c3c 57ae 03bc b6c7 4a3d
00000060: dcf5 12bd 1269 7abc f134 b9bb 190e c7bc
00000070: 6cf5 8c3c 6694 3abd fa1b 7d3d 461d 2abd
00000080: 00fa 503d 9169 bd3c 0d95 39bc dea5 283d
00000090: 02d9 893c 3787 733d 46ae 783c 5619 77bc
000000a0: 5180 c03c ac42 c7bb bc9e 0c3d 852a 713d
000000b0: b482 233d fc76 7fbc ea4c 253d 8667 993c
000000c0: 9628 2e3d 7cba bfbc e4e3 56bd e462 55bc
000000d0: f06c 05bd 67e5 553d b44c c73c f56c 073d
000000e0: f8f0 f83c 4da6 513c 101d 793d 652b f5bc
000000f0: 7dc6 803c b924 e4bc e461 ea3c 7a45 58bc
00000100: a9e2 dc3c 4820 9dbb 9cd9 463d 3c18 9dbc
00000110: 01da 06bd d508 b5bc 01b9 8c3d e161 c03c
00000120: 7585 803d 45ec 1bbd 169c 2ebd cadf 14bd
00000130: 0fbc bbbc a722 043d f83c f73c 790c 6b3d
00000140: 84f2 a8bc f7f2 d7bc 4957 f73c beb0 83bc
00000150: 5539 2f3d 2d0f e0bb 2c56 263d 9743 0ebd
00000160: 7402 a2bc 3776 bf3c ced8 cd3c ecac 21bc
00000170: bd20 2f3d 170b 4b3d 65da 08bd bd78 cabc
00000180: 6cf5 5c3d 7803 82bc 118a 09bc 85c8 2ebd
00000190: 2e3c b1bc 1d20 ba3c 0e5f 0cbb 107f f0bc
000001a0: befd b93c eed8 09bd 1c15 30bd 0e53 98bc
000001b0: a709 35bd 053f f8bc 83f6 8d3d 6fde de3c
000001c0: 55c9 f43c af0d 3cbd 6f78 e3bc 253e e9bb
000001d0: 1eda 4e3c 18d5 15bd 728a ccbb 1c5e d7bc
000001e0: 56eb 243c 5e47 aabb 95dc ff3b cd56 febc
000001f0: 633d d5bc e2a0 b0bc 4b38 1cbc 93d8 f0bc
00000200: f465 5e3d 175e 9e3b 0bfd 773d e4f3 ce3c
00000210: e2f5 2bbd 6a90 483d 9fac 35bc 08b0 b4bb
00000220: c499 0abd d17b 23bd 3f60 c13c c987 5e3a
00000230: 39b5 013d c093 1ebd 545b 693d cd28 e2bc
00000240: 3387 46ba 0590 d53c dc3f 1a3d d4c3 603d
00000250: 52a7 783d 1b3e 18bd 07fe cc3c 0b9c 9abc
00000260: b45c 2f3b 18f6 0ebd ff42 803d 686b ffbc
00000270: cc41 3e3d ebe5 c33c 4a4f 023d c68e 8dbc
00000280: f0ef 713d 2c3c 723c 927c 633c 7020 20bd
00000290: 79d2 073d 9d84 0b3c b462 91bc 049d 6f3d
000002a0: 7fab f33c a555 b5bc b8d7 b0bc 71c4 e93b
000002b0: d452 343d c69f ecbb d488 8cbc 61c0 0ebc
000002c0: 5b7b 12bd 5f16 f73c 2be4 583d 4d43 3abd
000002d0: 6c75 993c 5af2 343d c687 893c 4fb3 2bbc
000002e0: 2446 1d3d 8bc5 2c3d cac0 f23c 35b0 b53b
000002f0: fc33 babb 1118 713c d1bd 87bb 967d cdbb
00000300: e211 4b3d 20d6 5c3d c127 c83a 1fdf da3a
00000310: d2e7 b43b fda2 503b dac8 f03c 24d1 ef3c
00000320: d6c7 19bd 3be7 39bc 66e3 733d 6f2f f83c
00000330: 33f0 183b e141 e3bc 9b4a babc 5bfe 12bd
00000340: b1c6 c5bb 36b2 de3c 1d7d 403d 5ee8 103d
00000350: a378 14bd f5c9 c7bc 1b0f 353b d15c 723d
00000360: ec3d 913c 159b c3bb d496 053d 1073 ffbb
00000370: 6e0f c5bc 64f4 533d e5c7 89bc 4e75 1dbb
00000380: a39a 40bd 9a31 3a3d 35e7 563d c9a0 f03c
00000390: f5a2 d2bc 6832 5abd 1082 0ebd 1210 4c3d
000003a0: bfa2 0b3d 69ed 6f3d fe8e 083d 8724 a23c
000003b0: ec64 253c 5ea7 efbc d902 08bd 0462 4dbd
000003c0: 8fa3 243d 3943 bbbc 43e0 c3bb 37a4 d3bc
000003d0: 62cb 0f3a c960 e7bc 344a f1bc 2fa1 c63c
000003e0: 46c5 68bb 5e00 303d d1ec 1fbc 5b53 10bd
000003f0: 33a0 8ab9 f74a 85bc 11e0 41bc 8e4e 3bbd

critic.ff_layer2.weight f4 [283, 32]
0.024988003 0.1570077 -0.023326552 -0.09350841 0.1557641 -0.005682839 0.16023222 0.01433339
-0.07732557 0.036860973 0.017858166 0.08060476 -0.10068823 -0.10839897 0.04092131 0.20292692
-0.07536173 -0.057947673 0.05429127 0.18521358 0.18657428 0.0025010412 0.031042976 -0.097937524
0.20008221 0.14668228 0.07954864 -0.13150409 0.13530464 -0.03455629 0.043897156 0.13666384
-0.008453319 -0.09315732 0.11356236 0.111573875 0.016096972 -0.10992835 -0.095726736 -0.15699992
-0.094367765 -0.15827425 -0.020552894 -0.12827986 0.10447373 -0.144159 -0.117268786 -0.10675928
-0.04721865 0.07193881 0.12126706 0.17240728 -0.05084265 0.045396313 0.007648466 0.09988713
0.08317178 0.103221565 0.12037439 0.13703784 0.00026709164 0.118375935 -0.09901868 -0.041991334
-0.051399842 -0.0506242 0.017830012 -0.16895081 -0.100821234 -0.013044834 0.035795946 0.13257022
-0.11762412 0.047572784 0.07808912 -0.09497517 0.03298112 -0.08728805 0.002985898 -0.095002845
-0.04875297 -0.06959339 0.15587902 0.0447285 -0.16850173 0.025651073 0.09376944 -0.069597825
-0.10407115 -0.031757157 -0.15600343 -0.06725302 0.01987347 -0.1307432 -0.16283421 -0.10317557
-0.12611957 0.0071316925 0.061992813 0.10703683 0.17803465 0.09520851 -0.0790295 -0.026901314
-0.091218546 0.10227486 0.05555487 0.07561709 -0.12027371 0.13650174 -0.15596798 0.08713132
-0.15090227 0.13470201 -0.10290643 -0.13268402 0.08387144 0.15560672 -0.013472309 0.07313423
0.1558345 -0.14622763 0.06891985 0.029115977 -0.1019971 0.098248735 0.15441866 0.13367246
-0.12912315 0.14694759 0.14373222 0.068003915 -0.030483121 0.13097703 -0.121436276 -0.10392615
0.093675464 0.11618613 -0.020853171 0.16139774 0.09189934 0.082058124 0.13673443 0.1689644
0.115594 0.13580604 0.009901774 0.13368478 0.08956674 -0.0870312 0.090706825 0.014750725
-0.066256285 0.12226962 0.046529755 0.13436984 0.030789746 0.04982128 0.10258681 -0.053185977
0.11120614 -0.0907409 -0.025026312 0.017001946 0.12025365 0.0827656 0.16811006 -0.09219121
-0.013625847 -0.016780743 0.13933511 0.16450052 0.04307505 -0.1369363 -0.12623332 0.034170475
-0.15658437 -0.06457285 -0.13529904 0.08676769 -0.019016545 -0.1317077 0.11056182 -0.15037711
-0.021385465 0.17049162 0.0785795 -0.14784901 0.0177411 -0.026486864 0.07845133 0.15830936
0.1530154 -0.016731765 0.08089202 -0.17469117 0.13594101 0.090955965 -0.12434378 -0.04819795
-0.06423218 -0.09958874 0.07298363 -0.048061214 0.07688432 -0.05491635 0.13576856 -0.06790606
-0.029304057 -0.048787538 0.007126859 -0.07220961 -0.117781855 -0.16248582 0.11424188 0.026476275
-0.112578265 0.089377485 0.014101367 -0.0645658 -0.012234591 0.01820042 0.12672076 -0.16036394
-0.13285203 -0.13498028 -0.14323346 0.00081562204 0.09626272 0.04896161 0.06407454 0.025431145
0.0028962216 -0.15670158 0.16129199 0.17005008 0.004842154 0.03530666 0.039064694 0.17511287
0.0021566944 -0.029466512 -0.09802346 0.04156224 0.07598745 -0.14251085 0.05808498 0.04428041
0.0831244 0.08504224 -0.04193274 0.025156261 -0.116073824 0.10855415 -0.1440588 -0.15717211
00000000: a4b3 cc3c a0c6 203e 5317 bfbc 5681 bfbd
00000010: a080 1f3e 1c37 babb ea13 243e 98d6 6a3c
00000020: de5c 9ebd 88fb 163d 4a4b 923c 1c14 a53d
00000030: a135 cebd 4700 debd 1b9d 273d 13cc 4f3e
00000040: 4057 9abd 8a5a 6dbd 8660 5e3d a1a8 3d3e
00000050: 540d 3f3e 82e8 233b d74d fe3c 7893 c8bd
00000060: 5ae2 4c3e e133 163e 66ea a23d 02a9 06be
00000070: 4d8d 0a3e e58a 0dbd 81cd 333d 9bf1 0b3e
00000080: ca7f 0abc 44c9 bebd 6293 e83d d880 e43d
00000090: ccdd 833c 1d22 e1bd 610c c4bd 96c4 20be
000000a0: e343 c1bd a512 22be 8b5e a8bc cc5b 03be
000000b0: 53f6 d53d 6b9e 13be 9e2a f0bd 9ca4 dabd
000000c0: 5868 41bd a854 933d dd5a f83d 898b 303e
000000d0: 6240 50bd 7cf1 393d fc9f fa3b a091 cc3d
000000e0: f755 aa3d d465 d33d d986 f63d a653 0c3e
000000f0: 6f08 8c39 156f f23d 4eca cabd 1bff 2bbd
00000100: a488 52bd 525b 4fbd 3f10 923c 7101 2dbe
00000110: 5d7b cebd 00ba 55bc c59e 123d 7dc0 073e
00000120: eae4 f0bd aedb 423d 30ed 9f3d 5882 c2bd
00000130: 3617 073d 14c4 b2bd 0eaf 433b da90 c2bd
00000140: 32b1 47bd fb86 8ebd c09e 1f3e 3b35 373d
00000150: b88b 2cbe 3322 d23c 310a c03d 4e89 8ebd
00000160: 4123 d5bd cb13 02bd 5dbf 1fbe f4bb 89bd
00000170: b0cd a23c 8ce1 05be 03be 26be b74d d3bd
00000180: 7d25 01be f9b0 e93b 2dec 7d3d 2036 db3d
00000190: b74e 363e aefc c23d 38da a1bd 2560 dcbc
000001a0: cad0 babd 7b75 d13d 818d 633d 22dd 9a3d
000001b0: 1052 f6bd 1dc7 0b3e 12b6 1fbe e871 b23d
000001c0: 2086 1abe 53ef 093e 9bc0 d2bd 52de 07be
000001d0: cac4 ab3d 5e57 1f3e f6ba 5cbc 66c7 953d
000001e0: 1493 1f3e b2bc 15be da25 8d3d a184 ee3c
000001f0: dbe3 d0bd a236 c93d ed1f 1e3e 6fe1 083e
00000200: dc38 04be 6e79 163e 8a2e 133e a345 8b3d
00000210: bdb7 f9bc d81e 063e 95b3 f8bd 3cd7 d4bd
00000220: ecd8 bf3d fef2 ed3d 45d4 aabc 7345 253e
00000230: b935 bc3d 170e a83d 1c04 0c3e 0105 2d3e
00000240: 8cbc ec3d bd10 0b3e 0d3b 223c aae4 083e
00000250: c46e b73d 6a3d b2bd 80c4 b93d 06ad 713c
00000260: 60b1 87bd 7f68 fa3d fc95 3e3d 3f98 093e
00000270: c73a fc3c 6611 4c3d 0919 d23d 8ad9 59bd
00000280: 0bc0 e33d 5dd6 b9bd fb03 cdbc aa47 8b3c
00000290: 8c47 f63d 0381 a93d 0b25 2c3e bfce bcbd
000002a0: f23e 5fbc c577 89bc ddad 0e3e d372 283e
000002b0: 776f 303d 0839 0cbe 4f43 01be 57f6 0b3d
000002c0: a757 20be c53e 84bd d58b 0abe 42b3 b13d
000002d0: 96c8 9bbc 62de 06be 3c6e e23d 75fc 19be
000002e0: 9230 afbc 5b95 2e3e 4aee a03d bb65 17be
000002f0: c955 913c fbfa d8bc 17ab a03d d91b 223e
00000300: 12b0 1c3e 0e11 89bc b7aa a53d 3ee2 32be
00000310: 1f34 0b3e 1f47 ba3d f4a7 febd 376b 45bd
00000320: 298c 83bd 2ef5 cbbd 7178 953d d6db 44bd
00000330: 8775 9d3d f7ef 60bd ea06 0b3e 5512 8bbd
00000340: 100f f0bc 71d5 47bd 6d88 e93b a2e2 93bd
00000350: 9d37 f1bd af62 26be a6f7 e93d c6e4 d83c
00000360: 6f8f e6bd 8b0b b73d 6c09 673c 133b 84bd
00000370: 9873 48bc 0c19 953c 16c3 013e 7236 24be
00000380: 5d0a 08be 4538 0abe cbab 12be 78cf 553a
00000390: 6425 c53d f88b 483d 8339 833d fa54 d03c
000003a0: 89ce 3d3b 6176 20be ba29 253e 9c21 2e3e
000003b0: efaa 9e3b b79d 103d 4d02 203d ca50 333e
000003c0: 5457 0d3b c163 f1bc 86c0 c8bd 2b3d 2a3d
000003d0: 4f9f 9b3d 5dee 11be 84ea 6d3d 605f 353d
000003e0: 203d aa3d a02a ae3d aac1 2bbd 8114 ce3c
000003f0: 1db8 edbd a351 de3d 2684 13be baf1 20be

actor.customer_encoder.0.attention.query_embed.weight f4 [32, 32]
0.30522335 0.05533439 0.10748866 0.30448532 -0.3108067 -0.117057055 -0.1503951 -0.22877909
0.22846468 0.22552083 0.27502605 0.33895347 -0.17582518 0.00484291 0.09586338 -0.10269387
0.20315054 0.34947067 -0.3462536 -0.06918557 0.21070112 -0.25856858 -0.06855832 0.22054231
0.09379379 -0.19063321 -0.08415298 0.005065438 0.33741546 -0.2391423 -0.022260318 -0.07996425
0.34857425 0.26893312 -0.04239074 -0.1593514 0.34058478 -0.031989373 -0.08825636 0.28058216
0.1030603 0.031734876 0.32942548 -0.17499472 0.2784958 0.17966181 -0.22158322 0.32995933
0.12474531 -0.24994269 0.30109522 -0.28467265 0.048784547 0.15269156 0.18073574 -0.31961808
0.31807885 0.3055713 0.21178417 0.12818691 -0.2233479 0.25552037 0.029133433 -0.060515106
-0.109276175 0.02865177 -0.07401087 -0.26613104 -0.23039275 -0.12695685 -0.067918375 -0.18714353
-0.100435436 -0.26860148 -0.2500432 0.21313745 -0.10986379 -0.11192897 -0.002527437 0.05416844
-0.23365933 0.16064933 0.14464234 0.15340246 -0.26187637 0.32069954 0.1912479 0.10194032
0.19310306 -0.20112844 0.13420211 0.3179057 0.15017053 -0.011597064 -0.32816175 -0.12928325
-0.2358284 0.33635178 -0.07554535 -0.11091006 -0.34188426 -0.3137766 -0.13496862 0.14170048
-0.056081217 0.19128466 0.32372007 -0.22525406 0.11402992 0.020946048 -0.3142974 -0.0823255
0.04538854 -0.12206875 -0.2393383 0.32695782 0.15291163 -0.30942518 -0.3267725 0.09670025
-0.18596986 0.07688286 0.13157733 0.03333045 0.19680049 0.16344483 -0.057587244 0.09924924
-0.088474214 -0.18684961 -0.35375032 0.15320492 0.28482863 -0.11088436 0.21054173 0.28097278
0.050690297 0.15980868 0.009587075 0.20406196 0.17290853 0.23636019 0.31823823 -0.13840848
0.10913913 0.13035744 -0.27909863 -0.30995986 -0.082711846 0.16622753 0.27627325 -0.13133408
-0.15359195 -0.3094705 0.20858246 -0.17794466 0.11672553 0.13750939 -0.033714257 0.32212326
0.24695931 -0.056393113 0.00010371449 0.22873682 -0.21355118 -0.28743875 0.23178753 -0.18630448
0.03482446 0.02222054 0.271068 0.0518029 0.03509112 0.07398393 -0.14917207 -0.3339358
0.3010372 -0.27712554 -0.26071826 -0.08480863 0.23092255 -0.15128757 0.26499388 0.11520849
0.2374488 -0.13591006 0.16934504 0.08598557 0.31694233 -0.17207693 0.3143431 -0.23681988
-0.24952039 0.33162344 0.18202986 0.20196617 -0.18298341 0.30351272 -0.086837806 0.29838046
0.22701254 -0.31062233 -0.086306386 0.3557068 0.22266535 0.038156588 -0.028687553 0.14581315
-0.102563635 -0.10187871 -0.18618928 -0.013253208 -0.18805337 -0.19793497 0.24540079 0.22980654
-0.17001969 -0.06511985 -0.16577981 0.16862854 -0.22812244 -0.19595413 0.13586621 0.035951454
0.102954604 -0.04182548 0.3541574 -0.058445416 0.2977722 0.043011613 0.34092763 -0.21461539
0.2111699 -0.11060131 0.20101646 -0.2845871 0.21117073 -0.100503825 -0.1478972 -0.124082714
0.25279766 -0.05366452 -0.044605765 0.32789356 0.2647503 0.023498185 -0.11318806 0.10059652
-0.085612044 0.30466247 0.1289927 0.24266331 0.19319993 -0.09066524 -0.2892528 -0.1196266
00000000: 3c46 9c3e 50a6 623d 0423 dc3d 80e5 9b3e
00000010: 0e22 9fbe 9cbb efbd 2c01 1abe 1145 6abe
00000020: a5f2 693e efee 663e 37d0 8c3e 4f8b ad3e
00000030: 840b 34be 46b1 9e3b 0554 c43d 2a51 d2bd
00000040: b206 503e d2ed b23e 2748 b1be 2ab1 8dbd
00000050: 09c2 573e 1a63 84be 4e68 8cbd d8d5 613e
00000060: f516 c03d 5a35 43be 6658 acbd f9fb a53b
00000070: b8c1 ac3e b8e1 74be 455b b6bc 4cc4 a3bd
00000080: 5378 b23e 9ab1 893e eaa1 2dbd 032d 23be
00000090: 2161 ae3e 4a07 03bd c0bf b4bd 77a8 8f3e
000000a0: 4711 d33d 6efc 013d 75aa a83e d131 33be
000000b0: 0097 8e3e 44f9 373e b6e6 62be 6ef0 a83e
000000c0: 787a ff3d faf0 7fbe 2729 9a3e 9dc0 91be
000000d0: 4ed2 473d 2d5b 1c3e ca12 393e fba4 a3be
000000e0: 3bdb a23e d773 9c3e f3dd 583e 6e43 033e
000000f0: 50b5 64be 91d3 823e 3da9 ee3c b0de 77bd
00000100: 30cc dfbd 1eb7 ea3c 0393 97bd 5442 88be
00000110: 14ec 6bbe fa00 02be ca18 8bbd 8ea2 3fbe
00000120: 18b1 cdbd 2286 89be aa05 80be b440 5a3e
00000130: 4400 e1bd 043b e5bd 5ba3 25bb badf 5d3d
00000140: 6444 6fbe 4281 243e 1f1d 143e 8915 1d3e
00000150: a914 86be bb32 a43e 7dd6 433e 16c6 d03d
00000160: cfbc 453e 9df4 4dbe 476c 093e 89c4 a23e
00000170: 4ec6 193e 9d01 3ebc d104 a8be d462 04be
00000180: 007d 71be 4d36 ac3e 85b7 9abd d024 e3bd
00000190: 740b afbe 54a7 a0be 3735 0abe ee19 113e
000001a0: 6bb5 65bd 20e0 433e a3be a53e 00a9 66be
000001b0: 8588 e93d 0c97 ab3c 97eb a0be 469a a8bd
000001c0: 55e9 393d 2eff f9bd 1915 75be 0467 a73e
000001d0: de94 1c3e fa6c 9ebe ba4e a7be c80a c63d
000001e0: e26e 3ebe c374 9d3d 35bc 063e 8385 083d
000001f0: 1186 493e 155e 273e 9ae0 6bbd 2f43 cb3d
00000200: f831 b5bd 8155 3fbe c31e b5be c0e1 1c3e
00000210: 0fd5 913e 5717 e3bd 4098 573e aadb 8f3e
00000220: a1a0 4f3d e3a4 233e 1b13 1d3c 9ef5 503e
00000230: ef0e 313e 6808 723e 1ff0 a23e f4ba 0dbe
00000240: 5684 df3d 6c7c 053e 04e6 8ebe 0fb3 9ebe
00000250: d464 a9bd 8d37 2a3e b073 8d3e 717c 06be
00000260: 3547 1dbe eb72 9ebe a496 553e 2037 36be
00000270: cb0d ef3d 43cf 0c3e f617 0abd 57ed a43e
00000280: e7e2 7c3e 77fc 66bd 4b81 d938 fc39 6a3e
00000290: 29ad 5abe 2c2b 93be b659 6d3e 9ac6 3ebe
000002a0: 18a4 0e3d da07 b63c 6dc9 8a3e 472f 543d
000002b0: b5bb 0f3d e384 973d 90c0 18be a2f9 aabe
000002c0: 8c21 9a3e 66e3 8dbe dd7c 85be 26b0 adbd
000002d0: f676 6c3e 21eb 1abe 47ad 873e 6ef2 eb3d
000002e0: c725 733e 022c 0bbe c968 2d3e 3419 b03d
000002f0: 4446 a23e ef34 30be 94f1 a03e e980 72be
00000300: 4682 7fbe 8cca a93e 0966 3a3e 38d0 4e3e
00000310: 0160 3bbe 0566 9b3e 05d8 b1bd 53c5 983e
00000320: fa75 683e e409 9fbe 67c1 b0bd 341f b63e
00000330: 6302 643e 154a 1c3d 2902 ebbc 0b50 153e
00000340: e20c d2bd c9a5 d0bd 67a8 3ebe fc23 59bc
00000350: 1091 40be 77af 4abe 584a 7b3e 6852 6b3e
00000360: a419 2ebe 8e5d 85bd 2fc2 29be f6ac 2c3e
00000370: ee98 69be 33a8 48be 8320 0b3e d541 133d
00000380: ddd9 d23d 3251 2bbd 1e54 b53e 7664 6fbd
00000390: 9975 983e f22c 303d 118e ae3e 23c4 5bbe
000003a0: ec3c 583e f182 e2bd 42d7 4d3e 66b5 91be
000003b0: 243d 583e f3d4 cdbd 5d72 17be 141f febd
000003c0: b26e 813e 54cf 5bbd 89b4 36bd aae1 a73e
000003d0: 5a8d 873e 447f c03c 24cf e7bd 8c05 ce3d
000003e0: 5e55 afbd b8fc 9b3e aa16 043e bb7c 783e
000003f0: 34d6 453e b3ae b9bd f118 94be cafe f4bd

actor.customer_encoder.0.attention.key_embed.weight f4 [32, 32]
-0.16546482 0.06230101 0.068431914 0.34614033 0.32292464 -0.29027206 0.17689064 -0.28214356
-0.16802247 0.14141615 -0.23938125 0.3004702 0.13645644 0.027693797 0.19706543 -0.29609597
0.057481147 0.13159682 -0.16111213 -0.10960759 0.14576752 0.29797956 -0.13620497 0.20906964
0.1984364 -0.20819336 -0.28202257 -0.042366415 0.21793486 -0.2970658 -0.24646708 0.25501102
-0.20378561 -0.24535777 -0.018348487 0.3417449 0.23253152 0.18618587 0.050775494 -0.18116339
-0.27962965 0.18448809 0.106848694 0.08971952 -0.12739389 -0.3484617 0.044795334 -0.06412584
-0.029910153 0.040737282 -0.20195068 -0.21326138 -0.098750204 0.1334576 -0.22129232 0.33387837
-0.34263733 -0.22174454 0.09637247 -0.34740937 -0.2013404 0.1784099 -0.24100396 0.11252052
-0.1861285 -0.16462417 0.05858434 0.035478305 0.32245916 0.07216809 0.061738726 -0.18420884
0.30275428 -0.005026982 0.20887022 -0.2819786 0.18431577 0.28749934 0.22835355 0.2900321
-0.16051255 -0.25227466 0.12924127 0.15483038 -0.21484649 -0.11237782 -0.003580714 -0.02326017
0.1697073 0.25167394 0.10132509 -0.14198625 -0.22155306 0.30684128 0.03768173 -0.18197285
-0.2680811 -0.24335448 0.32685575 -0.22374347 -0.3442402 -0.26434562 -0.16665703 -0.007271742
-0.23624496 0.15838458 -0.056595262 -0.15174812 -0.21107596 -0.115913674 0.34393427 0.022419348
0.09803307 -0.34323046 0.21959332 0.056840286 -0.035779927 0.005649345 -0.15965894 -0.27865925
-0.17695238 0.108550824 0.29630908 -0.25057238 0.15894835 -0.17320882 0.26546666 0.04121805
-0.31928167 -0.29537085 0.090907186 0.19244161 0.09885608 0.10223661 -0.051644824 -0.18555757
0.055062976 -0.2887142 0.18017305 -0.13205934 -0.3164757 0.03950019 0.13198538 -0.27147308
-0.22510555 -0.056598548 -0.14864537 0.29072618 0.05412834 -0.114916846 -0.28324646 -0.26115945
0.12601529 -0.08493051 0.048577316 0.06978319 0.24680412 -0.0018835487 0.16305204 -0.33389902
0.24421164 -0.30554977 -0.10529136 -0.35307285 0.1825584 -0.09392061 -0.3456924 -0.1905968
0.19904794 0.24118721 0.24753812 -0.34274 -0.1415498 0.052599225 -0.020438325 -0.17771187
0.34325004 -0.22035348 0.23456654 0.22945619 -0.2999383 -0.23388532 -0.23358944 0.25774586
-0.3102571 0.002239887 -0.11115184 -0.08677496 -0.21415539 -0.3058824 -0.30647415 -0.037629075
0.015976358 0.08193395 0.10467839 -0.14660312 0.20080622 0.20353791 -0.28043664 0.3134032
-0.03166082 -0.009270469 -0.34025347 0.18149264 0.14607096 0.0845273 0.15817326 -0.3098847
0.3523125 0.23197822 -0.096687004 0.18595794 -0.122413926 -0.10840535 -0.010012904 0.2204945
0.19039817 -0.122901194 -0.29492518 -0.007068604 -0.15551782 -0.020460982 0.17161481 0.23915328
0.01937563 0.15203977 0.060858775 -0.16506952 0.21052933 -0.24489187 -0.020472825 -0.15646124
0.017010124 0.2905084 0.11242334 -0.024665216 -0.32710588 -0.2547868 -0.07574205 -0.17668591
0.067208424 -0.34085566 0.3337599 -0.09911938 0.21378873 0.2505895 0.29007855 -0.05182135
0.017528556 0.17904282 -0.26846474 -0.02871628 0.1432788 -0.011991145 -0.25383028 0.053558387
00000000: 9c6f 29be 582f 7f3d 0826 8c3d 4e39 b13e
00000010: 6156 a53e 8a9e 94be d222 353e 1f75 90be
00000020: 150e 2cbe 65cf 103e 5c20 75be 3bd7 993e
00000030: 3dbb 0b3e 1ade e23c 85cb 493e e499 97be
00000040: 5a71 6b3d 51c1 063e 94fa 24be f279 e0bd
00000050: 1544 153e c790 983e 5179 0bbe 5a16 563e
00000060: e932 4b3e a430 55be 4365 90be 6888 2dbd
00000070: 512a 5f3e 0219 98be de61 7cbe ce90 823e
00000080: 2dad 50be 113f 7bbe 914f 96bc 30f9 ae3e
00000090: be1c 6e3e 82a7 3e3e f7f9 4f3d e582 39be
000000a0: 9e2b 8fbe 72ea 3c3e 7dd3 da3d debe b73d
000000b0: 8b73 02be 9269 b2be 507b 373d 6954 83bd
000000c0: 2306 f5bc 23dc 263d 29cc 4ebe 3161 5abe
000000d0: 8c3d cabd 1ca9 083e 749a 62be 1bf2 aa3e
000000e0: 296e afbe 0011 63be ee5e c53d a4df b1be
000000f0: 2e2c 4ebe 16b1 363e bec9 76be 2971 e63d
00000100: 7898 3ebe 3d93 28be 22f6 6f3d b351 113d
00000110: 5e19 a53e ddcc 933d bfe1 7c3d 3ea1 3cbe
00000120: 9c02 9b3e 62b9 a4bb 13e2 553e 805f 90be
00000130: 46bd 3c3e 1d33 933e 83d5 693e 167f 943e
00000140: 675d 24be 252a 81be d357 043e db8b 1e3e
00000150: b800 5cbe 5826 e6bd 6aaa 6abb 1d8c bebc
00000160: c0c7 2d3e 68db 803e 8783 cf3d d864 11be
00000170: cede 62be 4d1a 9d3e 2858 1a3d 1757 3abe
00000180: ed41 89be eb31 79be a359 a73e 021d 65be
00000190: 4040 b0be 4f58 87be 24a8 2abe cb47 eebb
000001a0: 33ea 71be 912f 223e 6fd0 67bd dc63 1bbe
000001b0: 4c24 58be 2664 edbd 2718 b03e c8a8 b73c
000001c0: 90c5 c83d e7bb afbe 12dd 603e 5cd1 683d
000001d0: f98d 12bd 241e b93b a27d 23be 6dac 8ebe
000001e0: 0133 35be e54f de3d d3b5 973e 064b 80be
000001f0: 5bc3 223e a75d 31be 3feb 873e 42d4 283d
00000200: e378 a3be d93a 97be 8c2d ba3d 6a0f 453e
00000210: 0e75 ca3d 6e61 d13d 8689 53bd ce02 3ebe
00000220: b789 613d 59d2 93be 497f 383e 903a 07be
00000230: 1a09 a2be f4ca 213d 2d27 073e 85fe 8abe
00000240: 1282 66be e1d3 67bd 7e36 18be 10da 943e
00000250: aeb5 5d3d 8659 ebbd ae05 91be b1b6 85be
00000260: 270a 013e 0cf0 adbd 02f9 463d 7dea 8e3d
00000270: 38ba 7c3e 68e1 f6ba 1df7 263e d0f4 aabe
00000280: 9e12 7a3e 0571 9cbe ffa2 d7bd f7c5 b4be
00000290: 97f0 3a3e 7359 c0bd 98fe b0be cf2b 43be
000002a0: 39d3 4b3e c8f9 763e a27a 7d3e 9e7b afbe
000002b0: 6ef2 10be 4972 573d 466e a7bc 1afa 35be
000002c0: 78be af3e 58a4 61be 3632 703e 90f6 6a3e
000002d0: 8391 99be a27f 6fbe 1232 6fbe 44f7 833e
000002e0: 05da 9ebe 11cb 123b 93a3 e3bd 12b7 b1bd
000002f0: 8d4b 5bbe 9e9c 9cbe 2eea 9cbe f220 1abd
00000300: dae0 823c fdcc a73d a061 d63d 211f 16be
00000310: 25a0 4d3e 3e6c 503e 6495 8fbe 6276 a03e
00000320: c7ae 01bd 2ae3 17bc b435 aebe 35d9 393e
00000330: a093 153e a61c ad3d 2cf8 213e 35a9 9ebe
00000340: 4e62 b43e b38b 6d3e d603 c6bd c26b 3e3e
00000350: 27b4 fabd a003 debd 2a0d 24bc 4fc9 613e
00000360: bdf7 423e 9fb3 fbbd 6f00 97be c09f e7bb
00000370: 1040 1fbe ca9d a7bc cbbb 2f3e 99e4 743e
00000380: a4b9 9e3c 50b0 1b3e 0d47 793d fc07 29be
00000390: 0095 573e efc4 7abe a0b6 a7bc 6037 20be
000003a0: d158 8b3c 84bd 943e 353e e63d b50e cabc
000003b0: 6c7a a7be 6a73 82be a61e 9bbd 27ed 34be
000003c0: 92a4 893d a284 aebe 94e2 aa3e 1aff cabd
000003d0: 6feb 5a3e 444d 803e 2d85 943e a042 54bd
000003e0: 0c98 8f3c 0057 373e 3674 89be 673e ebbc
000003f0: aeb7 123e 8276 44bc 0bf6 81be 0a60 5b3d

actor.customer_encoder.0.attention.value_embed.weight f4 [32, 32]
0.061875112 0.33031896 0.11238672 0.13023835 -0.33379087 0.1421214 0.18948966 -0.108406074
-0.22025837 -0.04291826 -0.3040828 0.32529408 -0.21434091 0.31820825 -0.35074902 0.22537816
-0.14778249 -0.27227965 0.09943187 0.3255131 -0.16854154 0.04963082 -0.23154189 0.23037434
0.31827697 -0.09637901 0.33872348 0.18297578 0.047714993 -0.15210928 0.2437863 0.018186701
-0.14952488 -0.34780785 -0.3426746 0.35248893 -0.18684368 -0.26377052 0.224172 -0.10113865
-0.26363224 0.07137619 -0.052258085 0.13640495 0.32850468 -0.089004405 0.20135623 -0.098783866
-0.11662446 0.117913306 -0.07902408 0.09498032 0.07873276 -0.2831402 -0.08286644 0.31901702
-0.0021708156 0.33517605 0.26719102 -0.09921916 -0.15990375 0.1166283 -0.05838312 -0.0456396
-0.024169153 -0.2283354 0.22255829 -0.13815509 -0.28794718 -0.27615908 -0.22554924 0.065203406
-0.3404307 0.1306041 -0.21779822 -0.010519221 -0.08563907 -0.1059219 0.22814071 -0.12061741
0.12049649 0.24064185 0.17466079 0.15042518 -0.03314407 -0.18342957 -0.2610411 0.3358287
-0.32077473 -0.0863441 0.2994995 -0.06721478 -0.29690966 0.34803155 -0.09103938 0.14768437
0.16082908 -0.11259105 -0.34259665 -0.050298806 -0.28059188 -0.17370705 -0.29740945 0.16488108
-0.24887802 0.17229176 0.29733947 0.1762462 0.21003503 0.060051672 0.23662896 0.33241808
0.0753997 0.15023707 0.22281665 -0.00016723869 0.30392244 0.08559746 -0.21555313 -0.26848325
0.08997117 -0.27941102 -0.31904194 0.3285271 0.26686195 -0.095588036 0.17623691 0.119662195
0.3269105 0.107832074 0.1636235 -0.25284013 0.116859846 -0.27239394 -0.27008522 0.19463646
-0.17302465 0.27388993 -0.0892988 0.18372132 0.32945478 0.045943942 0.32106426 -0.22270891
0.1875504 0.111118264 0.2690048 0.32522985 -0.07347325 0.07591575 -0.17843176 0.15005037
-0.0013875164 -0.16291948 -0.19536759 0.08816539 0.3148179 -0.3129572 0.22828086 0.24874589
-0.30569214 0.16129573 0.03127309 0.26717663 0.29893774 0.19826981 -0.13819727 -0.3089738
0.24680124 0.0007681684 0.14374916 0.11150197 0.046873026 0.2675823 -0.08849371 0.14293973
0.16411178 -0.16054404 0.15177375 0.02511653 -0.35137388 0.19554912 -0.31244808 0.16016228
-0.16285016 -0.1719181 0.1982409 -0.01476265 -0.25820234 0.12256708 -0.19457155 -0.3226011
0.28441647 -0.29822367 -0.15064977 -0.21327321 0.27012315 -0.031880762 -0.29531184 0.2074963
0.26562697 0.10890307 -0.03906115 -0.34002155 -0.05434132 0.19399537 -0.24037224 -0.34836957
-0.002499013 0.056617882 -0.13851996 -0.14599027 -0.27421364 -0.053510565 0.32890165 0.29444003
0.058903635 0.0011779623 0.3158453 0.052736666 -0.048789866 -0.25101715 0.326577 -0.33761567
-0.1236025 0.07715663 0.04317873 -0.115491174 -0.32931942 0.03527451 -0.08498862 -0.24782178
-0.21930914 -0.17268085 -0.327092 0.17154606 -0.0052435314 -0.30607378 0.17956032 0.2696713
0.07882337 -0.11869151 -0.113410465 0.11432374 0.3339079 0.03518225 -0.13465142 -0.048129678
0.13554317 0.30846453 0.33861974 0.3525026 -0.24241118 0.058729105 0.018899953 0.072863005
00000000: c270 7d3d 911f a93e 022b e63d 345d 053e
00000010: a3e6 aabe 4688 113e 9409 423e 0104 debd
00000020: 698b 61be 0fcb 2fbd beb0 9bbe f28c a63e
00000030: 2f7c 5bbe 31ec a23e 6095 b3be 88c9 663e
00000040: 4b54 17be 3d68 8bbe f0a2 cb3d a7a9 a63e
00000050: 2796 2cbe b049 4b3d 5119 6dbe 40e7 6b3e
00000060: 33f5 a23e 5c62 c5bd 2a6d ad3e 015e 3b3e
00000070: cc70 433d 89c2 1bbe 1ea3 793e 47fc 943c
00000080: 0d1d 19be df13 b2be 0c73 afbe 6e79 b43e
00000090: f353 3fbe ee0c 87be 588d 653e c821 cfbd
000000a0: cefa 86be ae2d 923d 930c 56bd bdad 0b3e
000000b0: c431 a83e f147 b6bd 5430 4e3e 324f cabd
000000c0: ced8 eebd 887c f13d 60d7 a1bd 0b85 c23d
000000d0: a43e a13d c1f7 90be e1b5 a9bd 3356 a33e
000000e0: 3e44 0ebb 329c ab3e 43cd 883e 6a33 cbbd
000000f0: cfbd 23be d1da ee3d 2323 6fbd 97f0 3abd
00000100: 63fe c5bc c1d0 69be 52e6 633e 8778 0dbe
00000110: d06d 93be b964 8dbe 61f6 66be 5d89 853d
00000120: ef4c aebe 15bd 053e 7f06 5fbe d058 2cbc
00000130: 8963 afbd 95ed d8bd b89d 693e 4306 f7bd
00000140: ddc6 f63d d16a 763e 47da 323e 0f09 1a3e
00000150: 14c2 07bd f6d4 3bbe 2ea7 85be bdf1 ab3e
00000160: 963c a4be 2dd5 b0bd 0058 993e e7a7 89bd
00000170: 8b04 98be 3131 b23e db72 babd 923a 173e
00000180: 61b0 243e 2396 e6bd d468 afbe 1f06 4ebd
00000190: bda9 8fbe 43e0 31be 0d46 98be 96d6 283e
000001a0: e1d9 7ebe 406d 303e e13c 983e e279 343e
000001b0: 6c13 573e bef8 753d dd4e 723e b432 aa3e
000001c0: 286b 9a3d bfd7 193e 0c2a 643e cb5c 2fb9
000001d0: b99b 9b3e b94d af3d f6b9 5cbe a376 89be
000001e0: ce42 b83d f60e 8fbe 7759 a3be b434 a83e
000001f0: 21a2 883e a9c3 c3bd 7377 343e 7411 f53d
00000200: d060 a73e 10d7 dc3d eb8c 273e 4374 81be
00000210: 3754 ef3d 3877 8bbe 9c48 8abe c84e 473e
00000220: 602d 31be 4d3b 8c3e 4ae2 b6bd 7121 3c3e
00000230: 4cae a83e b72f 3c3d 8962 a43e ce0d 64be
00000240: 360d 403e f991 e33d ffba 893e 8784 a63e
00000250: 2579 96bd b779 9b3d d1b6 36be cea6 193e
00000260: 53dd b5ba 5dd4 26be 710e 48be 0e90 b43d
00000270: d02f a13e ed3b a0be 75c2 693e 3eb7 7e3e
00000280: ae83 9cbe b52a 253e 3618 003d 60cb 883e
00000290: 5e0e 993e 3e07 4b3e 9683 0dbe d031 9ebe
000002a0: 77b9 7c3e e95e 493a fb32 133e 255b e43d
000002b0: eefd 3f3d 8c00 893e 313c b5bd cb5e 123e
000002c0: eb0c 283e a865 24be 946a 1b3e 2ec1 cd3c
000002d0: 47e7 b3be 073e 483e 32f9 9fbe 9501 243e
000002e0: 31c2 26be 4c0b 30be aaff 4a3e 0bdf 71bc
000002f0: 1933 84be 7304 fb3d c43d 47be f92b a5be
00000300: 099f 913e c6b0 98be ef43 1abe 4b64 5abe
00000310: 954d 8a3e 6795 02bd 1d33 97be e979 543e
00000320: 4200 883e 9308 df3d 96fe 1fbd 4e17 aebe
00000330: 0195 5ebd b9a6 463e 2424 76be 7f5d b2be
00000340: 7bc6 23bb 27e8 673d 2dd8 0dbe 797e 15be
00000350: bb65 8cbe e52d 5bbd cc65 a83e d8c0 963e
00000360: f044 713d db65 9a3a 7ab6 a13e 6702 583d
00000370: e2d7 47bd 5285 80be 1a35 a73e f6db acbe
00000380: 4f23 fdbd 4c04 9e3d 2edc 303d a386 ecbd
00000390: 8e9c a8be 017c 103d 830e aebd fec4 7dbe
000003a0: 9392 60be 40d3 30be 9a78 a7be c5a9 2f3e
000003b0: eed1 abbb b4b5 9cbe a9de 373e 5b12 8a3e
000003c0: 266e a13d 8914 f3bd bf43 e8bd 9122 ea3d
000003d0: faf5 aa3e 431b 103d 10e2 09be a023 45bd
000003e0: d4cb 0a3e 10ef 9d3e 915f ad3e 397b b43e
000003f0: a33a 78be ee8d 703d 13d4 9a3c 3339 953d

actor.customer_encoder.0.attention.combine.weight f4 [32, 32]
-0.031721365 -0.13714266 0.06328274 0.124719694 0.032806627 0.015039024 0.14247142 -0.065603845
-0.02985376 0.062360734 -0.09894572 -0.13491385 -0.034455094 0.10773717 -0.09195068 0.051814027
0.0037364054 0.16168931 0.0970007 -0.09351789 -0.17164661 0.10553932 -0.1647859 -0.106130265
0.17233641 0.05315092 -0.0012685831 -0.13054381 -0.025949541 0.019336782 0.09923037 -0.06668144
-0.032721784 0.033354867 -0.17349985 -0.056770664 -0.16031201 -0.06462556 -0.104107596 0.0849846
-0.12018332 -0.16657446 -0.022354241 -0.08287923 -0.0905062 -0.039206997 0.06770848 -0.15433821
-0.1234243 0.018314313 0.08186933 0.009361774 0.17698334 0.088197865 -0.12084095 0.09774399
-0.08558667 0.12894796 -0.0472553 0.14652124 -0.03455626 -0.04810181 -0.13079208 0.18107581
-0.09908318 -0.07408125 -0.097676635 -0.1756402 -0.08908844 0.14702618 0.11571121 0.04749558
-0.051948342 0.024093986 -0.032913838 -0.14550135 0.11970648 0.093311965 0.1539895 -0.16473633
0.026031086 0.09792132 -0.025460972 0.08173858 0.08777727 -0.08854777 0.12965244 0.044629976
-0.021316873 0.062325485 0.13507168 0.032907248 0.08308146 -0.12023222 -0.081483655 -0.032297056
0.10209777 0.104244515 -0.04798156 -0.03613694 -0.029028537 -0.075614184 0.15408044 0.09320399
0.11287395 -0.061959647 -0.04617872 -0.14899772 0.13555773 -0.06617512 -0.013416808 -0.114495724
0.038668733 0.091242686 -0.17692624 0.13870789 0.03854548 0.08197186 -0.15252708 0.048587684
0.17016003 0.118611366 -0.082565986 0.013184478 -0.12322377 0.067533776 0.08152098 0.07771042
-0.14813769 0.08744271 0.0006643274 -0.12164202 -0.06302765 0.15281162 -0.13660473 0.10586992
0.1727856 -0.12686343 -0.16098537 -0.1320541 0.0017420424 -0.16096507 0.14412612 0.15510024
-0.019856667 0.09909132 0.14128129 0.055532716 -0.08743868 -0.0038130977 0.12738098 -0.06934284
0.00870004 -0.02370856 -0.037133195 -0.033504236 -0.09261708 -0.050487395 0.16592999 -0.052259944
-0.024569646 0.15049039 0.060988255 -0.1307632 -0.04856221 -0.06825334 -0.09103444 -0.1495772
0.08499236 0.13418177 -0.14325127 0.17294782 0.08590914 0.15781333 -0.1338859 0.05664123
0.12820423 0.10119414 -0.05069058 0.121821575 0.096422404 -0.11648799 0.092033766 -0.084737726
0.14096606 -0.05775918 -0.1096429 0.081991225 -0.09955494 -0.07119368 0.1121713 0.16607855
0.05547096 0.15614238 0.06917885 -0.02756801 -0.06013619 -0.043854013 0.002071239 -0.019727642
0.035996675 0.043773904 -0.11688068 -0.100340396 0.1492646 -0.078623936 0.09252723 0.16880117
-0.15757163 0.028462362 0.046298575 -0.10872806 -0.04263092 -0.08325253 -0.17464314 -0.059919514
0.16012646 0.16957873 -0.103879996 -0.053758644 -0.08897318 0.11609614 -0.14787494 -0.05862402
-0.055198263 -0.07230158 0.15008534 -0.15052307 -0.13831173 -0.14928144 -0.079621814 0.0945249
0.023787811 -0.0066613876 0.1412921 0.12196079 0.038697217 0.034609873 -0.071020044 -0.17321706
0.02878707 0.15218663 0.12715767 -0.017728629 -0.0068175844 0.17007478 -0.17704362 0.1545037
0.1704492 0.10953287 0.07302504 0.00596824 0.05696781 -0.09120769 -0.024575748 -0.11680059
00000000: 43ee 01bd 206f 0cbe 629a 813d 0a6d ff3d
00000010: 3e60 063d 3d66 763c 07e4 113e 4f5b 86bd
00000020: df8f f4bc f86d 7f3d 0ea4 cabd db26 0abe
00000030: c920 0dbd 4ea5 dc3d a350 bcbd f23a 543d
00000040: 7bde 743b e291 253e 4ea8 c63d 4f86 bfbd
00000050: 21c4 2fbe 0025 d83d a3bd 28be d35a d9bd
00000060: f578 303e c7b4 593d 9646 a6ba 47ad 05be
00000070: 2294 d4bc 2c68 9e3c 4b39 cb3d 4790 88bd
00000080: 4707 06bd 1d9f 083d f2a9 31be 5b88 68bd
00000090: d528 24be 685a 84bd 5d36 d5bd 680c ae3d
000000a0: ac22 f6bd 7f92 2abe 3e20 b7bc 96bc a9bd
000000b0: 515b b9bd 8497 20bd beaa 8a3d d60a 1ebe
000000c0: e1c5 fcbd e607 963c 1bab a73d 2062 193c
000000d0: 1f3b 353e 15a1 b43d 767b f7bd 002e c83d
000000e0: 1048 afbd ef0a 043e c68e 41bd aa09 163e
000000f0: dd8a 0dbd 6706 45bd 5cee 05be f06b 393e
00000100: 1fec cabd e9b7 97bd b00a c8bd 06db 33be
00000110: 0074 b6bd 088e 163e 00fa ec3d ba8a 423d
00000120: c9c7 54bd c060 c53c a9d0 06bd 4efe 14be
00000130: ac28 f53d 581a bf3d 6caf 1d3e a4b0 28be
00000140: 253f d53c f98a c83d 8793 d0bc 8e66 a73d
00000150: 92c4 b33d 8958 b5bd 9cc3 043e eccd 363d
00000160: b9a0 aebc 0249 7f3d 3b50 0a3e c0c9 063d
00000170: 9d26 aa3d 4f3c f6bd e7e0 a6bd eb49 04bd
00000180: a318 d13d 267e d53d 5088 44bd 5404 14bd
00000190: 41cd edbc 9cdb 9abd 43c7 1d3e bce1 be3d
000001a0: 752a e73d 66c9 7dbd e625 3dbd dc92 18be
000001b0: a5cf 0a3e d286 87bd 2cd2 5bbc bc7c eabd
000001c0: 1b63 1e3d 72dd ba3d 272c 35be 7109 0e3e
000001d0: dee1 1d3d dde0 a73d 0f30 1cbe e103 473d
000001e0: 6e3e 2e3e 84ea f23d 5b18 a9bd b503 583c
000001f0: be5c fcbd 264f 8a3d 79f4 a63d a426 9f3d
00000200: 68b1 17be 2a15 b33d 4226 2e3a 741f f9bd
00000210: a414 81bd a67a 1c3e 1ce2 0bbe 54d2 d83d
00000220: b5ee 303e 7de8 01be 59d9 24be 3139 07be
00000230: 3e55 e43a 07d4 24be cc95 133e 99d2 1e3e
00000240: 73aa a2bc 64f0 ca3d 0bac 103e 4676 633d
00000250: 0d13 b3bd 2ae5 79bb 2970 023e 9e03 8ebd
00000260: 9d8a 0e3c 7438 c2bc fa18 18bd bd3b 09bd
00000270: 06ae bdbd dfcb 4ebd 8de9 293e 860e 56bd
00000280: 4846 c9bc 271a 1a3e d2ce 793d cae6 05be
00000290: 2be9 46bd 68c8 8bbd 4470 babd c42a 19be
000002a0: 7910 ae3d f266 093e 76b0 12be 3c19 313e
000002b0: 22f1 af3d d199 213e 6319 09be a200 683d
000002c0: f847 033e e03e cf3d eda0 4fbd 977d f93d
000002d0: 1c79 c53d 4191 eebd 337c bc3d f98a adbd
000002e0: 6859 103e e494 6cbd 758c e0bd 04eb a73d
000002f0: 76e3 cbbd fecd 91bd 11ba e53d 7f10 2a3e
00000300: 8435 633d cae3 1f3e a4ad 8d3d 4fd6 e1bc
00000310: 5e51 76bd 44a0 33bd a0bd 073b dd9b a1bc
00000320: 4071 133d 444c 333d 235f efbd 447f cdbd
00000330: d2d8 183e 9605 a1bd eb7e bd3d 37da 2c3e
00000340: 755a 21be e629 e93c 93a3 3d3d d1ac debd
00000350: c29d 2ebd 4d80 aabd a7d5 32be 2a6e 75bd
00000360: 31f8 233e 0ca6 2d3e 09bf d4bd 0632 5cbd
00000370: 9237 b6bd d0c3 ed3d 876c 17be be1f 70bd
00000380: 9317 62bd da12 94bd f9af 193e b822 1abe
00000390: 97a1 0dbe 3cdd 18be c310 a3bd 4596 c13d
000003a0: a8de c23c c547 dabb e0ae 103e 94c6 f93d
000003b0: f980 1e3d 15c3 0d3d f572 91bd d05f 31be
000003c0: ddd2 eb3c d0d6 1b3e 9f35 023e a13b 91bc
000003d0: 0b66 dfbb 1528 2e3e ec4a 35be 3836 1e3e
000003e0: 3c8a 2e3e c552 e03d 278e 953d 3a91 c33b
000003f0: 1457 693d 19cb babd 1453 c9bc 2635 efbd

actor.customer_encoder.0.BN1.weight f4 [32]
0.99826664 1.0006214 1.0049036 0.99669427 1.0028554 0.9988893 0.9951728 1.0049601
0.99454105 0.99160963 1.0017353 0.9990213 0.9985 1.0170913 0.9830363 1.0047132
0.9957443 1.0094877 1.013473 0.9994199 0.9880223 0.9968852 0.99856806 0.9968562
0.99959373 0.99782455 0.9943458 1.0044352 0.99818313 0.9964915 1.0051292 1.0071541
00000000: 678e 7f3f 5d14 803f aea0 803f 5b27 7f3f
00000010: 915d 803f 36b7 7f3f a5c3 7e3f 88a2 803f
00000020: 3e9a 7e3f 21da 7d3f dd38 803f dcbf 7f3f
00000030: b29d 7f3f 0c30 823f 44a8 7b3f 719a 803f
00000040: 19e9 7e3f e536 813f 7cb9 813f fcd9 7f3f
00000050: 08ef 7c3f de33 7f3f 28a2 7f3f f831 7f3f
00000060: 60e5 7f3f 6e71 7f3f 728d 7e3f 5591 803f
00000070: ee88 7f3f 111a 7f3f 13a8 803f 6dea 803f

actor.customer_encoder.0.BN1.bias f4 [32]
-0.0023468677 -0.00095963245 -0.0054381625 -0.0023969333 -0.007839742 -0.0068593933 -0.0054583033 0.0036266763
-0.004853737 -0.010321036 -0.009615302 -0.00027153007 -0.0020727455 0.0034973049 -0.0026730823 0.0081162015
0.0090233935 0.010044284 -0.0031615482 0.0041177864 -0.006975733 -0.0048364527 0.004433633 0.0019258255
0.010347513 -3.28955e-05 -0.006100316 -0.0023020005 -0.0056308904 -0.0034510407 -0.00035211732 0.0021775237
00000000: e8cd 19bb d88f 7bba 9d32 b2bb de15 1dbb
00000010: 4372 00bc c3c4 e0bb 91db b2bb 88ad 6d3b
00000020: 190c 9fbb 9019 29bc 8089 1dbc 265c 8eb9
00000030: e6d6 07bb 0a33 653b e12e 2fbb d1f9 043c
00000040: dbd6 133c c890 243c fa31 4fbb 7fee 863b
00000050: b194 e4bb 1b7b 9ebb 0248 913b fb6b fc3a
00000060: 9d88 293c 46f9 09b8 29e5 c7bb 29dd 16bb
00000070: 5583 b8bb db2a 62bb 639c b8b9 c9b4 0e3b

actor.customer_encoder.0.BN1.running_mean f4 [32]
0.80753773 -0.38431326 0.5103487 0.62346715 -0.7138742 0.46750176 0.21040328 0.11139671
-0.44179124 0.23766564 -0.16428688 0.29133913 -0.65519845 1.1258585 0.69188 0.38494077
0.019208241 -0.35406893 -0.005522289 0.11161266 -0.36602497 -0.75434715 -0.49143535 -0.44767544
0.28225228 0.024346303 0.12542576 0.3003503 0.1641204 -0.24017589 0.08186933 -0.027048936
00000000: cbba 4e3f b5c4 c4be 36a6 023f 8b9b 1f3f
00000010: 76c0 36bf 645c ef3e f573 573e f523 e43d
00000020: 7632 e2be 9f5e 733e d23a 28be 672a 953e
00000030: 16bb 27bf 221c 903f 0c1f 313f f516 c53e
00000040: 9a5a 9d3c 8648 b5be 51f4 b4bb 2e95 e43d
00000050: a067 bbbe e51c 41bf 6a9d fbbe b735 e5be
00000060: 5f83 903e e671 c73c 9c6f 003e 84c7 993e
00000070: 2e0f 283e abf0 75be 1bab a73d bb95 ddbc

actor.customer_encoder.0.BN1.running_var f4 [32]
0.020587271 0.0028841484 0.037094183 0.016806785 0.033262093 0.031485487 0.014619611 0.0026835287
0.0117521435 0.0031139704 0.025972767 0.01428465 0.020220686 0.056600977 0.012141274 0.010367274
0.0061058626 0.008588931 0.010843959 0.007579612 0.0086225355 0.03483642 0.012428877 0.0068846475
0.015402358 0.0020239027 0.015896156 0.015098849 0.039283577 0.01673613 0.004110411 0.01274113
00000000: a3a6 a83c fb03 3d3b 12f0 173d 62ae 893c
00000010: d53d 083d edf6 003d 1887 6f3c 24de 2f3b
00000020: 108c 403c c113 4c3b d7c4 d43c 2a0a 6a3c
00000030: daa5 a53c 6dd6 673d 32ec 463c 80db 293c
00000040: b013 c83b 96b8 0c3c dcaa 313c 655e f83b
00000050: 8945 0d3c a2b0 0e3d 7da2 4b3c 9c98 e13b
00000060: 2c5a 7c3c 74a3 043b a838 823c 2a61 773c
00000070: d1e7 203d 351a 893c a0b0 863b 2cc0 503c

actor.customer_encoder.0.FFN_layer1.weight f4 [32, 32]
-0.010239846 -0.15333168 0.092287265 -0.08971409 0.10999445 -0.12209771 0.16547371 -0.030000754
0.16057415 0.07934412 0.122652486 0.028630244 -0.105863355 0.018992513 0.15133782 -0.158401
0.052609105 0.022601245 0.13003634 -0.11682955 -0.12683459 0.044714596 -0.04759168 -0.061748438
0.04358596 0.13307406 -0.13145548 -0.014261935 -0.07710924 -0.02328274 -0.08227817 0.1737417
0.09769677 0.045798466 -0.051272415 0.0979584 -0.09689088 -0.15481566 -0.113464616 -0.060007717
-0.12961285 0.11055127 -0.009407151 -0.06997 -0.10949467 0.14412226 0.15548155 -0.107593805
0.14970262 -0.008123355 -0.0588091 0.07192419 -0.1284524 -0.16535361 -0.014302519 0.122712925
0.13259088 0.15395567 0.08872355 0.0430503 0.01678874 -0.113672405 0.13965672 0.1487405
-0.1534573 -0.17422791 -0.039531395 -0.10376317 -0.06911558 0.16094007 -0.026526196 0.17170538
-0.018081814 0.0047790995 -0.0036994044 -0.052534744 -0.038310483 -0.076868355 -0.11443448 0.013253562
0.040726375 0.043306164 0.043143634 -0.06258948 -0.1716813 0.0749289 0.029512618 -0.17354515
0.1774289 -0.050410125 -0.14352939 -0.10736293 -0.044633456 -0.1465979 0.034756023 -0.09792358
-0.10997987 0.16095714 -0.060442727 -0.013577655 -0.10169999 -0.018376298 -0.108522385 -0.10102996
-0.105954975 -0.060348533 0.043731805 0.06830452 0.10871986 -0.09042942 -0.13766606 -0.026262693
0.15041865 0.008506606 0.16242614 0.1380373 0.119619675 -0.017772121 0.028851112 -0.117825486
0.030544389 0.04782686 -0.12293017 -0.12496869 -0.09399868 0.0032501454 -0.028942946 0.065263465
-0.09107949 0.16186708 -0.0919317 0.10484197 0.16322567 0.15485634 -0.09245381 -0.09263621
-0.066052675 -0.112169154 -0.052131187 -0.05901313 0.07006709 0.14675364 0.061540965 0.0030450355
-0.06461554 -0.06293339 0.1623075 -0.15692748 -0.015408597 -0.16598505 -0.055858463 -0.12767425
-0.17817424 0.06748889 -0.096859634 0.030804144 0.14896491 -0.024696914 0.056799244 -0.06763763
0.13416459 0.17430054 -0.06322435 -0.128413 0.13359863 0.12211382 0.07939824 0.0124511905
0.036235902 0.03199335 0.017868204 -0.04597471 0.032928362 0.16678819 -0.04733421 -0.14929256
-0.11250452 -0.0006708351 0.06818775 0.01787594 0.15777613 0.051510695 0.07433648 -0.15259062
0.10722769 0.13157162 0.048429515 0.06793856 -0.15738308 0.1624677 -0.015336779 -0.16399711
0.077675514 0.09724166 0.12164661 0.17531312 0.02112518 0.103477955 0.17125764 0.082398415
0.0544876 -0.029891893 -0.13342144 0.07471746 -0.14347486 0.016622085 -0.15497123 -0.17281203
-0.06481301 -0.18183996 0.09922618 0.03490371 -0.062935136 0.15779258 0.070244595 0.1036982
-0.11111689 -0.14982349 -0.04869169 0.123014465 -0.14028436 -0.12227083 0.0141174365 0.06490132
0.09364343 0.032456186 -0.028169574 -0.07145825 -0.0027224293 0.11295685 -0.13910234 -0.1622488
-0.013020522 0.010277457 0.088049375 0.061965585 0.17412318 -0.06828338 0.05683108 -0.11996814
-0.12749557 -0.08989125 0.16247796 -0.11471076 -0.058675062 0.05095541 -0.113808885 0.059850384
-0.13513851 0.140155 0.12971742 0.073194124 0.12386739 0.096809916 0.04209293 0.051344395
00000000: 07c5 27bc fb02 1dbe 1b01 bd3d 05bc b7bd
00000010: c544 e13d 5d0e fabd f171 293e 24c4 f5bc
00000020: 8d6d 243e 2c7f a23d 3a31 fb3d f989 ea3c
00000030: e3ce d8bd 3096 9b3c 4df8 1a3e df33 22be
00000040: a57c 573d 3f26 b93c 3f28 053e 5544 efbd
00000050: ede0 01be a726 373d 7eef 42bd eeeb 7cbd
00000060: 3187 323d 9144 083e 449c 06be e4aa 69bc
00000070: 73eb 9dbd 72bb bebc 7581 a8bd 58e9 313e
00000080: 3f15 c83d 2c97 3b3d 0603 52bd 6a9e c83d
00000090: ba6e c6bd ff87 1ebe 2360 e8bd a7ca 75bd
000000a0: 3bb9 04be b468 e23d 7320 1abc 6e4c 8fbd
000000b0: be3e e0bd c994 133e 8e36 1f3e 245a dcbd
000000c0: a54b 193e d217 05bc d0e1 70bd fd4c 933d
000000d0: 0789 03be 7552 29be 1d55 6abc ea50 fb3d
000000e0: e7c5 073e 8ea6 1d3e b1b4 b53d 8355 303d
000000f0: 8a88 893c 14cd e8bd 2c02 0f3e 6e4f 183e
00000100: e923 1dbe cd68 32be aceb 21bd c981 d4bd
00000110: 788c 8dbd 79cd 243e 774d d9bc 89d3 2f3e
00000120: 5020 94bc fe99 9c3b b571 72bb ac2e 57bd
00000130: 74eb 1cbd 286d 9dbd a05c eabd 7825 593c
00000140: b3d0 263d ce61 313d 61b7 303d ea2e 80bd
00000150: 39cd 2fbe 5374 993d 72c4 f13c d2b5 31be
00000160: ecaf 353e d97a 4ebd 5ef9 12be 19e1 dbbd
00000170: 92d1 36bd c31d 16be 555c 0e3d 288c c8bd
00000180: 203d e1bd f3d1 243e cb92 77bd d074 5ebc
00000190: 1648 d0bd e489 96bc fc40 debd cce8 cebd
000001a0: ecfe d8bd 0630 77bd 1f20 333d 3de3 8b3d
000001b0: 85a8 de3d 0f33 b9bd 55f8 0cbe dc24 d7bc
000001c0: 5907 1a3e 4b5f 0b3c 0a53 263e a659 0d3e
000001d0: 29fb f43d d796 91bc 2b59 ec3c 7d4e f1bd
000001e0: 3a38 fa3c 19e6 433d d0c2 fbbd 96ef ffbd
000001f0: 6182 c0bd 6400 553b c219 edbc daa8 853d
00000200: e287 babd 7cc0 253e b046 bcbd 63b7 d63d
00000210: a124 273e a992 1e3e 6c58 bdbd 0eb8 bdbd
00000220: a046 87bd f1b8 e5bd 8387 55bd c0b7 71bd
00000230: 567f 8f3d 9646 163e 6112 7c3d 388f 473b
00000240: 2755 84bd 39e3 80bd f033 263e 99b1 20be
00000250: 5774 7cbc fcf7 29be d8cb 64bd 0abd 02be
00000260: 4f73 36be 9d37 8a3d 585e c6bd f958 fc3c
00000270: 428a 183e 2f51 cabc 53a6 683d 9985 8abd
00000280: 7162 093e d77b 323e c57b 81bd b37e 03be
00000290: 14ce 083e cf16 fa3d 8b9b a23d 1400 4c3c
000002a0: 196c 143d 750b 033d 5760 923c fa4f 3cbd
000002b0: e4df 063d 86ca 2a3e 84e1 41bd 26e0 18be
000002c0: c568 e6bd fbda 2fba 05a6 8b3d 9070 923c
000002d0: 1190 213e e1fc 523d b93d 983d b740 1cbe
000002e0: 319a db3d b6ba 063e 075e 463d 5f23 8b3d
000002f0: 0829 21be ef5d 263e 1d47 7bbc dcee 27be
00000300: 5714 9f3d a326 c73d dc21 f93d 4885 333e
00000310: b70e ad3c 40ec d33d 2a5e 2f3e 80c0 a83d
00000320: 642e 5f3d d8df f4bc a19f 08be 7805 993d
00000330: 13eb 12be 0a2b 883c c7b0 1ebe a3f5 30be
00000340: afbc 84bd 4134 3abe 1837 cb3d 31f7 0e3d
00000350: 23e4 80bd 6194 213e 66dc 8f3d b95f d43d
00000360: 4191 e3bd 546b 19be f070 47bd 02ef fb3d
00000370: b4a6 0fbe 2169 fabd d24c 673c fcea 843d
00000380: 20c8 bf3d c7f0 043d e1c3 e6bc b458 92bd
00000390: c96a 32bb ec55 e73d d870 0ebe 8d24 26be
000003a0: 0754 55bc c762 283c 3b53 b43d a0cf 7d3d
000003b0: 594d 323e 28d8 8bbd b5c7 683d dbb1 f5bd
000003c0: 338e 02be e718 b8bd 9f60 263e 7aed eabd
000003d0: 4355 70bd 9fb6 503d a214 e9bd ad25 753d
000003e0: c061 0abe cb84 0f3e a5d4 043e cde6 953d
000003f0: 30ae fd3d 4744 c63d a369 2c3d 804e 523d

actor.customer_encoder.0.FFN_layer1.bias f4 [32]
0.048219997 0.09128064 -0.040332377 0.122747175 0.036791638 -0.13348243 0.15419072 -0.007628954
-0.043186665 0.04554895 0.017378323 -0.16565897 0.17469102 -0.009743374 0.053050674 -0.030495012
-0.15364657 -0.14680427 -0.038330704 -0.047741394 0.14180565 0.022360725 0.1746549 0.14625269
0.019806584 -0.062039196 0.006339911 -0.064675994 -0.17387609 0.04941313 0.078324944 -0.057801254
00000000: 5582 453d 58f1 ba3d 9033 25bd df62 fb3d
00000010: d4b2 163d 9eaf 08be 2ce4 1d3e 4efc f9bb
00000020: 80e4 30bd 8991 3a3d fc5c 8e3c 81a2 29be
00000030: 34e2 323e aca2 1fbc aa4b 593d add0 f9bc
00000040: 8755 1dbe dc53 16be a800 1dbd 7b8c 43bd
00000050: 8035 113e d72d b73c bcd8 323e 44c3 153e
00000060: 6b41 a23c d01c 7ebd 07bf cf3b d974 84bd
00000070: 930c 32be 6c65 4a3d d468 a03d 02c1 6cbd
