output/282nodes_entropy0.01_0.4_0.85_2_230823/epoch22.pth (torch, 519145 bytes, 129 tensors)

critic.ff_layer1.weight f4 [32, 283]
00000000: f874 e53d 55cc 9f3d ec50 1dbc 8006 593d
00000010: 41bd 4d3c d777 84bc e1b1 96bc 8c0c 273d
00000020: 1a0f 703d 463e a9bc 5ffa 6e3d aa7e 8a3c
00000030: 07c2 4b3d 1ae9 f03c 544e 433d 5fb9 fb3b
00000040: ccf8 2c3d d953 cf3c 3313 64bc a6cb 083d
00000050: 09f2 35bb 3daf e33c 7eff 12bc 3d8c 663d
00000060: f62a f8bc b0cc b0bc 747f 1ebc fa98 abbc
00000070: 3112 48ba ea10 c7bc ec7b 853d fb48 8fbc
00000080: c615 8d3d 557c df3c f3cb 96bc 0415 7f3d
00000090: b4bf 163d e622 5a3d 0e79 1a3c 7c6c f4bb
000000a0: 81af 133d a61f 03bc 9cec ad3c 0b8f 433d
000000b0: 591b 623d f3d6 9abc 99f4 953c 3c78 833c
000000c0: 4c0f 1f3d d46d f9bc 06a5 febc fbbc b5bc
000000d0: 4fcd 3fbc 43ed 9d3d 6da6 313c 927c b53c
000000e0: 33b1 b03c 7a73 10ba 527b 8d3d 0fa4 91bc
000000f0: c7a6 273d 42d6 90bc d616 1e3d d784 d4bc
00000100: 6a54 443c 872d 02bb c64b f43c 1b73 86bc
00000110: 31f3 b8bc b00e 66bc 3695 b13d 1182 063b
00000120: 8fa8 873d 77c7 35bc 8f7c 34bd 9cd4 c8bc
00000130: 2b10 4d3b ffb1 df3c b92d 073d 275d 643d
00000140: 19fe d8bc 7a9c b0bb e552 593c 3cce 08bd
00000150: ab6e 3f3d ffc4 173b 0e31 3f3d 5590 bbbc
00000160: 9650 f6bb 0db7 7a3c 748f 0a3d 0a72 7e3c
00000170: 01cf 8e3d 954c 073d 5c54 b8bc 8a82 e1bc
00000180: 5a9e 493d 7990 53bb d961 14bc 826f 83bc
00000190: ab9a 9dbc 14a1 1a3c 8579 f8bb d5a1 2bbd
000001a0: 5450 f53c a92d 0ebd 6521 a9bc 2bdb 2abc
000001b0: 0e33 50bd 963e f3bc d096 a63d 3ea3 e63b
000001c0: b57d 733d 8286 00bd eecd e9bc 8a11 8b39
000001d0: 0b10 de3b 65b5 21bd a448 65bc 130d 43bd
000001e0: 43c6 183c 4493 b23b 18d0 afbc 9534 82bc
000001f0: 3215 e5bb 907d 55bc 484f 8abc 941c 05bd
00000200: ec18 933d 9bd0 8e3c 686f 553d 6bd2 6a3c
00000210: f363 eebc 10f4 6b3d f53c cd3b 6670 1cbb
00000220: 2d07 0fbd 251c 2bbd 6863 df3c b62d 3cbc
00000230: 8795 c73c d158 45bc 4137 933d 4836 013c
00000240: 126c acbc 4b0f a63c 9afe 353d 2815 893d
00000250: d214 233d 1229 18bd 4fae 523c 092b 48bd
00000260: 1719 21ba aac1 67bb e74c c03d 35a1 2bbd
00000270: 17d6 9a3c 3e8f c4ba 0b6c a33c 1208 6ebc
00000280: b3ba 713d 6385 01bd f090 223c b1ef 45bd
00000290: 10d1 083d 803a af3c 5698 0dbc a1b9 9c3d
000002a0: daee 6a3c 30c8 febc 2007 d8bc acae 41bc
000002b0: 156c 283d bb9a 073c 804a 07bd 7247 05bc
000002c0: 502f 38bc ca92 f43c da68 7f3d d329 1cbd
000002d0: 5941 e2bb 168b 243d 5855 7a3a fb8e bcbb
000002e0: c92f d93c 6af1 d13c d9e8 623c ad0b 893c
000002f0: daaf efbc 7a9f 6cbc 303b 0f3b b281 f8bc
00000300: 5668 7f3d 4cb1 cd3c 3d7e f83b 07c9 193c
00000310: 78a3 0d3d 8384 04bc 693c cb3b 1562 a73c
00000320: bcbd ffbc b513 c83b 5501 363d 13b1 153d
00000330: f20f 663c b712 24bd c702 22bc cb37 d2bc
00000340: 51ba 9ebc a76e 003d be94 583d 3577 873d
00000350: e760 70bc 7ab5 0abd bc6f 263a 5dbd 823d
00000360: fa18 933a d318 833b ba5b af3c 2f1a 6fbc
00000370: 793e b4bc 72a4 8e3d 2700 4a3b 57aa edb9
00000380: 23be e8bc fbb0 473d c941 1c3d 1923 f13c
00000390: 5c40 bdbb 1fc4 43bd cb6c 1bbd 32ef 943d
000003a0: 3ff8 a03c 8a02 5c3d 2af7 ce3c 0011 7c3c
000003b0: ecdd 21bb aeef a9bc f4de 90bc 4a02 b3bc
000003c0: bc5e 3a3d e4ca e7bc e47b bfbb 0265 20bd
000003d0: 0199 8c3c 6ca4 69bc bbda b5bc 9378 cb3c
000003e0: 63a9 00bc 7f38 443d bb15 7f3c 4a96 14bd
000003f0: 840f e5bc bfb2 6fbc 5276 07bd 7d06 4cbd
0.11203951 0.07802645 -0.009601813 0.052984715 0.012557329 -0.016170425 -0.018395366 0.04078345
0.058608152 -0.020659577 0.05834424 0.016906101 0.049745586 0.029408026 0.04768212 0.00768201
0.04222946 0.025308536 -0.013920593 0.03339734 -0.0027762672 0.027793521 -0.008972047 0.056286085
-0.030293923 -0.021581978 -0.009673942 -0.020946968 -0.0007632105 -0.024300057 0.06517777 -0.017490854
0.068889186 0.027280966 -0.018407797 0.0622759 0.036803916 0.053255938 0.009428276 -0.0074592214
0.036056045 -0.008003151 0.021230988 0.04774384 0.055201862 -0.018901324 0.01830511 0.016048543
0.038832948 -0.030447878 -0.031084549 -0.02218484 -0.011706664 0.0771127 0.010842902 0.022154126
0.02156887 -0.00055103714 0.06908287 -0.017778425 0.040930536 -0.017680291 0.038595997 -0.02594225
0.0119830165 -0.0019863562 0.029821288 -0.016412308 -0.0225769 -0.014041588 0.08671038 0.0020524303
0.06623947 -0.011094919 -0.0440641 -0.024515443 0.0031290154 0.027306555 0.03300259 0.0557529
-0.02648835 -0.005389747 0.0132643925 -0.033399805 0.0467364 0.002315819 0.04667764 -0.022895971
-0.007516931 0.015302432 0.033828214 0.015530119 0.069730766 0.03303202 -0.022501163 -0.027528066
0.04922328 -0.0032282157 -0.009056532 -0.016044382 -0.01923879 0.009437818 -0.0075828456 -0.041902382
0.02994553 -0.034711514 -0.020645807 -0.01042823 -0.05082994 -0.02969293 0.08134234 0.007038503
0.059446055 -0.031378277 -0.028540578 0.00026525214 0.006776815 -0.039479632 -0.01399437 -0.04761989
0.009324613 0.0054496843 -0.021461532 -0.015894214 -0.006991052 -0.013030425 -0.016883507 -0.032497957
0.07182488 0.017433455 0.0521082 0.014332394 -0.029100394 0.057605803 0.00626337 -0.0023870706
-0.034918953 -0.041774888 0.02726908 -0.011485508 0.024363292 -0.012045101 0.07188273 0.007886477
-0.021047626 0.020270964 0.04443226 0.06693488 0.039814778 -0.037148543 0.012858941 -0.048869167
-0.0006145401 -0.0035363236 0.09389668 -0.041901786 0.018900914 -0.0014996303 0.01994898 -0.014528291
0.05901594 -0.031621348 0.009922251 -0.04832429 0.033402503 0.0213902 -0.008642277 0.076525934
0.014339173 -0.031101316 -0.026370585 -0.01182143 0.0411187 0.008276637 -0.033030033 -0.00813471
-0.011241749 0.02985515 0.062355854 -0.038125824 -0.0069047627 0.040171705 0.00095494604 -0.0057543493
0.026512044 0.02562781 0.0138494605 0.0167292 -0.029258657 -0.014442319 0.0021855347 -0.030335281
0.062355362 0.025108956 0.007583408 0.009386308 0.034579724 -0.008088234 0.00620227 0.020432511
-0.031218402 0.006105865 0.044434864 0.036545824 0.014041888 -0.04005691 -0.0098883575 -0.02566137
-0.019375952 0.031355526 0.052876227 0.06614534 -0.014671541 -0.033864476 0.0006349047 0.063837744
0.0011222654 0.004000762 0.021406043 -0.014593645 -0.022002446 0.06964959 0.0030822845 -0.00045331076
-0.028410977 0.048752766 0.038148675 0.029435681 -0.0057754945 -0.047794458 -0.03794555 0.072721854
0.019649623 0.05371336 0.025264341 0.0153849125 -0.0024698926 -0.020744171 -0.017684437 -0.021851677
0.045500502 -0.028294988 -0.0058436263 -0.03915883 0.017162802 -0.014260393 -0.022199025 0.024837768
-0.007852885 0.04790544 0.015569146 -0.03627614 -0.0279615 -0.014630019 -0.033071823 -0.049810875

critic.ff_layer2.weight f4 [283, 32]
00000000: b8f9 dbbd 7643 a63e 5784 afbd e9ef 6ebe
00000010: 2d1d 473e 6977 13be 219e 433e a03d bebd
00000020: 728b 5cbe e969 7abd 4897 d8bd 26e9 de3d
00000030: 3fb0 55be ef55 56be 24ed 80bd 77a8 cd3e
00000040: 5218 2dbe 39c3 28be 0004 063e d726 8b3e
00000050: 4d57 ca3e fd2b 14be 7920 c4bd 09c0 42be
00000060: 8f11 b83e 86d8 523e 871e 13bc ffd6 75be
00000070: d3c7 113e 9deb a3bd 6fe4 9f3d cbd9 9c3e
00000080: 2f93 21bd d835 b9bd 1ca7 1a3e ef30 993d
00000090: 1c60 0a3c 86ce a1bd eb4c cfbd 408b 26be
000000a0: 30bd dcbd 71f2 02be 7e74 8dbb 8242 0ebe
000000b0: e354 b03d 17ff 13be 6dd1 cabd f63a bfbd
000000c0: 2cd0 64bd 760c ab3d 9552 9f3d 94e7 203e
000000d0: e844 71bd deeb 253d f48a bcbc d014 d43d
000000e0: a717 863d 4679 b63d e2b0 193e bcd5 d63d
000000f0: a9ab 16bc 1ee0 c73d 858f c8bd f7fe 8ebd
00000100: cd5a 42bd fb62 2ebd aad8 423d 8c4b 2cbe
00000110: 4513 d2bd cdc1 f6bb 0324 2d3d 89f8 f83d
00000120: 35ca f0bd e82b 773d d415 923d 575e d1bd
00000130: 18c2 1d3d 957a 6cbd c3be e73c 7542 7abd
00000140: 5b96 3dbd 4a24 69bd 84dc 293e 9ee6 183d
00000150: 12e3 0fbe 8d76 173d 6ab0 073e 0c53 89bd
00000160: f35f 91bd 64bd 0dbd afca 0fbe 5f8b 03bd
00000170: dd23 1b3c 73c3 ecbd 140b f7bd 4f9c c4bd
00000180: 35da ffbd 5da8 16bd 1e7b aa3d 72d7 cb3d
00000190: 1f00 2d3e 5dc5 bc3d 48ac b3bd 6b89 bcbc
000001a0: 88b9 b0bd 748c 723d 6f4f 8a3c fd03 8d3d
000001b0: f6e6 e9bd 5bef cf3d e5ff 1dbe af39 21bd
000001c0: b047 2dbe e81a e33d 970e aabd 41ba 11be
000001d0: ee70 6abc a3bb fb3d 50b5 abbc 8bb0 6f3d
000001e0: f797 003d 0d1b 13be 7128 7a3d c058 db3c
000001f0: 83ff e8bd 679b b93d 80df 1c3e 38a8 b63d
00000200: 705a f8bd 904f 083d 02d0 ff3d 1f2f 2c3d
00000210: 680a 26bd b17e a33d 73c4 0dbe d0a5 a8bd
00000220: 9ef1 7e3d 5887 e93d 470b 3bbd 4ada 133e
00000230: 8992 963d 5858 473d e4b9 ec3d 00b4 1a3d
00000240: 47e1 bc3d 23f7 da3d 0b21 15bd 5a7e f03d
00000250: dbfb c6bc 32bc 98bd 94e4 623d b62a cf3c
00000260: 3353 01be 8831 de3d 4b02 af3d fb8f a23d
00000270: 2bb4 103c d6c1 c43c 8b14 583d 8b62 aebd
00000280: 4b16 963d ec50 e4bd 4edd 82bc 8711 f3bb
00000290: 94b8 e13d 6d4a 4e3d 1a4e 273e 9bdd b3bd
000002a0: e617 3ebd bd9a edbc adc1 013e 0d93 243e
000002b0: 792f 1e3d 6b38 0bbe 8aa6 d8bd 4de9 0abc
000002c0: 56a3 29be ac30 b6bd 2b2c d0bd 32c1 a73d
000002d0: 1f0f 96bd 869b f0bd 5b46 b03d 4fd8 15be
000002e0: f9f0 d7bc 9bef 233e d36d 5f3d f2c2 11be
000002f0: 0022 863c f4e5 35bd 3101 943d f6c1 eb3d
00000300: 0062 143e c319 13bd b0f2 b23d 14fb 25be
00000310: 7a58 033e d962 a23d b461 08be 87c3 16bd
00000320: ea18 64bd 5aa6 b5bd addf 233d c36d 53bd
00000330: 1b26 893d fd64 88bd 41d3 1d3e f970 5bbd
00000340: 6688 86bd de57 20bd 68ad 0f3d d513 a1bd
00000350: 8600 a8bd d322 15be cfd1 ee3d 6a02 563c
00000360: c7ce c5bd f8bd a63d b3d7 083c 2e60 a5bd
00000370: 1f78 dcbc 6540 5039 93b3 eb3d ee46 0ebe
00000380: bf09 17be b0f7 2ebe b4af 22be 9f06 56bd
00000390: d6ae c73d 9a5e e53c 5da7 5b3d 860c ab3c
000003a0: c2d4 c7bb a84d 1ebe a875 093e a5f9 213e
000003b0: 7632 3e3a 029e 543c 59d3 c13c c0bb 163d
000003c0: 91c5 55bc d716 933a 61ab fbbd e9c9 fa3c
000003d0: 94dd 203c 600b 0dbe 162b 443d 03f9 943c
000003e0: 609d 2dbb b902 a73d be87 7fbd d150 b43c
000003f0: ab1d fcbd a02a ba3d 56d0 21be d8fd 20be
-0.107409894 0.32473344 -0.08570164 -0.23333706 0.19444723 -0.1440102 0.1910329 -0.09289098
-0.21537569 -0.06113616 -0.105757296 0.10884313 -0.20868014 -0.20931219 -0.06295231 0.4016759
-0.16903809 -0.16480722 0.13087463 0.2717807 0.3951973 -0.14469905 -0.09576506 -0.19018568
0.35950896 0.2059041 -0.008979446 -0.24007796 0.14236383 -0.08003924 0.07807242 0.30634913
-0.039447006 -0.09043473 0.1510281 0.074800365 0.008445766 -0.07900719 -0.10122093 -0.16264057
-0.10778272 -0.12787797 -0.0043168655 -0.13892558 0.08609941 -0.14452778 -0.09903226 -0.09337418
-0.05586259 0.08351986 0.07779423 0.1571334 -0.058903605 0.040508144 -0.023015477 0.10355532
0.0654748 0.0890985 0.15008882 0.10489985 -0.0091962 0.09759544 -0.09792999 -0.069822244
-0.047449876 -0.042574864 0.04756991 -0.16825694 -0.102575816 -0.007530427 0.04227067 0.12156779
-0.11757318 0.060344607 0.0713307 -0.10223072 0.03851518 -0.05773409 0.028289204 -0.061098535
-0.04628597 -0.056919374 0.16588026 0.03732931 -0.14051464 0.036978293 0.1325089 -0.06705293
-0.07098379 -0.034604445 -0.14042161 -0.032115337 0.009469 -0.115607165 -0.1206266 -0.09600126
-0.124927916 -0.036781657 0.08324264 0.09953202 0.16894577 0.092173316 -0.087730944 -0.023014745
-0.08629137 0.059215978 0.01688358 0.06885526 -0.114210054 0.10153075 -0.15429647 -0.039361652
-0.16921878 0.11089116 -0.08303564 -0.14231206 -0.014309151 0.12291648 -0.02096048 0.058517974
0.031394925 -0.14365788 0.061073724 0.026775718 -0.1137686 0.09062844 0.15319633 0.08918804
-0.121266246 0.033279 0.12490846 0.042037126 -0.040537268 0.07983149 -0.1384447 -0.08234751
0.062242143 0.11402768 -0.04566505 0.1443874 0.07352168 0.048668236 0.11558893 0.037769318
0.09222656 0.10691669 -0.036408465 0.1174285 -0.024290016 -0.074577704 0.05539377 0.02528892
-0.12629394 0.10849291 0.08545359 0.07937618 0.008832018 0.02401821 0.052753966 -0.08514889
0.07328471 -0.11148247 -0.015974667 -0.007417861 0.110215336 0.050363947 0.16338387 -0.08782502
-0.04640951 -0.029004449 0.12671538 0.1607172 0.038619492 -0.1359574 -0.1057864 -0.008478475
-0.16566214 -0.08896002 -0.10164674 0.08191146 -0.07327103 -0.11748414 0.08607169 -0.14633296
-0.026360022 0.16009371 0.054548096 -0.14234522 0.016373634 -0.044408754 0.0722679 0.115116045
0.14490509 -0.03591324 0.08737695 -0.1620906 0.1282672 0.0792901 -0.13318521 -0.036807563
-0.055687822 -0.0886962 0.040008236 -0.05161835 0.06696721 -0.06659887 0.15412618 -0.053574536
-0.06568985 -0.039146297 0.035077482 -0.07865111 -0.08203225 -0.14564066 0.116611116 0.013062099
-0.0965858 0.081417024 0.008352208 -0.080749854 -0.026912747 0.00019860415 0.115088604 -0.13894245
-0.14749812 -0.17086673 -0.15887338 -0.052252408 0.09750144 0.027999211 0.053626407 0.020879995
-0.0060983608 -0.15459311 0.13423789 0.15817888 0.0007255444 0.012977125 0.023660349 0.036800146
-0.013047592 0.0011222017 -0.12288547 0.030613856 0.009818453 -0.1377387 0.047892652 0.018185144
-0.0026491508 0.08154816 -0.062385313 0.022011193 -0.12310346 0.09090161 -0.1580213 -0.15721834

actor.customer_encoder.0.attention.query_embed.weight f4 [32, 32]
00000000: b127 b33e e1b6 4e3d 59dc 1b3e 258c ac3e
00000010: 1c0e b4be 3ba5 b6bd b4aa 25be b985 6abe
00000020: 59c1 5a3e fc5d 443e e994 983e 00e7 c63e
00000030: 9eb7 62be fdfd 5a3d 2c79 033e 2606 b1bd
00000040: 1a9e 5d3e 8945 ae3e 5f53 c8be d624 dabd
00000050: 0a2d 243e 314d 93be 046e e8bd 5a9f 393e
00000060: afc0 ef3d 366e 4bbe 19fb 34bd 9577 533d
00000070: 2800 c73e 8699 80be d494 c43c b87d e6bd
00000080: 2e9d bf3e 329c 903e fefa dfbc 120b 1bbe
00000090: 1899 a73e a970 bcbc 3d3b c1bd 46e8 8a3e
000000a0: d5cd be3d cee5 ba3c 5c9c ac3e 9453 1cbe
000000b0: b385 863e 085e 4c3e be00 5cbe 3110 a53e
000000c0: 1029 fc3d 394c 7bbe 2f17 843e 57bc 99be
000000d0: 325d 823c d6bb 133e c8b9 263e d887 a7be
000000e0: 4acd a73e b4cc 9b3e eca2 613e 930a 163e
000000f0: 0830 4ebe 4b05 833e 669e 553d b8ef 93bd
00000100: 9279 11be a152 6a3d e124 e0bd b475 9bbe
00000110: 8f61 48be 09a4 19be 42be 56bd 5d35 47be
00000120: a4c6 babd 90b8 6bbe 8ce9 88be f2d7 333e
00000130: c95e 8abd 8569 1abe 65ce 2fbd d5a4 003d
00000140: d0c1 83be c842 3b3e f7bc 313e 827c 423e
00000150: d47d 67be 74de b13e e79d 663e c4ff 0b3e
00000160: 2846 303e 7a87 44be 4d3c bb3d 2149 913e
00000170: e195 e53d 955a 8d3a dd15 b8be 1c56 d5bd
00000180: 02e5 5fbe c7d9 953e 9723 2dbd 8653 a2bd
00000190: 2940 bebe 7bb7 94be 9a51 11be d372 253e
000001a0: 0546 81bd 7c0a 273e 798b b03e 2c3f 49be
000001b0: 9d4b aa3d 4cef 4f3d ee39 91be 8283 2ebd
000001c0: f611 983d 83a2 18be 6031 85be c438 923e
000001d0: f74b 013e 04da aabe 4055 b6be 07ea 6c3d
000001e0: 0dd5 2fbe 9de2 9e3d 9e8b 2c3e c180 883d
000001f0: cfe9 6c3e cf0f 123e 48e5 fabc 32eb 923d
00000200: 320f e8bd 9aa5 4bbe 487e bcbe 604f 153e
00000210: b9eb 973e e09c f1bd 4b11 603e e0cc 943e
00000220: ca6d 733d 30e1 2b3e 7ef1 643b 4c22 3b3e
00000230: 9dfd 3f3e 6b30 5f3e bdfd 9f3e 05c1 06be
00000240: 2649 e13d 8128 033e cec4 77be cd82 96be
00000250: bc70 56bd 5dff 303e 53f9 953e 3d18 febd
00000260: 8655 24be 588b 9ebe b291 4c3e f455 48be
00000270: 0996 c33d 9b64 0b3e bc57 5fbd 9c20 aa3e
00000280: 5896 853e dc69 0dbd b911 8abb 5bba 653e
00000290: 82ac 56be 5e82 95be 614c 693e ae5b 4cbe
000002a0: f339 eb3c 8300 d43c f4e2 853e 7d3d 663d
000002b0: c4aa 133d 9f45 993d a73e 1fbe d58c b5be
000002c0: 38f6 953e 136f 88be c97c 8bbe cf6b a5bd
000002d0: cffc 643e 5831 16be d838 883e 9d13 033e
000002e0: 60a6 733e 95eb 08be 3af1 263e c0b4 a93d
000002f0: 05f0 a13e 1bea 27be e5ea a03e 5ab4 68be
00000300: f107 63be 2d55 b13e c008 4b3e f9b8 583e
00000310: 9280 49be 5711 a03e 4c97 bdbd 36ac 943e
00000320: f33d 603e e727 a3be b14b 97bd d450 c23e
00000330: d520 523e 5d4d 773d 019e b2bc fc5f 0e3e
00000340: 2fe2 dabd ab2a c7bd 997e 75be 7cca fcbc
00000350: 74c6 6abe ad1b 53be 8150 683e 5d1d 603e
00000360: 5403 25be 8f4f 94bd db07 21be 3132 413e
00000370: a252 4fbe fe57 47be d3b2 253e eec1 963c
00000380: e6ee ff3d 1613 e1bc d8b1 ba3e 1d45 5cbd
00000390: fbdf 933e cd35 463d 2533 ab3e c768 66be
000003a0: e69b 4f3e 3a93 eebd c66b 513e 14ac 88be
000003b0: 03a7 4c3e 0782 afbd f0d6 13be 141a 09be
000003c0: 0b18 803e bfe4 47bd 1922 a4bd fbf2 a13e
000003d0: 61bd 743e 0ae6 973c af68 01be 3bf0 c73d
000003e0: 5cf1 a1bd 6a26 9c3e 2a93 093e be0a 833e
000003f0: 6fa0 563e dd16 b5bd 3168 8bbe 8919 01be
0.3499122 0.050467376 0.15220775 0.33700672 -0.35167015 -0.08918234 -0.161784 -0.22902574
0.21362819 0.19176477 0.2980111 0.38848114 -0.22140357 0.05346488 0.12839192 -0.08643751
0.21642342 0.34037426 -0.39126107 -0.10651557 0.16032806 -0.2876983 -0.11349109 0.18127194
0.11706673 -0.19866261 -0.044184778 0.051627714 0.38867307 -0.2511713 0.023996748 -0.11254448
0.37424606 0.28244168 -0.027341362 -0.15140942 0.3273399 -0.02300294 -0.09435127 0.27130336
0.09316603 0.022814658 0.33713043 -0.15266258 0.2627388 0.19957745 -0.21484658 0.32238916
0.123125196 -0.24540795 0.25798938 -0.30026504 0.01591358 0.14427122 0.16281807 -0.32720828
0.3277381 0.30429614 0.22034806 0.14652471 -0.2013551 0.25589976 0.052153014 -0.07223457
-0.14206532 0.057207707 -0.10944534 -0.30363238 -0.19568466 -0.1500398 -0.052427538 -0.1945395
-0.09119919 -0.23019624 -0.26740682 0.17562845 -0.0675636 -0.15079315 -0.042921443 0.031407196
-0.25733805 0.18287194 0.1735724 0.18992808 -0.22606593 0.3474003 0.22521172 0.13671786
0.17214262 -0.19192305 0.09142361 0.28376105 0.11210228 0.0010784442 -0.3595418 -0.10416815
-0.21864703 0.29267713 -0.04227027 -0.07926087 -0.37158325 -0.29046234 -0.14191285 0.16157083
-0.06312183 0.16312593 0.3448141 -0.19653004 0.08315203 0.05076532 -0.2836451 -0.042605884
0.07425301 -0.14905743 -0.26014233 0.28558934 0.12626635 -0.33369458 -0.35611916 0.057840373
-0.17171116 0.07758067 0.16850135 0.06665183 0.23136066 0.14263843 -0.030626908 0.07173766
-0.11331023 -0.1988739 -0.36815095 0.1458106 0.2967203 -0.117975 0.21881597 0.29062557
0.059430875 0.16785121 0.003493398 0.18274802 0.1874909 0.21795814 0.31248274 -0.13159569
0.1100028 0.1280842 -0.24196169 -0.29396668 -0.052353606 0.17284913 0.29291782 -0.12406967
-0.1604825 -0.30965686 0.19977453 -0.19564039 0.09550101 0.13612597 -0.05452703 0.33228004
0.26091266 -0.034524783 -0.0042135385 0.2243437 -0.20964244 -0.29201025 0.22783042 -0.19956848
0.028714156 0.02587915 0.26149714 0.056210984 0.036051527 0.07483982 -0.15551244 -0.3545901
0.29289412 -0.26647243 -0.2724364 -0.080772035 0.22362064 -0.1466726 0.26605868 0.1280045
0.23793936 -0.13371117 0.16302958 0.082864285 0.31628433 -0.16397898 0.3142921 -0.22725049
-0.22170998 0.34635296 0.19827557 0.21164311 -0.19677952 0.3126323 -0.09257373 0.29037637
0.21898632 -0.3186638 -0.07387484 0.37952292 0.20520337 0.060376514 -0.021803858 0.13903803
-0.10687672 -0.09724935 -0.23974074 -0.03085827 -0.22927266 -0.20616026 0.2268696 0.21886201
-0.16114551 -0.07241737 -0.15725653 0.18866803 -0.20246366 -0.1946716 0.16181497 0.01840302
0.12496738 -0.027474921 0.3646381 -0.05377685 0.2888182 0.048391152 0.33437458 -0.22500907
0.20274314 -0.11649175 0.20451269 -0.26693785 0.19985585 -0.085697226 -0.14437461 -0.13388854
0.25018343 -0.048802134 -0.08014316 0.31630692 0.23900367 0.018542308 -0.1263759 0.09762617
-0.07907364 0.30498058 0.13435045 0.25594133 0.20959638 -0.088422514 -0.2722793 -0.12607397

actor.customer_encoder.0.attention.key_embed.weight f4 [32, 32]
00000000: 09fc 13be 8782 0e3d df33 903d ebf1 c53e
00000010: a350 aa3e c04f a3be 6ba1 173e 7cf7 7abe
00000020: 6cc8 2dbe 23a1 1f3e e940 88be 5f8b a53e
00000030: 674d ca3d 9cee 7d3d a946 713e be46 a5be
00000040: 9850 893d 498a ce3d ffed 43be aa2c 0ebe
00000050: 9a5c dc3d 5d0c a63e 8ec3 09be 0f78 5b3e
00000060: c741 343e f217 50be de68 87be 990a 17bd
00000070: c22b 7d3e d7af 84be d982 75be dec5 8b3e
00000080: 8a78 4ebe c948 73be ac77 87bc 5828 a53e
00000090: d3e3 703e 25d6 433e 673b 643d 226f 4cbe
000000a0: d66e 95be 1af5 393e b642 e23d cf7a b63d
000000b0: a0e4 e2bd 9ee5 b8be afff b33c 9b76 61bd
000000c0: b6e5 b0bc b63b 453d 3a38 45be b2c4 54be
000000d0: a9b6 a8bd 3c86 053e 0197 63be 14d8 ad3e
000000e0: a54f afbe 7375 57be c6f9 ce3d e27f b0be
000000f0: 8dab 54be 062a 263e f99e 7cbe fb6a eb3d
00000100: aace 3abe 6dee 1dbe 6cbd 5c3d bf4d e23c
00000110: 08e5 a73e b66a 963d 5e5d 863d 94bb 49be
00000120: 7255 933e 278f 2abc 4646 543e 36a2 90be
00000130: 1e49 443e 784b 8f3e b33b 5b3e 87ff 913e
00000140: c82a 1fbe a2b9 7abe 737d 0e3e 786d 263e
00000150: af96 52be faea e6bd b059 94ba 3f33 2abc
00000160: 5e83 2f3e 2b2b 843e f373 ce3d 6604 15be
00000170: 32c8 69be a8ed 993e b6c2 f13c bab4 34be
00000180: 6b3f 85be 554c 83be 44c4 a63e 0030 46be
00000190: 41d5 b0be b8cf 8ebe cc81 39be 7dae 9e3c
000001a0: bf97 69be f21e 263e 155a 8fbd 9d2d 11be
000001b0: 7d57 75be 28ec babd f49b c03e a74a 3c3b
000001c0: f4e5 be3d ceba b7be f515 4b3e b233 2d3d
000001d0: 9dbc 84bd f52c 8f3c 62a7 23be 0f85 90be
000001e0: 0259 3cbe ad35 cc3d d5df 983e 17c8 80be
000001f0: a525 343e c0c9 15be e1e2 8c3e 24bb 393d
00000200: cc65 a1be ca4e 8fbe e1e9 ae3d c5b5 373e
00000210: ac48 d43d f021 d83d 9891 39bd 0f7c 4fbe
00000220: d1f5 163d 9497 95be 4850 383e d373 07be
00000230: 096b 9bbe d877 e73c b42a e23d 09a6 8cbe
00000240: fb4a 61be 85b9 3abd 01c4 09be 2a02 9a3e
00000250: a0ba 8d3d c2ec efbd 849e 8fbe 8bac 7cbe
00000260: 62fa 043e 3e23 9dbd f4b2 413d 0c12 863d
00000270: fe9b 733e 7b6f 43bc 0514 1e3e f211 a8be
00000280: b4a6 833e bde6 a3be ab9c e2bd b384 a5be
00000290: 9efd 413e 43dc e7bd 2f57 babe 337d 2dbe
000002a0: be47 4b3e a844 803e bdcb 6a3e c292 a9be
000002b0: aaf2 28be 9663 913d 06fe 853a e134 49be
000002c0: ebe1 b13e 85e0 74be e27d 663e 0fcb 5a3e
000002d0: 6469 a4be cbbf 5dbe 41f7 69be 8b26 873e
000002e0: 947d a5be a94b 4a3b c156 d7bd e8ab babd
000002f0: cee1 4dbe 7016 8ebe 4133 9dbe 27ea d0bc
00000300: 66de 6e3c 04cd 8c3d 3e7e cd3d cc10 07be
00000310: d665 503e d296 483e 7373 92be 413b aa3e
00000320: 75db b3bc 092b 26bb 933e b1be d334 393e
00000330: 5be7 093e 36e3 bd3d 7ece 353e ae54 a2be
00000340: 6509 b33e 1891 633e 4e46 d3bd 584f 383e
00000350: c56b 09be 73a8 d1bd 9baf bcbb c576 5f3e
00000360: 63ee 3d3e 6107 04be 57c9 97be 2ef4 3ebc
00000370: 338b 1bbe 97d2 06bc 4ac4 303e 8f6a 763e
00000380: daf4 6f3c 12c2 2a3e 1a91 7d3d 5cc8 43be
00000390: 8814 573e efe7 6dbe bce7 c9bb a5f9 35be
000003a0: f635 ce3b 5302 913e 5beb fa3d 31bc 01bd
000003b0: 5f78 9cbe 7a65 8bbe 668d cbbd 0a3e 2bbe
000003c0: 952b 8e3d 561b a6be ad77 b13e ac51 acbd
000003d0: 7f86 703e 7bb8 753e 4f71 933e c90e 3fbd
000003e0: b10c d33c 4e2a 3d3e 1d1b 8bbe a116 e2bc
000003f0: a817 053e 75e3 11bd 5158 84be fdef 4f3d
-0.14451613 0.03479245 0.070411436 0.3866113 0.33264646 -0.31896782 0.1480767 -0.2450847
-0.16970986 0.15588813 -0.26612023 0.32332894 0.098780446 0.061995134 0.23562111 -0.32280535
0.06704825 0.100849696 -0.19133757 -0.13884225 0.1075985 0.32431307 -0.13453504 0.21432517
0.17603217 -0.20321634 -0.26447195 -0.03687534 0.24723724 -0.25915405 -0.23975696 0.27299398
-0.2016317 -0.23758234 -0.016536556 0.32257342 0.23524408 0.19124658 0.055720713 -0.19964269
-0.29186124 0.18159905 0.1104788 0.08910143 -0.11078763 -0.36112684 0.021972505 -0.05504475
-0.02159391 0.048152648 -0.1925973 -0.20778158 -0.08237965 0.13039488 -0.22225572 0.33953917
-0.3424045 -0.21040897 0.10106234 -0.34472567 -0.20768566 0.16226968 -0.24670018 0.11495014
-0.18242899 -0.15422983 0.053891584 0.027624963 0.32791924 0.07344572 0.06560777 -0.19700462
0.28776127 -0.010410107 0.20729932 -0.28248757 0.19168517 0.27987266 0.21409492 0.28515264
-0.15543664 -0.24484876 0.13915043 0.16252697 -0.20565294 -0.11275287 -0.0011318233 -0.010388195
0.17139956 0.25814185 0.10080709 -0.14552459 -0.22830275 0.3006413 0.02951179 -0.17647067
-0.26024947 -0.25644174 0.32571614 -0.19354248 -0.345377 -0.27892852 -0.1811592 0.019370312
-0.22811793 0.16222742 -0.06999604 -0.14177556 -0.23959155 -0.091270745 0.37618983 0.002873102
0.09321204 -0.35884708 0.19832595 0.04228563 -0.06481288 0.017477492 -0.1598182 -0.28226516
-0.18393329 0.09971175 0.2985827 -0.25152656 0.17592485 -0.14627743 0.27516845 0.045344487
-0.31522977 -0.279898 0.085407026 0.17940433 0.103654236 0.10553348 -0.045304865 -0.20262168
0.036855523 -0.29217207 0.17999375 -0.13227777 -0.303551 0.028255388 0.11043301 -0.27470425
-0.22001259 -0.04558708 -0.13453676 0.30079776 0.069203615 -0.1171508 -0.28050625 -0.24675195
0.12986138 -0.076727375 0.047289804 0.06546411 0.23789975 -0.0119284345 0.15437324 -0.3282619
0.25713122 -0.32011977 -0.11065038 -0.32327804 0.18944404 -0.113213085 -0.3639464 -0.16942291
0.19851586 0.2505238 0.22929282 -0.3311978 -0.16498819 0.07099073 0.00102228 -0.19649078
0.34742674 -0.23913772 0.22508958 0.21366523 -0.32111657 -0.21655194 -0.22848226 0.26396593
-0.3232237 0.003086785 -0.10514594 -0.0911482 -0.20105669 -0.27751493 -0.30703166 -0.025502278
0.014579391 0.06875041 0.100338444 -0.13190001 0.20351347 0.19588783 -0.28603706 0.33248332
-0.021955231 -0.002535524 -0.34618053 0.18086557 0.13467161 0.09271853 0.17754552 -0.3170523
0.34968105 0.22223318 -0.10316144 0.17999017 -0.13420017 -0.10237207 -0.0057582385 0.2182265
0.18547969 -0.1289344 -0.29645798 -0.011654897 -0.15189819 -0.0082289195 0.17262378 0.24064086
0.0146457795 0.16675594 0.061905958 -0.191194 0.21003926 -0.23233007 -0.006161658 -0.17771013
0.0062930537 0.28322086 0.12251922 -0.031673614 -0.30560586 -0.27225858 -0.09939079 -0.16722885
0.06941906 -0.3244273 0.34661618 -0.08414015 0.23488806 0.23996155 0.28797385 -0.04664496
0.025762888 0.18473169 -0.27169123 -0.02759868 0.12997305 -0.03561731 -0.2584863 0.05076598

actor.customer_encoder.0.attention.value_embed.weight f4 [32, 32]
00000000: c270 7d3d 911f a93e 022b e63d 345d 053e
00000010: a3e6 aabe 4688 113e 9409 423e 0104 debd
00000020: 698b 61be 0fcb 2fbd beb0 9bbe f28c a63e
00000030: 2f7c 5bbe 31ec a23e 6095 b3be 88c9 663e
00000040: 4b54 17be 3d68 8bbe f0a2 cb3d a7a9 a63e
00000050: 2796 2cbe b049 4b3d 5119 6dbe 40e7 6b3e
00000060: 33f5 a23e 5c62 c5bd 2a6d ad3e 015e 3b3e
00000070: cc70 433d 89c2 1bbe 1ea3 793e 47fc 943c
00000080: 0d1d 19be df13 b2be 0c73 afbe 6e79 b43e
00000090: f353 3fbe ee0c 87be 588d 653e c821 cfbd
000000a0: cefa 86be ae2d 923d 930c 56bd bdad 0b3e
000000b0: c431 a83e f147 b6bd 5430 4e3e 324f cabd
000000c0: ced8 eebd 887c f13d 60d7 a1bd 0b85 c23d
000000d0: a43e a13d c1f7 90be e1b5 a9bd 3356 a33e
000000e0: 3e44 0ebb 329c ab3e 43cd 883e 6a33 cbbd
000000f0: cfbd 23be d1da ee3d 2323 6fbd 97f0 3abd
00000100: 63fe c5bc c1d0 69be 52e6 633e 8778 0dbe
00000110: d06d 93be b964 8dbe 61f6 66be 5d89 853d
00000120: ef4c aebe 15bd 053e 7f06 5fbe d058 2cbc
00000130: 8963 afbd 95ed d8bd b89d 693e 4306 f7bd
00000140: ddc6 f63d d16a 763e 47da 323e 0f09 1a3e
00000150: 14c2 07bd f6d4 3bbe 2ea7 85be bdf1 ab3e
00000160: 963c a4be 2dd5 b0bd 0058 993e e7a7 89bd
00000170: 8b04 98be 3131 b23e db72 babd 923a 173e
00000180: 61b0 243e 2396 e6bd d468 afbe 1f06 4ebd
00000190: bda9 8fbe 43e0 31be 0d46 98be 96d6 283e
000001a0: e1d9 7ebe 406d 303e e13c 983e e279 343e
000001b0: 6c13 573e bef8 753d dd4e 723e b432 aa3e
000001c0: 286b 9a3d bfd7 193e 0c2a 643e cb5c 2fb9
000001d0: b99b 9b3e b94d af3d f6b9 5cbe a376 89be
000001e0: ce42 b83d f60e 8fbe 7759 a3be b434 a83e
000001f0: 21a2 883e a9c3 c3bd 7377 343e 7411 f53d
00000200: d060 a73e 10d7 dc3d eb8c 273e 4374 81be
00000210: 3754 ef3d 3877 8bbe 9c48 8abe c84e 473e
00000220: 602d 31be 4d3b 8c3e 4ae2 b6bd 7121 3c3e
00000230: 4cae a83e b72f 3c3d 8962 a43e ce0d 64be
00000240: 360d 403e f991 e33d ffba 893e 8784 a63e
00000250: 2579 96bd b779 9b3d d1b6 36be cea6 193e
00000260: 53dd b5ba 5dd4 26be 710e 48be 0e90 b43d
00000270: d02f a13e ed3b a0be 75c2 693e 3eb7 7e3e
00000280: ae83 9cbe b52a 253e 3618 003d 60cb 883e
00000290: 5e0e 993e 3e07 4b3e 9683 0dbe d031 9ebe
000002a0: 77b9 7c3e e95e 493a fb32 133e 255b e43d
000002b0: eefd 3f3d 8c00 893e 313c b5bd cb5e 123e
000002c0: eb0c 283e a865 24be 946a 1b3e 2ec1 cd3c
000002d0: 47e7 b3be 073e 483e 32f9 9fbe 9501 243e
000002e0: 31c2 26be 4c0b 30be aaff 4a3e 0bdf 71bc
000002f0: 1933 84be 7304 fb3d c43d 47be f92b a5be
00000300: 099f 913e c6b0 98be ef43 1abe 4b64 5abe
00000310: 954d 8a3e 6795 02bd 1d33 97be e979 543e
00000320: 4200 883e 9308 df3d 96fe 1fbd 4e17 aebe
00000330: 0195 5ebd b9a6 463e 2424 76be 7f5d b2be
00000340: 7bc6 23bb 27e8 673d 2dd8 0dbe 797e 15be
00000350: bb65 8cbe e52d 5bbd cc65 a83e d8c0 963e
00000360: f044 713d db65 9a3a 7ab6 a13e 6702 583d
00000370: e2d7 47bd 5285 80be 1a35 a73e f6db acbe
00000380: 4f23 fdbd 4c04 9e3d 2edc 303d a386 ecbd
00000390: 8e9c a8be 017c 103d 830e aebd fec4 7dbe
000003a0: 9392 60be 40d3 30be 9a78 a7be c5a9 2f3e
000003b0: eed1 abbb b4b5 9cbe a9de 373e 5b12 8a3e
000003c0: 266e a13d 8914 f3bd bf43 e8bd 9122 ea3d
000003d0: faf5 aa3e 431b 103d 10e2 09be a023 45bd
000003e0: d4cb 0a3e 10ef 9d3e 915f ad3e 397b b43e
000003f0: a33a 78be ee8d 703d 13d4 9a3c 3339 953d
0.061875112 0.33031896 0.11238672 0.13023835 -0.33379087 0.1421214 0.18948966 -0.108406074
-0.22025837 -0.04291826 -0.3040828 0.32529408 -0.21434091 0.31820825 -0.35074902 0.22537816
-0.14778249 -0.27227965 0.09943187 0.3255131 -0.16854154 0.04963082 -0.23154189 0.23037434
0.31827697 -0.09637901 0.33872348 0.18297578 0.047714993 -0.15210928 0.2437863 0.018186701
-0.14952488 -0.34780785 -0.3426746 0.35248893 -0.18684368 -0.26377052 0.224172 -0.10113865
-0.26363224 0.07137619 -0.052258085 0.13640495 0.32850468 -0.089004405 0.20135623 -0.098783866
-0.11662446 0.117913306 -0.07902408 0.09498032 0.07873276 -0.2831402 -0.08286644 0.31901702
-0.0021708156 0.33517605 0.26719102 -0.09921916 -0.15990375 0.1166283 -0.05838312 -0.0456396
-0.024169153 -0.2283354 0.22255829 -0.13815509 -0.28794718 -0.27615908 -0.22554924 0.065203406
-0.3404307 0.1306041 -0.21779822 -0.010519221 -0.08563907 -0.1059219 0.22814071 -0.12061741
0.12049649 0.24064185 0.17466079 0.15042518 -0.03314407 -0.18342957 -0.2610411 0.3358287
-0.32077473 -0.0863441 0.2994995 -0.06721478 -0.29690966 0.34803155 -0.09103938 0.14768437
0.16082908 -0.11259105 -0.34259665 -0.050298806 -0.28059188 -0.17370705 -0.29740945 0.16488108
-0.24887802 0.17229176 0.29733947 0.1762462 0.21003503 0.060051672 0.23662896 0.33241808
0.0753997 0.15023707 0.22281665 -0.00016723869 0.30392244 0.08559746 -0.21555313 -0.26848325
0.08997117 -0.27941102 -0.31904194 0.3285271 0.26686195 -0.095588036 0.17623691 0.119662195
0.3269105 0.107832074 0.1636235 -0.25284013 0.116859846 -0.27239394 -0.27008522 0.19463646
-0.17302465 0.27388993 -0.0892988 0.18372132 0.32945478 0.045943942 0.32106426 -0.22270891
0.1875504 0.111118264 0.2690048 0.32522985 -0.07347325 0.07591575 -0.17843176 0.15005037
-0.0013875164 -0.16291948 -0.19536759 0.08816539 0.3148179 -0.3129572 0.22828086 0.24874589
-0.30569214 0.16129573 0.03127309 0.26717663 0.29893774 0.19826981 -0.13819727 -0.3089738
0.24680124 0.0007681684 0.14374916 0.11150197 0.046873026 0.2675823 -0.08849371 0.14293973
0.16411178 -0.16054404 0.15177375 0.02511653 -0.35137388 0.19554912 -0.31244808 0.16016228
-0.16285016 -0.1719181 0.1982409 -0.01476265 -0.25820234 0.12256708 -0.19457155 -0.3226011
0.28441647 -0.29822367 -0.15064977 -0.21327321 0.27012315 -0.031880762 -0.29531184 0.2074963
0.26562697 0.10890307 -0.03906115 -0.34002155 -0.05434132 0.19399537 -0.24037224 -0.34836957
-0.002499013 0.056617882 -0.13851996 -0.14599027 -0.27421364 -0.053510565 0.32890165 0.29444003
0.058903635 0.0011779623 0.3158453 0.052736666 -0.048789866 -0.25101715 0.326577 -0.33761567
-0.1236025 0.07715663 0.04317873 -0.115491174 -0.32931942 0.03527451 -0.08498862 -0.24782178
-0.21930914 -0.17268085 -0.327092 0.17154606 -0.0052435314 -0.30607378 0.17956032 0.2696713
0.07882337 -0.11869151 -0.113410465 0.11432374 0.3339079 0.03518225 -0.13465142 -0.048129678
0.13554317 0.30846453 0.33861974 0.3525026 -0.24241118 0.058729105 0.018899953 0.072863005

actor.customer_encoder.0.attention.combine.weight f4 [32, 32]
00000000: 96be e8bc ac02 05be 6c51 8d3d 24f5 f33d
00000010: ff62 0e3d c1e3 8c3c be9e 1c3e 8dd3 82bd
00000020: 7b81 a0bc 85d3 563d d86b d5bd c8fb 12be
00000030: 5d61 0fbd c281 d73d aa8c a6bd 76c7 763d
00000040: 78ae 32bb 76cf 243e 92a1 d83d 00cb b8bd
00000050: 61c3 33be 499a c13d 38dd 34be 1a4e f0bd
00000060: 3a8b 213e d0fe 2a3d b0d3 703c 004c 01be
00000070: 42f2 09bd 7e7d 963c e3d8 c43d 6ba2 9fbd
00000080: 1f6f debc 790c 1e3d 33e9 32be 8bce 5fbd
00000090: b990 26be 2a1d 86bd e90e c9bd 1eda b43d
000000a0: 2859 eabd 3cf6 2cbe f739 bebc 78f1 aebd
000000b0: 47e8 bcbd 0bba 33bd d459 953d 306d 1abe
000000c0: 919f 00be 15a2 d33c 9991 b73d 1415 213c
000000d0: bc38 303e 5f03 ab3d c87d 04be 1c0f bd3d
000000e0: 9868 aabd 96e4 003e e14f 1abd 9a91 123e
000000f0: 0d33 dfbc d9cf 2cbd 441a 05be 19ab 353e
00000100: d6ec e2bd 5cb3 a0bd e10b b3bd 4c00 41be
00000110: 6046 b0bd 0fbc 223e 9f01 e43d d469 3a3d
00000120: dd55 89bd 3cb9 323c c9bd 45bd 387f 21be
00000130: 4649 0b3e 2271 b13d 52ec 1b3e c89f 1bbe
00000140: 7f25 1f3d 9565 ab3d 9c4a aebc f64d ba3d
00000150: 7cd0 d13d 1dd7 c4bd 61da 023e 52e5 443d
00000160: bda3 e9bc 1f11 8c3d 5605 033e 04fe 413d
00000170: cc60 bb3d 8c68 09be 50f9 c2bd 6dff bebc
00000180: e95d bc3d 7f05 da3d 4b07 2cbd ec66 4abd
00000190: 1845 1cbd 4c95 60bd fd13 163e e3ab ce3d
000001a0: a9e5 c83d f7b8 86bd 2bcb 63bd e404 1abe
000001b0: 3db4 193e fdf4 97bd 9c58 e8bc 8f18 e5bd
000001c0: 6348 4f3d ae6e 903d db46 3fbe 2e46 0e3e
000001d0: d22e 613d e801 b73d 8f8c 0abe 42bd 8e3d
000001e0: 75a0 313e 49d0 0d3e 7731 d7bd 7988 cf3c
000001f0: 1eb1 e7bd 113e 563d a18d 913d 04ca bd3d
00000200: 002b 0cbe f639 c13d 1de8 90bc 754e ebbd
00000210: 5666 a9bd a5e5 253e 9d48 05be a82c f33d
00000220: 3b51 2d3e 2f42 debd e8ca 18be bb88 e9bd
00000230: e08c 63bb 1af8 1ebe 344c 033e 4190 0d3e
00000240: 2e41 a0bc b126 c73d 4446 f03d 29e6 383d
00000250: 1664 b2bd 5eaa 953c 7bd8 1c3e 0aa5 48bd
00000260: 3318 193d d30a 39bc 0a55 85bd be5d 46bd
00000270: 4303 b2bd c85e 22bd cf98 383e 755d 0bbd
00000280: 3972 abbc 770b 263e 8d35 743d 2dcd 08be
00000290: 0db5 65bd d521 6dbd 7a41 a4bd f817 10be
000002a0: e006 b13d d58b 0c3e 4b00 0ebe 191d 333e
000002b0: 7839 a73d 1152 243e b95b 05be 1314 593d
000002c0: 5a89 f93d 7884 cf3d 6390 45bd 582b f53d
000002d0: 6f95 bf3d 49d1 f0bd 0f64 ba3d 1841 b0bd
000002e0: d4d3 133e 8d87 80bd 87cf d7bd 848c a13d
000002f0: 96e7 c6bd 6062 87bd f40f e93d 2fbe 293e
00000300: bbb4 6c3d 3320 233e ae35 883d d92a abbc
00000310: 1174 85bd 2eb1 2bbd 35bf 1bbb eaa6 70bc
00000320: 9b05 f23c b1c1 343d e7c3 efbd 3376 cbbd
00000330: 7212 1a3e 3786 b1bd 4905 a33d f90a 2a3e
00000340: 2e06 23be 07e1 993c 7949 1d3d 92ca edbd
00000350: f3a6 30bd 2d77 a2bd 82d2 2abe 5fec 38bd
00000360: ed0c 223e ee07 3b3e 4725 dbbd f5cb 50bd
00000370: 8605 bdbd c2af e03d 5ea0 17be 397e 80bd
00000380: bb5c 7cbd 0668 a8bd 2156 1d3e 4cba 1fbe
00000390: 2a9e 00be ced9 22be e890 a5bd 9c8c a93d
000003a0: 6af7 eb3c a2ff 49bc 0215 0b3e 98fc eb3d
000003b0: ba88 303d 0e5c 333d 6625 7abd e994 29be
000003c0: aed9 123d c8d8 233e 77dc 0a3e 0c8b 04bc
000003d0: af11 c5ba a70a 263e b951 3ebe 9fce 123e
000003e0: d7e9 273e 5d28 cf3d 7c77 9b3d f55f 373c
000003f0: 37c2 633d c4d3 bcbd 5cb8 fcbc 2043 ebbd
-0.028411191 -0.129893 0.069002956 0.11911991 0.03476238 0.017198445 0.1529493 -0.06388006
-0.019592991 0.052447814 -0.1042096 -0.1435386 -0.035004962 0.10522796 -0.08132298 0.060248815
-0.0027264636 0.16094765 0.10577692 -0.09023094 -0.17555 0.09453256 -0.17662513 -0.11733647
0.15775767 0.041746914 0.014698908 -0.12626648 -0.0336783 0.018370386 0.0961168 -0.07794651
-0.027152596 0.038586114 -0.17471771 -0.054640334 -0.16266145 -0.06548531 -0.09817297 0.08830665
-0.114427865 -0.16890806 -0.023221 -0.0854215 -0.09223991 -0.043878596 0.07292524 -0.15080714
-0.1256087 0.025834123 0.089633174 0.009831686 0.17209142 0.08350252 -0.12938607 0.092313975
-0.08320731 0.12587199 -0.037673835 0.14313355 -0.027246023 -0.042190406 -0.12998301 0.1774105
-0.11080329 -0.0784671 -0.087425 -0.1884777 -0.08607173 0.15892051 0.11133122 0.04551108
-0.0670583 0.010908421 -0.048276696 -0.15771186 0.1360217 0.086641565 0.15226868 -0.1519767
0.03885412 0.083689846 -0.02127581 0.09096901 0.10244843 -0.09611342 0.12778617 0.04807026
-0.02852046 0.06839203 0.12795004 0.04736139 0.09149322 -0.13418788 -0.09520209 -0.023315156
0.091975994 0.106455795 -0.041999143 -0.04941456 -0.03815183 -0.05482988 0.14656062 0.100913785
0.09809429 -0.06578248 -0.055613678 -0.15040928 0.15010162 -0.07419775 -0.028362565 -0.11186325
0.050606143 0.070523605 -0.18679373 0.13893959 0.054976292 0.089359105 -0.13530181 0.06969692
0.17346366 0.13848986 -0.105074815 0.02533363 -0.11313079 0.052305285 0.07107092 0.09267047
-0.13688278 0.09434883 -0.017688805 -0.11489574 -0.08271472 0.16200884 -0.13015981 0.11873752
0.16925518 -0.10852467 -0.14921153 -0.114030324 -0.003472142 -0.1552433 0.12822038 0.1382456
-0.01956233 0.09724177 0.11732152 0.045141373 -0.08710496 0.018269714 0.15316956 -0.04898552
0.037376594 -0.011294085 -0.065103605 -0.048429243 -0.086920284 -0.03964117 0.18027042 -0.034024674
-0.020928489 0.16215311 0.059621383 -0.13359518 -0.056080867 -0.057893593 -0.08020301 -0.14071643
0.086438894 0.13725217 -0.138673 0.17491569 0.08165258 0.16046931 -0.1302327 0.05299766
0.12184401 0.10132688 -0.0482334 0.11971158 0.09354674 -0.11758668 0.09101116 -0.08606166
0.14436275 -0.06275854 -0.105376296 0.07888129 -0.0971214 -0.066105604 0.11379996 0.16576456
0.057789546 0.15930252 0.066508636 -0.020894455 -0.065162785 -0.04191702 -0.0023765091 -0.014688233
0.029543689 0.04413003 -0.11707287 -0.09934654 0.15046099 -0.086681776 0.079599924 0.16605748
-0.15920326 0.01878406 0.038400147 -0.11610903 -0.043127965 -0.07932887 -0.16681865 -0.045147296
0.15825243 0.18264744 -0.107004695 -0.05097576 -0.09229569 0.10971023 -0.14807269 -0.06274075
-0.061611872 -0.08222966 0.15364887 -0.1559841 -0.12560335 -0.15903398 -0.08084279 0.08278772
0.0288045 -0.012329014 0.13582233 0.11522788 0.043099143 0.043788962 -0.061070822 -0.16560711
0.035852127 0.16000664 0.13560663 -0.008089792 -0.0015035177 0.16215001 -0.18585862 0.14336632
0.16397797 0.101151206 0.07591149 0.0111923115 0.05560514 -0.092200786 -0.030849628 -0.114874125

actor.customer_encoder.0.BN1.weight f4 [32]
00000000: 5e74 803f ba31 823f fcec 803f 58c2 7a3f
00000010: be1e 7d3f d7a1 7e3f 01d8 7f3f 50b2 823f
00000020: 74cd 7e3f 581b 7d3f f786 803f 7283 813f
00000030: ee93 7f3f dadd 803f 2058 793f 11f8 7e3f
00000040: bb94 7e3f d5e3 803f 77c4 833f d27b 803f
00000050: 289f 7d3f df51 7d3f ca55 7e3f a6ec 7e3f
00000060: a59c 803f d212 803f e008 7e3f ae25 803f
00000070: 56b7 7f3f e8e1 7b3f de88 823f b3e9 803f
1.0035512 1.0171425 1.0072322 0.97952795 0.98875034 0.994657 0.9993897 1.0210667
0.99532247 0.9886985 1.0041188 1.0118239 0.998351 1.0067704 0.97400093 0.9959727
0.99445695 1.0069529 1.0294331 1.0037787 0.9907098 0.9895305 0.99349654 0.99579847
1.0047804 1.0005744 0.9923229 1.0011499 0.99889123 0.9839158 1.0198019 1.0071319

actor.customer_encoder.0.BN1.bias f4 [32]
00000000: 773b 3abc 8ae5 42bc f869 7dbc a43f 793b
00000010: a261 50bc 4f59 4fbb fb1a 0fba 062b 863c
00000020: 0ff7 3dbb 1a15 ffbb b841 1bbd 230a faba
00000030: 6b0b 05bc df89 f13b a277 46bc 54d7 613b
00000040: 8cd3 463c 4eb3 133c 2cfa 17bc 88df b13a
00000050: 8eb1 44bc cc2e c73b d966 4e3c ddb3 283c
00000060: 6262 c03c 73fd 1ebb 9fe0 51bc 14a9 edbb
00000070: b035 91bc 1316 5c3c fca6 813c b92c afba
-0.011366717 -0.011895547 -0.015467159 0.0038032318 -0.01271859 -0.0031638925 -0.00054590375 0.016377937
-0.002898637 -0.007784498 -0.03790447 -0.0019076507 -0.008120398 0.007371172 -0.012113484 0.003446062
0.012135398 0.009014918 -0.009275954 0.0013570646 -0.012005223 0.0060785767 0.012597763 0.010296789
0.023484413 -0.0024259954 -0.0128099015 -0.0072528217 -0.017725796 0.013432997 0.015826695 -0.0013364769

actor.customer_encoder.0.BN1.running_mean f4 [32]
00000000: 0d84 463f 538b bbbe 4eed f73e 30d8 103f
00000010: 18f1 44bf 4def ce3e a4f9 1c3e a37f 143e
00000020: 9430 abbe f529 ac3e f52b 85be 570e a83e
00000030: 4d8b 1abf 131c 8c3f e2c4 203f 0212 c33e
00000040: b111 2dbe e2c5 cbbe 2929 df3d 31ea 233e
00000050: 1cd6 b4be 10db 1abf 9951 0fbf 7c5f 00bf
00000060: 29e0 2f3e 9943 993d 9079 1e3e dd42 d53e
00000070: e6cd f83d 78e3 b8bd ab59 863d 00dc 11bd
0.77545244 -0.36629733 0.48423237 0.56579876 -0.7693038 0.40416947 0.15329605 0.14501815
-0.334355 0.3362576 -0.260101 0.3282344 -0.60368806 1.0946068 0.6280042 0.38099676
-0.1690128 -0.3979941 0.108965226 0.16007306 -0.35319602 -0.6049051 -0.55983883 -0.501457
0.17175354 0.07483596 0.1547606 0.41652575 0.12148647 -0.09027761 0.065600716 -0.0356102

actor.customer_encoder.0.BN1.running_var f4 [32]
00000000: cb5c 9d3c 1402 473b 922e 1c3d 1acf 943c
00000010: d8bc 093d d6f1 fb3c 1665 6c3c 4b9d 403b
00000020: 8901 363c 8531 4d3b 0031 ca3c 0dcd 683c
00000030: e77a b03c 6e91 733d e353 4b3c ef9c 2b3c
00000040: 8287 b93b 7206 023c f395 303c 6122 d63b
00000050: 8e16 093c 268a 0b3d a522 583c a913 b63b
00000060: 05a1 7f3c 81cf f53a f112 883c f98a 883c
00000070: d8dc 203d ba0e 813c 7fba 943b fd0b 553c
0.019209286 0.003036623 0.03813035 0.01816516 0.03362736 0.030754965 0.014428398 0.002939063
0.011108764 0.0031310034 0.024681568 0.014209044 0.02154298 0.059464864 0.012410137 0.010474428
0.0056619057 0.007936107 0.010777938 0.00653486 0.008367194 0.034067295 0.013191854 0.005556543
0.015602355 0.0018753858 0.016610594 0.01666783 0.039273113 0.015754092 0.0045388336 0.0130033465

actor.customer_encoder.0.FFN_layer1.weight f4 [32, 32]
00000000: ab51 c2bc 38d1 2ebe f1aa be3d 42c6 aabd
00000010: 475e dd3d 0e3d f7bd 95de 253e c896 9ebc
00000020: d163 2d3e 62b3 9a3d c172 f83d 52d8 cc3c
00000030: a477 ddbd afb1 a13c 44d5 203e a217 1bbe
00000040: 4489 633d 109a f8bb cd1c 063e d6a4 02be
00000050: 8949 07be 494f 2b3d d4c7 3ebd 78cc 8cbd
00000060: b758 2f3d c742 ff3d 1c9d 04be be27 7bbc
00000070: 7eb3 9cbd f905 bdbc 0db3 a9bd ba53 2c3e
00000080: d269 d93d 9e79 983d e71b 46bd 7ccd b43d
00000090: b66b d1bd 0986 11be ea61 d2bd d669 95bd
000000a0: 7464 15be 1830 d83d 65d3 a3bb 37ff 86bd
000000b0: a4e4 d9bd 07a8 123e 912a 1e3e 2fcb e9bd
000000c0: 5f54 163e d6f1 643c d7e8 6ebd 48d7 af3d
000000d0: bff4 02be b927 35be d0ed a4bc bbda fd3d
000000e0: e2f8 163e a4ca 1f3e 8e7f b03d 81ea 3e3d
000000f0: 356a 6f3c ae48 01be 3ec7 123e be78 153e
00000100: 1890 23be cacb 5dbe b414 0ebd 61ca 99bd
00000110: 3888 a3bd 0414 283e 0573 d6bc b64e 503e
00000120: ffce 69bc ea51 91bc 7592 02bc 462f 69bd
00000130: c4e9 6cbd e272 8ebd 4e90 aabd 0446 9c3c
00000140: 2cdd 6f3d 89e2 c43c ec0d 553d 96ee 83bd
00000150: 64aa 30be f9bf 863d 7068 e73c ca70 41be
00000160: b2bf 383e 984d 67bd 70d7 07be 8398 ddbd
00000170: b05b 32bd 7b07 1bbe fd9e 073d d0f7 d4bd
00000180: db9a ebbd 4cbc 373e 0d43 73bd e8f3 b6bc
00000190: 57dd d2bd c25a 3cbc 3509 dabd 30f7 e2bd
000001a0: ef62 c3bd 3d1b 35bd d8b2 643d 7e16 8a3d
000001b0: 3781 e63d 92d9 b4bd ee16 16be f1f5 bfbc
000001c0: b7f7 083e 9c30 d03c 1499 1c3e 73bb 0e3e
000001d0: 2524 e33d fb94 9cbc 48d6 ce3c 6ff8 f9bd
000001e0: 0025 073d 91b6 0a3d 9abf 09be 3032 f4bd
000001f0: affb b8bd b628 c23b f85c 87bc 75d0 573d
00000200: 813a b5bd 1578 1d3e 56ea b9bd 50a7 d63d
00000210: 2b7a 293e c485 1b3e c5de bfbd 3eaf bfbd
00000220: 859b 8bbd 672b e7bd 7c9b 59bd 0e52 6bbd
00000230: d09d 913d eb78 143e 244c 7c3d cb34 7a3c
00000240: 7141 5abd e0bc 87bd 661c 383e 155e 25be
00000250: 784c 91bb 4700 27be 9e7b 60bd 711e 02be
00000260: b1db 3bbe ab8d a83d b655 b9bd e97a 033d
00000270: 9d96 193e c0f2 d6bc 2d75 563d 231f 83bd
00000280: e09a fc3d fff9 403e b5b1 73bd b591 14be
00000290: fda0 043e bc40 093e acf2 a93d 298b 6739
000002a0: 3a45 293d dc4a fa3c cbae d83c e76c 3cbd
000002b0: 8058 2c3d 3f0f 283e 8a54 53bd 60fb 0ebe
000002c0: 2efc eebd 4ebe 883b a32b 833d 9674 343c
000002d0: 710b 223e 766a 243d 0ceb 8f3d 71ee 22be
000002e0: 8179 ee3d c503 0d3e 001f 473d cc5e 963d
000002f0: 74a0 1fbe 2f6f 1a3e 4738 2bbc cbfd 2fbe
00000300: 1897 aa3d 8450 bc3d 9031 033e 3c59 3d3e
00000310: cd48 643c a8c3 e33d 9ca0 393e 7529 b83d
00000320: bb2d 4d3d e529 17bd 0500 00be f7f1 a83d
00000330: daf0 1cbe 0049 d63c e626 16be 1f7e 2fbe
00000340: b231 7bbd e103 33be df13 b73d cf12 003d
00000350: bd89 9abd dba3 193e afc3 813d cbe0 c53d
00000360: 82ea d1bd e22f 29be e2cc 28bd f3f3 043e
00000370: 8d42 07be 577b 03be 69fb b23c 2d26 633d
00000380: 6b80 ab3d de05 e03c 0012 c1bc 9b0f afbd
00000390: cca2 13bc 65cc 0c3e 404c edbd ca5a 32be
000003a0: bc2f 66bc f336 903b d1c2 e63d 896e 593d
000003b0: 5d89 3f3e 5261 adbd 1b94 723d a805 c2bd
000003c0: 0386 f7bd 46d7 a5bd f136 4b3e a67c debd
000003d0: 3c15 cfbc b957 003d 6768 ecbd c6e8 333d
000003e0: 0176 f5bd 3d09 143e 49a1 083e 0729 9c3d
000003f0: 9a33 ea3d c23a 8e3d 1ad4 083d 545f de3c
-0.023720583 -0.17071998 0.09309948 -0.08338596 0.108089976 -0.12072192 0.1619819 -0.019359007
0.16932608 0.07553746 0.121312626 0.025005493 -0.10813835 0.019738046 0.15706354 -0.15145734
0.05555083 -0.007586725 0.13096924 -0.12758192 -0.13211645 0.04182366 -0.04657729 -0.06874937
0.042809214 0.12463909 -0.12950557 -0.0153292995 -0.07651423 -0.023074137 -0.08286104 0.16828814
0.10615887 0.07445072 -0.048366453 0.088282555 -0.10225622 -0.14211287 -0.10272582 -0.07295577
-0.14589101 0.10556048 -0.0049995654 -0.06591647 -0.10639313 0.1432191 0.15445925 -0.11415707
0.14680623 0.013973674 -0.058327522 0.085859835 -0.12788676 -0.17690934 -0.02013293 0.12395235
0.14743379 0.15604645 0.08618079 0.04661036 0.014612724 -0.12625381 0.14333817 0.1459684
-0.15972936 -0.2165977 -0.034687713 -0.07509304 -0.07984966 0.16413885 -0.026177892 0.20342526
-0.014270543 -0.017739255 -0.007969488 -0.05692985 -0.057840124 -0.06955506 -0.08328305 0.019076355
0.058560535 0.024033802 0.05201523 -0.06441991 -0.17252499 0.06579585 0.028248042 -0.18890682
0.18041876 -0.056470484 -0.13265777 -0.10820105 -0.04354447 -0.15139572 0.033110607 -0.10398829
-0.11504146 0.17942923 -0.059390116 -0.0223331 -0.102961235 -0.011496248 -0.10646287 -0.110823035
-0.095403545 -0.04421543 0.05583462 0.06742571 0.112551145 -0.08830561 -0.14657184 -0.023432704
0.13375746 0.025413804 0.1529277 0.13938694 0.110908784 -0.019114008 0.025248662 -0.12205588
0.03299427 0.033865515 -0.13451996 -0.11923635 -0.0903238 0.0059252633 -0.016523823 0.052689034
-0.08849049 0.15377839 -0.09077899 0.10481131 0.1655051 0.15187746 -0.09368662 -0.09359597
-0.06816772 -0.11287575 -0.053126797 -0.0574513 0.071101785 0.14499252 0.06159605 0.015271376
-0.053285066 -0.06627822 0.17979583 -0.1614917 -0.0044341646 -0.163087 -0.05480539 -0.12706925
-0.18345524 0.08230146 -0.09049551 0.032099638 0.1499886 -0.0262388 0.05235784 -0.06402423
0.123342276 0.18845366 -0.059495647 -0.14508708 0.12952037 0.134036 0.08298239 0.00022081718
0.041325785 0.030553274 0.026450535 -0.046002295 0.042076588 0.16412066 -0.051594295 -0.1396308
-0.11669193 0.0041730767 0.064048074 0.011014124 0.15824677 0.04014059 0.070272535 -0.1591127
0.11644269 0.13770969 0.04861355 0.073423 -0.15588552 0.15081476 -0.010450429 -0.17186658
0.083296 0.09195045 0.12811875 0.18491071 0.013933373 0.11121303 0.18127674 0.08992282
0.05009244 -0.036905188 -0.12500007 0.08249276 -0.15326253 0.026157856 -0.14663276 -0.17137955
-0.06132669 -0.17481948 0.08939337 0.031267937 -0.07545803 0.15003912 0.06336152 0.096620165
-0.10249807 -0.16522172 -0.041211016 0.12983684 -0.13208981 -0.12840019 0.021848397 0.05545633
0.08374103 0.027346548 -0.023568153 -0.085478984 -0.009010982 0.13749845 -0.11586809 -0.17417446
-0.014049467 0.0044010817 0.11267627 0.05308393 0.18704744 -0.08465828 0.059223276 -0.09473735
-0.120861076 -0.08097701 0.19845177 -0.108636186 -0.02527868 0.03133366 -0.11543351 0.043923162
-0.11985398 0.14456649 0.13342775 0.07625013 0.114356235 0.06944801 0.0334054 0.027145065

actor.customer_encoder.0.FFN_layer1.bias f4 [32]
00000000: c771 293d 391a b73d 23df 81bc 8902 d23d
00000010: 3dd8 fc3c 19ff 05be a158 293e 3ca5 53bc
00000020: 64d0 67bd 6b81 853d 086c c83c 91fa 28be
00000030: d451 253e ddec 02bc 291b 923d 58eb 90bc
00000040: 78d4 14be ebe1 06be c32e f5bc bc3a 33bd
00000050: e016 103e 9e6d 1c3d 5bc6 273e 4c98 1e3e
00000060: e46c b03c 06ca 61bd 4c0e 6ebb 40c5 76bd
00000070: b762 34be e472 803d 786c 963d 5140 51bd
0.041368272 0.089405484 -0.01585347 0.1025439 0.03086483 -0.13085593 0.16537715 -0.012917813
-0.05659522 0.06518825 0.024465576 -0.16501833 0.16144496 -0.007991043 0.07134087 -0.017690346
-0.14534175 -0.13172118 -0.029929524 -0.043757185 0.14071226 0.038190477 0.1638426 0.15487784
0.021536298 -0.055124305 -0.003632444 -0.060246706 -0.17615782 0.06271914 0.073449075 -0.051086728
