output/282nodes_entropy0.01_0.4_0.85_2_230823/epoch82.pth (torch, 519145 bytes, 129 tensors)

critic.ff_layer1.weight f4 [32, 283]
000000 71 7f 0d 3e 2a 2d c9 3d 5f d7 1a 3b 1e 6c 17 3d
       0.13818146 0.098230675 0.0023626906 0.036968343
000010 e4 57 07 bc 68 24 f3 bb 11 cb 5b bc 34 90 09 3d
       -0.008260701 -0.0074201114 -0.013415114 0.03358479
000020 da 31 22 3d d9 1c d7 bc 1d 01 21 3d ae 35 37 3c
       0.039598323 -0.026258873 0.039307702 0.011182232
000030 69 af b6 3c 3b 19 e1 3c d9 47 0b 3d c4 c9 b7 3b
       0.022300439 0.027477851 0.034004066 0.005608769
000040 15 95 05 3d 80 fb 0e 3c db 19 20 3c f6 4a db 3c
       0.03261288 0.008726954 0.009771789 0.026769143
000050 4e ba 8c bc 78 7e 27 3d 21 e0 04 bc 6c 8b 77 3d
       -0.01717868 0.040892094 -0.008110077 0.060435697
000060 9c 30 50 bc 4a f8 36 bb 00 24 05 bd bb cc 88 bc
       -0.012706902 -0.0027918988 -0.032505035 -0.016699186
000070 85 76 2c 3b 04 30 23 bc d5 b4 80 3d 6c 7a 7b bc
       0.002631576 -0.009960178 0.06284491 -0.015349012
000080 48 b3 79 3d 4f 94 e4 3c eb f1 b7 bb 34 d8 3f 3d
       0.06096199 0.02790275 -0.0056135557 0.046837047
000090 49 64 b7 3c 5e 3a 91 3d 40 45 08 bc f2 3c 79 bc
       0.022386687 0.07091211 -0.008317292 -0.015212284
0000a0 80 1d 32 3d 92 cd fa bb 56 87 25 3b 63 7b 29 3d
       0.043485165 -0.0076539004 0.0025257668 0.041377436
0000b0 9e 3b 2a 3d 2b 81 91 b8 8a ab 54 3a 9d 92 90 bc
       0.04156076 -6.938198e-05 0.00081127195 -0.017648036
0000c0 34 73 53 3c 5f 78 a4 bb 36 d1 a7 bc 6f a1 25 bc
       0.0129058845 -0.005019232 -0.020485502 -0.01010929
0000d0 db b3 cf 3b 8e 7b 29 3d a4 88 fa 3b 11 08 bf 3c
       0.006338579 0.041377597 0.0076456834 0.023319276
0000e0 ba c1 07 bc 63 42 7a 3c 63 67 ab 3d 26 bc d9 bc
       -0.008285934 0.015274617 0.08369329 -0.026578974
0000f0 5e d0 55 3d 60 29 a5 bc a5 9b 0c 3d 42 9e e7 bc
       0.052200668 -0.02016133 0.03432812 -0.028273705
000100 19 12 f8 bb aa 88 72 3b b8 fb db 3c 50 3e 86 bb
       -0.007570517 0.0037007728 0.026853427 -0.0040967837
000110 ad 29 c6 39 ea 60 57 bb e4 73 08 3e 2e c4 c0 bb
       0.00037796554 -0.0032864162 0.13325459 -0.0058827614
000120 14 3e 8d 3d 6c 53 ed bb 6c 62 c8 bc ad 6b 42 bc
       0.06896606 -0.0072426107 -0.024460994 -0.011866492
000130 39 2a 91 3c 3f 69 68 3c f4 ed c5 3c 30 8b d9 3d
       0.017720329 0.014185249 0.024161316 0.10622251
000140 63 02 17 bd c0 6b 02 bc 9e da ae 3b 4e 09 41 bd
       -0.03686751 -0.00796026 0.00533612 -0.047128014
000150 af 48 3f 3d 81 ce 8a 3c 3d 0a 0b 3d 17 6f 0c bc
       0.046700176 0.016944172 0.03394531 -0.008571408
000160 3b 55 75 3c 1b ac 35 3c 16 63 99 3a a3 eb 81 3c
       0.014973934 0.011088396 0.0011702504 0.01585943
000170 c1 b3 1f 3d 1a 50 1e 3d 91 0f 37 bc c6 2b 77 bc
       0.038989786 0.03865061 -0.011173145 -0.01508612
000180 c6 b5 75 3d 4d 08 1a bb 4f b4 ba bc 61 05 2b 3c
       0.059987806 -0.0023503483 -0.022791056 0.010438294
000190 60 4f 9b bc a0 3d 9e bc 66 41 aa bc 37 9d 17 bd
       -0.018958747 -0.019316494 -0.020783138 -0.037015166
0001a0 fb aa 38 3c 2f 6b b0 bc fe 88 1f bc 69 4b 0c bc
       0.011271234 -0.021535484 -0.009737251 -0.008562901
0001b0 af 1c 19 bd 5a 0b 05 bc e5 b6 51 3d 17 14 74 ba
       -0.03738087 -0.008120382 0.051199812 -0.0009310855
0001c0 2d e4 35 3d 98 c2 8c bc a4 80 cf bb 8c ec 82 bc
       0.04440706 -0.017182633 -0.006332474 -0.015981935
0001d0 43 8e 8c 3c f6 ef 33 bc 08 81 80 bc d0 bc 87 bc
       0.01715768 -0.010982504 -0.015686527 -0.016569525
0001e0 f4 f6 ce bb a9 46 06 3d 68 f0 5a bc 15 16 e5 ba
       -0.00631606 0.03278223 -0.013362981 -0.0017477894
0001f0 28 0e 2a bc 9e 53 96 bc b5 50 a3 bb 24 38 80 ba
       -0.010379352 -0.018350419 -0.0049839863 -0.0009782356
000200 3d 4c 28 3d 86 8c 8c 3a 84 69 e5 3c be b3 6e 3c
       0.04108833 0.0010723032 0.028004415 0.014569221
000210 07 b4 15 bd 28 f7 d6 3c 54 91 8e 3b 88 dc 1d bb
       -0.03654864 0.0262409 0.0043508206 -0.0024087746
000220 7d 83 2b bd 7d dc dd bc 03 4e 86 3c 19 f0 dd bc
       -0.041873444 -0.027082676 0.01639462 -0.027092027
000230 a3 4b 28 39 5e 85 82 ba 84 2d 7b 3d 8a 93 93 3c
       0.00016049905 -0.0009957959 0.061322704 0.018014688
000240 ab 3e 9e bc f5 31 4b 3c d7 ad 0f 3d fe f8 59 3d
       -0.019316992 0.012402047 0.035077896 0.053215973
000250 57 99 7e 3c 93 10 05 bd c0 72 f1 bb 7c 6f d4 bc
       0.015539489 -0.03248651 -0.0073684156 -0.025932066
000260 9d c7 9f 3c f8 38 1d bb 3c e8 e1 3d 78 c9 f7 bc
       0.019504363 -0.0023990255 0.11030623 -0.030247435
000270 8c 82 2d bb 83 b9 0d bc 16 67 29 3c 8d af fb bb
       -0.0026475517 -0.0086501865 0.010339519 -0.0076808394
000280 58 4b a0 3d ef d6 27 bd a1 bb 6e 3c b2 95 64 bc
       0.07826871 -0.04097646 0.014571101 -0.013951706
000290 9d f6 5f 3d 25 13 12 3d 39 4e c2 bb 76 0d 99 3d
       0.054678548 0.03566279 -0.005929735 0.074732706
0002a0 ff 52 35 bc f0 37 bb bc c0 84 9c bc 5e 4c bf bc
       -0.011067151 -0.022853822 -0.019106269 -0.023351844
0002b0 01 d4 89 3d 45 09 21 bc f1 cd 55 bd c8 1c 81 3c
       0.0672989 -0.00982887 -0.052198354 0.015760794
0002c0 87 57 17 3c 6e 79 f7 3c 22 0b 6e 3d cb c3 98 3a
       0.009237177 0.03020927 0.058116086 0.001165503
0002d0 9e 9f a5 bb b4 ef 40 3d 2b df 85 bc 6e 0c 6f bb
       -0.0050544282 0.0471036 -0.016341766 -0.0036475915
0002e0 d9 25 22 3b b7 78 a0 3c 14 15 2c bc 75 cb 02 3d
       0.0024741797 0.019588811 -0.010503072 0.031932313
0002f0 e1 37 50 bc 81 9e 55 bc 34 d9 24 bb 72 9c 0d bd
       -0.012708635 -0.013038279 -0.0025153877 -0.034573026
000300 48 68 67 3d c2 c6 32 3c 87 f2 c2 3b fd e6 13 3b
       0.056495935 0.010911645 0.0059493217 0.00225681
000310 45 2b 62 3d b8 0e c0 bc 68 75 3f bc 8f bb 3b 3c
       0.055217046 -0.023444518 -0.011685707 0.011458292
000320 97 83 34 bc b0 b3 24 bc 1f 47 89 3d 2d 7e 3e 3d
       -0.011017702 -0.010052606 0.067030184 0.04650705
000330 e5 33 36 bc 71 56 ed bc 00 1c 00 bb c1 cc af bc
       -0.011120771 -0.028971883 -0.001954794 -0.021459939
000340 87 4f 35 bb 06 83 8a 3d d7 5f 44 3d 42 76 5d 3d
       -0.002766581 0.06763272 0.047942962 0.054067858
000350 03 6f 65 bc fb fc 00 bd 5a 54 95 bb 11 bb 07 3d
       -0.014003518 -0.03149126 -0.0045571746 0.033137385
000360 3e 32 9b 3b ae 4f 1e 3c 49 73 c6 3c e8 74 08 3b
       0.004736214 0.009662552 0.024224894 0.0020821635
000370 d9 93 6e bc 7b 6e c1 3d ca 51 33 3b e6 e6 c4 bc
       -0.014561617 0.094449006 0.0027361983 -0.024035882
000380 23 a2 99 bc c5 f0 85 3d bd 35 67 3d 66 a2 0b 3c
       -0.01875407 0.06540064 0.056447733 0.0085226055
000390 c1 36 a0 bc 58 91 01 bc 54 28 69 bc 2c 05 7e 3d
       -0.019557359 -0.007908188 -0.014230806 0.06201665
0003a0 36 01 b9 3b fc 3d 52 3d 69 59 70 3b aa 7d 7b 3b
       0.0056458963 0.051328644 0.0036674386 0.0038374462
0003b0 af 1d 4b bc eb 29 eb ba 52 93 15 bd e3 45 2d 3c
       -0.012397214 -0.001794157 -0.03651745 0.010575744
0003c0 bb ce 07 3d 5f 04 9e bc e1 ea 15 3c 4c 37 6d bc
       0.033156138 -0.019289194 0.009150238 -0.014478516
0003d0 52 79 cc b9 94 d4 2d bc a8 d3 18 bd 30 d8 2d bb
       -0.00039000303 -0.010609765 -0.037311226 -0.0026526563
0003e0 2c 81 85 bc d1 96 af 3d 6f 5d 13 3d fe 20 c2 bc
       -0.016296946 0.08573688 0.035977777 -0.023697373
0003f0 2a 33 b6 bc 24 c6 b6 3a 54 fa 88 3a 5a ac 62 bc
       -0.022241194 0.0013944549 0.001045058 -0.013835037

critic.ff_layer2.weight f4 [283, 32]
000000 a1 32 cb bd e1 4e da 3e 3f a9 bd 3c 08 f1 69 be
       -0.09921766 0.42638305 0.023151992 -0.22845852
000010 0c c5 56 3e 51 cb fa bd 94 2c 53 3e 7c 47 ad bc
       0.20973605 -0.12245811 0.20622474 -0.02115225
000020 e1 21 39 be 19 45 b2 3d 2b 5b b5 bd 9d 28 ff 3d
       -0.1807933 0.087045856 -0.088552795 0.12458918
000030 ff cf 44 be 63 f7 33 be 80 2a 8a 3c b6 6e 07 3f
       -0.19219969 -0.1757484 0.016865969 0.52903306
000040 07 54 ee bd 62 a5 16 be 25 21 84 3e b3 31 93 3e
       -0.11637121 -0.14711526 0.25806537 0.28748855
000050 a4 21 01 3f b0 cb 04 be 76 f3 2c bd 48 5f 26 be
       0.50441957 -0.12968326 -0.04222437 -0.16247284
000060 c9 b9 ee 3e 6d 96 62 3e 00 25 25 3e 30 a1 55 be
       0.46626118 0.22127695 0.16127396 -0.2086227
000070 3a ed 21 3e 0f 89 2a 3e ec c1 69 3e 57 5e cf 3e
       0.15813151 0.16653846 0.22827882 0.40501663
000080 4f 11 f0 bd ae cb d2 bd b6 0b 10 3e 0c c3 53 3d
       -0.11722051 -0.10292755 0.14066967 0.051699683
000090 d1 2c 12 bd 10 ca 69 bd 94 7a 23 be 36 7b 66 be
       -0.03568727 -0.057077467 -0.15964729 -0.22507939
0000a0 cf d2 01 be 40 02 00 be fb b4 b8 bc b9 02 4a be
       -0.12678073 -0.12500858 -0.022547236 -0.19727601
0000b0 52 21 a5 3d 2b 38 21 be a2 a2 d5 bd 27 5c 9f bd
       0.08062996 -0.15744083 -0.1043141 -0.077812485
0000c0 68 09 d9 bd df 10 6f 3d 3a 88 25 3d d9 3b de 3d
       -0.10597497 0.0583657 0.04041312 0.10851259
0000d0 1a fb 05 bd 73 37 db 3c a7 53 1b bd 0e cb 81 3d
       -0.032710172 0.026759839 -0.037921574 0.06337558
0000e0 18 08 3e 3d 40 76 15 3d 47 26 28 3e 0c 30 5f 3d
       0.046394438 0.036489725 0.16420852 0.05448918
0000f0 ea fe 73 bd 19 71 fa 3d 98 34 ca bd b5 5f 71 bd
       -0.059569277 0.12228603 -0.09873313 -0.058929164
000100 2c e6 9b bd 70 ec 9a bc 75 c9 33 3d c7 fd 2b be
       -0.07612261 -0.01891157 0.043893296 -0.16796027
000110 33 f6 0d be 54 b1 f3 bc 4b 5d 24 3c 1c a2 14 3e
       -0.13863449 -0.029747643 0.010032008 0.14514965
000120 d1 b6 0c be 17 a0 32 3d 07 77 90 3d a6 0e 0c be
       -0.13741614 0.043609705 0.07053953 -0.13677463
000130 97 c0 0b 3d 90 43 41 bd 22 46 e2 3c 13 ab f6 bc
       0.034119215 -0.047183573 0.027621333 -0.030110871
000140 b1 fc d4 bd 6a 03 99 bd 1d 92 0c 3e 96 6e 24 bb
       -0.103997596 -0.07471354 0.13727613 -0.0025090328
000150 2b e6 58 bd 44 3d 17 3d 35 9f 04 3e a3 83 c7 bd
       -0.05295388 0.03692366 0.12951358 -0.097419046
000160 80 5c 81 bd 64 95 8f bd 48 13 a6 bd 19 ca 0e bd
       -0.06316471 -0.07010916 -0.08109146 -0.034860704
000170 f7 0a 88 bc 4d c8 83 bd 82 c4 62 bd 6f b6 ed bd
       -0.016606791 -0.06434689 -0.055363186 -0.11607062
000180 01 b8 10 be 8d 3f 07 bd 44 60 a7 3d 56 5a 8d 3d
       -0.14132692 -0.03301959 0.08172658 0.06901996
000190 76 f4 0a 3e 9e f5 79 3d 27 40 00 be 11 56 44 bd
       0.13569817 0.061025254 -0.12524472 -0.04793364
0001a0 81 df 01 be e3 dd 22 3d b0 64 28 bc 7c 76 26 3d
       -0.12682916 0.03976239 -0.010277912 0.04064034
0001b0 70 1e 13 be e8 14 9a 3d 8c bd 0e be 36 1e 35 bd
       -0.1436708 0.07523519 -0.13939494 -0.044218265
0001c0 74 fe 23 be 7f 27 43 3d 9a 65 f4 bd c4 ac 37 be
       -0.16015035 0.04764509 -0.119334415 -0.17936999
0001d0 ed 09 07 bd d7 b8 cc 3d b8 54 3a bd e9 28 19 3d
       -0.03296845 0.09996193 -0.04549095 0.03739253
0001e0 43 47 1a 3a a9 58 36 be 9b 97 6f 3d 22 fc cb 3c
       0.00058852526 -0.17807259 0.05849419 0.0249005
0001f0 13 9d 0a be 71 74 69 3d 1d c1 0b 3e 94 7b e4 3d
       -0.13536482 0.056995813 0.13647886 0.11156383
000200 4f 67 1a be cc b9 c5 3c 4a 3f 11 3e 2d 5d 2a b9
       -0.15078472 0.024136446 0.14184299 -0.00016247174
000210 9e 80 af bd ce db 5e 3d e4 38 4a be 2f 5f c2 bd
       -0.08569454 0.05440884 -0.19748265 -0.09490811
000220 d0 25 c5 bc ad 39 cd 3d e9 69 88 bd 2c 4a cc 3d
       -0.024065882 0.100207664 -0.06660826 0.09975085
000230 bb b8 84 3c 59 fd 41 3b c0 b5 8a 3d 37 a5 70 bc
       0.016201368 0.002960047 0.06772947 -0.014687828
000240 fc 04 7d 3d 32 03 5a 3d 8a d9 8c bd 8c 5b 83 3d
       0.06177233 0.053225704 -0.0687743 0.064139456
000250 f2 b2 09 bd 9a 8a f1 bd 98 f3 d9 3c e4 89 8e 3c
       -0.03361792 -0.11794014 0.026605412 0.017399736
000260 c1 ac fd bd 5d cb 80 3d bc 2b b0 3d d5 53 df 3c
       -0.12386466 0.062887885 0.08602092 0.027261654
000270 db ea 19 bd 1b dc ba 3c 97 3c 1f 3d 6f 69 3b bd
       -0.03757749 0.022810033 0.038876142 -0.045754846
000280 e4 e9 d2 3c 00 3d ca bd 5e f2 8c bc 10 ed ed bc
       0.025746293 -0.09874916 -0.017205413 -0.029043704
000290 5d 44 90 3d 49 ef 2f 3d 7d 6a f7 3d a4 a7 fe bd
       0.07044289 0.04295281 0.12080858 -0.12434319
0002a0 0a 91 4c bd aa 53 d4 bc 1a 8f e7 3d f4 cb 00 3e
       -0.049943008 -0.0259188 0.11306591 0.12577802
0002b0 12 cb 64 3d c0 0a d8 bd 7e 9b e8 bd 75 fe 97 bc
       0.055857725 -0.105489254 -0.11357783 -0.018553952
0002c0 13 32 4c be 97 7c a4 bd 3a 00 51 bd 1e 27 3e 3d
       -0.19940977 -0.08031576 -0.051025607 0.046424024
0002d0 13 24 95 bd 64 a8 23 be b7 7c 8e 3d cd d8 11 be
       -0.07282271 -0.15982205 0.06957381 -0.14242859
0002e0 ca 8d 31 bc cd 34 ed 3d 31 6d 40 3d 2e 6b 09 be
       -0.010837028 0.115823366 0.046979133 -0.13419792
0002f0 56 0e 96 bc 68 ce 17 bd 08 4d 89 3d 33 6f ce 3d
       -0.018317383 -0.03706208 0.06704146 0.10079803
000300 5e 14 d3 3d f3 59 23 bd 79 18 be 3d d6 01 0f be
       0.10306619 -0.039880704 0.092820115 -0.13965544
000310 8c 31 df 3d c9 8b 90 3d 6f 49 22 be 1a e1 45 bd
       0.10898122 0.07057912 -0.15848325 -0.048310377
000320 74 75 83 bd 9b 5d 80 bd b1 35 86 bc dd af 89 bd
       -0.06418887 -0.06267854 -0.016383024 -0.067229964
000330 26 70 7d 3d 0b 41 8b bd 12 54 fe 3d f6 cf 96 bc
       0.06187453 -0.06799515 0.12418379 -0.01840971
000340 f0 cb 9c bd 5d 26 a8 bc 1e 9d 4a 3d a5 70 c1 bd
       -0.076560855 -0.020526106 0.049466245 -0.09445313
000350 15 62 39 bd 41 43 08 be cc a2 ce 3d 54 ca e0 ba
       -0.045259554 -0.13306905 0.10089645 -0.0017150142
000360 22 af 11 bd 93 c7 82 3d 92 0c c1 3b b1 a9 a9 bd
       -0.03556741 0.06385722 0.005891391 -0.08284319
000370 f9 e7 32 bd a9 c2 10 bc dd 43 0c 3e d9 5d b9 bd
       -0.043678258 -0.008835473 0.13697763 -0.09051103
000380 0b 90 1b be 95 6f 21 be 37 8a ff bd 8b 51 89 bd
       -0.15191667 -0.15765221 -0.12477534 -0.06705006
000390 5f 43 83 3d 49 42 f7 3c 23 25 d6 3c 47 79 e2 3b
       0.064093344 0.030182974 0.026140755 0.00691143
0003a0 43 1b 59 bc 21 71 0f be 68 71 eb 3d 5c c4 fb 3d
       -0.013251129 -0.14007999 0.1149624 0.12293312
0003b0 0d ed 04 3b ad 06 96 3b 55 7a b0 bb 8d e4 c8 bc
       0.0020282895 0.0045784325 -0.005385677 -0.024523044
0003c0 37 77 43 bc 79 10 80 3c ad 74 c9 bd d2 50 31 bc
       -0.0119302785 0.015632855 -0.09836707 -0.010822492
0003d0 85 3a d1 bc ba 86 03 be 49 2f 3e 3d 92 30 72 3d
       -0.0255406 -0.12844363 0.046431813 0.05912835
0003e0 43 f7 52 bc f8 b3 40 3d c5 5d 74 bd fa f6 98 3c
       -0.012876335 0.04704663 -0.059659738 0.018672455
0003f0 d8 c9 19 be cb 9e 1c 3d b3 08 02 be 94 de d0 bd
       -0.15018404 0.038237374 -0.12698631 -0.101987034

actor.customer_encoder.0.attention.query_embed.weight f4 [32, 32]
000000 10 47 be 3e 73 2b b4 3c 9c d3 34 3e ac a2 ba 3e
       0.3716359 0.021993374 0.17658848 0.36452234
000010 b0 7e bf be 81 2d 9d bd a7 64 2e be 67 71 5d be
       -0.37401342 -0.07674695 -0.17030583 -0.21625291
000020 43 3a 52 3e b4 cd 2f 3e 99 d7 9d 3e 76 57 d4 3e
       0.20530038 0.17168313 0.3082855 0.41472977
000030 c1 b7 7f be 7a 22 a7 3d 68 aa 1a 3e 3e 2f 9a bd
       -0.2497244 0.08160873 0.15104067 -0.07528542
000040 08 e7 6d 3e 80 72 a6 3e e1 e6 d3 be 2b 53 05 be
       0.23232663 0.32509232 -0.41387084 -0.13020007
000050 27 4e 05 3e 9b ae 9a be 47 2a 0c be 60 e1 1f 3e
       0.13018094 -0.30211338 -0.13688003 0.15613317
000060 eb bc 01 3e a4 aa 4d be 01 54 90 bc 64 54 9b 3d
       0.12669723 -0.20084625 -0.017618181 0.075844556
000070 c7 6b d5 3e 83 ec 83 be 8a e0 43 3d 07 42 05 be
       0.4168379 -0.25766382 0.04782156 -0.13013469
000080 4c ee c4 3e df 07 8a 3e 19 39 7a bc 82 f6 0a be
       0.38463056 0.2695913 -0.015272402 -0.13570598
000090 fe a6 a1 3e 20 c2 86 bc 94 61 bc bd 51 6e 93 3e
       0.31572717 -0.016449988 -0.09198299 0.28795102
0000a0 2a c6 af 3d 9c 7d 61 3c 3b d4 ae 3e de 00 0d be
       0.08582719 0.013762858 0.34146294 -0.13769862
0000b0 f9 eb 7e 3e bf 63 5c 3e 5a 7f 50 be 67 f5 a8 3e
       0.24894704 0.21522425 -0.20361081 0.32999727
0000c0 7c 3f 06 3e 6a 51 80 be 58 1e 77 3e 3f 64 a4 be
       0.13110155 -0.25062114 0.24132669 -0.32107732
0000d0 af 61 2e ba 84 f9 0a 3e a8 5d 1a 3e f3 a5 ad be
       -0.0006652129 0.13571745 0.1507479 -0.33915672
0000e0 18 c8 ab 3e 57 b6 9a 3e 26 98 6d 3e 75 0d 22 3e
       0.33551097 0.3021724 0.23202571 0.15825446
0000f0 52 68 3d be b2 f4 7f 3e 68 fe 8a 3d a3 fb a4 bd
       -0.18496826 0.24995688 0.067868054 -0.080558084
000100 b7 4a 25 be 2f be b3 3d 32 d2 05 be a0 a9 a7 be
       -0.16141783 0.08776509 -0.13068464 -0.327466
000110 20 5c 34 be 4a 14 24 be ef 6f 1c bd 34 cc 4d be
       -0.17613268 -0.16023365 -0.038192686 -0.20097429
000120 cf 0a b0 bd d5 56 56 be 05 2e 8d be 18 ce 1d 3e
       -0.085958116 -0.20931561 -0.27574173 0.1541065
000130 3e 5d 2b bd 1e 58 32 be ea a6 85 bd 2a ed b4 3c
       -0.04183697 -0.17416427 -0.06525977 0.022085745
000140 08 3b 8c be 59 41 4e 3e f7 80 45 3e 1d d7 56 3e
       -0.27388787 0.20142116 0.19287477 0.20980497
000150 2e 03 4d be 40 c7 b7 3e 42 ff 7a 3e 81 c5 22 3e
       -0.20020744 0.35894203 0.24511436 0.15895654
000160 40 cf 2a 3e fb ca 43 be 00 54 86 3d f1 7e 86 3e
       0.16680622 -0.191204 0.065589905 0.26268724
000170 3c f8 b5 3d dd b9 58 3b db 3c c1 be ec eb b6 bd
       0.088852376 0.0033069768 -0.37741742 -0.08931717
000180 ec ce 50 be c0 ad 8c 3e 15 5b e7 bc fa ff 8b bd
       -0.20391434 0.2747631 -0.028241673 -0.06835933
000190 08 24 c3 be 77 5d 91 be db 00 1f be 08 39 22 3e
       -0.38113427 -0.2839162 -0.1552767 0.15842068
0001a0 fa 24 82 bd 0b 32 1d 3e 4b ac b5 3e 11 08 3b be
       -0.06354709 0.15351121 0.35483012 -0.18264796
0001b0 8c 7f 8e 3d 71 7b 81 3d 64 8d 8c be 96 cb 03 bd
       0.069579214 0.06322373 -0.27451622 -0.032176577
0001c0 fd 34 aa 3d 53 94 26 be f5 7d 8f be 9f 55 89 3e
       0.08310888 -0.16267519 -0.28025785 0.26823136
0001d0 f9 e3 d6 3d 58 48 ad be 32 94 bc be ae 1f 28 3d
       0.10492701 -0.33844256 -0.36831814 0.041045837
0001e0 06 8b 2f be d1 51 9e 3d b7 39 3c 3e 14 8c aa 3d
       -0.17142877 0.07730449 0.18381391 0.08327499
0001f0 02 bd 7e 3e 47 d9 11 3e 5f 32 a3 bc ee c2 6e 3d
       0.24876788 0.14243041 -0.01992148 0.05829137
000200 09 3a fd bd 85 37 3e be 63 b4 c2 be de 9c 05 3e
       -0.12364585 -0.18575867 -0.3802825 0.13048121
000210 8b cb 9d 3e 86 6e fe bd a9 ca 5e 3e ed e6 8c 3e
       0.30819353 -0.124234244 0.21756996 0.27519932
000220 e1 c9 87 3d 20 07 35 3e 38 b4 23 ba 3b f6 2b 3e
       0.06630302 0.17678499 -0.0006244811 0.16793148
000230 08 f7 4d 3e b1 5c 4f 3e 7f 57 9a 3e 09 97 0e be
       0.20113766 0.20250203 0.3014488 -0.13924803
000240 56 9b d0 3d 9e 67 09 3e dd 1c 68 be d8 5e 8c be
       0.10185878 0.13418433 -0.2266726 -0.2741611
000250 77 dd 13 bd ed 66 39 3e 44 1f 9c 3e 81 19 e5 bd
       -0.036099877 0.1810567 0.30492604 -0.11186505
000260 09 a8 2b be 19 fe 9d be 65 69 40 3e da 81 54 be
       -0.16763319 -0.30857924 0.18790205 -0.2075266
000270 5d 14 a2 3d e9 16 11 3e 66 59 8f bd ed 59 ae 3e
       0.0791404 0.14168896 -0.06999473 0.34052983
000280 0b ec 87 3e 7e 15 2c bd 4a b6 25 3b 06 86 70 3e
       0.26547274 -0.042012684 0.0025285655 0.23488626
000290 1e 7d 5e be 79 61 93 be 42 1d 6f 3e 9e 3a 3c be
       -0.21727416 -0.28785303 0.23351005 -0.18381736
0002a0 49 a1 b6 3c 31 ab a4 3c 57 e9 85 3e fa 59 85 3d
       0.022293704 0.020101162 0.26154587 0.06511302
0002b0 58 e9 e3 3c 01 77 ad 3d 66 6f 17 be 7c b4 b3 be
       0.027821228 0.08469964 -0.14788589 -0.35098636
0002c0 e1 ca 98 3e b7 28 89 be 43 37 8c be dd 2c bd bd
       0.29842284 -0.26788875 -0.2738591 -0.092370726
0002d0 11 8e 5f 3e dc a2 1c be 76 8a 84 3e 99 c5 fa 3d
       0.21831538 -0.15296501 0.25886887 0.1224472
0002e0 9e 63 7a 3e 21 31 0a be 0c b1 2d 3e ac e0 b4 3d
       0.24452063 -0.13495304 0.1696207 0.08831915
0002f0 2a 4b a6 3e 9f 49 2d be 42 13 a6 3e a7 8e 6b be
       0.3247922 -0.16922615 0.32436568 -0.23003636
000300 da 0a 53 be b0 30 a8 3e 8a bb 5a 3e d6 4a 6d 3e
       -0.20609608 0.32849646 0.21360603 0.23173079
000310 5d b5 57 be 6d e8 a3 3e d3 ea bf bd f7 19 9d 3e
       -0.21065278 0.32013264 -0.09370961 0.30683872
000320 96 7e 58 3e c7 e3 a8 be ba a2 8a bd 0a 1c cc 3e
       0.21142039 -0.3298628 -0.06769319 0.39865142
000330 4a a6 3f 3e c2 ba a3 3d 47 3f 04 bc cf 7d 17 3e
       0.18715778 0.079946056 -0.008071727 0.14794086
000340 07 dc c6 bd 89 e6 d8 bd 49 34 86 be a2 57 63 bd
       -0.09709936 -0.10590846 -0.26211765 -0.055503495
000350 a0 29 82 be 77 ba 5c be c0 ff 58 3e ca d2 4f 3e
       -0.25422382 -0.21555506 0.21191311 0.20295253
000360 2a 01 1d be 9a 8d 9b bd e7 3b 11 be ad 26 51 3e
       -0.15332475 -0.07595368 -0.14183007 0.2042491
000370 0a 5c 39 be 24 ea 4c be 62 80 38 3e c3 48 eb 3b
       -0.18101516 -0.20011193 0.18017724 0.0071803047
000380 19 28 08 3e a2 04 1b bd 89 db bf 3e 4d 96 25 bd
       0.13296546 -0.037846215 0.3747218 -0.04042654
000390 e6 b8 8e 3e a1 59 5d 3d ce f2 ac 3e 53 49 56 be
       0.2787544 0.054040555 0.33778995 -0.20926408
0003a0 b7 ad 48 3e b5 51 fe bd 5b 76 54 3e ec 39 82 be
       0.19597517 -0.12417928 0.20748274 -0.25434816
0003b0 6f e3 40 3e bb 2f 94 bd 5e f1 09 be 05 94 02 be
       0.18836759 -0.07235666 -0.1347098 -0.12751777
0003c0 0f 9b 83 3e 13 84 57 bd 45 7a bc bd 04 ed 98 3e
       0.25704238 -0.05261619 -0.092030086 0.2986833
0003d0 33 2a 68 3e 9f 98 32 3c 28 e2 0b be 02 3a b4 3d
       0.22672348 0.0109006455 -0.1366049 0.088001266
0003e0 5a 31 93 bd 1a 5f 9b 3e d0 77 13 3e 16 e2 87 3e
       -0.071871474 0.30345994 0.14401174 0.26539677
0003f0 3c 66 64 3e e5 a2 c0 bd 15 66 84 be 12 ab 07 be
       0.22304624 -0.0940607 -0.25859132 -0.13248852

actor.customer_encoder.0.attention.key_embed.weight f4 [32, 32]
000000 19 51 0a be b6 a2 c4 3c 07 ab 8e 3d b8 a8 cc 3e
       -0.13507499 0.024003368 0.069662146 0.39972472
000010 3b ac ae 3e 5d 69 a9 be 05 46 0c 3e fa a2 6e be
       0.34115776 -0.33088198 0.13698585 -0.23304358
000020 44 d1 33 be 42 f7 28 3e 8a 2b 8e be c2 53 aa 3e
       -0.17560297 0.16500571 -0.27767593 0.33267027
000030 4f 14 b2 3d d3 32 95 3d c4 0e 7c 3e 73 dd aa be
       0.0869528 0.072850846 0.24615008 -0.33372077
000040 1c 04 99 3d c3 8e b6 3d 6b c0 4c be 36 3f 19 be
       0.07471487 0.089139484 -0.19995277 -0.1496552
000050 ef a8 c4 3d b1 df ab 3e 0f e2 07 be 02 72 63 3e
       0.09602534 0.335691 -0.13269828 0.2221146
000060 a9 9c 29 3e 27 6c 49 be ff 15 83 be f1 c1 10 bd
       0.16563667 -0.19670163 -0.2560272 -0.035341207
000070 17 b7 83 3e 08 44 7c be 36 38 77 be 4d fc 90 3e
       0.25725624 -0.24635327 -0.24142537 0.2831749
000080 4d 2d 54 be 92 55 77 be a3 34 52 bc d7 62 a5 3e
       -0.20720406 -0.24153736 -0.012829932 0.3230197
000090 70 fb 6b 3e eb 60 46 3e 34 df 65 3d 23 3c 48 be
       0.23045135 0.19372909 0.056121066 -0.1955419
0000a0 ed d3 8f be 18 27 3c 3e 96 8a eb 3d 52 91 b4 3d
       -0.28091374 0.18374288 0.115010425 0.0881678
0000b0 16 b4 e5 bd 33 60 b7 be 4d 74 db 3c 88 01 46 bd
       -0.11215989 -0.35815582 0.026788855 -0.048341304
0000c0 90 1f d6 bc 39 2e 3b 3d a6 ff 49 be ae 12 59 be
       -0.026138097 0.04569838 -0.19726428 -0.21198532
0000d0 53 c4 ae bd fe 59 02 3e fe 72 66 be 08 76 a9 3e
       -0.085335396 0.12729642 -0.22504804 0.33097863
0000e0 ce c0 ae be f3 05 5c be 8b b1 ce 3d d2 07 af be
       -0.34131473 -0.21486644 0.100924574 -0.34185654
0000f0 e1 b4 51 be 18 4d 25 3e 94 ec 76 be 43 b8 df 3d
       -0.20479156 0.1614269 -0.24113685 0.10923817
000100 f6 ee 36 be 48 d0 18 be b7 6c 63 3d df c4 db 3c
       -0.17864594 -0.14923203 0.0555236 0.026827274
000110 71 f9 a7 3e 64 89 96 3d a6 d2 84 3d 85 46 51 be
       0.32807496 0.07350424 0.064854905 -0.20437057
000120 1c d4 8f 3e 07 f9 81 bc 9e 84 53 3e bf 2f 8f be
       0.28091514 -0.015865816 0.20656058 -0.27966115
000130 62 e0 43 3e 59 8f 8f 3e ac 1e 55 3e eb a7 90 3e
       0.19128564 0.28039053 0.20812482 0.2825311
000140 ce 8d 1c be ef 19 79 be 83 02 0e 3e 1f bb 26 3e
       -0.15288469 -0.24326299 0.13868146 0.16282319
000150 fb 88 52 be c8 05 e6 bd 5c 32 67 bb ad 1f ea bb
       -0.20560066 -0.112315714 -0.003527782 -0.0071448893
000160 82 5f 2f 3e b6 c9 85 3e 61 9c d3 3d a9 b1 12 be
       0.17126277 0.26130456 0.10332561 -0.14325584
000170 d4 7b 68 be eb bd 99 3e 49 55 ef 3c 5b 43 33 be
       -0.22703487 0.30027708 0.029215472 -0.17506163
000180 d2 dd 80 be ec 9b 85 be 98 33 a7 3e 0d f0 3c be
       -0.25169235 -0.2609552 0.3265655 -0.18450947
000190 f2 48 ae be 16 df 92 be 15 ff 41 be 89 fa b9 3c
       -0.34040028 -0.28685826 -0.18944962 0.022702472
0001a0 20 bd 70 be 1f 66 27 3e a8 fa 9f bd ad 20 09 be
       -0.23509645 0.1634755 -0.07811481 -0.13391371
0001b0 bd 81 7e be 6e f7 aa bd 69 54 c3 3e d0 65 b5 bb
       -0.24854179 -0.08347975 0.38150337 -0.0055358186
0001c0 5d 26 cb 3d 9d 59 bb be 26 fe 44 3e 10 98 10 3d
       0.099194266 -0.36591807 0.19237575 0.035301268
0001d0 81 30 96 bd 10 1b d0 3c 1d 12 24 be 52 51 8d be
       -0.0733347 0.02540353 -0.16022535 -0.27601105
0001e0 dd 66 43 be b0 89 d6 3d c2 53 9c 3e 76 11 7f be
       -0.19082208 0.104754806 0.30532652 -0.24909005
0001f0 ad 06 3c 3e 8a 8f 0c be b7 16 8c 3e a1 15 57 3d
       0.18361922 -0.13726631 0.2736108 0.05251086
000200 f4 1a a0 be 3f 00 8e be 21 92 bd 3d cd c7 34 3e
       -0.31270564 -0.27734563 0.092563875 0.17654343
000210 15 b7 d0 3d f9 93 d9 3d 93 89 41 bd 45 af 5a be
       0.1019117 0.10623927 -0.04725034 -0.21355923
000220 3b b6 0d 3d 28 b9 95 be 9a e2 39 3e 43 e6 02 be
       0.034597617 -0.29242826 0.18152848 -0.1278315
000230 ce 93 9a be 6e 0a f0 3c 18 a7 c6 3d b5 46 89 be
       -0.3019089 0.029301848 0.09699839 -0.26811758
000240 9b 2d 5d be e2 69 40 bd c9 e2 0b be 86 7e 97 3e
       -0.21599428 -0.046975978 -0.1366073 0.29588717
000250 84 3e 91 3d ca 27 f0 bd 8b 90 92 be c2 15 7e be
       0.07092002 -0.11726339 -0.28625903 -0.24812987
000260 74 c4 02 3e 4c 09 8f bd e4 b7 5b 3d fc 61 95 3d
       0.12770253 -0.06984195 0.05364217 0.0729408
000270 79 e7 77 3e 92 90 68 bc 1f b2 20 3e f3 12 a8 be
       0.24209394 -0.0141946245 0.15692948 -0.32826957
000280 97 4d 83 3e 12 0f a7 be 72 be fe bd f9 0e a3 be
       0.25645134 -0.32628685 -0.12438668 -0.3184736
000290 dc e7 4c 3e a6 31 f7 bd cf b7 ba be e2 9d 21 be
       0.20010322 -0.120700166 -0.3646836 -0.15782884
0002a0 41 d0 48 3e 5d 47 86 3e 3c 00 62 3e dd 50 ac be
       0.19610693 0.2622632 0.22070402 -0.33655444
0002b0 35 71 26 be 65 c7 84 3d 8b 54 67 3b ec 7f 51 be
       -0.16254123 0.06483344 0.0035298194 -0.20458955
0002c0 27 7f b3 3e 10 35 78 be 0a f7 71 3e 8d 6c 5e 3e
       0.35057947 -0.24238992 0.23629394 0.21721096
0002d0 2f c8 a1 be 6a de 56 be e7 a6 5c be a1 48 8c 3e
       -0.3159804 -0.20983282 -0.21548043 0.2739916
0002e0 ed 8d a7 be ca 04 84 3b a2 05 e3 bd 87 bd d6 bd
       -0.32725468 0.004028891 -0.11085059 -0.10485368
0002f0 8e 37 56 be 12 3e 8b be b9 dd a2 be db b1 89 bc
       -0.2091963 -0.27195793 -0.31809786 -0.01680844
000300 18 69 95 3c ae 80 87 3d a5 61 bb 3d b1 40 00 be
       0.01823859 0.066163406 0.091494836 -0.12524678
000310 aa 19 57 3e 5d d2 42 3e 87 d1 93 be f2 c1 ae 3e
       0.21005884 0.1902556 -0.28870794 0.34132344
000320 35 88 e1 bc e0 3e 22 ba c6 d7 b4 be a3 2f 3a 3e
       -0.027530769 -0.00061891787 -0.35320872 0.18182234
000330 6c c2 04 3e 34 28 c2 3d ff a2 3f 3e be 6e a8 be
       0.12964791 0.094803244 0.18714522 -0.3289699
000340 ce d9 b3 3e a3 68 61 3e 44 85 cf bd 0b 60 39 3e
       0.3512711 0.22012572 -0.1013284 0.18103044
000350 2d 91 0d be f6 13 c7 bd ac c5 84 3a da 85 68 3e
       -0.13824911 -0.09720604 0.0010129712 0.2270731
000360 0d 8d 3b 3e 0b b1 04 be 9d 97 98 be 8d bc 9e bc
       0.18315525 -0.12958162 -0.29803172 -0.019377017
000370 d5 36 1c be 2e 5a de ba e8 81 2a 3e 15 b0 7c 3e
       -0.15255292 -0.0016964132 0.16651118 0.24676545
000380 0c 67 82 3c d7 63 2b 3e 1e e5 88 3d 02 5f 41 be
       0.015918277 0.16737305 0.06684326 -0.18883899
000390 ed d7 52 3e 9c 25 6d be bc 81 fd bb 1a f9 35 be
       0.20590182 -0.23158878 -0.007736413 -0.17770806
0003a0 33 ff 05 3c f5 56 8f 3e 9b 3d fe 3d 2f b8 e5 bc
       0.00817852 0.2799603 0.12414094 -0.028041927
0003b0 94 1c 9f be 77 4b 88 be 30 63 c2 bd 22 dd 2a be
       -0.3107649 -0.26620075 -0.09491575 -0.16685918
0003c0 fb bf 89 3d 97 a1 a6 be 1b 1e ae 3e 70 30 b3 bd
       0.067260705 -0.32545158 0.34007344 -0.08749473
0003d0 f4 57 6a 3e 75 b5 74 3e d7 db 90 3e 82 68 4e bd
       0.22885114 0.23897345 0.28292724 -0.050392635
0003e0 10 ce d8 3c d9 4f 3b 3e 13 02 8a be 1e e6 b9 bc
       0.026465446 0.18292178 -0.26954708 -0.022692736
0003f0 21 64 0a 3e 13 ba 0b bd 91 86 81 be 13 2b 45 3d
       0.13514759 -0.034113 -0.2529798 0.048136782

actor.customer_encoder.0.attention.value_embed.weight f4 [32, 32]
000000 c2 70 7d 3d 91 1f a9 3e 02 2b e6 3d 34 5d 05 3e
       0.061875112 0.33031896 0.11238672 0.13023835
000010 a3 e6 aa be 46 88 11 3e 94 09 42 3e 01 04 de bd
       -0.33379087 0.1421214 0.18948966 -0.108406074
000020 69 8b 61 be 0f cb 2f bd be b0 9b be f2 8c a6 3e
       -0.22025837 -0.04291826 -0.3040828 0.32529408
000030 2f 7c 5b be 31 ec a2 3e 60 95 b3 be 88 c9 66 3e
       -0.21434091 0.31820825 -0.35074902 0.22537816
000040 4b 54 17 be 3d 68 8b be f0 a2 cb 3d a7 a9 a6 3e
       -0.14778249 -0.27227965 0.09943187 0.3255131
000050 27 96 2c be b0 49 4b 3d 51 19 6d be 40 e7 6b 3e
       -0.16854154 0.04963082 -0.23154189 0.23037434
000060 33 f5 a2 3e 5c 62 c5 bd 2a 6d ad 3e 01 5e 3b 3e
       0.31827697 -0.09637901 0.33872348 0.18297578
000070 cc 70 43 3d 89 c2 1b be 1e a3 79 3e 47 fc 94 3c
       0.047714993 -0.15210928 0.2437863 0.018186701
000080 0d 1d 19 be df 13 b2 be 0c 73 af be 6e 79 b4 3e
       -0.14952488 -0.34780785 -0.3426746 0.35248893
000090 f3 53 3f be ee 0c 87 be 58 8d 65 3e c8 21 cf bd
       -0.18684368 -0.26377052 0.224172 -0.10113865
0000a0 ce fa 86 be ae 2d 92 3d 93 0c 56 bd bd ad 0b 3e
       -0.26363224 0.07137619 -0.052258085 0.13640495
0000b0 c4 31 a8 3e f1 47 b6 bd 54 30 4e 3e 32 4f ca bd
       0.32850468 -0.089004405 0.20135623 -0.098783866
0000c0 ce d8 ee bd 88 7c f1 3d 60 d7 a1 bd 0b 85 c2 3d
       -0.11662446 0.117913306 -0.07902408 0.09498032
0000d0 a4 3e a1 3d c1 f7 90 be e1 b5 a9 bd 33 56 a3 3e
       0.07873276 -0.2831402 -0.08286644 0.31901702
0000e0 3e 44 0e bb 32 9c ab 3e 43 cd 88 3e 6a 33 cb bd
       -0.0021708156 0.33517605 0.26719102 -0.09921916
0000f0 cf bd 23 be d1 da ee 3d 23 23 6f bd 97 f0 3a bd
       -0.15990375 0.1166283 -0.05838312 -0.0456396
000100 63 fe c5 bc c1 d0 69 be 52 e6 63 3e 87 78 0d be
       -0.024169153 -0.2283354 0.22255829 -0.13815509
000110 d0 6d 93 be b9 64 8d be 61 f6 66 be 5d 89 85 3d
       -0.28794718 -0.27615908 -0.22554924 0.065203406
000120 ef 4c ae be 15 bd 05 3e 7f 06 5f be d0 58 2c bc
       -0.3404307 0.1306041 -0.21779822 -0.010519221
000130 89 63 af bd 95 ed d8 bd b8 9d 69 3e 43 06 f7 bd
       -0.08563907 -0.1059219 0.22814071 -0.12061741
000140 dd c6 f6 3d d1 6a 76 3e 47 da 32 3e 0f 09 1a 3e
       0.12049649 0.24064185 0.17466079 0.15042518
000150 14 c2 07 bd f6 d4 3b be 2e a7 85 be bd f1 ab 3e
       -0.03314407 -0.18342957 -0.2610411 0.3358287
000160 96 3c a4 be 2d d5 b0 bd 00 58 99 3e e7 a7 89 bd
       -0.32077473 -0.0863441 0.2994995 -0.06721478
000170 8b 04 98 be 31 31 b2 3e db 72 ba bd 92 3a 17 3e
       -0.29690966 0.34803155 -0.09103938 0.14768437
000180 61 b0 24 3e 23 96 e6 bd d4 68 af be 1f 06 4e bd
       0.16082908 -0.11259105 -0.34259665 -0.050298806
000190 bd a9 8f be 43 e0 31 be 0d 46 98 be 96 d6 28 3e
       -0.28059188 -0.17370705 -0.29740945 0.16488108
0001a0 e1 d9 7e be 40 6d 30 3e e1 3c 98 3e e2 79 34 3e
       -0.24887802 0.17229176 0.29733947 0.1762462
0001b0 6c 13 57 3e be f8 75 3d dd 4e 72 3e b4 32 aa 3e
       0.21003503 0.060051672 0.23662896 0.33241808
0001c0 28 6b 9a 3d bf d7 19 3e 0c 2a 64 3e cb 5c 2f b9
       0.0753997 0.15023707 0.22281665 -0.00016723869
0001d0 b9 9b 9b 3e b9 4d af 3d f6 b9 5c be a3 76 89 be
       0.30392244 0.08559746 -0.21555313 -0.26848325
0001e0 ce 42 b8 3d f6 0e 8f be 77 59 a3 be b4 34 a8 3e
       0.08997117 -0.27941102 -0.31904194 0.3285271
0001f0 21 a2 88 3e a9 c3 c3 bd 73 77 34 3e 74 11 f5 3d
       0.26686195 -0.095588036 0.17623691 0.119662195
000200 d0 60 a7 3e 10 d7 dc 3d eb 8c 27 3e 43 74 81 be
       0.3269105 0.107832074 0.1636235 -0.25284013
000210 37 54 ef 3d 38 77 8b be 9c 48 8a be c8 4e 47 3e
       0.116859846 -0.27239394 -0.27008522 0.19463646
000220 60 2d 31 be 4d 3b 8c 3e 4a e2 b6 bd 71 21 3c 3e
       -0.17302465 0.27388993 -0.0892988 0.18372132
000230 4c ae a8 3e b7 2f 3c 3d 89 62 a4 3e ce 0d 64 be
       0.32945478 0.045943942 0.32106426 -0.22270891
000240 36 0d 40 3e f9 91 e3 3d ff ba 89 3e 87 84 a6 3e
       0.1875504 0.111118264 0.2690048 0.32522985
000250 25 79 96 bd b7 79 9b 3d d1 b6 36 be ce a6 19 3e
       -0.07347325 0.07591575 -0.17843176 0.15005037
000260 53 dd b5 ba 5d d4 26 be 71 0e 48 be 0e 90 b4 3d
       -0.0013875164 -0.16291948 -0.19536759 0.08816539
000270 d0 2f a1 3e ed 3b a0 be 75 c2 69 3e 3e b7 7e 3e
       0.3148179 -0.3129572 0.22828086 0.24874589
000280 ae 83 9c be b5 2a 25 3e 36 18 00 3d 60 cb 88 3e
       -0.30569214 0.16129573 0.03127309 0.26717663
000290 5e 0e 99 3e 3e 07 4b 3e 96 83 0d be d0 31 9e be
       0.29893774 0.19826981 -0.13819727 -0.3089738
0002a0 77 b9 7c 3e e9 5e 49 3a fb 32 13 3e 25 5b e4 3d
       0.24680124 0.0007681684 0.14374916 0.11150197
0002b0 ee fd 3f 3d 8c 00 89 3e 31 3c b5 bd cb 5e 12 3e
       0.046873026 0.2675823 -0.08849371 0.14293973
0002c0 eb 0c 28 3e a8 65 24 be 94 6a 1b 3e 2e c1 cd 3c
       0.16411178 -0.16054404 0.15177375 0.02511653
0002d0 47 e7 b3 be 07 3e 48 3e 32 f9 9f be 95 01 24 3e
       -0.35137388 0.19554912 -0.31244808 0.16016228
0002e0 31 c2 26 be 4c 0b 30 be aa ff 4a 3e 0b df 71 bc
       -0.16285016 -0.1719181 0.1982409 -0.01476265
0002f0 19 33 84 be 73 04 fb 3d c4 3d 47 be f9 2b a5 be
       -0.25820234 0.12256708 -0.19457155 -0.3226011
000300 09 9f 91 3e c6 b0 98 be ef 43 1a be 4b 64 5a be
       0.28441647 -0.29822367 -0.15064977 -0.21327321
000310 95 4d 8a 3e 67 95 02 bd 1d 33 97 be e9 79 54 3e
       0.27012315 -0.031880762 -0.29531184 0.2074963
000320 42 00 88 3e 93 08 df 3d 96 fe 1f bd 4e 17 ae be
       0.26562697 0.10890307 -0.03906115 -0.34002155
000330 01 95 5e bd b9 a6 46 3e 24 24 76 be 7f 5d b2 be
       -0.05434132 0.19399537 -0.24037224 -0.34836957
000340 7b c6 23 bb 27 e8 67 3d 2d d8 0d be 79 7e 15 be
       -0.002499013 0.056617882 -0.13851996 -0.14599027
000350 bb 65 8c be e5 2d 5b bd cc 65 a8 3e d8 c0 96 3e
       -0.27421364 -0.053510565 0.32890165 0.29444003
000360 f0 44 71 3d db 65 9a 3a 7a b6 a1 3e 67 02 58 3d
       0.058903635 0.0011779623 0.3158453 0.052736666
000370 e2 d7 47 bd 52 85 80 be 1a 35 a7 3e f6 db ac be
       -0.048789866 -0.25101715 0.326577 -0.33761567
000380 4f 23 fd bd 4c 04 9e 3d 2e dc 30 3d a3 86 ec bd
       -0.1236025 0.07715663 0.04317873 -0.115491174
000390 8e 9c a8 be 01 7c 10 3d 83 0e ae bd fe c4 7d be
       -0.32931942 0.03527451 -0.08498862 -0.24782178
0003a0 93 92 60 be 40 d3 30 be 9a 78 a7 be c5 a9 2f 3e
       -0.21930914 -0.17268085 -0.327092 0.17154606
0003b0 ee d1 ab bb b4 b5 9c be a9 de 37 3e 5b 12 8a 3e
       -0.0052435314 -0.30607378 0.17956032 0.2696713
0003c0 26 6e a1 3d 89 14 f3 bd bf 43 e8 bd 91 22 ea 3d
       0.07882337 -0.11869151 -0.113410465 0.11432374
0003d0 fa f5 aa 3e 43 1b 10 3d 10 e2 09 be a0 23 45 bd
       0.3339079 0.03518225 -0.13465142 -0.048129678
0003e0 d4 cb 0a 3e 10 ef 9d 3e 91 5f ad 3e 39 7b b4 3e
       0.13554317 0.30846453 0.33861974 0.3525026
0003f0 a3 3a 78 be ee 8d 70 3d 13 d4 9a 3c 33 39 95 3d
       -0.24241118 0.058729105 0.018899953 0.072863005

actor.customer_encoder.0.attention.combine.weight f4 [32, 32]
000000 d9 80 f8 bc 76 4a 03 be f5 9b 91 3d 24 88 ea 3d
       -0.030334877 -0.12821373 0.071098246 0.11451748
000010 f5 24 0b 3d ba 07 a5 3c 10 4b 1d 3e 3b 3c 7e bd
       0.03397079 0.020145286 0.15360665 -0.06206916
000020 06 50 c6 bc 73 ac 53 3d 2d 15 d6 bd bc aa 13 be
       -0.02420808 0.051678132 -0.10453258 -0.14420599
000030 bb c6 0a bd ec 75 d0 3d f3 35 b5 bd 35 dd 68 3d
       -0.03388093 0.10178742 -0.088481806 0.056851584
000040 d7 0e f4 bb fc e9 1b 3e 6a 52 cd 3d d5 dc bf bd
       -0.007448058 0.15225977 0.10025485 -0.09368292
000050 2a 99 32 be b8 93 c5 3d 3b bf 2f be 31 b8 e0 bd
       -0.1744124 0.09647316 -0.17162792 -0.10972632
000060 4e c8 1d 3e 8c 7a 40 3d 55 e8 47 3c dc 1e 00 be
       0.15408441 0.04699187 0.012201388 -0.12511772
000070 d8 e7 24 bd d5 d1 71 3c 0b e8 c5 3d 75 35 a6 bd
       -0.040260166 0.0147595005 0.09663399 -0.08115665
000080 90 c4 d7 bc 1b 5f 2b 3d f1 6c 30 be d3 2f 51 bd
       -0.026338845 0.041838747 -0.17229058 -0.051071
000090 66 3e 2a be a8 0f 7f bd b7 f5 cc bd 35 86 bc 3d
       -0.16625366 -0.06227079 -0.10007804 0.092052855
0000a0 eb c4 e2 bd 7d 77 2d be ad ac be bc f5 1f ac bd
       -0.11072715 -0.16940112 -0.023275698 -0.08404533
0000b0 ef e7 c1 bd 86 8a 62 bd a3 2d 96 3d 3f e5 19 be
       -0.09468066 -0.055307887 0.07332923 -0.15028857
0000c0 68 8b 07 be e0 ac d8 3c 52 cc bc 3d bc 5a 83 3b
       -0.13236773 0.02644962 0.092186585 0.004008619
0000d0 e8 29 29 3e e4 c4 ae 3d 8c 1d 07 be f9 3c bb 3d
       0.16519892 0.08533648 -0.13194865 0.09142489
0000e0 e2 4d b1 bd b6 77 01 3e 7e 86 e8 bc 1e 2b 12 3e
       -0.08657433 0.12643322 -0.028384443 0.1427426
0000f0 d8 63 e1 bc 8b 18 32 bd 52 30 03 be 94 f3 2a 3e
       -0.02751343 -0.043480437 -0.12811401 0.1669448
000100 fa 5b ea bd 14 36 a8 bd af 51 a9 bd 9e f1 46 be
       -0.114433244 -0.082134396 -0.08267533 -0.19428107
000110 e4 aa 9f bd 8f 48 20 3e 64 32 e6 3d 9d 3c 21 3d
       -0.07796267 0.15652679 0.1124008 0.039364446
000120 d8 fe 8a bd 6f a3 ab 3b 12 f9 57 bd 01 a4 27 be
       -0.06786889 0.0052379887 -0.052727766 -0.16371156
000130 6b af 0e 3e b9 ad b6 3d 99 ed 23 3e d0 13 15 be
       0.13934104 0.08919854 0.16008605 -0.14558339
000140 04 67 26 3d 2b 1b b6 3d b0 cf 24 bc 90 dd c7 3d
       0.040625587 0.08891901 -0.010059282 0.097590566
000150 b9 85 d8 3d fc 6c d6 bd 51 36 f2 3d b9 a3 2a 3d
       0.105723806 -0.10470006 0.11826766 0.041660044
000160 d1 47 1e bd 00 87 7c 3d bd 39 0a 3e 95 37 53 3d
       -0.03864271 0.061652184 0.13498588 0.05156668
000170 20 e0 b3 3d 87 a7 0c be c3 34 cd bd b8 52 dd bc
       0.08782983 -0.13735782 -0.10019829 -0.027016982
000180 af fb c5 3d 13 02 cd 3d 56 67 45 bd 30 1a 24 bd
       0.096671455 0.10010161 -0.048194252 -0.040064037
000190 0b 83 f7 bc f7 b0 89 bd 34 8a 17 3e 6a ba b9 3d
       -0.030213853 -0.067232065 0.14798814 0.09068759
0001a0 ea 07 d6 3d 0e 0a 81 bd 96 77 4f bd ee 27 18 be
       0.10450728 -0.06300746 -0.050651155 -0.14858982
0001b0 28 2e 13 3e 89 76 8b bd 5f a5 a6 bc 4c 7b e9 bd
       0.14373076 -0.06809718 -0.020342527 -0.1140047
0001c0 99 d9 3f 3d c6 fd a7 3d a7 78 30 be 07 50 0f 3e
       0.046838377 0.082027 -0.17233525 0.13995372
0001d0 94 b5 48 3d 30 cc b2 3d b4 90 12 be 4c 7a 69 3d
       0.04900129 0.08730352 -0.14313012 0.057001397
0001e0 07 f2 2e 3e 3d 93 ff 3d 2a a3 c2 bd a5 3e ae 3c
       0.17084514 0.12479255 -0.09503777 0.021270106
0001f0 05 82 e4 bd 9b d8 70 3d 14 2f 94 3d 05 7c b8 3d
       -0.11157612 0.05880032 0.07235542 0.0900803
000200 d7 be 1a be f5 41 b6 3d 15 e0 4a bb 6b a0 00 be
       -0.15111862 0.08899299 -0.0030956317 -0.12561195
000210 b9 b1 a5 bd d6 b0 28 3e 24 a6 14 be 79 7c f4 3d
       -0.080905385 0.16473708 -0.14516503 0.11937804
000220 7d c8 21 3e 0c e6 f1 bd 16 71 23 be f0 0f fa bd
       0.15799136 -0.11811456 -0.15961108 -0.12210071
000230 2b f1 af 3b 41 25 2a be 10 1f 00 3e 23 0d 16 3e
       0.0053693256 -0.16615774 0.1251185 0.14653449
000240 23 5a 84 bc 36 6f bb 3d c9 af e5 3d ca 7a 40 3d
       -0.016156262 0.09152071 0.11215169 0.0469921
000250 eb c3 a7 bd 56 3f 58 3c ee f6 18 3e 07 c8 35 bd
       -0.08191665 0.013198694 0.14937946 -0.044380214
000260 72 a6 0f 3d c9 51 80 bb 94 b1 82 bd 17 cc 21 bd
       0.035070844 -0.0039159996 -0.063815266 -0.039501276
000270 36 d5 a1 bd 10 d1 49 bd 12 f9 30 3e c0 4e 0f bd
       -0.07901995 -0.049271643 0.17282513 -0.03498721
000280 f4 7d 8e bc 2d c7 23 3e 2c 74 69 3d b7 4c 09 be
       -0.017394044 0.15993948 0.056995556 -0.1340817
000290 ca 3f 4d bd e6 d2 86 bd fb 93 8d bd 2e d5 17 be
       -0.050109662 -0.065831944 -0.06912991 -0.14827415
0002a0 69 d8 b4 3d a0 95 0a 3e 3f 24 0e be 22 01 2f 3e
       0.088303395 0.1353364 -0.13881014 0.17090276
0002b0 0a 19 a5 3d d3 ff 2e 3e 25 cd e7 bd 71 db 6f 3d
       0.080614164 0.17089777 -0.11318425 0.058558885
0002c0 55 63 fd 3d 1b 43 ed 3d db d7 05 bd 56 e7 03 3e
       0.12372462 0.11585065 -0.03267656 0.12881216
0002d0 b4 84 c0 3d c7 8d 03 be 62 25 9e 3d 8c 88 d0 bd
       0.09400311 -0.12847053 0.07721974 -0.10182294
0002e0 eb 84 10 3e 4f 0f a1 bd e0 ac bf bd 19 66 a0 3d
       0.14113204 -0.07864248 -0.09359145 0.078319736
0002f0 83 a1 bf bd 2d fa 78 bd a7 75 e5 3d 36 77 29 3e
       -0.09356978 -0.06078546 0.11204081 0.16549382
000300 2d 44 5d 3d 13 75 27 3e 82 fa 97 3d 7f 82 00 bd
       0.054020096 0.16353254 0.074208274 -0.03137445
000310 26 e1 8a bd 21 96 0f bd b7 f9 55 3a 55 c3 20 bc
       -0.06781225 -0.035055283 0.00081625156 -0.009812196
000320 71 3c cd 3c 74 63 14 3d 08 6a 00 be 3f 5d da bd
       0.025053235 0.03622766 -0.12540448 -0.106623165
000330 2e 34 21 3e a9 6e ba bd 83 6d a7 3d 09 3f 33 3e
       0.15742561 -0.09103138 0.081751846 0.17504515
000340 3a 36 20 be 44 df 4a 3c 31 ca 13 3d 92 de e5 bd
       -0.15645686 0.012382332 0.036081497 -0.112240925
000350 27 f3 18 bd 22 a8 b2 bd 93 65 2f be f4 b0 2a bd
       -0.037341263 -0.08723475 -0.17128591 -0.041672662
000360 94 94 1a 3e 6b cf 3f 3e 3b 4b d4 bd 9e 48 31 bd
       0.1509574 0.18731467 -0.103659116 -0.043282144
000370 83 06 c3 bd 89 43 cf 3d e1 e4 1c be 2a 3f 89 bd
       -0.095227264 0.10120303 -0.15321685 -0.06701501
000380 66 f5 61 bd 04 f7 9b bd aa 65 14 3e 3a 95 20 be
       -0.05516567 -0.07615474 0.14491907 -0.15681925
000390 9b f9 04 be ab 29 1d be fe 99 90 bd 38 0f b2 3d
       -0.12985842 -0.15347926 -0.07060622 0.08694309
0003a0 8d d5 e1 3c aa 1d d4 bb 33 57 10 3e 85 88 f3 3d
       0.02756765 -0.006473263 0.14095764 0.118912734
0003b0 5d bc 2c 3d 13 70 5a 3d a6 21 84 bd 6a 43 30 be
       0.042171825 0.05332954 -0.064517304 -0.17213216
0003c0 b2 b2 18 3d 33 4f 1e 3e 80 fc 05 3e 18 06 ff bb
       0.037279792 0.154599 0.13084602 -0.007782709
0003d0 61 1a 63 3b 5c b0 28 3e ce 99 36 be 26 d1 17 3e
       0.0034653174 0.16473526 -0.1783211 0.14825878
0003e0 b8 b1 2a 3e 82 78 cf 3d 04 10 89 3d 9a ba e8 3b
       0.16669357 0.10130407 0.06692508 0.0071023228
0003f0 0c 8b 46 3d 03 78 b5 bd 37 46 df bc d5 a9 df bd
       0.04847245 -0.08860781 -0.02725516 -0.10921065

actor.customer_encoder.0.BN1.weight f4 [32]
000000 13 87 80 3f 90 2f 83 3f 4a b3 80 3f 3a be 78 3f
       1.0041221 1.024889 1.0054715 0.9716526
000010 de dc 7e 3f 0e 99 7c 3f 90 0f 80 3f fe d1 83 3f
       0.99555767 0.9867104 1.0004749 1.029846
000020 32 21 7f 3f cf aa 7d 3f 8c d0 80 3f 27 df 81 3f
       0.9966003 0.9908876 1.0063643 1.0146226
000030 af df 7e 3f 93 44 80 3f 8c b3 78 3f 93 1e 80 3f
       0.99560064 1.0020927 0.97148967 1.000933
000040 cb 3a 7b 3f 03 23 80 3f 23 e5 84 3f 70 53 80 3f
       0.98136586 1.0010685 1.0382427 1.0025463
000050 6c 9a 7d 3f 9d 85 7d 3f 94 ae 7f 3f db f8 7e 3f
       0.99063754 0.99032 0.9987576 0.99598473
000060 bf c1 80 3f b7 dd 7e 3f e3 64 7d 3f 2d 5f 7f 3f
       1.0059127 0.9955706 0.98982066 0.997546
000070 7d 0c 80 3f 9a 96 79 3f f0 98 82 3f a4 4f 80 3f
       1.0003811 0.97495425 1.0202923 1.0024304

actor.customer_encoder.0.BN1.bias f4 [32]
000000 0f 09 75 bc a2 ec 0c bd bc 16 ce bb f4 ce 1f 3b
       -0.014955773 -0.034405358 -0.0062893312 0.0024384828
000010 ac 9e 15 bc 8e 14 45 bb b6 b8 cc 3b 1e 83 03 3d
       -0.009132069 -0.0030072066 0.006247605 0.032107465
000020 41 a4 5c 3c 7b da 20 3c 3d 54 14 bd 6e 98 c4 3a
       0.013466896 0.009817715 -0.03621315 0.0014999041
000030 4b ec c9 bb 3c f9 f4 3b e3 d5 b5 bc 5f 1f 31 bb
       -0.0061622015 0.007476 -0.022196716 -0.0027026755
000040 1e 01 1b b9 da 55 2d 3b 9b dd 4a bc 45 1c 80 ba
       -0.00014782368 0.0026448877 -0.012381936 -0.000977405
000050 3b 32 80 bc 41 dd 82 3c b6 ca 82 3c 74 74 78 3c
       -0.015648952 0.015974643 0.0159658 0.015164483
000060 6a f8 a5 3c 1d 09 8e bc ae 5a 0e bc ab f2 59 bb
       0.020260055 -0.01733833 -0.008688612 -0.0033256214
000070 7b 22 7e bc 81 3a fe 3c 0e 34 c5 3c ad 36 b7 bb
       -0.0155111505 0.031033756 0.024072673 -0.0055912347

actor.customer_encoder.0.BN1.running_mean f4 [32]
000000 92 71 35 3f b5 ba d0 be 23 98 ec 3e ab 74 1a 3f
       0.7087642 -0.40767446 0.4620982 0.6033427
000010 95 51 51 bf 47 8b ed 3e 50 72 e9 3d 9e 68 eb 3d
       -0.8176511 0.46395323 0.113987565 0.114945635
000020 df db 92 be c4 aa 8b 3e 96 cf 5d be 14 13 88 3e
       -0.28683373 0.2727872 -0.21661219 0.26577055
000030 23 f0 1a bf 5f a4 8a 3f 46 1a 09 3f 71 c1 a1 3e
       -0.6052267 1.0831412 0.53555715 0.31592897
000040 41 e5 4a be 6e 78 a7 be d4 4d 22 3e 0e 34 3b 3e
       -0.19814016 -0.32709068 0.15850002 0.18281576
000050 4f b3 6c be d7 9e ed be 13 c0 09 bf 0e c2 e5 be
       -0.23115276 -0.46410248 -0.53808707 -0.44874614
000060 3f df 1a 3e 92 89 fb 3c 2d ce 41 3e 2b 8e cc 3e
       0.15124224 0.030705247 0.18926306 0.39952216
000070 f2 3f 02 3e 23 29 c5 bd 65 fc 84 3d f8 4c 86 bd
       0.12719706 -0.09626987 0.06493453 -0.065576494

actor.customer_encoder.0.BN1.running_var f4 [32]
000000 5c 11 9e 3c e8 1a 3e 3b ca d9 17 3d 3a bd 99 3c
       0.019295387 0.0029007737 0.037072934 0.018766988
000010 c6 90 09 3d 1c 4b 02 3d a1 c1 77 3c 77 b9 46 3b
       0.033585332 0.03180991 0.015121848 0.0030322948
000020 2c d0 34 3c f1 2d 4c 3b 6a 17 d0 3c f0 a6 6f 3c
       0.01103596 0.0031155313 0.02540179 0.014627203
000030 90 65 b3 3c 81 cd 75 3d 22 e9 47 3c 7b 62 39 3c
       0.021899015 0.060010437 0.012201579 0.0113149835
000040 92 2c b5 3b bc 8b 01 3c 1e 73 34 3c 6d 06 dc 3b
       0.005528995 0.00790685 0.011013774 0.006714633
000050 fc 41 0a 3c 94 9c 0b 3d 96 01 5a 3c c1 28 a7 3b
       0.008438583 0.03408487 0.013306042 0.005101294
000060 b4 0c 7f 3c b8 b5 ff 3a 74 9b 87 3c 04 6a 85 3c
       0.0155669935 0.0019509112 0.016553618 0.016285904
000070 d0 61 22 3d a4 00 84 3c b7 e9 82 3b 5f 29 5f 3c
       0.039644063 0.016113587 0.003995146 0.0136207035
