output/282nodes_entropy0.01_0.4_0.85_2_230823/epoch28.pth (torch, 519145 bytes, 129 tensors)

critic.ff_layer1.weight f4 [32, 283]
00000000: b6ff f53d 8869 a03d a4fe bebb b6d2 303d
00000010: f89b 253c c0fa 93bc de6c 7dbc 8388 1d3d
00000020: e0f8 663d 5927 bebc b61c 563d 2b77 623c
00000030: 57fa 343d c95d bb3c aad2 353d 2115 513c
00000040: 658c 3c3d 60da e73c 1999 59bc e22a 0e3d
00000050: 6479 0bbc d5d0 e23c 430f d5bb 7103 543d
00000060: a491 ddbc 4b3c b4bc 45ed 7dbc 4563 a5bc
00000070: 7deb 213b c07a cdbc af4b 853d 137e 52bc
00000080: b7a4 8c3d 477e b73c e989 91bc ed14 573d
00000090: 78b9 1b3d 21bd 743d 352a 1c3c 4eba 2ebb
000000a0: 8e18 173d 11ed a0ba e894 8b3c 99e5 3e3d
000000b0: 17d2 3b3d 75df c1bb 687b 573c 9061 5c3c
000000c0: 7ded f53c 6415 e2bc 42db aabc 5808 babc
000000d0: 5435 f4b9 48ab 923d 4d56 033c 978c c53c
000000e0: 1248 b23c 5f6e 153c 3240 973d 572f b8bc
000000f0: 1baa 393d 68d6 d4bc aa75 0c3d 8095 04bd
00000100: 7da4 3c3c b52b 6e3b 50bd f33c 921d 49bc
00000110: 3cf8 bdbc 5ea7 fcbb 6686 b43d 66b7 503b
00000120: a3c6 803d 8c64 72bc 33a6 2bbd 7a57 c6bc
00000130: d011 d43b 4f8d 3e3c 4209 023d 1929 6f3d
00000140: 3a17 fbbc 996a 4aba 6ece 9e3c d6b3 15bd
00000150: 221a 443d 11cf 303b 0bf9 363d 0c1f d2bc
00000160: 9742 91b9 1ca3 c43b d324 d63c 2fa7 7a3c
00000170: 05dc 7e3d 259a 373d 796e 96bc 4b14 f2bc
00000180: 03ce 4f3d d7c5 aebb 6918 50bc fe88 d4bb
00000190: 10bd f6bc 3aab 2f3b 6863 63bc 0496 10bd
000001a0: 3783 f73c 0298 13bd b700 75bc 15ca f3bb
000001b0: 0e26 43bd 010e 09bd 3286 a93d 0c05 773c
000001c0: 6f9e 5b3d 7d05 04bd 69e2 abbc aba2 c4bb
000001d0: f82b df3b 3ef8 2ebd 7551 43bc a550 29bd
000001e0: 22d3 f33b cf57 813c 1482 bfbc a14c 97bc
000001f0: 29aa 713a 0dbb 96bc ecab 88bc e2a5 0abd
00000200: 0ce1 7b3d 230b 7c3c f55c 483d fd84 1b3c
00000210: e739 19bd ef62 603d 5e9f d23b cbe4 3a3a
00000220: 861a 23bd 3779 1fbd fba0 e43c b83d 93bc
00000230: 902a 9b3c 53f8 cebb c47b 983d 99d3 333c
00000240: 4bfe b6bc 0e52 9e3c c59d 5f3d c8a0 7c3d
00000250: 230f 183d 4244 27bd d679 3d3c 3f49 34bd
00000260: 4a15 393b e1d9 32bc a53b be3d ae06 36bd
00000270: 2e26 543c 67bd f23a 58d2 8f3c 364c 83bc
00000280: d55d 703d bc25 14bd 9c49 783b cb0a 39bd
00000290: 56d4 003d 81bf dc3c e6f2 94bb fb2e 9e3d
000002a0: 2701 563c 191b 06bd ce06 03bd ba5d 91bc
000002b0: 3bef 3d3d abf1 133c f727 f6bc 2d6f b5b9
000002c0: 88cd c9bb 9d91 263d 7767 853d fe54 23bd
000002d0: a10b 62bc b18d 2c3d 4f25 4ebb bd93 81bc
000002e0: 7f92 9d3c 50fe c43c 1220 663b 4361 ac3c
000002f0: 67f8 d4bc 32ae 75bc e5bf 283c b0e8 e7bc
00000300: b389 853d 4861 9e3c 0e55 7cba d238 a53b
00000310: e754 da3c 22ed 0abc c900 eb39 d342 c33c
00000320: c6be e1bc be0e d53b 71f8 563d 32b4 2c3d
00000330: eb26 a33c 478c 10bd e8df 19bc 1748 bfbc
00000340: 4716 5dbc d2c2 f83c 8e2c 443d a3b4 953d
00000350: 1ab7 8fbc 2cf8 cfbc 64e8 853b c568 5b3d
00000360: e693 333b cd51 ca3b 78a9 b03c 4bfc e7bb
00000370: 7895 8bbc f57e 9c3d 1248 e73b 9006 49bc
00000380: 52e7 bdbc da69 4d3d 5318 253d 68da f13c
00000390: e691 febb 8354 3cbd 03f9 07bd bf8e 993d
000003a0: 6b62 9f3c 2ea4 563d ac02 793c d648 433c
000003b0: 85b4 c3bb 91ca 00bd 7c3e 92bc ae3e bcbc
000003c0: b877 383d 3852 cebc 2687 bbbb 1c73 1ebd
000003d0: 849b 623c d197 92bc 4d4b f2bc af21 983c
000003e0: 98c0 90bc d6a4 533d d952 8d3c 33d7 37bd
000003f0: 36de b4bc aefa 31bc 3665 08bd 0b0c 3fbd
0.120116636 0.078326285 -0.0058286954 0.0431697 0.010107987 -0.018063903 -0.0154678505 0.038460266
0.05638969 -0.023212122 0.052273475 0.013822357 0.044184055 0.022871869 0.044390358 0.012761385
0.04603233 0.028302372 -0.01328113 0.034708865 -0.0085128285 0.02768747 -0.0065020635 0.051761094
-0.027046986 -0.022001406 -0.015498464 -0.020188937 0.0024707012 -0.025082946 0.06508576 -0.012847441
0.06867354 0.02239908 -0.017765956 0.05251019 0.038018674 0.05975068 0.009531547 -0.002666134
0.03688865 -0.0012277683 0.017038777 0.04660568 0.045854654 -0.0059165307 0.013151981 0.013450995
0.03002047 -0.02759809 -0.020856503 -0.022709057 -0.0004657904 0.071615756 0.008016181 0.02411489
0.021762881 0.009120553 0.07385291 -0.02248351 0.04532824 -0.025981143 0.0342919 -0.032369137
0.011513826 0.003634197 0.029753357 -0.0122751165 -0.023189656 -0.0077103814 0.08814697 0.0031847595
0.06287887 -0.01479448 -0.041906547 -0.024211634 0.00647185 0.01163037 0.03174711 0.058388803
-0.030650724 -0.0007721573 0.019385543 -0.036548458 0.047876485 0.002697889 0.0446711 -0.02564957
-0.00027706168 0.0060008895 0.026140606 0.015298649 0.062221546 0.044824738 -0.018363224 -0.029550692
0.050733577 -0.005333643 -0.012701132 -0.0064860573 -0.030119449 0.002680494 -0.013878681 -0.035299316
0.030213935 -0.036033638 -0.014953784 -0.0074398615 -0.047643714 -0.03346062 0.08277549 0.015076887
0.05361789 -0.032231797 -0.020981984 -0.006000837 0.0068106614 -0.04271721 -0.011921276 -0.041336674
0.0074409405 0.01578894 -0.023377456 -0.018469157 0.0009218776 -0.01839974 -0.016683541 -0.033849604
0.06149392 0.015383515 0.048916776 0.009492156 -0.037408736 0.05478185 0.0064276895 0.000712943
-0.039820217 -0.03893396 0.027908793 -0.017973766 0.018941194 -0.0063162236 0.074454814 0.010975742
-0.022338053 0.019326236 0.05459382 0.06167677 0.03712381 -0.04083658 0.0115646925 -0.044015165
0.002824145 -0.010916204 0.0928872 -0.044439964 0.012948556 0.0018519581 0.017556354 -0.016027551
0.058683235 -0.0361688 0.0037885671 -0.04517631 0.0314525 0.026946785 -0.0045455573 0.077238046
0.013061798 -0.032740686 -0.03198891 -0.017744888 0.046370726 0.009029786 -0.030048354 -0.00034605843
-0.0061585344 0.04066621 0.06513875 -0.039875977 -0.013796718 0.042127315 -0.0031455343 -0.015817517
0.019234894 0.024047047 0.003511433 0.021042472 -0.025997354 -0.014995145 0.0102996575 -0.028309196
0.06520405 0.019333497 -0.0009625711 0.005042174 0.026651813 -0.008479388 0.00044823278 0.023835575
-0.027556788 0.0065020015 0.052483026 0.042164035 0.019916018 -0.03529003 -0.009391762 -0.023349805
-0.013494081 0.030366335 0.047894053 0.07309844 -0.017543364 -0.025386892 0.004086541 0.053566713
0.0027401387 0.006174302 0.021565184 -0.007079636 -0.017039046 0.07641403 0.007058152 -0.012269631
-0.023181591 0.050149776 0.0403064 0.02952309 -0.0077688573 -0.045979034 -0.03319646 0.0749793
0.019456109 0.052402668 0.015198391 0.011919221 -0.0059724473 -0.031443182 -0.01785206 -0.022979107
0.045036048 -0.02518569 -0.005722898 -0.038683996 0.013831023 -0.017894657 -0.029576922 0.01857075
-0.01766996 0.05167087 0.017251419 -0.044882964 -0.022078615 -0.010862989 -0.033299647 -0.046642344

critic.ff_layer2.weight f4 [283, 32]
00000000: 62dc e4bd 393c ae3e c1cc 93bd 6f7f 72be
00000010: 825a 4c3e dc91 13be 9ee1 483e 0ea6 b6bd
00000020: 9365 5bbe 75a1 4fbd a853 dfbd e015 e93d
00000030: bd2e 56be 7be6 54be b1aa 72bd a242 d83e
00000040: e1b1 26be a70a 2abe 7cde 163e cbbc 8d3e
00000050: c692 d23e 1751 16be f0d9 babd ab3b 3fbe
00000060: d248 c03e 7d15 583e 7cc6 b13a e734 74be
00000070: 6a62 173e ac0c 5abd 2c6e cd3d c3ca a33e
00000080: d13e 50bd 3fd6 b6bd 6821 1d3e 785f 8c3d
00000090: 889a 453a e4a0 93bd 6edc dcbd 032d 2bbe
000000a0: c24b debd 275a ffbd 19b7 18bc 3417 15be
000000b0: 90cc 993d ebfe 11be 2603 d0bd 29a2 b8bd
000000c0: 7a64 88bd f1c0 9f3d 72a3 903d a9ba 1a3e
000000d0: 0a36 6dbd c56c 273d 1f02 a2bc 6c89 ca3d
000000e0: 4b21 6e3d 399b a83d e369 1d3e 0cf0 d13d
000000f0: 36a3 8abc 0966 c63d ee32 cdbd 7353 a3bd
00000100: 71c3 47bd 423f 02bd 294c 463d 3299 26be
00000110: dab0 e0bd fc26 42bb fae7 213d f45c ee3d
00000120: d684 ffbd 3813 763d 9b4c 893d c8f8 e1bd
00000130: e15b 343d 3d82 4fbd 1921 fd3c 675b 22bd
00000140: 367e 67bd c25a 67bd 8acd 2d3e c7d8 013d
00000150: 705e f1bd dbfe 3a3d 4cf7 0e3e a2ba 90bd
00000160: fff7 79bd d20a 1fbd 0857 ffbd fff6 c7bc
00000170: ca48 063c bf0a cabd e810 ebbd e5fa c3bd
00000180: 553e ffbd c283 14bd 8f27 b33d c81d c43d
00000190: 139a 303e cf15 b63d 9254 b1bd e486 cabc
000001a0: 4001 c0bd bb9a 803d df54 433c cac0 943d
000001b0: eb1d e7bd edd4 cf3d 1772 10be 21bd 34bd
000001c0: 435a 2dbe 5e5a e23d 2b85 babd 41f3 0ebe
000001d0: ea2b 8bbc 3d4f f13d 38ae c9bc b26b 7c3d
000001e0: f4c0 2e3c 550a 11be 11eb 783d 0c8f cc3c
000001f0: bac5 e1bd 3cb0 9d3d 6436 123e 4818 a53d
00000200: 6c2b f5bd 7a90 af3c ca24 f63d 8f34 433d
00000210: 1f3c 55bd 6f1a ac3d 3029 1ebe b090 a4bd
00000220: 1cca 443d 6d5f f43d 2183 73bd b10a 073e
00000230: d513 833d 05e4 203d 2707 e03d c323 853c
00000240: 4f0d ae3d b127 c73d f8d0 35bd b6f6 d93d
00000250: 8b58 16bd 6be3 81bd 9e07 4d3d 47c6 fb3c
00000260: bf17 08be dd5d c93d bc04 aa3d 769b 963d
00000270: 552e f9ba c1c3 f63c 8d4e 423d 5e00 a1bd
00000280: 56aa 833d e390 ebbd c784 4fbc 5d21 55bc
00000290: ff3b e33d fb8f 573d ee41 273e 0dce adbd
000002a0: 1be6 25bd 0740 aebc b1aa fb3d 987f 243e
000002b0: 7b23 2c3d 01bf 0abe 9f5c e0bd 8b5a 78bc
000002c0: 60b4 2dbe ebbe a9bd 5e82 bbbd f40d a33d
000002d0: f81f 9ebd 2f29 f8bd 3e2c a23d c178 19be
000002e0: d6de cfbc b384 213e 8f7b 413d e929 14be
000002f0: 50ed 613c fcc2 61bd 1c57 993d 385d e63d
00000300: a538 0e3e 045a 0dbd 184e a73d e72b 20be
00000310: d25f 013e 61ef 933d bfa9 0cbe d2a5 5abd
00000320: 3278 6dbd d537 b7bd a7de b83c ac59 5dbd
00000330: c6f3 863d 1c8c 89bd f9b2 123e 8123 46bd
00000340: 9535 77bd b76c 2abd a8eb 123d f16b a6bd
00000350: 2228 8abd 1140 0cbe c5bc e93d d2b7 193c
00000360: 8070 a4bd 19c3 9d3d f69c 733c 63c4 b6bd
00000370: 9975 14bd ad61 91bb e4a6 de3d 256a 08be
00000380: cfab 19be 5493 2cbe c38a 17be 3027 52bd
00000390: 6ece d03d ba35 d13c 9863 783d dbc2 a53c
000003a0: 90a3 febb 03b3 12be 2728 0a3e d04a 273e
000003b0: cd99 84bb bd76 853c 54f4 8a3c c0a1 463c
000003c0: 02e1 68bc 194e 2e3b d67e edbd e545 083d
000003d0: cd1a 853b 2447 07be 1532 2e3d 1112 be3c
000003e0: 4c29 93bc 3469 ad3d c7f7 87bd be1f da3c
000003f0: 5c1c f5bd a7f7 a83d 5357 23be 560c 18be
-0.11174847 0.3403032 -0.07216788 -0.23681425 0.19956401 -0.1441111 0.19617316 -0.08918391
-0.21425466 -0.050691087 -0.10904628 0.113811255 -0.20916267 -0.20791046 -0.059244815 0.42238337
-0.16278793 -0.16605626 0.14733309 0.276831 0.41127604 -0.14679371 -0.091235995 -0.18675105
0.37555557 0.21101947 0.0013563181 -0.23848306 0.14783636 -0.05323474 0.10030779 0.31990632
-0.050841156 -0.08927583 0.15344775 0.06854147 0.00075379806 -0.07208422 -0.10784231 -0.1671639
-0.108542934 -0.12468367 -0.009320998 -0.14559633 0.0750972 -0.142574 -0.101568505 -0.090153046
-0.066597894 0.078004725 0.07062425 0.15110268 -0.057912864 0.040875215 -0.019776402 0.098894924
0.05813722 0.08232731 0.15372424 0.102508634 -0.016923528 0.096874304 -0.1001948 -0.07974901
-0.04877037 -0.03179861 0.048412476 -0.16269377 -0.10971232 -0.0029625287 0.03952787 0.11638823
-0.12476508 0.060076922 0.067040645 -0.110337794 0.044032935 -0.050661314 0.030899571 -0.03963795
-0.05651685 -0.056483038 0.16972938 0.031700876 -0.11785591 0.045653205 0.13961524 -0.070668474
-0.061027523 -0.03882868 -0.12467772 -0.02440977 0.008196065 -0.09865331 -0.11477834 -0.09569339
-0.12463061 -0.036258467 0.087477796 0.09575993 0.17246275 0.088908784 -0.08658709 -0.024722524
-0.093752384 0.062795125 0.01192209 0.07263334 -0.11285003 0.10148034 -0.14106022 -0.04412568
-0.16928963 0.110523924 -0.09107431 -0.13959982 -0.016988713 0.11782692 -0.024619207 0.061626144
0.010666121 -0.14164098 0.06077105 0.024970554 -0.110240415 0.0769963 0.14278561 0.08061272
-0.11971173 0.021431196 0.12018736 0.047657546 -0.05205929 0.08403479 -0.154454 -0.080354095
0.04804431 0.119322635 -0.059451226 0.13187672 0.06400267 0.039279956 0.10938864 0.016252404
0.08498632 0.097243674 -0.04438874 0.106427595 -0.036705535 -0.06342205 0.050056092 0.030734194
-0.13290308 0.09832356 0.08301684 0.073538706 -0.0019011 0.03012264 0.047438193 -0.07861398
0.064289734 -0.11502244 -0.012665934 -0.013008443 0.11095428 0.052627545 0.16333744 -0.08486567
-0.04050265 -0.021270765 0.12288416 0.16064298 0.042026024 -0.13549425 -0.10955166 -0.015158306
-0.16963339 -0.08288368 -0.09155725 0.07961646 -0.07720941 -0.1211723 0.07918595 -0.1498747
-0.025374811 0.15773277 0.047236975 -0.14469112 0.01378949 -0.055117592 0.07487318 0.11248249
0.13888796 -0.034509674 0.08169192 -0.15641747 0.12634209 0.07223392 -0.13736628 -0.053380795
-0.057975955 -0.08946196 0.022567106 -0.054040596 0.06589465 -0.06716177 0.14326085 -0.048373703
-0.060353834 -0.041607585 0.03586927 -0.08126057 -0.06745936 -0.13696314 0.11412958 0.009382205
-0.0802927 0.077032275 0.014868965 -0.089241765 -0.036244962 -0.0044366927 0.108716756 -0.13321741
-0.15006946 -0.16853076 -0.14799027 -0.051306903 0.10195623 0.025538314 0.060641855 0.020234516
-0.007770963 -0.143261 0.1349188 0.16337132 -0.004046655 0.01629197 0.016962208 0.012123525
-0.014213802 0.0026596843 -0.11596458 0.03326978 0.004062033 -0.13210732 0.04252823 0.023201974
-0.017964028 0.084673315 -0.06639057 0.026626464 -0.119683 0.08250361 -0.1595128 -0.14848456

actor.customer_encoder.0.attention.query_embed.weight f4 [32, 32]
00000000: 6d07 b83e 2b87 4a3d 1386 1f3e 2356 af3e
00000010: 2f50 b5be 5db1 b7bd 0dca 2abe 5363 6abe
00000020: f9ed 563e 30a2 413e bfc9 973e 454f ca3e
00000030: 492b 68be e5c7 703d b315 063e f05b b3bd
00000040: 0796 613e 5212 ac3e 8097 cabe 2040 e5bd
00000050: 55e6 1d3e 3453 93be c2e4 efbd e32b 383e
00000060: 94e1 ee3d 5c3a 47be 6f08 21bd e8b2 633d
00000070: 27e7 c93e 4784 7fbe da3a df3c 8b5c e6bd
00000080: 1a99 c23e ffef 913e 3ad9 d6bc 0d19 19be
00000090: d045 a73e 5789 c3bc e527 c6bd ac92 8a3e
000000a0: 2489 ba3d eaf2 b73c bc53 ab3e 1d82 18be
000000b0: f176 853e ba16 4f3e 77bd 5bbe 1148 a33e
000000c0: 8bb0 fc3d b651 7cbe 1423 813e b2a0 9bbe
000000d0: ae63 383c f134 143e 2733 253e ae06 a7be
000000e0: a2bb a73e cdf3 9c3e 57c2 623e 2495 173e
000000f0: befe 4abe 12bd 833e 4ada 5d3d 2230 91bd
00000100: bf71 19be 736f 7d3d 2238 e6bd 3a61 9ebe
00000110: db59 46be 5fb1 18be 33ff 3fbd 16db 47be
00000120: b3f3 b2bd 4c5f 68be 1124 88be d27e 2e3e
00000130: d22e 80bd 04c5 1ebe bb37 3dbd 0eb8 023d
00000140: 25d7 86be b700 413e 98ce 343e e30d 473e
00000150: a7ca 62be e1a3 b13e 8480 693e 9081 0d3e
00000160: 43a0 313e 9616 49be 6d9e b03d 65aa 8f3e
00000170: d093 dc3d 008b 79ba 481c b9be d2d0 d5bd
00000180: a042 5bbe bc83 923e 60a3 1dbd cb06 99bd
00000190: cebe bfbe 7bf0 93be 645f 14be c478 273e
000001a0: 0803 85bd 6b86 233e 72ff b03e af01 45be
000001b0: 5eb0 a13d 543a 5f3d f669 8fbe 42dd 23bd
000001c0: 4799 a23d bb61 1dbe 76db 86be 37be 8f3e
000001d0: e9af f93d 5eb5 abbe 4d04 b8be 8122 5d3d
000001e0: 1c59 2fbe 1e45 a23d a3a7 313e ffa8 903d
000001f0: 6183 713e 8608 113e 1e47 e5bc a392 8e3d
00000200: c48d f4bd 11ec 4dbe 8215 bdbe d8fe 123e
00000210: 063d 983e 895e efbd dee3 623e e8fe 943e
00000220: 5494 7c3d d658 2c3e e829 d83b c424 373e
00000230: af53 423e e953 5c3e 32c9 9f3e cbee 02be
00000240: 53f6 df3d 1cac 043e f3cf 72be 2b97 94be
00000250: 1d42 43bd b75f 303e 12be 963e 1c24 00be
00000260: 7903 24be 1ee6 9fbe fc33 4b3e 5ce9 49be
00000270: 6aeb bc3d b5c4 093e b31f 67bd ed3d a93e
00000280: 64a0 873e 6a1e 00bd 02e2 85bb e3ab 663e
00000290: c1b2 56be 630c 96be d3dd 673e a4fc 4cbe
000002a0: 34bd dd3c 3c8b d53c bd6d 843e 6299 6f3d
000002b0: b175 0f3d 3d69 9c3d 3482 1fbe d1a5 b7be
000002c0: 77b5 953e f369 88be b629 8dbe 5b51 a8bd
000002d0: 9067 623e ad85 15be 6feb 873e 0ef4 043e
000002e0: c38c 733e 2b53 07be 46fb 263e 044e aa3d
000002f0: f7af a23e 7182 26be 6a74 a13e 7ab6 66be
00000300: 83bb 5bbe 5e71 b23e 1b72 4c3e 8bfc 5a3e
00000310: 092f 4abe 9b95 9f3e ffe2 c3bd 6b26 943e
00000320: 8602 5e3e 5e66 a3be c8bd 9bbd aa7c c43e
00000330: d6b7 4f3e f18b 813d 2f43 b0bc fc5b 0b3e
00000340: fa6c d9bd ae77 cabd 9282 7abe 5bad 0fbd
00000350: 34fc 6fbe ce7c 52be e09d 663e 2ece 603e
00000360: e179 25be c7cf 8ebd 206d 1fbe 821c 433e
00000370: d9a4 4bbe 8fbc 45be 50b0 273e 9eee 9f3c
00000380: c325 053e 3ce4 c9bc 7c0d bb3e 3c0b 56bd
00000390: e8b0 933e d90d 423d f61f aa3e c009 67be
000003a0: 1baf 4d3e 86cf eebd 5c86 4e3e dd0e 87be
000003b0: 29f8 4a3e 70ff aabd c7cd 13be e506 0dbe
000003c0: f614 803e 24b9 4abd e254 aebd 3c78 a03e
000003d0: d6cf 703e cfc6 9c3c f38a 02be 63c6 ca3d
000003e0: 3450 a2bd 5735 9d3e 5543 0a3e 928e 833e
000003f0: ef28 593e c41c b2bd 3295 8abe fab6 febd
0.35943165 0.049445312 0.15578489 0.34245405 -0.35412738 -0.08969376 -0.16678639 -0.22889452
0.20989217 0.18909526 0.29646108 0.39513603 -0.22672762 0.058784384 0.13094215 -0.0875777
0.22029887 0.33607727 -0.3956871 -0.111938715 0.15419896 -0.28774416 -0.11713554 0.17985491
0.11664119 -0.19455856 -0.039314684 0.05559054 0.39434168 -0.24952804 0.027249742 -0.1124812
0.38007432 0.28503415 -0.026226629 -0.14950962 0.3267045 -0.0238692 -0.09675578 0.27065027
0.09108189 0.022454698 0.33462322 -0.14893384 0.26067308 0.20223513 -0.21458994 0.3189092
0.123383604 -0.24640545 0.25222075 -0.30396038 0.011254234 0.1447332 0.16132794 -0.32622284
0.3276034 0.30654755 0.22144447 0.14802986 -0.19823739 0.25730187 0.054163255 -0.07089259
-0.14984797 0.061873864 -0.11241175 -0.30933553 -0.19370215 -0.14911412 -0.046874236 -0.19517168
-0.08737888 -0.22692603 -0.26590016 0.17040566 -0.0625893 -0.15504843 -0.046195727 0.03191381
-0.26336017 0.18847929 0.17656934 0.19438891 -0.22147618 0.34695342 0.22802931 0.13818955
0.17346291 -0.19637522 0.08623967 0.28059688 0.107703805 -0.0009519309 -0.3615439 -0.1044022
-0.21412134 0.2861613 -0.038485885 -0.07471999 -0.3745026 -0.2889441 -0.14489514 0.16354662
-0.06494719 0.15969245 0.3456989 -0.19238923 0.078949675 0.054498985 -0.2801053 -0.04000593
0.079393916 -0.15369312 -0.2633931 0.2807481 0.12191755 -0.3353681 -0.3594078 0.053987984
-0.17123836 0.07923339 0.17349105 0.070634834 0.23585273 0.14163408 -0.027988013 0.069615625
-0.11941102 -0.20109583 -0.36930472 0.14355028 0.29734057 -0.11687953 0.22157237 0.29100728
0.061664894 0.16830763 0.0065967925 0.17885119 0.18977235 0.21516384 0.31208187 -0.12786405
0.109356545 0.1295628 -0.23712139 -0.29021582 -0.047670472 0.17224012 0.29441887 -0.12513775
-0.1601695 -0.31230253 0.19844049 -0.19717926 0.09224589 0.13453944 -0.056426715 0.33055058
0.26489556 -0.031279005 -0.00408578 0.22526507 -0.20966627 -0.29306325 0.22643213 -0.2001825
0.027067758 0.026067369 0.25864974 0.058495887 0.03502435 0.0763726 -0.15577012 -0.35868695
0.2924001 -0.26643333 -0.27570885 -0.08218642 0.22109818 -0.14601775 0.2654681 0.12983724
0.23784165 -0.1321532 0.1630679 0.083156615 0.31774876 -0.16260697 0.3153413 -0.22530547
-0.21458249 0.34852117 0.19965403 0.213854 -0.19744505 0.31168827 -0.095647804 0.2893556
0.2168065 -0.31914037 -0.07604557 0.3837636 0.20284972 0.0632552 -0.02151641 0.13609308
-0.10616489 -0.09886108 -0.24463871 -0.035077434 -0.23436052 -0.20555422 0.22521162 0.21953651
-0.16159774 -0.06973224 -0.15568972 0.19053844 -0.19887103 -0.1931021 0.16375852 0.019522961
0.13002686 -0.024644963 0.36533725 -0.052256808 0.28845906 0.047376487 0.3322751 -0.22562313
0.20086329 -0.11660676 0.20168442 -0.26378527 0.19821228 -0.08349502 -0.14433967 -0.13772161
0.25015992 -0.04949297 -0.08512284 0.31341732 0.23516783 0.019137768 -0.12748317 0.099011205
-0.07925454 0.30704758 0.13502248 0.2569471 0.21207021 -0.08696893 -0.27066952 -0.12437244

actor.customer_encoder.0.attention.key_embed.weight f4 [32, 32]
00000000: 4fd3 12be 3f24 053d bfd7 913d b209 c73e
00000010: 55ac aa3e c034 a4be a7db 153e ed12 78be
00000020: a1b9 2dbe 2293 213e 6306 89be d63d a63e
00000030: 2450 c63d 7fed 823d a19b 733e bfd7 a5be
00000040: b0ff 8a3d 3c54 ca3d a3f9 45be dc35 10be
00000050: 3728 d83d b6df a63e 6a18 0abe a995 5b3e
00000060: 7da1 323e 907c 4fbe eec4 86be e3ca 13bd
00000070: 7bfe 7e3e 3fa9 83be 117e 74be e556 8c3e
00000080: 8ff3 4ebe 779e 77be 68ff 89bc fecd a63e
00000090: 8eaf 713e fd87 413e 0e71 5a3d 17ce 48be
000000a0: fbe1 93be bb01 3d3e 6c81 df3d cd7c b63d
000000b0: 2c54 e6bd c650 b8be c654 cb3c c66d 5ebd
000000c0: 9834 adbc f20c 363d 1e2d 46be 17b7 57be
000000d0: 053c acbd 678c 073e d99b 62be 2e1d ad3e
000000e0: 2b83 b0be 76b6 57be fab8 d03d 28b1 b0be
000000f0: 476a 53be 9c24 293e 6ea5 7cbe ac77 ec3d
00000100: 5d92 3bbe 7d44 20be 26f7 513d d4b4 ec3c
00000110: b0ab a83e 9a34 943d 26f5 853d d6b7 45be
00000120: 3600 943e d4b0 03bc cd2d 533e ed48 91be
00000130: 5913 443e a8ff 8e3e 1ec4 5d3e f76c 913e
00000140: 4665 1fbe 34a1 7bbe 67ae 0f3e 71bb 263e
00000150: a899 52be 8f1e e5bd 9bf0 bf3a 995f 21bc
00000160: a0f1 2e3e 78a4 833e aa15 cc3d 33c7 17be
00000170: f0db 6abe b885 9a3e 20e0 e43c 29f8 33be
00000180: e6b1 84be 92d7 82be fb27 a83e d65f 45be
00000190: 37b8 b1be dcbe 8ebe 6b35 3abe acff 983c
000001a0: 9e0e 6abe 7929 243e a7d6 8ebd bb78 0fbe
000001b0: 2f29 77be 4179 b6bd 7336 c13e 4f45 1a3b
000001c0: 6f0a be3d 60ca b7be 3735 483e 7d0c 293d
000001d0: e701 89bd c411 8e3c 5260 26be 15fd 90be
000001e0: da27 3cbe 44c7 cb3d 095c 993e 7add 7ebe
000001f0: 2a37 363e c328 15be 3b2f 8e3e 182e 373d
00000200: 4cee a0be bf2d 90be b327 ab3d ff57 383e
00000210: 67fa d93d bf6a d43d 9f51 3ebd 98d9 4ebe
00000220: 7ad9 103d 0fc4 93be f764 363e 4dfa 06be
00000230: d32f 9bbe 22a8 e23c 1ed7 dc3d 30ec 8cbe
00000240: 26e9 5ebe d916 41bd 1006 08be c87a 993e
00000250: c7be 8f3d 9e28 ecbd a779 8ebe 8c37 7abe
00000260: 95f7 023e 4d0f 98bd 3c10 463d 110c 833d
00000270: d68b 733e 1373 34bc 8647 1b3e ebdc a6be
00000280: 5ef8 833e 6dfd a1be 3e5d e1bd 8254 a6be
00000290: 8fe2 403e 7de4 e4bd 73af b9be ca5f 30be
000002a0: 9fff 483e 30a9 7d3e 10bb 6b3e 1448 a9be
000002b0: 3375 28be 494b 913d b515 2eba 262b 4abe
000002c0: fd8d b13e 1e65 72be 69a6 663e e655 5c3e
000002d0: 3120 a4be 2d1b 5fbe f858 6bbe 6db2 873e
000002e0: 4f98 a4be 6858 473b dd38 d8bd c751 b9bd
000002f0: a22c 4ebe d7d5 8ebe 94d7 9cbe 33dc d4bc
00000300: c49c 773c 6bec 923d 157a d03d d732 07be
00000310: fd34 4e3e bcca 493e 1c20 92be 7d53 a93e
00000320: 86fd bbbc c0ca d7bb 3bc6 b0be 1bf6 393e
00000330: d8bd 083e b281 c03d e922 373e 82ff a2be
00000340: 4a47 b23e 8d43 653e 9da3 d6bd aa31 393e
00000350: 50d6 0abe 320d d4bd 5ff2 04bc 953b 5f3e
00000360: 2da5 3f3e 006d 05be 6a00 98be b682 27bc
00000370: 52e7 1abe fb02 0cbc a9fe 323e 6c32 753e
00000380: fcf8 763c 4c59 283e ef6e 7b3d eeed 41be
00000390: 9f44 583e f9a1 6fbe 2ac0 f9bb e809 34be
000003a0: da61 de3b 27e8 913e 610b f83d b585 00bd
000003b0: 6900 9dbe 6a11 8bbe d4bf c8bd b7bd 2bbe
000003c0: 5e1a 903d 3e26 a7be 934f b13e 963f afbd
000003d0: d48d 6f3e 6558 773e 03e0 933e f60e 3ebd
000003e0: 8493 c53c f8af 3d3e aaba 8abe eb85 e5bc
000003f0: 37c0 053e 94b4 0abd 02ab 84be fe72 543d
-0.1433842 0.03250527 0.071212284 0.38874584 0.33334604 -0.32071495 0.14634572 -0.2422597
-0.16965343 0.15778783 -0.26762685 0.32469052 0.09683254 0.06392955 0.23789836 -0.32391164
0.0678705 0.09879348 -0.1933351 -0.14083046 0.105545454 0.32592553 -0.13485876 0.2144381
0.17444415 -0.2026236 -0.2632212 -0.03608216 0.24901764 -0.25715062 -0.23876216 0.27410045
-0.20210098 -0.24181543 -0.01684542 0.32579035 0.23602125 0.18899532 0.053330474 -0.19609867
-0.28883347 0.18457691 0.10913357 0.089105226 -0.11246523 -0.35999125 0.024820697 -0.054303907
-0.021143243 0.04444594 -0.19353148 -0.21065937 -0.08409885 0.13237153 -0.22129764 0.33811325
-0.34475073 -0.21065697 0.101915315 -0.3451016 -0.2064601 0.16517872 -0.24672481 0.11546263
-0.18317552 -0.15651126 0.05126109 0.02889482 0.32943487 0.072365955 0.06540899 -0.19308409
0.2890641 -0.008037765 0.2062294 -0.2837595 0.19148006 0.27929425 0.21656844 0.28403446
-0.15565977 -0.24573213 0.14031373 0.1628244 -0.20566428 -0.11187469 0.001464385 -0.009849452
0.1708436 0.25711417 0.099650696 -0.14822082 -0.22935462 0.30180144 0.027938902 -0.17575134
-0.25916976 -0.25555092 0.32843003 -0.1927484 -0.34710857 -0.2787999 -0.1818444 0.018676601
-0.22857139 0.16031446 -0.069745354 -0.14010899 -0.24136804 -0.08909846 0.37736854 0.0023539846
0.09279334 -0.35896587 0.1955155 0.041271675 -0.06689816 0.017342456 -0.16247681 -0.28318086
-0.18374577 0.09950116 0.2995303 -0.24889174 0.17794481 -0.1456633 0.2777041 0.044721693
-0.31431806 -0.28159901 0.083571814 0.18002318 0.106434636 0.10371923 -0.04646456 -0.20200193
0.03536365 -0.28860518 0.17811953 -0.1318142 -0.30309924 0.027668063 0.10783218 -0.27523947
-0.21768627 -0.04714093 -0.13283563 0.29976487 0.0701881 -0.115311846 -0.27827188 -0.24435252
0.12789758 -0.074247934 0.048355326 0.06398786 0.23783812 -0.011013764 0.15164003 -0.32590422
0.25775427 -0.3163866 -0.11004113 -0.3248635 0.18836425 -0.11176393 -0.3626667 -0.1722404
0.19628762 0.24771571 0.23020577 -0.33062804 -0.16450958 0.07094438 -0.0006640808 -0.19743022
0.3467864 -0.23671386 0.22524418 0.21517143 -0.3205581 -0.2178771 -0.22983158 0.26503316
-0.32147452 0.0030417684 -0.10557721 -0.09048801 -0.20134214 -0.27897522 -0.30633223 -0.025983905
0.015113059 0.071739994 0.10179535 -0.13202988 0.20137401 0.19706243 -0.28540123 0.3307151
-0.022948038 -0.006585449 -0.34526238 0.18160288 0.1335367 0.093997374 0.17884411 -0.31835562
0.34820014 0.2238905 -0.104804255 0.18085352 -0.13558316 -0.10354079 -0.008114426 0.21800072
0.18715353 -0.13029861 -0.29687816 -0.010224035 -0.15127304 -0.0085456325 0.17479958 0.23945016
0.015074011 0.16440314 0.06138509 -0.18938419 0.21119927 -0.23401631 -0.0076217847 -0.17581904
0.006786567 0.2849743 0.12111545 -0.031377513 -0.30664375 -0.27161723 -0.09802213 -0.16771589
0.07036279 -0.32646364 0.34631023 -0.0855705 0.23393947 0.24154814 0.28881845 -0.046400987
0.024118192 0.18524158 -0.27095538 -0.028017959 0.13061605 -0.03386362 -0.2591172 0.051867478

actor.customer_encoder.0.attention.value_embed.weight f4 [32, 32]
00000000: c270 7d3d 911f a93e 022b e63d 345d 053e
00000010: a3e6 aabe 4688 113e 9409 423e 0104 debd
00000020: 698b 61be 0fcb 2fbd beb0 9bbe f28c a63e
00000030: 2f7c 5bbe 31ec a23e 6095 b3be 88c9 663e
00000040: 4b54 17be 3d68 8bbe f0a2 cb3d a7a9 a63e
00000050: 2796 2cbe b049 4b3d 5119 6dbe 40e7 6b3e
00000060: 33f5 a23e 5c62 c5bd 2a6d ad3e 015e 3b3e
00000070: cc70 433d 89c2 1bbe 1ea3 793e 47fc 943c
00000080: 0d1d 19be df13 b2be 0c73 afbe 6e79 b43e
00000090: f353 3fbe ee0c 87be 588d 653e c821 cfbd
000000a0: cefa 86be ae2d 923d 930c 56bd bdad 0b3e
000000b0: c431 a83e f147 b6bd 5430 4e3e 324f cabd
000000c0: ced8 eebd 887c f13d 60d7 a1bd 0b85 c23d
000000d0: a43e a13d c1f7 90be e1b5 a9bd 3356 a33e
000000e0: 3e44 0ebb 329c ab3e 43cd 883e 6a33 cbbd
000000f0: cfbd 23be d1da ee3d 2323 6fbd 97f0 3abd
00000100: 63fe c5bc c1d0 69be 52e6 633e 8778 0dbe
00000110: d06d 93be b964 8dbe 61f6 66be 5d89 853d
00000120: ef4c aebe 15bd 053e 7f06 5fbe d058 2cbc
00000130: 8963 afbd 95ed d8bd b89d 693e 4306 f7bd
00000140: ddc6 f63d d16a 763e 47da 323e 0f09 1a3e
00000150: 14c2 07bd f6d4 3bbe 2ea7 85be bdf1 ab3e
00000160: 963c a4be 2dd5 b0bd 0058 993e e7a7 89bd
00000170: 8b04 98be 3131 b23e db72 babd 923a 173e
00000180: 61b0 243e 2396 e6bd d468 afbe 1f06 4ebd
00000190: bda9 8fbe 43e0 31be 0d46 98be 96d6 283e
000001a0: e1d9 7ebe 406d 303e e13c 983e e279 343e
000001b0: 6c13 573e bef8 753d dd4e 723e b432 aa3e
000001c0: 286b 9a3d bfd7 193e 0c2a 643e cb5c 2fb9
000001d0: b99b 9b3e b94d af3d f6b9 5cbe a376 89be
000001e0: ce42 b83d f60e 8fbe 7759 a3be b434 a83e
000001f0: 21a2 883e a9c3 c3bd 7377 343e 7411 f53d
00000200: d060 a73e 10d7 dc3d eb8c 273e 4374 81be
00000210: 3754 ef3d 3877 8bbe 9c48 8abe c84e 473e
00000220: 602d 31be 4d3b 8c3e 4ae2 b6bd 7121 3c3e
00000230: 4cae a83e b72f 3c3d 8962 a43e ce0d 64be
00000240: 360d 403e f991 e33d ffba 893e 8784 a63e
00000250: 2579 96bd b779 9b3d d1b6 36be cea6 193e
00000260: 53dd b5ba 5dd4 26be 710e 48be 0e90 b43d
00000270: d02f a13e ed3b a0be 75c2 693e 3eb7 7e3e
00000280: ae83 9cbe b52a 253e 3618 003d 60cb 883e
00000290: 5e0e 993e 3e07 4b3e 9683 0dbe d031 9ebe
000002a0: 77b9 7c3e e95e 493a fb32 133e 255b e43d
000002b0: eefd 3f3d 8c00 893e 313c b5bd cb5e 123e
000002c0: eb0c 283e a865 24be 946a 1b3e 2ec1 cd3c
000002d0: 47e7 b3be 073e 483e 32f9 9fbe 9501 243e
000002e0: 31c2 26be 4c0b 30be aaff 4a3e 0bdf 71bc
000002f0: 1933 84be 7304 fb3d c43d 47be f92b a5be
00000300: 099f 913e c6b0 98be ef43 1abe 4b64 5abe
00000310: 954d 8a3e 6795 02bd 1d33 97be e979 543e
00000320: 4200 883e 9308 df3d 96fe 1fbd 4e17 aebe
00000330: 0195 5ebd b9a6 463e 2424 76be 7f5d b2be
00000340: 7bc6 23bb 27e8 673d 2dd8 0dbe 797e 15be
00000350: bb65 8cbe e52d 5bbd cc65 a83e d8c0 963e
00000360: f044 713d db65 9a3a 7ab6 a13e 6702 583d
00000370: e2d7 47bd 5285 80be 1a35 a73e f6db acbe
00000380: 4f23 fdbd 4c04 9e3d 2edc 303d a386 ecbd
00000390: 8e9c a8be 017c 103d 830e aebd fec4 7dbe
000003a0: 9392 60be 40d3 30be 9a78 a7be c5a9 2f3e
000003b0: eed1 abbb b4b5 9cbe a9de 373e 5b12 8a3e
000003c0: 266e a13d 8914 f3bd bf43 e8bd 9122 ea3d
000003d0: faf5 aa3e 431b 103d 10e2 09be a023 45bd
000003e0: d4cb 0a3e 10ef 9d3e 915f ad3e 397b b43e
000003f0: a33a 78be ee8d 703d 13d4 9a3c 3339 953d
0.061875112 0.33031896 0.11238672 0.13023835 -0.33379087 0.1421214 0.18948966 -0.108406074
-0.22025837 -0.04291826 -0.3040828 0.32529408 -0.21434091 0.31820825 -0.35074902 0.22537816
-0.14778249 -0.27227965 0.09943187 0.3255131 -0.16854154 0.04963082 -0.23154189 0.23037434
0.31827697 -0.09637901 0.33872348 0.18297578 0.047714993 -0.15210928 0.2437863 0.018186701
-0.14952488 -0.34780785 -0.3426746 0.35248893 -0.18684368 -0.26377052 0.224172 -0.10113865
-0.26363224 0.07137619 -0.052258085 0.13640495 0.32850468 -0.089004405 0.20135623 -0.098783866
-0.11662446 0.117913306 -0.07902408 0.09498032 0.07873276 -0.2831402 -0.08286644 0.31901702
-0.0021708156 0.33517605 0.26719102 -0.09921916 -0.15990375 0.1166283 -0.05838312 -0.0456396
-0.024169153 -0.2283354 0.22255829 -0.13815509 -0.28794718 -0.27615908 -0.22554924 0.065203406
-0.3404307 0.1306041 -0.21779822 -0.010519221 -0.08563907 -0.1059219 0.22814071 -0.12061741
0.12049649 0.24064185 0.17466079 0.15042518 -0.03314407 -0.18342957 -0.2610411 0.3358287
-0.32077473 -0.0863441 0.2994995 -0.06721478 -0.29690966 0.34803155 -0.09103938 0.14768437
0.16082908 -0.11259105 -0.34259665 -0.050298806 -0.28059188 -0.17370705 -0.29740945 0.16488108
-0.24887802 0.17229176 0.29733947 0.1762462 0.21003503 0.060051672 0.23662896 0.33241808
0.0753997 0.15023707 0.22281665 -0.00016723869 0.30392244 0.08559746 -0.21555313 -0.26848325
0.08997117 -0.27941102 -0.31904194 0.3285271 0.26686195 -0.095588036 0.17623691 0.119662195
0.3269105 0.107832074 0.1636235 -0.25284013 0.116859846 -0.27239394 -0.27008522 0.19463646
-0.17302465 0.27388993 -0.0892988 0.18372132 0.32945478 0.045943942 0.32106426 -0.22270891
0.1875504 0.111118264 0.2690048 0.32522985 -0.07347325 0.07591575 -0.17843176 0.15005037
-0.0013875164 -0.16291948 -0.19536759 0.08816539 0.3148179 -0.3129572 0.22828086 0.24874589
-0.30569214 0.16129573 0.03127309 0.26717663 0.29893774 0.19826981 -0.13819727 -0.3089738
0.24680124 0.0007681684 0.14374916 0.11150197 0.046873026 0.2675823 -0.08849371 0.14293973
0.16411178 -0.16054404 0.15177375 0.02511653 -0.35137388 0.19554912 -0.31244808 0.16016228
-0.16285016 -0.1719181 0.1982409 -0.01476265 -0.25820234 0.12256708 -0.19457155 -0.3226011
0.28441647 -0.29822367 -0.15064977 -0.21327321 0.27012315 -0.031880762 -0.29531184 0.2074963
0.26562697 0.10890307 -0.03906115 -0.34002155 -0.05434132 0.19399537 -0.24037224 -0.34836957
-0.002499013 0.056617882 -0.13851996 -0.14599027 -0.27421364 -0.053510565 0.32890165 0.29444003
0.058903635 0.0011779623 0.3158453 0.052736666 -0.048789866 -0.25101715 0.326577 -0.33761567
-0.1236025 0.07715663 0.04317873 -0.115491174 -0.32931942 0.03527451 -0.08498862 -0.24782178
-0.21930914 -0.17268085 -0.327092 0.17154606 -0.0052435314 -0.30607378 0.17956032 0.2696713
0.07882337 -0.11869151 -0.113410465 0.11432374 0.3339079 0.03518225 -0.13465142 -0.048129678
0.13554317 0.30846453 0.33861974 0.3525026 -0.24241118 0.058729105 0.018899953 0.072863005

actor.customer_encoder.0.attention.combine.weight f4 [32, 32]
00000000: 11b4 e0bc c928 04be 9022 8c3d 1b2a f03d
00000010: 2048 0e3d 5fce 913c 74a4 1f3e 9c67 82bd
00000020: 4ee9 afbc 9b8d 543d 1447 d5bd be49 14be
00000030: 1b9d 0fbd 6a1c dd3d 7ff3 a2bd c738 783d
00000040: 529f 54bb dbde 233e b105 da3d ca71 b5bd
00000050: ea50 32be 6365 bc3d 02ea 35be 54d7 f1bd
00000060: 3900 203e 1c51 223d 178b 7f3c 3c2b 01be
00000070: 9e81 10bd 85a4 993c 4b70 c43d ad85 a0bd
00000080: c587 d2bc 07d7 203d ac9c 34be 71f5 55bd
00000090: 6f34 28be 45c2 85bd 5b91 c8bd 62b9 b63d
000000a0: 83d2 e8bd bb04 2cbe e2d2 b9bc c382 acbd
000000b0: 9b8f bdbd edef 38bd a27b 923d 7d4f 1bbe
000000c0: 8387 00be 0d2d d73c d885 b43d d71a 0b3c
000000d0: 7978 2f3e 0d4e af3d 5bad 02be cb42 c03d
000000e0: b31b a6bd b06f 023e 2545 20bd e208 123e
000000f0: b3c4 d2bc 125b 2bbd e27b 04be 346f 363e
00000100: ac00 e0bd a52a 9cbd 3453 b5bd 3b8d 3fbe
00000110: caeb b2bd f8bf 243e 2732 e63d f1a1 403d
00000120: ad63 86bd 0273 473c 8bbf 3fbd f607 20be
00000130: edb3 093e c074 b13d d870 1b3e 5d5f 1dbe
00000140: d813 163d e279 a93d 0a1e adbc 78bf b63d
00000150: cec5 ce3d 0e7a c2bd 30f3 033e 3e5c 453d
00000160: b103 f4bc 6e4c 8a3d d494 033e 0583 3d3d
00000170: a1ea b33d 5fcf 08be be60 c0bd f86c cdbc
00000180: 4a2d bf3d ed47 da3d 94fa 30bd 67f7 45bd
00000190: e3f6 19bd 5d6e 63bd 13bf 173e 93f9 cc3d
000001a0: ec04 cc3d 1d56 86bd aa69 61bd 1bdf 19be
000001b0: 32a8 183e ae90 94bd ee44 d7bc af23 e5bd
000001c0: 0c4f 4b3d a6e2 933d 480b 3cbe 7db6 0e3e
000001d0: 0611 5e3d a77f b53d 1a2d 0cbe 43ec 893d
000001e0: 9dad 303e 98ba 0a3e 501c d3bd cce5 cc3c
000001f0: 1ce9 e5bd 52c7 593d 81b1 903d 8180 bd3d
00000200: 53ef 0ebe a6e6 be3d e73d 6bbc ad98 efbd
00000210: 907a a6bd d0c5 253e d661 07be 99fb f13d
00000220: c618 2b3e 1c5b e4bd 409f 1bbe 7a20 efbd
00000230: 4555 c9ba a7f8 20be deff 033e 1c64 103e
00000240: bd3f 9bbc 777c c63d 776d f33d a119 3d3d
00000250: 71ec b0bd 5bdf 813c 640d 1a3e e9a6 4dbd
00000260: 8c50 0d3d 5383 3dbc 97e2 7ebd 5e20 3cbd
00000270: a97e b1bd a216 2dbd 5684 363e 4735 14bd
00000280: 275e 9ebc 4cd1 253e 0d05 693d b96c 09be
00000290: 1a0e 67bd c89e 72bd cac5 9bbd 86e2 10be
000002a0: 5ac1 b03d 419d 0d3e 3343 0dbe 7961 333e
000002b0: d780 a73d 80b5 2a3e 39ee 02be 924e 583d
000002c0: f172 fe3d d5d1 d53d 0044 45bd a459 fa3d
000002d0: 8e69 c33d 1e6c f1bd 18c0 bb3d 4f22 b2bd
000002e0: d13a 183e 3fa0 84bd a2e1 debd 6028 9f3d
000002f0: 5726 c0bd 5db9 81bd 0642 e93d cc68 2f3e
00000300: 0b5e 623d d0e8 203e a530 8c3d f628 b7bc
00000310: d53d 82bd c09b 31bd dcf7 a0bb e052 84bc
00000320: 67d5 d73c 0c0a 2d3d 209d f4bd 1f61 cfbd
00000330: 3b14 1d3e 1df5 b3bd bbf1 9d3d f88f 2b3e
00000340: 91e8 1fbe ee6a 893c a7bb 133d 436f ebbd
00000350: f415 25bd 39c2 a3bd fe45 2abe 22cb 2ebd
00000360: 966e 223e 0332 3f3e 34ff dfbd 3306 47bd
00000370: cd80 babd e06f db3d c07c 19be bfa4 7abd
00000380: a3a5 7dbd 43e8 a5bd 9c4e 1f3e f544 20be
00000390: 1d33 00be ff6f 21be 7218 a5bd fa9e aa3d
000003a0: 88d9 f33c f89e 68bc 580d 0a3e 0fe6 e83d
000003b0: 6906 2f3d dfa9 2a3d 1727 75bd b133 28be
000003c0: b166 093d 1f76 233e 95f1 0d3e bebc 08bc
000003d0: db78 44bb cee0 233e cf19 41be 14f4 103e
000003e0: 5ea9 233e 2f81 cb3d 6b25 a53d 0aa8 463c
000003f0: 276c 5b3d 849c bfbd 6e8f 00bd fb66 f3bd
-0.027429612 -0.12906183 0.0684253 0.11726781 0.034736753 0.0177986 0.15590078 -0.06367418
-0.021473553 0.051892858 -0.10413948 -0.14481255 -0.035061937 0.10796435 -0.079565994 0.060601022
-0.0032443595 0.16002981 0.10645617 -0.08859594 -0.17413679 0.091990255 -0.17765048 -0.11808649
0.15625085 0.039628133 0.015597126 -0.12614149 -0.035279863 0.018755207 0.09591731 -0.07837997
-0.025699506 0.039267566 -0.1763789 -0.052236024 -0.16426252 -0.065311946 -0.09793349 0.08922078
-0.11368277 -0.1679868 -0.022683565 -0.08423378 -0.09255906 -0.045150686 0.07152487 -0.15167041
-0.12551694 0.0262666 0.08814591 0.008490286 0.171358 0.08559809 -0.12761442 0.0938774
-0.08110752 0.12737918 -0.03912844 0.14261201 -0.02572856 -0.0418349 -0.12937883 0.17815858
-0.10937628 -0.07625321 -0.0885376 -0.18706219 -0.087363794 0.16088855 0.112400346 0.04702944
-0.065619804 0.012173416 -0.04681353 -0.15628037 0.13447542 0.086648464 0.15179765 -0.1536841
0.03664002 0.082752004 -0.021132488 0.089232385 0.10096322 -0.09495936 0.12885737 0.048183672
-0.029786916 0.06752859 0.12849742 0.046267528 0.08784986 -0.13360356 -0.09393452 -0.025076374
0.0933481 0.1065825 -0.04320772 -0.048331644 -0.037588965 -0.055525173 0.14818983 0.1000854
0.09961876 -0.065593936 -0.05503241 -0.15026514 0.14907911 -0.07254158 -0.026277985 -0.11188447
0.04963593 0.07220964 -0.18363678 0.13936801 0.054215454 0.088622384 -0.1368908 0.067345165
0.17253728 0.13547742 -0.103081346 0.02501192 -0.11226103 0.053168602 0.07065106 0.09253026
-0.13958482 0.093213364 -0.01435802 -0.116990425 -0.08128846 0.1618874 -0.13220915 0.118155666
0.16708669 -0.1115019 -0.15197468 -0.11676116 -0.0015360495 -0.15719853 0.12890574 0.14100689
-0.018951291 0.096917085 0.11886113 0.04616702 -0.086388476 0.015853574 0.1504417 -0.050208006
0.034500644 -0.011566955 -0.06222781 -0.045929305 -0.08666737 -0.042257912 0.1782392 -0.03618362
-0.019332005 0.16193122 0.056889582 -0.1342038 -0.056409933 -0.059233457 -0.07606085 -0.14148912
0.08630629 0.13829519 -0.13795166 0.17517652 0.08178871 0.166708 -0.12786187 0.052809305
0.12424267 0.10440413 -0.048160553 0.12224129 0.09541617 -0.117882 0.09167498 -0.0869795
0.14866187 -0.06475877 -0.1088288 0.07771373 -0.09382313 -0.06334183 0.11389546 0.1712982
0.055265468 0.15713811 0.06845216 -0.022358399 -0.0635945 -0.043361425 -0.0049123596 -0.0161528
0.026346875 0.04224591 -0.11944032 -0.10125946 0.15339749 -0.08786986 0.07712122 0.16754138
-0.15616061 0.01677462 0.03606763 -0.11495831 -0.04030414 -0.079960294 -0.16628262 -0.04267419
0.15862498 0.18671422 -0.10937348 -0.048589896 -0.09106598 0.10714698 -0.14988995 -0.06119227
-0.06192554 -0.08100941 0.15557331 -0.15651305 -0.12519498 -0.1576538 -0.08061303 0.083311036
0.029766813 -0.014198057 0.13481653 0.11372005 0.042730723 0.041665908 -0.059851732 -0.16425969
0.0335452 0.15963028 0.13861687 -0.008345781 -0.0029979262 0.16003725 -0.18857501 0.14155608
0.15982577 0.09936749 0.080637775 0.012125025 0.05356994 -0.09356025 -0.031386785 -0.11884876

actor.customer_encoder.0.BN1.weight f4 [32]
00000000: 468b 803f 719f 823f 324a 813f 83f3 793f
00000010: 4828 7d3f c713 7e3f c182 7f3f a2bb 823f
00000020: 9ff0 7e3f cae6 7c3f 029f 803f 09e3 813f
00000030: 9e2d 7f3f 5fdb 803f 32c6 793f 568c 7e3f
00000040: a2c5 7d3f 6eca 803f 2753 843f 0d6e 803f
00000050: e359 7d3f b9cd 7c3f 7909 7f3f 0937 7f3f
00000060: 3d43 803f 20ad 7f3f 37f7 7d3f ad53 803f
00000070: f17f 7f3f b6be 7a3f 46a9 823f 2fe4 803f
1.0042503 1.0204908 1.0100768 0.97637194 0.9888959 0.9924893 0.9980889 1.0213511
0.9958591 0.98789656 1.0048525 1.0147411 0.9967898 1.0066947 0.9756805 0.99432886
0.9912969 1.0061777 1.0337876 1.0033585 0.9896528 0.9875141 0.9962383 0.9969335
1.002052 0.9987354 0.99205345 1.0025536 0.998046 0.9794725 1.0207908 1.0069636

actor.customer_encoder.0.BN1.bias f4 [32]
00000000: 3cb8 4cbc ca20 86bc f4be 47bc 2beb 953b
00000010: bc30 41bc c5ff d8ba aaa4 283b 5d82 ad3c
00000020: 01f8 383a 978b 4abb 1d13 14bd 7daf c33a
00000030: e665 ecbb 4726 fb3b f824 5abc 4a6a 3739
00000040: e6a1 1d3c 7c60 0f3c a9ed 32bc 7d29 473b
00000050: d27c 44bc 8aec 0f3c 78c9 2b3c 6abb 4a3c
00000060: a631 a53c 60ad b4bb ad2a 4ebc 3f9c 01bc
00000070: c574 82bc c1d0 9a3c 8fa0 a23c b15a 463a
-0.012495097 -0.016373057 -0.012191523 0.0045751533 -0.011791404 -0.0016555717 0.0025732913 0.021180326
0.00070559984 -0.0030905956 -0.03615104 0.0014929619 -0.0072142957 0.007664475 -0.013314478 0.00017491836
0.009621119 0.008751031 -0.01092092 0.003038972 -0.01199265 0.008784423 0.010485046 0.012373785
0.020165276 -0.005513832 -0.012583417 -0.007910787 -0.01592482 0.01889837 0.01985195 0.00075666147

actor.customer_encoder.0.BN1.running_mean f4 [32]
00000000: 7695 453f e071 bebe 50a1 f33e ff40 133f
00000010: bb36 48bf 9c93 d43e 5cdc 163e cfe6 073e
00000020: 7de7 aabe ef36 ad3e 7433 87be 07ce a13e
00000030: 2527 1abf 77c3 8b3f 5e59 243f 7ae6 ba3e
00000040: 07e9 23be c8c7 c5be f649 ff3d c230 183e
00000050: 2743 a9be c296 16bf 72f1 13bf 5578 01bf
00000060: 0c75 273e 5c16 b83d 1cfd 303e 2ed7 d53e
00000070: ea86 023e ce8f b9bd 6411 823d 049d 3bbd
0.77181184 -0.37196255 0.4758401 0.5752105 -0.7820851 0.41518867 0.14732498 0.1327164
-0.33379737 0.33830974 -0.26406443 0.316025 -0.6021598 1.0919026 0.64198864 0.36503965
-0.16006862 -0.38628983 0.12465279 0.1486235 -0.33059046 -0.5882379 -0.5779029 -0.5057424
0.16353244 0.0898864 0.17284054 0.41765732 0.12746778 -0.09060632 0.06350973 -0.04580404

actor.customer_encoder.0.BN1.running_var f4 [32]
00000000: 09f6 a33c 51d1 3c3b 9bd6 093d 0114 923c
00000010: 5fd2 f43c b311 013d 1f0c 803c 46ca 353b
00000020: 6833 2b3c dc75 323b 0013 d83c 26b9 653c
00000030: a38a a43c a10c 643d 83a7 2f3c 442f 353c
00000040: dd4e b93b ca68 083c 60b9 303c ba6c e33b
00000050: d233 093c dc2d 0a3d 1ad3 3f3c 9b4a a53b
00000060: c86b 7e3c 0074 013b f113 7d3c 155c 763c
00000070: c2a7 1c3d f830 863c 3420 843b 4ad6 5c3c
0.02001478 0.0028811286 0.03365193 0.017831804 0.029885469 0.03151102 0.01563078 0.0027738973
0.010449268 0.0027230894 0.026376247 0.014021194 0.020085638 0.055676106 0.01072109 0.011058632
0.005655153 0.008325765 0.010786384 0.0069404515 0.008374171 0.03373514 0.011708045 0.005044294
0.015528627 0.001975298 0.015446649 0.0150366025 0.038245924 0.016380772 0.004032159 0.013478825

actor.customer_encoder.0.FFN_layer1.weight f4 [32, 32]
00000000: 1ebc cabc 9a45 33be 045c c03d 325c a6bd
00000010: 3e0f db3d 56a6 f3bd 8b01 273e 3688 89bc
00000020: cb83 2c3e 826c 963d 9ab8 fa3d 4ca9 d23c
00000030: 85b1 e0bd 0bd6 aa3c a93e 233e 6459 18be
00000040: 36eb 6e3d 5cba 46bc 8546 063e 2610 04be
00000050: b13d 08be 3b5e 233d 1940 41bd c9b3 90bd
00000060: 9f18 353d 0f97 fc3d 2f8f 02be df6d 6ebc
00000070: ee7e 9abd b5fe d0bc 27c9 a8bd 70d7 2a3e
00000080: af8b dc3d 08cc 9f3d a4aa 53bd ba1d b23d
00000090: 7879 cfbd 375c 12be 6d44 d4bd 07b7 93bd
000000a0: 3ca5 12be 3f4a df3d 0a58 ecbb b6f9 89bd
000000b0: 84b4 d5bd bbe2 103e 2827 1e3e 9362 efbd
000000c0: adb9 123e 3486 6f3c fb1f 6ebd 431a b23d
000000d0: aa0d 03be 3de6 34be ef86 8fbc 88ea ff3d
000000e0: 2243 173e 696c 203e 57f4 a63d 9d6b 313d
000000f0: f977 4b3c e81d 00be 3b20 123e d7e1 163e
00000100: 7d86 28be 7c3e 63be e4c6 12bd eb1b 98bd
00000110: d7d5 a1bd 9eda 273e 7cdc d0bc 9e31 533e
00000120: c52d 3fbc f147 95bc a910 02bc e6d7 79bd
00000130: 9be7 67bd 22ec 93bd dbc2 a7bd acd5 a73c
00000140: 0ff3 723d 4112 b73c b30b 613d 47f8 7fbd
00000150: 994d 2ebe 61e3 863d f9c2 f83c 97e7 42be
00000160: bdb2 373e 5b54 6ebd f891 08be 32eb e0bd
00000170: a7ee 3cbd 7b5e 1bbe aa75 fa3c 1c02 d5bd
00000180: e6f3 edbd 41b1 333e dc60 70bd 0cde 96bc
00000190: 0509 dabd f0ec fcbb 0037 cfbd b36a d9bd
000001a0: 1fab c6bd 4253 3ebd 500e 673d ac2a 883d
000001b0: d2b5 de3d 178f afbd 9ccf 10be c9f2 c2bc
000001c0: 9501 0b3e 01c0 f93c 0a1f 1f3e acce 123e
000001d0: 83be e43d a660 c2bc d8ee c43c 5b5a febd
000001e0: ec40 1e3d 9620 e73c 9e77 08be 9eec f4bd
000001f0: 2033 babd 548a 1c3b d9d2 78bc ebad 513d
00000200: 3b82 b6bd 2095 1c3e f127 b9bd 6ffb d43d
00000210: 70d9 2a3e 167e 1b3e 0418 bebd fde1 c3bd
00000220: 7ec7 8dbd 0a2d e7bd 34db 52bd db02 6cbd
00000230: 733a 933d a07b 133e ea7a 783d 9909 993c
00000240: 6664 50bd f5a3 85bd fc56 3b3e 718d 23be
00000250: 4df1 26bb 8833 26be a0b0 5ebd 016b 01be
00000260: a335 3dbe fa53 ac3d 8d48 b6bd 8a6d 063d
00000270: e43d 193e e411 ddbc ba17 4e3d 05bc 81bd
00000280: 5c73 f93d 0db5 3f3e a0f3 70bd 78f2 15be
00000290: 6a33 043e ff7a 093e cbfa a33d 9249 d9ba
000002a0: 5038 353d 0ef4 033d 7b51 df3c 782a 3cbd
000002b0: e39a 2d3d a914 283e a8bd 56bd 17f4 0bbe
000002c0: 0c00 f2bd 3d7c 99b9 35a1 7b3d 24e2 d13b
000002d0: 2674 213e b6bd 243d 6b58 8e3d ccf3 24be
000002e0: e37f ec3d 7e4b 0f3e 517b 483d 7895 983d
000002f0: 3b17 1ebe 64a6 1a3e f20f 15bc 83f2 31be
00000300: e37e a73d 1db6 b83d 6168 053e 542f 3e3e
00000310: d890 453c f93c e73d 4845 3c3e 8180 b93d
00000320: a881 453d a08c 21bd 1df2 fcbd 65ee aa3d
00000330: 0632 1ebe b6b2 e03c aa2d 15be a539 2ebe
00000340: b302 72bd 5b84 31be 2e32 b73d 8b7a fe3c
00000350: 2112 9abd 3ac5 173e 3b67 7b3d 79cc c23d
00000360: c85d cebd 43f0 2abe e816 1ebd 9ffd 063e
00000370: ac0e 06be 510b 06be 7510 bd3c fa1f 5e3d
00000380: 8872 aa3d a777 a43c 5c55 a8bc 42f2 a7bd
00000390: e149 49bc 4cb4 103e bff0 e5bd d8f6 2bbe
000003a0: ab5b 73bc 8fea 8b3a f92f ee3d 5883 5e3d
000003b0: 4770 3c3e 914c a9bd aa96 873d 61d3 b4bd
000003c0: 564f eebd e0ce a7bd b9fd 4f3e 3b3d e2bd
000003d0: 404c c4bc 5cfe e13c 2afe efbd cc4a 173d
000003e0: 8518 f0bd 6091 153e 40f7 0c3e 168c a13d
000003f0: ea5c ee3d 6b8a 853d 7dc1 0c3d cb48 be3c
-0.024747904 -0.1750702 0.093925506 -0.081230536 0.106962666 -0.118969604 0.16309182 -0.016788583
0.1684715 0.07344915 0.12242241 0.025715493 -0.10971359 0.020854017 0.15941872 -0.1487785
0.058329783 -0.0121293925 0.13112839 -0.12896785 -0.13304783 0.039884787 -0.04718027 -0.07065541
0.044212934 0.123335 -0.12749933 -0.0145525625 -0.07543741 -0.025512079 -0.08241492 0.16683745
0.1076883 0.07802588 -0.051676407 0.08697076 -0.1013059 -0.1429299 -0.10364614 -0.07212644
-0.14320844 0.10902833 -0.0072126435 -0.06737082 -0.10434821 0.14148991 0.15444624 -0.116887234
0.14328642 0.014619399 -0.058135968 0.08696415 -0.12798181 -0.17665954 -0.017520396 0.12495905
0.14771703 0.15666355 0.08152073 0.04331552 0.01241874 -0.12511408 0.14270107 0.14734589
-0.16457553 -0.22191805 -0.035834208 -0.074272 -0.07902115 0.1639199 -0.02549576 0.20624396
-0.011668627 -0.01822278 -0.007938542 -0.060996912 -0.05661736 -0.07222773 -0.081914626 0.020487629
0.05931383 0.022347571 0.054942798 -0.062492635 -0.17021789 0.06586338 0.030366408 -0.19033657
0.17939277 -0.058185916 -0.13336933 -0.1098236 -0.046126034 -0.1517276 0.030573685 -0.10400793
-0.116187856 0.17548086 -0.058686122 -0.018416427 -0.106462516 -0.007718675 -0.10117912 -0.106160544
-0.097006075 -0.04646612 0.056410134 0.06648764 0.10874523 -0.08572214 -0.14141697 -0.02379741
0.13574822 0.030487062 0.15539184 0.14336652 0.1116915 -0.023727726 0.02403967 -0.12419578
0.038636133 0.02821378 -0.1332688 -0.11959194 -0.090917826 0.002388616 -0.015186989 0.05119125
-0.08911558 0.15291262 -0.09040821 0.1039952 0.16684508 0.15184817 -0.09281924 -0.09564588
-0.06922816 -0.112878874 -0.05147858 -0.05761991 0.07188883 0.14402628 0.060664095 0.018681334
-0.050876997 -0.06525413 0.182949 -0.15971924 -0.0025473416 -0.16230595 -0.05436766 -0.12638475
-0.18477492 0.08414455 -0.08900557 0.03281931 0.14965016 -0.02698607 0.050315596 -0.0633469
0.12180206 0.18721409 -0.05882609 -0.14643276 0.12910238 0.13425826 0.08006819 -0.0016577712
0.044243157 0.03221517 0.027260533 -0.04593894 0.04238404 0.16414131 -0.052426964 -0.13667332
-0.11816415 -0.00029275 0.061433036 0.006405132 0.15766963 0.040219985 0.06950458 -0.16108626
0.1154783 0.13993642 0.04894573 0.07450384 -0.15438549 0.15102535 -0.00909804 -0.17377667
0.081784986 0.0901911 0.13028099 0.18572742 0.012058459 0.112909265 0.18385804 0.09057713
0.048219353 -0.03944075 -0.12350867 0.083462514 -0.1544877 0.027428966 -0.145682 -0.17014177
-0.059084605 -0.17335646 0.08945118 0.031064292 -0.07522989 0.1482133 0.061377745 0.09511656
-0.10076481 -0.16693215 -0.038596064 0.13182686 -0.13091534 -0.13090254 0.023079136 0.054229714
0.08322626 0.020076586 -0.020548515 -0.08200504 -0.0122856805 0.14131278 -0.11227559 -0.16793382
-0.014853398 0.0010674762 0.11630244 0.054324478 0.18402205 -0.08266557 0.06620534 -0.0882938
-0.11636226 -0.08193755 0.20311631 -0.11046835 -0.02396214 0.027587108 -0.117184 0.036936566
-0.11723427 0.14606237 0.13766193 0.078880474 0.11638816 0.06520542 0.034364212 0.02322807

actor.customer_encoder.0.FFN_layer1.bias f4 [32]
00000000: add7 2b3d 3efb b03d daf3 8cbc 0a45 d03d
00000010: b9bc e23c 4007 07be 4c58 2d3e 58a2 44bc
00000020: ad2f 6dbd 5482 903d 0c60 d63c 7bea 24be
00000030: 72ab 203e 7c27 07bc 27f0 923d da87 84bc
00000040: 9fa2 15be 31a2 02be 8091 0abd d107 33bd
00000050: 5026 113e f42f 0e3d 616a 243e 266c 223e
00000060: 3b2e bc3c 5d13 59bd afed 0ebb cbed 63bd
00000070: 224a 36be 93f0 743d 5588 933d ef83 52bd
0.04195373 0.08641671 -0.017206121 0.10169418 0.02767788 -0.1318636 0.16928214 -0.012001596
-0.057906795 0.07056108 0.026168846 -0.16105072 0.15690401 -0.00824916 0.07174712 -0.01617806
-0.14612816 -0.12757184 -0.033830166 -0.043708626 0.14174771 0.0347137 0.16056205 0.15861568
0.022971263 -0.052996982 -0.002180915 -0.0556467 -0.17801717 0.059799742 0.07203738 -0.051395353
