output/282nodes_entropy0.01_0.4_0.85_2_230823/epoch17.pth (torch, 519145 bytes, 129 tensors)

critic.ff_layer1.weight f4 [32, 283]
00000000: bd53 e43d 2acf 9c3d 2960 2abc 98a9 433d
00000010: f6dc 533c 0b9c 17bc f31f b2bc 1d88 363d
00000020: 4b6f 583d 7f4e 5abc 7f07 4d3d 1440 9b3c
00000030: 082a 453d 58c4 253d d203 2f3d ee5f 5a3c
00000040: b561 313d 962f e23c cc5a bebc 94b3 183d
00000050: f60d a2bb 58ef 013d ebd2 8cbc 832f 6f3d
00000060: 7602 27bd 4201 89bc 2bc2 71bc 7310 d1bc
00000070: 1c87 21ba c838 ecbc 42fa 8b3d f11a d9bc
00000080: 63a8 893d 4b6d fb3c f0bd 9bbc 2ebc 5b3d
00000090: 8723 173d d0b3 793d b703 5b3c 7681 8ab8
000000a0: d1e1 013d 635b 3fbb d2ed 5d3c 937a 2e3d
000000b0: 815a 4b3d 7686 9ebc 6e63 083d 5703 623c
000000c0: 0004 403d 8c6e 11bd d56a 27bd 7a01 c3bc
000000d0: 3fe7 92bc 1974 8c3d c91a b73c 0160 ac3c
000000e0: 5b8f ad3c 2289 3dbb b3ea 8d3d 1a5a cabc
000000f0: fd04 3f3d 7188 88bc 0e2e 183d 009e bebc
00000100: 8f91 a43c e06f debb 6a97 d63c c985 90bc
00000110: ffb8 f6bc f159 54bc f930 a63d 2fdf b33b
00000120: b885 7b3d e539 8ebc b3ea 38bd 70dc d7bc
00000130: dda1 67bb 244c fa3c 98f2 0f3d 70f8 683d
00000140: 6213 ebbc 8eea b3bb 4c77 a33c 7edc d9bc
00000150: 2c0f 263d 756b a1bb 2611 483d f8ca dbbc
00000160: 7526 66bc a233 ac3c b660 273d 995a 443c
00000170: 1f9b 803d e443 fb3c f791 afbc 0c33 08bd
00000180: 09bc 2c3d 272d bdbb 4cee dabb c760 ddbc
00000190: 9f66 d6bc 6623 9c3c 0a00 09bc d764 41bd
000001a0: 6a33 133d 684f 2bbd 9775 c3bc eddc 2bbc
000001b0: 8de2 37bd d9f1 03bd 5bd1 ad3d 7aef a23b
000001c0: 6c09 533d 7dba f3bc d191 e9bc 1544 63ba
000001d0: 78de ffba 64ff 3fbd 80b3 34bc 4fae 28bd
000001e0: 07f8 933b 5f6d 343b eac2 81bc 3b72 62bc
000001f0: 8899 24bc f585 13bc 1e86 61bc bf82 1bbd
00000200: f318 913d d8fd b33c 3327 5b3d 40ae a53c
00000210: 1df0 d7bc b499 783d a9a6 253b e4e8 c5bb
00000220: 706f 0ebd d4f8 42bd a2a0 c53c 1d8e 3fbc
00000230: 1372 013d a004 86bc 56c1 9c3d d87e 443b
00000240: 955a 6ebc c26e 9f3c 8088 293d c1d8 843d
00000250: 1bd4 263d 24c5 13bd ef45 743c 2da7 41bd
00000260: ec60 7a3b 182c d0bb 1c45 b43d 343a 28bd
00000270: dfed a43c 3f26 893b 8b72 a63c ca93 78bc
00000280: a7f2 843d feba 1cbc 93d3 203c 3bdb 77bd
00000290: 6134 e23c 814a 673c a7c0 1fbc 5edb 993d
000002a0: 1282 bf3c 06ac 1bbd 8436 cfbc 641a 8fbc
000002b0: 7f47 543d b052 153c f65f 09bd 7247 89bb
000002c0: a27e a5bc 03bd ea3c 73e2 843d c3ae 1abd
000002d0: 3158 bb39 ae6e 313d 6dd1 883b ea8c c9bb
000002e0: 10f4 f43c b20c 103d f7d9 553c 78cf ed3b
000002f0: e5e3 cdbc 6248 71bc cd5a ed3b ca1a eabc
00000300: 13b1 883d bba7 043d d90f c03b 362d 483c
00000310: ecf3 0e3d 966d ccbb b8d9 213c 3713 c83c
00000320: c749 f4bc a358 8f3b 36dd 413d 3023 083d
00000330: a0aa 103c 4d3b 2bbd 13d9 71bc 57b0 fdbc
00000340: 3b00 88bc 83ee 003d 5494 4c3d 161b 713d
00000350: 4adc 98bc 540f 0dbd dbe7 c5bb 2cfe 6d3d
00000360: ace1 c2bb fdc1 0abb 55e2 bd3c dfb3 20bc
00000370: 1398 f8bc 7775 923d 4085 ca39 276d 983b
00000380: 75ad 08bd 46c9 533d 07a4 3a3d 52a2 da3c
00000390: 8912 50bc 70b0 3cbd 89ca 20bd 7f02 993d
000003a0: bdfb bc3c 4925 8b3d bff1 c53c ff71 7b3c
000003b0: 8365 abbb c25b babc bc4c cabc 9c43 cfbc
000003c0: 8a17 1d3d 219a b6bc f468 35bc 458c 16bd
000003d0: c8f7 2b3c ceba 75bc 58b8 dbbc 97d8 c93c
000003e0: 611e 08bc cd15 373d 3fa2 c93c 098a 26bd
000003f0: 63a6 eebc 8633 43bc d3f1 23bd 024e 45bd
0.11148784 0.07656701 -0.010398903 0.04776916 0.012931099 -0.009253512 -0.02174375 0.0445634
0.052840512 -0.013324379 0.050055977 0.018951453 0.048135787 0.04047045 0.042728253 0.0133285355
0.04330607 0.027610581 -0.023236655 0.037280634 -0.004945512 0.031722397 -0.017190417 0.05839492
-0.04077383 -0.016724233 -0.014755766 -0.025520539 -0.00061617955 -0.02883567 0.06834842 -0.026502104
0.0672157 0.030691763 -0.019011468 0.05364626 0.036899116 0.0609625 0.013367585 -6.604467e-05
0.031709496 -0.0029198758 0.01354547 0.042597365 0.049646858 -0.019351225 0.03329795 0.013794742
0.046878815 -0.035505816 -0.040873367 -0.023804415 -0.017932532 0.06858081 0.02235164 0.021041872
0.021186521 -0.002892085 0.06929531 -0.024701167 0.046635617 -0.016666623 0.037153296 -0.0232687
0.020088939 -0.006788239 0.026195247 -0.017641919 -0.03011751 -0.012960897 0.081148095 0.005489252
0.06140682 -0.01736159 -0.0451457 -0.02635023 -0.003534428 0.030553885 0.035143465 0.056877553
-0.028695766 -0.0054906076 0.019954346 -0.026594397 0.040541813 -0.00492614 0.04884448 -0.026830181
-0.014047255 0.021020714 0.040863715 0.011984491 0.06279587 0.030672021 -0.021431906 -0.033251807
0.04217151 -0.005773205 -0.006681239 -0.027023686 -0.02617198 0.019059848 -0.008361826 -0.04721531
0.035937704 -0.041823775 -0.023859782 -0.0104896845 -0.04489379 -0.032213066 0.08487197 0.0049723955
0.051522657 -0.02975201 -0.028511913 -0.0008669508 -0.0019521257 -0.04687442 -0.011029124 -0.04118186
0.004515651 0.002753101 -0.015840013 -0.01382118 -0.01004637 -0.009004106 -0.013764886 -0.037966486
0.07084837 0.021971628 0.05350418 0.02022469 -0.026359612 0.060693458 0.002527634 -0.0060397256
-0.034774244 -0.047600582 0.024124447 -0.011691597 0.03160293 -0.016359627 0.076540634 0.0029982831
-0.014547964 0.019461993 0.041389942 0.06486655 0.040729623 -0.03607668 0.014909252 -0.047278572
0.0038204743 -0.0063529126 0.08802244 -0.04107113 0.020132957 0.0041854675 0.02031829 -0.015171954
0.06491595 -0.009566067 0.009816068 -0.06051181 0.027612867 0.014116884 -0.009750522 0.07512544
0.023377452 -0.03800585 -0.02529455 -0.017468639 0.051825996 0.0091139525 -0.03353878 -0.004189425
-0.020201985 0.028654581 0.06488504 -0.037764322 0.00035733127 0.043318443 0.004175356 -0.0061508315
0.029901534 0.035168357 0.013052455 0.007257398 -0.025133083 -0.01472673 0.0072434903 -0.028577227
0.06674399 0.032386523 0.005861264 0.01221781 0.03490059 -0.0062386496 0.009878568 0.024423225
-0.029820336 0.00437458 0.047330104 0.033236682 0.008829743 -0.0418046 -0.014761227 -0.030967874
-0.016601672 0.031477463 0.049946144 0.05886372 -0.01865973 -0.034438446 -0.006039602 0.058103725
-0.0059473123 -0.0021172755 0.023179213 -0.00980851 -0.030345952 0.07151311 0.0003862772 0.004651684
-0.033368547 0.05170562 0.045566585 0.026688728 -0.012699732 -0.0460667 -0.039255653 0.07471179
0.023069257 0.06794221 0.024163125 0.015347003 -0.005230607 -0.022748832 -0.024694793 -0.025300793
0.038352527 -0.022290291 -0.011072386 -0.036754865 0.010496087 -0.014998151 -0.0268213 0.02463941
-0.008308024 0.044698525 0.024613498 -0.040658984 -0.029132074 -0.01191414 -0.040025543 -0.048170097

critic.ff_layer2.weight f4 [283, 32]
00000000: 018f ebbd e60d 9a3e b0b5 d7bd c83e 76be
00000010: 0e5e 283e 8bfc 1cbe 9e3e 253e e05b d9bd
00000020: a1f7 64be a168 9cbd 691d ebbd 44bf a33d
00000030: 224a 60be b73b 63be a073 9dbd b949 be3e
00000040: 46fc 3cbe ada5 32be dd0f dd3d 240b 783e
00000050: 55f3 bd3e f605 1ebe de14 e1bd b1ce 51be
00000060: 6ea4 ab3e 1470 343e 1711 fabc 76ea 80be
00000070: f75a e63d 7fc0 c7bd 5482 5a3d 0c47 923e
00000080: c00d 0fbd 4a41 b8bd 4c9a 123e 7273 933d
00000090: 7d34 673c 5279 a8bd 31ca c9bd 7030 1cbe
000000a0: e16b d0bd d768 00be b851 fabb fc2a 08be
000000b0: 08d8 c23d 05c5 1bbe ff57 d2bd 7c8b cbbd
000000c0: a588 7fbd 310d b53d 4db4 c63d 4fcd 263e
000000d0: a58d 6cbd d4b8 1c3d 570b 89bc 7ff0 dd3d
000000e0: c7fe 7a3d ac84 c13d c19c 1a3e de4b d53d
000000f0: c688 8dbb fc1d c53d 576c c1bd 43ee 8dbd
00000100: 166e 5dbd 94df 80bd 517c 203d 42e0 33be
00000110: c1ce cbbd 6928 28bc 300a 3e3d bf1f e63d
00000120: 717b f1bd 7a83 673d 86c3 903d 3f14 ccbd
00000130: cfce 1e3d 8e9d 80bd 1865 5a3c 3653 a2bd
00000140: afdc 4fbd 921d 67bd 3103 253e 96b6 1e3d
00000150: a1b6 2dbe b7b7 153d 4db7 023e c9a5 8cbd
00000160: bc16 b6bd 5194 02bd a865 13be 1cea 3dbd
00000170: 3bb3 753c 0491 f6bd 586f 03be e50b debd
00000180: aa25 01be 0c34 ebbc dcc6 853d 2b1d bb3d
00000190: 2979 2f3e 680f c13d ab82 adbd d0e5 b9bc
000001a0: 73cc a0bd 29a9 863d 6b96 a93c 9f30 923d
000001b0: a5df 00be aaae d33d 8bca 29be b151 afbc
000001c0: 6a33 2fbe 0e37 f03d ae26 abbd c36f 12be
000001d0: 211e f9ba c0b7 0b3e a89b cfbc 88eb 8d3d
000001e0: 2588 593d 3d51 11be 177b 813d 04f8 ad3c
000001f0: a9f8 dbbd c144 b23d b45d 203e 059d ce3d
00000200: 9e9d 04be 6f57 613d 57e1 083e 870c 333d
00000210: 4720 1cbd aeba b83d b1f5 0abe 6d7e adbd
00000220: 880e 893d 2268 f13d de55 3bbd cd43 163e
00000230: 5fc0 953d 4ca1 483d eac1 f73d e81a 823d
00000240: c2ec c73d 64e0 e23d f8eb b7bc 5ee5 f53d
00000250: 3bfa 703a 97c9 98bd eb91 803d ca99 713c
00000260: dceb eebd 2581 e33d e264 ae3d 9a2c c03d
00000270: 7619 613c fa13 c63c 4294 8e3d 0f62 a0bd
00000280: 3520 a23d 86e8 f0bd b931 89bc caed 023a
00000290: 351b e93d b809 533d 5562 273e 0e72 b0bd
000002a0: 9088 1ebd 8d1f 91bc 0bbf 003e 5d8d 273e
000002b0: 5921 223d 6a4e 09be caad e4bd d655 72bc
000002c0: c262 28be 161f b4bd e90e ecbd 16ae aa3d
000002d0: 1890 a2bd 1179 e7bd 3540 b33d 2268 16be
000002e0: fe85 f7bc fc40 293e 7a67 843d c816 16be
000002f0: 3acf 8f3c e545 17bd 4664 953d d9ee f63d
00000300: 7a7e 173e 191b 35bd a367 a83d 1427 2dbe
00000310: f81e 073e 6d2f af3d 9793 03be cf04 29bd
00000320: d0c0 45bd 2e75 aebd b97d 4c3d c72e 40bd
00000330: b56c 863d 14a3 6abd c0c3 173e 557f 7fbd
00000340: b4ab 69bd f63e 1ebd 1293 bb3c 5333 9cbd
00000350: a81e b8bd 0baf 18be 727e f43d bd46 783c
00000360: e511 d9bd 0948 b03d 0a98 1bba 4c3e a5bd
00000370: 6681 9dbc 612a 603b a0f6 da3d 7e78 1abe
00000380: 7f1b 1abe 4da0 2abe 5075 1abe 81b5 66bd
00000390: c0f4 c73d da03 083d 1f36 683d 2058 6f3c
000003a0: 627d babb 0a78 1bbe 07a1 0e3e a94e 273e
000003b0: 3f51 0ebb 3879 423c c29c f13c 7ec0 8d3d
000003c0: 43e6 66bc 7485 b1bb ac9d f7bd fe6b 053d
000003d0: 1190 cc3c f115 10be b5d0 233d 5c3a 833c
000003e0: d014 0e3c 87ec a93d e839 77bd b541 ca3c
000003f0: edc7 f8bd 9374 c83d 4278 21be 0fba 27be
-0.11501885 0.3008873 -0.10532701 -0.24047387 0.16442129 -0.15330712 0.16137168 -0.10613227
-0.22360088 -0.07637144 -0.11480219 0.079954654 -0.2190328 -0.22190748 -0.07688069 0.3716562
-0.1845561 -0.17446013 0.10794041 0.24223 0.3709971 -0.15431961 -0.10990308 -0.20489003
0.33523887 0.1762088 -0.030525727 -0.2517888 0.11247819 -0.097535126 0.053346947 0.2856983
-0.034925222 -0.08996828 0.14316672 0.07199754 0.014111635 -0.08226265 -0.09853018 -0.15252852
-0.10176826 -0.12539993 -0.007639136 -0.13297647 0.09513861 -0.15211876 -0.1027069 -0.09938714
-0.062386174 0.08840407 0.097023584 0.16289257 -0.05775227 0.038262203 -0.01672904 0.108368866
0.06127813 0.09449133 0.1509886 0.10414861 -0.004319283 0.0962486 -0.09444492 -0.069302104
-0.054060064 -0.06292644 0.039181057 -0.17566016 -0.099515446 -0.010263541 0.046396434 0.11236524
-0.11791123 0.05652187 0.07068543 -0.09964799 0.038771447 -0.06280051 0.013329767 -0.079260275
-0.05074757 -0.056424685 0.16114499 0.038748346 -0.16964199 0.036552157 0.12765236 -0.068675585
-0.08891055 -0.031879727 -0.14394248 -0.046365842 0.014996345 -0.12039378 -0.12835443 -0.108421125
-0.12612024 -0.028711341 0.0653207 0.09136423 0.17136063 0.09426767 -0.084721886 -0.022692591
-0.078514956 0.065752335 0.020701608 0.0713818 -0.12585314 0.10336049 -0.1658117 -0.021401258
-0.17109457 0.11729251 -0.08356987 -0.14300446 -0.0019006171 0.13644314 -0.025342777 0.0692969
0.053108353 -0.14191146 0.06322306 0.021236427 -0.107407875 0.0870452 0.15660745 0.10088543
-0.12950751 0.055015024 0.1336721 0.04371312 -0.03811672 0.09019981 -0.13570286 -0.084713794
0.06692225 0.1178744 -0.045736186 0.14674301 0.073120825 0.04898195 0.12097533 0.06352788
0.09761955 0.11077955 -0.022451386 0.12006639 0.00091925607 -0.07460325 0.06277832 0.014746139
-0.1166608 0.11108617 0.085153356 0.09383507 0.0137389805 0.024179447 0.06961872 -0.07831203
0.07916299 -0.117631 -0.016747342 0.000499454 0.113821425 0.05152294 0.16346104 -0.08615504
-0.038704455 -0.01771524 0.12572877 0.1636252 0.039582584 -0.13408819 -0.1116596 -0.014790973
-0.16443923 -0.08794992 -0.115262814 0.083339855 -0.0793764 -0.113023885 0.08752481 -0.14688161
-0.03021526 0.16528696 0.06465049 -0.14657128 0.017554868 -0.03693189 0.07294516 0.12057275
0.1479434 -0.044215295 0.08222892 -0.16909438 0.13195407 0.085539676 -0.1284927 -0.04126435
-0.048279583 -0.08518444 0.049924586 -0.04691961 0.06563703 -0.05728443 0.14820766 -0.062377293
-0.057048514 -0.038634263 0.022897277 -0.07626977 -0.08990222 -0.14910524 0.1193818 0.015153584
-0.10599116 0.086074896 -0.00059354363 -0.08068523 -0.019226741 0.0034204947 0.10691571 -0.15085027
-0.15049551 -0.16662712 -0.15083814 -0.05632544 0.09763479 0.033206798 0.05669224 0.014608413
-0.0056912163 -0.1518251 0.13928615 0.163386 -0.0021715907 0.011869721 0.029493693 0.069214806
-0.014092985 -0.00541752 -0.120906204 0.032573693 0.02497104 -0.1407087 0.03999396 0.016019039
0.008671954 0.08297067 -0.060357958 0.024689535 -0.12147508 0.0978786 -0.15768531 -0.1637957

actor.customer_encoder.0.attention.query_embed.weight f4 [32, 32]
00000000: ebe0 ac3e 0758 433d e6b0 193e f241 a93e
00000010: a47b b3be 9a29 b1bd 9952 1ebe ecc6 69be
00000020: 177b 5e3e a57a 453e da47 9a3e 323d c33e
00000030: 7386 5cbe 2f83 423d 870a 023e 83ed a5bd
00000040: 6cf6 5c3e a43e b03e 6f38 c5be b81c cfbd
00000050: 6b47 2d3e 6a52 94be 38c3 e2bd 73c1 383e
00000060: 6256 f23d cd17 4ebe 4124 40bd 8b16 483d
00000070: f618 c43e 3d4f 83be 05d9 aa3c e199 e9bd
00000080: 1033 bc3e 5d40 8d3e f167 d2bc 7aa5 1abe
00000090: f876 a63e 1bfd 9bbc 81d6 b5bd 7723 8d3e
000000a0: 7d50 c03d 9c69 a53c 3559 af3e 44fd 1ebe
000000b0: a59c 863e b840 4b3e 52e7 58be da76 a93e
000000c0: 7079 013e 6ef8 7abe 2d99 883e 50f8 97be
000000d0: 54c5 b63c 54f5 0f3e 6aef 253e 2afb a9be
000000e0: 5010 a93e daac 9a3e 5ec5 633e 19f8 163e
000000f0: c5ae 4fbe bd4e 803e f993 543d ab14 9dbd
00000100: f34f 06be 472a 5c3d cdb5 d9bd 56b5 96be
00000110: 9405 4bbe ec19 1bbe cdca 72bd 4fec 44be
00000120: cd9a c4bd 2421 70be 2c0c 8abe f1c1 3a3e
00000130: 1100 9abd 840b 14be ce22 1abd 4a45 ea3c
00000140: fb4c 81be fe1b 353e ac91 2d3e 6eaa 3d3e
00000150: 1aa3 6ebe 9b21 b23e da1b 633e 98e7 0a3e
00000160: 60bd 2f3e cd74 42be 1a2e c63d a9f6 923e
00000170: 247a f03d 115c ad3b b8a2 b6be 0081 d4bd
00000180: 0bc8 64be 419c 9a3e fd38 47bd 0362 b3bd
00000190: bc11 bbbe ae1c 97be 3087 11be 33db 1e3e
000001a0: 8508 72bd 5837 2e3e 8a40 af3e 8a50 4fbe
000001b0: f49e b93d 452a 353d 5d34 95be 57d5 3fbd
000001c0: 329e 883d f866 14be 368a 83be 89c8 943e
000001d0: b426 073e 1624 a8be e952 b3be bc5b 843d
000001e0: c1f6 33be 43ec a03d 76b0 243e 6520 783d
000001f0: 1258 663e 376f 163e c6e1 11bd cf4e 9c3d
00000200: 9380 d9bd dbf8 44be ee4c bdbe e850 153e
00000210: d310 993e 8247 fabd 3de5 593e 2f98 923e
00000220: f9e3 6f3d 1e87 2e3e 3eba 10bb 831f 3e3e
00000230: f179 3f3e d09a 603e d07a 9e3e 03c9 0fbe
00000240: e4d5 da3d 5e5c 023e 290b 80be 5767 98be
00000250: 0535 72bd 39fe 343e 2a54 963e 491c f4bd
00000260: d50f 27be ba47 9dbe c49c 4a3e 051f 49be
00000270: 474c c73d 242c 113e 72f4 5dbd c285 ac3e
00000280: a13f 833e 870b 2bbd ed3f b9ba 9fd0 673e
00000290: c1df 59be 754f 93be e13b 6e3e 713e 47be
000002a0: 76d4 ea3c 3970 b73c 35aa 883e a787 623d
000002b0: 91cd 0d3d c060 9a3d 4224 1bbe 5f32 b1be
000002c0: 710c 983e 5fc3 88be a913 88be 998e a2bd
000002d0: 18a2 683e 116c 1abe 8f3f 873e df6b fa3d
000002e0: cd88 763e d503 0bbe 9846 2a3e a739 ae3d
000002f0: 4129 a23e 7250 2dbe 3973 a13e c2fd 6dbe
00000300: 7457 6bbe 8767 ae3e 0c6a 4c3e e003 583e
00000310: 1a90 4bbe 3327 a23e 1a0d b1bd d582 963e
00000320: 4842 613e 9e55 a4be 6f2d 8cbd 82ae c03e
00000330: fe0f 533e c192 703d e3e7 9dbc 3f10 173e
00000340: 0e25 d5bd b358 c4bd 70bb 6dbe 82f7 dabc
00000350: fb2e 63be 57e7 56be 61be 673e dfac 5b3e
00000360: f15a 22be 763c 99bd 9470 1fbe f7ca 413e
00000370: d279 51be 4d0e 4dbe 8757 253e 2641 683c
00000380: 1736 f43d 9f23 0dbd 1cd6 bb3e d35b 57bd
00000390: f67c 923e 6888 573d 11f7 ad3e 927f 61be
000003a0: 44f2 4f3e f0ea f4bd a018 573e 789d 89be
000003b0: 5c0c 4c3e ea30 b0bd de2f 10be a032 00be
000003c0: fa00 823e c810 48bd 6c35 93bd da50 a33e
000003d0: 9b1c 7a3e cc32 6e3c 66c4 02be 2f00 bd3d
000003e0: 385a 9cbd 6707 9b3e b34f 0c3e 0fd2 833e
000003f0: 89fc 553e 2d31 c0bd ed3a 8bbe 0122 06be
0.3376535 0.04769137 0.15008888 0.33058125 -0.35055268 -0.08650513 -0.15461196 -0.22829789
0.21726643 0.19285066 0.30132943 0.38132626 -0.21535663 0.047488388 0.12699328 -0.081019424
0.21578377 0.3442279 -0.38519618 -0.101128995 0.16921775 -0.28969127 -0.11072391 0.18042545
0.118328825 -0.20126267 -0.046909574 0.048849624 0.38300294 -0.25646392 0.020855436 -0.11406303
0.36757708 0.27588168 -0.025684329 -0.15102187 0.3251264 -0.019041589 -0.08878804 0.2756612
0.09390352 0.02019196 0.34247747 -0.155263 0.26291385 0.19848907 -0.21181992 0.3309849
0.12643981 -0.24508831 0.26679364 -0.29681635 0.02231089 0.14058429 0.1620461 -0.33199435
0.33020258 0.3021 0.22243258 0.14743079 -0.20281513 0.25060073 0.05189893 -0.07669958
-0.13116436 0.053751256 -0.10630379 -0.29435223 -0.19826347 -0.15146607 -0.059275437 -0.1923077
-0.095998384 -0.23450142 -0.2696241 0.18238045 -0.07519544 -0.14457518 -0.03763085 0.028597493
-0.25254044 0.1768646 0.169501 0.18522045 -0.23304406 0.34791264 0.22178593 0.13564909
0.17162085 -0.18989868 0.09676762 0.28703812 0.117420465 0.005290516 -0.3567102 -0.10376167
-0.22341935 0.30197337 -0.048638333 -0.087589286 -0.36536968 -0.29514068 -0.14211726 0.15513305
-0.059090156 0.170133 0.34228927 -0.20245567 0.09063521 0.044229764 -0.29141513 -0.046834316
0.06670798 -0.14492404 -0.25691384 0.29059246 0.13198358 -0.3284003 -0.35024193 0.064628094
-0.17574598 0.07857563 0.1608294 0.06057777 0.22494534 0.14690863 -0.035615705 0.07632219
-0.10620227 -0.19235556 -0.36972755 0.14581645 0.29895648 -0.1222067 0.21278854 0.28631732
0.05856702 0.1704373 -0.0022083665 0.18566708 0.1869886 0.21934056 0.30953074 -0.14041524
0.10685328 0.12730548 -0.25008515 -0.29766342 -0.059132595 0.17675103 0.29361087 -0.119194575
-0.16314633 -0.30718786 0.19786364 -0.1964074 0.097313456 0.14176995 -0.0541882 0.336958
0.25634483 -0.04175904 -0.0014133431 0.22638176 -0.21276762 -0.28771558 0.2326503 -0.19457413
0.028665762 0.02239238 0.26692358 0.05530515 0.03461987 0.07537985 -0.1515055 -0.34608743
0.29696992 -0.26711556 -0.265775 -0.079373546 0.22718084 -0.15080287 0.2641568 0.12227606
0.24075623 -0.1357568 0.16628492 0.0850709 0.316721 -0.16925219 0.3153322 -0.23241332
-0.2298258 0.3406336 0.19962329 0.21095228 -0.19879189 0.31670532 -0.08645077 0.29396692
0.2199794 -0.3209657 -0.06844603 0.3763314 0.2061157 0.058733705 -0.019275611 0.14752291
-0.10407458 -0.095872305 -0.23216033 -0.026729349 -0.2218589 -0.20986687 0.22631218 0.21452664
-0.15855004 -0.07482235 -0.15570289 0.18925081 -0.20456627 -0.20024987 0.1614667 0.014175689
0.11924379 -0.0344578 0.3668679 -0.052577805 0.28610963 0.05262032 0.3397756 -0.2202132
0.20307261 -0.11958873 0.21005487 -0.26877952 0.1992659 -0.086030796 -0.1408076 -0.12519312
0.2539137 -0.04884413 -0.07187924 0.31897622 0.24424975 0.014538478 -0.12770233 0.09228551
-0.07634395 0.30279085 0.13702278 0.257462 0.20897116 -0.093843795 -0.27193394 -0.13098909

actor.customer_encoder.0.attention.key_embed.weight f4 [32, 32]
00000000: ab8f 14be 71b3 193d e0fd 903d 78e9 c33e
00000010: 8ebf aa3e 7668 a2be 3c23 193e 3352 81be
00000020: 16d0 2fbe 4765 1e3e ce7b 87be 6f0e a53e
00000030: c0cd d23d 3997 6e3d 7283 683e 3468 a3be
00000040: 7aea 8c3d 807e d23d 2599 3fbe bda7 0cbe
00000050: 69f4 e53d 5867 a53e 4b62 09be 6ab5 5c3e
00000060: b3c6 343e 3d4f 4dbe 1c33 87be 2cb4 14bd
00000070: 5b13 7b3e 6b69 86be c221 79be 5ac4 8b3e
00000080: 46f5 4fbe 42e1 74be ad8b a3bc 9877 a63e
00000090: f061 723e a34a 423e 394f 663d 935e 47be
000000a0: 12bc 94be d573 3c3e 93b7 de3d 9e58 b23d
000000b0: 0214 e5bd 78e5 b8be f36d d23c b03f 6fbd
000000c0: 0975 bcbc ef53 433d 0c0e 44be 6957 53be
000000d0: 6f48 aabd 3e84 063e 43cc 60be ef96 ae3e
000000e0: 9c35 afbe dece 59be 00f5 c83d 5458 b2be
000000f0: 598d 56be 7b77 283e c3cf 7dbe 7666 ed3d
00000100: 07d2 3bbe 2cc3 21be cc0b 613d 0af8 f33c
00000110: 9b1a a73e 8e61 953d b046 843d 4305 44be
00000120: 82a5 953e e8ec 01bc fea4 543e 058b 90be
00000130: ac02 423e 5d85 903e 162d 613e 8b97 923e
00000140: a2d9 20be 79fe 7cbe d660 0b3e 9635 243e
00000150: 3390 55be 9f95 e6bd 62ad dcba 17e0 65bc
00000160: 79f1 2e3e 280a 833e 3e8b ce3d 6a57 14be
00000170: def0 67be 6fc4 9a3e 31ad 033d 2f31 36be
00000180: 253b 85be b066 82be 1303 a83e 85b1 48be
00000190: 7549 b1be 4b20 8ebe d1e3 38be f389 763c
000001a0: 0992 6abe a6c4 243e 6c84 8cbd d5e6 10be
000001b0: 6044 73be a396 bdbd 5d76 be3e e79d b53b
000001c0: d8a2 c03d 0137 b7be 98d4 4b3e daa8 2d3d
000001d0: 5a91 80bd 3dd1 863c e880 25be c7c6 90be
000001e0: cc02 3cbe c898 cf3d 0668 993e e124 7fbe
000001f0: 840a 343e b7fb 17be 3908 8d3e 1147 373d
00000200: 62d6 a0be dfaa 90be 7e37 b33d e844 383e
00000210: f01a d63d e6d2 d53d 436b 41bd 2a0f 51be
00000220: 0876 163d 2244 95be b098 373e f31e 06be
00000230: 2992 9bbe 4b41 ea3c d99f de3d 25b1 8bbe
00000240: 10d0 5ebe 00c4 43bd 639f 0abe 22c9 983e
00000250: e61d 8d3d 8b1a edbd 80e4 8fbe fb7e 7dbe
00000260: fcad 023e 441f 98bd e2b9 4c3d bfdf 8a3d
00000270: af50 753e 5b48 38bc 9c68 1d3e 9ca6 a7be
00000280: 698b 833e 004f a1be 5e72 debd 9d8b a7be
00000290: 6fda 3f3e 9424 e1bd cef9 b8be cd52 33be
000002a0: 8ed5 483e cec9 7b3e 2585 6d3e 56b3 a9be
000002b0: e299 26be 6837 8e3d 59fe 40bb c83b 48be
000002c0: ae76 b13e 1fba 70be 3a02 673e 65b2 5d3e
000002d0: 524c a3be 18b9 60be 0494 6cbe 0826 873e
000002e0: 2e0a a4be 963a 513b 748d d8bd 0887 b6bd
000002f0: 5f05 4fbe 5cfe 8fbe dcab 9cbe 2c94 dfbc
00000300: b0fb 483c 86fb 923d df74 ca3d e9a7 08be
00000310: c01b 4e3e cc1f 4b3e 8de5 90be 69d0 aa3e
00000320: cc20 a7bc 35b5 8ebb 3128 b0be 31ca 363e
00000330: 16dc 0a3e fff1 bb3d 0131 383e 5bbf a2be
00000340: d825 b13e d0e6 663e 7dd9 d1bd 73cf 3b3e
00000350: c5bc 08be bb32 d7bd 02da bebb e587 5e3e
00000360: 1c76 413e bff4 07be 57af 99be 6343 60bc
00000370: 7d02 1ebe 933f 24bc 4467 323e 70fc 733e
00000380: 5ad2 503c 02cd 293e 5ece 6f3d dfc8 42be
00000390: dcf8 573e 8e1d 6ebe ef2b a0bb a4bb 31be
000003a0: 7c7f 033c 85df 913e 680a fa3d 0761 0bbd
000003b0: ec8d 9cbe 89bb 8bbe c3b0 c4bd 885e 2dbe
000003c0: 5854 8a3d 1bdb a5be 5d30 b23e 234b a8bd
000003d0: 0274 703e 118d 753e 80c8 943e b46a 3cbd
000003e0: 7f2d db3c 866f 3a3e 7fb5 8cbe 4f7f ffbc
000003f0: 6bd7 023e 4e07 0fbd f7e4 84be a2bd 4f3d
-0.1450793 0.037524644 0.07079673 0.3826406 0.3334927 -0.31720322 0.14954847 -0.25258026
-0.17169222 0.15468322 -0.26461643 0.32237574 0.1029315 0.058249686 0.22706392 -0.31915438
0.0688066 0.10278034 -0.18710764 -0.13735862 0.11228258 0.32305408 -0.13416402 0.21553579
0.17653923 -0.20049758 -0.2640618 -0.036304638 0.24519102 -0.26252303 -0.24329284 0.27298242
-0.20308408 -0.23914054 -0.019964064 0.32513118 0.23670173 0.18973784 0.056227896 -0.19469671
-0.29049736 0.18403561 0.10874858 0.08708309 -0.11185457 -0.3611257 0.025687193 -0.058410347
-0.023005025 0.047687467 -0.19145983 -0.20638813 -0.08314597 0.13136384 -0.2195292 0.34099528
-0.34220588 -0.2127032 0.09812355 -0.34833014 -0.20952357 0.16451828 -0.24786286 0.115918085
-0.18341838 -0.15797108 0.05494289 0.02978136 0.32637486 0.07293998 0.06458795 -0.19142632
0.29227835 -0.007930018 0.20766065 -0.28231063 0.18946332 0.28226748 0.21989855 0.28631243
-0.1570802 -0.24706449 0.13611159 0.16036066 -0.20855789 -0.11259007 -0.001683634 -0.014030478
0.17084302 0.25593686 0.10085152 -0.14486471 -0.22650477 0.30227992 0.03214759 -0.177922
-0.26021686 -0.2546897 0.32814845 -0.19598968 -0.34626356 -0.27759013 -0.18055655 0.015047538
-0.2290727 0.1609064 -0.06861195 -0.14150555 -0.23756552 -0.09257247 0.3719968 0.005542505
0.0940606 -0.35784152 0.19905317 0.042397358 -0.062777236 0.016457194 -0.16162455 -0.28276655
-0.18360442 0.101365626 0.29962176 -0.24916412 0.17582136 -0.14842115 0.27545336 0.04474551
-0.3141356 -0.28255364 0.08750819 0.17995036 0.10454357 0.10440616 -0.047221433 -0.20415941
0.036733657 -0.29153544 0.1792934 -0.13097744 -0.3038495 0.028595587 0.10870332 -0.27283588
-0.21759057 -0.047794342 -0.13537364 0.29840952 0.06890468 -0.11577328 -0.2810402 -0.2475547
0.12761682 -0.074278384 0.04998196 0.067809574 0.2395656 -0.01124772 0.15371937 -0.327443
0.256923 -0.31505585 -0.108616576 -0.32723704 0.1873567 -0.10993305 -0.36128086 -0.17512055
0.19612715 0.24588701 0.23195322 -0.33144635 -0.16269639 0.06944162 -0.0029448478 -0.19554055
0.34660858 -0.235085 0.22559443 0.21650083 -0.31894165 -0.21945608 -0.23103338 0.26396203
-0.32039016 0.003192579 -0.10573855 -0.08912474 -0.20216893 -0.28123748 -0.30599868 -0.027292334
0.012267038 0.071768805 0.09885573 -0.13345303 0.20127773 0.19836348 -0.28300133 0.3336213
-0.020401381 -0.0043550977 -0.34405664 0.17850567 0.13560519 0.091770165 0.17987444 -0.31786618
0.34599185 0.22548985 -0.10246561 0.18340854 -0.1335326 -0.10507723 -0.0058243284 0.21731527
0.18892711 -0.13276957 -0.30016586 -0.013687941 -0.15430637 -0.010024923 0.17422205 0.23826766
0.012745464 0.1658211 0.058546416 -0.19021939 0.21091026 -0.23253462 -0.00488805 -0.17356735
0.008026 0.28490844 0.12209016 -0.03402808 -0.30577028 -0.27291515 -0.09604027 -0.16930592
0.067543685 -0.32393727 0.34802523 -0.08217456 0.23481753 0.23979594 0.2905922 -0.046000198
0.026755093 0.18206605 -0.2748222 -0.031188635 0.12777488 -0.034919076 -0.25955936 0.050717957

actor.customer_encoder.0.attention.value_embed.weight f4 [32, 32]
00000000: c270 7d3d 911f a93e 022b e63d 345d 053e
00000010: a3e6 aabe 4688 113e 9409 423e 0104 debd
00000020: 698b 61be 0fcb 2fbd beb0 9bbe f28c a63e
00000030: 2f7c 5bbe 31ec a23e 6095 b3be 88c9 663e
00000040: 4b54 17be 3d68 8bbe f0a2 cb3d a7a9 a63e
00000050: 2796 2cbe b049 4b3d 5119 6dbe 40e7 6b3e
00000060: 33f5 a23e 5c62 c5bd 2a6d ad3e 015e 3b3e
00000070: cc70 433d 89c2 1bbe 1ea3 793e 47fc 943c
00000080: 0d1d 19be df13 b2be 0c73 afbe 6e79 b43e
00000090: f353 3fbe ee0c 87be 588d 653e c821 cfbd
000000a0: cefa 86be ae2d 923d 930c 56bd bdad 0b3e
000000b0: c431 a83e f147 b6bd 5430 4e3e 324f cabd
000000c0: ced8 eebd 887c f13d 60d7 a1bd 0b85 c23d
000000d0: a43e a13d c1f7 90be e1b5 a9bd 3356 a33e
000000e0: 3e44 0ebb 329c ab3e 43cd 883e 6a33 cbbd
000000f0: cfbd 23be d1da ee3d 2323 6fbd 97f0 3abd
00000100: 63fe c5bc c1d0 69be 52e6 633e 8778 0dbe
00000110: d06d 93be b964 8dbe 61f6 66be 5d89 853d
00000120: ef4c aebe 15bd 053e 7f06 5fbe d058 2cbc
00000130: 8963 afbd 95ed d8bd b89d 693e 4306 f7bd
00000140: ddc6 f63d d16a 763e 47da 323e 0f09 1a3e
00000150: 14c2 07bd f6d4 3bbe 2ea7 85be bdf1 ab3e
00000160: 963c a4be 2dd5 b0bd 0058 993e e7a7 89bd
00000170: 8b04 98be 3131 b23e db72 babd 923a 173e
00000180: 61b0 243e 2396 e6bd d468 afbe 1f06 4ebd
00000190: bda9 8fbe 43e0 31be 0d46 98be 96d6 283e
000001a0: e1d9 7ebe 406d 303e e13c 983e e279 343e
000001b0: 6c13 573e bef8 753d dd4e 723e b432 aa3e
000001c0: 286b 9a3d bfd7 193e 0c2a 643e cb5c 2fb9
000001d0: b99b 9b3e b94d af3d f6b9 5cbe a376 89be
000001e0: ce42 b83d f60e 8fbe 7759 a3be b434 a83e
000001f0: 21a2 883e a9c3 c3bd 7377 343e 7411 f53d
00000200: d060 a73e 10d7 dc3d eb8c 273e 4374 81be
00000210: 3754 ef3d 3877 8bbe 9c48 8abe c84e 473e
00000220: 602d 31be 4d3b 8c3e 4ae2 b6bd 7121 3c3e
00000230: 4cae a83e b72f 3c3d 8962 a43e ce0d 64be
00000240: 360d 403e f991 e33d ffba 893e 8784 a63e
00000250: 2579 96bd b779 9b3d d1b6 36be cea6 193e
00000260: 53dd b5ba 5dd4 26be 710e 48be 0e90 b43d
00000270: d02f a13e ed3b a0be 75c2 693e 3eb7 7e3e
00000280: ae83 9cbe b52a 253e 3618 003d 60cb 883e
00000290: 5e0e 993e 3e07 4b3e 9683 0dbe d031 9ebe
000002a0: 77b9 7c3e e95e 493a fb32 133e 255b e43d
000002b0: eefd 3f3d 8c00 893e 313c b5bd cb5e 123e
000002c0: eb0c 283e a865 24be 946a 1b3e 2ec1 cd3c
000002d0: 47e7 b3be 073e 483e 32f9 9fbe 9501 243e
000002e0: 31c2 26be 4c0b 30be aaff 4a3e 0bdf 71bc
000002f0: 1933 84be 7304 fb3d c43d 47be f92b a5be
00000300: 099f 913e c6b0 98be ef43 1abe 4b64 5abe
00000310: 954d 8a3e 6795 02bd 1d33 97be e979 543e
00000320: 4200 883e 9308 df3d 96fe 1fbd 4e17 aebe
00000330: 0195 5ebd b9a6 463e 2424 76be 7f5d b2be
00000340: 7bc6 23bb 27e8 673d 2dd8 0dbe 797e 15be
00000350: bb65 8cbe e52d 5bbd cc65 a83e d8c0 963e
00000360: f044 713d db65 9a3a 7ab6 a13e 6702 583d
00000370: e2d7 47bd 5285 80be 1a35 a73e f6db acbe
00000380: 4f23 fdbd 4c04 9e3d 2edc 303d a386 ecbd
00000390: 8e9c a8be 017c 103d 830e aebd fec4 7dbe
000003a0: 9392 60be 40d3 30be 9a78 a7be c5a9 2f3e
000003b0: eed1 abbb b4b5 9cbe a9de 373e 5b12 8a3e
000003c0: 266e a13d 8914 f3bd bf43 e8bd 9122 ea3d
000003d0: faf5 aa3e 431b 103d 10e2 09be a023 45bd
000003e0: d4cb 0a3e 10ef 9d3e 915f ad3e 397b b43e
000003f0: a33a 78be ee8d 703d 13d4 9a3c 3339 953d
0.061875112 0.33031896 0.11238672 0.13023835 -0.33379087 0.1421214 0.18948966 -0.108406074
-0.22025837 -0.04291826 -0.3040828 0.32529408 -0.21434091 0.31820825 -0.35074902 0.22537816
-0.14778249 -0.27227965 0.09943187 0.3255131 -0.16854154 0.04963082 -0.23154189 0.23037434
0.31827697 -0.09637901 0.33872348 0.18297578 0.047714993 -0.15210928 0.2437863 0.018186701
-0.14952488 -0.34780785 -0.3426746 0.35248893 -0.18684368 -0.26377052 0.224172 -0.10113865
-0.26363224 0.07137619 -0.052258085 0.13640495 0.32850468 -0.089004405 0.20135623 -0.098783866
-0.11662446 0.117913306 -0.07902408 0.09498032 0.07873276 -0.2831402 -0.08286644 0.31901702
-0.0021708156 0.33517605 0.26719102 -0.09921916 -0.15990375 0.1166283 -0.05838312 -0.0456396
-0.024169153 -0.2283354 0.22255829 -0.13815509 -0.28794718 -0.27615908 -0.22554924 0.065203406
-0.3404307 0.1306041 -0.21779822 -0.010519221 -0.08563907 -0.1059219 0.22814071 -0.12061741
0.12049649 0.24064185 0.17466079 0.15042518 -0.03314407 -0.18342957 -0.2610411 0.3358287
-0.32077473 -0.0863441 0.2994995 -0.06721478 -0.29690966 0.34803155 -0.09103938 0.14768437
0.16082908 -0.11259105 -0.34259665 -0.050298806 -0.28059188 -0.17370705 -0.29740945 0.16488108
-0.24887802 0.17229176 0.29733947 0.1762462 0.21003503 0.060051672 0.23662896 0.33241808
0.0753997 0.15023707 0.22281665 -0.00016723869 0.30392244 0.08559746 -0.21555313 -0.26848325
0.08997117 -0.27941102 -0.31904194 0.3285271 0.26686195 -0.095588036 0.17623691 0.119662195
0.3269105 0.107832074 0.1636235 -0.25284013 0.116859846 -0.27239394 -0.27008522 0.19463646
-0.17302465 0.27388993 -0.0892988 0.18372132 0.32945478 0.045943942 0.32106426 -0.22270891
0.1875504 0.111118264 0.2690048 0.32522985 -0.07347325 0.07591575 -0.17843176 0.15005037
-0.0013875164 -0.16291948 -0.19536759 0.08816539 0.3148179 -0.3129572 0.22828086 0.24874589
-0.30569214 0.16129573 0.03127309 0.26717663 0.29893774 0.19826981 -0.13819727 -0.3089738
0.24680124 0.0007681684 0.14374916 0.11150197 0.046873026 0.2675823 -0.08849371 0.14293973
0.16411178 -0.16054404 0.15177375 0.02511653 -0.35137388 0.19554912 -0.31244808 0.16016228
-0.16285016 -0.1719181 0.1982409 -0.01476265 -0.25820234 0.12256708 -0.19457155 -0.3226011
0.28441647 -0.29822367 -0.15064977 -0.21327321 0.27012315 -0.031880762 -0.29531184 0.2074963
0.26562697 0.10890307 -0.03906115 -0.34002155 -0.05434132 0.19399537 -0.24037224 -0.34836957
-0.002499013 0.056617882 -0.13851996 -0.14599027 -0.27421364 -0.053510565 0.32890165 0.29444003
0.058903635 0.0011779623 0.3158453 0.052736666 -0.048789866 -0.25101715 0.326577 -0.33761567
-0.1236025 0.07715663 0.04317873 -0.115491174 -0.32931942 0.03527451 -0.08498862 -0.24782178
-0.21930914 -0.17268085 -0.327092 0.17154606 -0.0052435314 -0.30607378 0.17956032 0.2696713
0.07882337 -0.11869151 -0.113410465 0.11432374 0.3339079 0.03518225 -0.13465142 -0.048129678
0.13554317 0.30846453 0.33861974 0.3525026 -0.24241118 0.058729105 0.018899953 0.072863005

actor.customer_encoder.0.attention.combine.weight f4 [32, 32]
00000000: d963 f9bc 80dc 07be a75f 943d 2394 f13d
00000010: 1998 213d b676 5d3c bcd7 1c3e fa06 8bbd
00000020: b5ea 92bc 5773 463d 2d39 dbbd 433d 17be
00000030: c1cb 0abd 056a d93d 3f46 98bd 1681 853d
00000040: 0655 bfba 8a3e 2a3e ca67 ea3d 6d30 b0bd
00000050: 6cfa 33be af1f b63d 2c15 3dbe c121 00be
00000060: eb51 1d3e e29c 123d d670 b33c c27a febd
00000070: da0f 05bd 2e21 963c 2034 bf3d 5e1a a5bd
00000080: f47a e4bc d498 1d3d ef8e 33be a7b4 68bd
00000090: da64 27be b2df 83bd bbd6 c8bd da6b b63d
000000a0: 56ae efbd fcf2 2bbe df6d bbbc a9d5 adbd
000000b0: 119f babd 9ef3 26bd 30ef 8e3d 1cc8 1bbe
000000c0: a90a fdbd d575 b73c 19b2 ab3d bfd2 2a3c
000000d0: 7969 333e 0710 ad3d 484a 00be 1a9b c63d
000000e0: be4e a6bd 6b27 043e 0766 35bd defc 123e
000000f0: 41c0 e9bc e67a 2fbd 9a49 05be c101 3a3e
00000100: 9208 e1bd f409 a1bd 589e b2bd 213d 40be
00000110: 43ca acbd 91fd 1f3e 09cf e83d 55fe 313d
00000120: f136 86bd bfec 2b3c b75b 44bd 8535 22be
00000130: 6cde 093e 097b b13d f511 213e 25b4 1abe
00000140: 1050 183d c021 b33d ef32 81bc 8ad2 bb3d
00000150: 2b51 cd3d cc79 c9bd 3299 fc3d f824 2e3d
00000160: 7348 fbbc e0a8 833d 0179 093e 3ee5 3e3d
00000170: 3749 b93d c41f 08be f12c c1bd 802b e1bc
00000180: 8d94 b83d 4e03 d73d 869c 20bd cb03 57bd
00000190: dffa 0fbd ff28 68bd c737 173e 4f22 ca3d
000001a0: b4d7 c53d 9102 8dbd ee71 6dbd a7b5 1dbe
000001b0: 335d 1b3e dba5 95bd 42ea c6bc 89ed ddbd
000001c0: e6f6 533d 400b 933d 6f0f 3bbe 93b4 113e
000001d0: 7b08 673d 0723 ad3d a485 0fbe 8008 873d
000001e0: e314 2e3e 78eb 0a3e fd83 cebd ca51 dd3c
000001f0: 6576 e9bd 31a3 533d fb65 8e3d f6a9 b93d
00000200: bef5 0dbe 7bf2 ba3d b35c 82bc abe9 f1bd
00000210: 4b9a a0bd 246e 223e 4646 03be f446 eb3d
00000220: afc6 2a3e 172e e6bd 001f 1cbe a1b6 f2bd
00000230: a05f eeb9 45c4 1bbe cf97 073e 2ee1 113e
00000240: 1d03 85bc 448d c93d a7a6 f83d 23ed 4d3d
00000250: f21e aabd b926 523c 1138 183e 8b9e 56bd
00000260: f778 093d 5ee7 67bc 629b 80bd d190 36bd
00000270: 5bee b0bd ae3b 2abd 8935 343e 63ad 09bd
00000280: e054 c2bc 5d60 223e 66c0 783d 7da7 0bbe
00000290: 6844 5fbd 79f3 71bd d94f aabd 97db 11be
000002a0: c880 ab3d e084 0b3e 4318 10be 681b 323e
000002b0: 2d85 ad3d 446d 253e 1b0c 09be 2744 5d3d
000002c0: 3961 013e 5732 ca3d 46ce 56bd 7a8f f83d
000002d0: 29b4 c73d 12c8 efbd b1bd bf3d 7219 a7bd
000002e0: 863e 163e 246c 6ebd 432a e5bd 4b19 a53d
000002f0: ffb5 c0bd 1726 8bbd 4b48 e53d 62c2 2f3e
00000300: 638f 6c3d 7b27 233e 3dc2 853d a6ac b3bc
00000310: 4f4e 87bd 4ffc 28bd d522 10bb f461 66bc
00000320: b6b3 ee3c eca6 373d 44c3 efbd 8a23 cabd
00000330: 2f08 1b3e c277 adbd d912 a13d 76a2 293e
00000340: 7f9b 20be 440f 9a3c c539 143d bdcc ebbd
00000350: a1a8 28bd 0d6b a0bd 8bda 28be 99f2 32bd
00000360: 107b 243e 0445 3c3e c012 e3bd 96bf 50bd
00000370: 715f b9bd 0d2c e13d 8c26 18be 3369 72bd
00000380: 8a57 7cbd c700 a6bd 9036 1e3e 19eb 1bbe
00000390: 9fe9 02be 211a 21be 225f aebd 782c ae3d
000003a0: 673a f63c 202f 28bc e357 0d3e a24e f23d
000003b0: 6ce0 233d 11de 1a3d c246 84bd c39d 2cbe
000003c0: d969 023d 0367 223e 205a 093e c6cf 56bc
000003d0: 2ae9 cbbb 29dd 293e f565 3cbe 59c5 143e
000003e0: 0bb8 283e 520f d43d a0cb 9d3d 6b6f 163c
000003f0: bd4c 663d cee4 bcbd 4068 e8bc 41c0 f0bd
-0.030443119 -0.13267708 0.07244807 0.11795833 0.039451692 0.013517072 0.15316671 -0.0678844
-0.017934183 0.04844984 -0.10704265 -0.14769463 -0.03388572 0.10615925 -0.074352734 0.06518762
-0.0014597483 0.1662542 0.114455774 -0.086029865 -0.17575997 0.08892762 -0.18465108 -0.12512876
0.1536328 0.035794146 0.02190439 -0.12425758 -0.03248582 0.018326368 0.09336114 -0.0806167
-0.02789066 0.038475826 -0.17534994 -0.05681291 -0.16347066 -0.06439151 -0.098065816 0.0890729
-0.11703174 -0.1679191 -0.022879539 -0.08488018 -0.09112371 -0.040759675 0.06979215 -0.15213054
-0.12355549 0.022395054 0.08383579 0.010426222 0.17520703 0.084503226 -0.12528336 0.09697552
-0.08120488 0.12905662 -0.044286754 0.14354274 -0.028534057 -0.042841814 -0.13016358 0.18164732
-0.10987963 -0.078632265 -0.08721608 -0.18773319 -0.08437016 0.15624072 0.11367614 0.04345544
-0.06553448 0.010493456 -0.04793903 -0.15840729 0.13463753 0.08666045 0.15729506 -0.15107782
0.03718573 0.08746672 -0.015771357 0.091710165 0.10025247 -0.09837684 0.12333907 0.042515725
-0.030674195 0.06428695 0.13425066 0.04660534 0.09047168 -0.13293368 -0.094324 -0.027486563
0.09012709 0.10498677 -0.039211772 -0.05249385 -0.03515136 -0.056679722 0.14767371 0.09869825
0.09660283 -0.06885255 -0.05796998 -0.15401326 0.15172271 -0.07307025 -0.024281625 -0.10836322
0.051749133 0.0717988 -0.18267606 0.1422904 0.056404572 0.084539466 -0.14015824 0.06593418
0.17000155 0.13566387 -0.100837685 0.02701654 -0.11399535 0.051669303 0.06953045 0.090656206
-0.13863274 0.09128281 -0.015913343 -0.11812147 -0.07841929 0.15862328 -0.12819776 0.114881426
0.16677354 -0.1123926 -0.152462 -0.1185124 -0.00045466144 -0.1521159 0.13241504 0.14246055
-0.016236836 0.098413974 0.121411614 0.05027498 -0.083066836 0.012826615 0.14865138 -0.052397292
0.033562627 -0.014154283 -0.06279637 -0.0445717 -0.08639213 -0.04156082 0.17598547 -0.03361262
-0.023722112 0.15857072 0.06073036 -0.1363811 -0.054508597 -0.059070084 -0.08316011 -0.14243923
0.083741724 0.13624907 -0.14071755 0.17393267 0.08472667 0.16154963 -0.13383524 0.054020073
0.12634744 0.09872883 -0.05244281 0.12136741 0.0975116 -0.11708082 0.09362353 -0.0815915
0.14672288 -0.0582086 -0.111897014 0.08061465 -0.09409713 -0.067943744 0.111954294 0.17163995
0.05775393 0.1593303 0.06531189 -0.021932911 -0.06606733 -0.041256245 -0.0021993418 -0.01406144
0.029138427 0.044836923 -0.11707166 -0.0987006 0.1513984 -0.084701076 0.07864923 0.1656588
-0.15684317 0.018806107 0.036187906 -0.1151366 -0.041176442 -0.07832918 -0.16489618 -0.04368839
0.1606257 0.18385702 -0.11087561 -0.05096396 -0.09051407 0.1099473 -0.14858454 -0.059182357
-0.06160692 -0.08105617 0.15450501 -0.15226401 -0.12784432 -0.15732624 -0.08514239 0.085045755
0.030057145 -0.010265142 0.13803057 0.11831404 0.040008947 0.037809435 -0.064588085 -0.16857056
0.031839225 0.15859608 0.13413286 -0.0131110605 -0.0062228637 0.16588272 -0.18398269 0.14528407
0.16476457 0.103544846 0.07704854 0.009181838 0.056225527 -0.092233285 -0.028370023 -0.117554195

actor.customer_encoder.0.BN1.weight f4 [32]
00000000: fcca 803f abc7 813f 45e7 803f 7716 7a3f
00000010: e351 7d3f 74e1 7f3f ce8a 7f3f db65 823f
00000020: 28cd 7f3f 3b8d 7d3f cb2b 803f 04ee 803f
00000030: ad2b 803f 8e22 813f b350 793f 5e64 7f3f
00000040: 7b7e 7e3f edeb 803f f932 833f b342 803f
00000050: ead6 7d3f 7a94 7d3f 11f5 7e3f 7063 7f3f
00000060: 344a 803f fcc8 7f3f e147 7e3f 2785 803f
00000070: b40a 803f 9358 7c3f 8730 823f 16e5 803f
1.0061946 1.0139059 1.0070578 0.9769053 0.98953074 0.9995339 0.99821174 1.0187334
0.9992242 0.99043626 1.0013365 1.0072637 1.0013329 1.008867 0.9738876 0.99762523
0.99411744 1.0071999 1.0249931 1.0020355 0.9915606 0.9905468 0.9959269 0.99761105
1.0022645 0.9991605 0.9932843 1.0040635 1.0003266 0.98572654 1.0171059 1.0069911

actor.customer_encoder.0.BN1.bias f4 [32]
00000000: 570f 4bbc e9ff 3ebc 2548 94bc b4f9 253b
00000010: 89fb 08bc 1b6e 08ba 06cd 4ebb 5ffe 813c
00000020: d34e 83bb eaca 16bc 0008 02bd 1907 8abb
00000030: 7c5c 89bb b02f 5a3b 5918 56bc 2853 173c
00000040: 0990 133c d83e 233c cfcf 98bb 4c90 91ba
00000050: bef1 3dbc f6c1 0e3b 0673 593c 1c08 4c3b
00000060: e449 bf3c 343d d539 a637 27bc e7eb 0ebc
00000070: 6757 83bc a168 353c 383f 4e3c 246d 0cbb
-0.012393794 -0.011657693 -0.018100807 0.0025325837 -0.008360752 -0.0005204395 -0.003155531 0.015868364
-0.0040071993 -0.009203652 -0.03174591 -0.004212272 -0.004191933 0.0033292584 -0.013067328 0.009236135
0.009006509 0.009963714 -0.0046634446 -0.0011105626 -0.01159328 0.002178309 0.013272053 0.0031132763
0.023350663 0.00040672126 -0.010206139 -0.008723236 -0.016032888 0.011072309 0.012588315 -0.0021427358

actor.customer_encoder.0.BN1.running_mean f4 [32]
00000000: 8810 503f 8d9f c4be eb6a fd3e 7f6c 113f
00000010: 6a37 42bf 6b66 cd3e a4b8 223e 1dcb 0d3e
00000020: 76b1 b2be 6eeb ac3e 0640 6dbe 43e0 a93e
00000030: e8e6 19bf 387f 8f3f b96b 263f 8a99 c53e
00000040: f5a0 05be 7f17 c7be 10cd cd3d 0e41 2e3e
00000050: c963 bbbe b0ec 20bf 574b 0ebf b3de 04bf
00000060: cf98 3a3e ad4e c23d 20cc 243e 02c3 d53e
00000070: b8e2 0d3e e837 e9bd fa69 b53d f79b cebc
0.81275225 -0.38402978 0.49495634 0.56806177 -0.75865805 0.401172 0.15890747 0.13847013
-0.34901017 0.3377337 -0.23168954 0.3317891 -0.6011796 1.1210699 0.6500812 0.38593704
-0.13049681 -0.38885114 0.10048878 0.17017004 -0.36599568 -0.62861156 -0.5558371 -0.5190231
0.18222354 0.094876625 0.16093493 0.41750342 0.13856018 -0.113876164 0.08858104 -0.025220854

actor.customer_encoder.0.BN1.running_var f4 [32]
00000000: 985b a13c 129c 453b d8e9 0d3d 5996 8d3c
00000010: 83d2 ff3c e002 fa3c 800c 6f3c 9087 373b
00000020: 9031 2e3c dc0a 3a3b c44b cf3c f471 643c
00000030: a6c1 a33c 2924 653d ec8f 373c 4466 2c3c
00000040: 825e bb3b 169a 043c 33c5 323c d493 e13b
00000050: 8303 0a3c 5d09 083d fddf 443c 37b1 b53b
00000060: 7278 763c 4b1a fb3a 8b07 813c 54be 7a3c
00000070: a3d3 1a3d 69f5 813c 3552 883b b9bb 543c
0.019696996 0.003015284 0.03464684 0.017283605 0.03122831 0.030518949 0.014590383 0.0028004386
0.010631934 0.002838782 0.025304683 0.013943184 0.0199898 0.055942688 0.011203747 0.010522429
0.0057180533 0.008093378 0.010911274 0.0068840776 0.008423689 0.033212055 0.012016294 0.0055448073
0.015043365 0.0019157616 0.015750667 0.015304167 0.03779949 0.015864091 0.0041601905 0.01298421

actor.customer_encoder.0.FFN_layer1.weight f4 [32, 32]
00000000: 8fe3 a5bc 2e03 2bbe 73a0 be3d e503 acbd
00000010: c0d0 dc3d 97b2 f7bd 8bb1 263e 8eb5 a6bc
00000020: 6322 2c3e 4dcc 9b3d 0ea4 f53d a177 d03c
00000030: 6150 ddbd 029d a33c ec0d 203e 2fac 1ebe
00000040: 2a47 5c3d db7f 5dba d633 063e d8aa ffbd
00000050: 4a56 07be a3ea 2b3d e6f9 40bd 459d 8abd
00000060: da79 323d b81f ff3d 11cb 05be 872c 7cbc
00000070: ec82 9dbd f2e9 b6bc f96b a8bd 481e 2d3e
00000080: b9cf d43d d28d 953d c5da 47bd 546c b53d
00000090: aa75 ccbd 729d 14be 0ca9 d3bd 8be9 97bd
000000a0: 6cbb 15be 3eb6 d93d 910f d3bb 2bb2 86bd
000000b0: 2aad d8bd 235c 123e 356d 193e ce77 ecbd
000000c0: fdd6 163e 183d 623c 9d99 6bbd 427f b13d
000000d0: b8dd 02be 4fd6 31be fa61 a1bc 09ed 023e
000000e0: 8db8 133e 3bb9 1e3e be00 b13d 1317 3e3d
000000f0: 0c36 6c3c 93ff fcbd daef 103e d817 183e
00000100: b02b 1dbe 16b6 59be d597 01bd f93c 9ebd
00000110: 1fa8 a6bd 72c5 283e 6ae1 f0bc dda8 4a3e
00000120: ab9f 8ebc ef22 91bc 8636 02bc a7f6 51bd
00000130: 5469 6cbd c94b 8abd 297b afbd 2e05 ac3c
00000140: 2353 773d 4ccc ba3c f07b 483d f55d 8cbd
00000150: 6c5d 31be ea49 863d 9993 cd3c e424 42be
00000160: 00d7 373e 0841 50bd 1283 04be 087f d5bd
00000170: 34c0 20bd 0da6 1cbe 3c25 123d be1c d4bd
00000180: 78db eabd cfc3 373e abd3 77bd 001d c2bc
00000190: ef6e cebd edcb 57bc f6d7 dabd 4ca8 e5bd
000001a0: 48e5 c5bd 3991 33bd d712 5d3d 9a37 883d
000001b0: b0bd ea3d ad08 bbbd 2796 17be b878 c0bc
000001c0: 8f61 0a3e e709 d33c e96a 1e3e 2dfe 0f3e
000001d0: f520 ea3d 93dd 8bbc cf69 da3c 3fba f5bd
000001e0: 9331 fe3c 4df2 1e3d 506a 09be c776 f6bd
000001f0: 5675 bcbd 0695 c13b 0240 9dbc 649f 603d
00000200: ed20 bbbd 891a 1e3e bfc9 b9bd 9f48 d63d
00000210: f64d 273e 889a 1e3e 5a3d babd a656 bbbd
00000220: 7ccd 87bd 8cb8 e8bd 1166 4ebd a6ac 72bd
00000230: cb75 913d c881 143e 2988 803d bf38 803c
00000240: 7833 68bd c2d3 83bd 3b3f 363e 50ca 22be
00000250: 43aa bcbb 6313 2abe 6827 63bd 679a 04be
00000260: 4951 38be 102c 9c3d 5689 bdbd 0798 013d
00000270: b96a 183e 3776 e7bc 5c38 5f3d 8ef8 89bd
00000280: 866a fb3d 95b7 3e3e 559f 70bd 3951 13be
00000290: 1bf9 033e ad61 0a3e c9ed ae3d aaef 0a3b
000002a0: 623e 213d d6ce e53c 20a5 e13c fa09 3abd
000002b0: 163c 2a3d 0c60 283e 3cb0 4bbd c608 0dbe
000002c0: dfab e6bd 04ef c43b 85f3 863d 1f17 3f3c
000002d0: 7b84 243e 3699 1f3d 3d65 8f3d e7fc 22be
000002e0: 608d f03d b93f 0f3e a3d4 513d 71be 963d
000002f0: ffe4 1fbe a119 183e 6a53 3abc 9fc2 2fbe
00000300: c68f a63d 1025 c73d 5bc8 013e f861 383e
00000310: 3224 813c a5d5 e03d 1a00 363e c3c8 ae3d
00000320: fe24 643d 756d 08bd 3cf6 fdbd 5091 a43d
00000330: 439d 19be 21ca c13c 22b4 19be 2ff0 2dbe
00000340: 9226 8abd 4708 34be 0791 b23d 3b45 fb3c
00000350: 2bb0 98bd 3bda 1b3e a59a 843d 20b6 c63d
00000360: ba4d d7bd ede6 26be c350 37bd 9d00 043e
00000370: 4c6f 08be 83bb 00be 4398 af3c 23d6 603d
00000380: 20cd b43d 8475 ff3c c502 bebc 83fe acbd
00000390: e6d5 0bbc baa0 083e c4b9 f7bd 54a7 35be
000003a0: 484f 87bc 1466 953b 2a11 db3d cbd0 673d
000003b0: aa3a 3e3e 01c9 a7bd c0d9 623d 8637 cebd
000003c0: d75e fabd cf2b a9bd dbc6 423e a9ec e2bd
000003d0: d3b5 00bd 8bb1 0d3d 7816 f0bd 42ed 493d
000003e0: 5e66 fabd 0f83 143e 37f3 073e 1a0e 9e3d
000003f0: b6d8 ee3d 76c4 973d 5fdb 133d 59be 053d
-0.02025011 -0.16700432 0.09307947 -0.0839918 0.107820034 -0.1209461 0.16278665 -0.020350244
0.16809992 0.07607327 0.119941816 0.025447669 -0.10806347 0.019972328 0.15630311 -0.1549537
0.053778805 -0.0008449533 0.13105711 -0.12483758 -0.1321651 0.041971814 -0.04711332 -0.06768278
0.043573238 0.12457222 -0.13065745 -0.0153914755 -0.07690987 -0.02232835 -0.08223719 0.16906083
0.103911825 0.07302441 -0.04879262 0.088585526 -0.0998338 -0.14513186 -0.103349775 -0.07417592
-0.14622277 0.10630463 -0.0064410646 -0.065769516 -0.105799034 0.1429296 0.14983065 -0.115462884
0.14730449 0.013808511 -0.057519544 0.086668506 -0.12779891 -0.17366908 -0.01970004 0.12785734
0.1442587 0.15500347 0.0864272 0.046408724 0.014417183 -0.123534344 0.14153996 0.14852846
-0.15348697 -0.21260867 -0.03163894 -0.07726473 -0.08137535 0.1648157 -0.02940436 0.19790979
-0.01741012 -0.017716853 -0.00794757 -0.051260617 -0.057717636 -0.06752736 -0.08568413 0.020998564
0.06038202 0.022802494 0.04894632 -0.068538584 -0.17320794 0.06557067 0.025094794 -0.18959385
0.1795311 -0.05084327 -0.12940624 -0.1042462 -0.0392458 -0.15297718 0.03568004 -0.10357045
-0.114676416 0.17945789 -0.060504597 -0.023695469 -0.10079753 -0.013171178 -0.106857225 -0.11213741
-0.096628726 -0.043839667 0.053973045 0.0665123 0.11461961 -0.09132514 -0.14803372 -0.023495063
0.13513778 0.025761558 0.1547047 0.14061804 0.11432067 -0.017073428 0.026661782 -0.11998414
0.031029498 0.038805295 -0.13419461 -0.12034374 -0.092020676 0.0059076576 -0.01919556 0.054839507
-0.091371395 0.1543981 -0.09071683 0.1046307 0.16338333 0.15488636 -0.09093733 -0.09147386
-0.0663099 -0.113633245 -0.050390307 -0.05924668 0.07102545 0.14502633 0.062759705 0.015652059
-0.05668971 -0.06436874 0.17797558 -0.15897489 -0.0057576015 -0.16608958 -0.055457503 -0.12949525
-0.17999758 0.07625592 -0.092547104 0.031639125 0.14884461 -0.028254611 0.054497108 -0.06736861
0.12276177 0.18624718 -0.0587457 -0.14386453 0.12887995 0.13513823 0.08541448 0.002119998
0.039366134 0.028052729 0.027544558 -0.04541967 0.04156121 0.16442889 -0.049728617 -0.13772878
-0.112632506 0.006009938 0.065894164 0.011663227 0.16066162 0.038964473 0.070017315 -0.15916787
0.11745715 0.13989152 0.051228177 0.073605426 -0.15614699 0.14853527 -0.0113724265 -0.17164086
0.08132891 0.09723866 0.12674086 0.18006122 0.01576433 0.109782495 0.17773476 0.08534386
0.05569934 -0.03330751 -0.12400481 0.08035529 -0.15001397 0.023655953 -0.15010121 -0.16986154
-0.06745638 -0.17581283 0.08719068 0.03067266 -0.074554764 0.15219967 0.064748086 0.09702706
-0.10512872 -0.16299029 -0.044754755 0.12890859 -0.13323706 -0.1257153 0.021434909 0.054891717
0.08828187 0.031183966 -0.02319468 -0.08446982 -0.008534884 0.13342562 -0.12095979 -0.17739612
-0.016517296 0.004559288 0.10696633 0.056595605 0.18577066 -0.08192635 0.055383444 -0.10069184
-0.122251205 -0.08260309 0.1902117 -0.110802956 -0.0314234 0.034593146 -0.117230356 0.049298532
-0.12226556 0.1450312 0.13276373 0.077175334 0.11662428 0.07410519 0.03609788 0.032652233

actor.customer_encoder.0.FFN_layer1.bias f4 [32]
00000000: 4de2 2c3d 9cf2 b43d 84c7 30bc 4cc3 d93d
00000010: 5421 0f3d cfd3 02be f992 223e 3267 30bc
00000020: 7a86 67bd 6876 753d 05ad c83c 8807 2bbe
00000030: f48f 273e d5fa 40bc fd5e 8b3d 677d c7bc
00000040: 6d33 13be 2b8c 08be aa85 0abd c498 2abd
00000050: 0cb9 0f3e e3b1 113d df87 293e 9a17 1b3e
00000060: 8741 a63c f314 69bd e2ff 65bb 959a 73bd
00000070: bbad 36be 0511 823d dde7 993d 1a06 56bd
0.042208005 0.088353366 -0.010789756 0.10632953 0.034943894 -0.12776111 0.15876378 -0.010766791
-0.05652473 0.059927374 0.024496565 -0.16702092 0.16363508 -0.011778553 0.06805227 -0.024351789
-0.14375086 -0.1333472 -0.03381888 -0.041649595 0.14035434 0.035570037 0.16555737 0.15145722
0.020294918 -0.056904744 -0.0035095145 -0.059473593 -0.1783971 0.063509025 0.075149275 -0.052251913
