output/282nodes_entropy0.01_0.4_0.85_2_230823/epoch84.pth (torch, 519145 bytes, 129 tensors)

critic.ff_layer1.weight f4 [32, 283]
0	0x3e0e2e6e	0.13884899
1	0x3dc926eb	0.09821876
2	0x3a4acb78	0.00077360077
3	0x3d13ee05	0.036115665
4	0xbbe5d82e	-0.007014296
5	0xbbceb58e	-0.006308264
6	0xbc5462fb	-0.012963052
7	0x3d07a3ee	0.03311532
8	0x3d2879bb	0.041131716
9	0xbccf214d	-0.025284434
10	0x3d20fcad	0.03930347
11	0x3c1f42c8	0.009720512
12	0x3cbaff9a	0.022826958
13	0x3cdecb62	0.02719659
14	0x3d07492b	0.033028763
15	0x3bb2f9af	0.0054618935
16	0x3d0af4f1	0.033925
17	0x3c1116f8	0.008855574
18	0x3c29887a	0.01034748
19	0x3cdb279c	0.026752286
20	0xbc86b950	-0.016445786
21	0x3d2e38dc	0.042534694
22	0xbc1ab17b	-0.009441729
23	0x3d7dbb3a	0.06194613
24	0xbc68d29c	-0.014210369
25	0xbb43da1a	-0.0029884637
26	0xbcefbcbf	-0.029264806
27	0xbc87db5a	-0.016584087
28	0x3b4d90c1	0.0031366798
29	0xbc1e905e	-0.0096779745
30	0x3d8111e7	0.06302243
31	0xbc72d717	-0.014821789
32	0x3d830b94	0.06398693
33	0x3cdd2cb4	0.026998855
34	0xbbaf394f	-0.005347408
35	0x3d45faaf	0.048334774
36	0x3cbfd613	0.023417508
37	0x3d92ff04	0.071775466
38	0xbc11efeb	-0.008907299
39	0xbc7697d6	-0.015050849
40	0x3d36f99c	0.04467164
41	0xbc0ddfd5	-0.008659323
42	0x3ba46d05	0.005017879
43	0x3d2b90de	0.041886203
44	0x3d23f764	0.040030852
45	0x3a8dfd10	0.0010832865
46	0x3a3553d4	0.00069170934
47	0xbc8079eb	-0.015683135
48	0x3c6fa281	0.014626146
49	0xbb9dd1ff	-0.0048162933
50	0xbca91bc8	-0.02064313
51	0xbc37a02d	-0.0112076225
52	0x3bfe786b	0.00776582
53	0x3d265b87	0.04061463
54	0x3c069b60	0.008215755
55	0x3cbd5239	0.023110496
56	0xbc110dab	-0.008853356
57	0x3c909b0b	0.017652055
58	0x3dae49c3	0.08510163
59	0xbcd93e23	-0.026518887
60	0x3d5af9fc	0.05346106
61	0xbca91ae0	-0.020642698
62	0x3d07a0e8	0.033112437
63	0xbcd5b0b8	-0.026085243
64	0xbbc52eb1	-0.006017529
65	0x3b9ee7d3	0.004849413
66	0x3cc5ac84	0.024130113
67	0xbb9f23d1	-0.0048565646
68	0x3a9298c0	0.0011184439
69	0xbbafe003	-0.0053672804
70	0x3e0955fc	0.13411707
71	0xbb9a1971	-0.00470274
72	0x3d8c1b8e	0.06841193
73	0xbbff791d	-0.0077964203
74	0xbcbcbd41	-0.023039462
75	0xbc4a41bf	-0.012344777
76	0x3c9bacda	0.01900332
77	0x3c557809	0.013029107
78	0x3cd49e12	0.02595428
79	0x3ddcba2a	0.107776955
80	0xbd1c21d3	-0.038118195
81	0xbc079a7f	-0.008276581
82	0x3bcaf83c	0.0061941426
83	0xbd3ff6d0	-0.046866238
84	0x3d3efe2f	0.046629127
85	0x3c812c20	0.01576811
86	0x3d0a8676	0.03381964
87	0xbc0aafae	-0.008464737
88	0x3c64f6c3	0.013974848
89	0x3c416792	0.011804478
90	0x3af3d6d0	0.0018603448
91	0x3c716d98	0.014735602
92	0x3d240af9	0.040049527
93	0x3d1fc732	0.039008327
94	0xbc31bd60	-0.010848373
95	0xbc878d9d	-0.016547019
96	0x3d7935b8	0.060842246
97	0xbb1e29be	-0.0024133767
98	0xbcc14454	-0.023592152
99	0x3c219e19	0.009864354
100	0xbc95ca9b	-0.018285086
101	0xbc9f4187	-0.019440426
102	0xbcb4ea9e	-0.02208453
103	0xbd1ae826	-0.03781905
104	0x3c290f51	0.010318593
105	0xbcad2be0	-0.021139085
106	0xbc2709f8	-0.010195248
107	0xbbfa1baf	-0.0076326947
108	0xbd1dd262	-0.038530715
109	0xbbd735dd	-0.0065677003
110	0x3d4e9257	0.05043253
111	0xbad6062b	-0.0016328742
112	0x3d31dda7	0.043424275
113	0xbc97632b	-0.018479904
114	0xbbb34470	-0.005470805
115	0xbc904654	-0.01761166
116	0x3c8fd766	0.017558765
117	0xbc284434	-0.010270167
118	0xbc916cad	-0.017752016
119	0xbc686a7c	-0.014185544
120	0xbb9a038c	-0.00470013
121	0x3d0a3e27	0.03375068
122	0xbc5fa8b0	-0.013651058
123	0xba6e6536	-0.0009094061
124	0xbc2ab324	-0.010418687
125	0xbc8c2510	-0.017107517
126	0xbb924a70	-0.00446444
127	0x39b729c3	0.00034935595
128	0x3d2e28a3	0.042519223
129	0x38d2d4f2	0.000100532445
130	0x3cf6b088	0.030113474
131	0x3c8713c5	0.016488919
132	0xbd13b8b6	-0.036064826
133	0x3cda4f54	0.026649155
134	0x3b84057a	0.004028973
135	0xbb04bc67	-0.0020253898
136	0xbd27191a	-0.040795423
137	0xbcd60596	-0.02612571
138	0x3c8aa134	0.01692257
139	0xbcdf65f3	-0.027270293
140	0x39844113	0.00025225486
141	0xbab0e56c	-0.0013496107
142	0x3d7c0f5f	0.061538097
143	0x3c96cf8a	0.01840951
144	0xbc9d0043	-0.019165164
145	0x3c396b47	0.011317081
146	0x3d0e1069	0.03468362
147	0x3d5da1af	0.05410927
148	0x3c7b45c2	0.015336456
149	0xbd0491b2	-0.03236551
150	0xbbcdc788	-0.0062798895
151	0xbccd94f3	-0.025095439
152	0x3cab4397	0.020906253
153	0xb9c978ac	-0.00038427615
154	0x3de4eae6	0.11177616
155	0xbcfd6e1b	-0.030936291
156	0xbaeed623	-0.0018221777
157	0xbc2046b4	-0.009782482
158	0x3c1286d4	0.008943278
159	0xbbe3c30b	-0.006950741
160	0x3da0358f	0.078227155
161	0xbd28ac1f	-0.041179772
162	0x3c5a84d1	0.01333733
163	0xbc7f1f9e	-0.015571503
164	0x3d60f289	0.0549188
165	0x3d1923a7	0.037387516
166	0xbbb0d39a	-0.0053963186
167	0x3d9974da	0.07492991
168	0xbc2f358e	-0.010693921
169	0xbcb5e18c	-0.022202276
170	0xbc9e3729	-0.019313412
171	0xbca9e068	-0.020736888
172	0x3d8a5914	0.067552716
173	0xbc1932ad	-0.009350461
174	0xbd566e6d	-0.052351404
175	0x3c7fe93e	0.015619574
176	0x3c0dab4c	0.008646797
177	0x3cf6a2e2	0.030106965
178	0x3d6c4d0d	0.05769067
179	0x3b324057	0.0027198994
180	0xbb9f684a	-0.004864727
181	0x3d438a26	0.04773917
182	0xbc903842	-0.01760495
183	0xbb3ebbf7	-0.0029103735
184	0x3b265b71	0.0025384093
185	0x3ca0950d	0.019602323
186	0xbc22772b	-0.009916107
187	0x3cfdeef0	0.030997723
188	0xbc4860f8	-0.01223015
189	0xbc414683	-0.011796596
190	0xbb5d1025	-0.0033731547
191	0xbd102521	-0.03519166
192	0x3d68e9df	0.05686366
193	0x3c382fd6	0.011241874
194	0x3bcea232	0.0063059563
195	0x3b2d19f2	0.002641317
196	0x3d6239b1	0.0552308
197	0xbcc09731	-0.023509594
198	0xbc5be79f	-0.013421922
199	0x3c3192c2	0.010838212
200	0xbc33403b	-0.010940607
201	0xbc23e339	-0.010002905
202	0x3d896649	0.067089625
203	0x3d3ce424	0.04611601
204	0xbc3b5b71	-0.011435376
205	0xbcdfaddb	-0.02730458
206	0xbb4e85cf	-0.0031512862
207	0xbcbbb100	-0.022911549
208	0xbacedc3f	-0.0015782191
209	0x3d8bc313	0.06824317
210	0x3d45117c	0.048112378
211	0x3d5d2c32	0.053997226
212	0xbc527055	-0.012844165
213	0xbd0732d3	-0.033007454
214	0xbbc80e0a	-0.006105189
215	0x3d0401b8	0.0322282
216	0x3ba28abd	0.0049603865
217	0x3c32e55b	0.01091894
218	0x3cd793dd	0.026315624
219	0x39ecc698	0.00045161392
220	0xbc6e007c	-0.014526483
221	0x3dc5f92c	0.096666664
222	0x3ba19e0e	0.0049321717
223	0xbccc7ed6	-0.024962824
224	0xbc895ee9	-0.01676889
225	0x3d81d7da	0.063399985
226	0x3d5f74f6	0.054554902
227	0x3c10718f	0.008816137
228	0xbc900f13	-0.017585313
229	0xbbce052c	-0.0062872376
230	0xbc5a8a9a	-0.013338709
231	0x3d80b10d	0.0628377
232	0x3ba80b56	0.0051283045
233	0x3d4bfa96	0.049799524
234	0x3b61fdb9	0.0034483506
235	0x3bb45e69	0.0055044186
236	0xbc47695f	-0.0121711185
237	0xba8ffa78	-0.001098468
238	0xbd197da4	-0.037473336
239	0x3c2cf14c	0.0105555765
240	0x3d0f58b6	0.03499671
241	0xbc96a855	-0.018390814
242	0x3c1f1bce	0.009711219
243	0xbc6c5857	-0.014425359
244	0x3a03aacf	0.0005022706
245	0xbc66415f	-0.014053672
246	0xbd1a12db	-0.03761564
247	0xbb0bb072	-0.0021314886
248	0xbc7e6838	-0.015527777
249	0x3dafd897	0.08586233
250	0x3d10df19	0.035369013
251	0xbcbae9c6	-0.02281655
252	0xbcbbe93e	-0.022938367
253	0x3b410d1b	0.0029457274
254	0x3a8deda9	0.0010828275
255	0xbc5e84dd	-0.013581482

critic.ff_layer2.weight f4 [283, 32]
0	0xbdcbe1ff	-0.09955215
1	0x3edb791c	0.42865837
2	0x3ccb22d4	0.02479688
3	0xbe6a5f42	-0.228879
4	0x3e564f9d	0.20928808
5	0xbdfb0f0b	-0.122587286
6	0x3e52b777	0.20577799
7	0xbca8f706	-0.020625602
8	0xbe392222	-0.18079427
9	0x3db4a075	0.08819667
10	0xbdb5a747	-0.08869796
11	0x3dfe50cc	0.124177545
12	0xbe451716	-0.19247088
13	0xbe33dcdf	-0.17564724
14	0x3c91474e	0.017734196
15	0x3f082236	0.531772
16	0xbdee92a8	-0.11649066
17	0xbe16e333	-0.14735107
18	0x3e8572ac	0.2606405
19	0x3e92f5d2	0.2870317
20	0x3f01bf1f	0.5068225
21	0xbe0524a4	-0.13002259
22	0xbd2d0640	-0.04224229
23	0xbe268eda	-0.16265431
24	0x3ef015d6	0.4689166
25	0x3e621de8	0.22081721
26	0x3e28f202	0.16498569
27	0xbe55ec6a	-0.20890966
28	0x3e216e84	0.15764815
29	0x3e2e8d49	0.17046084
30	0x3e6c2c5c	0.23063797
31	0x3ed071f2	0.40711933
32	0xbdf2028e	-0.118168935
33	0xbdd1ac80	-0.1023798
34	0x3e0f118d	0.13971539
35	0x3d4de8a7	0.050270703
36	0xbd1a2aa0	-0.037638307
37	0xbd6dbb07	-0.05803969
38	0xbe25f9f3	-0.1620863
39	0xbe6937b8	-0.22775161
40	0xbe01ad3d	-0.12663741
41	0xbdfdd3dc	-0.123939246
42	0xbcb91b84	-0.022596128
43	0xbe4ba323	-0.1988645
44	0x3da83ae1	0.08214355
45	0xbe2163cd	-0.15760727
46	0xbdd99952	-0.10624947
47	0xbd9d93ed	-0.0769423
48	0xbddc2ad1	-0.10750354
49	0x3d6cb9b0	0.057794273
50	0x3d23cffa	0.039993264
51	0x3dda788c	0.10667524
52	0xbd02be66	-0.03191986
53	0x3cda577b	0.026653042
54	0xbd1d2a1f	-0.038370248
55	0x3d7d1b68	0.061793715
56	0x3d3f8623	0.046758782
57	0x3d0dd013	0.034622263
58	0x3e2858be	0.16440102
59	0x3d562920	0.052285314
60	0xbd7edd2a	-0.062222637
61	0x3dfc3009	0.123138495
62	0xbdc9d28e	-0.09854613
63	0xbd74b912	-0.05974681
64	0xbd9f205f	-0.07769846
65	0xbca03ebe	-0.019561168
66	0x3d2fd09d	0.04292356
67	0xbe2ba23c	-0.16761106
68	0xbe0e498d	-0.13895245
69	0xbd03c1ff	-0.03216743
70	0x3c37abe8	0.011210419
71	0x3e1508f0	0.1455419
72	0xbe0cc237	-0.13745962
73	0x3d30b3f8	0.04314038
74	0x3d8fba78	0.07017988
75	0xbe0b8b34	-0.1362732
76	0x3d127ee9	0.035765562
77	0xbd3db61c	-0.04631625
78	0x3cd828bc	0.026386611
79	0xbceb2142	-0.028702382
80	0xbdd6c824	-0.104873925
81	0xbd9bcaa7	-0.07607012
82	0x3e0b42d0	0.13599706
83	0xbafa19ec	-0.0019081212
84	0xbd554b2c	-0.052073643
85	0x3d186310	0.03720385
86	0x3e04aa2a	0.12955537
87	0xbdc52d5d	-0.09627793
88	0xbd7f3d90	-0.06231457
89	0xbd8ecf7b	-0.069731675
90	0xbda49524	-0.08036259
91	0xbd0dbaab	-0.03460185
92	0xbc86749c	-0.016413026
93	0xbd806ddf	-0.06270956
94	0xbd5a9920	-0.053368688
95	0xbdea2b3a	-0.11434026
96	0xbe1159f3	-0.14194469
97	0xbd05623c	-0.032564387
98	0x3da6892f	0.081316344
99	0x3d87a4db	0.066232406
100	0x3e0afb07	0.13572322
101	0x3d75f945	0.060052175
102	0xbe00c31c	-0.12574428
103	0xbd44ebab	-0.048076313
104	0xbe029316	-0.12751421
105	0x3d1fd3ef	0.039020475
106	0xbc389ff3	-0.011268604
107	0x3d255287	0.040361907
108	0xbe13789c	-0.14401478
109	0x3d9ab50d	0.07554064
110	0xbe0df171	-0.13861634
111	0xbd33715c	-0.04380928
112	0xbe23110a	-0.15924469
113	0x3d3d08e2	0.04615105
114	0xbdf48489	-0.119393416
115	0xbe380d22	-0.1797376
116	0xbd054424	-0.032535687
117	0x3dcf0200	0.10107803
118	0xbd3ad5d2	-0.04561407
119	0x3d1b3c22	0.037899144
120	0x3ae2bba9	0.0017298359
121	0xbe36b45a	-0.17842236
122	0x3d72cddb	0.05927835
123	0x3ccb918d	0.024849677
124	0xbe0af5a1	-0.13570262
125	0x3d654929	0.055977974
126	0x3e0afd7d	0.1357326
127	0x3de5de29	0.11224014
128	0xbe1b2154	-0.15149432
129	0x3cd437e5	0.025905559
130	0x3e11752c	0.14204854
131	0xbadaaed4	-0.0016684183
132	0xbdb21dac	-0.08697066
133	0x3d5ca7a4	0.053870812
134	0xbe4b4fd5	-0.19854672
135	0xbdc244ad	-0.09485755
136	0xbcd61001	-0.026130678
137	0x3dcb4bcb	0.09926566
138	0xbd895b74	-0.067068964
139	0x3dc9dcbb	0.09856554
140	0x3c8551ba	0.016274322
141	0xb980f905	-0.00024599597
142	0x3d8a4a54	0.06752458
143	0xbc86cdaf	-0.0164555
144	0x3d798201	0.060914997
145	0x3d58d5dd	0.05293833
146	0xbd9450db	-0.072419845
147	0x3d80d2cd	0.06290207
148	0xbd09473f	-0.03351521
149	0xbdef66fd	-0.11689565
150	0x3ccd55de	0.025065359
151	0x3c902128	0.017593935
152	0xbdfacc3e	-0.12245987
153	0x3d7ce4ad	0.06174152
154	0x3dafcc24	0.085838586
155	0x3cd6967a	0.0261948
156	0xbd1e7d81	-0.03869391
157	0x3cb57e7d	0.02215504
158	0x3d1d4de1	0.03840435
159	0xbd3754e8	-0.044758707
160	0x3cca55d6	0.024699133
161	0xbdc8028c	-0.09766111
162	0xbc8f623c	-0.017502896
163	0xbceb7927	-0.028744293
164	0x3d8d6202	0.06903459
165	0x3d2f0547	0.042729642
166	0x3df4e5c9	0.119578905
167	0xbdff6ea0	-0.12472272
168	0xbd5292af	-0.05140942
169	0xbcd43733	-0.025905227
170	0x3de9b835	0.11412088
171	0x3dfe8175	0.12427036
172	0x3d678f23	0.05653299
173	0xbdd80bca	-0.105491236
174	0xbde88996	-0.113543674
175	0xbc97018c	-0.018433355
176	0xbe4cefc0	-0.20013332
177	0xbda7b31b	-0.081884585
178	0xbd47e689	-0.04880384
179	0x3d387895	0.04503687
180	0xbd957f07	-0.07299619
181	0xbe23cd55	-0.15996297
182	0x3d8afab7	0.06786101
183	0xbe134bcc	-0.14384383
184	0xbc2a7bd5	-0.0104055
185	0x3de8937f	0.11356258
186	0x3d41c122	0.047303326
187	0xbe097c2a	-0.13426271
188	0xbc9f5673	-0.019450402
189	0xbd1141cc	-0.03546314
190	0x3d85d907	0.06535535
191	0x3dcc5e14	0.099788815
192	0x3dd63b3f	0.10460519
193	0xbd25d15b	-0.04048286
194	0x3dc01450	0.09378874
195	0xbe0fa3b5	-0.14027293
196	0x3ddca3f8	0.10773462
197	0x3d8f532a	0.06998284
198	0xbe2355ce	-0.159507
199	0xbd48a16a	-0.04898206
200	0xbd81c442	-0.06336261
201	0xbd81988b	-0.063279234
202	0xbc83dab9	-0.016095506
203	0xbd8b4b10	-0.068014264
204	0x3d7f24ba	0.062290885
205	0xbd8d00f7	-0.0688495
206	0x3dfe58a1	0.12419248
207	0xbc96babd	-0.01839959
208	0xbda0f6ab	-0.07859548
209	0xbc9be449	-0.019029753
210	0x3d535205	0.05159189
211	0xbdc29a34	-0.09502068
212	0xbd340050	-0.04394561
213	0xbe0a757f	-0.13521384
214	0x3dcafdee	0.099117145
215	0xbaf9a038	-0.0019044941
216	0xbd0e4810	-0.034736693
217	0x3d801902	0.0625477
218	0x3bc60039	0.006042507
219	0xbda981db	-0.08276721
220	0xbd3832ff	-0.04497051
221	0xbbdff2f1	-0.006834381
222	0x3e0e1940	0.1387682
223	0xbdb5e30b	-0.08881196
224	0xbe1b1880	-0.15146065
225	0xbe21b282	-0.15790752
226	0xbdfe2962	-0.12410237
227	0xbd891480	-0.06693363
228	0x3d824cbd	0.06362293
229	0x3cf6a379	0.030107247
230	0x3cd1b93b	0.02560102
231	0x3b9a6ac0	0.0047124326
232	0xbc59e290	-0.013298646
233	0xbe0fd053	-0.14044313
234	0x3ded1409	0.11576087
235	0x3df97812	0.12181105
236	0x3ac521eb	0.0015040016
237	0x3b992ebb	0.00467476
238	0xbbc02c75	-0.0058646747
239	0xbcd3784d	-0.0258142
240	0xbc613ae1	-0.013746948
241	0x3c923708	0.017848507
242	0xbdc8fe20	-0.098140955
243	0xbc35dd5e	-0.011100141
244	0xbcd91e40	-0.026503682
245	0xbe023805	-0.12716682
246	0x3d4194b7	0.047260966
247	0x3d715da1	0.058927182
248	0xbc4eec34	-0.012629557
249	0x3d3b374a	0.045707025
250	0xbd6d9a7c	-0.058008656
251	0x3ca034bc	0.019556396
252	0xbe19821b	-0.14991038
253	0x3d17ae4f	0.037031468
254	0xbe018dbc	-0.12651724
255	0xbdd1fcad	-0.10253272

actor.customer_encoder.0.attention.query_embed.weight f4 [32, 32]
0	0x3ebe1fe6	0.37133712
1	0x3cb06b2b	0.021535477
2	0x3e34f505	0.17671593
3	0x3eba820a	0.36427337
4	0xbebf82da	-0.3740452
5	0xbd9cf9b5	-0.07664815
6	0xbe2e82de	-0.1704211
7	0xbe5db19f	-0.21649788
8	0x3e5299c9	0.20566477
9	0x3e2fe03d	0.17175384
10	0x3e9e0828	0.30865598
11	0x3ed44f54	0.41466773
12	0xbe7f8f28	-0.24956954
13	0x3da6f0a4	0.08151367
14	0x3e1a8c5d	0.15092607
15	0xbd98a702	-0.07453729
16	0x3e6de6f4	0.23232633
17	0x3ea64f6a	0.32482463
18	0xbed3fa35	-0.4140183
19	0xbe059861	-0.13046409
20	0x3e0566a4	0.13027436
21	0xbe9ab264	-0.30214226
22	0xbe0c37ce	-0.13693163
23	0x3e1f83bc	0.15577596
24	0x3e01978f	0.12655471
25	0xbe4d84eb	-0.20070235
26	0xbc8f8886	-0.017521154
27	0x3d9ba9da	0.07600756
28	0x3ed5750d	0.41690865
29	0xbe83fb3a	-0.25777608
30	0x3d442fa5	0.047897
31	0xbe058e74	-0.13042623
32	0x3ec4e911	0.38459066
33	0x3e89d39a	0.26919252
34	0xbc7ae3f3	-0.015313136
35	0xbe0b0d3a	-0.13579264
36	0x3ea1b2fc	0.31581867
37	0xbc879c84	-0.016554125
38	0xbdbcb814	-0.092147976
39	0x3e9364b0	0.28787756
40	0x3dafe6c1	0.08588935
41	0x3c62ab7b	0.013834829
42	0x3eaec4af	0.34134433
43	0xbe0d0c0f	-0.13774131
44	0x3e7f0d1c	0.24907345
45	0x3e5c43e7	0.21510278
46	0xbe50979d	-0.20370336
47	0x3ea92f2d	0.33043805
48	0x3e066fed	0.13128634
49	0xbe807fa7	-0.2509739
50	0x3e7767de	0.24160716
51	0xbea4941c	-0.32144248
52	0xb9c488fb	-0.00037486092
53	0x3e0b13f0	0.13581824
54	0x3e1a723d	0.15082641
55	0xbeada32c	-0.33913553
56	0x3eabb1c4	0.33534062
57	0x3e9af557	0.30265304
58	0x3e6da4c6	0.23207387
59	0x3e22035c	0.15821594
60	0xbe3d72ad	-0.18500777
61	0x3e7ff887	0.2499715
62	0x3d8ab75f	0.067732565
63	0xbda4ab92	-0.08040537
64	0xbe24e496	-0.16102824
65	0x3db48cd7	0.088159256
66	0xbe061194	-0.13092643
67	0xbea77f5e	-0.3271436
68	0xbe342f49	-0.17596163
69	0xbe24672f	-0.16054986
70	0xbd1c51a1	-0.038163785
71	0xbe4d8067	-0.20068513
72	0xbdb12c8d	-0.086510755
73	0xbe565f19	-0.20934714
74	0xbe8d7b77	-0.2763326
75	0x3e1de1c1	0.1541815
76	0xbd2bf424	-0.041980878
77	0xbe32491c	-0.17410702
78	0xbd8575a5	-0.065165795
79	0x3cae579d	0.021282012
80	0xbe8c254f	-0.27372214
81	0x3e4e6b3a	0.20158091
82	0x3e45be2b	0.19310825
83	0x3e5710be	0.2100248
84	0xbe4d05df	-0.20021771
85	0x3eb7e1a4	0.35914338
86	0x3e7b280f	0.24527
87	0x3e235ca7	0.15953313
88	0x3e2adcff	0.16685866
89	0xbe43baf3	-0.19114284
90	0x3d861768	0.06547433
91	0x3e865bc5	0.2624189
92	0x3db5bfa2	0.08874442
93	0x3b69a674	0.0035652192
94	0xbec157b8	-0.37762237
95	0xbdb5d05b	-0.08877631
96	0xbe5147db	-0.20437567
97	0x3e8ca069	0.27466133
98	0xbce5556e	-0.027994838
99	0xbd8c5a75	-0.06853191
100	0xbec347f4	-0.38140833
101	0xbe91234b	-0.2834724
102	0xbe1eb797	-0.15499721
103	0x3e22209c	0.15832752
104	0xbd817604	-0.06321338
105	0x3e1d0fc8	0.15338051
106	0x3eb608de	0.3555364
107	0xbe3b1e85	-0.18273361
108	0x3d8e748f	0.069558255
109	0x3d819987	0.06328111
110	0xbe8c7e1e	-0.2743997
111	0xbd0143b2	-0.0315587
112	0x3da9963b	0.08280607
113	0xbe2651d8	-0.16242158
114	0xbe8f9edd	-0.2805089
115	0x3e895b04	0.26827252
116	0x3dd6b506	0.10483746
117	0xbead7690	-0.33879519
118	0xbebcb052	-0.36853272
119	0x3d25e004	0.04049684
120	0xbe2f4667	-0.171167
121	0x3d9d2d10	0.076746106
122	0x3e3c4598	0.18385923
123	0x3dab1289	0.08353145
124	0x3e7ed106	0.24884424
125	0x3e118560	0.14211035
126	0xbca0d3d3	-0.019632256
127	0x3d6c099f	0.057626363
128	0xbdfd069d	-0.12354777
129	0xbe3dc746	-0.18533048
130	0xbec2b24b	-0.38026652
131	0x3e05b790	0.13058305
132	0x3e9dc2e8	0.30812764
133	0xbdfe4d3f	-0.12417077
134	0x3e5eeb3e	0.21769425
135	0x3e8cf06e	0.27527183
136	0x3d879f9e	0.066222414
137	0x3e34f848	0.17672837
138	0xba1a3af1	-0.0005883417
139	0x3e2c0393	0.16798238
140	0x3e4dd5b5	0.20101054
141	0x3e4f7bab	0.2026202
142	0x3e9a61d6	0.30152768
143	0xbe0f2425	-0.13978632
144	0x3dd03d02	0.10167886
145	0x3e09bb83	0.13450436
146	0xbe685a67	-0.22690736
147	0xbe8c3510	-0.27384233
148	0xbd15107e	-0.03639268
149	0x3e39552d	0.18098898
150	0x3e9c178d	0.30486718
151	0xbde50757	-0.111830406
152	0xbe2b8178	-0.16748607
153	0xbe9e365a	-0.30900842
154	0x3e40597b	0.18784134
155	0xbe547e7e	-0.20751378
156	0x3da2257d	0.079173066
157	0x3e111d92	0.14171436
158	0xbd8f201e	-0.06988548
159	0x3eae4e7b	0.3404425
160	0x3e87eed2	0.26549393
161	0xbd2d9302	-0.042376526
162	0x3b2097a2	0.0024504443
163	0x3e707931	0.23483731
164	0xbe5e5f58	-0.21716058
165	0xbe9373d8	-0.2879932
166	0x3e6ef348	0.23334992
167	0xbe3c3eb7	-0.18383299
168	0x3cb6a3cd	0.022294903
169	0x3ca53ff2	0.020172093
170	0x3e85c8c6	0.2612974
171	0x3d8541cf	0.065066926
172	0x3ce4e543	0.027941352
173	0x3dad3457	0.08457249
174	0xbe1785cd	-0.14797135
175	0xbeb3941d	-0.3507394
176	0x3e98e767	0.29864046
177	0xbe8956a0	-0.26823902
178	0xbe8bf249	-0.27333286
179	0xbdbddbb4	-0.09270421
180	0x3e5fe645	0.21865185
181	0xbe1c82fc	-0.15284342
182	0x3e84986a	0.25897533
183	0x3dfafe17	0.12255495
184	0x3e7a36d2	0.24434975
185	0xbe09a40f	-0.1344149
186	0x3e2db9e7	0.16965447
187	0x3db4b1d6	0.08822982
188	0x3ea640d9	0.3247135
189	0xbe2d4071	-0.16919114
190	0x3ea5fb36	0.3241822
191	0xbe6b4c02	-0.22978213
192	0xbe531176	-0.2061213
193	0x3ea8010d	0.32813302
194	0x3e5aba46	0.2136012
195	0x3e6d2474	0.23158437
196	0xbe579c12	-0.2105563
197	0x3ea3d8d9	0.3200138
198	0xbdc0802c	-0.09399447
199	0x3e9cfc17	0.3066108
200	0x3e58aa98	0.21158826
201	0xbea8d4ad	-0.3297476
202	0xbd8aa6fa	-0.067701295
203	0x3ecc1bbd	0.39864913
204	0x3e3fcb3f	0.18729876
205	0x3da38165	0.079836644
206	0xbc06adc8	-0.008220144
207	0x3e181ad0	0.14853978
208	0xbdc69efa	-0.09698291
209	0xbdd9d07c	-0.10635468
210	0xbe863cce	-0.26218265
211	0xbd656ef4	-0.056014016
212	0xbe82144b	-0.25406107
213	0xbe5c976c	-0.21542138
214	0x3e590ddf	0.21196698
215	0x3e4fc54c	0.20290107
216	0xbe1d3e77	-0.1535586
217	0xbd9a8d38	-0.075464666
218	0xbe112c55	-0.14177068
219	0x3e512e4c	0.20427817
220	0xbe395068	-0.18097079
221	0xbe4cd8f6	-0.20004639
222	0x3e386c0f	0.18009971
223	0x3bed8240	0.007248193
224	0x3e081c9b	0.13292162
225	0xbd1ca769	-0.038245592
226	0x3ebfd5ef	0.37467906
227	0xbd25e40e	-0.040500693
228	0x3e8ec405	0.27883926
229	0x3d5cf637	0.053945746
230	0x3eace140	0.33765602
231	0xbe5653c1	-0.20930387
232	0x3e48b7e0	0.19601393
233	0xbdfe3292	-0.12411989
234	0x3e5453aa	0.2073504
235	0xbe82403c	-0.25439632
236	0x3e410324	0.18848854
237	0xbd946eb6	-0.07247679
238	0xbe0a05cd	-0.13478775
239	0xbe0227a7	-0.12710439
240	0x3e83b527	0.25724146
241	0xbd58db1e	-0.05294334
242	0xbdbbb94f	-0.09166204
243	0x3e98c2ad	0.29836026
244	0x3e687d17	0.22703968
245	0x3c340a9d	0.0109888585
246	0xbe0bcd85	-0.13652618
247	0x3db449e2	0.088031545
248	0xbd938156	-0.07202403
249	0x3e9b9d69	0.30393532
250	0x3e1384bb	0.14406101
251	0x3e87dbd2	0.26534897
252	0x3e645818	0.2229923
253	0xbdc0a3df	-0.09406256
254	0xbe8478c1	-0.25873378
255	0xbe078054	-0.13232547

actor.customer_encoder.0.attention.key_embed.weight f4 [32, 32]
0	0xbe0a5a0b	-0.13510911
1	0x3cc37bd2	0.023862753
2	0x3d8ec75a	0.06971617
3	0x3ecc9d08	0.39963555
4	0x3eaeb6be	0.34123796
5	0xbea96692	-0.33086067
6	0x3e0c4238	0.13697135
7	0xbe6ed232	-0.2332237
8	0xbe33c4bd	-0.17555518
9	0x3e28fbf8	0.16502368
10	0xbe8e274a	-0.2776435
11	0x3eaa4dea	0.3326257
12	0x3db252a2	0.08707167
13	0x3d94f1d1	0.07272685
14	0x3e7bdc26	0.24595699
15	0xbeaac3bb	-0.33352455
16	0x3d994433	0.07483711
17	0x3db6783a	0.0890965
18	0xbe4cae66	-0.19988403
19	0xbe1944da	-0.14967671
20	0x3dc4e485	0.09613899
21	0x3eabe050	0.33569574
22	0xbe07d88f	-0.13266204
23	0x3e635fbd	0.2220449
24	0x3e2989cf	0.16556476
25	0xbe494fc9	-0.19659342
26	0xbe830b44	-0.25594532
27	0xbd1071ce	-0.035264783
28	0x3e83b370	0.25722837
29	0xbe7c568b	-0.24642389
30	0xbe775ec1	-0.2415724
31	0x3e90fbeb	0.28317198
32	0xbe543c1d	-0.20726056
33	0xbe775596	-0.24153742
34	0xbc4fc58b	-0.012681375
35	0x3ea566e6	0.32305068
36	0x3e6bd06f	0.2302873
37	0x3e46725f	0.19379567
38	0x3d65e393	0.056125235
39	0xbe4832e7	-0.19550668
40	0xbe8fbe51	-0.28074887
41	0x3e3c1a48	0.183694
42	0x3debc21d	0.115116335
43	0x3db4ab8c	0.088217825
44	0xbde5f141	-0.11227656
45	0xbeb74b4a	-0.35799628
46	0x3cdcc8be	0.02695119
47	0xbd45a7cd	-0.04825573
48	0xbcd74048	-0.026275769
49	0x3d3b1d99	0.045682523
50	0xbe4a3077	-0.1974505
51	0xbe5929fc	-0.21207422
52	0xbdaf158b	-0.08549031
53	0x3e0244e8	0.12721598
54	0xbe669a53	-0.22519808
55	0x3ea95faa	0.33080798
56	0xbeaeb914	-0.34125578
57	0xbe5c261e	-0.21498916
58	0x3dceb340	0.10092783
59	0xbeaef670	-0.34172392
60	0xbe519452	-0.20466736
61	0x3e254cf5	0.16142638
62	0xbe76b86f	-0.24093793
63	0x3ddf7188	0.10910326
64	0xbe37193c	-0.1788072
65	0xbe18d024	-0.1492315
66	0x3d64281c	0.055702314
67	0x3cda5792	0.026653085
68	0x3ea7def7	0.32787296
69	0x3d96f49a	0.07370873
70	0x3d85009e	0.06494258
71	0xbe516ed3	-0.20452432
72	0x3e8ff92f	0.281198
73	0xbc83154c	-0.016001366
74	0x3e53c2bf	0.20679758
75	0xbe8f3690	-0.27971315
76	0x3e43f494	0.19136268
77	0x3e8f8d9e	0.28037733
78	0x3e55166e	0.20809337
79	0x3e90d129	0.28284577
80	0xbe1cb22c	-0.15302342
81	0xbe7908ca	-0.24319759
82	0x3e0de56e	0.13857052
83	0x3e26b4bc	0.16279882
84	0xbe5285f4	-0.20558912
85	0xbde66a95	-0.11250798
86	0xbb70f346	-0.0036766096
87	0xbbf3754f	-0.0074297558
88	0x3e2f7d82	0.17137721
89	0x3e85bb01	0.26119235
90	0x3dd3a868	0.10334855
91	0xbe128674	-0.14309102
92	0xbe68723d	-0.22699828
93	0x3e99a595	0.30009142
94	0x3cf0b021	0.02938086
95	0xbe3381d2	-0.17529991
96	0xbe8087bc	-0.25103557
97	0xbe85bbd8	-0.26119876
98	0x3ea75aa4	0.3268634
99	0xbe3c55e1	-0.18392135
100	0xbeae3272	-0.34022862
101	0xbe9320aa	-0.28735858
102	0xbe42a424	-0.19007927
103	0x3cba5544	0.022745736
104	0xbe713cd0	-0.23558354
105	0x3e275d30	0.16344142
106	0xbda0ed31	-0.07857741
107	0xbe086e5b	-0.13323347
108	0xbe7f2b2a	-0.2491881
109	0xbda9ac11	-0.08284772
110	0x3ec374fa	0.38175184
111	0xbbc2fef2	-0.005950802
112	0x3dcc104b	0.09964045
113	0xbebb9edf	-0.36644647
114	0x3e44726a	0.1918427
115	0x3d0e0af4	0.034678414
116	0xbd977b19	-0.07396526
117	0x3cd44a01	0.025914194
118	0xbe245c11	-0.16050746
119	0xbe8d2ca9	-0.27573135
120	0xbe43ea10	-0.19132257
121	0x3dd77c39	0.105217405
122	0x3e9ca6ca	0.30596
123	0xbe7eaa6c	-0.24869698
124	0x3e3cb720	0.18429232
125	0xbe0bf688	-0.13668263
126	0x3e8c2341	0.27370647
127	0x3d58cceb	0.0529298
128	0xbea05872	-0.31317478
129	0xbe8dea08	-0.27717614
130	0x3dbdf59a	0.092753604
131	0x3e34323c	0.17597288
132	0x3dd02721	0.10163713
133	0x3dda8646	0.10670142
134	0xbd3feb74	-0.046855405
135	0xbe5b1eb5	-0.21398433
136	0x3d0f9606	0.035055183
137	0xbe95d1f8	-0.29261756
138	0x3e3a5cc9	0.18199457
139	0xbe03421f	-0.12818192
140	0xbe9a50cd	-0.3013977
141	0x3cecfc2e	0.028928842
142	0x3dc5a705	0.09650997
143	0xbe88f5e0	-0.26750088
144	0xbe5d6ee9	-0.2162434
145	0xbd3f05b8	-0.046636313
146	0xbe0bcbe9	-0.13652004
147	0x3e979cf1	0.29611924
148	0x3d9218d5	0.071336426
149	0xbdf10c0b	-0.11769875
150	0xbe92a157	-0.28638718
151	0xbe7e8276	-0.24854454
152	0x3e03192e	0.12802574
153	0xbd8f75dd	-0.070049025
154	0x3d5b0e61	0.05348051
155	0x3d95b3c1	0.07309676
156	0x3e77ac21	0.24186756
157	0xbc718efa	-0.014743561
158	0x3e20d3c8	0.15705788
159	0xbea8492e	-0.32868332
160	0x3e837ed4	0.256827
161	0xbea6ff85	-0.3261682
162	0xbdfe4fc5	-0.124175586
163	0xbea2d3b9	-0.31802157
164	0x3e4cbcd7	0.19993912
165	0xbdf78c98	-0.12087363
166	0xbebadf09	-0.36498287
167	0xbe217ec0	-0.15771008
168	0x3e48a41c	0.19593853
169	0x3e86335f	0.26211068
170	0x3e61e03c	0.22058195
171	0xbeac1649	-0.33610752
172	0xbe27136e	-0.16316006
173	0x3d85fb77	0.06542104
174	0x3b83512f	0.0040074806
175	0xbe51cd19	-0.20488395
176	0x3eb37552	0.35050446
177	0xbe786597	-0.24257503
178	0x3e7187c3	0.23586945
179	0x3e5e1715	0.21688493
180	0xbea215f9	-0.3165739
181	0xbe56b986	-0.20969209
182	0xbe5ceec4	-0.21575457
183	0x3e8c4955	0.27399698
184	0xbea79697	-0.32732078
185	0x3b831094	0.003999779
186	0xbde29ddc	-0.110652655
187	0xbdd64bd3	-0.10463681
188	0xbe55c6b0	-0.20876575
189	0xbe8b0b7f	-0.27157208
190	0xbea2b3f9	-0.31777933
191	0xbc8959f9	-0.016766535
192	0x3c9607c0	0.018314242
193	0x3d87c1ce	0.06628762
194	0x3dbb9e93	0.09161105
195	0xbe0001b5	-0.12500651
196	0x3e56e169	0.20984425
197	0x3e42cbc8	0.19023049
198	0xbe93d75b	-0.2887524
199	0x3eaee467	0.34158632
200	0xbce11529	-0.02747591
201	0xba408e27	-0.0007345401
202	0xbeb4d818	-0.35321116
203	0x3e3a5870	0.18197799
204	0x3e046435	0.12928851
205	0x3dc2e928	0.09517127
206	0x3e4030d0	0.1876862
207	0xbea88d42	-0.3292027
208	0x3eb3b91f	0.35102174
209	0x3e6167c3	0.22012238
210	0xbdd02bf1	-0.10164631
211	0x3e394b71	0.18095185
212	0xbe0df658	-0.13863504
213	0xbdc71dac	-0.09722456
214	0x3a567641	0.00081810734
215	0x3e6871c2	0.22699645
216	0x3e3ba7db	0.1832575
217	0xbe04f030	-0.1298225
218	0xbe989ea9	-0.29808548
219	0xbc9dfa65	-0.019284436
220	0xbe1c0381	-0.15235712
221	0xbac68979	-0.0015147171
222	0x3e2ad8a8	0.1668421
223	0x3e7c9a79	0.24668302
224	0x3c7de368	0.015496112
225	0x3e2badd4	0.16765529
226	0x3d894ea8	0.067044556
227	0xbe41af12	-0.1891444
228	0x3e526891	0.20547701
229	0xbe6cb375	-0.23115332
230	0xbbf01128	-0.007326264
231	0xbe3604eb	-0.17775314
232	0x3c0d624d	0.008629394
233	0x3e8f3541	0.27970317
234	0x3dff25dd	0.12458394
235	0xbce7cc42	-0.02829564
236	0xbe9f0ce1	-0.31064513
237	0xbe884d53	-0.26621494
238	0xbdc1f502	-0.0947056
239	0xbe2a975d	-0.16659303
240	0x3d88ae7f	0.066739075
241	0xbea66ffe	-0.32507318
242	0x3eae0993	0.3399168
243	0xbdb2aace	-0.08723985
244	0x3e6a5bf0	0.22886634
245	0x3e743cc0	0.238513
246	0x3e90bd63	0.2826949
247	0xbd5019a3	-0.0508057
248	0x3cdc93ea	0.026926
249	0x3e3acc23	0.18241934
250	0xbe8a2df6	-0.2698819
251	0xbcb8bb24	-0.022550173
252	0x3e0a4731	0.1350372
253	0xbd0d2ecb	-0.034468453
254	0xbe815619	-0.25261
255	0x3d433d2a	0.047665752

actor.customer_encoder.0.attention.value_embed.weight f4 [32, 32]
0	0x3d7d70c2	0.061875112
1	0x3ea91f91	0.33031896
2	0x3de62b02	0.11238672
3	0x3e055d34	0.13023835
4	0xbeaae6a3	-0.33379087
5	0x3e118846	0.1421214
6	0x3e420994	0.18948966
7	0xbdde0401	-0.108406074
8	0xbe618b69	-0.22025837
9	0xbd2fcb0f	-0.04291826
10	0xbe9bb0be	-0.3040828
11	0x3ea68cf2	0.32529408
12	0xbe5b7c2f	-0.21434091
13	0x3ea2ec31	0.31820825
14	0xbeb39560	-0.35074902
15	0x3e66c988	0.22537816
16	0xbe17544b	-0.14778249
17	0xbe8b683d	-0.27227965
18	0x3dcba2f0	0.09943187
19	0x3ea6a9a7	0.3255131
20	0xbe2c9627	-0.16854154
21	0x3d4b49b0	0.04963082
22	0xbe6d1951	-0.23154189
23	0x3e6be740	0.23037434
24	0x3ea2f533	0.31827697
25	0xbdc5625c	-0.09637901
26	0x3ead6d2a	0.33872348
27	0x3e3b5e01	0.18297578
28	0x3d4370cc	0.047714993
29	0xbe1bc289	-0.15210928
30	0x3e79a31e	0.2437863
31	0x3c94fc47	0.018186701
32	0xbe191d0d	-0.14952488
33	0xbeb213df	-0.34780785
34	0xbeaf730c	-0.3426746
35	0x3eb4796e	0.35248893
36	0xbe3f53f3	-0.18684368
37	0xbe870cee	-0.26377052
38	0x3e658d58	0.224172
39	0xbdcf21c8	-0.10113865
40	0xbe86face	-0.26363224
41	0x3d922dae	0.07137619
42	0xbd560c93	-0.052258085
43	0x3e0badbd	0.13640495
44	0x3ea831c4	0.32850468
45	0xbdb647f1	-0.089004405
46	0x3e4e3054	0.20135623
47	0xbdca4f32	-0.098783866
48	0xbdeed8ce	-0.11662446
49	0x3df17c88	0.117913306
50	0xbda1d760	-0.07902408
51	0x3dc2850b	0.09498032
52	0x3da13ea4	0.07873276
53	0xbe90f7c1	-0.2831402
54	0xbda9b5e1	-0.08286644
55	0x3ea35633	0.31901702
56	0xbb0e443e	-0.0021708156
57	0x3eab9c32	0.33517605
58	0x3e88cd43	0.26719102
59	0xbdcb336a	-0.09921916
60	0xbe23bdcf	-0.15990375
61	0x3deedad1	0.1166283
62	0xbd6f2323	-0.05838312
63	0xbd3af097	-0.0456396
64	0xbcc5fe63	-0.024169153
65	0xbe69d0c1	-0.2283354
66	0x3e63e652	0.22255829
67	0xbe0d7887	-0.13815509
68	0xbe936dd0	-0.28794718
69	0xbe8d64b9	-0.27615908
70	0xbe66f661	-0.22554924
71	0x3d85895d	0.065203406
72	0xbeae4cef	-0.3404307
73	0x3e05bd15	0.1306041
74	0xbe5f067f	-0.21779822
75	0xbc2c58d0	-0.010519221
76	0xbdaf6389	-0.08563907
77	0xbdd8ed95	-0.1059219
78	0x3e699db8	0.22814071
79	0xbdf70643	-0.12061741
80	0x3df6c6dd	0.12049649
81	0x3e766ad1	0.24064185
82	0x3e32da47	0.17466079
83	0x3e1a090f	0.15042518
84	0xbd07c214	-0.03314407
85	0xbe3bd4f6	-0.18342957
86	0xbe85a72e	-0.2610411
87	0x3eabf1bd	0.3358287
88	0xbea43c96	-0.32077473
89	0xbdb0d52d	-0.0863441
90	0x3e995800	0.2994995
91	0xbd89a7e7	-0.06721478
92	0xbe98048b	-0.29690966
93	0x3eb23131	0.34803155
94	0xbdba72db	-0.09103938
95	0x3e173a92	0.14768437
96	0x3e24b061	0.16082908
97	0xbde69623	-0.11259105
98	0xbeaf68d4	-0.34259665
99	0xbd4e061f	-0.050298806
100	0xbe8fa9bd	-0.28059188
101	0xbe31e043	-0.17370705
102	0xbe98460d	-0.29740945
103	0x3e28d696	0.16488108
104	0xbe7ed9e1	-0.24887802
105	0x3e306d40	0.17229176
106	0x3e983ce1	0.29733947
107	0x3e3479e2	0.1762462
108	0x3e57136c	0.21003503
109	0x3d75f8be	0.060051672
110	0x3e724edd	0.23662896
111	0x3eaa32b4	0.33241808
112	0x3d9a6b28	0.0753997
113	0x3e19d7bf	0.15023707
114	0x3e642a0c	0.22281665
115	0xb92f5ccb	-0.00016723869
116	0x3e9b9bb9	0.30392244
117	0x3daf4db9	0.08559746
118	0xbe5cb9f6	-0.21555313
119	0xbe8976a3	-0.26848325
120	0x3db842ce	0.08997117
121	0xbe8f0ef6	-0.27941102
122	0xbea35977	-0.31904194
123	0x3ea834b4	0.3285271
124	0x3e88a221	0.26686195
125	0xbdc3c3a9	-0.095588036
126	0x3e347773	0.17623691
127	0x3df51174	0.119662195
128	0x3ea760d0	0.3269105
129	0x3ddcd710	0.107832074
130	0x3e278ceb	0.1636235
131	0xbe817443	-0.25284013
132	0x3def5437	0.116859846
133	0xbe8b7738	-0.27239394
134	0xbe8a489c	-0.27008522
135	0x3e474ec8	0.19463646
136	0xbe312d60	-0.17302465
137	0x3e8c3b4d	0.27388993
138	0xbdb6e24a	-0.0892988
139	0x3e3c2171	0.18372132
140	0x3ea8ae4c	0.32945478
141	0x3d3c2fb7	0.045943942
142	0x3ea46289	0.32106426
143	0xbe640dce	-0.22270891
144	0x3e400d36	0.1875504
145	0x3de391f9	0.111118264
146	0x3e89baff	0.2690048
147	0x3ea68487	0.32522985
148	0xbd967925	-0.07347325
149	0x3d9b79b7	0.07591575
150	0xbe36b6d1	-0.17843176
151	0x3e19a6ce	0.15005037
152	0xbab5dd53	-0.0013875164
153	0xbe26d45d	-0.16291948
154	0xbe480e71	-0.19536759
155	0x3db4900e	0.08816539
156	0x3ea12fd0	0.3148179
157	0xbea03bed	-0.3129572
158	0x3e69c275	0.22828086
159	0x3e7eb73e	0.24874589
160	0xbe9c83ae	-0.30569214
161	0x3e252ab5	0.16129573
162	0x3d001836	0.03127309
163	0x3e88cb60	0.26717663
164	0x3e990e5e	0.29893774
165	0x3e4b073e	0.19826981
166	0xbe0d8396	-0.13819727
167	0xbe9e31d0	-0.3089738
168	0x3e7cb977	0.24680124
169	0x3a495ee9	0.0007681684
170	0x3e1332fb	0.14374916
171	0x3de45b25	0.11150197
172	0x3d3ffdee	0.046873026
173	0x3e89008c	0.2675823
174	0xbdb53c31	-0.08849371
175	0x3e125ecb	0.14293973
176	0x3e280ceb	0.16411178
177	0xbe2465a8	-0.16054404
178	0x3e1b6a94	0.15177375
179	0x3ccdc12e	0.02511653
180	0xbeb3e747	-0.35137388
181	0x3e483e07	0.19554912
182	0xbe9ff932	-0.31244808
183	0x3e240195	0.16016228
184	0xbe26c231	-0.16285016
185	0xbe300b4c	-0.1719181
186	0x3e4affaa	0.1982409
187	0xbc71df0b	-0.01476265
188	0xbe843319	-0.25820234
189	0x3dfb0473	0.12256708
190	0xbe473dc4	-0.19457155
191	0xbea52bf9	-0.3226011
192	0x3e919f09	0.28441647
193	0xbe98b0c6	-0.29822367
194	0xbe1a43ef	-0.15064977
195	0xbe5a644b	-0.21327321
196	0x3e8a4d95	0.27012315
197	0xbd029567	-0.031880762
198	0xbe97331d	-0.29531184
199	0x3e5479e9	0.2074963
200	0x3e880042	0.26562697
201	0x3ddf0893	0.10890307
202	0xbd1ffe96	-0.03906115
203	0xbeae174e	-0.34002155
204	0xbd5e9501	-0.05434132
205	0x3e46a6b9	0.19399537
206	0xbe762424	-0.24037224
207	0xbeb25d7f	-0.34836957
208	0xbb23c67b	-0.002499013
209	0x3d67e827	0.056617882
210	0xbe0dd82d	-0.13851996
211	0xbe157e79	-0.14599027
212	0xbe8c65bb	-0.27421364
213	0xbd5b2de5	-0.053510565
214	0x3ea865cc	0.32890165
215	0x3e96c0d8	0.29444003
216	0x3d7144f0	0.058903635
217	0x3a9a65db	0.0011779623
218	0x3ea1b67a	0.3158453
219	0x3d580267	0.052736666
220	0xbd47d7e2	-0.048789866
221	0xbe808552	-0.25101715
222	0x3ea7351a	0.326577
223	0xbeacdbf6	-0.33761567
224	0xbdfd234f	-0.1236025
225	0x3d9e044c	0.07715663
226	0x3d30dc2e	0.04317873
227	0xbdec86a3	-0.115491174
228	0xbea89c8e	-0.32931942
229	0x3d107c01	0.03527451
230	0xbdae0e83	-0.08498862
231	0xbe7dc4fe	-0.24782178
232	0xbe609293	-0.21930914
233	0xbe30d340	-0.17268085
234	0xbea7789a	-0.327092
235	0x3e2fa9c5	0.17154606
236	0xbbabd1ee	-0.0052435314
237	0xbe9cb5b4	-0.30607378
238	0x3e37dea9	0.17956032
239	0x3e8a125b	0.2696713
240	0x3da16e26	0.07882337
241	0xbdf31489	-0.11869151
242	0xbde843bf	-0.113410465
243	0x3dea2291	0.11432374
244	0x3eaaf5fa	0.3339079
245	0x3d101b43	0.03518225
246	0xbe09e210	-0.13465142
247	0xbd4523a0	-0.048129678
248	0x3e0acbd4	0.13554317
249	0x3e9def10	0.30846453
250	0x3ead5f91	0.33861974
251	0x3eb47b39	0.3525026
252	0xbe783aa3	-0.24241118
253	0x3d708dee	0.058729105
254	0x3c9ad413	0.018899953
255	0x3d953933	0.072863005

actor.customer_encoder.0.attention.combine.weight f4 [32, 32]
0	0xbcfb762c	-0.030695997
1	0xbe0317ce	-0.1280205
2	0x3d92bb8b	0.07164677
3	0x3de8acc8	0.113610804
4	0x3d0a8386	0.033816837
5	0x3ca7d4f7	0.020487292
6	0x3e1d5ca9	0.15367378
7	0xbd7d418b	-0.061830085
8	0xbccbe323	-0.02488858
9	0x3d523aab	0.05132548
10	0xbdd6e1c5	-0.10492281
11	0xbe1404de	-0.14454982
12	0xbd08d94c	-0.033410355
13	0x3dcfcbf2	0.10146321
14	0xbdb61c47	-0.08892112
15	0x3d6918cf	0.056908425
16	0xbbf76fd8	-0.0075511746
17	0x3e1b35c7	0.15157233
18	0x3dcc63a6	0.09979944
19	0xbdbfea4e	-0.09370862
20	0xbe321f94	-0.17394859
21	0x3dc55b72	0.096365824
22	0xbe2f70b5	-0.17132838
23	0xbddf4e8e	-0.10903655
24	0x3e1d705f	0.15374897
25	0x3d435632	0.047689624
26	0x3c425bce	0.011862708
27	0xbdff489d	-0.12465022
28	0xbd272d7d	-0.040814865
29	0x3c66cb18	0.014086507
30	0x3dc588e3	0.0964525
31	0xbda6ba0d	-0.08140955
32	0xbcd57b6d	-0.02605983
33	0x3d2b83ef	0.04187387
34	0xbe30b467	-0.17256318
35	0xbd50432b	-0.050845306
36	0xbe2a4426	-0.16627559
37	0xbd7f712c	-0.06236379
38	0xbdcc659d	-0.09980319
39	0x3dbc73e1	0.0920179
40	0xbde174f1	-0.11008633
41	0xbe2d3145	-0.16913326
42	0xbcbc288c	-0.022968553
43	0xbdab9739	-0.08378453
44	0xbdc2b3a3	-0.09506919
45	0xbd60b52e	-0.054860286
46	0x3d978a61	0.073994406
47	0xbe19de1c	-0.15026134
48	0xbe0784ef	-0.13234304
49	0x3cde780d	0.027156854
50	0x3dbdb085	0.09262184
51	0x3b85bb66	0.0040811775
52	0x3e28ce52	0.16484955
53	0x3daea3fb	0.085273705
54	0xbe07845c	-0.13234085
55	0x3db9a46f	0.09064566
56	0xbdb0abfd	-0.08626554
57	0x3e00a5b3	0.12563209
58	0xbce4f9f3	-0.027951216
59	0x3e11b9f4	0.14231092
60	0xbcdcb8b8	-0.02694355
61	0xbd2f89ac	-0.042855904
62	0xbe02eed1	-0.12786414
63	0x3e2b28bc	0.16714758
64	0xbdea5862	-0.11442639
65	0xbda808d3	-0.08204808
66	0xbda93aa8	-0.08263141
67	0xbe4709c6	-0.19437322
68	0xbd9fbaa0	-0.07799268
69	0x3e205f21	0.15661289
70	0x3de66eda	0.11251612
71	0x3d21794c	0.03942232
72	0xbd8ba9d9	-0.06819505
73	0x3ba73fc1	0.0051040356
74	0xbd587b4f	-0.05285197
75	0xbe27cb93	-0.16386251
76	0x3e0ed16c	0.13947076
77	0x3db6599e	0.08903812
78	0x3e23e1f2	0.1600416
79	0xbe14fedc	-0.14550346
80	0x3d264b62	0.040599234
81	0x3db5b796	0.08872907
82	0xbc25c54d	-0.010117841
83	0x3dc803e8	0.0976637
84	0x3dd8cc2a	0.10585816
85	0xbdd6b5f8	-0.104839265
86	0x3df21b01	0.11821557
87	0x3d2b138e	0.041766696
88	0xbd1fddf3	-0.039030027
89	0x3d7d7573	0.061879586
90	0x3e0a3fd4	0.13500911
91	0x3d540f66	0.051772498
92	0x3db28fa2	0.08718802
93	0xbe0cf2b0	-0.13764453
94	0xbdcd630a	-0.10028656
95	0xbce04875	-0.0273783
96	0x3dc4c7c1	0.096084125
97	0x3dcc4294	0.09973636
98	0xbd42a48d	-0.04752021
99	0xbd26545b	-0.04060779
100	0xbcf3c7bc	-0.029758327
101	0xbd8a12c6	-0.06741862
102	0x3e170b95	0.14750512
103	0x3db904a7	0.090340905
104	0x3dd4abd3	0.10384335
105	0xbd829320	-0.06375718
106	0xbd526228	-0.05136314
107	0xbe18e46b	-0.14930885
108	0x3e13cb79	0.14433087
109	0xbd8c9061	-0.068634756
110	0xbca5db22	-0.020246092
111	0xbde82848	-0.11335808
112	0x3d407599	0.04698715
113	0x3da81b6d	0.08208356
114	0xbe2ff55b	-0.1718344
115	0x3e0fc225	0.14038904
116	0x3d4aa4d5	0.049473602
117	0x3db18667	0.08668213
118	0xbe131934	-0.14365083
119	0x3d69e35c	0.057101592
120	0x3e2e30ca	0.17010799
121	0x3e000f6b	0.12505881
122	0xbdc1d82f	-0.09465062
123	0x3cb415b8	0.021983013
124	0xbde4b743	-0.11167767
125	0x3d6dde0e	0.058073096
126	0x3d92e439	0.07172436
127	0x3db77f04	0.08959773
128	0xbe1a7435	-0.15083392
129	0x3db644e1	0.08899856
130	0xbb62587a	-0.00345376
131	0xbe0049eb	-0.12528197
132	0xbda5f486	-0.0810328
133	0x3e2888a3	0.16458373
134	0xbe147ed1	-0.14501502
135	0x3df48654	0.119396836
136	0x3e224e47	0.15850173
137	0xbdf0db25	-0.117605485
138	0xbe22e98f	-0.15909408
139	0xbdf9093c	-0.121599644
140	0x3b9fd0a4	0.004877167
141	0xbe29e7d6	-0.16592345
142	0x3e002a0a	0.12516037
143	0x3e15a404	0.14613348
144	0xbc860c55	-0.016363302
145	0x3dbb91d9	0.091586776
146	0x3de54058	0.11193913
147	0x3d3f2995	0.046670515
148	0xbda8ae41	-0.08236361
149	0x3c5e0a27	0.013552225
150	0x3e192519	0.14955558
151	0xbd36ae37	-0.044599738
152	0x3d1141cc	0.03546314
153	0xbb89cd6c	-0.0042053964
154	0xbd82c027	-0.063843064
155	0xbd24139e	-0.04005777
156	0xbda1a23f	-0.07892274
157	0xbd478441	-0.04871011
158	0x3e317cf5	0.17332824
159	0xbd0ebbbb	-0.034847002
160	0xbc94affb	-0.01815032
161	0x3e230d48	0.15923035
162	0x3d6cda59	0.05782542
163	0xbe0a1eb1	-0.1348827
164	0xbd49f119	-0.049302194
165	0xbd87bc11	-0.06627668
166	0xbd8e9c40	-0.06963396
167	0xbe1887d5	-0.14895566
168	0x3db2fc7b	0.08739563
169	0x3e099a7b	0.13437836
170	0xbe0f0bc9	-0.1396934
171	0x3e2e0004	0.16992193
172	0x3da6abab	0.08138212
173	0x3e2eaf82	0.17059138
174	0xbde6d987	-0.11271959
175	0x3d73c9e2	0.059518702
176	0x3dfe33ae	0.12412201
177	0x3dede0cc	0.11615142
178	0xbd0277ec	-0.031852648
179	0x3e04b8df	0.12961148
180	0x3dc1e334	0.09467164
181	0xbe049c03	-0.12950139
182	0x3d9c51c9	0.07632787
183	0xbdd0bb32	-0.10191955
184	0x3e0f9e95	0.14025338
185	0xbda0d3be	-0.078528866
186	0xbdbe803e	-0.09301804
187	0x3da235d6	0.07920425
188	0xbdbf1ff7	-0.09332269
189	0xbd7c3c34	-0.06158085
190	0x3de3b100	0.111177444
191	0x3e290ddf	0.16509198
192	0x3d5e5b0a	0.05428604
193	0x3e277a98	0.1635536
194	0x3d975f45	0.07391218
195	0xbcffa5b2	-0.03120694
196	0xbd8ada15	-0.06779877
197	0xbd100adc	-0.035166606
198	0x3a976f5b	0.0011553572
199	0xbc21e0bc	-0.009880241
200	0x3cd1a8ce	0.025593188
201	0x3d161015	0.03663643
202	0xbdffebc1	-0.12496138
203	0xbdd9a893	-0.10627856
204	0x3e20c5db	0.15700476
205	0xbdb9480a	-0.090469435
206	0x3da83a35	0.08214227
207	0x3e3312d2	0.17487648
208	0xbe201dfb	-0.15636437
209	0x3c53192b	0.0128844185
210	0x3d147cd1	0.036251847
211	0xbde5d3e6	-0.11222057
212	0xbd1a3996	-0.037652574
213	0xbdb27ddc	-0.08715412
214	0xbe2f8531	-0.17140652
215	0xbd2cfb9f	-0.042232152
216	0x3e1b1e1d	0.15148206
217	0x3e3f2682	0.18667033
218	0xbdd43d4a	-0.103632525
219	0xbd33b8ed	-0.04387753
220	0xbdc205c6	-0.094737574
221	0x3dd0e1f8	0.1019935
222	0xbe1c7ef6	-0.15282807
223	0xbd8848c6	-0.066545054
224	0xbd643546	-0.055714868
225	0xbd9bb0df	-0.07602095
226	0x3e14f882	0.14547923
227	0xbe21203e	-0.15734956
228	0xbe051f14	-0.13000137
229	0xbe1cbc94	-0.15306312
230	0xbd918593	-0.071055554
231	0x3db29a24	0.08720806
232	0x3cd95935	0.026531795
233	0xbbe22541	-0.0069014137
234	0x3e0fcfac	0.14044064
235	0x3df2bfe6	0.11853008
236	0x3d2f6c61	0.042827968
237	0x3d58581a	0.052818395
238	0xbd85ad3c	-0.065271825
239	0xbe305e5e	-0.17223498
240	0x3d181f10	0.037139
241	0x3e1d7643	0.15377145
242	0x3e057d5d	0.13036104
243	0xbc024288	-0.007950433
244	0x3b8240fc	0.003975032
245	0x3e28c95a	0.1648306
246	0xbe361c6b	-0.17784278
247	0x3e18d496	0.14924845
248	0x3e2a7e80	0.16649818
249	0x3dd15a3e	0.102222905
250	0x3d882ba2	0.06648947
251	0x3bffe760	0.0078095645
252	0x3d455de7	0.048185255
253	0xbdb76407	-0.089546256
254	0xbce2e7af	-0.027698366
255	0xbddfd642	-0.10929538

actor.customer_encoder.0.BN1.weight f4 [32]
0	0x3f80860d	1.0040909
1	0x3f832a46	1.0247276
2	0x3f80ad0b	1.0052809
3	0x3f78abc7	0.9713711
4	0x3f7f1e91	0.99656016
5	0x3f7c879b	0.9864442
6	0x3f80134d	1.000589
7	0x3f83d4b3	1.0299286
8	0x3f7ef836	0.9959749
9	0x3f7dd664	0.9915526
10	0x3f80bff9	1.0058585
11	0x3f81eca0	1.0150337
12	0x3f7ed459	0.99542767
13	0x3f8059f4	1.0027452
14	0x3f78abf1	0.9713736
15	0x3f80293c	1.0012584
16	0x3f7b44dc	0.98151946
17	0x3f801a6a	1.0008061
18	0x3f84d965	1.0378844
19	0x3f803cc6	1.0018547
20	0x3f7dd0c0	0.9914665
21	0x3f7d800b	0.99023503
22	0x3f7fcdfe	0.99923694
23	0x3f7efd33	0.996051
24	0x3f80cda1	1.0062753
25	0x3f7ef718	0.99595785
26	0x3f7d4b0b	0.9894263
27	0x3f7f46f0	0.9971762
28	0x3f8013d1	1.0006047
29	0x3f797b9c	0.9745424
30	0x3f829221	1.0200845
31	0x3f8055f8	1.0026236

actor.customer_encoder.0.BN1.bias f4 [32]
0	0xbc81715e	-0.015801128
1	0xbd104ca3	-0.035229336
2	0xbbcb30e8	-0.0062008984
3	0x3b0f7fd8	0.002189627
4	0xbc298207	-0.010345942
5	0xbb417655	-0.0029519994
6	0x3bc85c75	0.0061145374
7	0x3d05f596	0.032704912
8	0x3c718d1e	0.014743118
9	0x3c27ee9a	0.010249758
10	0xbd13f05b	-0.036117893
11	0x3a9663fb	0.0011473888
12	0xbbcb7eeb	-0.006210198
13	0x3c0352c2	0.0080153365
14	0xbcb85300	-0.022500515
15	0xbb2d2419	-0.002641922
16	0xb9ada7c1	-0.00033122118
17	0x3b13e414	0.0022566365
18	0xbc539478	-0.012913816
19	0xba8fd090	-0.0010972191
20	0xbc81a93d	-0.01582777
21	0x3c83b8d9	0.016079353
22	0x3c796ecd	0.015224171
23	0x3c7a9bee	0.015295966
24	0x3ca67332	0.020318601
25	0xbc907583	-0.017634159
26	0xbc14b4d4	-0.009076316
27	0xbb38a70a	-0.0028175735
28	0xbc81e927	-0.015858246
29	0x3cf7c609	0.030245798
30	0x3cc4bf6f	0.024017064
31	0xbbc612d1	-0.0060447236

actor.customer_encoder.0.BN1.running_mean f4 [32]
0	0x3f35d689	0.7103048
1	0xbece059d	-0.40238658
2	0x3eee1122	0.46497446
3	0x3f1ae0f8	0.60499525
4	0xbf529f1c	-0.8227403
5	0x3eed6283	0.4636422
6	0x3de8e0f3	0.11371031
7	0x3dd86936	0.105669424
8	0xbe95e025	-0.2927257
9	0x3e88ba85	0.26704803
10	0xbe60f6fb	-0.21969216
11	0x3e8b271c	0.27178276
12	0xbf1b4274	-0.60648274
13	0x3f8b9728	1.0905504
14	0x3f0ae94d	0.5426224
15	0x3ea05428	0.31314206
16	0xbe4a4b64	-0.19755322
17	0xbea8d18d	-0.32972375
18	0x3e2257af	0.15853761
19	0x3e336767	0.17519914
20	0xbe6d29f2	-0.23160532
21	0xbeeaf1d0	-0.45887613
22	0xbf0b0c57	-0.54315704
23	0xbee84ca6	-0.45370978
24	0x3e1b225d	0.15149827
25	0x3d1a9c0b	0.03774647
26	0x3e4379ee	0.19089481
27	0x3ecfa4ef	0.40555522
28	0x3e09e6fc	0.1346702
29	0xbdb80738	-0.08985752
30	0x3d81b150	0.06332648
31	0xbd882327	-0.0664733

actor.customer_encoder.0.BN1.running_var f4 [32]
0	0x3c9ee3c2	0.019395713
1	0x3b3c7509	0.0028756282
2	0x3d0d1fe8	0.034454256
3	0x3c9389eb	0.0180101
4	0x3cffac95	0.031210223
5	0x3d007ea0	0.03137076
6	0x3c7a0b87	0.015261537
7	0x3b3dc9e8	0.0028959457
8	0x3c2fa825	0.010721241
9	0x3b3b5063	0.002858185
10	0x3cd166cf	0.025561718
11	0x3c6aa5cb	0.014321755
12	0x3caa0a1b	0.020756772
13	0x3d69c46c	0.057072088
14	0x3c3670bb	0.0111352755
15	0x3c3a6d9a	0.01137867
16	0x3bb17e13	0.0054166405
17	0x3c02ff10	0.007995382
18	0x3c347995	0.011015316
19	0x3bdcddaa	0.0067402916
20	0x3c081dcb	0.008307884
21	0x3d075398	0.033038706
22	0x3c4c39f5	0.01246499
23	0x3b9f83d0	0.004868008
24	0x3c7b431a	0.0153358225
25	0x3b02516b	0.0019884955
26	0x3c812221	0.015763344
27	0x3c7e0732	0.015504645
28	0x3d1d6c60	0.038433433
29	0x3c818bd9	0.015813755
30	0x3b799e3f	0.0038088707
31	0x3c5f25ef	0.013619884
