output/282nodes_entropy0.01_0.4_0.85_2_230823/epoch61.pth (torch, 519145 bytes, 129 tensors)

critic.ff_layer1.weight f4 [32, 283]
0.1360674 0.0868198 0.008928873 0.039117698 -0.0034830836 -0.0106515335 -0.011953202 0.030390386
0.044688217 -0.02750384 0.037652712 0.0071091866 0.025027333 0.031110454 0.03812269 0.009241064
0.040491797 0.01626344 0.011491528 0.027103007 -0.011421377 0.038144305 -0.009867406 0.053398862
-0.01987372 -0.005932253 -0.033010896 -0.018446276 0.0013553805 -0.011756096 0.066747166 -0.01683007
0.057449672 0.024913993 -0.007661365 0.049209055 0.025748009 0.07232749 0.0013212612 -0.019722011
0.047200616 -0.010450815 0.0070667537 0.043972503 0.041051485 -0.0042364276 0.012715686 -0.0059701763
0.022807632 -0.010580145 -0.015637303 -0.011308412 -0.0040307576 0.04060856 0.000406976 0.03490726
0.006055518 0.016246574 0.07815589 -0.028578492 0.053892776 -0.017723959 0.033751212 -0.037381798
-0.0067499285 0.0073279394 0.021445435 -0.0057060816 -0.0066309175 -0.0061438326 0.11453004 -0.011073303
0.066020176 -0.0073545896 -0.025020953 -0.021640513 0.019539936 0.010117757 0.026404567 0.08915577
-0.03493229 -0.00078283774 0.010656807 -0.04686443 0.048281517 0.016573837 0.039820746 -0.016897336
0.014461343 0.0077144997 0.00093636935 0.013251955 0.050336294 0.03863486 -0.014137338 -0.015692227
0.060421832 -0.002774435 -0.02257526 0.0053622653 -0.034479417 -0.016419355 -0.023348244 -0.038378384
0.016094457 -0.031429652 -0.0069097304 -0.0060586217 -0.04035156 -0.01109369 0.058291923 -0.00025365214
0.04479311 -0.019620905 -0.010982236 -0.019196937 0.01644351 -0.01540216 -0.012310316 -0.021549214
-0.011278397 0.02904055 -0.018729262 -0.010688727 -0.009398131 -0.010148488 -0.01577963 -0.00994621
0.04962818 0.0024560697 0.027132124 0.0123105105 -0.031830806 0.03578685 0.010911842 0.008871407
-0.039675195 -0.0270162 0.017519856 -0.024692034 0.003318453 -0.003628466 0.06373512 0.01627656
-0.0145629905 0.013349663 0.04520653 0.05682416 0.026198516 -0.03439089 0.0011232184 -0.03508903
0.015369772 -0.011666825 0.107167795 -0.032827485 0.009250962 -0.0049468437 0.014633386 -0.0036917299
0.07372949 -0.03853647 0.01278491 -0.019327627 0.05560268 0.027778232 -0.002128375 0.07649545
-0.00010652594 -0.022227744 -0.022408355 -0.031381913 0.05524983 -0.008678296 -0.053455543 0.0134701915
0.009285311 0.02991812 0.055546056 -0.005377785 -0.0074820784 0.03957348 -0.02161075 -0.009613251
0.005762003 0.028105872 -0.0040714205 0.024101932 -0.011094462 -0.011119952 0.0018378363 -0.036642797
0.05923966 0.015681516 0.013420335 -0.0014647958 0.050375413 -0.021495128 -0.002247022 0.014997716
-0.017216742 -0.004613036 0.05983235 0.043059472 0.0018171022 -0.022730587 -0.0032964123 -0.0186002
-0.010977522 0.05370963 0.047476567 0.05754019 -0.011301786 -0.03310174 0.0012581741 0.03601311
0.0023858019 0.007022608 0.029389674 -0.003226818 -0.014307959 0.08545586 0.0037398746 -0.018190963
-0.020810533 0.057593685 0.053487163 0.021913549 -0.012811412 -0.015140894 -0.013710671 0.06252587
0.009187521 0.046715446 0.010619443 0.0027829572 -0.013506792 -0.012953321 -0.03063845 0.003860797
0.03369111 -0.020167915 0.0068990705 -0.019551877 0.0027695666 -0.013818902 -0.04196117 -0.0010179153
-0.013523804 0.0811357 0.03424913 -0.02904232 -0.016087374 -0.0022314768 -0.01598243 -0.016683977
00000000: 4155 0b3e 94ce b13d 684a 123c e139 203d
00000010: 7244 64bb c583 2ebc 5dd7 43bc 42f5 f83c
00000020: fe0a 373d bc4f e1bc bb39 1a3d 2ef4 e83b
00000030: 1f06 cd3c 5adb fe3c 8a26 1c3d d567 173c
00000040: bada 253d e83a 853c f646 3c3c 2007 de3c
00000050: ba20 3bbc 343d 1c3d e7aa 21bc c4b8 5a3d
00000060: 36ce a2bc 5863 c2bb 6f36 07bd a51c 97bc
00000070: 06a7 b13a a49c 40bc bdb2 883d 37df 89bc
00000080: 5950 6b3d 6e18 cc3c 300c fbbb 6f8f 493d
00000090: 7ded d23c 6f20 943d 2b2e ad3a 0e90 a1bc
000000a0: 6f55 413d e539 2bbc 3a90 e73b 831c 343d
000000b0: 9a25 283d bbd1 8abb 7455 503c 78a1 c3bb
000000c0: 12d7 ba3c 5858 2dbc cd19 80bc eb46 39bc
000000d0: 7214 84bb 2955 263d 655f d539 eafa 0e3d
000000e0: 5e6d c63b 8917 853c 3210 a03d 711d eabc
000000f0: acbe 5c3d d631 91bc b63e 0a3d a81d 19bd
00000100: 812e ddbb 361f f03b 56ae af3c 15fa babb
00000110: 2b48 d9bb 3452 c9bb ba8e ea3d cd6c 35bc
00000120: 9635 873d c5fe f0bb bef8 ccbc 7247 b1bc
00000130: 3712 a03c f3c4 253c 644e d83c 4d97 b63d
00000140: 2915 0fbd 5a37 4dba e399 2e3c ebf4 3fbd
00000150: d7c2 453d dbc5 873c 141b 233d 486c 8abc
00000160: 45ef 6c3c eac9 fc3b af76 753a ba1e 593c
00000170: 6e2d 4e3d 963f 1e3d 4ba0 67bc fc8c 80bc
00000180: e27c 773d 4cd3 35bb c0ef b8bc f1b5 af3b
00000190: 4a3a 0dbd e281 86bc d144 bfbc a732 1dbd
000001a0: 86d8 833c 61bc 00bd 056b e2bb 6787 c6bb
000001b0: ad47 25bd 4fc2 35bc 83c3 6e3d 9dfc 84b9
000001c0: fb78 373d 05bc a0bc d6ee 33bc e542 9dbc
000001d0: 8ab4 863c 5759 7cbc 35b1 49bc fa87 b0bc
000001e0: 07c9 38bc 73e6 ed3c 1c6e 99bc c51f 2fbc
000001f0: 9efa 19bc d845 26bc 4844 81bc 6ef5 22bc
00000200: eb46 4b3d 03f6 203b 3044 de3c 06b2 493c
00000210: 0561 02bd 3b95 123d 95c7 323c 6159 113c
00000220: 7582 22bd 1451 ddbc cd85 8f3c f346 cabc
00000230: 677a 593b 8fcb 6dbb 8f87 823d 6c56 853c
00000240: 9c99 6ebc 8bb8 5a3c 7b2a 393d 73c0 683d
00000250: 459e d63c 76dd 0cbd f538 933a 84b9 0fbd
00000260: 7fd1 7b3c 3626 3fbc ca7a db3d 1d76 06bd
00000270: 5991 173c 2219 a2bb dfc0 6f3c f3f0 71bb
00000280: 7dff 963d 6bd8 1dbd cd77 513c f954 9ebc
00000290: a3bf 633d 2d8f e33c 357c 0bbb a6a9 9c3d
000002a0: ae66 dfb8 f516 b6bc ba91 b7bc 528a 00bd
000002b0: a54d 623d 692f 0ebc 33f4 5abd 14b2 5c3c
000002c0: 6b21 183c d816 f53c 4384 633d 2138 b0bb
000002d0: 392c f5bb cd17 223d 0709 b1bc e680 1dbc
000002e0: 2fcf bc3b 493e e63c 8d69 85bb 6a71 c53c
000002f0: 8cc5 35bc 7630 36bc 8ee3 f03a c216 16bd
00000300: 49a5 723d 8676 803c f7e0 5b3c 64fe bfba
00000310: 7356 4e3d 8d16 b0bc c642 13bb fbb8 753c
00000320: 200a 8dbc f328 97bb c412 753d 215f 303d
00000330: d52b ee3a 7f35 babc 9f08 58bb 725f 98bc
00000340: 10db 33bc a1fe 5b3d ca76 423d 43af 6b3d
00000350: 202b 39bc b195 07bd 51e9 a43a 7c82 133d
00000360: 1d5b 1c3b e81d e63b 9dc2 f03c 0679 53bb
00000370: ee6b 6abc 7b03 af3d af18 753b 3705 95bc
00000380: da7a aabc 5be7 6b3d 5b15 5b3d 0b84 b33c
00000390: f5e6 51bc 8311 78bc b9a2 60bc 900d 803d
000003a0: 4287 163c b258 3f3d 2cfd 2d3c 4662 363b
000003b0: 974b 5dbc 2b3a 54bc 7dfd fabc 6d05 7d3b
000003c0: b0ff 093d 2f37 a5bc 9911 e23b 422b a0bc
000003d0: 9e81 353b ad68 62bc 7adf 2bbd 926b 85ba
000003e0: f292 5dbc 792a a63d d148 0c3d 29ea edbc
000003f0: abc9 83bc f83d 12bb 96ed 82bc d6ac 88bc

critic.ff_layer2.weight f4 [283, 32]
-0.1032726 0.4046376 -0.005556465 -0.23123398 0.20889509 -0.12796797 0.20542416 -0.039391123
-0.19062136 0.040043317 -0.09571192 0.123327404 -0.19657432 -0.18391137 -0.0072422368 0.5038675
-0.12523764 -0.15309204 0.22955306 0.2864495 0.4803061 -0.13462856 -0.05558064 -0.1670866
0.44366872 0.2203228 0.110499114 -0.21560656 0.15745425 0.112802334 0.19556928 0.3841707
-0.10651261 -0.10305509 0.14466803 0.05368499 -0.032069355 -0.056369465 -0.1476637 -0.21419843
-0.110704266 -0.12362264 -0.012506924 -0.18615577 0.079959154 -0.15226515 -0.10468146 -0.08239403
-0.09212754 0.06011689 0.039610155 0.11706335 -0.044562098 0.02710612 -0.032318316 0.07183819
0.048401367 0.04699828 0.16250809 0.06725379 -0.055962346 0.10358851 -0.09680083 -0.06753562
-0.07034117 -0.020604784 0.046011638 -0.1617225 -0.12563904 -0.025029926 0.022162365 0.1357841
-0.12651433 0.042627852 0.06262256 -0.12690313 0.03518961 -0.0392316 0.03459767 -0.03576756
-0.094608195 -0.07232116 0.14634049 0.010055126 -0.07221579 0.041288476 0.13850798 -0.08577969
-0.06943538 -0.056908082 -0.09344248 -0.03206516 -0.005898044 -0.0722186 -0.061809234 -0.10414395
-0.13367242 -0.030836338 0.09439114 0.07394824 0.14758982 0.060717244 -0.1093562 -0.051069107
-0.12120582 0.044079702 0.0005223578 0.05018722 -0.13346131 0.076551735 -0.13229938 -0.051251967
-0.16194442 0.06887314 -0.11320217 -0.1675295 -0.033713955 0.09719003 -0.035551284 0.040693916
-0.007194896 -0.16753872 0.055006407 0.025486149 -0.12842801 0.059294954 0.14044984 0.10293382
-0.14322145 0.016521433 0.14112274 0.01443987 -0.07088607 0.067280374 -0.17991681 -0.099643044
-0.007425612 0.105981424 -0.06602918 0.11402789 0.027020821 0.010659623 0.07906151 -0.01151526
0.06737719 0.06333025 -0.06871466 0.08072004 -0.03939827 -0.10810403 0.035487067 0.02443773
-0.1295765 0.07785723 0.075572126 0.02961459 -0.023893133 0.034937106 0.04107811 -0.053919178
0.038054816 -0.10565029 -0.01294075 -0.014824842 0.08546513 0.04725247 0.1338228 -0.106914625
-0.056074623 -0.013457445 0.124030784 0.1393891 0.052874345 -0.11052959 -0.10389706 -0.020297583
-0.18983434 -0.076041326 -0.061860852 0.059926968 -0.07620875 -0.14462373 0.07423826 -0.13494317
-0.01869335 0.1313521 0.043683108 -0.13418722 -0.003804392 -0.044751607 0.062957585 0.099831544
0.10912022 -0.03222649 0.09226357 -0.1357206 0.11708632 0.06844858 -0.15049008 -0.0429029
-0.06339114 -0.065520406 -0.008812973 -0.0575472 0.055939175 -0.06870294 0.13072738 -0.026301274
-0.06980628 -0.02542685 0.04590435 -0.084006466 -0.04698823 -0.13289629 0.102300055 0.0067475457
-0.044624016 0.07380498 0.007948756 -0.07906433 -0.037544332 -0.0066611897 0.13085055 -0.100037605
-0.15456966 -0.16321553 -0.12819375 -0.06466398 0.074331686 0.03282663 0.03567393 0.015637495
-0.006680129 -0.13417944 0.11610661 0.13161932 0.0023250375 0.005912062 -0.0069035124 -0.02437323
-0.012222041 0.00830198 -0.105289906 -0.0019549704 -0.02734251 -0.1304886 0.041717082 0.049973994
-0.025690876 0.055839542 -0.07356023 0.02156018 -0.14369948 0.048383962 -0.13714623 -0.11566491
00000000: 9680 d3bd a92c cf3e 0213 b6bb 9ac8 6cbe
00000010: 98e8 553e 090a 03be b65a 523e 9658 21bd
00000020: 3f32 43be 7604 243d 9c04 c4bd 1493 fc3d
00000030: c74a 49be 4353 3cbe 4950 edbb 76fd 003f
00000040: 4c3e 00be 29c4 1cbe f50f 6b3e 82a9 923e
00000050: aeea f53e 12dc 09be 86a8 63bd c018 2bbe
00000060: 8c28 e33e 4d9c 613e 5c4d e23d f7c7 5cbe
00000070: b03b 213e e904 e73d 5043 483e 06b2 c43e
00000080: 4923 dabd 8c0e d3bd db23 143e cbe4 5b3d
00000090: 285b 03bd abe3 66bd 2735 17be d556 5bbe
000000a0: ebb8 e2bd de2d fdbd d7e9 4cbc 9e9f 3ebe
000000b0: a0c1 a33d 65eb 1bbe 3c63 d6bd 34be a8bd
000000c0: 5dad bcbd 213d 763d 423e 223d e9be ef3d
000000d0: bf86 36bd a70d de3c 3660 04bd e71f 933d
000000e0: 8340 463d 4581 403d 8568 263e 5bbc 893d
000000f0: c638 65bd 3626 d43d 833f c6bd 1d50 8abd
00000100: 080f 90bd 5dcb a8bc b376 3c3d 959a 25be
00000110: 85a7 00be 8f0b cdbc d98d b53c fd0a 0b3e
00000120: f98c 01be 8b9a 2e3d 4240 803d e5f2 01be
00000130: fb22 103d 50b1 20bd 49b6 0d3d 0181 12bd
00000140: f1c1 c1bd 1e1d 94bd 48da 153e 41be 243c
00000150: dfe5 93bd 1b1e 293d 09d5 0d3e 43ad afbd
00000160: 2334 8ebd 7318 69bd c55e bfbd c256 03bd
00000170: 6144 c1bb 58e7 93bd ae2b 7dbd 6c49 d5bd
00000180: 6ce1 08be 7d9c fcbc 2450 c13d 2d72 973d
00000190: c921 173e a5b2 783d 25f6 dfbd d72d 51bd
000001a0: c23a f8bd eb8c 343d d7ee 083a 1d91 4d3d
000001b0: 15aa 08be 28c7 9c3d 7d79 07be 95ed 51bd
000001c0: c2d4 25be 5c0d 8d3d 8ad6 e7bd da8c 2bbe
000001d0: a517 0abd 910b c73d 399e 11bd aaae 263d
000001e0: 2ac3 ebbb 458f 2bbe 664e 613d 54c8 d03c
000001f0: a282 03be 44df 723d 15d2 0f3e f7ce d23d
00000200: a5a8 12be f557 873c 7b82 103e 3495 6c3c
00000210: b72c 91bd 4bca 893d 1d3c 38be a711 ccbd
00000220: 8c52 f3bb ca0c d93d 4f3a 87bd 7487 e93d
00000230: c55a dd3c b3a5 2e3c 00eb a13d 80aa 3cbc
00000240: 0dfd 893d 4ab3 813d 46ba 8cbd 8c50 a53d
00000250: 1560 21bd a565 ddbd e35a 113d a231 c83c
00000260: b4af 04be 9d73 9f3d 8fc5 9a3d 4c9a f23c
00000270: 88bb c3bc 361a 0f3d 8541 283d 5bda 5cbd
00000280: 5edf 1b3d 2e5f d8bd 7105 54bc e5e3 72bc
00000290: 5808 af3d ce8b 413d d808 093e 0ef6 dabd
000002a0: 81ae 65bd 9e7c 5cbc da03 fe3d 04bc 0e3e
000002b0: c592 583d 565d e2bd fbc7 d4bd 1e47 a6bc
000002c0: ef63 42be 8ebb 9bbd ce61 7dbd fb75 753d
000002d0: 5513 9cbd 3e18 14be 3b0a 983d 8b2e 0abe
000002e0: cc22 99bc 2a81 063e 0fed 323d 6068 09be
000002f0: 1b53 79bb 764d 37bd e8ef 803d 7b74 cc3d
00000300: 6c7a df3d edff 03bd aff4 bc3d 57fa 0abe
00000310: f4ca ef3d c52e 8c3d 121a 1abe f4ba 2fbd
00000320: 37d3 81bd 902f 86bd 4a64 10bc 9db6 6bbd
00000330: 7a20 653d 21b4 8cbd 66dd 053e c575 d7bc
00000340: 98f6 8ebd f84b d0bc 3306 3c3d 950b acbd
00000350: bb76 40bd f715 08be b182 d13d 841a dd3b
00000360: acc7 36bd 1127 973d 803b 023c 7bec a1bd
00000370: 16c8 19bd 1c46 dabb b0fd 053e 84e0 ccbd
00000380: 8247 1ebe f921 27be 3945 03be 8c6e 84bd
00000390: 363b 983d 3775 063d d41e 123d 341a 803c
000003a0: fce4 dabb 5666 09be 4dc9 ed3d 37c7 063e
000003b0: a85f 183b f8b9 c13b dc36 e2bb 5eaa c7bc
000003c0: f53e 48bc 0705 083c 3ca2 d7bd f61e 00bb
000003d0: 66fd dfbc ce9e 05be 88df 2a3d 88b1 4c3d
000003e0: ac75 d2bc 01b8 643d bfa6 96bd f99e b03c
000003f0: f525 13be 432e 463d 1070 0cbe b9e1 ecbd

actor.customer_encoder.0.attention.query_embed.weight f4 [32, 32]
0.3684013 0.030569946 0.17184843 0.35854113 -0.3693345 -0.07982606 -0.17039031 -0.22040294
0.20816308 0.17651787 0.30655473 0.41024575 -0.24417114 0.07644991 0.14558002 -0.077558644
0.22721118 0.3272996 -0.41124812 -0.1266366 0.13476476 -0.2985115 -0.13241535 0.1612495
0.12396784 -0.2002583 -0.023350278 0.07143123 0.4120381 -0.25501618 0.04380926 -0.12705222
0.3840384 0.2757983 -0.017865982 -0.13960408 0.31849113 -0.018496424 -0.093880005 0.28235182
0.08758761 0.016344743 0.34016585 -0.14002845 0.251925 0.21226886 -0.20686209 0.3271363
0.12815075 -0.24986234 0.24165875 -0.3178979 0.0014338008 0.13819806 0.15318882 -0.33587304
0.33328512 0.30367386 0.22914034 0.15601191 -0.18770924 0.2522473 0.06509535 -0.07844939
-0.1578813 0.080674164 -0.12651476 -0.32231727 -0.18027866 -0.15774567 -0.039360985 -0.19867447
-0.08865739 -0.21431312 -0.2746873 0.15805319 -0.04698215 -0.16972537 -0.060001317 0.023417225
-0.26877078 0.19890569 0.19050395 0.2068807 -0.20427412 0.3559871 0.24120617 0.15480192
0.16873243 -0.19104196 0.07117753 0.2665887 0.09291389 0.0015874484 -0.3744635 -0.09156114
-0.20687833 0.27749494 -0.029625125 -0.06986236 -0.38049477 -0.28411993 -0.15313224 0.15929346
-0.062704615 0.15455626 0.35459682 -0.18450621 0.071205735 0.061921876 -0.2754381 -0.032439847
0.08107554 -0.1608789 -0.27812046 0.27016988 0.10760036 -0.33849487 -0.36716726 0.04242932
-0.17094319 0.076185375 0.1817527 0.081416525 0.2467261 0.14194477 -0.020446723 0.058947496
-0.12321728 -0.19188982 -0.3778851 0.1341707 0.3055938 -0.12231021 0.2193829 0.28054956
0.064611405 0.1743038 0.00043605224 0.16999239 0.19835886 0.20521045 0.30458543 -0.13671792
0.10479168 0.1333942 -0.22645092 -0.2766774 -0.037780397 0.17869925 0.30268654 -0.11494181
-0.1655315 -0.30989432 0.19064513 -0.20550567 0.08155471 0.13948153 -0.06752354 0.33865377
0.26593775 -0.037078228 0.0007334331 0.23191106 -0.21512166 -0.28954956 0.23113464 -0.1892035
0.023687886 0.022097494 0.260639 0.063749835 0.029910738 0.082620054 -0.15049008 -0.35345155
0.29615963 -0.26774907 -0.2757027 -0.090581484 0.21889202 -0.15084219 0.26057833 0.12483697
0.24250409 -0.13333045 0.16763546 0.08699206 0.3231965 -0.16709112 0.32231706 -0.22852749
-0.20861481 0.33571866 0.20966111 0.22654681 -0.20687829 0.31748292 -0.09481501 0.30163088
0.21378195 -0.3263758 -0.06981345 0.39460865 0.19156086 0.07550971 -0.012199746 0.14447379
-0.10094415 -0.104484074 -0.25881827 -0.050625134 -0.2496365 -0.21250243 0.21563849 0.20753914
-0.1558944 -0.07466399 -0.14615673 0.20044711 -0.18564023 -0.19758601 0.17611113 0.010303704
0.13299482 -0.032297816 0.37261617 -0.043767907 0.28113747 0.052221198 0.33568522 -0.21469036
0.19750209 -0.121946014 0.20646268 -0.25606984 0.19080734 -0.074763834 -0.13758004 -0.13008232
0.25446638 -0.052141033 -0.092940584 0.3009934 0.22790998 0.013146004 -0.1346235 0.09076523
-0.07393704 0.30497223 0.14165524 0.26370913 0.22100794 -0.0918886 -0.26088408 -0.1307573
00000000: 189f bc3e d36d fa3c 09f9 2f3e b492 b73e
00000010: 6919 bdbe d87b a3bd cc7a 2ebe 4fb1 61be
00000020: b428 553e 1ac1 343e bef4 9c3e bb0b d23e
00000030: 0008 7abe c591 9c3d ee12 153e 11d7 9ebd
00000040: 0caa 683e d093 a73e 1d8f d2be 06ad 01be
00000050: c6ff 093e 80d6 98be e497 07be 971e 253e
00000060: dae2 fd3d 8310 4dbe 1549 bfbc 894a 923d
00000070: a8f6 d23e 7b91 82be 5771 333d fa19 02be
00000080: aea0 c43e 6f35 8d3e ae5b 92bc 5ff4 0ebe
00000090: 4511 a33e d085 97bc 2944 c0bd 6b90 903e
000000a0: 2261 b33d 69e5 853c 382a ae3e 9e63 0fbe
000000b0: 50fc 803e 025d 593e a8d3 53be 697e a73e
000000c0: f339 033e eadb 7fbe 6475 773e 83c3 a2be
000000d0: 5fee bb3a cb83 0d3e 88dd 1c3e 8df7 abbe
000000e0: 59a4 aa3e 247b 9b3e c4a3 6a3e 96c1 1f3e
000000f0: da36 40be 8f26 813e b650 853d 13aa a0bd
00000100: a3ab 21be 7f38 a53d 168d 01be c506 a5be
00000110: f89a 38be 1588 21be fc38 21bd 5271 4bbe
00000120: 0192 b5bd e674 5bbe d0a3 8cbe b2d8 213e
00000130: 5b70 40bd 7dcc 2dbe f1c3 75bd 7bd5 bf3c
00000140: 539c 89be efad 4b3e 7813 433e 89d8 533e
00000150: 3c2d 51be f143 b63e c0fe 763e 6584 1e3e
00000160: 32c8 2c3e 81a0 43be 86c5 913d 507e 883e
00000170: a349 be3d ee11 d03a aeb9 bfbe 6884 bbbd
00000180: ead7 53be d113 8e3e 64b0 f2bc ff13 8fbd
00000190: 36d0 c2be 2b78 91be b3ce 1cbe d31d 233e
000001a0: 476b 80bd ff43 1e3e b78d b53e 32ef 3cbe
000001b0: 50d4 913d cba1 7d3d 3906 8dbe a5df 04bd
000001c0: ef0a a63d 70bd 24be ce65 8ebe b553 8a3e
000001d0: 945d dc3d 334f adbe 59fd bbbe 5eca 2d3d
000001e0: bb0b 2fbe 1407 9c3d 611d 3a3e b5bd a63d
000001f0: c4a5 7c3e f859 113e e37f a7bc ee72 713d
00000200: 5759 fcbd c47e 44be 287a c1be 0b64 093e
00000210: ca76 9c3e c67d fabd e9a5 603e 31a4 8f3e
00000220: fc52 843d b27c 323e f19d e439 7c12 2e3e
00000230: 961e 4b3e b022 523e 9ff2 9b3e c8ff 0bbe
00000240: 059d d63d 7d98 083e c0e2 67be a9a8 8dbe
00000250: 9ebf 1abd f0fc 363e bbf9 9a3e 9d66 ebbd
00000260: 1781 29be 78aa 9ebe 7a38 433e 1470 52be
00000270: 2806 a73d 3fd4 0e3e c849 8abd 0764 ad3e
00000280: fe28 883e 57df 17bd dd43 403a 187a 6d3e
00000290: da48 5cbe d73f 94be 8fae 6c3e 90be 41be
000002a0: 190d c23c ce05 b53c 7a72 853e 468f 823d
000002b0: 5d07 f53c b434 a93d 121a 1abe 9af7 b4be
000002c0: 3ca2 973e 6816 89be e728 8dbe c982 b9bd
000002d0: 3b25 603e 6076 1abe 866a 853e 86aa ff3d
000002e0: fe52 783e c787 08be a1a8 2b3e e528 b23d
000002f0: 037a a53e ef19 2bbe be06 a53e 1c03 6abe
00000300: 1f9f 55be 51e3 ab3e 67b1 563e e3fb 673e
00000310: e7d7 53be 1f8d a23e 5f2e c2bd 5d6f 9a3e
00000320: a8e9 5a3e bb1a a7be 5bfa 8ebd 250a ca3e
00000330: 8828 443e d6a4 9a3d 72e1 47bc f0f0 133e
00000340: cebb cebd bffb d5bd d483 84be 4d5c 4fbd
00000350: b6a0 7fbe 3d9a 59be 56d0 5c3e 2485 543e
00000360: c8a2 1fbe 6fe9 98bd 1caa 15be 0242 4d3e
00000370: 7918 3ebe fd53 4abe 7a56 343e ded0 283c
00000380: cb2f 083e b74a 04bd 8cc7 be3e fa45 33bd
00000390: 40f1 8f3e e5e5 553d efde ab3e cad7 5bbe
000003a0: fd3d 4a3e d5be f9bd f46a 533e 961b 83be
000003b0: 0063 433e c81d 99bd c8e1 0cbe 4d34 05be
000003c0: 6b49 823e d691 55bd a257 bebd cf1b 9a3e
000003d0: 3c61 693e 5662 573c beda 09be 1fe3 b93d
000003e0: 4e6c 97bd 5225 9c3e 120e 113e e204 873e
000003f0: e84f 623e 1730 bcbd 9992 85be 3ee5 05be

actor.customer_encoder.0.attention.key_embed.weight f4 [32, 32]
-0.13727883 0.024087299 0.06968349 0.39765036 0.34001708 -0.32911858 0.13866639 -0.23348762
-0.17307219 0.16555546 -0.27571133 0.33070448 0.08921214 0.070822135 0.2445646 -0.33076996
0.07344699 0.090327404 -0.19855705 -0.14842388 0.0981686 0.33395466 -0.13224785 0.21983294
0.16691186 -0.1978782 -0.25739872 -0.035782877 0.2555878 -0.24839889 -0.24119058 0.28133503
-0.2051783 -0.24043924 -0.014229266 0.3237774 0.2319422 0.1926354 0.05576366 -0.19601196
-0.28446147 0.18295342 0.11329751 0.088514835 -0.11250993 -0.35861954 0.026633473 -0.05138645
-0.024964478 0.0462967 -0.19609626 -0.21057588 -0.0851586 0.12850511 -0.22406204 0.3336867
-0.34166697 -0.21399587 0.1006512 -0.34300467 -0.20562895 0.1624527 -0.24277514 0.11105962
-0.17942649 -0.14994772 0.054365378 0.027858095 0.32815075 0.07326232 0.06516674 -0.20131122
0.282218 -0.014897972 0.20632878 -0.28042594 0.19048749 0.2807621 0.2117836 0.28144315
-0.1541855 -0.24329655 0.13877565 0.16334958 -0.20639573 -0.11233453 -0.002602938 -0.0071902606
0.17174666 0.2595127 0.10188823 -0.14457926 -0.22756603 0.30103722 0.029209973 -0.17521623
-0.25215596 -0.26080436 0.32881775 -0.18472737 -0.34233475 -0.28607535 -0.1893412 0.022484524
-0.23357823 0.1630765 -0.07690391 -0.13351297 -0.24896201 -0.08245606 0.38192293 -0.004041081
0.098210305 -0.36594886 0.19054489 0.034506053 -0.074110955 0.02455578 -0.16222125 -0.27819437
-0.19033258 0.10412197 0.30564985 -0.2471346 0.18466638 -0.13766852 0.27605477 0.05109631
-0.31461737 -0.27936858 0.08859052 0.17693993 0.103932716 0.10563675 -0.04603886 -0.20866498
0.036044884 -0.28941983 0.18055624 -0.130697 -0.30076778 0.027224818 0.0999218 -0.2697941
-0.21695413 -0.046615392 -0.13392872 0.29814634 0.07228223 -0.116942376 -0.28242227 -0.24691916
0.12811947 -0.07192931 0.05056531 0.068801336 0.2391959 -0.0138234785 0.15437828 -0.32754642
0.25578514 -0.32460108 -0.120129295 -0.32213888 0.19713995 -0.117665224 -0.36398372 -0.16333969
0.19744267 0.25916457 0.22414902 -0.33552575 -0.16083935 0.064873174 -0.00086622627 -0.19952828
0.35055247 -0.24131906 0.23415214 0.21592578 -0.31520194 -0.21237525 -0.2191489 0.2704674
-0.326332 0.005190995 -0.10833875 -0.100563705 -0.20735548 -0.27545866 -0.31548256 -0.01969092
0.018057391 0.06856187 0.095733695 -0.12785737 0.20724082 0.19253254 -0.2880907 0.33562768
-0.027237322 -0.0036912959 -0.3505583 0.18265975 0.13094917 0.09470123 0.18252367 -0.3250999
0.351264 0.22123064 -0.10278118 0.18036276 -0.1373122 -0.09913013 -0.0027734984 0.2243963
0.18402845 -0.1284572 -0.29636925 -0.015273838 -0.1514089 -0.0041791103 0.16915148 0.24459688
0.0147248795 0.16737396 0.06477841 -0.19006471 0.20726205 -0.23141637 -0.006423649 -0.1775245
0.007917642 0.28071907 0.12388048 -0.030260092 -0.30840802 -0.26898184 -0.0960774 -0.16709703
0.06749794 -0.32443136 0.34274688 -0.08530955 0.2314326 0.23885898 0.28496587 -0.049238216
0.026821524 0.1827658 -0.27125582 -0.02479773 0.13247737 -0.03506366 -0.2550553 0.04869216
00000000: d292 0cbe ba52 c53c 38b6 8e3d d498 cb3e
00000010: b816 ae3e 3b82 a8be 90fe 0d3e 6117 6fbe
00000020: d639 31be 5f87 293e 092a 8dbe 1952 a93e
00000030: dbb4 b63d 320b 913d 246f 7a3e ae5a a9be
00000040: 606b 963d 93fd b83d 8a52 4bbe 6efc 17be
00000050: 9e0c c93d 1bfc aa3e fb6b 07be e31b 613e
00000060: f1ea 2a3e 95a0 4abe c4c9 83be 1191 12bd
00000070: 67dc 823e 475c 7ebe aafa 76be 250b 903e
00000080: 431a 52be b435 76be de21 69bc 27c6 a53e
00000090: 4282 6d3e 3742 453e 7068 643d 5cb7 48be
000000a0: efa4 91be 2458 3b3e 8608 e83d 4447 b53d
000000b0: 9b6b e6bd fb9c b7be 712e da3c 997a 52bd
000000c0: 4e82 ccbc 9ca1 3d3d 75cd 48be 34a1 57be
000000d0: a267 aebd d896 033e 8570 65be fcd8 aa3e
000000e0: f9ee aebe bc21 5bbe 3722 ce3d 4f9e afbe
000000f0: 6590 52be 005a 263e 0c9a 78be 3a73 e33d
00000100: 94bb 37be e58b 19be 3bae 5e3d a936 e43c
00000110: 6003 a83e 8e0a 963d 2476 853d 8724 4ebe
00000120: e17e 903e a016 74bc da47 533e fd93 8fbe
00000130: 270f 433e 0dc0 8f3e cddd 583e 5119 903e
00000140: cee2 1dbe bb22 79be 341b 0e3e 1d45 273e
00000150: 6759 53be a50f e6bd 0e96 2abb 479c ebbb
00000160: 5bde 2f3e d9de 843e c7aa d03d 960c 14be
00000170: 1207 69be 8d21 9a3e c149 ef3c e26b 33be
00000180: 961a 81be 2688 85be cd5a a83e 2c29 3dbe
00000190: 8046 afbe 7878 92be a9e2 41be 7731 b83c
000001a0: 222f 6fbe 87fd 263e cc7f 9dbd a0b7 08be
000001b0: e6ef 7ebe b9de a8bd 678b c33e 0b6b 84bb
000001c0: 7c22 c93d a65d bbbe 331e 433e 3856 0d3d
000001d0: 7cc7 97bd 3429 c93c 541d 26be 7e6f 8ebe
000001e0: 8be6 42be e63d d53d 237e 9c3e da10 7dbe
000001f0: 2f19 3d3e faf8 0cbe 0d57 8d3e 5d4a 513d
00000200: 8715 a1be 6609 8fbe f26e b53d be2f 353e
00000210: adda d43d 1558 d83d 3e93 3cbd 46ac 55be
00000220: cda3 133d d62e 94be bce3 383e 6fd5 05be
00000230: 3cfe 99be 9506 df3c cda3 cc3d 7422 8abe
00000240: 3929 5ebe c8ef 3ebd 9c24 09be a3a6 983e
00000250: b508 943d 7c7f efbd a799 90be 60d8 7cbe
00000260: c031 033e ad4f 93bd 921d 4f3d b7e7 8c3d
00000270: c5ef 743e df7b 62bc 5715 1e3e 2ab4 a7be
00000280: 45f6 823e 1d32 a6be 5906 f6bd 63ef a4be
00000290: 0edf 493e 77fa f0bd 135c babe 8542 27be
000002a0: 692e 4a3e 38b1 843e 5287 653e 08ca abbe
000002b0: 12b3 24be 3adc 843d 7613 63ba 2451 4cbe
000002c0: 9d7b b33e 581c 77be 94c5 6f3e a61b 5d3e
000002d0: 2662 a1be e678 59be 9268 60be b47a 8a3e
000002e0: fd14 a7be 3919 aa3b b5e0 ddbd 58f4 cdbd
000002f0: ff54 54be eb08 8dbe ee86 a1be da4e a1bc
00000300: 18ed 933c 2a6a 8c3d 0710 c43d 0bed 02be
00000310: f036 543e 4027 453e a080 93be 64d7 ab3e
00000320: ce20 dfbc abe9 71bb 617c b3be 280b 3b3e
00000330: 8a17 063e b8f2 c13d 7ce7 3a3e 7e73 a6be
00000340: e0d8 b33e 498a 623e f07e d2bd 04b1 383e
00000350: 929b 0cbe bd04 cbbd 95c3 35bb 25c8 653e
00000360: f471 3c3e 498a 03be b6bd 97be 1f3f 7abc
00000370: ef0a 1bbe ebf0 88bb 0c36 2d3e 9b77 7a3e
00000380: 9f40 713c 1464 2b3e 8baa 843d 53a0 42be
00000390: 813c 543e 6af8 6cbe 797d d2bb fcc8 35be
000003a0: ffb8 013c 69ba 8f3e 0db5 fd3d 03e4 f7bc
000003b0: a8e7 9dbe fdb7 89be 3ac4 c4bd 7c1b 2bbe
000003c0: 5c3c 8a3d de1b a6be 857c af3e c6b6 aebd
000003d0: abfc 6c3e 7397 743e 0ce7 913e 03ae 49bd
000003e0: d0b8 db3c f526 3b3e 0be2 8abe 9c24 cbbc
000003f0: 26a8 073e ea9e 0fbd 9c96 82be 6e71 473d

actor.customer_encoder.0.attention.value_embed.weight f4 [32, 32]
0.061875112 0.33031896 0.11238672 0.13023835 -0.33379087 0.1421214 0.18948966 -0.108406074
-0.22025837 -0.04291826 -0.3040828 0.32529408 -0.21434091 0.31820825 -0.35074902 0.22537816
-0.14778249 -0.27227965 0.09943187 0.3255131 -0.16854154 0.04963082 -0.23154189 0.23037434
0.31827697 -0.09637901 0.33872348 0.18297578 0.047714993 -0.15210928 0.2437863 0.018186701
-0.14952488 -0.34780785 -0.3426746 0.35248893 -0.18684368 -0.26377052 0.224172 -0.10113865
-0.26363224 0.07137619 -0.052258085 0.13640495 0.32850468 -0.089004405 0.20135623 -0.098783866
-0.11662446 0.117913306 -0.07902408 0.09498032 0.07873276 -0.2831402 -0.08286644 0.31901702
-0.0021708156 0.33517605 0.26719102 -0.09921916 -0.15990375 0.1166283 -0.05838312 -0.0456396
-0.024169153 -0.2283354 0.22255829 -0.13815509 -0.28794718 -0.27615908 -0.22554924 0.065203406
-0.3404307 0.1306041 -0.21779822 -0.010519221 -0.08563907 -0.1059219 0.22814071 -0.12061741
0.12049649 0.24064185 0.17466079 0.15042518 -0.03314407 -0.18342957 -0.2610411 0.3358287
-0.32077473 -0.0863441 0.2994995 -0.06721478 -0.29690966 0.34803155 -0.09103938 0.14768437
0.16082908 -0.11259105 -0.34259665 -0.050298806 -0.28059188 -0.17370705 -0.29740945 0.16488108
-0.24887802 0.17229176 0.29733947 0.1762462 0.21003503 0.060051672 0.23662896 0.33241808
0.0753997 0.15023707 0.22281665 -0.00016723869 0.30392244 0.08559746 -0.21555313 -0.26848325
0.08997117 -0.27941102 -0.31904194 0.3285271 0.26686195 -0.095588036 0.17623691 0.119662195
0.3269105 0.107832074 0.1636235 -0.25284013 0.116859846 -0.27239394 -0.27008522 0.19463646
-0.17302465 0.27388993 -0.0892988 0.18372132 0.32945478 0.045943942 0.32106426 -0.22270891
0.1875504 0.111118264 0.2690048 0.32522985 -0.07347325 0.07591575 -0.17843176 0.15005037
-0.0013875164 -0.16291948 -0.19536759 0.08816539 0.3148179 -0.3129572 0.22828086 0.24874589
-0.30569214 0.16129573 0.03127309 0.26717663 0.29893774 0.19826981 -0.13819727 -0.3089738
0.24680124 0.0007681684 0.14374916 0.11150197 0.046873026 0.2675823 -0.08849371 0.14293973
0.16411178 -0.16054404 0.15177375 0.02511653 -0.35137388 0.19554912 -0.31244808 0.16016228
-0.16285016 -0.1719181 0.1982409 -0.01476265 -0.25820234 0.12256708 -0.19457155 -0.3226011
0.28441647 -0.29822367 -0.15064977 -0.21327321 0.27012315 -0.031880762 -0.29531184 0.2074963
0.26562697 0.10890307 -0.03906115 -0.34002155 -0.05434132 0.19399537 -0.24037224 -0.34836957
-0.002499013 0.056617882 -0.13851996 -0.14599027 -0.27421364 -0.053510565 0.32890165 0.29444003
0.058903635 0.0011779623 0.3158453 0.052736666 -0.048789866 -0.25101715 0.326577 -0.33761567
-0.1236025 0.07715663 0.04317873 -0.115491174 -0.32931942 0.03527451 -0.08498862 -0.24782178
-0.21930914 -0.17268085 -0.327092 0.17154606 -0.0052435314 -0.30607378 0.17956032 0.2696713
0.07882337 -0.11869151 -0.113410465 0.11432374 0.3339079 0.03518225 -0.13465142 -0.048129678
0.13554317 0.30846453 0.33861974 0.3525026 -0.24241118 0.058729105 0.018899953 0.072863005
00000000: c270 7d3d 911f a93e 022b e63d 345d 053e
00000010: a3e6 aabe 4688 113e 9409 423e 0104 debd
00000020: 698b 61be 0fcb 2fbd beb0 9bbe f28c a63e
00000030: 2f7c 5bbe 31ec a23e 6095 b3be 88c9 663e
00000040: 4b54 17be 3d68 8bbe f0a2 cb3d a7a9 a63e
00000050: 2796 2cbe b049 4b3d 5119 6dbe 40e7 6b3e
00000060: 33f5 a23e 5c62 c5bd 2a6d ad3e 015e 3b3e
00000070: cc70 433d 89c2 1bbe 1ea3 793e 47fc 943c
00000080: 0d1d 19be df13 b2be 0c73 afbe 6e79 b43e
00000090: f353 3fbe ee0c 87be 588d 653e c821 cfbd
000000a0: cefa 86be ae2d 923d 930c 56bd bdad 0b3e
000000b0: c431 a83e f147 b6bd 5430 4e3e 324f cabd
000000c0: ced8 eebd 887c f13d 60d7 a1bd 0b85 c23d
000000d0: a43e a13d c1f7 90be e1b5 a9bd 3356 a33e
000000e0: 3e44 0ebb 329c ab3e 43cd 883e 6a33 cbbd
000000f0: cfbd 23be d1da ee3d 2323 6fbd 97f0 3abd
00000100: 63fe c5bc c1d0 69be 52e6 633e 8778 0dbe
00000110: d06d 93be b964 8dbe 61f6 66be 5d89 853d
00000120: ef4c aebe 15bd 053e 7f06 5fbe d058 2cbc
00000130: 8963 afbd 95ed d8bd b89d 693e 4306 f7bd
00000140: ddc6 f63d d16a 763e 47da 323e 0f09 1a3e
00000150: 14c2 07bd f6d4 3bbe 2ea7 85be bdf1 ab3e
00000160: 963c a4be 2dd5 b0bd 0058 993e e7a7 89bd
00000170: 8b04 98be 3131 b23e db72 babd 923a 173e
00000180: 61b0 243e 2396 e6bd d468 afbe 1f06 4ebd
00000190: bda9 8fbe 43e0 31be 0d46 98be 96d6 283e
000001a0: e1d9 7ebe 406d 303e e13c 983e e279 343e
000001b0: 6c13 573e bef8 753d dd4e 723e b432 aa3e
000001c0: 286b 9a3d bfd7 193e 0c2a 643e cb5c 2fb9
000001d0: b99b 9b3e b94d af3d f6b9 5cbe a376 89be
000001e0: ce42 b83d f60e 8fbe 7759 a3be b434 a83e
000001f0: 21a2 883e a9c3 c3bd 7377 343e 7411 f53d
00000200: d060 a73e 10d7 dc3d eb8c 273e 4374 81be
00000210: 3754 ef3d 3877 8bbe 9c48 8abe c84e 473e
00000220: 602d 31be 4d3b 8c3e 4ae2 b6bd 7121 3c3e
00000230: 4cae a83e b72f 3c3d 8962 a43e ce0d 64be
00000240: 360d 403e f991 e33d ffba 893e 8784 a63e
00000250: 2579 96bd b779 9b3d d1b6 36be cea6 193e
00000260: 53dd b5ba 5dd4 26be 710e 48be 0e90 b43d
00000270: d02f a13e ed3b a0be 75c2 693e 3eb7 7e3e
00000280: ae83 9cbe b52a 253e 3618 003d 60cb 883e
00000290: 5e0e 993e 3e07 4b3e 9683 0dbe d031 9ebe
000002a0: 77b9 7c3e e95e 493a fb32 133e 255b e43d
000002b0: eefd 3f3d 8c00 893e 313c b5bd cb5e 123e
000002c0: eb0c 283e a865 24be 946a 1b3e 2ec1 cd3c
000002d0: 47e7 b3be 073e 483e 32f9 9fbe 9501 243e
000002e0: 31c2 26be 4c0b 30be aaff 4a3e 0bdf 71bc
000002f0: 1933 84be 7304 fb3d c43d 47be f92b a5be
00000300: 099f 913e c6b0 98be ef43 1abe 4b64 5abe
00000310: 954d 8a3e 6795 02bd 1d33 97be e979 543e
00000320: 4200 883e 9308 df3d 96fe 1fbd 4e17 aebe
00000330: 0195 5ebd b9a6 463e 2424 76be 7f5d b2be
00000340: 7bc6 23bb 27e8 673d 2dd8 0dbe 797e 15be
00000350: bb65 8cbe e52d 5bbd cc65 a83e d8c0 963e
00000360: f044 713d db65 9a3a 7ab6 a13e 6702 583d
00000370: e2d7 47bd 5285 80be 1a35 a73e f6db acbe
00000380: 4f23 fdbd 4c04 9e3d 2edc 303d a386 ecbd
00000390: 8e9c a8be 017c 103d 830e aebd fec4 7dbe
000003a0: 9392 60be 40d3 30be 9a78 a7be c5a9 2f3e
000003b0: eed1 abbb b4b5 9cbe a9de 373e 5b12 8a3e
000003c0: 266e a13d 8914 f3bd bf43 e8bd 9122 ea3d
000003d0: faf5 aa3e 431b 103d 10e2 09be a023 45bd
000003e0: d4cb 0a3e 10ef 9d3e 915f ad3e 397b b43e
000003f0: a33a 78be ee8d 703d 13d4 9a3c 3339 953d

actor.customer_encoder.0.attention.combine.weight f4 [32, 32]
-0.027962197 -0.12731941 0.0688339 0.11504007 0.03328545 0.020304391 0.15628609 -0.061640587
-0.022934724 0.05278532 -0.10300493 -0.14381805 -0.035422884 0.10574637 -0.08430011 0.057646293
-0.006625927 0.15407509 0.10196969 -0.09183253 -0.174559 0.09412056 -0.17387146 -0.11329639
0.15410627 0.04281085 0.014362153 -0.12672003 -0.040705338 0.017402288 0.09789021 -0.08121263
-0.02663913 0.040988382 -0.17268986 -0.051051766 -0.16561982 -0.06292771 -0.100628346 0.09128486
-0.1114043 -0.16992423 -0.02407202 -0.08466663 -0.093627095 -0.05446591 0.07251372 -0.14990462
-0.13078927 0.02667871 0.09204067 0.005001709 0.16656862 0.08525088 -0.13141838 0.09232676
-0.085882455 0.1271029 -0.030489037 0.14356387 -0.025830077 -0.044086836 -0.12923211 0.16928859
-0.10967878 -0.07764406 -0.08787754 -0.18987402 -0.08318756 0.15853523 0.1163029 0.043528643
-0.06462568 0.010433431 -0.047701236 -0.15871495 0.13518696 0.092023306 0.15774457 -0.15086953
0.03845676 0.08674566 -0.014664348 0.093630135 0.102418885 -0.09999778 0.12314057 0.042747807
-0.03385115 0.061436974 0.13267747 0.04688265 0.08539367 -0.13294677 -0.09539935 -0.025854213
0.09712789 0.10416285 -0.048167475 -0.04186933 -0.034504484 -0.061685145 0.1495212 0.09572352
0.10405381 -0.062038753 -0.050184313 -0.14742209 0.14411172 -0.06831225 -0.023359971 -0.115470245
0.046600908 0.07700549 -0.17771946 0.13828534 0.04985207 0.08960302 -0.13880211 0.06144374
0.17209964 0.12845878 -0.098689415 0.020969141 -0.114221744 0.05821805 0.073392004 0.09094709
-0.15392129 0.08829557 -0.0005724664 -0.13042079 -0.079510234 0.165907 -0.14518121 0.118807
0.1529345 -0.12170295 -0.16340645 -0.12611505 0.009762135 -0.16527195 0.124998175 0.14943022
-0.0132152485 0.08979453 0.11225264 0.050416786 -0.076725766 0.010239856 0.14910963 -0.04198977
0.03243817 -0.0019606582 -0.065858535 -0.035235833 -0.07998883 -0.05338502 0.168937 -0.033781357
-0.019648574 0.15898474 0.05770858 -0.13549034 -0.051596463 -0.06436556 -0.07330081 -0.1466718
0.08575097 0.13552159 -0.13974123 0.17142303 0.08295498 0.17014414 -0.11995027 0.057013556
0.12646383 0.11126324 -0.03938224 0.12775558 0.09676236 -0.12446105 0.083826825 -0.09447977
0.14580055 -0.07152464 -0.10205501 0.079407156 -0.090030774 -0.0625649 0.11094005 0.17106946
0.052366283 0.15921143 0.0739433 -0.030422205 -0.06442159 -0.039607696 -0.0022564721 -0.013885378
0.023880083 0.03657053 -0.12540923 -0.1066424 0.15812698 -0.089246795 0.08101818 0.17463441
-0.1535321 0.015222652 0.036532126 -0.11099301 -0.036168013 -0.08651913 -0.17084265 -0.042361233
0.15431276 0.18747874 -0.10656018 -0.043701384 -0.09097399 0.10236507 -0.1537941 -0.06303152
-0.055496417 -0.07658308 0.14713873 -0.15558256 -0.12872878 -0.15434799 -0.071676835 0.08617089
0.028919185 -0.008159426 0.14036314 0.11788901 0.040460233 0.050113454 -0.062240534 -0.17043282
0.03425973 0.15606749 0.13393486 -0.008442607 -4.0571857e-05 0.16294166 -0.18199596 0.14522186
0.16261573 0.09887851 0.072718136 0.0076968903 0.0471201 -0.08969421 -0.02713521 -0.114156656
00000000: fa10 e5bc 0560 02be caf8 8c3d 219a eb3d
00000010: 5356 083d 6555 a63c 7609 203e d77a 7cbd
00000020: 9ae1 bbbc 6b35 583d 40f4 d2bd 0a45 13be
00000030: 9617 11bd 8e91 d83d 89a5 acbd 851e 6c3d
00000040: 4e1e d9bb dcc5 1d3e 7cd5 d03d b212 bcbd
00000050: 98bf 32be 48c2 c03d 5c0b 32be f007 e8bd
00000060: 09ce 1d3e 6e5a 2f3d 3c4f 6b3c e5c2 01be
00000070: a4ba 26bd 3e8f 8e3c aa7a c83d cf52 a6bd
00000080: 4e3a dabc 6fe3 273d 9cd5 30be a81b 51bd
00000090: 3e98 29be 3ee0 80bd 3c16 cebd 8ff3 ba3d
000000a0: f027 e4bd 9e00 2ebe af32 c5bc b365 adbd
000000b0: 90bf bfbd a517 5fbd 1382 943d 9980 19be
000000c0: 9fed 05be 4f8d da3c d27f bc3d 60e5 a33b
000000d0: f790 2a3e 0398 ae3d 8a92 06be d015 bd3d
000000e0: 24e3 afbd 4327 023e 25c4 f9bc 6802 133e
000000f0: 9999 d3bc 6694 34bd 6c55 04be fd59 2d3e
00000100: 459f e0bd d903 9fbd 24f9 b3bd 566e 42be
00000110: 3d5e aabd 0f57 223e 3730 ee3d 174b 323d
00000120: 785a 84bd fbf0 2a3c 5f62 43bd 2c86 22be
00000130: 736e 0a3e b776 bc3d cb87 213e 8b7d 1abe
00000140: d684 1d3d b5a7 b13d bc42 70bc 28c1 bf3d
00000150: fec0 d13d a3cb ccbd 2031 fc3d 5318 2f3d
00000160: 81a7 0abd 56a5 7b3d 9adc 073e 0608 403d
00000170: e0e2 ae3d 3323 08be bc60 c3bd 37cc d3bc
00000180: fdea c63d 5553 d53d 424b 45bd 2d7f 2bbd
00000190: 9354 0dbd 90a9 7cbd 161c 193e b10a c43d
000001a0: 2a1a d53d 591c 7ebd 118e 4dbd d1f5 16be
000001b0: 0692 133e 4be7 8bbd 695d bfbc aa7b ecbd
000001c0: 98e0 3e3d 0eb5 9d3d 17fc 35be ac9a 0d3e
000001d0: af31 4c3d ca81 b73d 2422 0ebe 6eac 7b3d
000001e0: e33a 303e b38a 033e ad1d cabd 7ac7 ab3c
000001f0: 17ed e9bd 0d76 6e3d 8c4e 963d 7842 ba3d
00000200: 8b9d 1dbe 4fd4 b43d 9211 16ba 078d 05be
00000210: 43d6 a2bd 86e3 293e 62aa 14be 1651 f33d
00000220: dd9a 1c3e 653f f9bd 0554 27be 4e24 01be
00000230: 5df1 1f3c 0d3d 29be 0bff ff3d 3c04 193e
00000240: c584 58bc 32e6 b73d b6e4 e53d d581 4e3d
00000250: 6622 9dbd 12c5 273c 32b0 183e 77fd 2bbd
00000260: e3dd 043d 637e 00bb d7e0 86bd 7353 10bd
00000270: 2fd1 a3bd 40aa 5abd d2fd 2c3e 525e 0abd
00000280: 0cf6 a0bc e5cc 223e d55f 6c3d fbbd 0abe
00000290: d056 53bd 17d2 83bd bc1e 96bd 2231 16be
000002a0: 349e af3d 2cc6 0a3e 5318 0fbe 8589 2f3e
000002b0: 4de4 a93d 443a 2e3e 7da8 f5bd 0c87 693d
000002c0: bc7f 013e fbdd e33d 464f 21bd 5cd2 023e
000002d0: 582b c63d 6fe5 febd 66ad ab3d 9c7e c1bd
000002e0: bd4c 153e 837b 92bd 3802 d1bd 38a0 a23d
000002f0: 0e62 b8bd 0722 80bd 8934 e33d d52c 2f3e
00000300: 077e 563d 5208 233e 966f 973d fd37 f9bc
00000310: 77ef 83bd ae3b 22bd 52e1 13bb 7f7f 63bc
00000320: 2aa0 c33c fbca 153d 476b 00be 5567 dabd
00000330: 0aec 213e 06c7 b6bd dcec a53d 5dd3 323e
00000340: 8537 1dbe 6e68 793c b6a2 153d 4e50 e3bd
00000350: e924 14bd f130 b1bd 60f1 2ebe f982 2dbd
00000360: 2a04 1e3e 6dfa 3f3e 393c dabd 3900 33bd
00000370: 9250 babd c7a4 d13d 337c 1dbe ab16 81bd
00000380: 3650 63bd 97d7 9cbd 89ab 163e 0951 1fbe
00000390: 7ad1 03be 660d 1ebe 4ecb 92bd 5d7a b03d
000003a0: ede7 ec3c 1daf 05bc 5bbb 0f3e cb6f f13d
000003b0: a1b9 253d c443 4d3d eeef 7ebd f185 2ebe
000003c0: ee53 0c3d 28d0 1f3e 3826 093e dc52 0abc
000003d0: b32b 2ab8 2eda 263e 265d 3abe 0ab5 143e
000003e0: bd84 263e d180 ca3d 3fed 943d 3236 fc3b
000003f0: 0201 413d 99b1 b7bd a94a debc f7ca e9bd

actor.customer_encoder.0.BN1.weight f4 [32]
1.0050412 1.0254964 1.0076576 0.9712975 0.9934619 0.9883796 1.002964 1.0272925
0.9963009 0.99117416 1.0052246 1.0161164 0.9968519 1.0024141 0.97277266 0.9972097
0.98578686 1.001051 1.0357913 1.0027046 0.9925219 0.9878516 0.9982028 0.99930084
1.004453 0.9953633 0.9900954 0.9967847 1.0013844 0.9747319 1.0180287 1.0027754
00000000: 31a5 803f 7743 833f edfa 803f f4a6 783f
00000010: 8553 7e3f 7206 7d3f 2061 803f 527e 833f
00000020: 930d 7f3f 97bd 7d3f 33ab 803f 1a10 823f
00000030: b031 7f3f 1b4f 803f a107 793f 2349 7f3f
00000040: 875c 7c3f 7022 803f cf94 843f a058 803f
00000050: ea15 7e3f d8e3 7c3f 388a 7f3f 2ed2 7f3f
00000060: ea91 803f 21d0 7e3f e476 7d3f 482d 7f3f
00000070: 5d2d 803f 0888 793f c44e 823f f25a 803f

actor.customer_encoder.0.BN1.bias f4 [32]
-0.01619471 -0.03332412 -0.007619423 0.0032713548 -0.0058460655 -0.0002991484 0.010234274 0.030936198
0.011964034 0.010710028 -0.03373737 0.00014836554 -0.007180158 0.0050159576 -0.01805851 -0.006172803
0.0039752917 0.0031520824 -0.012874139 -0.0008106728 -0.014025146 0.014172171 0.014632507 0.010575245
0.018762117 -0.013324515 -0.014108638 -0.008700207 -0.013498218 0.029221544 0.021962645 -0.0043651448
00000000: c5aa 84bc df7e 08bd 5aac f9bb 3a64 563b
00000010: 5a90 bfbb 05d7 9cb9 a8ad 273c e96d fd3c
00000020: cc04 443c 1d79 2f3c 3230 0abd 9292 1b39
00000030: 8847 ebbb e75c a43b 71ef 93bc 3a45 cabb
00000040: 2a43 823b 2b93 4e3b 0dee 52bc 5583 54ba
00000050: bac9 65bc 6532 683c 2fbd 6f3c cb43 2d3c
00000060: 03b3 993c 114f 5abc eb27 67bc 508b 0ebc
00000070: a127 5dbc 0562 ef3c 01eb b33c 7d09 8fbb

actor.customer_encoder.0.BN1.running_mean f4 [32]
0.73323554 -0.39418778 0.46139526 0.5811455 -0.82967204 0.4391509 0.12698796 0.12464408
-0.30316812 0.29545274 -0.23598796 0.27541083 -0.6008844 1.1030843 0.54362625 0.3358435
-0.1950064 -0.32675382 0.12474651 0.19609453 -0.2591312 -0.46988094 -0.54403 -0.4714434
0.17875317 0.06440224 0.17436032 0.39539126 0.14176756 -0.06494115 0.04960644 -0.07118517
00000000: 53b5 3b3f fbd2 c9be 003c ec3e f4c5 143f
00000010: 6365 54bf 63d8 e03e 2209 023e 6545 ff3d
00000020: da38 9bbe 9545 973e d4a6 71be a602 8d3e
00000030: 8fd3 19bf de31 8d3f 172b 0b3f aef3 ab3e
00000040: c2af 47be 474c a7be 197b ff3d 01cd 483e
00000050: d8ac 84be 3c94 f0be 8d45 0bbf 0861 f1be
00000060: 120b 373e 52e5 833d 838b 323e b970 ca3e
00000070: 842b 113e deff 84bd 1f30 4b3d 88c9 91bd

actor.customer_encoder.0.BN1.running_var f4 [32]
0.019835459 0.00289502 0.036962662 0.018845627 0.03376787 0.031923387 0.015513352 0.0029408194
0.011105685 0.0031426495 0.025816593 0.014943154 0.02175282 0.0602853 0.012077008 0.011223432
0.005686355 0.008010885 0.011080325 0.006859677 0.00841965 0.034418974 0.013301113 0.0051384703
0.015847586 0.00201343 0.016707506 0.016390366 0.040125377 0.016076101 0.0041203373 0.013781699
00000000: f97d a23c 60ba 3d3b 2966 173d 2562 9a3c
00000010: 2e50 0a3d 19c2 023d b72b 7e3c c3ba 403b
00000020: 9ef4 353c e9f4 4d3b 527d d33c 21d4 743c
00000030: f832 b23c b8ed 763d a5de 453c 7ce2 373c
00000040: 9a54 ba3b 1640 033c 408a 353c 24c7 e03b
00000050: 92f2 093c e9fa 0c3d e9ec 593c 9d60 a83b
00000060: ccd2 813c c0f3 033b 2ede 883c 1745 863c
00000070: 825a 243d 07b2 833c e503 873b a3cc 613c

actor.customer_encoder.0.FFN_layer1.weight f4 [32, 32]
-0.01653557 -0.17617705 0.09652316 -0.07727841 0.104626976 -0.11801913 0.15910463 -0.016555013
0.16599979 0.07116597 0.12144379 0.030194644 -0.11425013 0.024970988 0.16271149 -0.15282549
0.059730478 -0.016303467 0.12653036 -0.12867507 -0.13986333 0.03895729 -0.050058942 -0.07364402
0.044805974 0.12136376 -0.12429394 -0.011124566 -0.071033224 -0.023590181 -0.079076365 0.16450688
0.107416324 0.077540845 -0.05121218 0.09267392 -0.10658511 -0.14271024 -0.107205674 -0.065164864
-0.13839194 0.111104965 -0.006604247 -0.06493806 -0.108859256 0.1473393 0.16432668 -0.11585605
0.13965373 0.011429366 -0.06296436 0.08448061 -0.13415626 -0.17894803 -0.018961182 0.11840788
0.14976229 0.15563089 0.07953029 0.043551046 0.016239444 -0.12399908 0.15039451 0.14474122
-0.15904571 -0.23047489 -0.031615138 -0.072409436 -0.08380232 0.16782579 -0.026098844 0.20577878
-0.013258273 -0.026478482 -0.009150931 -0.061193813 -0.05819047 -0.07325919 -0.079152726 0.021725038
0.06596548 0.019171286 0.057791777 -0.06156715 -0.16982055 0.061398685 0.027710302 -0.19745229
0.18106668 -0.05647532 -0.12790012 -0.10587157 -0.045978434 -0.15439782 0.029300435 -0.10537662
-0.11189618 0.18347442 -0.05716066 -0.021880494 -0.1053662 -0.008777055 -0.10613287 -0.11262398
-0.09326747 -0.040125553 0.06187566 0.069890104 0.10984119 -0.0841411 -0.14569107 -0.021363227
0.13033089 0.02986645 0.14977705 0.1409438 0.10692706 -0.019834425 0.021684902 -0.124890395
0.03413611 0.028827999 -0.13519864 -0.116612785 -0.08682651 0.006570045 -0.01088797 0.0462282
-0.081658944 0.15170687 -0.08931741 0.10128004 0.1708739 0.1505457 -0.09228016 -0.102660455
-0.07312776 -0.112741336 -0.04926799 -0.056224816 0.07434529 0.14153403 0.05810331 0.029800115
-0.04048723 -0.060115907 0.19362323 -0.15799437 0.004576454 -0.1597865 -0.053239446 -0.12413453
-0.18930145 0.09670331 -0.083427675 0.035242666 0.15006098 -0.02904586 0.04450274 -0.060332976
0.116516836 0.18345483 -0.05980875 -0.14939184 0.1299902 0.13490695 0.083396 -0.002764608
0.041877154 0.032442857 0.022957673 -0.05007721 0.046901274 0.15889928 -0.053309135 -0.13687924
-0.11360834 -0.0010553716 0.07042822 0.010937216 0.17114104 0.039861023 0.07026413 -0.1590493
0.11542407 0.1494086 0.04900153 0.07298725 -0.15937452 0.14774574 -0.012218652 -0.17117558
0.075866066 0.09735045 0.13267112 0.17647275 0.012300066 0.11651958 0.18967348 0.08189888
0.04766892 -0.041037414 -0.12104222 0.081642896 -0.1487799 0.023829486 -0.1528767 -0.16969675
-0.058853086 -0.16739301 0.09251163 0.033121675 -0.06948916 0.1463226 0.059821077 0.09567837
-0.09966515 -0.16479696 -0.037478335 0.13458882 -0.13288184 -0.1360637 0.02215224 0.053547766
0.079072654 0.010877807 -0.028921617 -0.08168533 -0.005399238 0.13787384 -0.11308286 -0.16608077
-0.006038195 0.0072308136 0.11771964 0.04727018 0.18532546 -0.08892846 0.07102873 -0.083537646
-0.114761345 -0.081434555 0.21020243 -0.10653132 -0.021536602 0.033093132 -0.10596313 0.03485583
-0.12397802 0.14626357 0.13556196 0.07172954 0.111688055 0.06835474 0.020379743 0.024299141
00000000: 9b75 87bc c267 34be efad c53d 2544 9ebd
00000010: ab46 d63d 03b4 f1bd 53ec 223e 619e 87bc
00000020: d9fb 293e 77bf 913d 86b7 f83d c25a f73c
00000030: f9fb e9bd f58f cc3c d79d 263e 497e 1cbe
00000040: f2a7 743d d98e 85bc 2d91 013e 66c3 03be
00000050: 5538 0fbe ae91 1f3d 9b0a 4dbd add2 96bd
00000060: 7886 373d 908d f83d d28d febd d043 36bc
00000070: de79 91bd 3240 c1bc caf2 a1bd 7e74 283e
00000080: 17fd db3d bccd 9e3d ddc3 51bd d3cb bd3d
00000090: 4b49 dabd a222 12be a68e dbbd 2875 85bd
000000a0: 9eb6 0dbe 008b e33d 7068 d8bb 3ffe 84bd
000000b0: 9af1 debd 1de0 163e 4145 283e f045 edbd
000000c0: 6301 0f3e 3c42 3b3c 75f3 80bd 2c04 ad3d
000000d0: 4260 09be 273e 37be 7b54 9bbc d57f f23d
000000e0: 495b 193e b45d 1f3e c7e0 a23d 9562 323d
000000f0: 9508 853c 3bf3 fdbd 0501 1a3e 0b37 143e
00000100: e1dc 22be 9c01 6cbe e07e 01bd 664b 94bd
00000110: 8da0 abbd 86da 2b3e 3ecd d5bc acb7 523e
00000120: 3a39 59bc 67e9 d8bc c9ed 15bc 5da6 7abd
00000130: 2159 6ebd ea08 96bd d31a a2bd b5f8 b13c
00000140: e918 873d 1a0d 9d3c 12b7 6c3d d62d 7cbd
00000150: 70e5 2dbe 307d 7b3d b700 e33c ef30 4abe
00000160: 8b69 393e aa52 67bd 40f8 02be 32d3 d8bd
00000170: e253 3cbd 761a 1ebe 7707 f03c b3cf d7bd
00000180: d329 e5bd b8e0 3b3e 4c21 6abd b93e b3bc
00000190: 3cca d7bd a3cd 0fbc 315c d9bd 67a7 e6bd
000001a0: 0403 bfbd b15a 24bd 5571 7d3d 8b22 8f3d
000001b0: 6bf4 e03d 2b52 acbd 0a30 15be ef01 afbc
000001c0: 7675 053e 7caa f43c 285f 193e 9253 103e
000001d0: 93fc da3d ce7b a2bc 89a4 b13c 89c6 ffbd
000001e0: 4ed2 0b3d b228 ec3c 8371 0abe afd2 eebd
000001f0: 19d2 b1bd 8849 d73b 7563 32bc c859 3d3d
00000200: ce3c a7bd 0c59 1b3e 0cec b6bd e96b cf3d
00000210: 91f9 2e3e a728 1a3e 61fd bcbd a53f d2bd
00000220: 02c4 95bd eee4 e6bd 3bcd 49bd fe4b 66bd
00000230: 5842 983d 4cee 103e bdfd 6d3d 5f1f f43c
00000240: f0d5 25bd 193c 76bd 2b45 463e 47c9 21be
00000250: 14f6 953b 129f 23be 9b11 5abd 3f3a febd
00000260: 3dd8 41be 630c c63d 21dc aabd 9d5a 103d
00000270: 96a9 193e 95f1 edbc 8148 363d b61f 77bd
00000280: 61a0 ee3d 95db 3b3e 05fa 74bd 2dfa 18be
00000290: 271c 053e 0c25 0a3e 86cb aa3d 6d2e 35bb
000002a0: 6187 2b3d cde2 043d bb11 bc3c c31d 4dbd
000002b0: 8d1b 403d 7eb6 223e ae5a 5abd 122a 0cbe
000002c0: 7dab e8bd 6554 8aba ac3c 903d 0232 333c
000002d0: 993f 2f3e 5045 233d a4e6 8f3d d2dd 22be
000002e0: 7463 ec3d 91fe 183e d4b5 483d 577a 953d
000002f0: 1333 23be a94a 173e be30 48bc a748 2fbe
00000300: ab5f 9b3d ac5f c73d f0da 073e 46b5 343e
00000310: 3786 493c d1a1 ee3d c439 423e 9aba a73d
00000320: 7c40 433d d916 28bd fce4 f7bd 6434 a73d
00000330: c259 18be 0e36 c33c b68b 1cbe fcc4 2dbe
00000340: ef0f 71bd 1369 2bbe bd76 bd3d 98aa 073d
00000350: 5550 8ebd 97d5 153e f206 753d 05f3 c33d
00000360: 3e1d ccbd 89c0 28be e282 19bd a7d1 093e
00000370: 2d12 08be 4854 0bbe 9d78 b53c e754 5b3d
00000380: d8f0 a13d d438 323c 07ed ecbc a34a a7bd
00000390: 17ec b0bb cd2e 0d3e fd97 e7bd 1411 2abe
000003a0: 0ddc c5bb 76f0 ec3b ff16 f13d 609e 413d
000003b0: f5c5 3d3e 2020 b6bd 8377 913d c915 abbd
000003c0: ff07 ebbd 29c7 a6bd 4e3f 573e 182d dabd
000003d0: 876d b0bc aa8c 073d 3303 d9bd fdc4 0e3d
000003e0: 30e8 fdbd 1ec6 153e c1d0 0a3e f0e6 923d
000003f0: b5bc e43d 92fd 8b3d 6bf3 a63c fe0e c73c

actor.customer_encoder.0.FFN_layer1.bias f4 [32]
0.042711362 0.0813259 -0.010734863 0.08864852 0.017074892 -0.12885268 0.17191154 -0.010283989
-0.06849888 0.07986979 0.028658366 -0.1562837 0.15112737 -0.014980507 0.06769028 -0.014482826
-0.15440218 -0.12344205 -0.032808118 -0.04830176 0.13961864 0.03453238 0.14742619 0.16992578
0.02152185 -0.059837956 -0.006104105 -0.052880988 -0.17849341 0.060294062 0.066489406 -0.054506287
00000000: 1cf2 2e3d 328e a63d 47e1 2fbc 5b8d b53d
00000010: a5e0 8b3c f5f1 03be 9409 303e 2d7e 28bc
00000020: 2449 8cbd c692 a33d f3c4 ea3c d608 20be
00000030: 22c1 1a3e cd70 75bc 34a1 8a3d 6049 6dbc
00000040: 9b1b 1ebe 2fcf fcbd ce61 06bd 11d8 45bd
00000050: 30f8 0e3e d371 0d3d e4f6 163e 0601 2e3e
00000060: 974e b03c a518 75bd f204 c8bb bc99 58bd
00000070: fac6 36be e8f6 763d 992b 883d fc41 5fbd
