output/282nodes_entropy0.01_0.4_0.85_2_230823/epoch51.pth (torch, 519145 bytes, 129 tensors)

critic.ff_layer1.weight f4 [32, 283]
0	0x3e0600a1	0.13086177
1	0x3d9a8870	0.07545555
2	0x3baef8ab	0.005339702
3	0x3d088b37	0.03333589
4	0xbbaf4c16	-0.0053496463
5	0xbcad3726	-0.02114446
6	0xbc7ebb6a	-0.015547613
7	0x3d1cea7b	0.038309556
8	0x3d4674fd	0.048451412
9	0xbcef502d	-0.029213035
10	0x3d48edd8	0.04905495
11	0x3c04fe58	0.008117281
12	0x3cda8d70	0.02667877
13	0x3cbf507f	0.023353813
14	0x3d25b039	0.040451262
15	0x3c33ccfc	0.010974165
16	0x3d31053a	0.043217875
17	0x3c935b12	0.017987762
18	0x3c305eb4	0.0107647665
19	0x3ce2cb16	0.02768473
20	0xbc45f447	-0.012082166
21	0x3d25fdf9	0.04052541
22	0xbc1eaeda	-0.009685243
23	0x3d6bf523	0.057606827
24	0xbcd07eaf	-0.025451032
25	0xbc0609f2	-0.008181082
26	0xbd01163d	-0.03151535
27	0xbc78fc77	-0.015196911
28	0xbb5dee74	-0.0033864053
29	0xbbfcf93b	-0.0077201403
30	0x3d764de2	0.06013287
31	0xbc415ba3	-0.011801633
32	0x3d7718ca	0.060326375
33	0x3cc13998	0.023587033
34	0xbc4874c8	-0.012234874
35	0x3d57fc69	0.05273095
36	0x3d034743	0.032050382
37	0x3d8aa1af	0.0676912
38	0x3b67bb24	0.0035359347
39	0xbc20f9db	-0.009825195
40	0x3d48d2f6	0.049029313
41	0xbb968611	-0.0045936187
42	0x3c1c243e	0.009530125
43	0x3d431df0	0.047635972
44	0x3d2be3c8	0.041965276
45	0xbbcb9e03	-0.006213905
46	0x3bf84667	0.007576752
47	0xbbd3103b	-0.006441144
48	0x3cc9bd5c	0.024626426
49	0xbc690bdb	-0.014224018
50	0xbc98ee07	-0.018668188
51	0xbc27d9bb	-0.010244782
52	0x3a090f5c	0.0005228424
53	0x3d2f0fd7	0.042739715
54	0x3a908ebf	0.001102887
55	0x3d1c60ea	0.038178362
56	0x3c45ede0	0.01208064
57	0x3c83118a	0.015999574
58	0x3d8b2e86	0.06795983
59	0xbd098814	-0.03357704
60	0x3d5b5650	0.05354911
61	0xbc8f9f1c	-0.017531924
62	0x3d05c722	0.03266061
63	0xbd0c966f	-0.034323152
64	0xbbe3178c	-0.0069302972
65	0x3bee5015	0.00727273
66	0x3cd8eb3e	0.02647936
67	0xbb568700	-0.0032734275
68	0xbc2dcf58	-0.010608517
69	0xbbafb32e	-0.005361936
70	0x3dd5a25b	0.104313575
71	0xbbd690ae	-0.006548009
72	0x3d70fe2a	0.05883614
73	0xbbf7f9bd	-0.007567613
74	0xbcd5aabc	-0.026082389
75	0xbcb72be6	-0.0223598
76	0x3c79bb4d	0.01524241
77	0x3c56ffb6	0.01312249
78	0x3cca02d3	0.02465955
79	0x3d9d479f	0.07679676
80	0xbd103423	-0.03520597
81	0xbb54a2fb	-0.0032445777
82	0x3c54bec3	0.012984934
83	0xbd3ebc44	-0.046566263
84	0x3d58b43c	0.05290626
85	0x3c654462	0.0139933545
86	0x3d37b514	0.044850424
87	0xbca4d960	-0.020123184
88	0x3c24c48d	0.010056627
89	0x3ade77c3	0.0016972948
90	0x397c5d50	0.00024067354
91	0x3c85f34e	0.016351368
92	0x3d6906bc	0.056891188
93	0x3d17cd38	0.037060946
94	0xbc8be704	-0.01707793
95	0xbcb8e33f	-0.022569297
96	0x3d6dae0f	0.058027323
97	0x39b9c588	0.00035433122
98	0xbcba2b7a	-0.02272581
99	0x3afa47ea	0.0019094918
100	0xbd0bdf7f	-0.03414869
101	0xbc9043ab	-0.017610392
102	0xbc99e135	-0.018784145
103	0xbd1cc126	-0.03827014
104	0x3c856d82	0.016287569
105	0xbcee8cb6	-0.02911983
106	0xba447f89	-0.0007495811
107	0x3a4ccd4d	0.00078125746
108	0xbd18c72e	-0.037299328
109	0xbc8d59a3	-0.017254656
110	0x3d7cf68f	0.061758574
111	0xbb2b915f	-0.0026179177
112	0x3d3e2350	0.046420395
113	0xbcb877c1	-0.02251804
114	0xbc6650bc	-0.0140573345
115	0xbc87bff9	-0.016571032
116	0x3c8a9aa1	0.016919436
117	0xbc922b7d	-0.017843002
118	0xbc879d6b	-0.016554555
119	0xbceb229b	-0.028703025
120	0xbc14ba2e	-0.009077592
121	0x3ccd4897	0.025059028
122	0xbc88f228	-0.016717032
123	0xbc4b2fa2	-0.012401493
124	0xbc1beaeb	-0.009516458
125	0xbc2963b7	-0.010338715
126	0xbc19b0f9	-0.0093805725
127	0xbc6d7919	-0.014494204
128	0x3d5392ef	0.0516538
129	0x3b828c76	0.0039840294
130	0x3d005407	0.031330135
131	0x3bfbe29a	0.007686925
132	0xbd11d8c1	-0.035607103
133	0x3d225a9e	0.0396372
134	0x3c2a432e	0.010391993
135	0x3c2f26a1	0.010690362
136	0xbd0da97d	-0.034585465
137	0xbcfd864f	-0.030947832
138	0x3c8f696e	0.017506327
139	0xbcfeab9d	-0.031087691
140	0x3c018095	0.0079041915
141	0xbbc824a9	-0.006107886
142	0x3d90a374	0.07062426
143	0x3c9a6b7f	0.018850086
144	0xbca6964e	-0.020335343
145	0x3c883f3f	0.01663172
146	0x3d3a71b9	0.04551861
147	0x3d6e41b0	0.058168113
148	0x3d0173e5	0.031604666
149	0xbd0e695f	-0.03476846
150	0x3bf013a0	0.007326558
151	0xbd137fce	-0.036010556
152	0x3cb0b644	0.021571286
153	0xbbe2fd09	-0.006927137
154	0x3dcec888	0.10096842
155	0xbd073d10	-0.033017218
156	0x3c63d9d7	0.013906918
157	0xbc1f8ad4	-0.009737689
158	0x3cb37c46	0.021909844
159	0xbc0aab05	-0.008463626
160	0x3d84534e	0.064612016
161	0xbd27b110	-0.040940344
162	0x3c2698da	0.010168279
163	0xbcbfd075	-0.02341483
164	0x3d54f2fa	0.051989533
165	0x3ce764f7	0.028246386
166	0xbc247ec5	-0.01003999
167	0x3d9aee66	0.07565002
168	0x3b8a8101	0.0042268042
169	0xbcd5d942	-0.026104573
170	0xbcca3e9f	-0.024688063
171	0xbce8f9aa	-0.028439362
172	0x3d518546	0.05115249
173	0xbba9597e	-0.005168139
174	0xbd53f696	-0.051748835
175	0x3c393d9b	0.011306192
176	0x3c27e3bb	0.010247166
177	0x3cf2ce41	0.029639365
178	0x3d60d58a	0.054891147
179	0xbb4d1b99	-0.0031296967
180	0xbc521bd4	-0.012824018
181	0x3d3f2ae8	0.046671778
182	0xbca1e4f6	-0.019762497
183	0xbc17c201	-0.009262563
184	0x3c0465d9	0.008080923
185	0x3d12609e	0.035736673
186	0xbb169eae	-0.0022982764
187	0x3c8a781e	0.01690298
188	0xbc97cba9	-0.01852973
189	0xbc9cccd1	-0.019140633
190	0xb9b9e54c	-0.0003545679
191	0xbd12afec	-0.035812303
192	0x3d70e9fa	0.058816887
193	0x3c9edfb8	0.019393787
194	0x3c86706f	0.016411034
195	0xbb8ecb5d	-0.004357739
196	0x3d3df8e3	0.046379935
197	0xbc87cc31	-0.016576858
198	0xbac0edc2	-0.0014719295
199	0x3c9c9bfa	0.019117344
200	0xbcaedf9d	-0.021346861
201	0xbc034be5	-0.0080137
202	0x3d62c1c0	0.055360556
203	0x3d3ef701	0.04662228
204	0x3b7e9d7a	0.0038851188
205	0xbcd343d5	-0.02578918
206	0xba8e8a91	-0.0010875036
207	0xbca4ea16	-0.020131152
208	0xbc6546de	-0.013993947
209	0x3d4de257	0.050264683
210	0x3d3b8426	0.045780323
211	0x3d7dcbe8	0.06196204
212	0xbc6b3139	-0.014354997
213	0xbce00645	-0.02734674
214	0xba8b8024	-0.0010643047
215	0x3d26931b	0.040667634
216	0x3bbc9d9a	0.0057560923
217	0x3bea416d	0.0071489126
218	0x3cf5c9c7	0.030003441
219	0xba20bbbd	-0.0006131491
220	0xbc76369a	-0.015027666
221	0x3daad195	0.08340756
222	0x3a9f26a5	0.0012142254
223	0xbc8063c8	-0.01567258
224	0xbce09997	-0.027416987
225	0x3d705cec	0.058682367
226	0x3d4b6e64	0.049665824
227	0x3ccbf052	0.024894867
228	0xbc78b62e	-0.015180154
229	0xbcb0b0f2	-0.02156875
230	0xbca0e6dc	-0.019641332
231	0x3d8cddd4	0.06878248
232	0x3c921ba4	0.017835446
233	0x3d3f99b7	0.046777453
234	0x3c319e44	0.010840956
235	0x3c1beb40	0.009516537
236	0xbc22be14	-0.0099330135
237	0xbc8e9189	-0.017403381
238	0xbcd479cc	-0.025936984
239	0xbb9f47e3	-0.0048608645
240	0x3d218f58	0.039443344
241	0xbc8cc1e7	-0.017182304
242	0x3b40023b	0.0029298204
243	0xbca9c002	-0.02072144
244	0xb9b82ec3	-0.00035130055
245	0xbc549891	-0.012975828
246	0xbd32cc85	-0.043652076
247	0xba87e50d	-0.0010367945
248	0xbc8779ae	-0.016537514
249	0x3d9f5689	0.07780177
250	0x3cfe9a7a	0.03107952
251	0xbcf44799	-0.029819297
252	0xbc94df43	-0.018172866
253	0xbb17ad00	-0.0023143888
254	0xbc7f2868	-0.015573598
255	0xbc84ad4c	-0.016195916

critic.ff_layer2.weight f4 [283, 32]
0	0xbdd368d4	-0.10322729
1	0x3ec934d1	0.39298108
2	0xbca994ef	-0.0207009
3	0xbe6bed59	-0.2303976
4	0x3e571f86	0.21008119
5	0xbe0463a8	-0.12928641
6	0x3e5396eb	0.2066304
7	0xbd542ffa	-0.051803567
8	0xbe474a61	-0.19461967
9	0x3c5be3c1	0.013421
10	0xbdc670bd	-0.09689472
11	0x3dfed27e	0.12442492
12	0xbe49d52f	-0.1971023
13	0xbe3fbac0	-0.18723583
14	0xbca9c18b	-0.020722171
15	0x3efa4a33	0.48884735
16	0xbe03e20e	-0.12879202
17	0xbe1dffdb	-0.15429632
18	0x3e574662	0.21022943
19	0x3e933823	0.28753766
20	0x3eef1ecd	0.46703187
21	0xbe0a92fc	-0.13532633
22	0xbd818ecf	-0.06326067
23	0xbe2bb833	-0.16769485
24	0x3edc7735	0.43059698
25	0x3e62c421	0.2214513
26	0x3d9fb5b5	0.0779833
27	0xbe5f4939	-0.21805276
28	0x3e225a79	0.15854825
29	0x3d8eeb73	0.06978502
30	0x3e337381	0.1752453
31	0x3ebe0b01	0.3711777
32	0xbdc70e69	-0.097195454
33	0xbdbbbf72	-0.09167375
34	0x3e14f03e	0.1454477
35	0x3d4cdac4	0.05001332
36	0xbcbf2b41	-0.023336055
37	0xbd6eead0	-0.058329403
38	0xbe0ecf91	-0.13946368
39	0xbe4b6f40	-0.19866657
40	0xbde54821	-0.11195398
41	0xbdfaf13d	-0.12253044
42	0xbc409db1	-0.011756347
43	0xbe360c50	-0.17778134
44	0x3d96f832	0.07371558
45	0xbe155c9e	-0.14586112
46	0xbddeec2e	-0.108848915
47	0xbd9f9e5c	-0.077938765
48	0xbda90d73	-0.08254518
49	0x3d846054	0.06463686
50	0x3d4644a0	0.04840529
51	0x3e024476	0.12721428
52	0xbd3227ea	-0.043495096
53	0x3d029363	0.03187884
54	0xbce0ae4f	-0.027426867
55	0x3da5e41e	0.081001505
56	0x3d623b9b	0.055232625
57	0x3d64ea90	0.05588776
58	0x3e2201f6	0.1582106
59	0x3d8bc96d	0.06825528
60	0xbd408478	-0.047001332
61	0x3dd26b6a	0.10274394
62	0xbdc812b1	-0.0976919
63	0xbd89a8f7	-0.067216806
64	0xbd8a889d	-0.06764338
65	0xbc8d9e07	-0.017287267
66	0x3d29eca7	0.041485455
67	0xbe2688c4	-0.1626311
68	0xbdfa786a	-0.122299984
69	0xbcdadc67	-0.026716424
70	0x3cc628f1	0.024189444
71	0x3e027892	0.12741306
72	0xbdff2f92	-0.12460245
73	0x3d238d99	0.03992996
74	0x3d76c888	0.060249835
75	0xbe002290	-0.12513185
76	0x3cf7b57e	0.03023791
77	0xbd298bec	-0.041393206
78	0x3d050cf3	0.032483052
79	0xbcf43c6f	-0.029813973
80	0xbda83dd0	-0.08214915
81	0xbd98243f	-0.074287884
82	0x3e1d276f	0.15347074
83	0x3c707e6b	0.014678578
84	0xbda3c7f8	-0.079971254
85	0x3d1c7338	0.03819582
86	0x3e0dd1cb	0.13849561
87	0xbdb07d35	-0.08617631
88	0xbd7340f1	-0.059388105
89	0xbd607990	-0.05480343
90	0xbdd85a51	-0.105641015
91	0xbd04ee86	-0.032454036
92	0xbae46271	-0.0017424357
93	0xbd9b9cac	-0.07598242
94	0xbd9799d7	-0.074023895
95	0xbdc39395	-0.095496334
96	0xbe081946	-0.13290891
97	0xbcec6a0c	-0.02885916
98	0x3db88eae	0.09011589
99	0x3da64922	0.08119418
100	0x3e1e18ae	0.15439102
101	0x3d7f9db9	0.062406275
102	0xbdd288a5	-0.10279969
103	0xbd37d880	-0.044884205
104	0xbdec219d	-0.11529849
105	0x3d5a7f20	0.053343892
106	0x3b9b7b8d	0.004744953
107	0x3d68006b	0.056641024
108	0xbdf721a1	-0.12066961
109	0x3daeeb6d	0.08540998
110	0xbe0af3db	-0.13569586
111	0xbd52ddfc	-0.051481232
112	0xbe23bc76	-0.15989861
113	0x3d9d957e	0.07694529
114	0xbddebb2f	-0.10875546
115	0xbe24763d	-0.1606073
116	0xbcef5551	-0.029215487
117	0x3ddc96ad	0.107709266
118	0xbd0d8d5d	-0.034558643
119	0x3d48b746	0.04900291
120	0xbc1a2170	-0.009407386
121	0xbe23d001	-0.15997316
122	0x3d5f010d	0.05444436
123	0x3caeaf84	0.021323927
124	0xbdfa1df4	-0.12212744
125	0x3d79c7ba	0.06098149
126	0x3e0e51f0	0.13898444
127	0x3dc7f2c6	0.09763102
128	0xbe080863	-0.1328445
129	0x3cbb87b7	0.022891862
130	0x3e13bf2c	0.14428395
131	0x3ce0e1bb	0.027451387
132	0xbd73bae1	-0.059504393
133	0x3d8e3492	0.06943621
134	0xbe2929a7	-0.16519795
135	0xbdbc66d4	-0.091993004
136	0x3b3221cf	0.0027180796
137	0x3deb3c94	0.11486164
138	0xbd86298b	-0.065508924
139	0x3e03572f	0.12826227
140	0x3d06c129	0.032899056
141	0x3c9bbb1d	0.019010121
142	0x3da83335	0.08212892
143	0xbb5d8ba2	-0.0033805151
144	0x3d938a22	0.07204081
145	0x3d9ae307	0.07562833
146	0xbd801d22	-0.06255557
147	0x3dc265c0	0.094920635
148	0xbd0fb42b	-0.03508393
149	0xbdbf09fa	-0.09328075
150	0x3d380c82	0.044933803
151	0x3cff6b05	0.03117896
152	0xbe01db3a	-0.12681285
153	0x3dbb3ad5	0.09142081
154	0x3da78840	0.081802845
155	0x3d1d2ce0	0.038372874
156	0xbc262065	-0.010139559
157	0x3d2e8e2b	0.04261605
158	0x3d46a9a2	0.04850162
159	0xbd4c86c1	-0.0499332
160	0x3d28074b	0.04102258
161	0xbdca1741	-0.098677166
162	0xbc5f4cc3	-0.013629141
163	0xbc52fc57	-0.012877545
164	0x3dbf944b	0.093544565
165	0x3d352d7e	0.044232838
166	0x3e0ed293	0.13947515
167	0xbdc63736	-0.096784994
168	0xbd5db7e1	-0.05413044
169	0xbc34ab69	-0.0110271955
170	0x3e06d4fd	0.13167186
171	0x3e16b2be	0.14716622
172	0x3d35e95d	0.044412006
173	0xbde99226	-0.11404829
174	0xbdc90f9d	-0.09817431
175	0xbc72a4cd	-0.014809799
176	0xbe390968	-0.18069994
177	0xbd9be812	-0.07612623
178	0xbd827f1b	-0.063719
179	0x3d85bee4	0.0653055
180	0xbd94cf4e	-0.07266103
181	0xbe057fa2	-0.1303697
182	0x3d9d529b	0.07681771
183	0xbe04e416	-0.12977633
184	0xbca229cf	-0.019795327
185	0x3e0b3005	0.13592537
186	0x3d217976	0.039422475
187	0xbe0c9c4f	-0.13731502
188	0x3a974baf	0.0011542941
189	0xbd4ac4cd	-0.04950409
190	0x3d80aa27	0.06282454
191	0x3dd72d26	0.10506658
192	0x3df23c7c	0.11827943
193	0xbce39baf	-0.027784197
194	0x3db1488a	0.08656414
195	0xbe0cb5ad	-0.13741179
196	0x3df63152	0.12021126
197	0x3d9025bd	0.07038448
198	0xbe12c67a	-0.14333525
199	0xbd52ae81	-0.05143595
200	0xbd72e6eb	-0.05930225
201	0xbd97b4b0	-0.0740751
202	0xbbd9086a	-0.0066233175
203	0xbd5c58d3	-0.053795647
204	0x3d5b75b0	0.053579032
205	0xbd823d3c	-0.06359336
206	0x3e0c1c5d	0.13682695
207	0xbce9f290	-0.028558046
208	0xbd82949c	-0.06376001
209	0xbd01e661	-0.031713847
210	0x3d48b66d	0.0490021
211	0xbda3d7ee	-0.0800017
212	0xbd4ee496	-0.050510965
213	0xbe0ea514	-0.1393016
214	0x3dd18b1c	0.10231611
215	0x3c1b7f39	0.009490781
216	0xbd326c61	-0.04356039
217	0x3da066a2	0.07832076
218	0x3c268961	0.01016459
219	0xbda26beb	-0.0793074
220	0xbd07b8b4	-0.03313513
221	0xbbeeaa16	-0.0072834594
222	0x3df4ef5f	0.11959719
223	0xbdd82367	-0.105536275
224	0xbe1da3ec	-0.15394562
225	0xbe1fe4ff	-0.15614699
226	0xbe0c0897	-0.13675152
227	0xbd6f12ef	-0.058367666
228	0x3d9f0d05	0.07766155
229	0x3cf1f9c6	0.029538047
230	0x3d1c6850	0.038185418
231	0x3c944ce0	0.018103063
232	0xbbf7a67e	-0.007557689
233	0xbe0c4c3c	-0.13700956
234	0x3df5d300	0.12003136
235	0x3e0b7bbd	0.13621421
236	0xbbfc6d98	-0.0077034943
237	0x3c3a10d7	0.011356554
238	0xbbd9bd12	-0.0066448534
239	0xbc93b941	-0.018032672
240	0xbc66d980	-0.014089942
241	0x3b37ac9e	0.0028026472
242	0xbddff394	-0.10935131
243	0x3b864a3b	0.0040982044
244	0xbccae084	-0.02476526
245	0xbe061954	-0.130956
246	0x3d1f5dd2	0.038907833
247	0x3d2f2f52	0.042769738
248	0xbcf69fc9	-0.030105488
249	0x3d77e5c9	0.060521875
250	0xbda266d1	-0.07929767
251	0x3c9a4029	0.018829422
252	0xbe104012	-0.14086941
253	0x3d504252	0.050844498
254	0xbe144a09	-0.14481367
255	0xbdfeed3a	-0.12447591

actor.customer_encoder.0.attention.query_embed.weight f4 [32, 32]
0	0x3ebb2677	0.36552784
1	0x3d1879f2	0.03722567
2	0x3e2b69b7	0.16739546
3	0x3eb4c4ea	0.35306484
4	0xbebae06d	-0.36499348
5	0xbda8f2fe	-0.08249472
6	0xbe2e110a	-0.16998687
7	0xbe653043	-0.22381692
8	0x3e56bcc7	0.2097045
9	0x3e38d257	0.18048988
10	0x3e9bed38	0.3045442
11	0x3ecfcc6d	0.40585652
12	0xbe748d19	-0.2388195
13	0x3d91e9bd	0.0712466
14	0x3e10400c	0.14086932
15	0xbda356d0	-0.079755425
16	0x3e655803	0.22396855
17	0x3ea8cf15	0.3297049
18	0xbed0bb88	-0.40768075
19	0xbdfb8e6d	-0.12283025
20	0x3e0f8440	0.14015293
21	0xbe973f17	-0.2954032
22	0xbe033ede	-0.1281695
23	0x3e2a3ea8	0.16625464
24	0x3df93747	0.121687464
25	0xbe4bc3ca	-0.19898906
26	0xbce782f3	-0.028260684
27	0x3d8997c6	0.067184016
28	0x3ed06ff2	0.40710407
29	0xbe819dcc	-0.25315702
30	0x3d21a53c	0.03946422
31	0xbdfd423f	-0.12366151
32	0x3ec40dce	0.38291782
33	0x3e8f4866	0.27984923
34	0xbca9f5ec	-0.020747148
35	0xbe12c29a	-0.14332047
36	0x3ea498ea	0.32147914
37	0xbcaa52c4	-0.020791419
38	0xbdc418f2	-0.095750704
39	0x3e8e3505	0.27774826
40	0x3db6dce5	0.08928851
41	0x3c9b40a6	0.018951725
42	0x3ead1f3e	0.33812898
43	0xbe1233f3	-0.1427763
44	0x3e829e2b	0.25511298
45	0x3e55f6a8	0.20894873
46	0xbe570f81	-0.21002008
47	0x3ea639d9	0.3246601
48	0x3e00efb0	0.12591434
49	0xbe7f9227	-0.24958096
50	0x3e79cccc	0.2439453
51	0xbea11af9	-0.3146589
52	0x3b936818	0.004498493
53	0x3e1036f7	0.14083467
54	0x3e1fbc50	0.1559918
55	0xbeaa31cd	-0.3324112
56	0x3ea964b7	0.33084652
57	0x3e9c6065	0.30542293
58	0x3e67bffd	0.22631831
59	0x3e1d064b	0.15334432
60	0xbe43865b	-0.19094221
61	0x3e824e18	0.25450206
62	0x3d7cc250	0.06170875
63	0xbd9b10bc	-0.07571551
64	0xbe1f1fd6	-0.15539488
65	0x3d99f861	0.07518078
66	0xbdfc6daf	-0.12325608
67	0xbea2f15d	-0.3182477
68	0xbe3bbc94	-0.18333656
69	0xbe201a8a	-0.15635124
70	0xbd290586	-0.041265033
71	0xbe49d09f	-0.19708489
72	0xbdb66e24	-0.089077264
73	0xbe5e8eb5	-0.21734126
74	0xbe8c0f5c	-0.27355468
75	0x3e252ded	0.161308
76	0xbd51d6d1	-0.051230256
77	0xbe29d8a8	-0.16586554
78	0xbd66f4cb	-0.056385797
79	0x3ccb3e1e	0.024809893
80	0xbe886c3d	-0.2664508
81	0x3e489bc8	0.19590676
82	0x3e3fff1b	0.18749659
83	0x3e50a8d2	0.203769
84	0xbe55aaed	-0.20865984
85	0x3eb566d0	0.35430002
86	0x3e73e397	0.23817287
87	0x3e1ac4f9	0.15114202
88	0x3e2d9278	0.16950405
89	0xbe445c7f	-0.1917591
90	0x3d99f6b3	0.07517757
91	0x3e8a1f60	0.26977062
92	0x3dc5db12	0.09660925
93	0x3abbdd04	0.0014332836
94	0xbebe473c	-0.37163723
95	0xbdc02117	-0.093813114
96	0xbe55ef34	-0.2089203
97	0x3e8f3e27	0.27977106
98	0xbcfa71ef	-0.030571906
99	0xbd90f885	-0.07078651
100	0xbec2c3fe	-0.38040155
101	0xbe911de2	-0.2834311
102	0xbe193ee8	-0.14965403
103	0x3e2447b0	0.16042972
104	0xbd827ce2	-0.06371476
105	0x3e1e32f8	0.1544913
106	0x3eb56f6f	0.3543658
107	0xbe3e6bde	-0.18595836
108	0x3d94254e	0.07233678
109	0x3d794d6d	0.060864855
110	0xbe8d0efd	-0.27550498
111	0xbd077e26	-0.03307929
112	0x3da5c259	0.080937095
113	0xbe213d43	-0.15746026
114	0xbe8ccaca	-0.27498466
115	0x3e8bd4be	0.27310747
116	0x3de2ee62	0.11080624
117	0xbeadc76d	-0.33941212
118	0xbebba43c	-0.36648738
119	0x3d3375f9	0.04381368
120	0xbe2d82c5	-0.16944416
121	0x3d9b020f	0.07568752
122	0x3e38e4a9	0.18055977
123	0x3da3ab1e	0.079916224
124	0x3e7a8cf0	0.24467826
125	0x3e0f78f9	0.14010991
126	0xbcacef4a	-0.021110196
127	0x3d7488f0	0.059700906
128	0xbdfa9ecf	-0.122373216
129	0xbe486e56	-0.1957334
130	0xbec02201	-0.37525943
131	0x3e0cddd9	0.13756503
132	0x3e9b0dac	0.30283868
133	0xbdf63361	-0.120215185
134	0x3e625826	0.22103938
135	0x3e91cd94	0.28477156
136	0x3d81687a	0.063187554
137	0x3e300e78	0.1719302
138	0x3b16327f	0.0022918282
139	0x3e308dcd	0.17241593
140	0x3e48214e	0.19543955
141	0x3e553e4f	0.2082455
142	0x3e9d718f	0.307507
143	0xbe09bd1e	-0.13451049
144	0x3ddaa396	0.10675733
145	0x3e083661	0.13301994
146	0xbe69d7f0	-0.2283628
147	0xbe8f0dbb	-0.27940163
148	0xbd260d32	-0.040539928
149	0x3e348269	0.17627873
150	0x3e99ab99	0.3001373
151	0xbdf2101e	-0.1181948
152	0xbe273b38	-0.16331184
153	0xbe9f8a7a	-0.31160337
154	0x3e45d517	0.19319569
155	0xbe4ff8fc	-0.20309824
156	0x3dacf76f	0.08445632
157	0x3e0cbf83	0.13744931
158	0xbd83e8a4	-0.06440857
159	0x3eac14b9	0.3360956
160	0x3e880cfa	0.265724
161	0xbd0c23ad	-0.03421371
162	0xbaad03d5	-0.0013199995
163	0x3e6aa297	0.22913586
164	0xbe59de15	-0.21276124
165	0xbe954217	-0.29151985
166	0x3e6a2999	0.22867431
167	0xbe462913	-0.19351606
168	0x3cced8bc	0.025249831
169	0x3cc61ab5	0.024182657
170	0x3e84aaed	0.25911656
171	0x3d7dd610	0.061971724
172	0x3d03cf0c	0.032179877
173	0x3da45591	0.08024133
174	0xbe1cb25e	-0.15302417
175	0xbeb5edc9	-0.35532978
176	0x3e96b9df	0.29438683
177	0xbe896185	-0.26832214
178	0xbe8d4002	-0.27587897
179	0xbdb666b9	-0.089063115
180	0x3e6170ed	0.22015734
181	0xbe181ae4	-0.14854008
182	0x3e86775f	0.26262948
183	0x3e0250da	0.12726155
184	0x3e75fc3e	0.24022004
185	0xbe06c956	-0.13162741
186	0x3e29a337	0.16566168
187	0x3daea9bc	0.08528468
188	0x3ea4778a	0.3212245
189	0xbe28de89	-0.1649114
190	0x3ea3bbf3	0.3197933
191	0xbe67ffa0	-0.22656107
192	0xbe580c80	-0.21098518
193	0x3eae9524	0.3409816
194	0x3e52daa2	0.20591214
195	0x3e631180	0.22174644
196	0xbe501fc9	-0.20324625
197	0x3ea13916	0.31488866
198	0xbdc496bd	-0.095990635
199	0x3e98132c	0.29702127
200	0x3e5cf3aa	0.21577325
201	0xbea57685	-0.32316986
202	0xbd93c9b2	-0.07216205
203	0x3ec80f82	0.39074332
204	0x3e487e70	0.19579482
205	0x3d91be42	0.07116367
206	0xbc83441e	-0.016023692
207	0x3e1107d3	0.14163141
208	0xbdd4a6a3	-0.10383346
209	0xbdd3d140	-0.10342646
210	0xbe828dd4	-0.2549883
211	0xbd3da9a2	-0.046304353
212	0xbe7a92c7	-0.24470054
213	0xbe56969b	-0.20955889
214	0x3e608051	0.21923949
215	0x3e58ffc0	0.21191311
216	0xbe2242d4	-0.15845805
217	0xbd957ecc	-0.07299575
218	0xbe1994a9	-0.14998116
219	0x3e4982b9	0.19678773
220	0xbe42b6a8	-0.1901499
221	0xbe47f67a	-0.19527617
222	0x3e3015fb	0.17195885
223	0x3c5eef2d	0.013606829
224	0x3e0790c2	0.13238814
225	0xbcec8721	-0.028873028
226	0x3ebd8781	0.37017444
227	0xbd404534	-0.046940997
228	0x3e914b2a	0.28377658
229	0x3d4d4dfa	0.050123192
230	0x3eaad11b	0.3336266
231	0xbe604aed	-0.21903582
232	0x3e4bcdc4	0.19902712
233	0xbdf50d7a	-0.11965461
234	0x3e518fe6	0.20465049
235	0xbe843d70	-0.25828123
236	0x3e4622f0	0.19349265
237	0xbd9edfe3	-0.07757547
238	0xbe0fbe69	-0.1403748
239	0xbe076f21	-0.13225986
240	0x3e814ee5	0.25255504
241	0xbd55d246	-0.052202486
242	0xbdbbbb3d	-0.09166572
243	0x3e9b5b2e	0.30343002
244	0x3e6ba291	0.23011233
245	0x3c7f1a80	0.015570283
246	0xbe07669c	-0.13222736
247	0x3dbff673	0.09373178
248	0xbd9c231d	-0.07623885
249	0x3e9d097a	0.30671293
250	0x3e0ea6d0	0.13930821
251	0x3e85e7c8	0.26153398
252	0x3e5fa9cb	0.21842115
253	0xbdb7c956	-0.08973949
254	0xbe8714de	-0.26383108
255	0xbe03731a	-0.12836877

actor.customer_encoder.0.attention.key_embed.weight f4 [32, 32]
0	0xbe0ec21a	-0.13941231
1	0x3cd6e3d7	0.02623169
2	0x3d8d7472	0.06906976
3	0x3ec9f136	0.39441842
4	0x3ead8c2d	0.33896008
5	0xbea734a9	-0.32657364
6	0x3e108ec6	0.14116964
7	0xbe721afb	-0.23643105
8	0xbe302a81	-0.17203714
9	0x3e27faba	0.16404238
10	0xbe8bf115	-0.27332368
11	0x3ea81f86	0.3283655
12	0x3dbd46d6	0.092420265
13	0x3d8ab23d	0.067722775
14	0x3e771d52	0.24132279
15	0xbea7ff1e	-0.32811826
16	0x3d93fb00	0.07225609
17	0x3dbe4f47	0.09292465
18	0xbe487d82	-0.19579127
19	0xbe155815	-0.14584382
20	0x3dcfbe65	0.10143737
21	0x3ea9c74b	0.3315986
22	0xbe06cdd6	-0.13164458
23	0x3e5fcac2	0.2185469
24	0x3e2d0af3	0.16898708
25	0xbe4ba558	-0.19887292
26	0xbe84b7ab	-0.25921378
27	0xbd166a64	-0.036722556
28	0x3e8181d4	0.25294363
29	0xbe80be66	-0.25145262
30	0xbe77cd60	-0.24199438
31	0x3e8f1277	0.27943775
32	0xbe507dd8	-0.20360506
33	0xbe76e970	-0.24112487
34	0xbc69536a	-0.014241079
35	0x3ea6497c	0.3247794
36	0x3e6e784b	0.23288076
37	0x3e43f9ad	0.19138213
38	0x3d5e2686	0.054235958
39	0xbe493c81	-0.19651987
40	0xbe925c6f	-0.28586146
41	0x3e3b7e0f	0.18309806
42	0x3de59183	0.11209395
43	0x3db7acb3	0.08968487
44	0xbde7d49d	-0.1131985
45	0xbeb768bc	-0.35822093
46	0x3cd5fe44	0.02612222
47	0xbd54c32a	-0.051943935
48	0xbcbfc6d7	-0.023410244
49	0x3d387f3a	0.045043208
50	0xbe48d5bf	-0.19612788
51	0xbe58bd8f	-0.21166061
52	0xbdaf4d00	-0.085596085
53	0x3e0501a3	0.12988906
54	0xbe65470c	-0.22390383
55	0x3eab5137	0.334604
56	0xbeafadb0	-0.343122
57	0xbe598beb	-0.2124478
58	0x3dd120a1	0.102113016
59	0xbeaf8137	-0.3427827
60	0xbe51c119	-0.20483817
61	0x3e2787e9	0.1636044
62	0xbe7956ff	-0.24349593
63	0x3de5fe22	0.112301126
64	0xbe38cced	-0.18046923
65	0xbe1a195d	-0.15048738
66	0x3d5f414a	0.054505624
67	0x3ce34537	0.027742965
68	0x3ea7adee	0.32749885
69	0x3d9716a5	0.07377366
70	0x3d866aa5	0.065633096
71	0xbe4d12b9	-0.20026673
72	0x3e9169d6	0.2840106
73	0xbc6e793c	-0.014555272
74	0x3e53fd09	0.20701994
75	0xbe8fe696	-0.2810561
76	0x3e431924	0.19052559
77	0x3e8fc7f5	0.28082243
78	0x3e5a3f1c	0.21313137
79	0x3e90829c	0.28224647
80	0xbe1ef586	-0.15523347
81	0xbe791167	-0.24323045
82	0x3e0dc622	0.13845113
83	0x3e275cb5	0.16343959
84	0xbe538abe	-0.20658395
85	0xbde74ea6	-0.11294298
86	0xbb2ecc0e	-0.002667192
87	0xbc094a14	-0.008379478
88	0x3e3064b7	0.1722592
89	0x3e844771	0.25835755
90	0x3dcf503e	0.10122727
91	0xbe141319	-0.1446041
92	0xbe692c92	-0.22770908
93	0x3e99fe2a	0.30076724
94	0x3cf474e0	0.029840887
95	0xbe345559	-0.17610683
96	0xbe82b9ff	-0.2553253
97	0xbe8491f9	-0.25892618
98	0x3ea8254c	0.32840955
99	0xbe40fbe5	-0.1884609
100	0xbeb010dd	-0.34387866
101	0xbe90e228	-0.28297544
102	0xbe3e9a60	-0.18613577
103	0x3ca7494b	0.020420691
104	0xbe6cdb61	-0.23130561
105	0x3e2615bb	0.16219227
106	0xbd97459c	-0.07386324
107	0xbe0bf528	-0.13667738
108	0xbe7b11b8	-0.24518478
109	0xbdb0093e	-0.08595513
110	0x3ec2378f	0.37933013
111	0xba3b7c9a	-0.0007152051
112	0x3dc5389c	0.09629938
113	0xbeb9dfa8	-0.3630345
114	0x3e45ea62	0.19327691
115	0x3d198ab2	0.037485786
116	0xbd90429b	-0.07043954
117	0x3cb0ac3c	0.021566503
118	0xbe25a35d	-0.161756
119	0xbe8f8a5c	-0.28035247
120	0xbe404004	-0.1877442
121	0x3dd1c462	0.10242535
122	0x3e9b327a	0.30311948
123	0xbe7e0a51	-0.24808623
124	0x3e39ceb9	0.18145265
125	0xbe10b0c8	-0.14129937
126	0x3e8d48cc	0.27594602
127	0x3d46a039	0.048492644
128	0xbea0bf43	-0.3139592
129	0xbe8f2bcd	-0.27963105
130	0x3db368cd	0.087602235
131	0x3e3661ee	0.17810795
132	0x3dd626df	0.10456633
133	0x3dd6c2df	0.104863875
134	0xbd3e48e2	-0.046456225
135	0xbe541521	-0.20711185
136	0x3d0feaea	0.03513614
137	0xbe943158	-0.28943896
138	0x3e37e9fe	0.17960355
139	0xbe0590ce	-0.1304352
140	0xbe9a8fb0	-0.3018775
141	0x3ce45913	0.027874505
142	0x3dd0bf9e	0.10192798
143	0xbe8b2653	-0.27177677
144	0xbe5e1cb5	-0.21690638
145	0xbd3ff454	-0.04686387
146	0xbe09425b	-0.13404219
147	0x3e98bf31	0.29833367
148	0x3d91f832	0.071274176
149	0xbdee16e6	-0.11625461
150	0xbe9041ca	-0.28175193
151	0xbe7bbe2c	-0.24584264
152	0x3e02f6ca	0.12789455
153	0xbd93e313	-0.07221045
154	0x3d4e0b01	0.050303463
155	0x3d8b14b2	0.06791057
156	0x3e75001b	0.23925821
157	0xbc50afa2	-0.012737187
158	0x3e1d9ce3	0.15391879
159	0xbea7539c	-0.32680976
160	0x3e821458	0.25406146
161	0xbea5488b	-0.32281908
162	0xbdf0149f	-0.11722683
163	0xbea65f01	-0.32494357
164	0x3e46be7b	0.194086
165	0xbdeaa790	-0.11457741
166	0xbeb979d3	-0.36225757
167	0xbe29fe42	-0.16600898
168	0x3e4c77fe	0.19967648
169	0x3e8359fa	0.25654584
170	0x3e68f432	0.22749403
171	0xbeac01f4	-0.3359524
172	0xbe237d11	-0.15965678
173	0x3d84bf54	0.064818054
174	0xbaf0f945	-0.0018384835
175	0xbe48cb54	-0.19608814
176	0x3eb28a97	0.3487136
177	0xbe752d2b	-0.23943011
178	0x3e6e136f	0.23249601
179	0x3e5d7f1f	0.21630524
180	0xbea1333f	-0.3148441
181	0xbe5c73ca	-0.21528545
182	0xbe632917	-0.22183643
183	0x3e88c305	0.26711288
184	0xbea5ff56	-0.32421368
185	0x3b7f2e0a	0.0038937354
186	0xbddde932	-0.10835494
187	0xbdc874af	-0.09787881
188	0xbe53d536	-0.20686802
189	0xbe8e8b1f	-0.27840516
190	0xbea031a4	-0.31287873
191	0xbcbb59cd	-0.022869969
192	0x3c83fdcc	0.01611223
193	0x3d8e30d8	0.0694291
194	0x3dc883eb	0.09790786
195	0xbe055532	-0.1302078
196	0x3e51deee	0.20495197
197	0x3e4772ca	0.19477382
198	0xbe92bbf3	-0.2865902
199	0x3eaac7a7	0.33355448
200	0xbcc9b530	-0.02462253
201	0xbb94c666	-0.0045402525
202	0xbeb22449	-0.34793308
203	0x3e39e655	0.18154271
204	0x3e080382	0.13282588
205	0x3dbfb3f0	0.09360492
206	0x3e390116	0.1806682
207	0xbea4857f	-0.321331
208	0x3eb3253c	0.34989345
209	0x3e63c6c8	0.22243798
210	0xbdd2fd08	-0.10302168
211	0x3e39262d	0.18080969
212	0xbe0b17cf	-0.13583301
213	0xbdcf6b0e	-0.10127841
214	0xbb91b8ea	-0.0044470923
215	0x3e6290ad	0.22125502
216	0x3e3de4ac	0.18544263
217	0xbe047459	-0.12935008
218	0xbe97fd5b	-0.29685482
219	0xbc5dac55	-0.013529857
220	0xbe1b8b5e	-0.15189883
221	0xbbd6dcc0	-0.006557077
222	0x3e2f19fe	0.17099759
223	0x3e77f03e	0.24212739
224	0x3c8dfb1f	0.017331658
225	0x3e2a8e63	0.16655879
226	0x3d85cb29	0.0653289
227	0xbe4073d7	-0.1879419
228	0x3e551b53	0.20811205
229	0xbe6eff85	-0.2333966
230	0xbc11695d	-0.008875218
231	0xbe35c419	-0.17750587
232	0x3bc1f483	0.0059190406
233	0x3e8fea29	0.28108338
234	0x3df9f405	0.12204746
235	0xbce30219	-0.027710961
236	0xbe9efcdb	-0.31052288
237	0xbe88b3d2	-0.26699692
238	0xbdc47c29	-0.09593994
239	0xbe2c9427	-0.1685339
240	0x3d8df5bf	0.06931638
241	0xbea72820	-0.326478
242	0x3eaedc80	0.34152603
243	0xbdb38944	-0.08766416
244	0x3e6b1abb	0.22959416
245	0x3e76a809	0.24087538
246	0x3e91a688	0.28447366
247	0xbd4462dc	-0.047945842
248	0x3ccb57ff	0.024822233
249	0x3e3d2ec8	0.18474877
250	0xbe89b041	-0.26892284
251	0xbcc43c21	-0.023954453
252	0x3e09ee11	0.13469721
253	0xbd06c815	-0.032905657
254	0xbe829b1a	-0.25508958
255	0x3d4e85d4	0.050420597

actor.customer_encoder.0.attention.value_embed.weight f4 [32, 32]
0	0x3d7d70c2	0.061875112
1	0x3ea91f91	0.33031896
2	0x3de62b02	0.11238672
3	0x3e055d34	0.13023835
4	0xbeaae6a3	-0.33379087
5	0x3e118846	0.1421214
6	0x3e420994	0.18948966
7	0xbdde0401	-0.108406074
8	0xbe618b69	-0.22025837
9	0xbd2fcb0f	-0.04291826
10	0xbe9bb0be	-0.3040828
11	0x3ea68cf2	0.32529408
12	0xbe5b7c2f	-0.21434091
13	0x3ea2ec31	0.31820825
14	0xbeb39560	-0.35074902
15	0x3e66c988	0.22537816
16	0xbe17544b	-0.14778249
17	0xbe8b683d	-0.27227965
18	0x3dcba2f0	0.09943187
19	0x3ea6a9a7	0.3255131
20	0xbe2c9627	-0.16854154
21	0x3d4b49b0	0.04963082
22	0xbe6d1951	-0.23154189
23	0x3e6be740	0.23037434
24	0x3ea2f533	0.31827697
25	0xbdc5625c	-0.09637901
26	0x3ead6d2a	0.33872348
27	0x3e3b5e01	0.18297578
28	0x3d4370cc	0.047714993
29	0xbe1bc289	-0.15210928
30	0x3e79a31e	0.2437863
31	0x3c94fc47	0.018186701
32	0xbe191d0d	-0.14952488
33	0xbeb213df	-0.34780785
34	0xbeaf730c	-0.3426746
35	0x3eb4796e	0.35248893
36	0xbe3f53f3	-0.18684368
37	0xbe870cee	-0.26377052
38	0x3e658d58	0.224172
39	0xbdcf21c8	-0.10113865
40	0xbe86face	-0.26363224
41	0x3d922dae	0.07137619
42	0xbd560c93	-0.052258085
43	0x3e0badbd	0.13640495
44	0x3ea831c4	0.32850468
45	0xbdb647f1	-0.089004405
46	0x3e4e3054	0.20135623
47	0xbdca4f32	-0.098783866
48	0xbdeed8ce	-0.11662446
49	0x3df17c88	0.117913306
50	0xbda1d760	-0.07902408
51	0x3dc2850b	0.09498032
52	0x3da13ea4	0.07873276
53	0xbe90f7c1	-0.2831402
54	0xbda9b5e1	-0.08286644
55	0x3ea35633	0.31901702
56	0xbb0e443e	-0.0021708156
57	0x3eab9c32	0.33517605
58	0x3e88cd43	0.26719102
59	0xbdcb336a	-0.09921916
60	0xbe23bdcf	-0.15990375
61	0x3deedad1	0.1166283
62	0xbd6f2323	-0.05838312
63	0xbd3af097	-0.0456396
64	0xbcc5fe63	-0.024169153
65	0xbe69d0c1	-0.2283354
66	0x3e63e652	0.22255829
67	0xbe0d7887	-0.13815509
68	0xbe936dd0	-0.28794718
69	0xbe8d64b9	-0.27615908
70	0xbe66f661	-0.22554924
71	0x3d85895d	0.065203406
72	0xbeae4cef	-0.3404307
73	0x3e05bd15	0.1306041
74	0xbe5f067f	-0.21779822
75	0xbc2c58d0	-0.010519221
76	0xbdaf6389	-0.08563907
77	0xbdd8ed95	-0.1059219
78	0x3e699db8	0.22814071
79	0xbdf70643	-0.12061741
80	0x3df6c6dd	0.12049649
81	0x3e766ad1	0.24064185
82	0x3e32da47	0.17466079
83	0x3e1a090f	0.15042518
84	0xbd07c214	-0.03314407
85	0xbe3bd4f6	-0.18342957
86	0xbe85a72e	-0.2610411
87	0x3eabf1bd	0.3358287
88	0xbea43c96	-0.32077473
89	0xbdb0d52d	-0.0863441
90	0x3e995800	0.2994995
91	0xbd89a7e7	-0.06721478
92	0xbe98048b	-0.29690966
93	0x3eb23131	0.34803155
94	0xbdba72db	-0.09103938
95	0x3e173a92	0.14768437
96	0x3e24b061	0.16082908
97	0xbde69623	-0.11259105
98	0xbeaf68d4	-0.34259665
99	0xbd4e061f	-0.050298806
100	0xbe8fa9bd	-0.28059188
101	0xbe31e043	-0.17370705
102	0xbe98460d	-0.29740945
103	0x3e28d696	0.16488108
104	0xbe7ed9e1	-0.24887802
105	0x3e306d40	0.17229176
106	0x3e983ce1	0.29733947
107	0x3e3479e2	0.1762462
108	0x3e57136c	0.21003503
109	0x3d75f8be	0.060051672
110	0x3e724edd	0.23662896
111	0x3eaa32b4	0.33241808
112	0x3d9a6b28	0.0753997
113	0x3e19d7bf	0.15023707
114	0x3e642a0c	0.22281665
115	0xb92f5ccb	-0.00016723869
116	0x3e9b9bb9	0.30392244
117	0x3daf4db9	0.08559746
118	0xbe5cb9f6	-0.21555313
119	0xbe8976a3	-0.26848325
120	0x3db842ce	0.08997117
121	0xbe8f0ef6	-0.27941102
122	0xbea35977	-0.31904194
123	0x3ea834b4	0.3285271
124	0x3e88a221	0.26686195
125	0xbdc3c3a9	-0.095588036
126	0x3e347773	0.17623691
127	0x3df51174	0.119662195
128	0x3ea760d0	0.3269105
129	0x3ddcd710	0.107832074
130	0x3e278ceb	0.1636235
131	0xbe817443	-0.25284013
132	0x3def5437	0.116859846
133	0xbe8b7738	-0.27239394
134	0xbe8a489c	-0.27008522
135	0x3e474ec8	0.19463646
136	0xbe312d60	-0.17302465
137	0x3e8c3b4d	0.27388993
138	0xbdb6e24a	-0.0892988
139	0x3e3c2171	0.18372132
140	0x3ea8ae4c	0.32945478
141	0x3d3c2fb7	0.045943942
142	0x3ea46289	0.32106426
143	0xbe640dce	-0.22270891
144	0x3e400d36	0.1875504
145	0x3de391f9	0.111118264
146	0x3e89baff	0.2690048
147	0x3ea68487	0.32522985
148	0xbd967925	-0.07347325
149	0x3d9b79b7	0.07591575
150	0xbe36b6d1	-0.17843176
151	0x3e19a6ce	0.15005037
152	0xbab5dd53	-0.0013875164
153	0xbe26d45d	-0.16291948
154	0xbe480e71	-0.19536759
155	0x3db4900e	0.08816539
156	0x3ea12fd0	0.3148179
157	0xbea03bed	-0.3129572
158	0x3e69c275	0.22828086
159	0x3e7eb73e	0.24874589
160	0xbe9c83ae	-0.30569214
161	0x3e252ab5	0.16129573
162	0x3d001836	0.03127309
163	0x3e88cb60	0.26717663
164	0x3e990e5e	0.29893774
165	0x3e4b073e	0.19826981
166	0xbe0d8396	-0.13819727
167	0xbe9e31d0	-0.3089738
168	0x3e7cb977	0.24680124
169	0x3a495ee9	0.0007681684
170	0x3e1332fb	0.14374916
171	0x3de45b25	0.11150197
172	0x3d3ffdee	0.046873026
173	0x3e89008c	0.2675823
174	0xbdb53c31	-0.08849371
175	0x3e125ecb	0.14293973
176	0x3e280ceb	0.16411178
177	0xbe2465a8	-0.16054404
178	0x3e1b6a94	0.15177375
179	0x3ccdc12e	0.02511653
180	0xbeb3e747	-0.35137388
181	0x3e483e07	0.19554912
182	0xbe9ff932	-0.31244808
183	0x3e240195	0.16016228
184	0xbe26c231	-0.16285016
185	0xbe300b4c	-0.1719181
186	0x3e4affaa	0.1982409
187	0xbc71df0b	-0.01476265
188	0xbe843319	-0.25820234
189	0x3dfb0473	0.12256708
190	0xbe473dc4	-0.19457155
191	0xbea52bf9	-0.3226011
192	0x3e919f09	0.28441647
193	0xbe98b0c6	-0.29822367
194	0xbe1a43ef	-0.15064977
195	0xbe5a644b	-0.21327321
196	0x3e8a4d95	0.27012315
197	0xbd029567	-0.031880762
198	0xbe97331d	-0.29531184
199	0x3e5479e9	0.2074963
200	0x3e880042	0.26562697
201	0x3ddf0893	0.10890307
202	0xbd1ffe96	-0.03906115
203	0xbeae174e	-0.34002155
204	0xbd5e9501	-0.05434132
205	0x3e46a6b9	0.19399537
206	0xbe762424	-0.24037224
207	0xbeb25d7f	-0.34836957
208	0xbb23c67b	-0.002499013
209	0x3d67e827	0.056617882
210	0xbe0dd82d	-0.13851996
211	0xbe157e79	-0.14599027
212	0xbe8c65bb	-0.27421364
213	0xbd5b2de5	-0.053510565
214	0x3ea865cc	0.32890165
215	0x3e96c0d8	0.29444003
216	0x3d7144f0	0.058903635
217	0x3a9a65db	0.0011779623
218	0x3ea1b67a	0.3158453
219	0x3d580267	0.052736666
220	0xbd47d7e2	-0.048789866
221	0xbe808552	-0.25101715
222	0x3ea7351a	0.326577
223	0xbeacdbf6	-0.33761567
224	0xbdfd234f	-0.1236025
225	0x3d9e044c	0.07715663
226	0x3d30dc2e	0.04317873
227	0xbdec86a3	-0.115491174
228	0xbea89c8e	-0.32931942
229	0x3d107c01	0.03527451
230	0xbdae0e83	-0.08498862
231	0xbe7dc4fe	-0.24782178
232	0xbe609293	-0.21930914
233	0xbe30d340	-0.17268085
234	0xbea7789a	-0.327092
235	0x3e2fa9c5	0.17154606
236	0xbbabd1ee	-0.0052435314
237	0xbe9cb5b4	-0.30607378
238	0x3e37dea9	0.17956032
239	0x3e8a125b	0.2696713
240	0x3da16e26	0.07882337
241	0xbdf31489	-0.11869151
242	0xbde843bf	-0.113410465
243	0x3dea2291	0.11432374
244	0x3eaaf5fa	0.3339079
245	0x3d101b43	0.03518225
246	0xbe09e210	-0.13465142
247	0xbd4523a0	-0.048129678
248	0x3e0acbd4	0.13554317
249	0x3e9def10	0.30846453
250	0x3ead5f91	0.33861974
251	0x3eb47b39	0.3525026
252	0xbe783aa3	-0.24241118
253	0x3d708dee	0.058729105
254	0x3c9ad413	0.018899953
255	0x3d953933	0.072863005

actor.customer_encoder.0.attention.combine.weight f4 [32, 32]
0	0xbcd3569e	-0.025798138
1	0xbe00280c	-0.12515277
2	0x3d8a051a	0.06739254
3	0x3dea2b9b	0.11434098
4	0x3d00f9e0	0.0314883
5	0x3cb32013	0.02186588
6	0x3e2398b2	0.15976217
7	0xbd754656	-0.05988153
8	0xbcaef834	-0.021358587
9	0x3d59d110	0.053177893
10	0xbdd2634b	-0.10272845
11	0xbe13139a	-0.14362946
12	0xbd12fee7	-0.035887625
13	0x3ddcd250	0.107823014
14	0xbda79f4a	-0.08184679
15	0x3d6fcd29	0.058545265
16	0xbbcf60d7	-0.006328683
17	0x3e1e4af3	0.15458278
18	0x3dd1ff45	0.10253767
19	0xbdba472f	-0.090956084
20	0xbe3287bb	-0.1743459
21	0x3dbdd9c0	0.09270048
22	0xbe330d84	-0.17485625
23	0xbdeb1081	-0.11477757
24	0x3e1da3cf	0.1539452
25	0x3d27d7d5	0.040977318
26	0x3c7c8dd6	0.015414676
27	0xbe025325	-0.1272703
28	0xbd2a7954	-0.041619614
29	0x3c97081f	0.01843649
30	0x3dc9bef1	0.09850872
31	0xbda6e79d	-0.081496455
32	0xbcd1c7b8	-0.025607929
33	0x3d2a862d	0.041631866
34	0xbe324da4	-0.1741243
35	0xbd501eae	-0.05081051
36	0xbe2a50e4	-0.1663242
37	0xbd7fdeec	-0.062468454
38	0xbdcb6e71	-0.099331744
39	0x3dbc05a6	0.09180765
40	0xbde2fb0a	-0.11083038
41	0xbe2d869f	-0.16945885
42	0xbcc1e7dd	-0.023670131
43	0xbdacf719	-0.08445568
44	0xbdbff180	-0.09372234
45	0xbd567b21	-0.05236352
46	0x3d96111d	0.07327483
47	0xbe198d69	-0.1499535
48	0xbe04d1b3	-0.12970619
49	0x3ce14aa7	0.027501417
50	0x3dbd336f	0.09238326
51	0x3bc3bec3	0.0059736683
52	0x3e2b4e6e	0.16729137
53	0x3dadbbe4	0.08483103
54	0xbe06a2fd	-0.13148113
55	0x3dbb99de	0.09160207
56	0xbdaeae75	-0.08529369
57	0x3e00e5b3	0.12587623
58	0xbcfe722b	-0.031060299
59	0x3e12d84a	0.1434032
60	0xbccdb956	-0.02511279
61	0xbd3190e0	-0.043351054
62	0xbe0499f6	-0.12949356
63	0x3e2ef784	0.17086607
64	0xbddede90	-0.10882294
65	0xbd9bacd7	-0.07601326
66	0xbdb5a2c5	-0.088689364
67	0xbe40b314	-0.18818313
68	0xbdaf00e9	-0.085450955
69	0x3e242528	0.16029799
70	0x3deca85d	0.1155555
71	0x3d3b4132	0.045716472
72	0xbd83c0d8	-0.064332664
73	0x3c3da766	0.011575555
74	0xbd3f9e9a	-0.046782114
75	0xbe20fc05	-0.15721138
76	0x3e09a385	0.13441284
77	0x3db820de	0.08990644
78	0x3e1e3b4b	0.15452306
79	0xbe1c64fb	-0.15272896
80	0x3d16d8a7	0.03682771
81	0x3dac2e8d	0.08407316
82	0xbc922029	-0.0178376
83	0x3dbaa9c5	0.09114412
84	0x3dcf26cd	0.101148225
85	0xbdc73af6	-0.09728043
86	0x3e00f71c	0.12594265
87	0x3d3a17b1	0.04543275
88	0xbd06b284	-0.03288509
89	0x3d832f1a	0.06405468
90	0x3e063f1a	0.13110009
91	0x3d3d5859	0.046226833
92	0x3dac9167	0.08426171
93	0xbe086174	-0.13318425
94	0xbdc11613	-0.094280384
95	0xbcd86c3d	-0.0264188
96	0x3dc80a52	0.097675934
97	0x3dd96cfb	0.106164895
98	0xbd4506f3	-0.04810233
99	0xbd2c2e64	-0.04203643
100	0xbd15a141	-0.036530737
101	0xbd72a3c3	-0.059238207
102	0x3e19d98d	0.15024395
103	0x3dc8c989	0.09804065
104	0x3dd6b6a2	0.10484053
105	0xbd7ab4c7	-0.06120756
106	0xbd4ae1be	-0.04953169
107	0xbe15ca0d	-0.14627858
108	0x3e12d0f1	0.14337517
109	0xbd8ee905	-0.06978039
110	0xbcc91e3e	-0.024550553
111	0xbdee51cd	-0.11636696
112	0x3d38d7f3	0.04512782
113	0x3d99f336	0.07517092
114	0xbe380675	-0.17971213
115	0x3e0bd2f1	0.13654687
116	0x3d479bdf	0.048732635
117	0x3dba386e	0.09092794
118	0xbe0cbef2	-0.13744715
119	0x3d8082a2	0.06274916
120	0x3e30873a	0.17239085
121	0x3e04f0ff	0.12982558
122	0xbdcace4a	-0.09902628
123	0x3ca49e1e	0.020094927
124	0xbded76bc	-0.115949124
125	0x3d6e9d71	0.058255617
126	0x3d9939a5	0.07481698
127	0x3db7b004	0.08969119
128	0xbe1c9584	-0.1529141
129	0x3db4a43a	0.08820386
130	0xbad4efc8	-0.0016245777
131	0xbe04eff2	-0.12982157
132	0xbda1a0fd	-0.07892034
133	0x3e291e5c	0.16515487
134	0xbe12f96c	-0.1435296
135	0x3df195be	0.11796139
136	0x3e1da258	0.1539396
137	0xbdf8c2d0	-0.121465325
138	0xbe26f88b	-0.16305749
139	0xbe0113a9	-0.12605156
140	0x3c1957cc	0.009359311
141	0xbe2803cd	-0.164077
142	0x3e00dfee	0.12585422
143	0x3e1905a9	0.14943565
144	0xbc57cb5b	-0.013171042
145	0x3dba43f0	0.09094989
146	0x3de899b5	0.11357442
147	0x3d507189	0.050889526
148	0xbd9d9cc6	-0.07695918
149	0x3c21d932	0.009878444
150	0x3e180bb3	0.14848213
151	0xbd3114c9	-0.043232713
152	0x3d01e20c	0.031709716
153	0xbb6e56a2	-0.0036367555
154	0xbd851a74	-0.06499186
155	0xbd11359f	-0.035451528
156	0xbda57caa	-0.080804184
157	0xbd58e5e5	-0.05295362
158	0x3e2d1f80	0.16906548
159	0xbd0bcd7a	-0.034131505
160	0xbca13861	-0.019680204
161	0x3e236fde	0.15960643
162	0x3d6c028e	0.057619624
163	0xbe0ad242	-0.1355677
164	0xbd57cc9c	-0.052685365
165	0xbd813cb2	-0.06310405
166	0xbd96e1fc	-0.07367322
167	0xbe14fdd9	-0.1454996
168	0x3daedfc7	0.08538776
169	0x3e0ae27f	0.13562964
170	0xbe0f2514	-0.13978988
171	0x3e2fc44d	0.17164727
172	0x3daa6477	0.083199434
173	0x3e2dfc13	0.1699069
174	0xbdf781ba	-0.1208529
175	0x3d686411	0.056736056
176	0x3e01ecd5	0.12688
177	0x3de1de90	0.110287786
178	0xbd277e87	-0.04089215
179	0x3e02aa81	0.12760355
180	0x3dc71220	0.09720254
181	0xbdfd9f8d	-0.123839475
182	0x3dadbce1	0.084832914
183	0xbdbf0d23	-0.093286775
184	0x3e159d6e	0.14610836
185	0xbd907fc3	-0.070556186
186	0xbdd3d34a	-0.103430346
187	0x3da31299	0.079625316
188	0xbdb90fbc	-0.09036204
189	0xbd81260a	-0.063060835
190	0x3de3031c	0.110845774
191	0x3e2fb33e	0.17158219
192	0x3d5094b2	0.050923057
193	0x3e20d0c5	0.1570464
194	0x3d989a64	0.07451323
195	0xbcf42a12	-0.029805217
196	0xbd80433a	-0.062628224
197	0xbd29dd16	-0.04147061
198	0xbba2a476	-0.004963453
199	0xbc819317	-0.015817208
200	0x3cbbf863	0.022945588
201	0x3d14b05f	0.036301013
202	0xbe00ac22	-0.12565663
203	0xbddb0e29	-0.1069606
204	0x3e226e8e	0.15862486
205	0xbdb77c1c	-0.08959219
206	0x3da381d6	0.079837486
207	0x3e327d6f	0.17430662
208	0xbe1c6e85	-0.15276535
209	0x3c83696a	0.016041476
210	0x3d17a844	0.037025705
211	0xbde2aa1a	-0.110676005
212	0xbd12e7e6	-0.035865687
213	0xbdaff01b	-0.08590718
214	0xbe2eb3c3	-0.17060761
215	0xbd2ca28e	-0.04214721
216	0x3e1eb992	0.15500477
217	0x3e405187	0.187811
218	0xbddbe818	-0.10737628
219	0xbd31bf83	-0.04339553
220	0xbdb6de2f	-0.08929097
221	0x3dd18986	0.10231309
222	0xbe1e47bd	-0.15457053
223	0xbd7d387a	-0.06182144
224	0xbd67938a	-0.05653719
225	0xbda2d6a3	-0.07951095
226	0x3e177d19	0.14793815
227	0xbe1f7253	-0.15570955
228	0xbe00eebd	-0.12591071
229	0xbe21c4fc	-0.157978
230	0xbd9471e4	-0.072482854
231	0x3daa5b7c	0.083182305
232	0x3cf736f6	0.030177575
233	0xbc0f563a	-0.008748585
234	0x3e0f5dd9	0.14000644
235	0x3defe3e9	0.11713392
236	0x3d251be0	0.040309787
237	0x3d51950f	0.051167544
238	0xbd748322	-0.05969537
239	0xbe2cc169	-0.16870655
240	0x3d11271b	0.035437685
241	0x3e22e911	0.1590922
242	0x3e0b84e1	0.13624908
243	0xbbe7652e	-0.007061622
244	0xb9c41d63	-0.00037405928
245	0x3e257732	0.1615875
246	0xbe3ca678	-0.18422878
247	0x3e11bd93	0.14232473
248	0x3e2745df	0.16335247
249	0x3dc66588	0.09687334
250	0x3d984d30	0.07436597
251	0x3bea7228	0.0071547218
252	0x3d49ab34	0.049235538
253	0xbdb403ad	-0.087897636
254	0xbce109e7	-0.027470542
255	0xbde8df7e	-0.11370753

actor.customer_encoder.0.BN1.weight f4 [32]
0	0x3f809d1a	1.0047944
1	0x3f8311db	1.0239824
2	0x3f80e9f8	1.0071402
3	0x3f78fdf2	0.9726249
4	0x3f7e5823	0.99353236
5	0x3f7d04c0	0.9883537
6	0x3f80055b	1.0001634
7	0x3f833b4c	1.0252471
8	0x3f7f6c69	0.99774796
9	0x3f7d5820	0.98962593
10	0x3f807cee	1.0038126
11	0x3f821e2c	1.0165458
12	0x3f7eb405	0.9949344
13	0x3f8095aa	1.0045674
14	0x3f7928d0	0.973279
15	0x3f7ec6dc	0.99522185
16	0x3f7ca8ab	0.98694867
17	0x3f80539a	1.0025513
18	0x3f84a5aa	1.0363057
19	0x3f8064bd	1.0030743
20	0x3f7dd1a5	0.9914802
21	0x3f7d2623	0.98886317
22	0x3f7f2050	0.9965868
23	0x3f7f7eaa	0.9980265
24	0x3f8077c6	1.0036552
25	0x3f7fc5f1	0.9991141
26	0x3f7dcca6	0.99140394
27	0x3f7fafed	0.99877816
28	0x3f801e1f	1.0009192
29	0x3f79f351	0.97636896
30	0x3f8299d6	1.0203197
31	0x3f80a23d	1.0049511

actor.customer_encoder.0.BN1.bias f4 [32]
0	0xbc5c4319	-0.013443732
1	0xbcd339d9	-0.02578442
2	0xbc37e401	-0.011223794
3	0x3b6b4d11	0.003590409
4	0xbc0268b4	-0.0079595335
5	0xbb451e0f	-0.003007773
6	0x3bd6de10	0.0065572336
7	0x3cd34f03	0.025794512
8	0x3be628d7	0.0070239115
9	0x3b986826	0.0046510873
10	0xbd18e7d7	-0.037330475
11	0xba43fc86	-0.00074762886
12	0xbb9c8a24	-0.00477721
13	0x3bcf972b	0.0063351593
14	0xbc89fa9e	-0.016843136
15	0xbbb3822e	-0.005478165
16	0x3bbd65dc	0.005779965
17	0x3b9cc6a8	0.004784424
18	0xbc24234d	-0.010018182
19	0x38d64015	0.000102162514
20	0xbc5e393c	-0.01356345
21	0x3c329288	0.010899194
22	0x3c8fc01e	0.017547663
23	0x3c281d74	0.010260928
24	0x3caa51ec	0.020791017
25	0xbc29994f	-0.010351493
26	0xbc6f4452	-0.014603691
27	0xbc046898	-0.008081578
28	0xbc82848e	-0.015932348
29	0x3ce5b732	0.028041456
30	0x3ca66d8c	0.020315908
31	0xbb8cfd76	-0.004302676

actor.customer_encoder.0.BN1.running_mean f4 [32]
0	0x3f3c8ad9	0.73649365
1	0xbec691fe	-0.38783258
2	0x3ee8c5f5	0.4546353
3	0x3f1271f9	0.5720516
4	0xbf52536a	-0.8215853
5	0x3ee0d1c0	0.43910027
6	0x3e09e630	0.13466716
7	0x3e15be52	0.14623383
8	0xbe942d0c	-0.28940618
9	0x3e91fe94	0.2851454
10	0xbe810b3d	-0.25203887
11	0x3e97a3e1	0.29617217
12	0xbf1736cd	-0.59067994
13	0x3f8b5cf4	1.0887742
14	0x3f104103	0.563492
15	0x3eb0ef78	0.345577
16	0xbe3ebd6a	-0.18626943
17	0xbead474e	-0.33843464
18	0x3e07e4e0	0.13270903
19	0x3e27e301	0.16395189
20	0xbe86119f	-0.2618532
21	0xbefc77b0	-0.49310064
22	0xbf0f6965	-0.56020194
23	0xbeed0ca2	-0.462987
24	0x3e273f4f	0.16332744
25	0x3d80b0a3	0.06283691
26	0x3e364339	0.17799081
27	0x3ed1548b	0.40884814
28	0x3e00c1c8	0.12573922
29	0xbd7c4b7c	-0.061595425
30	0x3d5eed68	0.054425627
31	0xbd6aa9e1	-0.057290915

actor.customer_encoder.0.BN1.running_var f4 [32]
0	0x3c9f1a8a	0.019421834
1	0x3b3d3bc1	0.0028874727
2	0x3d130181	0.035890106
3	0x3c9822d1	0.01857129
4	0x3d05eb0e	0.03269487
5	0x3d01d52b	0.031697433
6	0x3c7bf1e5	0.015377496
7	0x3b3ddf4f	0.0028972214
8	0x3c308c3b	0.010775621
9	0x3b4874b5	0.003058714
10	0x3cd1fb89	0.025632637
11	0x3c6dce1f	0.014514475
12	0x3cadafbd	0.021201963
13	0x3d7148bf	0.058907267
14	0x3c3f99ed	0.011694414
15	0x3c384450	0.011246756
16	0x3bb68e47	0.00557116
17	0x3c02b5df	0.007977932
18	0x3c342535	0.010995199
19	0x3bddb58f	0.0067660282
20	0x3c096122	0.008384975
21	0x3d0bce22	0.03413213
22	0x3c51d43e	0.01280695
23	0x3ba535bb	0.0050418056
24	0x3c7f2f4c	0.015575241
25	0x3b019222	0.001977094
26	0x3c846508	0.016161457
27	0x3c827fb9	0.015930044
28	0x3d213253	0.039354634
29	0x3c83d75a	0.016093899
30	0x3b85980f	0.0040769647
31	0x3c5ec87d	0.013597605
