output/282nodes_entropy0.01_0.4_0.85_2_230823/epoch7.pth (torch, 514363 bytes, 129 tensors)

critic.ff_layer1.weight f4 [32, 283]
000000 03 f1 a1 3d 32 3e 95 3d 29 a1 89 bb bc 5a 5f 3d
       0.079072975 0.072872534 -0.00420012 0.05452989
000010 7f 96 1c 3b 45 63 2f 3c 8d c8 9f bc 04 72 2d 3d
       0.0023893414 0.01070482 -0.01950481 0.042345062
000020 97 4b 6b 3d f1 58 d3 bc be 51 66 3d 12 b1 29 3c
       0.057445135 -0.025799247 0.0562303 0.010357158
000030 27 e9 21 3d f6 10 e8 3c 30 ea 29 3d 07 8a a4 3b
       0.039528992 0.0283284 0.041483104 0.005021337
000040 9f 1b 79 3d 75 dd 93 3c 64 51 55 bc c1 c4 ec 3c
       0.060817357 0.018049935 -0.013019893 0.028902413
000050 b7 aa b3 bc 6e 3e 90 3c 6b 3c 11 bc c6 df 68 3d
       -0.02193199 0.017607894 -0.008864502 0.056854032
000060 d3 0d 1d bd 10 b9 bd bc b6 82 1e bc c9 a6 e9 bc
       -0.038343262 -0.023159534 -0.009674719 -0.028521912
000070 73 52 64 3c 43 9a 34 bd 1e 45 90 3d 82 80 32 bd
       0.013935673 -0.044092428 0.07044433 -0.043579586
000080 8a b8 66 3d 43 8f e2 3c 9a d5 4b bc 2a c1 14 3d
       0.056328334 0.027656203 -0.012441063 0.036317028
000090 8a ea 83 3c 5f 80 8b 3d 12 a7 79 3c 44 78 24 bc
       0.016103048 0.06811594 0.015237587 -0.010038439
0000a0 4e a8 a4 3c c8 13 0b bb 36 6b 9b 3c 94 69 5f 3d
       0.020099785 -0.0021221507 0.01897202 0.054544047
0000b0 71 73 0e 3d cb d4 b3 bc 8b a1 22 3d 06 16 ea 3b
       0.034778062 -0.021952054 0.03970484 0.0071437387
0000c0 33 b6 27 3d 25 6f d4 bc fa 3a 36 bd 64 b8 8d bb
       0.040945243 -0.025931904 -0.04448984 -0.0043249596
0000d0 7d 84 df bc b9 04 68 3d ab 1a cd 3c 4b ab f5 3c
       -0.027284855 0.05664513 0.02503713 0.029988905
0000e0 be 50 fb 3c 09 e4 74 3b 59 b5 7c 3d a4 0b 10 bd
       0.03067815 0.0037367365 0.061696384 -0.03516735
0000f0 83 d2 90 3c 9e 2d cc bc 90 9c 01 3d a5 4e 90 bc
       0.017678505 -0.024924096 0.03164345 -0.017615626
000100 1f c6 e3 3c df 3f 80 bb 2d b7 1f 3d a6 12 8d bc
       0.027804432 -0.003913864 0.03899305 -0.017220806
000110 57 e5 e7 bc 89 bc 66 bc 25 73 90 3d 33 05 a7 3c
       -0.0283076 -0.014083036 0.07053212 0.020388221
000120 ec a5 6e 3d ac a3 f6 bc 79 cc 3a bd 43 28 11 bd
       0.058263704 -0.030107342 -0.045605157 -0.035438787
000130 0e 99 81 bc 85 67 0e 3d 3b 57 dd 3c b3 c0 65 3d
       -0.015820052 0.034766693 0.027019134 0.056091975
000140 d3 f2 05 bd 85 62 c9 bc 49 f0 c1 3c 55 31 b6 bc
       -0.03270228 -0.02458311 0.023674147 -0.02224032
000150 03 df 33 3d fc be 50 37 b0 31 2e 3d d6 71 07 bd
       0.043913852 1.2442233e-05 0.042527854 -0.033067547
000160 fc 52 31 bc 69 70 a5 3c 57 e9 a5 3c c3 9c 7e bb
       -0.010823008 0.020195203 0.020252867 -0.0038850761
000170 ac 4c 4a 3d 1d e9 10 3d 5d 5b 0c bd 9e a1 aa bc
       0.049389526 0.035378564 -0.03426682 -0.020829018
000180 6a 8c 51 3d 86 f6 6d bc 8c 72 3d ba 09 84 47 bd
       0.0511593 -0.014524108 -0.00072268466 -0.048709903
000190 ab 97 e6 bc 97 30 80 3c c1 bd 00 bc 0d 8f 3c bd
       -0.028148493 0.01564817 -0.007857741 -0.04603486
0001a0 94 26 ac 3c 8d 89 08 bd 7e 7e 20 bd d5 9f 86 bc
       0.02101449 -0.033334304 -0.039183132 -0.016433636
0001b0 7f 35 21 bd 7a df e4 bc bf 46 9d 3d 1b 1f 41 3c
       -0.03935766 -0.027938593 0.07679509 0.011787201
0001c0 ff fc 07 3d d8 05 18 bd 0d 0a b2 bc 3c 7b 3a bc
       0.03320026 -0.037114948 -0.021733308 -0.01138192
0001d0 67 0b 6f 3c 47 ca 3a bd be a2 87 bc 3a a1 08 bd
       0.014590121 -0.045603063 -0.016557094 -0.033356883
0001e0 ec 52 f9 3b ba 69 ff bb ac 8d 83 ba 97 4e 18 bd
       0.007608762 -0.007794586 -0.0010036728 -0.037184324
0001f0 6a 69 f1 bc 1e 63 8b bc 7d d8 b7 bb ad e8 2c bd
       -0.02946921 -0.017015036 -0.005610524 -0.042214084
000200 ef 3f 55 3d d2 e3 69 3c 25 74 60 3d 3f 67 a8 3c
       0.052062925 0.014275508 0.054798264 0.020557044
000210 53 5b e0 bc 07 30 49 3d b5 79 9c bc f1 06 43 bb
       -0.027387297 0.049118068 -0.019101003 -0.0029758776
000220 e8 3e d1 bc 7b 4a 3e bd 87 af e3 3c 14 bc 3d bb
       -0.025542691 -0.04645775 0.027793659 -0.0028951215
000230 c5 8b 12 3d 93 dc 10 bd b7 b2 6f 3d 5c f6 8b bc
       0.035777826 -0.035366606 0.058520045 -0.017085247
000240 ee 82 35 3a f2 6f 82 3c 30 59 2e 3d 60 4a 77 3d
       0.0006924112 0.01592252 0.042565525 0.060373664
000250 c7 69 5c 3d 2d d8 19 bd 87 93 e9 3c 25 76 05 bd
       0.053811815 -0.037559677 0.02851273 -0.032583375
000260 69 04 3f 3c b8 27 da bc 5e be 96 3d c4 43 21 bd
       0.011658766 -0.026630268 0.073605284 -0.039371267
000270 a6 99 33 3d b4 32 67 3c e7 b7 0a 3d 58 8f 8f bc
       0.043847702 0.01411121 0.03386679 -0.017524406
000280 09 de 69 3d d5 ea fb b7 68 59 99 3b 44 cd 28 bd
       0.057096515 -3.0030884e-05 0.0046798475 -0.04121138
000290 5b eb b7 3c 96 64 f0 3b f5 a6 06 bc 75 76 81 3d
       0.022451093 0.0073362095 -0.008218517 0.06321422
0002a0 90 3c 01 3d 6e f0 d5 bc 7a f5 cb bc 49 06 98 ba
       0.031551898 -0.026115622 -0.024897326 -0.0011598553
0002b0 41 17 4b 3d 3d c6 7c bb 1f 98 c7 bc 86 37 3e bc
       0.049582724 -0.0038570308 -0.02436453 -0.0116099175
0002c0 09 34 0c bd 36 6a 8a 3c ba 68 71 3d e0 5a 2f bd
       -0.034229312 0.016896348 0.058937766 -0.042811275
0002d0 03 10 92 3c 49 a9 4d 3d 4c 53 1e 3c 11 04 59 ba
       0.0178299 0.05021027 0.009663414 -0.0008278499
0002e0 b9 ad 0c 3d 38 4c 27 3d f7 db a5 3c 46 f0 14 3c
       0.034345362 0.040844172 0.020246489 0.009090489
0002f0 ce e3 e7 bb fb 0e 83 3c 7e 36 4b 3b 26 10 3d bc
       -0.007076717 0.015998354 0.0031007822 -0.011539495
000300 4d ac 52 3d 62 24 2e 3d a3 ac bf ba 35 6f 1d b9
       0.05143385 0.042515166 -0.0014623593 -0.00015014115
000310 94 9e 43 3c 14 c9 eb ba e3 9c e0 3c 54 c2 c9 3c
       0.011939663 -0.0017989003 0.02741856 0.024628796
000320 02 e6 05 bd 5d 9f 3d bc ab fb 7e 3d 34 16 e2 3c
       -0.032690056 -0.01157364 0.062251728 0.027598478
000330 fe be 16 3c 67 9b cf bc c9 af 9d bc 57 39 1d bd
       0.0092008095 -0.025342656 -0.01924886 -0.03838476
000340 9f da 1e bc 48 b2 03 3d 75 f8 47 3d ba 64 36 3d
       -0.009695678 0.032152444 0.04882093 0.044529654
000350 ed f2 0e bd cc 2d c0 bc 97 ae 31 bb 36 17 59 3d
       -0.03489964 -0.023459338 -0.002711212 0.05300065
000360 65 1c 83 3c 85 e6 84 bc cf af d6 3c c5 ce b0 bc
       0.01600475 -0.016223202 0.026206879 -0.02158297
000370 eb 00 ec bc 0e 50 6d 3d c8 ca 26 bc 23 d4 9a bb
       -0.028809031 0.057937674 -0.010180183 -0.0047249957
000380 b2 db 55 bd ba 51 38 3d ef d5 3c 3d aa b2 dc 3c
       -0.05221147 0.044999816 0.04610246 0.026940662
000390 92 21 f0 bc c9 8b 69 bd da d6 d0 bc e2 fe 7e 3d
       -0.029312883 -0.057018075 -0.025493074 0.062254794
0003a0 a5 a0 bb 3c e0 5b 63 3d 7f 98 f3 3c 3c a8 c3 3c
       0.02290375 0.05550754 0.029735802 0.023883931
0003b0 38 63 eb 3b 87 0f f5 bc 33 2f 0f bd 3a 52 3b bd
       0.0071834587 -0.02991463 -0.034957122 -0.045732714
0003c0 83 8c 02 3d 79 21 da bc 06 ad 63 bc bf e6 08 bd
       0.031872284 -0.02662729 -0.0138962325 -0.03342318
0003d0 2b c7 9e 3a 48 5c c2 bc 95 7f 2b bd 76 31 93 3c
       0.00121138 -0.023725644 -0.04186972 0.01796792
0003e0 b7 42 5d bc 5e 6a 2e 3d a2 42 ec 3b a3 e2 20 bd
       -0.013504676 0.04258191 0.0072100917 -0.039278638
0003f0 5d 23 8d bc 15 0d 86 bc 4f f1 d1 bc 54 0a 5b bd
       -0.017228777 -0.01636366 -0.02562776 -0.053476647

critic.ff_layer2.weight f4 [283, 32]
000000 d4 02 98 bd 4a e7 84 3e 5f 2e 9f bd 02 07 4d be
       -0.074224144 0.2595771 -0.077725165 -0.20022205
000010 59 e1 b1 3d f9 85 e7 bd 68 d2 ae 3d c7 68 94 bd
       0.0868556 -0.1130485 0.085362256 -0.07246547
000020 a0 92 3d be 8b e5 3b bd 37 4c 92 bd c4 6b 99 3c
       -0.18512964 -0.045873206 -0.07143443 0.018728144
000030 fa 65 41 be 0d cd 45 be 78 99 5a bd f3 a2 a3 3e
       -0.18886557 -0.19316502 -0.053369015 0.31960258
000040 9e d2 20 be 08 3e 0a be c4 fa a8 3d d9 8e 15 3e
       -0.15705344 -0.13500226 0.08250955 0.14605273
000050 d5 37 aa 3e ee 72 e3 bd c6 b8 8d bd 27 66 33 be
       0.3324572 -0.111059055 -0.06920008 -0.17519437
000060 d6 a9 94 3e c4 1b b8 3d ed 94 82 bb 8f a0 67 be
       0.29035825 0.08989671 -0.0039850385 -0.22619842
000070 d5 c5 59 3d 3d 44 88 bd 01 05 16 3d 96 87 84 3e
       0.053167183 -0.066536404 0.036625866 0.25884694
000080 2b 73 b4 bc 88 42 ce bd 85 70 e2 3d 99 ac bf 3d
       -0.022027573 -0.100712836 0.11056618 0.09359092
000090 cb e2 93 3c 18 d7 d2 bd fe 76 c3 bd 79 77 1f be
       0.01805248 -0.10294932 -0.0954418 -0.15572919
0000a0 9c 0a c4 bd 32 04 1e be dd 2f d0 bc 3e d7 01 be
       -0.09572336 -0.15431288 -0.025413448 -0.12679765
0000b0 0f 82 ce 3d f7 31 1f be 8e 09 f0 bd 4c b8 e0 bd
       0.100834005 -0.15546404 -0.117205724 -0.10972652
0000c0 61 4e 62 bd 3c ef 8c 3d ee ac d0 3d be 19 2d 3e
       -0.05525053 0.06881568 0.10189234 0.16904351
0000d0 25 90 88 bd 0a eb 38 3d aa 0a e6 3a 72 16 be 3d
       -0.066681184 0.045146026 0.0017550786 0.09281625
0000e0 61 c8 65 3d e5 50 cc 3d cf b4 fd 3d 68 e0 fd 3d
       0.0560993 0.09976367 0.12388002 0.12396318
0000f0 42 3e 24 bb 36 76 bf 3d a4 21 ed bd 82 ee 73 bd
       -0.0025061523 0.09348719 -0.11578682 -0.05955363
000100 e8 ad 66 bd 1e af 85 bd 9e 07 6a 3c 6b c4 27 be
       -0.056318194 -0.065275416 0.014284043 -0.16383521
000110 cb de c7 bd a9 32 29 bc a4 e2 1b 3d c3 10 02 3e
       -0.09759291 -0.01032702 0.03805794 0.12701707
000120 2b d7 f8 bd d9 c1 5c 3d 74 9c 99 3d aa ec c5 bd
       -0.12150415 0.053895805 0.07500544 -0.09664281
000130 5c 3f 10 3d ce 6c ad bd c4 7c 80 3b 60 c0 d1 bd
       0.035216674 -0.084680185 0.003921123 -0.10241771
000140 67 5d 2d bd e6 8d 8f bd a7 eb 1d 3e d2 83 2b 3d
       -0.042325404 -0.07009487 0.15421925 0.04187376
000150 d4 1c 38 be c6 53 11 3d fe 92 ca 3d d8 3e 85 bd
       -0.17979747 0.035480283 0.09891318 -0.06506127
000160 d4 1e ea bd e4 ef ff bc 83 6a 23 be a5 ca 85 bd
       -0.11431661 -0.031242318 -0.159586 -0.06532792
000170 52 4a ae 3c e8 f7 0c be e9 b9 25 be 68 24 e5 bd
       0.021275673 -0.13766444 -0.161842 -0.111885846
000180 56 83 01 be c5 cd ef bb 5d 0f 5d 3d 18 8d d1 3d
       -0.12647757 -0.007318231 0.05396973 0.102319896
000190 8f 9f 33 3e ce 4c c5 3d 13 3d 9f bd 03 67 da bc
       0.17541336 0.0963379 -0.07775321 -0.026660448
0001a0 3a ea b0 bd a6 ff c7 3d af 63 26 3d db fe 92 3d
       -0.08638425 0.09765558 0.04062241 0.07177516
0001b0 ea 30 05 be c4 16 f9 3d db f4 23 be 73 0e 6c 3d
       -0.1300694 0.12162545 -0.16011374 0.057630967
0001c0 cf 4a 28 be e1 50 05 3e 10 04 c8 bd 63 84 0b be
       -0.16434787 0.13019134 -0.097664 -0.1362472
0001d0 cb b3 6c 3d bc be 1b 3e db 43 57 bc c2 7a 91 3d
       0.05778865 0.15209478 -0.013138737 0.07103492
0001e0 d6 64 01 3e a6 10 12 be 6a a9 8a 3d 3c ee b7 3c
       0.12636122 -0.14264163 0.067705944 0.022452466
0001f0 eb 9f d8 bd 62 69 d1 3d ec e7 1a 3e 37 1d ec 3d
       -0.10577377 0.10225178 0.15127534 0.1152901
000200 7f 54 0b be 0d 1a e3 3d 4c a3 0e 3e 5f 7c 5a 3d
       -0.13606451 0.11088953 0.1392948 0.053341266
000210 50 0e f9 bc e1 a1 f8 3d fb 49 fa bd 12 cb d1 bd
       -0.030402333 0.12140251 -0.12221142 -0.10243811
000220 f1 e7 b3 3d 0f 94 f2 3d 31 6e fa bc 9b 84 22 3e
       0.08784474 0.11844646 -0.030570121 0.15870897
000230 c1 bc af 3d 59 f6 8c 3d 8d 64 07 3e 85 34 15 3e
       0.08580924 0.068829246 0.13221951 0.14570816
000240 82 49 df 3d 06 4b f5 3d 50 56 90 b9 c4 2c 06 3e
       0.109026924 0.119772 -0.00027530128 0.13103014
000250 71 bb 8b 3d 8c 06 9d bd df 53 a6 3d 62 50 c1 3c
       0.06822861 -0.07667264 0.08121466 0.0235979
000260 c0 2e 8b bd a1 f5 f6 3d fb 1b 6f 3d 7a dc fd 3d
       -0.06796026 0.12058569 0.058376294 0.12395568
000270 0b 02 d1 3c f8 23 28 3d 35 bc bd 3d a3 32 6b bd
       0.02551367 0.041049927 0.09264413 -0.057421338
000280 30 a2 d1 3d b4 93 ea bd b1 b7 ab bc 43 d2 86 ba
       0.10236013 -0.114539534 -0.020961614 -0.0010286052
000290 23 2a eb 3d 05 87 8a 3d 34 46 29 3e dd a8 bf bd
       0.11482646 0.06764034 0.16530687 -0.0935838
0002a0 59 52 f2 bc 4c f9 a9 bc 48 4e 05 3e 4f 45 28 3e
       -0.029580282 -0.020748757 0.13018143 0.16432689
0002b0 c7 89 1f 3d 70 20 07 be d1 1e ff bd 10 e0 5d 3c
       0.038949754 -0.13195968 -0.1245705 0.01354219
0002c0 10 ac 21 be f5 6c 99 bd 97 21 0b be ab 94 ac 3d
       -0.15788293 -0.07491485 -0.13587032 0.08426794
0002d0 b5 91 2a bd 1c d6 04 be 06 ce db 3d 2e e9 16 be
       -0.041642863 -0.12972301 0.10732655 -0.14737388
0002e0 00 09 ca bc 6c e7 2a 3e 22 e1 93 3d 58 36 15 be
       -0.024662495 0.16689843 0.07220675 -0.14571512
0002f0 48 68 99 3c 57 d9 26 bd 15 62 95 3d 6a 48 0f 3e
       0.018726483 -0.040734615 0.07294098 0.13992468
000300 18 18 15 3e f1 ee 1d bd 11 b6 9f 3d 03 83 28 be
       0.14559972 -0.03855795 0.07798398 -0.16456227
000310 cc c4 05 3e d3 a7 a8 3d d7 08 ff bd a3 b3 65 bd
       0.13063353 0.08235135 -0.12452858 -0.056079518
000320 75 b7 87 bd 52 a9 bf bd 26 61 7c 3d bd 5c 48 bd
       -0.066267885 -0.09358467 0.061616085 -0.048916567
000330 cb d7 82 3d 85 f9 74 bd 38 2f 0e 3e e5 7b 9e bd
       0.063888155 -0.059808273 0.138852 -0.07738475
000340 71 87 22 bd 90 51 62 bd 6d b0 3f 3c 0c 99 97 bd
       -0.03967995 -0.055253565 0.011699778 -0.07402238
000350 c1 0b d6 bd 08 56 28 be 2e ba f2 3d c3 a3 e6 3c
       -0.10451461 -0.16439068 0.11851917 0.02815426
000360 52 0f f6 bd 06 38 b5 3d 63 c9 31 3c e7 75 93 bd
       -0.12014641 0.08848576 0.010851237 -0.072002225
000370 c2 16 65 bc 15 e7 72 bb cd 28 e9 3d 4a 82 24 be
       -0.013982477 -0.0037064005 0.11384735 -0.16065326
000380 4d 97 11 be 69 0e 17 be 5a 06 17 be 2b e1 5e bc
       -0.14217873 -0.14751591 -0.14748517 -0.013603489
000390 e4 26 c8 3d da a3 3c 3d 6c 68 7b 3d 2c 3b c2 3c
       0.09773043 0.0460547 0.06137888 0.023709856
0003a0 9e 87 53 3b 54 5e 22 be 01 4b 2a 3e 42 e6 28 3e
       0.003227688 -0.15856296 0.16630174 0.16494086
0003b0 bb 61 28 bb 3c 4b b0 3c f0 10 1a 3d 2f e6 09 3e
       -0.0025693018 0.02152025 0.03761381 0.13466714
0003c0 a0 85 31 bc 58 17 c9 bc 8d 5f d7 bd 19 2e 19 3d
       -0.010835081 -0.024547264 -0.10516272 0.037397478
0003d0 2e a6 5c 3d 14 a6 19 be 7d 9b 3c 3d 1b e3 06 3d
       0.05386942 -0.1500476 0.046046723 0.03293143
0003e0 76 3e 59 3d 00 a5 b0 3d be d4 39 bd f1 25 d0 3c
       0.053038083 0.08625221 -0.045368902 0.025408717
0003f0 5d a0 f2 bd 3a 1b cb 3d 42 50 14 be 93 c5 29 be
       -0.11846993 0.099173024 -0.14483741 -0.16579275

actor.customer_encoder.0.attention.query_embed.weight f4 [32, 32]
000000 86 ee 9d 3e 1b 0f 3c 3d c6 3f 00 3e 0c 1e a1 3e
       0.3084604 0.045912843 0.12524328 0.31468236
000010 10 e6 a7 be c7 b1 d4 bd 96 c9 16 be 8e e1 62 be
       -0.3279271 -0.10385471 -0.14725336 -0.22156355
000020 eb fc 66 3e b3 31 58 3e a6 e2 91 3e 55 15 b4 3e
       0.22557418 0.21112709 0.28493232 0.35172525
000030 ff 18 43 be 54 0f a6 3c b1 76 e3 3d e0 bd bd bd
       -0.19052504 0.02027098 0.11106623 -0.092647314
000040 8a 42 57 3e 9f b0 b1 3e c4 ec b7 be 0a 8e a2 bd
       0.21021476 0.34705064 -0.35922825 -0.07937248
000050 f3 53 4a 3e 6b aa 8b be 96 54 ae bd c2 22 4e 3e
       0.19758587 -0.27278456 -0.08512227 0.20130447
000060 f6 3d d6 3d 38 b1 4a be 87 77 8d bd f0 5c b9 3c
       0.10461037 -0.19794166 -0.06907564 0.022627324
000070 ad a5 b5 3e 7b 02 7e be fd 72 9b bb 94 9e c1 bd
       0.35477963 -0.24805634 -0.0047439323 -0.094540745
000080 8d e2 b3 3e 7d e5 87 3e 30 96 04 bd 3a 77 1c be
       0.35133782 0.26542273 -0.032369792 -0.15279856
000090 71 ff a8 3e 7b b5 b7 bc 89 f6 ad bd c3 fa 91 3e
       0.33007386 -0.022425404 -0.084942885 0.28511629
0000a0 74 92 cc 3d 4b 4e bb 3c 3d 73 ac 3e ca 7e 2b be
       0.09988871 0.022864481 0.3368167 -0.16747585
0000b0 34 d1 89 3e 16 ef 41 3e 07 82 59 be 38 13 ab 3e
       0.26917422 0.1893886 -0.21241008 0.334131
0000c0 e5 15 03 3e 1b 9c 7f be ea 20 95 3e a8 f1 93 be
       0.12801321 -0.24961893 0.29126674 -0.28895307
0000d0 92 22 20 3d fa 79 12 3e bb 6b 2e 3e 74 ec a8 be
       0.03909547 0.14304343 0.17033283 -0.329929
0000e0 c5 52 a7 3e a5 c8 99 3e 7c 2e 60 3e a4 b5 0d 3e
       0.32680336 0.30035892 0.21892732 0.13838822
0000f0 04 e6 5a be 53 b0 7f 3e 9d 8e 28 3d 70 24 91 bd
       -0.21376806 0.24969606 0.04115163 -0.07087028
000100 04 34 e0 bd 4c 5d 33 3d 12 a7 aa bd 1a 77 8c be
       -0.10947421 0.043790147 -0.083326474 -0.27434617
000110 a1 83 62 be 6e ab 08 be 60 d9 89 bd 83 f0 46 be
       -0.22120525 -0.13346645 -0.06730914 -0.19427685
000120 a7 dd ce bd a3 87 84 be 11 75 82 be 09 f1 53 3e
       -0.101008706 -0.25884733 -0.2547994 0.20697416
000130 72 54 ce bd d1 d6 f5 bd fb 3a 62 bc 41 0e 33 3d
       -0.100747004 -0.120038636 -0.013808007 0.043714765
000140 a5 6b 78 be ad 28 2c 3e a5 38 19 3e e1 49 28 3e
       -0.24259813 0.16812392 0.14963014 0.16434433
000150 2e d2 82 be bd 2b a8 3e 4e a2 4b 3e 22 1c ea 3d
       -0.2555098 0.3284587 0.19886133 0.11431147
000160 b2 cb 40 3e bb 32 49 be 1b df f9 3d 5c 8b 9e 3e
       0.18827704 -0.19648258 0.12200757 0.30965698
000170 ca 86 10 3e c3 30 c7 bb 46 ae ab be 7f 25 f9 bd
       0.14113918 -0.006078811 -0.33531398 -0.12165355
000180 1e a8 71 be cd 1b a5 3e 3e 1f 96 bd 78 c2 da bd
       -0.23599288 0.32247773 -0.07330178 -0.10681623
000190 2a 96 af be 6e c1 a0 be ec 05 0d be 29 f3 16 3e
       -0.34294254 -0.31397575 -0.1377179 0.14741196
0001a0 cc dc 67 bd bf 5d 41 3e db 69 a4 3e 40 bf 65 be
       -0.056607053 0.18883418 0.3211201 -0.22436237
0001b0 a3 2c e7 3d 24 e5 ac 3c a2 51 9f be b4 80 94 bd
       0.11287811 0.021105357 -0.31116968 -0.07251111
0001c0 04 37 5d 3d 27 f4 05 be 97 60 6e be 37 27 a3 3e
       0.054007545 -0.13081418 -0.23279034 0.31865856
0001d0 62 c1 1f 3e 16 b0 9e be d8 84 a7 be 19 66 bd 3d
       0.15601113 -0.30993718 -0.3271854 0.09247989
0001e0 25 90 40 be f7 e2 ac 3d d0 b4 0c 3e 17 a6 0f 3d
       -0.18804987 0.084417276 0.1374085 0.035070505
0001f0 03 8c 4b 3e 93 35 24 3e 5f f3 73 bd 27 e9 ce 3d
       0.19877629 0.16036062 -0.05955827 0.10103064
000200 0c 86 b8 bd 07 88 3a be 8b 77 b9 be d5 7d 17 3e
       -0.090099424 -0.18215953 -0.36224017 0.14794095
000210 6b 3a 96 3e 2f 68 f2 bd 9f 73 55 3e db bf 8d 3e
       0.29341444 -0.11836278 0.20844887 0.27685437
000220 23 c3 58 3d 11 6c 2b 3e 10 e9 86 3b 3d 27 4b 3e
       0.052920472 0.16740443 0.0041171387 0.19839187
000230 8b 7f 38 3e 4a 8a 6a 3e 31 f5 9e 3e db 2a 12 be
       0.18017404 0.22904316 0.3104644 -0.1427416
000240 3a db d7 3d 2f 40 06 3e 76 a4 8b be 1c ca 9c be
       0.10539861 0.13110422 -0.2727391 -0.30622947
000250 47 f0 9b bd 6f 1d 32 3e 4a b8 91 3e 52 58 fa bd
       -0.07614189 0.1739404 0.28460914 -0.12223877
000260 49 8e 23 be c2 79 9c be 85 ca 4e 3e e9 e9 3e be
       -0.15972246 -0.30561644 0.20194443 -0.18643917
000270 52 6f df 3d da f3 11 3e 9f c5 2e bd af 0b a9 3e
       0.109099045 0.14253178 -0.042668935 0.33016726
000280 30 0d 7e 3e 67 f6 61 bd 4e a9 2c 3b d0 f7 6b 3e
       0.24809718 -0.05516663 0.002634603 0.23043752
000290 3f 17 5e be cf 22 91 be ea 11 70 3e a5 d1 3d be
       -0.21688555 -0.2834687 0.23444334 -0.18537004
0002a0 3d 4b 06 3d d2 e3 9a 3c e0 f2 8b 3e 19 f9 5c 3d
       0.032786597 0.018907461 0.27333736 0.053948496
0002b0 74 64 03 3d 82 8d 9d 3d 12 b3 15 be 10 53 ab be
       0.03207822 0.07693006 -0.14619091 -0.3346181
0002c0 e7 39 9a 3e 43 9f 8c be b5 d3 86 be 41 43 ac bd
       0.301223 -0.27465257 -0.26333395 -0.08411265
0002d0 14 1c 69 3e aa e3 1e be 2e 07 86 3e 25 bc e7 3d
       0.22764617 -0.15516534 0.26177353 0.113151826
0002e0 19 e6 77 3e 76 aa 0e be 5c c8 2e 3e ca 13 b5 3d
       0.24208869 -0.13932213 0.17068619 0.08841665
0002f0 89 57 a3 3e ab 80 32 be 10 bc a2 3e e0 ca 75 be
       0.31902722 -0.17431895 0.31784105 -0.24003172
000300 a6 bf 7c be 60 3f a9 3e af 58 45 3e 43 12 56 3e
       -0.24682483 0.33056164 0.19272111 0.20905404
000310 98 3e 46 be 0c 40 a0 3e 70 6a aa bd f2 0d 9b 3e
       -0.19359815 0.31298864 -0.083210826 0.30284077
000320 70 c3 66 3e 10 d7 a2 be e8 0b 99 bd 5c 63 ba 3e
       0.22535491 -0.31804705 -0.07472974 0.3640393
000330 bf a8 59 3e 23 13 4b 3d 74 ca a5 bc 74 6a 19 3e
       0.21255778 0.049578797 -0.020238139 0.14982015
000340 50 ab d1 bd 4d 04 cd bd a3 ca 56 be f9 28 9b bc
       -0.102377534 -0.10010586 -0.20975737 -0.018940436
000350 c4 b7 51 be 1b fb 53 be c0 34 70 3e 32 7e 5e 3e
       -0.20480257 -0.20701258 0.23457623 0.21727827
000360 d0 e0 25 be af 5e 9a bd 76 5f 23 be f7 81 38 3e
       -0.1619904 -0.07537591 -0.15954384 0.18018328
000370 6d d6 5c be e5 5a 4d be 3d d7 1a 3e 4e 48 a6 3c
       -0.21566172 -0.20054205 0.1512117 0.02029815
000380 07 27 d7 3d 1f 11 3b bd d5 89 b9 3e ee 04 59 bd
       0.10505491 -0.045670625 0.3623797 -0.052983217
000390 41 0b 94 3e c3 0d 50 3d aa dc af 3e e8 99 57 be
       0.28914836 0.050794374 0.3434804 -0.21054804
0003a0 8d 64 55 3e 44 54 f2 bd 18 83 53 3e 35 ac 8e be
       0.20839138 -0.11832479 0.20655477 -0.2786576
0003b0 45 7e 50 3e 94 34 be bd f6 62 0f be 19 9f f6 bd
       0.20360668 -0.09287372 -0.14002594 -0.12042064
0003c0 f2 31 83 3e 5b 7e 5c bd cb e8 51 bd 11 28 a6 3e
       0.25624043 -0.05383144 -0.0512474 0.32452443
0003d0 55 ef 83 3e 96 36 7e 3c a1 01 f9 bd 83 9a bc 3d
       0.25768533 0.015515944 -0.12158514 0.09209158
0003e0 72 0a a1 bd d7 f5 99 3e b0 82 0a 3e 2a 72 80 3e
       -0.078633204 0.30070373 0.13526416 0.250871
0003f0 9a 86 4d 3e 2e 13 c4 bd ef 6d 8f be 77 ae 02 be
       0.20070878 -0.09573971 -0.2801356 -0.12761866

actor.customer_encoder.0.attention.key_embed.weight f4 [32, 32]
000000 4f 87 1b be dd c6 51 3d e8 bb 8f 3d 96 8b bd 3e
       -0.15188335 0.05121504 0.07018262 0.37020558
000010 61 45 a7 3e f5 ff 9c be 87 9b 23 3e 74 20 88 be
       0.3267012 -0.3066403 0.15977298 -0.2658726
000020 da 22 2f be 24 01 15 3e 52 91 82 be 48 66 a1 3e
       -0.17103139 0.14551216 -0.25501496 0.31523347
000030 f0 19 e9 3d 87 a3 46 3d 2b 06 5d 3e 59 06 a0 be
       0.113819 0.048495796 0.21584384 -0.31254843
000040 d2 50 80 3d 01 f8 ea 3d 3b 44 36 be 52 cd 01 be
       0.06265415 0.11473084 -0.17799465 -0.1267598
000050 b4 b3 fc 3d 44 43 a0 3e 5c 1d 0c be c6 16 5a 3e
       0.12338963 0.3130132 -0.13683075 0.2129775
000060 8e d7 3e 3e 9f f1 51 be ec f5 8a be 3f d2 1d bd
       0.18636915 -0.20502327 -0.27140749 -0.038530584
000070 29 aa 71 3e 00 7d 8c be 45 d7 77 be 9a e0 87 3e
       0.23600067 -0.27439117 -0.24203213 0.26538545
000080 30 14 51 be 58 99 76 be 91 88 a9 bc dd fd a7 3e
       -0.20417857 -0.24081933 -0.020695003 0.3281087
000090 17 35 72 3e 54 6f 41 3e 2c c4 65 3d ab a5 43 be
       0.23653065 0.18890125 0.056095287 -0.19106166
0000a0 31 81 93 be 99 13 3d 3e 90 6c dd 3d 46 ba b0 3d
       -0.28809503 0.18464507 0.10811722 0.08629279
0000b0 a3 be e9 bd 89 1e b8 be eb ef f5 3c fd 33 76 bd
       -0.11413314 -0.35960796 0.030021628 -0.060108174
0000c0 57 a2 ca bc 6a 4f 3f 3d bf 39 45 be 36 53 53 be
       -0.024735613 0.046706595 -0.1926031 -0.20637211
0000d0 2a f8 ae bd 7c fd 06 3e d2 43 60 be 92 38 ae 3e
       -0.08543427 0.13182634 -0.21900871 0.34027535
0000e0 0c 1f af be 2f 37 5c be 20 55 c5 3d b4 d1 b2 be
       -0.34203374 -0.21505426 0.09635377 -0.34925616
0000f0 11 4b 56 be 99 f1 2a 3e cc 31 7d be fa 9b ec 3d
       -0.20927073 0.16693725 -0.24726027 0.11553188
000100 ff d7 41 be d7 02 24 be 86 55 62 3d e3 3e dd 3c
       -0.18930052 -0.16016708 0.055257343 0.027007526
000110 b2 e7 a5 3e 8b df 9b 3d 50 47 8b 3d df 87 41 be
       0.32403332 0.07610997 0.06800711 -0.18899487
000120 ff 62 99 3e 0c 9e c4 bb 5d b5 58 3e 76 e7 92 be
       0.2995834 -0.006000286 0.21162935 -0.28692216
000130 59 09 45 3e ff 45 8f 3e 6d d0 62 3e 56 3d 95 3e
       0.19241847 0.2798309 0.2214982 0.29148358
000140 42 97 24 be 18 c0 7b be 30 a4 0b 3e ac 49 26 3e
       -0.16073325 -0.24584997 0.13636851 0.16239041
000150 54 79 53 be ca 6d ed bd 44 da c8 ba bd 58 9e bc
       -0.20651752 -0.11593206 -0.0015323837 -0.019329423
000160 97 61 31 3e 4d 11 81 3e 65 2d c7 3d 2a e8 14 be
       0.17322384 0.25208512 0.09725455 -0.14541689
000170 0b a8 6a be 29 24 99 3e 8b cc 0a 3d f3 8d 3a be
       -0.22915666 0.299104 0.033886474 -0.18218212
000180 12 a7 86 be 54 8a 80 be f9 f2 a5 3e 76 42 52 be
       -0.2629934 -0.25105536 0.32411936 -0.20533165
000190 ed 88 af be 66 80 8c be a4 57 34 be 55 c3 f7 3b
       -0.34284154 -0.2744171 -0.17611557 0.007561127
0001a0 94 fd 6d be ac 12 26 3e 83 be 87 bd 4d a9 15 be
       -0.23241264 0.1621806 -0.06628134 -0.14615364
0001b0 23 00 68 be f2 d0 d2 bd 10 47 b8 3e d5 74 2f 3c
       -0.22656302 -0.102937594 0.35991716 0.010709007
0001c0 4c a1 c6 3d 40 e7 b4 be 87 d8 56 3e ba 2b 43 3d
       0.09698734 -0.3533268 0.20981036 0.047649123
0001d0 e3 ec 50 bd 02 96 67 3c 6d 57 21 be 22 9f 8e be
       -0.051007163 0.014134886 -0.15756007 -0.27855784
0001e0 bd ba 3a be b3 cc d7 3d 3d bf 98 3e 9d 81 81 be
       -0.18235298 0.1053709 0.29833403 -0.252942
0001f0 10 35 2c 3e eb 28 20 be f3 83 89 3e c8 31 3b 3d
       0.16817117 -0.15640609 0.26858482 0.045701772
000200 15 dc 9f be c0 66 92 be 47 58 bd 3d 9d 8e 3c 3e
       -0.31222597 -0.28594017 0.09245353 0.18413778
000210 67 de d0 3d 2d 6c d3 3d 06 f4 4e bd 91 f1 4e be
       0.1019867 0.10323367 -0.050525688 -0.20209338
000220 dc 63 1f 3d e1 8c 96 be 58 4a 37 3e 5f 8d 02 be
       0.038913593 -0.29404357 0.17899454 -0.12749241
000230 68 a4 9e be 56 6a 0d 3d 29 28 ed 3d 2e bf 8b be
       -0.30984807 0.034525238 0.115799256 -0.27294296
000240 6e 1e 5f be 6b d4 51 bd 14 0e 12 be 9e 88 96 3e
       -0.21788952 -0.05122797 -0.14263183 0.29401106
000250 48 41 7e 3d 81 cf ea bd fb 0c 92 be d8 b6 80 be
       0.062073976 -0.114653595 -0.28525528 -0.251395
000260 3f fc 00 3e 31 e0 99 bd 9c 84 59 3d 3c 51 95 3d
       0.12596224 -0.07513464 0.05310498 0.07290885
000270 a5 0e 7b 3e 0b 8a fe bb ae fb 21 3e 52 40 a8 be
       0.24517305 -0.007767921 0.15818664 -0.32861573
000280 5b 19 7e 3e 37 52 9d be e3 78 dd bd 44 3f af be
       0.2481436 -0.30726787 -0.10814073 -0.34227955
000290 f6 1d 3c 3e 64 eb ca bd 5c 0f b3 be d7 c6 3b be
       0.18370804 -0.099081784 -0.34972656 -0.1833757
0002a0 32 f6 4a 3e 38 65 77 3e 9e a4 77 3e 36 ff ad be
       0.19820479 0.24159706 0.2418389 -0.33983773
0002b0 63 c5 19 be 84 a5 71 3d 5d 2c 40 bc e3 f4 3f be
       -0.15016703 0.05899574 -0.011729327 -0.1874576
0002c0 d0 12 af 3e 7c 1c 65 be 45 40 6d 3e f4 92 68 3e
       0.3419404 -0.22374147 0.23169048 0.22712308
0002d0 53 7a 9d be 47 23 6b be 00 9f 6d be 8c 89 85 3e
       -0.30757388 -0.22962676 -0.23205185 0.26081502
0002e0 b4 8e 9f be a3 14 b8 b8 d9 4c e5 bd 28 3b b7 bd
       -0.3116356 -8.7776476e-05 -0.11196298 -0.0894683
0002f0 23 3c 58 be 87 79 97 be 6b ad 9c be 35 16 0d bd
       -0.2111669 -0.29584906 -0.30601057 -0.034445006
000300 c8 57 a2 3b 3c b8 a0 3d e2 e3 c4 3d 71 58 15 be
       0.004954312 0.0784764 0.09613778 -0.14584519
000310 f3 e1 4c 3e 75 b1 53 3e e6 05 8c be 46 12 a7 3e
       0.20008068 0.20673163 -0.2734825 0.3263113
000320 05 27 9c bc 86 c9 b5 bb b3 56 ac be ea a3 2e 3e
       -0.019061575 -0.005547705 -0.33659896 0.17054716
000330 65 0f 17 3e 82 d0 a5 3d 92 4c 2d 3e 64 26 9f be
       0.14751966 0.0809641 0.1692374 -0.31083977
000340 86 76 af 3e d8 a3 70 3e 98 40 bf bd e9 b6 45 3e
       0.34270114 0.23500001 -0.09338492 0.19308056
000350 75 32 f9 bd 94 35 e7 bd 32 d0 70 bb 83 6e 5d 3e
       -0.12167827 -0.11289516 -0.0036745188 0.21624188
000360 3f a6 48 3e 70 f7 09 be 10 e9 9c be 8e d2 8c bc
       0.19594668 -0.13473296 -0.30646563 -0.017190244
000370 6d cc 27 be f8 6c b1 bc 34 4f 2f 3e e9 09 6f 3e
       -0.16386576 -0.021658406 0.17120057 0.23343624
000380 2c f3 61 3c 30 10 25 3e ff 52 74 3d ba 29 3c be
       0.013790887 0.16119456 0.059649464 -0.18375292
000390 2b 60 57 3e b5 0c 71 be 56 ab 09 bc 1c 29 2c be
       0.21032779 -0.23540004 -0.008402666 -0.16812557
0003a0 05 bc 3b 3c ba a9 92 3e f1 24 f6 3d 3f 7f 02 bd
       0.011458402 0.28645116 0.12018765 -0.031859633
0003b0 31 cf 9f be 9b ef 88 be e6 46 b6 bd 57 0e 2f be
       -0.31212762 -0.26745304 -0.089002416 -0.17095314
0003c0 c9 8f 88 3d fa 20 a8 be bf c0 af 3e 5e 84 b0 bd
       0.0666805 -0.3283766 0.3432674 -0.08618997
0003d0 24 bf 69 3e aa fe 77 3e 54 73 94 3e 8c 6b 46 bd
       0.2282682 0.2421824 0.28994238 -0.04844241
0003e0 53 90 c9 3c b0 ac 38 3e fb 33 8c be 94 06 f7 bc
       0.024604952 0.18034625 -0.27383408 -0.030154504
0003f0 27 21 07 3e 44 1a f0 bc 7a c2 83 be 9e d8 4f 3d
       0.1319624 -0.0293094 -0.2573431 0.05074369

actor.customer_encoder.0.attention.value_embed.weight f4 [32, 32]
000000 c2 70 7d 3d 91 1f a9 3e 02 2b e6 3d 34 5d 05 3e
       0.061875112 0.33031896 0.11238672 0.13023835
000010 a3 e6 aa be 46 88 11 3e 94 09 42 3e 01 04 de bd
       -0.33379087 0.1421214 0.18948966 -0.108406074
000020 69 8b 61 be 0f cb 2f bd be b0 9b be f2 8c a6 3e
       -0.22025837 -0.04291826 -0.3040828 0.32529408
000030 2f 7c 5b be 31 ec a2 3e 60 95 b3 be 88 c9 66 3e
       -0.21434091 0.31820825 -0.35074902 0.22537816
000040 4b 54 17 be 3d 68 8b be f0 a2 cb 3d a7 a9 a6 3e
       -0.14778249 -0.27227965 0.09943187 0.3255131
000050 27 96 2c be b0 49 4b 3d 51 19 6d be 40 e7 6b 3e
       -0.16854154 0.04963082 -0.23154189 0.23037434
000060 33 f5 a2 3e 5c 62 c5 bd 2a 6d ad 3e 01 5e 3b 3e
       0.31827697 -0.09637901 0.33872348 0.18297578
000070 cc 70 43 3d 89 c2 1b be 1e a3 79 3e 47 fc 94 3c
       0.047714993 -0.15210928 0.2437863 0.018186701
000080 0d 1d 19 be df 13 b2 be 0c 73 af be 6e 79 b4 3e
       -0.14952488 -0.34780785 -0.3426746 0.35248893
000090 f3 53 3f be ee 0c 87 be 58 8d 65 3e c8 21 cf bd
       -0.18684368 -0.26377052 0.224172 -0.10113865
0000a0 ce fa 86 be ae 2d 92 3d 93 0c 56 bd bd ad 0b 3e
       -0.26363224 0.07137619 -0.052258085 0.13640495
0000b0 c4 31 a8 3e f1 47 b6 bd 54 30 4e 3e 32 4f ca bd
       0.32850468 -0.089004405 0.20135623 -0.098783866
0000c0 ce d8 ee bd 88 7c f1 3d 60 d7 a1 bd 0b 85 c2 3d
       -0.11662446 0.117913306 -0.07902408 0.09498032
0000d0 a4 3e a1 3d c1 f7 90 be e1 b5 a9 bd 33 56 a3 3e
       0.07873276 -0.2831402 -0.08286644 0.31901702
0000e0 3e 44 0e bb 32 9c ab 3e 43 cd 88 3e 6a 33 cb bd
       -0.0021708156 0.33517605 0.26719102 -0.09921916
0000f0 cf bd 23 be d1 da ee 3d 23 23 6f bd 97 f0 3a bd
       -0.15990375 0.1166283 -0.05838312 -0.0456396
000100 63 fe c5 bc c1 d0 69 be 52 e6 63 3e 87 78 0d be
       -0.024169153 -0.2283354 0.22255829 -0.13815509
000110 d0 6d 93 be b9 64 8d be 61 f6 66 be 5d 89 85 3d
       -0.28794718 -0.27615908 -0.22554924 0.065203406
000120 ef 4c ae be 15 bd 05 3e 7f 06 5f be d0 58 2c bc
       -0.3404307 0.1306041 -0.21779822 -0.010519221
000130 89 63 af bd 95 ed d8 bd b8 9d 69 3e 43 06 f7 bd
       -0.08563907 -0.1059219 0.22814071 -0.12061741
000140 dd c6 f6 3d d1 6a 76 3e 47 da 32 3e 0f 09 1a 3e
       0.12049649 0.24064185 0.17466079 0.15042518
000150 14 c2 07 bd f6 d4 3b be 2e a7 85 be bd f1 ab 3e
       -0.03314407 -0.18342957 -0.2610411 0.3358287
000160 96 3c a4 be 2d d5 b0 bd 00 58 99 3e e7 a7 89 bd
       -0.32077473 -0.0863441 0.2994995 -0.06721478
000170 8b 04 98 be 31 31 b2 3e db 72 ba bd 92 3a 17 3e
       -0.29690966 0.34803155 -0.09103938 0.14768437
000180 61 b0 24 3e 23 96 e6 bd d4 68 af be 1f 06 4e bd
       0.16082908 -0.11259105 -0.34259665 -0.050298806
000190 bd a9 8f be 43 e0 31 be 0d 46 98 be 96 d6 28 3e
       -0.28059188 -0.17370705 -0.29740945 0.16488108
0001a0 e1 d9 7e be 40 6d 30 3e e1 3c 98 3e e2 79 34 3e
       -0.24887802 0.17229176 0.29733947 0.1762462
0001b0 6c 13 57 3e be f8 75 3d dd 4e 72 3e b4 32 aa 3e
       0.21003503 0.060051672 0.23662896 0.33241808
0001c0 28 6b 9a 3d bf d7 19 3e 0c 2a 64 3e cb 5c 2f b9
       0.0753997 0.15023707 0.22281665 -0.00016723869
0001d0 b9 9b 9b 3e b9 4d af 3d f6 b9 5c be a3 76 89 be
       0.30392244 0.08559746 -0.21555313 -0.26848325
0001e0 ce 42 b8 3d f6 0e 8f be 77 59 a3 be b4 34 a8 3e
       0.08997117 -0.27941102 -0.31904194 0.3285271
0001f0 21 a2 88 3e a9 c3 c3 bd 73 77 34 3e 74 11 f5 3d
       0.26686195 -0.095588036 0.17623691 0.119662195
000200 d0 60 a7 3e 10 d7 dc 3d eb 8c 27 3e 43 74 81 be
       0.3269105 0.107832074 0.1636235 -0.25284013
000210 37 54 ef 3d 38 77 8b be 9c 48 8a be c8 4e 47 3e
       0.116859846 -0.27239394 -0.27008522 0.19463646
000220 60 2d 31 be 4d 3b 8c 3e 4a e2 b6 bd 71 21 3c 3e
       -0.17302465 0.27388993 -0.0892988 0.18372132
000230 4c ae a8 3e b7 2f 3c 3d 89 62 a4 3e ce 0d 64 be
       0.32945478 0.045943942 0.32106426 -0.22270891
000240 36 0d 40 3e f9 91 e3 3d ff ba 89 3e 87 84 a6 3e
       0.1875504 0.111118264 0.2690048 0.32522985
000250 25 79 96 bd b7 79 9b 3d d1 b6 36 be ce a6 19 3e
       -0.07347325 0.07591575 -0.17843176 0.15005037
000260 53 dd b5 ba 5d d4 26 be 71 0e 48 be 0e 90 b4 3d
       -0.0013875164 -0.16291948 -0.19536759 0.08816539
000270 d0 2f a1 3e ed 3b a0 be 75 c2 69 3e 3e b7 7e 3e
       0.3148179 -0.3129572 0.22828086 0.24874589
000280 ae 83 9c be b5 2a 25 3e 36 18 00 3d 60 cb 88 3e
       -0.30569214 0.16129573 0.03127309 0.26717663
000290 5e 0e 99 3e 3e 07 4b 3e 96 83 0d be d0 31 9e be
       0.29893774 0.19826981 -0.13819727 -0.3089738
0002a0 77 b9 7c 3e e9 5e 49 3a fb 32 13 3e 25 5b e4 3d
       0.24680124 0.0007681684 0.14374916 0.11150197
0002b0 ee fd 3f 3d 8c 00 89 3e 31 3c b5 bd cb 5e 12 3e
       0.046873026 0.2675823 -0.08849371 0.14293973
0002c0 eb 0c 28 3e a8 65 24 be 94 6a 1b 3e 2e c1 cd 3c
       0.16411178 -0.16054404 0.15177375 0.02511653
0002d0 47 e7 b3 be 07 3e 48 3e 32 f9 9f be 95 01 24 3e
       -0.35137388 0.19554912 -0.31244808 0.16016228
0002e0 31 c2 26 be 4c 0b 30 be aa ff 4a 3e 0b df 71 bc
       -0.16285016 -0.1719181 0.1982409 -0.01476265
0002f0 19 33 84 be 73 04 fb 3d c4 3d 47 be f9 2b a5 be
       -0.25820234 0.12256708 -0.19457155 -0.3226011
000300 09 9f 91 3e c6 b0 98 be ef 43 1a be 4b 64 5a be
       0.28441647 -0.29822367 -0.15064977 -0.21327321
000310 95 4d 8a 3e 67 95 02 bd 1d 33 97 be e9 79 54 3e
       0.27012315 -0.031880762 -0.29531184 0.2074963
000320 42 00 88 3e 93 08 df 3d 96 fe 1f bd 4e 17 ae be
       0.26562697 0.10890307 -0.03906115 -0.34002155
000330 01 95 5e bd b9 a6 46 3e 24 24 76 be 7f 5d b2 be
       -0.05434132 0.19399537 -0.24037224 -0.34836957
000340 7b c6 23 bb 27 e8 67 3d 2d d8 0d be 79 7e 15 be
       -0.002499013 0.056617882 -0.13851996 -0.14599027
000350 bb 65 8c be e5 2d 5b bd cc 65 a8 3e d8 c0 96 3e
       -0.27421364 -0.053510565 0.32890165 0.29444003
000360 f0 44 71 3d db 65 9a 3a 7a b6 a1 3e 67 02 58 3d
       0.058903635 0.0011779623 0.3158453 0.052736666
000370 e2 d7 47 bd 52 85 80 be 1a 35 a7 3e f6 db ac be
       -0.048789866 -0.25101715 0.326577 -0.33761567
000380 4f 23 fd bd 4c 04 9e 3d 2e dc 30 3d a3 86 ec bd
       -0.1236025 0.07715663 0.04317873 -0.115491174
000390 8e 9c a8 be 01 7c 10 3d 83 0e ae bd fe c4 7d be
       -0.32931942 0.03527451 -0.08498862 -0.24782178
0003a0 93 92 60 be 40 d3 30 be 9a 78 a7 be c5 a9 2f 3e
       -0.21930914 -0.17268085 -0.327092 0.17154606
0003b0 ee d1 ab bb b4 b5 9c be a9 de 37 3e 5b 12 8a 3e
       -0.0052435314 -0.30607378 0.17956032 0.2696713
0003c0 26 6e a1 3d 89 14 f3 bd bf 43 e8 bd 91 22 ea 3d
       0.07882337 -0.11869151 -0.113410465 0.11432374
0003d0 fa f5 aa 3e 43 1b 10 3d 10 e2 09 be a0 23 45 bd
       0.3339079 0.03518225 -0.13465142 -0.048129678
0003e0 d4 cb 0a 3e 10 ef 9d 3e 91 5f ad 3e 39 7b b4 3e
       0.13554317 0.30846453 0.33861974 0.3525026
0003f0 a3 3a 78 be ee 8d 70 3d 13 d4 9a 3c 33 39 95 3d
       -0.24241118 0.058729105 0.018899953 0.072863005

actor.customer_encoder.0.attention.combine.weight f4 [32, 32]
000000 46 df 1a bd 29 d3 10 be a1 3b 98 3d 30 0b f6 3d
       -0.037810586 -0.14143051 0.07433248 0.120138526
000010 ff 1c 32 3d 7a e0 12 3c 8a 63 12 3e c2 79 96 bd
       0.043484684 0.008964652 0.14295784 -0.07347442
000020 96 f5 bc bc 47 d5 4b 3d ab 0e de bd 73 2e 16 be
       -0.023066323 0.049763944 -0.108426414 -0.14666156
000030 c4 90 f9 bc 34 75 d8 3d bd 91 a1 bd ac c1 83 3d
       -0.030464537 0.1056923 -0.078891255 0.06433424
000040 96 14 a3 3b d9 77 2c 3e 2a 39 e7 3d 2d d9 af bd
       0.0049768193 0.16842593 0.112902 -0.08586345
000050 44 13 31 be 67 e3 bf 3d 55 d2 38 be c8 58 f8 bd
       -0.17292506 0.093695454 -0.18048985 -0.12126309
000060 bd 55 26 3e f3 fe 26 3d c7 3c 62 3c a6 81 fd bd
       0.16243644 0.040770482 0.013808436 -0.12378244
000070 d2 6c bc bc 5c 7f 9d 3c dd d5 b9 3d 24 92 93 bd
       -0.023001108 0.019225769 0.09073994 -0.072056085
000080 c8 f6 b7 bc 6b 02 1d 3d 34 f2 3a be c2 91 54 bd
       -0.022456542 0.038332384 -0.18256456 -0.051896818
000090 37 c2 27 be 37 d1 8a bd 7d d0 c4 bd dd a0 b4 3d
       -0.16382681 -0.06778186 -0.096100785 0.08819745
0000a0 53 92 e4 bd 1e eb 22 be c1 12 5c bc 30 9b 9d bd
       -0.11160722 -0.15910003 -0.013432206 -0.07695615
0000b0 71 f4 cc bd 25 a5 06 bd 9d 12 90 3d 0f 7e 24 be
       -0.10007561 -0.032872338 0.070348 -0.16063713
0000c0 25 2f 05 be f6 63 d3 3c 66 32 a1 3d 19 1a c6 3b
       -0.13006265 0.025804501 0.07870941 0.0060455916
0000d0 e7 6a 2d 3e e8 c2 b8 3d 85 42 f7 bd 2b 5a c1 3d
       0.16935311 0.090215504 -0.120732345 0.09441026
0000e0 04 0f a4 bd 1d 8e fb 3d 68 5d 36 bd b6 d0 0a 3e
       -0.080106765 0.12282965 -0.044522673 0.1355618
0000f0 db 53 20 bd 76 d8 14 bd 39 29 f8 bd ff 73 37 3e
       -0.03914247 -0.036339246 -0.121172376 0.17915343
000100 91 d9 f1 bd 9f 06 af bd 19 43 a4 bd 56 6c 47 be
       -0.118090756 -0.08546185 -0.0802061 -0.1947492
000110 b6 bc a3 bd 2f 0c 23 3e f0 59 d9 3d fc 84 22 3d
       -0.07994978 0.15922616 0.10612857 0.039677605
000120 ed c2 8f bd ab a1 d1 3b c5 a2 58 bd 9c 63 26 be
       -0.07019601 0.006397446 -0.052889604 -0.16248935
000130 b2 e9 0e 3e 58 c8 a9 3d 91 36 1f 3e e3 73 16 be
       0.13956335 0.08290166 0.15548159 -0.14692645
000140 b9 2a 2f 3d 43 ef ab 3d ac 12 67 bc 5d 88 c2 3d
       0.042765353 0.08395245 -0.014103573 0.094986655
000150 8f cf d7 3d 33 bc cf bd 49 d8 fa 3d 84 ac 41 3d
       0.105376355 -0.10143318 0.12248284 0.047283664
000160 5d 0c fc bc bf 60 8f 3d 51 d7 06 3e 4a 05 54 3d
       -0.030767614 0.07000875 0.13168074 0.051762857
000170 fb b7 c9 3d e5 ce 0c be da 1e cc bd 2c 87 c5 bc
       0.098495446 -0.13750799 -0.09966822 -0.024112307
000180 bc 3d b2 3d 87 fb ce 3d 63 56 11 bd ab 39 5a bd
       0.08703181 0.10106569 -0.035482775 -0.053277653
000190 56 04 fa bc 29 c5 75 bd c4 4a 15 3e 1a 8b c1 3d
       -0.030519646 -0.06000248 0.14579302 0.0945036
0001a0 a2 41 c0 3d 75 fc 97 bd d0 54 81 bd d7 4e 23 be
       0.093875185 -0.07421199 -0.06315005 -0.15948044
0001b0 a6 53 1f 3e 1e 9f 9a bd ec 24 ac bc 0b 1a d2 bd
       0.15559253 -0.075498804 -0.0210137 -0.102588736
0001c0 d4 49 63 3d 37 c1 94 3d 7b 16 35 be 84 09 16 3e
       0.05549033 0.07263415 -0.17684357 0.14652067
0001d0 c5 f8 6f 3d 2b 9c a1 3d c8 b9 15 be 46 97 81 3d
       0.058586854 0.07891115 -0.14621651 0.06327681
0001e0 1a 88 2a 3e 73 c2 0a 3e df de c6 bd c4 11 ff 3c
       0.16653481 0.13550739 -0.09710478 0.031136401
0001f0 78 c5 e2 bd 2c 6c 47 3d eb 24 86 3d 18 06 b7 3d
       -0.110728204 0.048687145 0.0655001 0.08936709
000200 0d 5b 15 be 90 b4 af 3d fb b4 0d bc 02 24 ff bd
       -0.14585514 0.085793614 -0.008649106 -0.1245804
000210 6d d3 8f bd 65 71 20 3e 63 a5 06 be 96 a5 de 3d
       -0.07022748 0.15668257 -0.13149028 0.10871427
000220 cc 1a 26 3e 88 44 f8 bd e4 1b 24 be be 8a 02 be
       0.1622116 -0.12122446 -0.16026264 -0.12748238
000230 4b fe df 3b 24 78 1c be 08 32 0b 3e e8 68 1a 3e
       0.006835734 -0.15280205 0.13593304 0.15079081
000240 e1 0c 20 bc 71 f5 c3 3d 6f 56 04 3e d6 b8 6a 3d
       -0.009768696 0.095682986 0.12923597 0.05730518
000250 92 85 9c bd fe 35 66 3b 9d a1 10 3e 08 af 5f bd
       -0.07642664 0.0035127397 0.1412415 -0.054610282
000260 9f d7 c8 3c 27 d3 5e bc a9 b7 6e bd d1 46 0e bd
       0.024516879 -0.013600147 -0.05828062 -0.034735505
000270 03 4b ab bd 24 c5 49 bd 75 06 2a 3e 85 41 0d bd
       -0.08363917 -0.049260274 0.16604026 -0.034486312
000280 ad 88 d4 bc f6 3a 19 3e 36 a3 7d 3d c5 18 0b be
       -0.025944078 0.14963898 0.06192323 -0.13583668
000290 bb 1d 42 bd 40 fb 89 bd 62 b1 b0 bd b7 82 1a be
       -0.047391634 -0.06737375 -0.08627583 -0.15088926
0002a0 9a 45 ac 3d cc 1f 09 3e 01 14 13 be be b8 2f 3e
       0.08411713 0.13391036 -0.143631 0.17160317
0002b0 3d 6e b2 3d 71 44 25 3e 5b c7 06 be 97 b9 6b 3d
       0.087124325 0.1613939 -0.13161986 0.05755004
0002c0 a0 ad 05 3e 1e 1b d1 3d 1d c0 49 bd 2b 4f ff 3d
       0.13054514 0.1021025 -0.04925548 0.12466272
0002d0 28 83 ca 3d 93 93 f3 bd 24 f8 b9 3d 7a da ab bd
       0.09888297 -0.11893382 0.09080532 -0.083912805
0002e0 bc 63 14 3e 0f 05 73 bd d2 5a e3 bd 6f 0f a8 3d
       0.1449117 -0.059330996 -0.11101307 0.08206069
0002f0 a6 6b c2 bd 8a 25 8d bd 3d 27 e3 3d 2d df 2e 3e
       -0.094931886 -0.06891926 0.110914685 0.17077322
000300 fb e3 85 3d 35 81 24 3e 1e 76 6f 3d df fd 97 bc
       0.065376244 0.16064914 0.058462255 -0.018553672
000310 b6 af 85 bd c6 01 43 bd 34 1e f2 3b bf 48 81 bc
       -0.06527655 -0.047609113 0.0073888544 -0.015781758
000320 e9 f6 26 3d 35 83 56 3d f2 f0 dc bd ca 9b bd bd
       0.040762816 0.052371223 -0.10788144 -0.0925823
000330 14 df 10 3e a7 6b 95 bd 8b e8 b7 3d 2d 48 24 3e
       0.14147598 -0.07295924 0.08979901 0.16043158
000340 11 8a 26 be 3a 95 04 3d 75 fc 20 3d e3 05 e9 bd
       -0.16263606 0.032368876 0.03930326 -0.11378076
000350 13 a0 44 bd e0 7d 9d bd 7e 28 2d be 5d b3 69 bd
       -0.04800422 -0.076900244 -0.16909978 -0.05705582
000360 82 c6 2a 3e d4 a8 2c 3e 40 4a da bd db 7c 7e bd
       0.16677287 0.16861278 -0.10658693 -0.06213079
000370 de 8f bd bd 6d 52 fd 3d 68 9e 0f be 23 2f 6e bd
       -0.09255956 0.12369237 -0.14025271 -0.05815042
000380 95 3d 77 bd f1 20 a4 bd 76 73 1f 3e 77 fc 19 be
       -0.060361464 -0.080140956 0.15571389 -0.15037714
000390 b9 05 03 be 41 8e 21 be 22 ff ac bd 8e aa ae 3d
       -0.12795152 -0.15776922 -0.084471 0.085286245
0003a0 d8 54 d5 3c 51 30 43 bc e3 a4 0d 3e 1b 54 ed 3d
       0.026041433 -0.011913375 0.1383243 0.115883075
0003b0 20 82 1e 3d 90 ee 0d 3d ed 97 80 bd 58 16 2c be
       0.038698316 0.03465134 -0.062789775 -0.16805398
0003c0 80 39 ed 3c eb 4c 21 3e f3 e5 0b 3e 2d 02 56 bc
       0.028958082 0.15751998 0.13661937 -0.013062042
0003d0 2b d5 00 bc 2d 60 26 3e 03 10 40 be 74 82 12 3e
       -0.007863323 0.16247626 -0.18756108 0.14307576
0003e0 4c 5b 26 3e fd 79 cf 3d df 6e a8 3d 39 70 11 3c
       0.16245764 0.10130689 0.08224272 0.008876854
0003f0 90 1e 62 3d 98 3f bc bd 29 e3 e0 bc cd a7 f8 bd
       0.055204928 -0.09191817 -0.027452068 -0.121413805

actor.customer_encoder.0.BN1.weight f4 [32]
000000 6d 28 80 3f df 03 81 3f 94 c1 80 3f 10 3c 7d 3f
       1.0012337 1.0079306 1.0059075 0.98919773
000010 fc ea 7f 3f 00 c7 7f 3f 7a b0 7f 3f a0 ec 81 3f
       0.9996793 0.99913025 0.99878657 1.0150337
000020 d4 0d 7f 3f 26 ea 7c 3f ba 95 80 3f ec 7c 80 3f
       0.99630475 0.9879478 1.0045693 1.0038123
000030 01 1b 80 3f b5 e6 81 3f f6 81 7a 3f 49 53 80 3f
       1.0008241 1.0148531 0.97854555 1.0025417
000040 f8 f1 7d 3f be 48 81 3f 33 60 82 3f 33 5b 80 3f
       0.9919734 1.0100324 1.0185608 1.0027832
000050 c4 4f 7c 3f 4e fa 7d 3f c8 09 7f 3f ec a8 7e 3f
       0.9855921 0.9921006 0.996243 0.99476504
000060 c8 9a 80 3f bf 85 7f 3f 54 73 7d 3f 0b f9 7f 3f
       1.0047235 0.99813455 0.990041 0.99989384
000070 68 ee 7f 3f c1 c3 7e 3f 7a ab 81 3f 25 c8 80 3f
       0.99973154 0.99517447 1.0130455 1.0061079

actor.customer_encoder.0.BN1.bias f4 [32]
000000 e9 cb 6a bb 15 4e 3d ba 31 df 21 bc 1d ec 89 ba
       -0.0035827106 -0.0007221413 -0.009879873 -0.0010522638
000010 e8 e8 fa bb 6c 43 26 ba 3c 81 44 3b da ab 30 3c
       -0.007657159 -0.0006342444 0.0029984256 0.01078316
000020 fd 4d 01 bc ba 94 81 bc e6 52 9a bc aa f4 80 38
       -0.007892129 -0.015817989 -0.018838357 6.149088e-05
000030 c2 1d 04 bc 03 8a 09 3c d6 fc 08 bc 74 0d 1b 3c
       -0.008063735 0.008394721 -0.008361062 0.009463657
000040 8b 2c 34 3c e4 26 72 3c c8 82 08 bc c4 58 df 3b
       0.010996948 0.01477978 -0.008331962 0.0068160016
000050 d3 13 81 bb 5d 28 1a 3b 15 a8 2f 3c f2 a7 70 3b
       -0.003939131 0.0023522594 0.010721226 0.0036721197
000060 d7 ec a9 3c a1 b5 a4 ba d3 fa 3e bc 11 ef c3 bb
       0.020742817 -0.0012566337 -0.011656481 -0.0059794267
000070 50 ab 04 bc 3a bd 3c 3a 73 0b 87 3b ee 3f c8 ba
       -0.008097485 0.0007199828 0.004121238 -0.0015277842

actor.customer_encoder.0.BN1.running_mean f4 [32]
000000 b6 18 57 3f c0 3b b2 be 48 f3 02 3f 6c 95 17 3f
       0.8402208 -0.3481121 0.5115247 0.59212375
000010 3b bf 3c bf a1 70 eb 3e 64 f9 51 3e aa 1e 0e 3e
       -0.73729295 0.45984367 0.20505291 0.13878885
000020 7e e4 c1 be 74 9c 9a 3e ca 57 4e be 0a 82 b8 3e
       -0.37869638 0.3019749 -0.20150676 0.36036712
000030 0f 1c 1c bf c8 f9 8e 3f 5b a3 2b 3f c7 54 c0 3e
       -0.60980314 1.1169977 0.67046136 0.3756468
000040 51 e2 86 bd 47 7d e4 be ac 45 bd 3d 79 62 17 3e
       -0.06586135 -0.4462683 0.092418045 0.14783658
000050 c3 ab b0 be 12 dc 3a bf 86 54 04 bf 99 af f9 be
       -0.34506044 -0.7299205 -0.5169147 -0.48766783
000060 22 8a 31 3e e2 56 9b 3d 88 8e 28 3e 7a 67 cd 3e
       0.1733785 0.07584931 0.16460621 0.4011801
000070 49 ed 16 3e fc 44 34 be 39 d9 78 3d 8f 69 45 bb
       0.14738955 -0.1760444 0.060754035 -0.0030122732

actor.customer_encoder.0.BN1.running_var f4 [32]
000000 02 ba a6 3c 62 01 39 3b ea 77 01 3d 59 02 84 3c
       0.020352367 0.0028229584 0.0316085 0.0161144
000010 91 96 e0 3c 72 0e f9 3c 1b 4d 77 3c a3 57 24 3b
       0.027415546 0.030402396 0.015094067 0.002507665
000020 98 20 23 3c 75 4b 1c 3b 1d 9f d5 3c 2d c9 5c 3c
       0.009956501 0.0023848687 0.026076848 0.013475698
000030 2a a1 93 3c 01 6c 50 3d 76 40 1e 3c 49 00 2a 3c
       0.018021185 0.05088425 0.009658923 0.010376045
000040 2e 28 bb 3b 9f ef 0c 3c 0d ab 2d 3c 20 72 f8 3b
       0.005711577 0.008602052 0.010599864 0.007581964
000050 61 b2 08 3c 09 a5 04 3d ed cb 23 3c f4 84 be 3b
       0.00834331 0.032383952 0.00999735 0.005814189
000060 f9 aa 75 3c 5e 89 09 3b a9 61 6f 3c d1 9a 5e 3c
       0.014994376 0.0020986418 0.014610686 0.013586716
000070 95 32 15 3d cf 95 82 3c 83 7c 83 3b 9f f3 56 3c
       0.036425192 0.015940575 0.0040126457 0.013119607
