output/282nodes_entropy0.01_0.4_0.85_2_230823/epoch88.pth (torch, 519145 bytes, 129 tensors)

critic.ff_layer1.weight f4 [32, 283]
0.13954613 0.102635786 -0.0026370974 0.034677602 -0.008661586 -0.0073838863 -0.010607289 0.033112615
0.04192244 -0.02515978 0.03774196 0.009282052 0.023298731 0.024622938 0.032370266 0.006119292
0.03309368 0.008215634 0.010363326 0.026994528 -0.0150875375 0.042403072 -0.011026363 0.06366925
-0.014086474 -0.0027026224 -0.030125923 -0.015870813 0.003964861 -0.010719063 0.06270495 -0.01395949
0.06260745 0.02781565 -0.006120635 0.050044145 0.022054603 0.07160131 -0.011237141 -0.014038342
0.04564171 -0.008361774 0.0035877924 0.041453935 0.04157764 0.0021707949 -0.0003040997 -0.015628291
0.015167836 -0.006396261 -0.02118649 -0.013146781 0.0047010183 0.039706357 0.007885948 0.02163374
-0.010562859 0.017449874 0.08398068 -0.026803115 0.05312761 -0.021443231 0.032923963 -0.02501725
-0.006485035 0.0029714042 0.02222185 -0.0038866724 0.00050976186 -0.0037721805 0.1359817 -0.0041130893
0.0691734 -0.007426629 -0.023016503 -0.013990764 0.01686298 0.013166025 0.026285615 0.11023865
-0.038843 -0.009195784 0.005943785 -0.048577204 0.04367526 0.014886754 0.03432409 -0.0070025334
0.0137179 0.013915771 -0.0007235781 0.0153074805 0.03959081 0.035817567 -0.008986512 -0.014413402
0.05950869 -0.0043866173 -0.023841955 0.00868847 -0.01681707 -0.020959191 -0.02226709 -0.037382163
0.0058766315 -0.019737454 -0.01023685 -0.0071223024 -0.036341056 -0.005301131 0.0465874 0.0010132409
0.041538287 -0.017378155 -0.006865846 -0.019829948 0.017370764 -0.0086242445 -0.018218724 -0.012770809
-0.0037032287 0.033432785 -0.014424243 -0.0015314192 -0.009569026 -0.017749108 -0.005824299 0.00072479434
0.04110101 0.00076345296 0.03012888 0.01596087 -0.03764583 0.026144814 0.0016344644 -0.0021117558
-0.041515954 -0.026445065 0.0132905515 -0.026813881 0.0001201048 -0.0006714526 0.059790336 0.020513909
-0.018549083 0.011008927 0.03492296 0.05285333 0.014913358 -0.031949334 -0.004147969 -0.026768003
0.020454492 0.00022482674 0.1120615 -0.031881332 -0.0031824016 -0.0110625755 0.0073934016 -0.0064657275
0.079534225 -0.041834444 0.012810697 -0.014946929 0.056005787 0.03763567 -0.005826769 0.071019895
-0.009871729 -0.022353845 -0.021096116 -0.018780496 0.069162905 -0.008712445 -0.053888354 0.01555579
0.010199089 0.028975949 0.057909563 0.0031031144 -0.0030585357 0.04861011 -0.018245442 -0.0062930393
0.00030677105 0.01889486 -0.010106682 0.031368863 -0.011425986 -0.011979681 -0.004462302 -0.036186725
0.056785807 0.009848255 0.0044091 0.0029357488 0.054014016 -0.022907017 -0.011621559 0.009487482
-0.010246073 -0.011743963 0.067812756 0.044577565 -0.01321618 -0.02572574 -0.002659573 -0.023424035
-0.0010139424 0.06680073 0.048695352 0.05420913 -0.0124735 -0.030495195 -0.00713657 0.031101337
0.005758931 0.010056218 0.027484164 -0.00040441245 -0.013599344 0.09601617 0.0054320605 -0.024001878
-0.015138543 0.06264687 0.05310997 0.0052878303 -0.017993867 -0.007573675 -0.0133221885 0.06320105
0.004228908 0.04986459 0.0022524446 0.0059622955 -0.015138097 -0.0015514276 -0.03642938 0.010287266
0.03295562 -0.018454056 0.007521718 -0.013883393 -0.00029081767 -0.013289611 -0.037536662 -0.0019390767
-0.015894253 0.08620473 0.035208967 -0.022117712 -0.02326173 0.004870277 0.0024609503 -0.012452169
00000000: 2ee5 0e3e b632 d23d 27d3 2cbb 1a0a 0e3d
00000010: 53e9 0dbc 87f4 f1bb 32ca 2dbc 18a1 073d
00000020: ddb6 2b3d e21b cebc 5097 1a3d bf13 183c
00000030: fbdc be3c 0bb6 c93c af96 043d 5884 c83b
00000040: 3d8d 073d de9a 063c f1ca 293c a123 dd3c
00000050: b831 77bc d8ae 2d3d eba7 34bc 0665 823d
00000060: f4ca 66bc 7b1e 31bb a4ca f6bc 8203 82bc
00000070: aaeb 813b 029f 2fbc 746b 803d 58b6 64bc
00000080: 5638 803d a5dd e33c 9c8f c8bb 17fb 4c3d
00000090: dbab b43c b5a3 923d fc1b 38bc 1301 66bc
000000a0: cdf2 3a3d d2ff 08bc 2b21 6b3b 9acb 293d
000000b0: 514d 2a3d e543 0e3b 926f 9fb9 e706 80bc
000000c0: 8482 783c ba97 d1bb 4a8f adbc 9965 57bc
000000d0: 000b 9a3b 22a3 223d 1034 013c 3e39 b13c
000000e0: d70f 2dbc 0af3 8e3c 10fe ab3d 3592 dbbc
000000f0: 569c 593d b7a9 afbc 47db 063d faf0 ccbc
00000100: 6b80 d4bb e4bb 423b 990a b63c 8bb7 7ebb
00000110: 8aa1 053a b036 77bb c93e 0b3e 18c7 86bb
00000120: c9aa 8d3d 145b f3bb 1b8d bcbc 8439 65bc
00000130: 3b24 8a3c 50b6 573c ee54 d73c cdc4 e13d
00000140: d619 1fbd eaa9 16bc 15c4 c23b e4f8 46bd
00000150: d4e4 323d 92e7 733c 6b97 0c3d 8275 e5bb
00000160: 0bc1 603c f9fe 633c 81ae 3dba 3acc 7a3c
00000170: f929 223d 71b5 123d 2a3c 13bc 3126 6cbc
00000180: 62bf 733d 9dbd 8fbb 3450 c3bc 165a 0e3c
00000190: f4c3 89bc 9cb2 abbc 7969 b6bc 0a1e 19bd
000001a0: c290 c03b 71b0 a1bc 76b8 27bc 3462 e9bb
000001b0: 5cda 14bd 1cb5 adbb 6ed2 3e3d b9ce 843a
000001c0: 0d24 2a3d a25c 8ebc e4fa e0bb 6a72 a2bc
000001d0: 224d 8e3c b44c 0dbc 6f3f 95bc a83c 51bc
000001e0: deb1 72bb d1f0 083d a953 6cbc e7b9 c8ba
000001f0: 67c7 1cbc 9466 91bc c3d9 bebb 2000 3e3a
00000200: 8859 283d 7622 483a d7d0 f63c 5fc0 823c
00000210: 8432 1abd a62d d63c 863b d63a 6265 0abb
00000220: a20c 2abd 52a3 d8bc 9dc0 593c c9a8 dbbc
00000230: c6e0 fb38 6c04 30ba b6e6 743d c90c a83c
00000240: 3ff4 97bc c95e 343c 610b 0f3d bc7c 583d
00000250: 2857 743c 4edd 02bd b0eb 87bb 9248 dbbc
00000260: 2e90 a73c 78bf 6b39 8080 e53d 0096 02bd
00000270: d78f 50bb ce3f 35bc 5944 f23b 74de d3bb
00000280: d7e2 a23d 985a 2bbd f5e3 513c f7e3 74bc
00000290: 5366 653d dc27 1a3d 7bee bebb e172 913d
000002a0: 08bd 21bc 691f b7bc c3d1 acbc 8ed9 99bc
000002b0: 48a5 8d3d a5be 0ebc 09ba 5cbd b6dd 7e3c
000002c0: 141a 273c f85e ed3c 9432 6d3d 9f5d 4b3b
000002d0: b771 48bb 651b 473d 7777 95bc d735 cebb
000002e0: 1dd6 a039 65c9 9a3c 7f96 25bc a37c 003d
000002f0: 0f34 3bbc 6d46 44bc 8138 92bb 8838 14bd
00000300: 3c98 683d 935a 213c 367a 903b b165 403b
00000310: cd3d 5d3d 7fa7 bbbc 5a68 3ebc 6271 1b3c
00000320: 25df 27bc c069 40bc 6ae1 8a3d f796 363d
00000330: ad88 58bc c9be d2bc 3b4c 2ebb c3e3 bfbc
00000340: 43e6 84ba d2ce 883d c774 473d 650a 5e3d
00000350: a75d 4cbc 0fd1 f9bc e3d9 e9bb 3bc8 fe3c
00000360: 6ab5 bc3b d6c2 243c 7826 e13c 5207 d4b9
00000370: c8cf 5ebc 20a4 c43d 6dff b13b 969f c4bc
00000380: a707 78bc 014d 803d d789 593d 8945 ad3b
00000390: e067 93bc 972c f8bb 4f45 5abc 8d6f 813d
000003a0: a792 8a3b d03e 4c3d c09d 133b 5c5f c33b
000003b0: c805 78bc 4659 cbba f936 15bd ec8b 283c
000003c0: 79fc 063d f62c 97bc be78 f63b 2c77 63bc
000003d0: e378 98b9 abbc 59bc 0bc0 19bd 9e28 feba
000003e0: aa34 82bc 1b8c b03d 4737 103d 3430 b5bc
000003f0: 628f bebc d896 9f3b e547 213b 2f04 4cbc

critic.ff_layer2.weight f4 [283, 32]
-0.099298276 0.43189305 0.028454429 -0.22865038 0.2090492 -0.12210253 0.20548765 -0.018048333
-0.17966457 0.09444054 -0.08808099 0.12398633 -0.19228771 -0.1749659 0.021222208 0.5351333
-0.11574377 -0.14663453 0.26447645 0.2868063 0.5098036 -0.12944634 -0.041119233 -0.16210796
0.47200057 0.22055317 0.17292534 -0.20831051 0.15736793 0.17853531 0.23464444 0.40977773
-0.122016296 -0.101078495 0.14157653 0.047611844 -0.03990477 -0.057880662 -0.16504613 -0.23114002
-0.13085303 -0.12506911 -0.024833003 -0.20145501 0.082595386 -0.1598828 -0.106162734 -0.07580098
-0.1096376 0.059282795 0.041733194 0.10377427 -0.030343117 0.02566529 -0.042044733 0.060256567
0.045699593 0.03191073 0.16662759 0.050764274 -0.0648816 0.124624476 -0.09972737 -0.060348563
-0.07882263 -0.018448671 0.042785175 -0.16736273 -0.13920553 -0.033121318 0.011082753 0.14641693
-0.1384665 0.043834884 0.06808681 -0.13662887 0.036927283 -0.047864895 0.02560568 -0.025468996
-0.10692339 -0.0749145 0.13770898 -0.0012054717 -0.049308613 0.036104925 0.12681586 -0.0947092
-0.05935834 -0.069801144 -0.07933873 -0.03639533 -0.017778736 -0.059477165 -0.05044006 -0.1153319
-0.14304926 -0.032437272 0.08271386 0.064424016 0.13648541 0.05962254 -0.12552392 -0.04679113
-0.12626551 0.040114336 -0.014215018 0.04105529 -0.14269927 0.07509854 -0.13943514 -0.04395024
-0.15740068 0.042741615 -0.1178303 -0.17893498 -0.034656547 0.1024543 -0.04636768 0.03669239
0.0013546397 -0.17855014 0.059467696 0.025101056 -0.13276601 0.055427123 0.13812381 0.11211949
-0.15166773 0.023587879 0.14216651 -0.0024868278 -0.08760201 0.05276959 -0.19858283 -0.09340187
-0.028614845 0.09829119 -0.065746754 0.097723775 0.016058967 -0.001958533 0.06507922 -0.017373614
0.059140664 0.052247204 -0.07425507 0.062328197 -0.035133764 -0.117064975 0.025394242 0.016457457
-0.121006474 0.061299033 0.084430434 0.024400622 -0.040256165 0.021012725 0.03834929 -0.0426207
0.024637341 -0.09732032 -0.01745338 -0.029566942 0.066529356 0.040587213 0.11806401 -0.12788011
-0.054435827 -0.032312725 0.11365546 0.121564314 0.055775378 -0.10652613 -0.114562914 -0.019505832
-0.20441146 -0.08309643 -0.04598164 0.043220468 -0.07294609 -0.16099256 0.06506951 -0.14507888
-0.007936349 0.111752674 0.04621005 -0.13674785 -0.020697758 -0.03260363 0.06511969 0.09882089
0.10465155 -0.041202024 0.09312197 -0.13934523 0.10715174 0.06996544 -0.15937121 -0.04658752
-0.06357042 -0.0651088 -0.016389545 -0.06846456 0.06488712 -0.06914748 0.12445304 -0.019518096
-0.07908871 -0.02083965 0.051731274 -0.094515055 -0.046022 -0.13630988 0.098520584 -0.0022734923
-0.03525735 0.06275468 0.00669763 -0.084961295 -0.044907805 -0.0069851433 0.13865249 -0.08810927
-0.15051126 -0.15863699 -0.12547526 -0.066531055 0.061142404 0.026907457 0.021774532 0.004923382
-0.015436043 -0.14038472 0.11538981 0.12010152 0.0008361556 0.0032210427 -0.0077594365 -0.02751841
-0.016031614 0.015719183 -0.10189203 -0.013588522 -0.02804902 -0.12562568 0.045981646 0.0595251
-0.011548273 0.04361243 -0.05790747 0.017496781 -0.15203921 0.03613958 -0.12548685 -0.101279266
00000000: e55c cbbd 1621 dd3e 4319 e93c 5323 6abe
00000010: fe10 563e e410 fabd 5b6b 523e 19da 93bc
00000020: fdf9 37be 0b6a c13d ce63 b4bd 8cec fd3d
00000030: 12e7 44be 432a 33be 32da ad3c 7ffe 083f
00000040: 120b edbd 5d27 16be 7569 873e 46d8 923e
00000050: 7d82 023f 958d 04be a46c 28bd a1ff 25be
00000060: 0faa f13e b1d8 613e 5713 313e 5a4f 55be
00000070: 0f25 213e f6d1 363e a246 703e 63ce d13e
00000080: aee3 f9bd 3e02 cfbd 70f9 103e a304 433d
00000090: 2f73 23bd 4614 6dbd da01 29be f8af 6cbe
000000a0: 56fe 05be 1e12 00be 956e cbbc 394a 4ebe
000000b0: c527 a93d 51b8 23be d96b d9bd 8b3d 9bbd
000000c0: ae89 e0bd 84d2 723d 6df0 2a3d 9b87 d43d
000000d0: 2192 f8bc 0440 d23c 1937 2cbd 97cf 763d
000000e0: 7f2f 3b3d d3b4 023d 6ca0 2a3e 33ee 4f3d
000000f0: a5e0 84bd 1e3b ff3d dd3d ccbd 0e30 77bd
00000100: c26d a1bd ab21 97bc 823f 2f3d 2361 2bbe
00000110: e58b 0ebe 38aa 07bd 6f94 353c 52ee 153e
00000120: 2aca 0dbe 358c 333d 1971 8b3d 70e8 0bbe
00000130: 1041 173d fb0d 44bd 01c3 d13c 5ba4 d0bc
00000140: a6fa dabd c66c 99bd 9503 0d3e eb00 9eba
00000150: d4f7 49bd c2e2 133d 04dc 013e e6f6 c1bd
00000160: bb21 73bd e7f3 8ebd 587c a2bd 4513 15bd
00000170: b6a4 91bc 549e 73bd 3d9a 4ebd 2233 ecbd
00000180: 817b 12be f2dc 04bd e265 a93d bdf0 833d
00000190: d5c2 0b3e c436 743d 5889 00be 0ea8 3fbd
000001a0: bf4b 01be ee4e 243d 1be6 68bc 9729 283d
000001b0: c21f 12be 43cd 993d 16c8 0ebe 2b05 34bd
000001c0: a52d 21be d511 2f3d 0351 f1bd bb3a 37be
000001d0: 06f4 0dbd 8fd3 d13d 09ec 3dbd c24a 163d
000001e0: 2a8e b13a d9d5 36be 6694 733d bba0 cd3c
000001f0: d0f3 07be 8d07 633d 5470 0d3e e79e e53d
00000200: c94e 1bbe 5e3b c13c 1994 113e 0cfa 22bb
00000210: af68 b3bd ed24 583d 4c59 4bbe 7b49 bfbd
00000220: ae69 eabc e44c c93d 3ca6 86bd 6723 c83d
00000230: 188e 833c bb5a 00bb 4148 853d 1c53 8ebc
00000240: 7b3d 723d 2a01 563d 0b13 98bd da4b 7f3d
00000250: 6ce8 0fbd c3bf efbd 9607 d03c cad1 863c
00000260: 3ed2 f7bd b214 7b3d dde9 ac3d d0e3 c73c
00000270: a6e3 24bd e122 ac3c 2514 1d3d 0b93 2ebd
00000280: 40d4 c93c e04f c7bd 64fa 8ebc 5f36 f2bc
00000290: 8b40 883d c73e 263d 8bcb f13d 01f3 02be
000002a0: 1af8 5ebd 595a 04bd 32c4 e83d b6f6 f83d
000002b0: b974 643d 5f2a dabd f69f eabd b2ca 9fbc
000002c0: 3d51 51be 762e aabd 3f57 3cbd f207 313d
000002d0: c264 95bd 3cdb 24be 2a43 853d 8f8f 14be
000002e0: 7607 02bc 96de e43d c046 3d3d a107 0cbe
000002f0: 588e a9bc 628b 05bd 795d 853d 9b62 ca3d
00000300: 8d53 d63d 74c3 28bd bbb6 be3d 84b0 0ebe
00000310: 5f72 db3d 0a4a 8f3d 3532 23be 8ed2 3ebd
00000320: 3531 82bd c357 85bd 5e43 86bc 2637 8cbd
00000330: 8ae3 843d 329d 8dbd 3ce1 fe3d 6ae4 9fbc
00000340: 43f9 a1bd eab7 aabc 2ce4 533d 1c91 c1bd
00000350: 9181 3cbd d194 0bbe 29c5 c93d dffe 14bb
00000360: 036a 10bd 8785 803d cb77 db3b 3000 aebd
00000370: 3ff1 37bd a1e3 e4bb ebfa 0d3e a272 b4bd
00000380: a01f 1abe bc71 22be 967c 00be 6f41 88bd
00000390: 7570 7a3d 076d dc3c 8160 b23c 5254 a13b
000003a0: 75e7 7cbc 03c1 0fbe 7e51 ec3d c9f7 f53d
000003b0: 7431 5b3a 2118 533b df42 febb 4a6e e1bc
000003c0: bb54 83bc 84c5 803c c5ac d0bd 64a2 5ebc
000003d0: 0fc7 e5bc 05a4 00be 4057 3c3d 97d0 733d
000003e0: f834 3dbc f3a2 323d 6230 6dbd 6955 8f3c
000003f0: 2bb0 1bbe 1907 143d a07f 00be 816b cfbd

actor.customer_encoder.0.attention.query_embed.weight f4 [32, 32]
0.3717966 0.019778265 0.1776255 0.36556417 -0.374994 -0.07602255 -0.17025235 -0.21535446
0.20527376 0.17086141 0.30911177 0.41549826 -0.25074163 0.08260782 0.15207016 -0.07419411
0.23296973 0.32452568 -0.41470236 -0.13111399 0.12914684 -0.30287984 -0.13780858 0.15466756
0.127199 -0.20128912 -0.016552687 0.07686134 0.4178814 -0.25820425 0.048818424 -0.13120648
0.38450432 0.26814514 -0.0150452 -0.13517551 0.31549576 -0.01640204 -0.09200223 0.28889075
0.08586745 0.013594253 0.34144115 -0.13748334 0.24864823 0.2155338 -0.2032836 0.33070153
0.13144629 -0.25129646 0.24117987 -0.32221958 -0.00092619925 0.13557546 0.15056947 -0.33958462
0.33557358 0.30209145 0.23233911 0.15842435 -0.18462141 0.24985409 0.06815064 -0.080694824
-0.16167822 0.08982586 -0.13204594 -0.3285494 -0.1747201 -0.16141263 -0.038262572 -0.20159458
-0.085866064 -0.207988 -0.27678835 0.15324323 -0.040565047 -0.17534554 -0.06672041 0.021052431
-0.27461916 0.20183058 0.19374742 0.21057749 -0.19910811 0.3601521 0.24636228 0.160732
0.16601177 -0.19069071 0.064196095 0.26140255 0.08773223 0.004148245 -0.3785629 -0.08796736
-0.20387462 0.27394235 -0.027356628 -0.06794851 -0.3819886 -0.28293023 -0.15496206 0.15849724
-0.06355062 0.15276763 0.35603145 -0.18219784 0.06888828 0.06387267 -0.27376857 -0.03130838
0.08324975 -0.16238679 -0.28109035 0.26797113 0.10406858 -0.33929121 -0.36913323 0.03975349
-0.17075658 0.076445445 0.18452795 0.08422106 0.24946928 0.14177217 -0.019138347 0.05699366
-0.12349019 -0.18425788 -0.38054252 0.12994075 0.30845752 -0.12432105 0.21756476 0.2742517
0.06624891 0.17697874 -0.00067263714 0.16771254 0.20145595 0.20217398 0.30109113 -0.14001612
0.10150866 0.1348437 -0.22649583 -0.27313066 -0.03581774 0.18123257 0.3051298 -0.11137077
-0.16771956 -0.30845448 0.1875628 -0.20773152 0.0787731 0.14182168 -0.070307165 0.34073207
0.26526937 -0.043201867 0.002578255 0.2352872 -0.21735877 -0.28793678 0.23348565 -0.18293451
0.022337975 0.020047855 0.26128134 0.065178715 0.027676504 0.08484836 -0.14768843 -0.3505668
0.29870576 -0.26854226 -0.2734743 -0.09339368 0.21835384 -0.15298998 0.25885147 0.122279815
0.24450089 -0.13490978 0.16977783 0.08828437 0.3249188 -0.16924585 0.32446072 -0.2299287
-0.20587648 0.3268272 0.21410333 0.2324654 -0.21107848 0.32031992 -0.09384435 0.30770358
0.21138832 -0.33019337 -0.06746193 0.3991852 0.18661045 0.08052061 -0.007588414 0.14887358
-0.09661213 -0.10667663 -0.26290488 -0.05689961 -0.2549722 -0.2158166 0.21148391 0.20222633
-0.15319432 -0.07601158 -0.14124896 0.20474702 -0.18029188 -0.20027341 0.18072422 0.006780701
0.13276196 -0.03918498 0.37487283 -0.03996611 0.27858165 0.05404487 0.3377895 -0.20834517
0.1960339 -0.12429814 0.20738661 -0.2542173 0.18814401 -0.072125115 -0.13443698 -0.12689283
0.2573461 -0.053264108 -0.091957785 0.29765645 0.22660767 0.010798877 -0.13671266 0.08766797
-0.07183594 0.3033974 0.14425084 0.26547652 0.22328633 -0.09413971 -0.25838792 -0.1325428
00000000: 205c be3e 0706 a23c 76e3 353e 3a2b bb3e
00000010: 37ff bfbe b6b1 9bbd a256 2ebe e185 5cbe
00000020: 4933 523e 4bf6 2e3e e643 9e3e 30bc d43e
00000030: 3561 80be 4a2e a93d 48b8 1b3e 15f3 97bd
00000040: 9e8f 6e3e 3b28 a63e de53 d4be bf42 06be
00000050: 123f 043e 1113 9bbe b11d 0dbe 2c61 1e3e
00000060: 7440 023e bc1e 4ebe 8099 87bc 7a69 9d3d
00000070: 8df4 d53e 5933 84be d4f5 473d fe5a 06be
00000080: c0dd c43e 524a 893e 2480 76bc 736b 0abe
00000090: a988 a13e 925d 86bc aa6b bcbd 7de9 933e
000000a0: 46db af3d 6eba 5e3c 60d1 ae3e 6fc8 0cbe
000000b0: a49d 7e3e e4b4 5c3e 9329 50be b651 a93e
000000c0: db99 063e eea9 80be dbf7 763e f7f9 a4be
000000d0: 2ecc 72ba 4bd4 0a3e e22e 1a3e 09de adbe
000000e0: 4dd0 ab3e bbab 9a3e 4eea 6d3e fe39 223e
000000f0: 650d 3dbe c0d9 7f3e 9092 8b3d 5443 a5bd
00000100: fa8e 25be 9ff6 b73d 0d37 07be a137 a8be
00000110: d3e9 32be 5a49 25be 37b9 1cbd cf6e 4ebe
00000120: 8cda afbd cefa 54be 34b7 8dbe cbeb 1c3e
00000130: 8927 26bd c88d 33be b6a4 88bd 2676 ac3c
00000140: e29a 8cbe adac 4e3e b965 463e a0a1 573e
00000150: ffe2 4bbe db65 b83e 6546 7c3e ee96 243e
00000160: fdfe 293e 6d44 43be 3e79 833d 8ed6 853e
00000170: f5ac b33d 00ee 873b ffd2 c1be 3b28 b4bd
00000180: 82c4 50be 2c42 8c3e 021b e0bc 9728 8bbd
00000190: 0394 c3be 3bdc 90be 60ae 1ebe 1a4d 223e
000001a0: d426 82bd 1e6f 1c3e c149 b63e 1292 3abe
000001b0: 4c15 8d3d adcf 823d 652b 8cbe 373d 00bd
000001c0: d87e aa3d b948 26be 13eb 8fbe 8333 893e
000001d0: e821 d53d 94b7 adbe 08ff bcbe 8ed4 223d
000001e0: d0da 2ebe 6e8f 9c3d e5f4 3c3e 177c ac3d
000001f0: e074 7f3e b92c 113e 06c8 9cbc 2f72 693d
00000200: 6de8 fcbd 19ae 3cbe 78d6 c2be 300f 053e
00000210: 25ee 9d3e 099c febd 4cc9 5e3e b86a 8c3e
00000220: 82ad 873d ea39 353e ea53 30ba d6bc 2b3e
00000230: 784a 4e3e b206 4f3e 9e28 9a3e 6360 0fbe
00000240: c6e3 cf3d 7814 0a3e 86ee 67be c8d7 8bbe
00000250: 9fb5 12bd 0895 393e f939 9c3e 5c16 e4bd
00000260: adbe 2bbe bfed 9dbe 7610 403e 92b7 54be
00000270: cb53 a13d b439 113e 34fd 8fbd 6f74 ae3e
00000280: 63d1 873e 71f4 30bd f1f7 283b 21ef 703e
00000290: 4c93 5ebe 736c 93be dd16 6f3e 2f53 3bbe
000002a0: 21fe b63c 663b a43c abc6 853e 6b7c 853d
000002b0: d6b9 e23c fac4 ad3d a33b 17be 7e7d b3be
000002c0: f6ef 983e 5f7e 89be d304 8cbe 3045 bfbd
000002d0: 2698 5f3e 68a9 1cbe 2e88 843e d76d fa3d
000002e0: 715e 7a3e ca25 0abe 3dda 2d3e 70ce b43d
000002f0: c25b a63e c94e 2dbe b71f a63e 6e72 6bbe
00000300: 49d1 52be e555 a73e e73d 5b3e 690b 6e3e
00000310: f524 58be f900 a43e 7731 c0bd 538b 9d3e
00000320: 2e76 583e 1b0f a9be 7b29 8abd 0162 cc3e
00000330: cf16 3f3e fde7 a43d 3ba8 f8bb 5172 183e
00000340: 95dc c5bd 4779 dabd 789b 86be 910f 69bd
00000350: b78b 82be 07ff 5cbe 3d8f 583e 6b14 4f3e
00000360: f9de 1cbe f6ab 9bbd 91a3 10be 34a9 513e
00000370: 6f9e 38be 7914 4dbe c50f 393e a530 de3b
00000380: c0f2 073e 6e80 20bd 55ef bf3e 81b3 23bd
00000390: 41a2 8e3e 275e 5d3d bff2 ac3e 7058 55be
000003a0: 1cbd 483e 0690 febd 285d 543e c528 82be
000003b0: d3a8 403e 55b6 93bd d9a9 09be 32f0 01be
000003c0: dec2 833e 772b 5abd 5d54 bcbd 6d66 983e
000003d0: d70b 683e c6ed 303c 67fe 0bbe 448b b33d
000003e0: b91e 93bd e756 9b3e 7eb6 133e 8aec 873e
000003f0: 2ca5 643e 52cc c0bd 6c4b 84be 4db9 07be

actor.customer_encoder.0.attention.key_embed.weight f4 [32, 32]
-0.1349592 0.023248656 0.069714405 0.39977023 0.34158346 -0.33113268 0.13665715 -0.23317009
-0.1755506 0.16545469 -0.27786115 0.33275533 0.08707967 0.07268498 0.24575917 -0.33333415
0.075273104 0.088679835 -0.19983254 -0.15001403 0.09617086 0.33600035 -0.13246901 0.22205484
0.1651347 -0.1961902 -0.25558338 -0.03520631 0.25738105 -0.24625401 -0.2419173 0.28341827
-0.206562 -0.24082887 -0.012264679 0.32342565 0.22995602 0.19376726 0.055893343 -0.19581322
-0.281376 0.18309465 0.11506916 0.089025654 -0.11313115 -0.35711914 0.027178956 -0.04875718
-0.026414348 0.045819458 -0.19806579 -0.21234927 -0.08628289 0.12722293 -0.2257652 0.33094728
-0.34109777 -0.21497303 0.10121743 -0.34128213 -0.20401028 0.16173205 -0.2404349 0.109107345
-0.178158 -0.14912859 0.055435218 0.027421271 0.32816628 0.07317943 0.06454783 -0.20403872
0.2804244 -0.01597954 0.2062126 -0.27929524 0.19061692 0.28087202 0.20890498 0.28182316
-0.15284444 -0.24341562 0.13847668 0.16269958 -0.2061794 -0.11202244 -0.0035399445 -0.00681856
0.17114179 0.26129204 0.10340814 -0.14331461 -0.22678988 0.30081344 0.02924144 -0.17479688
-0.25039333 -0.26202273 0.3266747 -0.1829101 -0.33975056 -0.28819218 -0.19090104 0.023636239
-0.23585269 0.16398028 -0.07935149 -0.13264412 -0.2500741 -0.08212867 0.3826585 -0.0066716964
0.100108154 -0.3673074 0.1913945 0.03394829 -0.07481419 0.026709748 -0.1602982 -0.27534348
-0.1920508 0.10555105 0.30647802 -0.24879894 0.18491825 -0.13570936 0.2735464 0.05356624
-0.31395167 -0.2769266 0.092806056 0.17480366 0.101498276 0.10738499 -0.04615984 -0.21489486
0.03555062 -0.292686 0.18263373 -0.12890646 -0.30012143 0.027894748 0.09486759 -0.26642555
-0.21634236 -0.04606365 -0.13594483 0.2966378 0.072526574 -0.118308276 -0.28630733 -0.24893896
0.12842146 -0.07005524 0.05319268 0.07310491 0.24122313 -0.015791751 0.1568851 -0.32913712
0.2559367 -0.3267464 -0.12461309 -0.31845745 0.20015055 -0.12072542 -0.36452234 -0.15722942
0.19675714 0.26275465 0.22073613 -0.337038 -0.16225901 0.06454689 0.003914614 -0.20441349
0.35036227 -0.24250625 0.2364816 0.21732607 -0.31574225 -0.20986027 -0.2152042 0.27380002
-0.32724154 0.003702778 -0.11122659 -0.1051399 -0.2095094 -0.2719665 -0.31815633 -0.01689724
0.018461522 0.06583865 0.09093465 -0.12439066 0.21037003 0.18970472 -0.28895974 0.342643
-0.027651122 -0.00012076034 -0.35379356 0.18191236 0.12894809 0.09526725 0.18853064 -0.33000955
0.35110202 0.21983752 -0.101412505 0.18099365 -0.13887298 -0.09677241 0.0014316487 0.2275426
0.18301499 -0.12993552 -0.29832432 -0.019946214 -0.15249926 -0.000932181 0.16640393 0.24716848
0.015565513 0.16852416 0.06745775 -0.18966806 0.20511162 -0.2307058 -0.006990944 -0.17863251
0.0082593635 0.27900276 0.12495143 -0.02811088 -0.31048083 -0.26616618 -0.0953487 -0.16643812
0.06657001 -0.3244996 0.33974928 -0.08701201 0.2289811 0.23810433 0.28220823 -0.050851833
0.027355962 0.18243834 -0.26983777 -0.022124426 0.13513702 -0.034961447 -0.2522958 0.04739757
00000000: bf32 0abe f773 be3c 6dc6 8e3d afae cc3e
00000010: 07e4 ae3e 398a a9be daef 0b3e 24c4 6ebe
00000020: 89c3 33be f46c 293e d143 8ebe e85e aa3e
00000030: d356 b23d dddb 943d 4ba8 7b3e c6aa aabe
00000040: c928 9a3d c69d b53d e7a0 4cbe 479d 19be
00000050: 3af5 c43d 3d08 ac3e f5a5 07be 5862 633e
00000060: 1219 293e 15e6 48be d3db 82be 7e34 10bd
00000070: 73c7 833e 032a 7cbe 2bb9 77be 331c 913e
00000080: fd84 53be d89b 76be cbf1 48bc 0c98 a53e
00000090: 9779 6b3e ed6a 463e 6bf0 643d 4383 48be
000000a0: 8410 90be 2a7d 3b3e 61a9 eb3d 1553 b63d
000000b0: 4eb1 e7bd 52d8 b6be 67a6 de3c 9cb5 47bd
000000c0: e762 d8bc 2fad 3b3d c2d1 4abe 1672 59be
000000d0: 15b5 b0bd ba46 023e fe2e 67be ec71 a93e
000000e0: 5ea4 aebe e421 5cbe 154b cf3d 88bc aebe
000000f0: 12e8 50be 169d 253e 9134 76be ac73 df3d
00000100: 0d6f 36be 2ab5 18be 0a10 633d 93a2 e03c
00000110: 6905 a83e 19df 953d a731 843d 87ef 50be
00000120: c993 8f3e 86e7 82bc 6529 533e c9ff 8ebe
00000130: 1531 433e 75ce 8f3e 30eb 553e 204b 903e
00000140: 4183 1cbe f241 79be d5cc 0d3e b89a 263e
00000150: b120 53be 056c e5bd 6afe 67bb 3a6e dfbb
00000160: cb3f 2f3e 12c8 853e a6c7 d33d 11c1 12be
00000170: 9b3b 68be 3804 9a3e bf8b ef3c f4fd 32be
00000180: 8e33 80be d827 86be e841 a73e c94c 3bbe
00000190: c9f3 adbe ed8d 93be 907b 43be c9a0 c13c
000001a0: 5e83 71be 72ea 273e 0983 a2bd dcd3 07be
000001b0: b609 80be 1333 a8bd d1eb c33e 3f9e dabb
000001c0: 8105 cd3d b70f bcbe ebfc 433e 5d0d 0b3d
000001d0: 2f38 99bd 67ce da3c 3625 24be d2f9 8cbe
000001e0: f7a8 44be 262b d83d b0ea 9c3e 26c5 7ebe
000001f0: 365b 3d3e 65f7 0abe 460e 8c3e 4668 5b3d
00000200: 46be a0be 53c9 8dbe 1a11 be3d bbff 323e
00000210: 54de cf3d a9ec db3d 1a12 3dbd 660d 5cbe
00000220: 879d 113d f0da 95be 5604 3b3e 0e00 04be
00000230: 84a9 99be 8783 e43c f049 c23d ee68 88be
00000240: da88 5dbe 3dad 3cbd 1f35 0bbe e9e0 973e
00000250: d088 943d 9c4b f2bd e096 92be dbe9 7ebe
00000260: ea80 033e 1f79 8fbd 91e0 593d 07b8 953d
00000270: 3203 773e b45d 81bc 7da6 203e a984 a8be
00000280: 230a 833e 4e4b a7be 2635 ffbd db0c a3be
00000290: 44f4 4c3e e43e f7bd aca2 babe c000 21be
000002a0: b47a 493e c787 863e a708 623e 3f90 acbe
000002b0: 3a27 26be 2931 843d 2a46 803b c551 51be
000002c0: af62 b33e 8f53 78be 3c28 723e ba8a 5e3e
000002d0: f8a8 a1be 9ce5 56be 7d5e 5cbe 842f 8c3e
000002e0: 348c a7be 4eaa 723b c4ca e3bd 9753 d7bd
000002f0: a289 56be 313f 8bbe 63e5 a2be 156c 8abc
00000300: 9e3c 973c 6ad6 863d f23b ba3d 88c0 febd
00000310: 3e6b 573e f441 423e 88f2 93be e76e af3e
00000320: 9b84 e2bc b740 fdb8 6e24 b5be 3c47 3a3e
00000330: f80a 043e 7a1b c33d 2d0e 413e 03f7 a8be
00000340: a5c3 b33e 161d 613e 5cb1 cfbd 6656 393e
00000350: b834 0ebe 9d30 c6bd 29a6 bb3a ed00 693e
00000360: 4868 3b3e d10d 05be f7bd 98be 3e66 a3bc
00000370: c428 1cbe 9c5d 74ba cb65 2a3e bc19 7d3e
00000380: 7e06 7f3c 9991 2c3e 4a27 8a3d 5838 42be
00000390: c808 523e 243e 6cbe 4a14 e5bb 71eb 36be
000003a0: 4852 073c 73d9 8e3e 89e6 ff3d ca48 e6bc
000003b0: 58f7 9ebe ef46 88be 2e46 c3bd c16e 2abe
000003c0: db55 883d d024 a6be 9ef3 ad3e 5a33 b2bd
000003d0: 057a 6a3e 9fd1 733e 997d 903e 034a 50bd
000003e0: 9c19 e03c 1ed1 3a3e 2d28 8abe 493e b5bc
000003f0: 5c61 0a3e bc33 0fbd ea2c 81be f423 423d

actor.customer_encoder.0.attention.value_embed.weight f4 [32, 32]
0.061875112 0.33031896 0.11238672 0.13023835 -0.33379087 0.1421214 0.18948966 -0.108406074
-0.22025837 -0.04291826 -0.3040828 0.32529408 -0.21434091 0.31820825 -0.35074902 0.22537816
-0.14778249 -0.27227965 0.09943187 0.3255131 -0.16854154 0.04963082 -0.23154189 0.23037434
0.31827697 -0.09637901 0.33872348 0.18297578 0.047714993 -0.15210928 0.2437863 0.018186701
-0.14952488 -0.34780785 -0.3426746 0.35248893 -0.18684368 -0.26377052 0.224172 -0.10113865
-0.26363224 0.07137619 -0.052258085 0.13640495 0.32850468 -0.089004405 0.20135623 -0.098783866
-0.11662446 0.117913306 -0.07902408 0.09498032 0.07873276 -0.2831402 -0.08286644 0.31901702
-0.0021708156 0.33517605 0.26719102 -0.09921916 -0.15990375 0.1166283 -0.05838312 -0.0456396
-0.024169153 -0.2283354 0.22255829 -0.13815509 -0.28794718 -0.27615908 -0.22554924 0.065203406
-0.3404307 0.1306041 -0.21779822 -0.010519221 -0.08563907 -0.1059219 0.22814071 -0.12061741
0.12049649 0.24064185 0.17466079 0.15042518 -0.03314407 -0.18342957 -0.2610411 0.3358287
-0.32077473 -0.0863441 0.2994995 -0.06721478 -0.29690966 0.34803155 -0.09103938 0.14768437
0.16082908 -0.11259105 -0.34259665 -0.050298806 -0.28059188 -0.17370705 -0.29740945 0.16488108
-0.24887802 0.17229176 0.29733947 0.1762462 0.21003503 0.060051672 0.23662896 0.33241808
0.0753997 0.15023707 0.22281665 -0.00016723869 0.30392244 0.08559746 -0.21555313 -0.26848325
0.08997117 -0.27941102 -0.31904194 0.3285271 0.26686195 -0.095588036 0.17623691 0.119662195
0.3269105 0.107832074 0.1636235 -0.25284013 0.116859846 -0.27239394 -0.27008522 0.19463646
-0.17302465 0.27388993 -0.0892988 0.18372132 0.32945478 0.045943942 0.32106426 -0.22270891
0.1875504 0.111118264 0.2690048 0.32522985 -0.07347325 0.07591575 -0.17843176 0.15005037
-0.0013875164 -0.16291948 -0.19536759 0.08816539 0.3148179 -0.3129572 0.22828086 0.24874589
-0.30569214 0.16129573 0.03127309 0.26717663 0.29893774 0.19826981 -0.13819727 -0.3089738
0.24680124 0.0007681684 0.14374916 0.11150197 0.046873026 0.2675823 -0.08849371 0.14293973
0.16411178 -0.16054404 0.15177375 0.02511653 -0.35137388 0.19554912 -0.31244808 0.16016228
-0.16285016 -0.1719181 0.1982409 -0.01476265 -0.25820234 0.12256708 -0.19457155 -0.3226011
0.28441647 -0.29822367 -0.15064977 -0.21327321 0.27012315 -0.031880762 -0.29531184 0.2074963
0.26562697 0.10890307 -0.03906115 -0.34002155 -0.05434132 0.19399537 -0.24037224 -0.34836957
-0.002499013 0.056617882 -0.13851996 -0.14599027 -0.27421364 -0.053510565 0.32890165 0.29444003
0.058903635 0.0011779623 0.3158453 0.052736666 -0.048789866 -0.25101715 0.326577 -0.33761567
-0.1236025 0.07715663 0.04317873 -0.115491174 -0.32931942 0.03527451 -0.08498862 -0.24782178
-0.21930914 -0.17268085 -0.327092 0.17154606 -0.0052435314 -0.30607378 0.17956032 0.2696713
0.07882337 -0.11869151 -0.113410465 0.11432374 0.3339079 0.03518225 -0.13465142 -0.048129678
0.13554317 0.30846453 0.33861974 0.3525026 -0.24241118 0.058729105 0.018899953 0.072863005
00000000: c270 7d3d 911f a93e 022b e63d 345d 053e
00000010: a3e6 aabe 4688 113e 9409 423e 0104 debd
00000020: 698b 61be 0fcb 2fbd beb0 9bbe f28c a63e
00000030: 2f7c 5bbe 31ec a23e 6095 b3be 88c9 663e
00000040: 4b54 17be 3d68 8bbe f0a2 cb3d a7a9 a63e
00000050: 2796 2cbe b049 4b3d 5119 6dbe 40e7 6b3e
00000060: 33f5 a23e 5c62 c5bd 2a6d ad3e 015e 3b3e
00000070: cc70 433d 89c2 1bbe 1ea3 793e 47fc 943c
00000080: 0d1d 19be df13 b2be 0c73 afbe 6e79 b43e
00000090: f353 3fbe ee0c 87be 588d 653e c821 cfbd
000000a0: cefa 86be ae2d 923d 930c 56bd bdad 0b3e
000000b0: c431 a83e f147 b6bd 5430 4e3e 324f cabd
000000c0: ced8 eebd 887c f13d 60d7 a1bd 0b85 c23d
000000d0: a43e a13d c1f7 90be e1b5 a9bd 3356 a33e
000000e0: 3e44 0ebb 329c ab3e 43cd 883e 6a33 cbbd
000000f0: cfbd 23be d1da ee3d 2323 6fbd 97f0 3abd
00000100: 63fe c5bc c1d0 69be 52e6 633e 8778 0dbe
00000110: d06d 93be b964 8dbe 61f6 66be 5d89 853d
00000120: ef4c aebe 15bd 053e 7f06 5fbe d058 2cbc
00000130: 8963 afbd 95ed d8bd b89d 693e 4306 f7bd
00000140: ddc6 f63d d16a 763e 47da 323e 0f09 1a3e
00000150: 14c2 07bd f6d4 3bbe 2ea7 85be bdf1 ab3e
00000160: 963c a4be 2dd5 b0bd 0058 993e e7a7 89bd
00000170: 8b04 98be 3131 b23e db72 babd 923a 173e
00000180: 61b0 243e 2396 e6bd d468 afbe 1f06 4ebd
00000190: bda9 8fbe 43e0 31be 0d46 98be 96d6 283e
000001a0: e1d9 7ebe 406d 303e e13c 983e e279 343e
000001b0: 6c13 573e bef8 753d dd4e 723e b432 aa3e
000001c0: 286b 9a3d bfd7 193e 0c2a 643e cb5c 2fb9
000001d0: b99b 9b3e b94d af3d f6b9 5cbe a376 89be
000001e0: ce42 b83d f60e 8fbe 7759 a3be b434 a83e
000001f0: 21a2 883e a9c3 c3bd 7377 343e 7411 f53d
00000200: d060 a73e 10d7 dc3d eb8c 273e 4374 81be
00000210: 3754 ef3d 3877 8bbe 9c48 8abe c84e 473e
00000220: 602d 31be 4d3b 8c3e 4ae2 b6bd 7121 3c3e
00000230: 4cae a83e b72f 3c3d 8962 a43e ce0d 64be
00000240: 360d 403e f991 e33d ffba 893e 8784 a63e
00000250: 2579 96bd b779 9b3d d1b6 36be cea6 193e
00000260: 53dd b5ba 5dd4 26be 710e 48be 0e90 b43d
00000270: d02f a13e ed3b a0be 75c2 693e 3eb7 7e3e
00000280: ae83 9cbe b52a 253e 3618 003d 60cb 883e
00000290: 5e0e 993e 3e07 4b3e 9683 0dbe d031 9ebe
000002a0: 77b9 7c3e e95e 493a fb32 133e 255b e43d
000002b0: eefd 3f3d 8c00 893e 313c b5bd cb5e 123e
000002c0: eb0c 283e a865 24be 946a 1b3e 2ec1 cd3c
000002d0: 47e7 b3be 073e 483e 32f9 9fbe 9501 243e
000002e0: 31c2 26be 4c0b 30be aaff 4a3e 0bdf 71bc
000002f0: 1933 84be 7304 fb3d c43d 47be f92b a5be
00000300: 099f 913e c6b0 98be ef43 1abe 4b64 5abe
00000310: 954d 8a3e 6795 02bd 1d33 97be e979 543e
00000320: 4200 883e 9308 df3d 96fe 1fbd 4e17 aebe
00000330: 0195 5ebd b9a6 463e 2424 76be 7f5d b2be
00000340: 7bc6 23bb 27e8 673d 2dd8 0dbe 797e 15be
00000350: bb65 8cbe e52d 5bbd cc65 a83e d8c0 963e
00000360: f044 713d db65 9a3a 7ab6 a13e 6702 583d
00000370: e2d7 47bd 5285 80be 1a35 a73e f6db acbe
00000380: 4f23 fdbd 4c04 9e3d 2edc 303d a386 ecbd
00000390: 8e9c a8be 017c 103d 830e aebd fec4 7dbe
000003a0: 9392 60be 40d3 30be 9a78 a7be c5a9 2f3e
000003b0: eed1 abbb b4b5 9cbe a9de 373e 5b12 8a3e
000003c0: 266e a13d 8914 f3bd bf43 e8bd 9122 ea3d
000003d0: faf5 aa3e 431b 103d 10e2 09be a023 45bd
000003e0: d4cb 0a3e 10ef 9d3e 915f ad3e 397b b43e
000003f0: a33a 78be ee8d 703d 13d4 9a3c 3339 953d

actor.customer_encoder.0.attention.combine.weight f4 [32, 32]
-0.030294307 -0.12753822 0.07143928 0.114023894 0.03331934 0.020957278 0.1538567 -0.061331708
-0.02521499 0.05170321 -0.10445025 -0.14413075 -0.033901032 0.10066464 -0.08974061 0.056137573
-0.008488477 0.15048905 0.09898113 -0.09452982 -0.17435533 0.09683508 -0.17067727 -0.1082712
0.1533257 0.048292544 0.011757844 -0.1248426 -0.04182282 0.013793382 0.09703319 -0.08215444
-0.026613938 0.041415546 -0.17212868 -0.05081461 -0.1659997 -0.06268045 -0.10073765 0.09175292
-0.110304736 -0.16948141 -0.02343418 -0.08398646 -0.09460156 -0.055564508 0.0734083 -0.15006216
-0.13200493 0.027312407 0.092559755 0.0040338337 0.16507138 0.08559742 -0.13213141 0.09117217
-0.0860734 0.12648407 -0.028282188 0.14282398 -0.026179608 -0.043443423 -0.1284022 0.16733807
-0.11404612 -0.082387574 -0.082971215 -0.1944324 -0.077404186 0.15570666 0.113615386 0.038626
-0.068027265 0.0052087656 -0.0526288 -0.16394408 0.13923071 0.09026094 0.16146395 -0.14520667
0.04094203 0.08975772 -0.009350872 0.09834296 0.10589936 -0.105584614 0.117335916 0.040442083
-0.039064035 0.060618997 0.13552676 0.051442858 0.08707301 -0.13701436 -0.10007109 -0.027200999
0.09642442 0.099454366 -0.04798045 -0.040375154 -0.029418495 -0.06800368 0.14803791 0.089844055
0.1040196 -0.063621856 -0.051143084 -0.14932911 0.14410871 -0.06758153 -0.01924918 -0.11317358
0.04735434 0.08291141 -0.1712316 0.14095409 0.049520105 0.08615688 -0.14424694 0.056104913
0.17020704 0.12401281 -0.09434812 0.02172477 -0.11141451 0.058648776 0.07180485 0.08996318
-0.1516474 0.08890049 -0.0027367915 -0.12579766 -0.08124486 0.16507593 -0.14622015 0.119798556
0.15751708 -0.11812541 -0.15971301 -0.12201299 0.0055542844 -0.1667456 0.1242423 0.1462813
-0.016225442 0.09077889 0.11137386 0.04662445 -0.081820935 0.013659444 0.15000309 -0.043542143
0.03526165 -0.0030796307 -0.064384006 -0.03932297 -0.078976266 -0.049685113 0.17276494 -0.034901783
-0.019167883 0.1587337 0.05879837 -0.1357622 -0.04896035 -0.06612223 -0.0707665 -0.1490671
0.08616567 0.1332376 -0.14087978 0.16884072 0.082559004 0.16993834 -0.11302304 0.0604698
0.12482388 0.11599151 -0.031539056 0.13034143 0.095710345 -0.13018379 0.07601677 -0.10121377
0.13941707 -0.07759279 -0.093163684 0.08047721 -0.0931537 -0.062916435 0.109999016 0.16491978
0.05420509 0.16404596 0.07406519 -0.03162965 -0.06830535 -0.034473576 0.0012620073 -0.009276664
0.025535768 0.036302757 -0.12545905 -0.10650699 0.15756118 -0.09066964 0.08179274 0.17516837
-0.15614933 0.012448162 0.03591261 -0.1121994 -0.037215706 -0.08705704 -0.17105348 -0.041514006
0.15135735 0.1874305 -0.10403302 -0.04333606 -0.09482735 0.10133121 -0.15325862 -0.06650285
-0.054780688 -0.07546006 0.144699 -0.1568022 -0.13040388 -0.15275092 -0.07008276 0.0875317
0.027110958 -0.0060039726 0.1415576 0.11927818 0.041682232 0.05316364 -0.06515092 -0.17301263
0.0364805 0.15357718 0.13021247 -0.00842301 0.0031433187 0.1650353 -0.17772008 0.14890388
0.16659231 0.10155396 0.066675715 0.0066841953 0.04765978 -0.08854245 -0.026557935 -0.109476976
00000000: c42b f8bc 6199 02be c24e 923d 5c85 e93d
00000010: dc79 083d 99ae ab3c 9c8c 1d3e f536 7bbd
00000020: ab8f cebc bfc6 533d 03ea d5bd 0397 13be
00000030: cfdb 0abd 4329 ce3d edc9 b7bd 83f0 653d
00000040: 4113 0bbc cd19 1a3e 9eb6 ca3d da98 c1bd
00000050: 348a 32be 7851 c63d 06c6 2ebe 4abd ddbd
00000060: 6a01 1d3e 67ce 453d f9a3 403c 7aad ffbd
00000070: 684e 2bbd a3fd 613c 56b9 c63d 9640 a8bd
00000080: 7905 dabc 59a3 293d 8042 30be fb22 50bd
00000090: d3fb 29be 9c5e 80bd 8b4f cebd f4e8 bb3d
000000a0: 73e7 e1bd 898c 2dbe 0af9 bfbc 1801 acbd
000000b0: 76be c1bd 9c97 63bd 1757 963d e5a9 19be
000000c0: 4d2c 07be 45be df3c f88f bd3d 402e 843b
000000d0: 7908 293e b34d af3d 754d 07be 7ab8 ba3d
000000e0: 4047 b0bd 0a85 013e 0cb0 e7bc 7340 123e
000000f0: 9e76 d6bc bbf1 31bd de7b 03be ac5a 2b3e
00000100: 0391 e9bd d1ba a8bd d0ec a9bd 4919 47be
00000110: 1686 9ebd 9171 1f3e 2faf e83d 4c36 1e3d
00000120: e151 8bbd 4bae aa3b 4c91 57bd f5e0 27be
00000130: 7f92 0e3e bada b83d ce56 253e 0fb1 14be
00000140: d4b2 273d e5d2 b73d 6634 19bc 0968 c93d
00000150: c3e1 d83d bf3c d8bd d04d f03d 99a6 253d
00000160: 9c01 20bd a04b 783d 87c7 0a3e bfb5 523d
00000170: 5653 b23d 7e4d 0cbe 12f2 ccbd a1d4 debc
00000180: 2b7a c53d bbae cb3d 2687 44bd 6b60 25bd
00000190: 0eff f0bc 8345 8bbd 4097 173e 2900 b83d
000001a0: 3a08 d53d 2d4c 82bd 697b 51bd bbe9 18be
000001b0: 3c91 133e 2f68 8abd 75b0 9dbc 8dc7 e7bd
000001c0: a0f6 413d 75cd a93d 5657 2fbe 4556 103e
000001d0: 98d5 4a3d 0573 b03d 78b5 13be 44ce 653d
000001e0: c14a 2e3e 6efa fd3d 9639 c1bd 25f8 b13c
000001f0: 4a2d e4bd b339 703d 6c0e 933d 9e3e b83d
00000200: 7549 1bbe 7611 b63d be5b 33bb 1ad1 00be
00000210: b563 a6bd aa09 293e bcba 15be f258 f53d
00000220: 284c 213e bceb f1bd cf8b 23be f2e1 f9bd
00000230: b700 b63b 5cbf 2abe bf72 fe3d c4ca 153e
00000240: 38eb 84bc 48ea b93d fa17 e43d 47f9 3e3d
00000250: bc91 a7bd dccb 5f3c 699a 193e 3f59 32bd
00000260: 856e 103d a1d3 49bb c3db 83bd 1f11 21bd
00000270: 4fbe a1bd 9e82 4bbd 4be9 303e 2cf5 0ebd
00000280: f705 9dbc 168b 223e 8fd6 703d 3f05 0bbe
00000290: a68a 48bd 176b 87bd 07ee 90bd 0ca5 18be
000002a0: a077 b03d 706f 083e ca42 10be 95e4 2c3e
000002b0: b214 a93d 5104 2e3e a078 e7bd 2eaf 773d
000002c0: aaa3 ff3d f58c ed3d 192f 01bd 3978 053e
000002d0: c903 c43d e64e 05be aeae 9b3d 2a49 cfbd
000002e0: 59c3 0e3e f8e8 9ebd 9acc bebd 3cd1 a43d
000002f0: 5ec7 bebd 55da 80bd 2a47 e13d bbe0 283e
00000300: 2806 5e3d aafb 273e 7eaf 973d 188e 01bd
00000310: ade3 8bbd 2a34 0dbd f069 a53a 26fd 17bc
00000320: 6330 d13c 33b2 143d 5678 00be 5620 dabd
00000330: b857 213e 01b1 b9bd f482 a73d 565f 333e
00000340: 9ce5 1fbe 60f3 4b3c 1a19 133d cdc8 e5bd
00000350: 7f6f 18bd f64a b2bd a528 2fbe 970a 2abd
00000360: 6cfd 1a3e c8ed 3f3e 440f d5bd 2781 31bd
00000370: d734 c2bd bd86 cf3d d4ef 1cbe a532 88bd
00000380: b761 60bd ce8a 9abd fa2b 143e c290 20be
00000390: 9888 05be bd6a 1cbe 8d87 8fbd d243 b33d
000003a0: cd17 de3c f9bc c4bb 7af4 103e 1e48 f43d
000003b0: fdba 2a3d 1ec2 593d d86d 85bd 392a 31be
000003c0: 946c 153d 5643 1d3e 6b56 053e aa00 0abc
000003d0: 2300 4e3b 04ff 283e 41fc 35be 427a 183e
000003e0: 2d97 2a3e 86fb cf3d 478d 883d 1807 db3b
000003f0: e736 433d be55 b5bd 0790 d9bc 7735 e0bd

actor.customer_encoder.0.BN1.weight f4 [32]
1.0039406 1.024461 1.0048372 0.97157604 0.9971939 0.98655295 1.000309 1.0307499
0.9964444 0.9915167 1.0062293 1.014455 0.9955318 1.0024635 0.97172165 1.0012727
0.9810758 1.0005 1.0382549 1.0020729 0.9908009 0.9901958 0.9991544 0.99562854
1.0059057 0.9952709 0.9893513 0.99747527 1.0006783 0.9745644 1.0201571 1.0022205
00000000: 2081 803f 8a21 833f 819e 803f 35b9 783f
00000010: 1948 7f3f bc8e 7c3f 200a 803f 9def 833f
00000020: fb16 7f3f 0ad4 7d3f 1fcc 803f a9d9 813f
00000030: 2cdb 7e3f b950 803f c0c2 783f b429 803f
00000040: c927 7b3f 6210 803f 89e5 843f ed43 803f
00000050: 21a5 7d3f 797d 7d3f 95c8 7f3f 83e1 7e3f
00000060: 85c1 803f 13ca 7e3f 2046 7d3f 8a5a 7f3f
00000070: 3a16 803f 0d7d 793f 8294 823f c348 803f

actor.customer_encoder.0.BN1.bias f4 [32]
-0.01638741 -0.035578553 -0.0058074966 0.0020031803 -0.010146112 -0.0023444484 0.0069754664 0.033453528
0.016206823 0.009851884 -0.03635667 0.0007897196 -0.006343099 0.007869575 -0.023256289 -0.0023635505
-0.0013734818 0.0015056756 -0.013483788 -0.0013934005 -0.015601867 0.016707946 0.015219409 0.015450606
0.020082071 -0.01859455 -0.008806307 -0.0017153986 -0.015712816 0.03097923 0.023604406 -0.0067810146
00000000: e43e 86bc d1ba 11bd d04c bebb ca47 033b
00000010: e13b 26bc 51a5 19bb 7492 e43b 9106 093d
00000020: 2cc4 843c cc69 213c bbea 14bd 2f05 4f3a
00000030: c5d9 cfbb 64ef 003c f983 bebc cce5 1abb
00000040: 6706 b4ba 175a c53a 1beb 5cbc c3a2 b6ba
00000050: f99e 7fbc 1adf 883c d45a 793c 8a24 7d3c
00000060: 2883 a43c 9953 98bc 5448 10bc 3ad7 e0ba
00000070: 2ab8 80bc 27c8 fd3c 075e c13c 4633 debb

actor.customer_encoder.0.BN1.running_mean f4 [32]
0.7008369 -0.40269086 0.4702523 0.6098119 -0.82436556 0.46171638 0.115180224 0.1076045
-0.29891562 0.2681068 -0.20903118 0.25677228 -0.6132277 1.0963182 0.5338765 0.31687352
-0.20297873 -0.31903607 0.14872229 0.1805966 -0.23361515 -0.4489508 -0.53445935 -0.45620397
0.16374755 0.028842673 0.18854743 0.40010428 0.13770841 -0.088441275 0.06812861 -0.07722538
00000000: 0c6a 333f 7f2d cebe e9c4 f03e a21c 1c3f
00000010: 9f09 53bf 1766 ec3e 9ce3 eb3d c05f dc3d
00000020: 780b 99be 4b45 893e 450c 56be a877 833e
00000030: 7efc 1cbf 2854 8c3f 21ac 083f 3f3d a23e
00000040: a8d9 4fbe b258 a3be a84a 183e 51ee 383e
00000050: cf38 6fbe e1dc e5be 54d2 08bf 9193 e9be
00000060: 70ad 273e 7847 ec3c 9412 413e 78da cc3e
00000070: 6f03 0d3e b320 b5bd 0387 8b3d 5728 9ebd

actor.customer_encoder.0.BN1.running_var f4 [32]
0.018944483 0.0028491642 0.03421622 0.017705426 0.031171001 0.030875893 0.01495768 0.0028222883
0.010489656 0.002844614 0.025089815 0.014075775 0.02057794 0.0566503 0.01106316 0.011379341
0.0054178974 0.007865659 0.010964933 0.006646055 0.008222044 0.03269714 0.01239656 0.0048529883
0.015213313 0.001975607 0.015607683 0.015256071 0.03783819 0.015470719 0.0038191834 0.013544641
00000000: 7631 9b3c 0bb9 3a3b 4f26 0c3d f80a 913c
00000010: 545a ff3c 71ef fc3c 0f11 753c 24f6 383b
00000020: cedc 2b3c b46c 3a3b 2889 cd3c 149e 663c
00000030: 1193 a83c 250a 683d 4242 353c 6a70 3a3c
00000040: 9e88 b13b f7de 003c 43a6 333c 26c7 d93b
00000050: c1b5 063c 70ed 053d f11a 4b3c d105 9f3b
00000060: 4241 793c 2f79 013b 5eb7 7f3c 9af4 793c
00000070: 38fc 1a3d e678 7d3c 444b 7a3b 58ea 5d3c

actor.customer_encoder.0.FFN_layer1.weight f4 [32, 32]
-0.01650856 -0.1688542 0.091838636 -0.08208395 0.11052856 -0.12648158 0.14857064 -0.02264547
0.17014085 0.07794776 0.11499581 0.026630877 -0.10968291 0.020603562 0.1567843 -0.15922883
0.05360759 -0.025737276 0.12657642 -0.12498247 -0.1371617 0.047214817 -0.04555594 -0.068184145
0.03685024 0.1290637 -0.12969942 -0.015008368 -0.07460534 -0.013349543 -0.08303414 0.17047913
0.10572062 0.07611087 -0.051713824 0.09515281 -0.1068826 -0.1442506 -0.10844147 -0.0618936
-0.13636017 0.11270233 -0.0073607685 -0.064275876 -0.110193074 0.14931993 0.16544764 -0.11606378
0.13787289 0.009845913 -0.063778475 0.08392003 -0.13565752 -0.17801505 -0.018908035 0.11810107
0.148809 0.15431623 0.07844831 0.042883996 0.017321572 -0.12236176 0.15223956 0.14473882
-0.1533501 -0.23139049 -0.031401537 -0.07197901 -0.08341346 0.16705033 -0.028152458 0.20330942
-0.016767548 -0.027909907 -0.011517125 -0.05975029 -0.058781546 -0.073883206 -0.07979371 0.019734865
0.06872415 0.018354367 0.058397043 -0.061456934 -0.17002514 0.06266256 0.027535446 -0.19710776
0.17976333 -0.05407169 -0.12570287 -0.105012655 -0.04543235 -0.15331751 0.027405944 -0.10373376
-0.11449369 0.18230605 -0.057645723 -0.021489978 -0.10484764 -0.007241586 -0.10463722 -0.11145305
-0.09096732 -0.03957893 0.06403716 0.068420656 0.11013808 -0.084170245 -0.14494601 -0.01977864
0.12932777 0.030425372 0.14946029 0.14144185 0.10570295 -0.021215213 0.022502996 -0.1262596
0.034848493 0.024123589 -0.13647242 -0.117097646 -0.08727918 0.005706091 -0.010443582 0.04417024
-0.078363895 0.15134978 -0.08865563 0.100466065 0.17220871 0.15020773 -0.092042655 -0.105647646
-0.07519551 -0.1125013 -0.048469424 -0.055383556 0.075176835 0.14056762 0.057177067 0.034910213
-0.03600255 -0.05818624 0.19840817 -0.15782689 0.0075399484 -0.15897407 -0.053089757 -0.12367293
-0.19104238 0.10242985 -0.08077401 0.0363405 0.15055943 -0.03035209 0.04227451 -0.059276067
0.11065404 0.18183365 -0.0611629 -0.15004294 0.13149087 0.1344887 0.08484602 -0.0007725605
0.043612946 0.032661173 0.020758605 -0.054474253 0.04973224 0.15628117 -0.053102117 -0.13760158
-0.11272217 -0.0026260598 0.07347931 0.011922101 0.17322072 0.03981172 0.07248745 -0.15782751
0.115180425 0.14958443 0.04719563 0.07130993 -0.16268776 0.14708598 -0.014204307 -0.16869162
0.07213916 0.09811101 0.13433664 0.17369112 0.011369932 0.11855714 0.19201465 0.07954235
0.047703546 -0.04230878 -0.11966682 0.08098435 -0.14765632 0.02328933 -0.15434179 -0.16870603
-0.058841832 -0.16537268 0.09326153 0.03391384 -0.067741245 0.14485651 0.058544103 0.09454024
-0.0987217 -0.16508722 -0.03641151 0.13629031 -0.13305132 -0.1385966 0.022669127 0.052520562
0.07995482 0.0078278845 -0.03094898 -0.07946105 -0.003423242 0.13584302 -0.114712335 -0.16479832
-0.0043507656 0.008682693 0.11656932 0.047209017 0.18373965 -0.08857503 0.07308363 -0.08411658
-0.113952644 -0.082762025 0.20899175 -0.10699394 -0.024356721 0.035511058 -0.103327826 0.035030145
-0.12657116 0.14634897 0.13569441 0.07055014 0.11218278 0.07072882 0.016725857 0.025590064
00000000: f63c 87bc 1ee8 2cbe e515 bc3d a11b a8bd
00000010: cc5c e23d 6384 01be e722 183e fe82 b9bc
00000020: 6739 2e3e 13a3 9f3d ec82 eb3d ff28 da3c
00000030: 6fa1 e0bd cdc8 a83c 108c 203e e20c 23be
00000040: a293 5b3d fbd6 d2bc 409d 013e cff6 ffbd
00000050: 1e74 0cbe 5364 413d de98 3abd 21a4 8bbd
00000060: 47f0 163d 4629 043e edcf 04be a8e5 75bc
00000070: afca 98bd 0bb8 5abc ce0d aabd 1592 2e3e
00000080: 0d84 d83d 04e0 9b3d e0d1 53bd 7adf c23d
00000090: 44e5 dabd 6eb6 13be 9016 debd 2584 7dbd
000000a0: 00a2 0bbe 7bd0 e63d 9a32 f1bb 12a3 83bd
000000b0: e8ac e1bd 53e7 183e 1b6b 293e d9b2 edbd
000000c0: 8d2e 0d3e c150 213c 4a9e 82bd 44de ab3d
000000d0: cee9 0abe 9449 36be 06e5 9abc f9de f13d
000000e0: 6361 183e 1305 1e3e 82a9 a03d 21a7 2f3d
000000f0: f8e5 8d3c cd98 fabd b0e4 1b3e 6a36 143e
00000100: cf07 1dbe a1f1 6cbe e69e 00bd bb69 93bd
00000110: add4 aabd 3e0f 2b3e fc9f e6bc 5830 503e
00000120: 195c 89bc 51a3 e4bc 53b2 3cbc b8bc 74bd
00000130: ebc4 70bd 1450 97bd e26a a3bd 03ab a13c
00000140: 3fbf 8c3d e65b 963c bd31 6f3d 44ba 7bbd
00000150: 121b 2ebe 3a55 803d 0492 e13c 9ed6 49be
00000160: e113 383e 477a 5dbd 41b8 00be e010 d7bd
00000170: 4617 3abd 44ff 1cbe 6e82 e03c 5e72 d4bd
00000180: ab7b eabd 70ae 3a3e ec1d 6cbd c00b b0bc
00000190: 5cba d6bd d44a edbb 0a4c d6bd 7f41 e4bd
000001a0: 134d babd 841d 22bd ea25 833d 2120 8c3d
000001b0: 1390 e13d 7361 acbd ba6c 14be d006 a2bc
000001c0: 806e 043e a13e f93c 1e0c 193e 22d6 103e
000001d0: ca7a d83d 87cb adbc 3458 b83c 324a 01be
000001e0: 4bbd 0e3d d59e c53c 6dbf 0bbe e4d0 efbd
000001f0: 6dbf b2bd 29fa ba3b 8f1b 2bbc dbeb 343d
00000200: 407d a0bd 70fb 1a3e 1591 b5bd 27c1 cd3d
00000210: 7b57 303e 0ed0 193e dc80 bcbd cb5d d8bd
00000220: 1b00 9abd 1567 e6bd e087 46bd ded9 62bd
00000230: 50f6 993d f5f0 0f3e 8032 6a3d 03fe 0e3d
00000240: 6977 13bd b254 6ebd 832b 4b3e 5f9d 21be
00000250: ac11 f73b 19ca 22be a574 59bd 3c48 fdbd
00000260: 9da0 43be bec6 d13d d86c a5bd c7d9 143d
00000270: 402c 1a3e f2a4 f8bc 0928 2d3d 76cb 72bd
00000280: 969e e23d 9a32 3a3e f385 7abd dba4 19be
00000290: 8ba5 063e 68b7 093e c0c3 ad3d a885 4aba
000002a0: 7da3 323d b9c7 053d f30d aa3c 6520 5fbd
000002b0: 09b4 4b3d 2c08 203e 9b81 59bd 6ee7 0cbe
000002c0: e2da e6bd f919 2cbb 527c 963d ea54 433c
000002d0: c660 313e 9d11 233d 4d74 943d 899d 21be
000002e0: b7e3 eb3d a92c 193e 3450 413d f10a 923d
000002f0: 9f97 26be b59d 163e 2fb9 68bc 7fbd 2cbe
00000300: b2bd 933d 6dee c83d 8b8f 093e 16dc 313e
00000310: f448 3a3c 16ce f23d 7d9f 443e 19e7 a23d
00000320: cb64 433d f94b 2dbd e113 f5bd 1fdb a53d
00000330: 3833 17be 44c9 be3c c60b 1ebe 46c1 2cbe
00000340: 2204 71bd 7557 29be e7ff be3d 3de9 0a3d
00000350: ecbb 8abd 4455 143e f1cb 6f3d 509e c13d
00000360: 9a2e cabd a00c 29be 3c24 15bd b08f 0b3e
00000370: 9b3e 08be 44ec 0dbe 9bb4 b93c cd1f 573d
00000380: 5abf a33d 8740 003c b788 fdbc 7abc a2bd
00000390: 7858 60bb 6f1a 0b3e 4dee eabd e4c0 28be
000003a0: de90 8ebb db41 0e3c e5bb ee3d 3e5e 413d
000003b0: 3f26 3c3e d366 b5bd dfac 953d 5045 acbd
000003c0: 0160 e9bd 237f a9bd ef01 563e a41f dbbd
000003d0: bf87 c7bc 0b74 113d 8a9d d3bd c57b 0f3d
000003e0: df9b 01be 81dc 153e 7af3 0a3e 987c 903d
000003f0: 16c0 e53d 46da 903d aa04 893c 41a2 d13c

actor.customer_encoder.0.FFN_layer1.bias f4 [32]
0.037169907 0.07802276 -0.009414139 0.083282895 0.0120733725 -0.12951021 0.17534046 -0.010797907
-0.067842096 0.07747068 0.032471564 -0.15693401 0.14416885 -0.01835852 0.06605557 -0.012080282
-0.15772682 -0.12487314 -0.03310137 -0.048936088 0.13608888 0.034123536 0.14333655 0.17498316
0.021818617 -0.058524784 -0.0052283127 -0.05274542 -0.1784883 0.0618166 0.07243584 -0.051703528
00000000: 793f 183d 66ca 9f3d c33d 1abc 3990 aa3d
00000010: 65cf 453c 539e 04be 738c 333e b4e9 30bc
00000020: ccf0 8abd f3a8 9e3d e700 053d 4fb3 20be
00000030: 00a1 133e 9b64 96bc 2548 873d 60ec 45bc
00000040: 2483 21be 7dbd ffbd 4d95 07bd 3571 48bd
00000050: e25a 0b3e 1fc5 0b3d d1c6 123e c92e 333e
00000060: f5bc b23c afb7 6fbd 4452 abbb 950b 58bd
00000070: a3c5 36be 6733 7d3d 3e59 943d 14c7 53bd
