output/282nodes_entropy0.01_0.4_0.85_2_230823/epoch59.pth (torch, 519145 bytes, 129 tensors)

critic.ff_layer1.weight f4 [32, 283]
0	0x3e099b68	0.13438189
1	0x3dad55e5	0.08463649
2	0x3c225387	0.00990761
3	0x3d1ff3af	0.039050754
4	0xbb9f2d7f	-0.0048577185
5	0xbc48ff9d	-0.012267974
6	0xbc354ae9	-0.011065223
7	0x3d0a76f7	0.03380486
8	0x3d3a4f29	0.04548565
9	0xbceaf38b	-0.028680583
10	0x3d1fc413	0.03900535
11	0x3bce40d7	0.0062943506
12	0x3cc7289a	0.024311353
13	0x3cfd9fa6	0.030959915
14	0x3d2321c8	0.03982714
15	0x3c1dcf5b	0.009631957
16	0x3d28d94a	0.041222848
17	0x3c80d689	0.015727298
18	0x3c4be205	0.012444024
19	0x3ce46f06	0.027884971
20	0xbc51280a	-0.012765894
21	0x3d1afe5c	0.037840232
22	0xbc0b6231	-0.008507297
23	0x3d5c5ab0	0.053797424
24	0xbcaf7268	-0.021416858
25	0xbba08d81	-0.004899681
26	0xbd0b622c	-0.03402917
27	0xbc8a211b	-0.016861489
28	0xba07b35f	-0.00051765697
29	0xbc34baad	-0.011030835
30	0x3d85b248	0.06528145
31	0xbc64cded	-0.013965112
32	0x3d6f523a	0.058428027
33	0x3cc058f0	0.023479909
34	0xbc1e2bcd	-0.009653998
35	0x3d4b1e3a	0.049589373
36	0x3cee6e01	0.029105188
37	0x3d95a828	0.07307464
38	0x39b573e6	0.0003460936
39	0xbc9710ae	-0.01844057
40	0x3d3f5909	0.04671577
41	0xbc0b182b	-0.008489649
42	0x3be19e12	0.0068852985
43	0x3d36efd7	0.044662323
44	0x3d25f613	0.040517878
45	0xbbe8dcce	-0.0071064
46	0x3c4628aa	0.012094656
47	0xbbc2b7c4	-0.0059423167
48	0x3cc04d05	0.023474226
49	0xbc2ed06c	-0.010669809
50	0xbc76c54e	-0.01506169
51	0xbc219cab	-0.009864013
52	0xbb8123d7	-0.00394104
53	0x3d24fc59	0.04027972
54	0x3a829c86	0.000996486
55	0x3d0d781d	0.034538377
56	0x3bfc8d8e	0.0077073043
57	0x3c9a854f	0.018862395
58	0x3d9db94c	0.07701358
59	0xbceaa826	-0.028644633
60	0x3d5da288	0.05411008
61	0xbca21b3a	-0.019788373
62	0x3d09f295	0.03367861
63	0xbd13a879	-0.03604934
64	0xbc03a661	-0.008035273
65	0x3bb2791e	0.005446567
66	0x3cbbf587	0.022944225
67	0xbba140dd	-0.0049210624
68	0xbc0a018a	-0.0084232185
69	0xbbd80584	-0.0065924544
70	0x3de4f7f0	0.11180103
71	0xbc2b844b	-0.010468553
72	0x3d864052	0.06555237
73	0xbc009577	-0.007848135
74	0xbcd0ad17	-0.02547316
75	0xbcac4189	-0.021027343
76	0x3c9bf5a4	0.019038029
77	0x3c395815	0.011312504
78	0x3cd78fd6	0.026313704
79	0x3db18f6f	0.08669936
80	0xbd180e04	-0.03712274
81	0x3b1163f4	0.002218482
82	0x3c2dbde6	0.010604357
83	0xbd4673f1	-0.048450414
84	0x3d4983b9	0.049197886
85	0x3c9b6c0d	0.018972421
86	0x3d23bbd8	0.039974064
87	0xbc9a5b34	-0.018842317
88	0x3c59ed89	0.013301262
89	0x3bfb77e6	0.007674205
90	0x3aa58384	0.0012627696
91	0x3c749f42	0.014930548
92	0x3d549181	0.051896576
93	0x3d22f675	0.03978582
94	0xbc6d5fe9	-0.014488199
95	0xbc9089af	-0.017643778
96	0x3d75edf3	0.06004138
97	0xbb4a6592	-0.0030883295
98	0xbcbce6ef	-0.023059336
99	0x3bbd020b	0.005768066
100	0xbd10c21f	-0.03534138
101	0xbc8e8dfe	-0.017401692
102	0xbcbc8f6f	-0.023017613
103	0xbd1aae52	-0.0377639
104	0x3c8e5a9c	0.01737719
105	0xbcfaaa94	-0.030598916
106	0xbba8b4e6	-0.005148518
107	0xbb0632df	-0.00204771
108	0xbd1aed3d	-0.037823904
109	0xbc3d931a	-0.011570716
110	0x3d79eea4	0.0610186
111	0x3a15e438	0.0005717906
112	0x3d3ee490	0.046604693
113	0xbc99d3e4	-0.018777795
114	0xbc313e6b	-0.010818104
115	0xbc93e479	-0.01805328
116	0x3c848472	0.016176436
117	0xbc7b5ca9	-0.015341916
118	0xbc459a76	-0.012060752
119	0xbcbc8d4b	-0.023016592
120	0xbc3715fc	-0.011174675
121	0x3ce6b65e	0.028163131
122	0xbc96f7fb	-0.018428793
123	0xbc369b9a	-0.011145497
124	0xbc1ef63e	-0.009702263
125	0xbc396430	-0.0113153905
126	0xbc7a7477	-0.015286556
127	0xbc195e6d	-0.009360892
128	0x3d481097	0.048843946
129	0x3b20fb63	0.00245639
130	0x3cd62c04	0.026144035
131	0x3c4b1062	0.012394043
132	0xbd017739	-0.03160784
133	0x3d15c278	0.036562413
134	0x3c42fa89	0.011900553
135	0x3c1a6254	0.009422857
136	0xbd21d377	-0.03950831
137	0xbcea78ec	-0.028622113
138	0x3c83676d	0.016040528
139	0xbcd43e12	-0.025908504
140	0x3b548ca2	0.0032432457
141	0xbbaf87d0	-0.0053567663
142	0x3d866006	0.06561284
143	0x3cac15c3	0.02100647
144	0xbc8102fa	-0.01574849
145	0x3c70a435	0.0146875875
146	0x3d3567a6	0.0442883
147	0x3d69cbe3	0.057079207
148	0x3cd3dda8	0.02586253
149	0xbd0d60ab	-0.034516018
150	0x3b0a85db	0.0021136913
151	0xbd11a2c9	-0.035555635
152	0x3c891990	0.016735822
153	0xbc09c3f1	-0.0084085325
154	0x3ddbc8d8	0.10731667
155	0xbd02ecb5	-0.031964023
156	0x3c2400a1	0.010009916
157	0xbbaefae0	-0.005339965
158	0x3c83404c	0.01602187
159	0xbb3085f9	-0.0026935323
160	0x3d99c17a	0.07507606
161	0xbd194c92	-0.03742654
162	0x3c4a7416	0.012356779
163	0xbcada9ba	-0.021199096
164	0x3d5d1b92	0.05398137
165	0x3ce1584e	0.027507927
166	0xbb7dc115	-0.0038719822
167	0x3d9ca4f0	0.07648647
168	0x3b91d9f0	0.004451029
169	0xbcb8c7f9	-0.022556292
170	0xbcb1e2a6	-0.02171452
171	0xbd00a4cc	-0.031407163
172	0x3d613c3c	0.054989085
173	0xbbfef2da	-0.007780415
174	0xbd552053	-0.05203278
175	0x3c37c35b	0.01121601
176	0x3c2b58c8	0.010458179
177	0x3cf4134d	0.02979436
178	0x3d63b671	0.05559391
179	0xbb7b9fb5	-0.0038394753
180	0xbbed1479	-0.0072351065
181	0x3d26eb3e	0.04075169
182	0xbca08f18	-0.019599482
183	0xbc1d1b40	-0.009589016
184	0x3bd0ac15	0.00636817
185	0x3ce9ed12	0.028555427
186	0xbb72ee61	-0.0037068354
187	0x3cb81449	0.02247061
188	0xbc4bd2a9	-0.012440362
189	0xbc599921	-0.013281138
190	0x3b81c0a1	0.0039597307
191	0xbd1b0e7d	-0.037855614
192	0x3d705c27	0.058681633
193	0x3c807563	0.015680974
194	0x3c5ffa00	0.0136704445
195	0xbae66ae9	-0.0017579469
196	0x3d515392	0.05110509
197	0xbcac5aa5	-0.021039316
198	0xbb01e516	-0.0019820384
199	0x3c8badaf	0.017050592
200	0xbc95fc8f	-0.018308906
201	0xbbb58bfd	-0.0055403695
202	0x3d756d78	0.05991885
203	0x3d3515a2	0.044210084
204	0x3b2c54a2	0.0026295562
205	0xbcc2cae9	-0.023778396
206	0xbb8f0494	-0.0043645594
207	0xbc99a9e8	-0.018757775
208	0xbc573168	-0.013134338
209	0x3d535909	0.051598582
210	0x3d48520b	0.048906367
211	0x3d6ad2a4	0.05732979
212	0xbc42ce0e	-0.011889948
213	0xbcf9b425	-0.030481407
214	0x3a887fe6	0.0010414093
215	0x3d1a7303	0.03770734
216	0x3b6381ca	0.0034714811
217	0x3bc35222	0.0059607187
218	0x3cefbcf7	0.02926491
219	0xbb2b34c5	-0.0026123982
220	0xbc5b0aba	-0.013369257
221	0x3dade898	0.08491629
222	0x3b4e7975	0.00315055
223	0xbc8eed54	-0.017447151
224	0xbcb289c9	-0.021794217
225	0x3d67b500	0.0565691
226	0x3d5e9e02	0.054349907
227	0x3ccb6a96	0.024831098
228	0xbc580704	-0.013185266
229	0xbc816070	-0.015793055
230	0xbc82a577	-0.01594804
231	0x3d7f0324	0.062258855
232	0x3c2ac573	0.010423052
233	0x3d45a6c4	0.048254743
234	0x3c54bf26	0.012985026
235	0x3bad813b	0.0052949465
236	0xbc1aec83	-0.009455803
237	0xbc4c0fed	-0.012454969
238	0xbcfc71b3	-0.030815935
239	0x3b44eb9f	0.0030047668
240	0x3d16a8ca	0.036782064
241	0xbc9d037b	-0.019166699
242	0x3bdff80d	0.00683499
243	0xbca07197	-0.019585414
244	0x3b1c0bca	0.0023810738
245	0xbc587664	-0.01321182
246	0xbd2ec358	-0.042666763
247	0xba628756	-0.00086413824
248	0xbc71c003	-0.014755252
249	0x3da12ff7	0.07870477
250	0x3d0cfd28	0.034421116
251	0xbcee38f7	-0.029079897
252	0xbc8a395a	-0.01687305
253	0xbb362055	-0.0027790267
254	0xbc828ede	-0.015937265
255	0xbc7dfc55	-0.015502055

critic.ff_layer2.weight f4 [283, 32]
0	0xbdd22d4e	-0.102625474
1	0x3ece6b29	0.40316132
2	0xbbf71972	-0.007540875
3	0xbe6bb21e	-0.23017165
4	0x3e56f9c7	0.2099372
5	0xbe0230e7	-0.12713967
6	0x3e5369f4	0.20645887
7	0xbd269b59	-0.040675495
8	0xbe430e93	-0.19048528
9	0x3d15bbd1	0.03655607
10	0xbdc2b83e	-0.09507798
11	0x3dfec166	0.124392316
12	0xbe487973	-0.19577579
13	0xbe3be76a	-0.18349996
14	0xbc05c692	-0.008165019
15	0x3f0069cb	0.5016143
16	0xbe001013	-0.12506132
17	0xbe1c22a6	-0.15247592
18	0x3e682fdd	0.22674508
19	0x3e93315f	0.28748605
20	0x3ef4e481	0.47830585
21	0xbe092dbf	-0.13396357
22	0xbd653f8a	-0.0559688
23	0xbe2a809b	-0.16650622
24	0x3ee254cc	0.4420532
25	0x3e62ad99	0.22136535
26	0x3dd7e899	0.10542411
27	0xbe5c47ab	-0.21511714
28	0x3e2250a6	0.15851077
29	0x3dd953c8	0.10611683
30	0x3e45e107	0.19324122
31	0x3ec38d5d	0.3819379
32	0xbdd84487	-0.105599456
33	0xbdd543a0	-0.10413289
34	0x3e122c8d	0.14274807
35	0x3d63f9bd	0.05565809
36	0xbceb8168	-0.02874823
37	0xbd6c94d7	-0.057759132
38	0xbe145a5e	-0.14487597
39	0xbe56fc0f	-0.2099459
40	0xbde33680	-0.110943794
41	0xbdfb23ee	-0.122627124
42	0xbc2231ba	-0.009899551
43	0xbe3b4761	-0.18288948
44	0x3da6a995	0.08137814
45	0xbe1c9129	-0.15289749
46	0xbdcf9f47	-0.101378016
47	0xbda8ef76	-0.082487985
48	0xbdb41efd	-0.08794973
49	0x3d7f713f	0.06236386
50	0x3d2af89a	0.04174099
51	0x3df739a3	0.1207154
52	0xbd3e9a72	-0.04653401
53	0x3ceef16b	0.029167851
54	0xbcff37ca	-0.031154532
55	0x3d9abaa2	0.07555129
56	0x3d3cf9a0	0.0461365
57	0x3d4bf9dc	0.04979883
58	0x3e25b2cf	0.16181491
59	0x3d88fdab	0.06689008
60	0xbd58003a	-0.05273459
61	0x3dd12395	0.10211865
62	0xbdca0ec0	-0.098660946
63	0xbd8d4e03	-0.06899645
64	0xbd8d9d97	-0.069148235
65	0xbca8d062	-0.020607177
66	0x3d3c3ed0	0.04595834
67	0xbe271d29	-0.16319717
68	0xbdfe4402	-0.12415315
69	0xbcdb4301	-0.026765348
70	0x3cbfe796	0.023425858
71	0x3e08cb29	0.1335875
72	0xbe026876	-0.12735161
73	0x3d2e3ca8	0.042538315
74	0x3d826c44	0.06368306
75	0xbe0075c8	-0.1254493
76	0x3d0718f6	0.03298279
77	0xbd1b97d7	-0.037986603
78	0x3d0813d7	0.033222046
79	0xbd11a47f	-0.035557266
80	0xbdbdd094	-0.09268299
81	0xbd9a425e	-0.0753219
82	0x3e168143	0.14697747
83	0x3c3b0997	0.011415861
84	0xbd988384	-0.074469596
85	0x3d2eb48b	0.042652648
86	0x3e0c06db	0.1367449
87	0xbdb171a5	-0.08664254
88	0xbd8d2d6e	-0.06893431
89	0xbd647fcd	-0.055785943
90	0xbdc1ae25	-0.094570436
91	0xbd04d832	-0.032432742
92	0xbb88a1f0	-0.004169695
93	0xbd95e668	-0.07319337
94	0xbd821f84	-0.063536674
95	0xbdcf7878	-0.101303995
96	0xbe0abafb	-0.1354789
97	0xbce92cc4	-0.028463729
98	0x3dc24f42	0.094877735
99	0x3d995f96	0.07488935
100	0x3e18bf16	0.14916644
101	0x3d79ef41	0.061019186
102	0xbddc35ae	-0.10752426
103	0xbd4ea4e8	-0.050450236
104	0xbdf4f8b2	-0.11961497
105	0x3d371d6f	0.044705804
106	0x3ad4c6d7	0.0016233575
107	0x3d5626c5	0.052283067
108	0xbe079998	-0.13242185
109	0x3d9d0fe2	0.07669045
110	0xbe07fbf6	-0.13279709
111	0xbd4d0547	-0.05005386
112	0xbe24a79e	-0.16079566
113	0x3d94839a	0.072516635
114	0xbdeb01f4	-0.11474982
115	0xbe29c75c	-0.16579956
116	0xbd04af15	-0.032393534
117	0x3dc81c43	0.097710155
118	0xbd0da7f2	-0.034583993
119	0x3d2ddc5d	0.042446483
120	0xbbe38a25	-0.0069439583
121	0xbe2a1585	-0.16609772
122	0x3d57e982	0.052712925
123	0x3cc1b802	0.023647312
124	0xbe027832	-0.12741163
125	0x3d742698	0.05960712
126	0x3e11aef5	0.14226897
127	0x3dcb3a25	0.099231996
128	0xbe101522	-0.14070562
129	0x3c884004	0.016632088
130	0x3e111673	0.1416872
131	0x3c8d7dd0	0.017271906
132	0xbd8c8ace	-0.068624124
133	0x3d893f98	0.06701583
134	0xbe353aab	-0.17698161
135	0xbdc3dfcc	-0.0956417
136	0xbb9bbe15	-0.004752884
137	0x3ddcc987	0.10780626
138	0xbd8ab30e	-0.06772433
139	0x3def5018	0.116851985
140	0x3cf9237e	0.030412432
141	0x3c274853	0.0102101145
142	0x3da6942a	0.08133729
143	0xbc257103	-0.010097745
144	0x3d90b07b	0.07064911
145	0x3d882ecf	0.06649553
146	0xbd88480f	-0.06654369
147	0x3daa2583	0.08307936
148	0xbd2307d3	-0.039802384
149	0xbdd4f3ac	-0.10398039
150	0x3d1ad381	0.037799362
151	0x3cd58dce	0.026068594
152	0xbe031a2c	-0.12802953
153	0x3da4cf35	0.08047334
154	0x3da2b4a1	0.079446085
155	0x3cefecaf	0.029287664
156	0xbcac7171	-0.021050187
157	0x3d1003cf	0.035159882
158	0x3d2ff015	0.04295357
159	0xbd557350	-0.052111924
160	0x3d24fb7b	0.040278893
161	0xbddb30f9	-0.107027
162	0xbc2d5de4	-0.010581467
163	0xbc839d5c	-0.016066246
164	0x3db152be	0.0865836
165	0x3d396518	0.045262426
166	0x3e09d344	0.13459498
167	0xbdd2b606	-0.102886245
168	0xbd5ac9b0	-0.053415
169	0xbc472eb4	-0.012157131
170	0x3dfe253c	0.12409446
171	0x3e10b224	0.14130455
172	0x3d57ebb4	0.05271502
173	0xbde6da0d	-0.11272059
174	0xbdd0ad27	-0.10189276
175	0xbc9165da	-0.017748762
176	0xbe42a424	-0.19007927
177	0xbd9dd8be	-0.07707356
178	0xbd848d50	-0.06472266
179	0x3d7bf84f	0.061516102
180	0xbd9bee01	-0.07613755
181	0xbe13d1c9	-0.14435495
182	0x3d97f3fa	0.07419582
183	0xbe0d414e	-0.13794443
184	0xbca564bb	-0.020189634
185	0x3e0798c6	0.13241872
186	0x3d2ed1b8	0.042680472
187	0xbe0b8877	-0.13626276
188	0xbb5e6762	-0.0033936133
189	0xbd3dbc78	-0.046322316
190	0x3d770b33	0.060313415
191	0x3dd05982	0.10173322
192	0x3de45222	0.11148478
193	0xbd09ac5d	-0.033611644
194	0x3dba3949	0.090929575
195	0xbe0bdc4c	-0.13658255
196	0x3df357f6	0.118820116
197	0x3d91c091	0.07116807
198	0xbe16c883	-0.14724927
199	0xbd2fb2de	-0.04289519
200	0xbd76493a	-0.060128428
201	0xbd875b2a	-0.06609185
202	0xbc03fea3	-0.008056316
203	0xbd615687	-0.05501416
204	0x3d69034e	0.056887917
205	0xbd8a63ee	-0.06757341
206	0x3e061d37	0.13097082
207	0xbceaebf6	-0.028676968
208	0xbd897919	-0.06712551
209	0xbcd8feab	-0.026488623
210	0x3d3bf683	0.04588939
211	0xbda901da	-0.08252306
212	0xbd4da313	-0.050204348
213	0xbe09659d	-0.13417669
214	0x3dd38128	0.10327369
215	0x3c0d8d4d	0.008639646
216	0xbd3e7adf	-0.046503898
217	0x3d9c7dad	0.07641158
218	0x3c186f2e	0.009303851
219	0xbd9d0b48	-0.07668167
220	0xbd125faf	-0.035735782
221	0xbbce1a9a	-0.0062897922
222	0x3e01ad90	0.12663865
223	0xbdd0e73f	-0.10200357
224	0xbe1d1481	-0.15339853
225	0xbe26d495	-0.16292031
226	0xbe056ff4	-0.13030988
227	0xbd865515	-0.06559197
228	0x3d9a167c	0.0752382
229	0x3d076e75	0.033064324
230	0x3d165fdb	0.03671251
231	0x3c57938a	0.013157735
232	0xbbb8d4fc	-0.005640624
233	0xbe0a60cd	-0.13513489
234	0x3dec66c4	0.115430385
235	0x3e081cfb	0.13292305
236	0x3a83ef4e	0.0010065825
237	0x3be24389	0.0069050235
238	0xbb8e336f	-0.0043396275
239	0xbcc4232c	-0.023942553
240	0xbc47f264	-0.0122037865
241	0x3bfa2341	0.007633597
242	0xbddc0062	-0.107422605
243	0xba69e37b	-0.0008922142
244	0xbcee05a5	-0.029055426
245	0xbe08a42b	-0.13343875
246	0x3d2f9f02	0.04287625
247	0x3d462664	0.048376456
248	0xbce017ca	-0.027355094
249	0x3d66d3b6	0.056354247
250	0xbd9b2274	-0.07574931
251	0x3cab831a	0.020936538
252	0xbe11fbe7	-0.1425625
253	0x3d46f94b	0.048577588
254	0xbe0ba165	-0.13635786
255	0xbdeff372	-0.117163554

actor.customer_encoder.0.attention.query_embed.weight f4 [32, 32]
0	0x3ebc48a1	0.3677416
1	0x3d035f07	0.032073047
2	0x3e2f1d97	0.17101131
3	0x3eb703db	0.3574513
4	0xbebcb9c4	-0.36860478
5	0xbda411ec	-0.08011231
6	0xbe2e0fb8	-0.16998184
7	0xbe62497f	-0.22098349
8	0x3e5551d8	0.20832002
9	0x3e355f43	0.1771212
10	0x3e9cd3ef	0.30630443
11	0x3ed1925d	0.4093198
12	0xbe78fc8b	-0.24315087
13	0x3d9a7537	0.07541888
14	0x3e1448e0	0.14480925
15	0xbd9fce2a	-0.078029945
16	0x3e680dbe	0.22661492
17	0x3ea80226	0.3281414
18	0xbed21d88	-0.41038156
19	0xbe00a107	-0.12561427
20	0x3e0b3c36	0.13597187
21	0xbe98a4b3	-0.29813156
22	0xbe06cc86	-0.13163957
23	0x3e26172d	0.16219778
24	0x3dfd8338	0.123785436
25	0xbe4d10bd	-0.20025916
26	0xbcc70fb1	-0.024299474
27	0x3d9096b6	0.07059996
28	0x3ed26b0f	0.41097304
29	0xbe828331	-0.25490716
30	0x3d2ff97f	0.042962547
31	0xbe018dcd	-0.12651749
32	0x3ec47c62	0.38376147
33	0x3e8e1138	0.27747512
34	0xbc98fb2c	-0.018674456
35	0xbe101063	-0.14068751
36	0x3ea378bd	0.31928053
37	0xbc9c2462	-0.019060317
38	0xbdc0f1c5	-0.09421114
39	0x3e8fe696	0.2810561
40	0x3db41aec	0.087941974
41	0x3c8b87f4	0.017032601
42	0x3eade341	0.33962443
43	0xbe102a67	-0.14078675
44	0x3e816f16	0.25280064
45	0x3e5870dd	0.21136804
46	0xbe54b601	-0.20772554
47	0x3ea6f7da	0.3261097
48	0x3e027f4e	0.12743875
49	0xbe7f6c53	-0.24943666
50	0x3e784517	0.24245106
51	0xbea215d2	-0.31657273
52	0x3b19965c	0.0023435568
53	0x3e0e3050	0.13885617
54	0x3e1da0df	0.15393399
55	0xbeab6cc2	-0.33481413
56	0x3eaa5ccf	0.33273932
57	0x3e9b9c5a	0.30392724
58	0x3e69c5ae	0.22829315
59	0x3e1ef8cb	0.15524594
60	0xbe4133a7	-0.1886736
61	0x3e8170d9	0.25281408
62	0x3d837d67	0.06420403
63	0xbd9f2851	-0.077713616
64	0xbe210766	-0.15725479
65	0x3da38a43	0.07985356
66	0xbe0123ec	-0.1261136
67	0xbea4b868	-0.3217194
68	0xbe38cb73	-0.1804636
69	0xbe21d87d	-0.1580524
70	0xbd251094	-0.040299013
71	0xbe4b7a32	-0.19870833
72	0xbdb52dbe	-0.08846615
73	0xbe5b84aa	-0.21437326
74	0xbe8cae63	-0.27476797
75	0x3e227d59	0.15868129
76	0xbd42e435	-0.047580916
77	0xbe2d2ebd	-0.1691236
78	0xbd7500b6	-0.05981513
79	0x3cc11cfd	0.023573393
80	0xbe89822d	-0.2685713
81	0x3e4aa160	0.19788122
82	0x3e425257	0.18976723
83	0x3e52f869	0.20602573
84	0xbe522176	-0.20520577
85	0x3eb66956	0.3562724
86	0x3e76a3d2	0.2408593
87	0x3e1e19a5	0.1543947
88	0x3e2c4ff5	0.16827376
89	0xbe436238	-0.19080436
90	0x3d92e8ce	0.0717331
91	0x3e88bc1b	0.26706013
92	0x3dbfbf72	0.09362687
93	0x3b11ae32	0.0022229073
94	0xbebf8740	-0.37407875
95	0xbdbbb862	-0.091660276
96	0xbe54b4e6	-0.20772132
97	0x3e8dec08	0.2771914
98	0xbcf1f3e1	-0.029535236
99	0xbd8ef411	-0.06980146
100	0xbec302bd	-0.38088027
101	0xbe9120b9	-0.28345278
102	0xbe1b7654	-0.15181857
103	0x3e23ef98	0.16009367
104	0xbd80e87a	-0.062943414
105	0x3e1dd8be	0.15414712
106	0x3eb5c5fb	0.3550261
107	0xbe3d4be9	-0.18485989
108	0x3d91d25c	0.07120201
109	0x3d7d79f2	0.061883874
110	0xbe8cc982	-0.27497488
111	0xbd03a0d7	-0.03213581
112	0x3da65f2d	0.08123622
113	0xbe23b7d0	-0.15988088
114	0xbe8dff56	-0.27733868
115	0x3e8abc60	0.27096844
116	0x3dddc4c6	0.10828547
117	0xbeadacd5	-0.33920923
118	0xbebc0b99	-0.36727598
119	0x3d2cac9f	0.04215681
120	0xbe2e3efe	-0.17016217
121	0x3d9ac024	0.07556179
122	0x3e3a19cb	0.18173902
123	0x3da685a3	0.08130958
124	0x3e7c46af	0.24636339
125	0x3e1062d1	0.14100195
126	0xbca6832c	-0.02032622
127	0x3d6ff31a	0.05858145
128	0xbdfb9fd8	-0.12286347
129	0xbe463400	-0.19355774
130	0xbec113c5	-0.37710395
131	0x3e0a794a	0.1352283
132	0x3e9c1626	0.30485648
133	0xbdf98485	-0.12183479
134	0x3e60d148	0.21954834
135	0x3e903dbc	0.281721
136	0x3d83b021	0.06430078
137	0x3e31d6fe	0.1736717
138	0x3a663275	0.00087813224
139	0x3e2edd75	0.17076667
140	0x3e4a3f37	0.19750677
141	0x3e530ab0	0.20609546
142	0x3e9c5c24	0.30539048
143	0xbe0b0b47	-0.1357852
144	0x3dd80e14	0.1054956
145	0x3e080149	0.1328174
146	0xbe68ba8f	-0.22727416
147	0xbe8e59d6	-0.27802914
148	0xbd1e95f4	-0.038717225
149	0x3e3666ca	0.17812648
150	0x3e9a9c28	0.30197263
151	0xbded7b0c	-0.11595735
152	0xbe290cd2	-0.16508797
153	0xbe9eba5e	-0.31001562
154	0x3e441494	0.19148475
155	0xbe51aae4	-0.20475346
156	0x3da90894	0.08253589
157	0x3e0e58c1	0.13901044
158	0xbd8887e5	-0.06666545
159	0x3ead0df1	0.337997
160	0x3e8816fd	0.2658004
161	0xbd11531a	-0.035479642
162	0xb5ccbf02	-1.5254775e-06
163	0x3e6c7198	0.23090208
164	0xbe5b83d9	-0.21437015
165	0xbe948ad4	-0.29012167
166	0x3e6c2fbb	0.23065083
167	0xbe432367	-0.19056474
168	0x3cc52f05	0.024070272
169	0x3cba8642	0.022769097
170	0x3e85306d	0.26013508
171	0x3d813e75	0.06310741
172	0x3cfb7f13	0.030700242
173	0x3da78fd4	0.0818173
174	0xbe1af659	-0.15133037
175	0xbeb57f9a	-0.35448915
176	0x3e974479	0.29544428
177	0xbe88ef38	-0.2674501
178	0xbe8cf7c4	-0.2753278
179	0xbdb6f4cd	-0.08933411
180	0x3e60ce96	0.21953806
181	0xbe19c6f2	-0.15017298
182	0x3e85c36d	0.2612566
183	0x3e00d3b9	0.12580766
184	0x3e77bb51	0.2419255
185	0xbe0843b8	-0.13307083
186	0x3e2adc5d	0.16685624
187	0x3db0cbb3	0.086326025
188	0x3ea50f4a	0.32238227
189	0xbe2a76bd	-0.16646858
190	0x3ea49deb	0.32151732
191	0xbe6953c1	-0.22785856
192	0xbe55d096	-0.2088035
193	0x3eaca9d6	0.33723325
194	0x3e55ea4c	0.20890158
195	0x3e66fd22	0.225575
196	0xbe53156f	-0.20613645
197	0x3ea246dd	0.3169469
198	0xbdc2b4f4	-0.0950717
199	0x3e99e1b9	0.30055025
200	0x3e5b2423	0.21400504
201	0xbea6c98d	-0.32575646
202	0xbd902d0c	-0.07039842
203	0x3ec9b0bb	0.39392647
204	0x3e45001f	0.19238327
205	0x3d98e7b1	0.07466067
206	0xbc54cd22	-0.012988361
207	0x3e12ff9e	0.14355323
208	0xbdcfd437	-0.10147899
209	0xbdd539c4	-0.104114085
210	0xbe841a86	-0.25801486
211	0xbd4b4745	-0.049628515
212	0xbe7ea25a	-0.2486662
213	0xbe58fab8	-0.21189392
214	0x3e5d882c	0.21633977
215	0x3e5594b1	0.20857503
216	0xbe202508	-0.15639126
217	0xbd981dd6	-0.07427566
218	0xbe16707c	-0.14691347
219	0x3e4c82f1	0.19971825
220	0xbe3f037a	-0.1865367
221	0xbe49d455	-0.19709904
222	0x3e3374c7	0.17525016
223	0x3c35701f	0.011074095
224	0x3e07eced	0.13273974
225	0xbcfb2272	-0.030656073
226	0x3ebe6234	0.37184298
227	0xbd379125	-0.044816155
228	0x3e9054aa	0.28189594
229	0x3d53b26f	0.05168384
230	0x3eabb2f9	0.33534983
231	0xbe5d298f	-0.21597885
232	0x3e4a9b42	0.19785789
233	0xbdf86330	-0.121282935
234	0x3e52e998	0.20596921
235	0xbe837a7c	-0.25679386
236	0x3e443db3	0.19164161
237	0xbd9ae049	-0.0756231
238	0xbe0dbcb3	-0.13841514
239	0xbe063c74	-0.13108999
240	0x3e81eba6	0.25375098
241	0xbd53cb2e	-0.05170744
242	0xbdbcf1ee	-0.09225832
243	0x3e9acd74	0.30234873
244	0x3e6a37d7	0.22872864
245	0x3c61c790	0.01378049
246	0xbe09207b	-0.13391297
247	0x3dbbf51e	0.09177612
248	0xbd987fb8	-0.074462354
249	0x3e9c3fdb	0.30517468
250	0x3e10372c	0.14083546
251	0x3e86a5ef	0.26298472
252	0x3e615f01	0.22008897
253	0xbdbb0b89	-0.091330595
254	0xbe8601cc	-0.26173246
255	0xbe053249	-0.13007464

actor.customer_encoder.0.attention.key_embed.weight f4 [32, 32]
0	0xbe0c8370	-0.13722014
1	0x3ccbae73	0.024863457
2	0x3d8f79d5	0.070056595
3	0x3ecb65b5	0.39726034
4	0x3eadf3dd	0.33975115
5	0xbea85d4f	-0.3288369
6	0x3e0e323d	0.13886352
7	0xbe701666	-0.23446044
8	0xbe319f66	-0.17345962
9	0x3e28e00c	0.16491717
10	0xbe8d0b99	-0.2754791
11	0x3ea959fb	0.33076462
12	0x3db73715	0.08946053
13	0x3d90c2bc	0.07068393
14	0x3e79a0a1	0.24377681
15	0xbea947a2	-0.33062464
16	0x3d966b4b	0.07344683
17	0x3db9c1a7	0.090701394
18	0xbe4b3663	-0.19844966
19	0xbe17cb58	-0.14823663
20	0x3dc99e6a	0.09844668
21	0x3eaadcfc	0.33371723
22	0xbe07e832	-0.13272169
23	0x3e613f4a	0.21996799
24	0x3e2b284b	0.1671459
25	0xbe4a78c3	-0.1977263
26	0xbe83c68e	-0.25737423
27	0xbd113375	-0.035449464
28	0x3e82d442	0.25552565
29	0xbe7eb811	-0.24874903
30	0xbe76c485	-0.24098404
31	0x3e8ffcaf	0.2812247
32	0xbe51be9f	-0.20482872
33	0xbe767fde	-0.24072215
34	0xbc63c0f5	-0.013900985
35	0x3ea5d737	0.32390758
36	0x3e6d8674	0.23195821
37	0x3e451323	0.19245581
38	0x3d626b81	0.055278305
39	0xbe4906db	-0.19631521
40	0xbe91b140	-0.28455544
41	0x3e3b44af	0.1828792
42	0x3de7dd61	0.113215216
43	0x3db623ef	0.088935725
44	0xbde6ce2c	-0.11269793
45	0xbeb77ef0	-0.35839033
46	0x3cd88443	0.026430255
47	0xbd516ce7	-0.051129248
48	0xbcc9160a	-0.024546642
49	0x3d3bca9f	0.04584753
50	0xbe491579	-0.19637097
51	0xbe583092	-0.21112278
52	0xbdaed51b	-0.085367404
53	0x3e03d687	0.12874804
54	0xbe65aa8e	-0.22428343
55	0x3eaac773	0.33355293
56	0xbeaf269c	-0.34209144
57	0xbe5aa99d	-0.21353765
58	0x3dcf6504	0.10126689
59	0xbeaf6c2a	-0.3426221
60	0xbe521863	-0.20517115
61	0x3e268368	0.16261065
62	0xbe788c52	-0.24272278
63	0x3de3a62d	0.1111568
64	0xbe382238	-0.17981803
65	0xbe199b94	-0.15000755
66	0x3d5ea09b	0.054352384
67	0x3ce05c2a	0.027387697
68	0x3ea80082	0.32812887
69	0x3d9692b3	0.073521994
70	0x3d860f0e	0.0654584
71	0xbe4e716e	-0.20160457
72	0x3e90a857	0.28253433
73	0xbc737a28	-0.014860667
74	0x3e538c48	0.20658982
75	0xbe8fc78c	-0.2808193
76	0x3e43a5e5	0.19106252
77	0x3e8f7e71	0.28026155
78	0x3e5853f9	0.21125783
79	0x3e905ea4	0.28197205
80	0xbe1de94a	-0.15421024
81	0xbe78f2dd	-0.24311395
82	0x3e0e6823	0.13906913
83	0x3e27868c	0.1635992
84	0xbe52cd04	-0.2058602
85	0xbde6876d	-0.11256299
86	0xbb245fdb	-0.0025081548
87	0xbbf30cc4	-0.0074172933
88	0x3e2ffdcc	0.1718666
89	0x3e84dc94	0.25949538
90	0x3dd04f08	0.10171324
91	0xbe141743	-0.14461999
92	0xbe69615a	-0.22791043
93	0x3e99ea33	0.30061492
94	0x3cee53a4	0.029092617
95	0xbe339d1c	-0.17540401
96	0xbe818742	-0.25298506
97	0xbe854c82	-0.26034933
98	0x3ea86451	0.32889035
99	0xbe3dea9d	-0.18546529
100	0xbeaf9c5e	-0.34298986
101	0xbe9211d4	-0.28529227
102	0xbe41150f	-0.1885569
103	0x3cb73b65	0.022367189
104	0xbe6e5c38	-0.23277366
105	0x3e26bc71	0.16282822
106	0xbd9bd792	-0.07609476
107	0xbe0973cf	-0.13423084
108	0xbe7e4556	-0.24831137
109	0xbda9f77a	-0.082991555
110	0x3ec37df0	0.3818202
111	0xbb59ffaa	-0.003326396
112	0x3dc79cfd	0.0974674
113	0xbebb022f	-0.36525103
114	0x3e43638e	0.19080946
115	0x3d1007fe	0.035163872
116	0xbd96a4d3	-0.073556565
117	0x3cc29db9	0.023756849
118	0xbe263ae9	-0.1623341
119	0xbe8ed367	-0.27895662
120	0xbe4223a7	-0.18958913
121	0x3dd3d3a7	0.10343104
122	0x3e9c20de	0.30493826
123	0xbe7d2e68	-0.24724734
124	0x3e3c770e	0.18404791
125	0xbe0dc397	-0.13844143
126	0x3e8d8e8c	0.27647817
127	0x3d4e0407	0.05029681
128	0xbea0eaff	-0.31429288
129	0xbe8ef4b6	-0.27921075
130	0x3db538f7	0.08848756
131	0x3e354ba8	0.17704642
132	0x3dd562fa	0.10419269
133	0x3dd7eb1c	0.105428904
134	0xbd3d3695	-0.04619463
135	0xbe55f8ef	-0.20895742
136	0x3d11519e	0.035478227
137	0xbe94397f	-0.28950116
138	0x3e389d65	0.18028791
139	0xbe05a3bd	-0.13050742
140	0xbe9a062c	-0.30082834
141	0x3cdf0e4f	0.027228503
142	0x3dcbe65f	0.09956049
143	0xbe8a4d5f	-0.27012154
144	0xbe5dd4db	-0.21663229
145	0xbd3f26fb	-0.046668034
146	0xbe08fed9	-0.13378467
147	0x3e98a4f0	0.29813337
148	0x3d9417db	0.072311126
149	0xbdef06ef	-0.11671244
150	0xbe90918c	-0.28236043
151	0xbe7c64ce	-0.24647829
152	0x3e0303bc	0.12794393
153	0xbd929ada	-0.07158442
154	0x3d4fc5a8	0.05072561
155	0x3d8ccf92	0.068755284
156	0x3e74f71e	0.23922393
157	0xbc601005	-0.013675694
158	0x3e1dd314	0.15412551
159	0xbea789c4	-0.32722294
160	0x3e82c296	0.25539082
161	0xbea613c1	-0.32436946
162	0xbdf53a52	-0.11974014
163	0xbea4f7d7	-0.32220337
164	0x3e4934be	0.19649026
165	0xbdf00d6a	-0.117213085
166	0xbeba3280	-0.36366653
167	0xbe270f60	-0.16314459
168	0x3e4ae0fb	0.19812386
169	0x3e848910	0.2588582
170	0x3e660e74	0.22466451
171	0xbeabd5de	-0.33561605
172	0xbe24fa86	-0.16111192
173	0x3d85a4ec	0.06525597
174	0xb93b27cc	-0.00017848535
175	0xbe4c0f72	-0.19927767
176	0x3eb31aaa	0.3498128
177	0xbe76cd6f	-0.24101804
178	0x3e6f37fd	0.23361202
179	0x3e5d2b70	0.21598601
180	0xbea19b4b	-0.31563792
181	0xbe59fe71	-0.21288468
182	0xbe60da14	-0.2195819
183	0x3e8a2453	0.26980838
184	0xbea6cffe	-0.3258056
185	0x3b92acd9	0.0044761715
186	0xbdde78d5	-0.10862891
187	0xbdcd5134	-0.10025254
188	0xbe5426b3	-0.20717888
189	0xbe8d224b	-0.27565226
190	0xbea12dc3	-0.31480226
191	0xbca67d63	-0.02032346
192	0x3c8efcb8	0.01745449
193	0x3d8ca4e9	0.068673916
194	0x3dc5a86e	0.09651266
195	0xbe037318	-0.12836874
196	0x3e533d82	0.20628932
197	0x3e45e007	0.19323741
198	0xbe934da5	-0.28770176
199	0x3eabb0a0	0.33533192
200	0xbcd66701	-0.026172163
201	0xbb85a4cf	-0.0040784846
202	0xbeb3094b	-0.34968027
203	0x3e3ac531	0.18239285
204	0x3e065c8b	0.1312124
205	0x3dc1dd03	0.09465983
206	0x3e3afa75	0.18259604
207	0xbea5e4f1	-0.3240123
208	0x3eb383d6	0.3506152
209	0x3e62d583	0.22151761
210	0xbdd35ea4	-0.10320786
211	0x3e38b94a	0.18039432
212	0xbe0c8969	-0.13724293
213	0xbdcc745f	-0.099831335
214	0xbb60a954	-0.0034280615
215	0x3e64785b	0.22311537
216	0x3e3cf0f0	0.18451285
217	0xbe0415d0	-0.12898946
218	0xbe97d149	-0.2965186
219	0xbc6ff24f	-0.014645173
220	0xbe1b0257	-0.15137611
221	0xbb9c01e9	-0.00476097
222	0x3e2e1ed6	0.1700395
223	0x3e797f69	0.2436501
224	0x3c7de684	0.015496854
225	0x3e2b2edb	0.16717093
226	0x3d8539e8	0.06505185
227	0xbe42435b	-0.18971007
228	0x3e54812c	0.207524
229	0xbe6d6fe3	-0.23187213
230	0xbbe926df	-0.0071152295
231	0xbe363770	-0.17794585
232	0x3bed93ac	0.00725027
233	0x3e8fb34e	0.28066486
234	0x3dfcdb70	0.12346542
235	0xbcf1ebfb	-0.02953147
236	0xbe9e18c6	-0.30878276
237	0xbe898894	-0.26862013
238	0xbdc59565	-0.09647635
239	0xbe2b3e45	-0.16722973
240	0x3d8bab73	0.06819811
241	0xbea662d0	-0.32497263
242	0x3eaf5c36	0.3425004
243	0xbdb010b9	-0.085969396
244	0x3e6cae65	0.23113401
245	0x3e752069	0.23938145
246	0x3e91ce0b	0.2847751
247	0xbd486fbf	-0.048934694
248	0x3cd6b0a3	0.026207274
249	0x3e3bf0a2	0.18353513
250	0xbe8a7583	-0.2704278
251	0xbcc802d3	-0.02441541
252	0x3e08471a	0.13308373
253	0xbd0df00e	-0.034652762
254	0xbe82a6ce	-0.25517887
255	0x3d495058	0.049148887

actor.customer_encoder.0.attention.value_embed.weight f4 [32, 32]
0	0x3d7d70c2	0.061875112
1	0x3ea91f91	0.33031896
2	0x3de62b02	0.11238672
3	0x3e055d34	0.13023835
4	0xbeaae6a3	-0.33379087
5	0x3e118846	0.1421214
6	0x3e420994	0.18948966
7	0xbdde0401	-0.108406074
8	0xbe618b69	-0.22025837
9	0xbd2fcb0f	-0.04291826
10	0xbe9bb0be	-0.3040828
11	0x3ea68cf2	0.32529408
12	0xbe5b7c2f	-0.21434091
13	0x3ea2ec31	0.31820825
14	0xbeb39560	-0.35074902
15	0x3e66c988	0.22537816
16	0xbe17544b	-0.14778249
17	0xbe8b683d	-0.27227965
18	0x3dcba2f0	0.09943187
19	0x3ea6a9a7	0.3255131
20	0xbe2c9627	-0.16854154
21	0x3d4b49b0	0.04963082
22	0xbe6d1951	-0.23154189
23	0x3e6be740	0.23037434
24	0x3ea2f533	0.31827697
25	0xbdc5625c	-0.09637901
26	0x3ead6d2a	0.33872348
27	0x3e3b5e01	0.18297578
28	0x3d4370cc	0.047714993
29	0xbe1bc289	-0.15210928
30	0x3e79a31e	0.2437863
31	0x3c94fc47	0.018186701
32	0xbe191d0d	-0.14952488
33	0xbeb213df	-0.34780785
34	0xbeaf730c	-0.3426746
35	0x3eb4796e	0.35248893
36	0xbe3f53f3	-0.18684368
37	0xbe870cee	-0.26377052
38	0x3e658d58	0.224172
39	0xbdcf21c8	-0.10113865
40	0xbe86face	-0.26363224
41	0x3d922dae	0.07137619
42	0xbd560c93	-0.052258085
43	0x3e0badbd	0.13640495
44	0x3ea831c4	0.32850468
45	0xbdb647f1	-0.089004405
46	0x3e4e3054	0.20135623
47	0xbdca4f32	-0.098783866
48	0xbdeed8ce	-0.11662446
49	0x3df17c88	0.117913306
50	0xbda1d760	-0.07902408
51	0x3dc2850b	0.09498032
52	0x3da13ea4	0.07873276
53	0xbe90f7c1	-0.2831402
54	0xbda9b5e1	-0.08286644
55	0x3ea35633	0.31901702
56	0xbb0e443e	-0.0021708156
57	0x3eab9c32	0.33517605
58	0x3e88cd43	0.26719102
59	0xbdcb336a	-0.09921916
60	0xbe23bdcf	-0.15990375
61	0x3deedad1	0.1166283
62	0xbd6f2323	-0.05838312
63	0xbd3af097	-0.0456396
64	0xbcc5fe63	-0.024169153
65	0xbe69d0c1	-0.2283354
66	0x3e63e652	0.22255829
67	0xbe0d7887	-0.13815509
68	0xbe936dd0	-0.28794718
69	0xbe8d64b9	-0.27615908
70	0xbe66f661	-0.22554924
71	0x3d85895d	0.065203406
72	0xbeae4cef	-0.3404307
73	0x3e05bd15	0.1306041
74	0xbe5f067f	-0.21779822
75	0xbc2c58d0	-0.010519221
76	0xbdaf6389	-0.08563907
77	0xbdd8ed95	-0.1059219
78	0x3e699db8	0.22814071
79	0xbdf70643	-0.12061741
80	0x3df6c6dd	0.12049649
81	0x3e766ad1	0.24064185
82	0x3e32da47	0.17466079
83	0x3e1a090f	0.15042518
84	0xbd07c214	-0.03314407
85	0xbe3bd4f6	-0.18342957
86	0xbe85a72e	-0.2610411
87	0x3eabf1bd	0.3358287
88	0xbea43c96	-0.32077473
89	0xbdb0d52d	-0.0863441
90	0x3e995800	0.2994995
91	0xbd89a7e7	-0.06721478
92	0xbe98048b	-0.29690966
93	0x3eb23131	0.34803155
94	0xbdba72db	-0.09103938
95	0x3e173a92	0.14768437
96	0x3e24b061	0.16082908
97	0xbde69623	-0.11259105
98	0xbeaf68d4	-0.34259665
99	0xbd4e061f	-0.050298806
100	0xbe8fa9bd	-0.28059188
101	0xbe31e043	-0.17370705
102	0xbe98460d	-0.29740945
103	0x3e28d696	0.16488108
104	0xbe7ed9e1	-0.24887802
105	0x3e306d40	0.17229176
106	0x3e983ce1	0.29733947
107	0x3e3479e2	0.1762462
108	0x3e57136c	0.21003503
109	0x3d75f8be	0.060051672
110	0x3e724edd	0.23662896
111	0x3eaa32b4	0.33241808
112	0x3d9a6b28	0.0753997
113	0x3e19d7bf	0.15023707
114	0x3e642a0c	0.22281665
115	0xb92f5ccb	-0.00016723869
116	0x3e9b9bb9	0.30392244
117	0x3daf4db9	0.08559746
118	0xbe5cb9f6	-0.21555313
119	0xbe8976a3	-0.26848325
120	0x3db842ce	0.08997117
121	0xbe8f0ef6	-0.27941102
122	0xbea35977	-0.31904194
123	0x3ea834b4	0.3285271
124	0x3e88a221	0.26686195
125	0xbdc3c3a9	-0.095588036
126	0x3e347773	0.17623691
127	0x3df51174	0.119662195
128	0x3ea760d0	0.3269105
129	0x3ddcd710	0.107832074
130	0x3e278ceb	0.1636235
131	0xbe817443	-0.25284013
132	0x3def5437	0.116859846
133	0xbe8b7738	-0.27239394
134	0xbe8a489c	-0.27008522
135	0x3e474ec8	0.19463646
136	0xbe312d60	-0.17302465
137	0x3e8c3b4d	0.27388993
138	0xbdb6e24a	-0.0892988
139	0x3e3c2171	0.18372132
140	0x3ea8ae4c	0.32945478
141	0x3d3c2fb7	0.045943942
142	0x3ea46289	0.32106426
143	0xbe640dce	-0.22270891
144	0x3e400d36	0.1875504
145	0x3de391f9	0.111118264
146	0x3e89baff	0.2690048
147	0x3ea68487	0.32522985
148	0xbd967925	-0.07347325
149	0x3d9b79b7	0.07591575
150	0xbe36b6d1	-0.17843176
151	0x3e19a6ce	0.15005037
152	0xbab5dd53	-0.0013875164
153	0xbe26d45d	-0.16291948
154	0xbe480e71	-0.19536759
155	0x3db4900e	0.08816539
156	0x3ea12fd0	0.3148179
157	0xbea03bed	-0.3129572
158	0x3e69c275	0.22828086
159	0x3e7eb73e	0.24874589
160	0xbe9c83ae	-0.30569214
161	0x3e252ab5	0.16129573
162	0x3d001836	0.03127309
163	0x3e88cb60	0.26717663
164	0x3e990e5e	0.29893774
165	0x3e4b073e	0.19826981
166	0xbe0d8396	-0.13819727
167	0xbe9e31d0	-0.3089738
168	0x3e7cb977	0.24680124
169	0x3a495ee9	0.0007681684
170	0x3e1332fb	0.14374916
171	0x3de45b25	0.11150197
172	0x3d3ffdee	0.046873026
173	0x3e89008c	0.2675823
174	0xbdb53c31	-0.08849371
175	0x3e125ecb	0.14293973
176	0x3e280ceb	0.16411178
177	0xbe2465a8	-0.16054404
178	0x3e1b6a94	0.15177375
179	0x3ccdc12e	0.02511653
180	0xbeb3e747	-0.35137388
181	0x3e483e07	0.19554912
182	0xbe9ff932	-0.31244808
183	0x3e240195	0.16016228
184	0xbe26c231	-0.16285016
185	0xbe300b4c	-0.1719181
186	0x3e4affaa	0.1982409
187	0xbc71df0b	-0.01476265
188	0xbe843319	-0.25820234
189	0x3dfb0473	0.12256708
190	0xbe473dc4	-0.19457155
191	0xbea52bf9	-0.3226011
192	0x3e919f09	0.28441647
193	0xbe98b0c6	-0.29822367
194	0xbe1a43ef	-0.15064977
195	0xbe5a644b	-0.21327321
196	0x3e8a4d95	0.27012315
197	0xbd029567	-0.031880762
198	0xbe97331d	-0.29531184
199	0x3e5479e9	0.2074963
200	0x3e880042	0.26562697
201	0x3ddf0893	0.10890307
202	0xbd1ffe96	-0.03906115
203	0xbeae174e	-0.34002155
204	0xbd5e9501	-0.05434132
205	0x3e46a6b9	0.19399537
206	0xbe762424	-0.24037224
207	0xbeb25d7f	-0.34836957
208	0xbb23c67b	-0.002499013
209	0x3d67e827	0.056617882
210	0xbe0dd82d	-0.13851996
211	0xbe157e79	-0.14599027
212	0xbe8c65bb	-0.27421364
213	0xbd5b2de5	-0.053510565
214	0x3ea865cc	0.32890165
215	0x3e96c0d8	0.29444003
216	0x3d7144f0	0.058903635
217	0x3a9a65db	0.0011779623
218	0x3ea1b67a	0.3158453
219	0x3d580267	0.052736666
220	0xbd47d7e2	-0.048789866
221	0xbe808552	-0.25101715
222	0x3ea7351a	0.326577
223	0xbeacdbf6	-0.33761567
224	0xbdfd234f	-0.1236025
225	0x3d9e044c	0.07715663
226	0x3d30dc2e	0.04317873
227	0xbdec86a3	-0.115491174
228	0xbea89c8e	-0.32931942
229	0x3d107c01	0.03527451
230	0xbdae0e83	-0.08498862
231	0xbe7dc4fe	-0.24782178
232	0xbe609293	-0.21930914
233	0xbe30d340	-0.17268085
234	0xbea7789a	-0.327092
235	0x3e2fa9c5	0.17154606
236	0xbbabd1ee	-0.0052435314
237	0xbe9cb5b4	-0.30607378
238	0x3e37dea9	0.17956032
239	0x3e8a125b	0.2696713
240	0x3da16e26	0.07882337
241	0xbdf31489	-0.11869151
242	0xbde843bf	-0.113410465
243	0x3dea2291	0.11432374
244	0x3eaaf5fa	0.3339079
245	0x3d101b43	0.03518225
246	0xbe09e210	-0.13465142
247	0xbd4523a0	-0.048129678
248	0x3e0acbd4	0.13554317
249	0x3e9def10	0.30846453
250	0x3ead5f91	0.33861974
251	0x3eb47b39	0.3525026
252	0xbe783aa3	-0.24241118
253	0x3d708dee	0.058729105
254	0x3c9ad413	0.018899953
255	0x3d953933	0.072863005

actor.customer_encoder.0.attention.combine.weight f4 [32, 32]
0	0xbce92b2a	-0.028462965
1	0xbe022364	-0.12708813
2	0x3d8e5c08	0.06951147
3	0x3de878d4	0.11351171
4	0x3d07fb20	0.033198476
5	0x3ca9bd0a	0.020720024
6	0x3e205f0e	0.1566126
7	0xbd7b7b81	-0.06139708
8	0xbcbda5f0	-0.023150414
9	0x3d54fd85	0.051999588
10	0xbdd4e92a	-0.10396035
11	0xbe141306	-0.14460382
12	0xbd0ce6ed	-0.034399915
13	0x3dd96ee1	0.106168516
14	0xbdabb203	-0.083835624
15	0x3d701d2d	0.058621574
16	0xbbbe5718	-0.005808722
17	0x3e1de540	0.15419483
18	0x3dd126a9	0.10212452
19	0xbdba6232	-0.091007605
20	0xbe31b3c7	-0.17353736
21	0x3dbf5fd7	0.09344452
22	0xbe3251ed	-0.17414065
23	0xbde7f8e2	-0.113267675
24	0x3e1db003	0.15399174
25	0x3d2fe581	0.04294348
26	0x3c653e22	0.013991864
27	0xbe010747	-0.12600432
28	0xbd262911	-0.040566508
29	0x3c8aad6b	0.016928395
30	0x3dc6f7d7	0.097152404
31	0xbda55e96	-0.080746815
32	0xbcd7baf9	-0.026334273
33	0x3d2a3de8	0.041562945
34	0xbe310fb6	-0.1729115
35	0xbd52661f	-0.05136692
36	0xbe2a107c	-0.16607851
37	0xbd7f79cf	-0.062372025
38	0xbdcc98b3	-0.099900626
39	0x3dbbfb8a	0.09178837
40	0xbde2dbe4	-0.11077097
41	0xbe2e3581	-0.17012598
42	0xbcc757eb	-0.024333915
43	0xbdadbb0a	-0.084829405
44	0xbdbf5f98	-0.09344405
45	0xbd5de35f	-0.054171916
46	0x3d95b96e	0.073107585
47	0xbe18f9e8	-0.14939082
48	0xbe059a0f	-0.1304705
49	0x3cddbdac	0.027067982
50	0x3dbd50b5	0.09243909
51	0x3bb20109	0.0054322523
52	0x3e2ad10e	0.1668131
53	0x3dadce4b	0.08486613
54	0xbe06fef1	-0.1318319
55	0x3dbc651c	0.091989726
56	0xbdb05a50	-0.08610976
57	0x3e01c2ac	0.12671918
58	0xbcf73c06	-0.030179989
59	0x3e134745	0.14382656
60	0xbcd012db	-0.025399616
61	0xbd34d38f	-0.04414707
62	0xbe04c15c	-0.12964386
63	0x3e2d8036	0.1694344
64	0xbddf4bdb	-0.1090314
65	0xbd9cdd4f	-0.07659399
66	0xbdb4d2f8	-0.088293016
67	0xbe417ea0	-0.1889596
68	0xbdac32e6	-0.084081456
69	0x3e2337e1	0.15939285
70	0x3dee9443	0.116493724
71	0x3d36373e	0.044486277
72	0xbd834b7c	-0.06410882
73	0x3c3514bd	0.011052308
74	0xbd40ab3f	-0.047038313
75	0xbe21c7b1	-0.15798832
76	0x3e09ab85	0.13444336
77	0x3dbb1f31	0.09136809
78	0x3e20ce75	0.15703757
79	0xbe1b5b11	-0.15171458
80	0x3d1891a8	0.037248284
81	0x3db050c4	0.08609155
82	0xbc77973a	-0.015111739
83	0x3dbd5ff7	0.092468195
84	0x3dcf99a1	0.10136724
85	0xbdcb1945	-0.09916929
86	0x3dfd396f	0.1236447
87	0x3d2ff158	0.042954773
88	0xbd0b7e61	-0.03405607
89	0x3d7c120b	0.061540645
90	0x3e084224	0.1330648
91	0x3d3d91bf	0.046281572
92	0x3dabdee6	0.08392124
93	0xbe07e3b6	-0.13270459
94	0xbdc1af01	-0.094572075
95	0xbcdcfe5b	-0.026976755
96	0x3dc6bcb0	0.09703958
97	0x3dd5ba25	0.10435895
98	0xbd44fa60	-0.04809034
99	0xbd2ba4fd	-0.041905392
100	0xbd0e614a	-0.03476075
101	0xbd7b06d0	-0.061285794
102	0x3e18e3b9	0.1493062
103	0x3dc4b7db	0.0960538
104	0x3dd5bae0	0.10436034
105	0xbd7ced0f	-0.061749514
106	0xbd4cd65c	-0.050009117
107	0xbe169556	-0.14705405
108	0x3e137d01	0.14403154
109	0xbd8c2ccb	-0.06844481
110	0xbcc46099	-0.023971843
111	0xbded3211	-0.11581815
112	0x3d3ed2b6	0.04658767
113	0x3d9d377a	0.07676597
114	0xbe368649	-0.17824663
115	0x3e0d2dfe	0.13787076
116	0x3d4b68a9	0.04966036
117	0x3db8d86a	0.09025653
118	0xbe0d7a5c	-0.13816208
119	0x3d7d91b1	0.06190652
120	0x3e30d52a	0.17268816
121	0x3e040392	0.12891987
122	0xbdcb60bc	-0.0993056
123	0x3ca8ec79	0.020620571
124	0xbde9d20b	-0.11417016
125	0x3d6f5392	0.05842931
126	0x3d970376	0.07373707
127	0x3dbaf147	0.09128051
128	0xbe1cd46d	-0.15315409
129	0x3db3969a	0.08768959
130	0xbabb8823	-0.001430754
131	0xbe047df9	-0.1293868
132	0xbda199ef	-0.07890689
133	0x3e2895c3	0.1646338
134	0xbe140b76	-0.14457497
135	0x3df159f5	0.11784736
136	0x3e1e23ae	0.15443298
137	0xbdf815f0	-0.12113559
138	0xbe26ae82	-0.16277507
139	0xbe00983a	-0.1255807
140	0x3c12d643	0.008962217
141	0xbe28a019	-0.16467322
142	0x3e00c63d	0.12575622
143	0x3e18d84d	0.14926262
144	0xbc5954f3	-0.013264882
145	0x3dbaf200	0.09128189
146	0x3de82f78	0.11337179
147	0x3d4e8485	0.05041935
148	0xbd9edd4b	-0.07757052
149	0x3c296ca0	0.01034084
150	0x3e180d9f	0.14848946
151	0xbd3167aa	-0.043311752
152	0x3d069a63	0.03286208
153	0xbb54df12	-0.0032481593
154	0xbd855b26	-0.06511526
155	0xbd1371ed	-0.03599732
156	0xbda24b39	-0.07924504
157	0xbd565d66	-0.052335165
158	0x3e2d6f11	0.169369
159	0xbd09eaa9	-0.033671055
160	0xbc9d9134	-0.019234277
161	0x3e233d74	0.15941411
162	0x3d6a60db	0.057221275
163	0xbe0aaa26	-0.13541469
164	0xbd550bc6	-0.05201318
165	0xbd835f7f	-0.06414699
166	0xbd9499c1	-0.07255889
167	0xbe15df28	-0.14635909
168	0x3db015b2	0.08597888
169	0x3e0b3c69	0.13597263
170	0xbe0eaf6e	-0.13934109
171	0x3e2fef12	0.17181042
172	0x3da955ae	0.08268295
173	0x3e2efcdb	0.17088644
174	0xbdf5b30a	-0.119970396
175	0x3d67ea48	0.056619912
176	0x3e019a47	0.12656508
177	0x3de3ea5a	0.111286834
178	0xbd22d72b	-0.03975598
179	0x3e02b2f6	0.1276358
180	0x3dc61104	0.09671214
181	0xbdfe3649	-0.12412698
182	0x3dac96e8	0.084272206
183	0xbdc17420	-0.09445977
184	0x3e15e1df	0.14636944
185	0xbd92d0e2	-0.071687475
186	0xbdd1f589	-0.1025191
187	0x3da1cd2c	0.079004616
188	0xbdb8e415	-0.09027878
189	0xbd7e7962	-0.06212748
190	0x3de40916	0.111345455
191	0x3e2f9922	0.1714826
192	0x3d55ac28	0.052166134
193	0x3e22355c	0.15840667
194	0x3d981bd4	0.07427183
195	0xbcf7ada3	-0.030234164
196	0xbd81caa6	-0.0633748
197	0xbd26a6cd	-0.040686417
198	0xbb1de365	-0.0024091837
199	0xbc74f18c	-0.014950167
200	0x3cc3d933	0.02390728
201	0x3d14e9a5	0.036355633
202	0xbe00488c	-0.12527674
203	0xbddb1c25	-0.106987275
204	0x3e216772	0.15762118
205	0xbdb6dc87	-0.08928781
206	0x3da8397d	0.0821409
207	0x3e332eb0	0.17498279
208	0xbe1dbbb6	-0.15403637
209	0x3c85bf8f	0.016326694
210	0x3d1bfe1c	0.038084134
211	0xbde29a1a	-0.11064549
212	0xbd16e920	-0.03684342
213	0xbdb31269	-0.08743746
214	0xbe306aea	-0.17228284
215	0xbd33e47e	-0.04391908
216	0x3e1d2b1a	0.15348473
217	0x3e3e74d2	0.18599251
218	0xbdd6c85f	-0.104874365
219	0xbd33e598	-0.04392013
220	0xbdbacb5b	-0.09120818
221	0x3dd28895	0.10279957
222	0xbe1d593e	-0.15366074
223	0xbd8323d7	-0.0640332
224	0xbd68a30a	-0.05679611
225	0xbd9e64f9	-0.07734103
226	0x3e177a3c	0.14792722
227	0xbe2056de	-0.15658137
228	0xbe0370e4	-0.12836033
229	0xbe1e491c	-0.15457577
230	0xbd95623b	-0.072941266
231	0x3dafdf8d	0.08587561
232	0x3ce20ea6	0.027594876
233	0xbc0cbb0d	-0.008589518
234	0x3e0f01ae	0.13965484
235	0x3df0a0e0	0.117494345
236	0x3d2a8ca4	0.04163803
237	0x3d4ccb00	0.049998283
238	0xbd813da6	-0.06310587
239	0xbe2e7333	-0.17036133
240	0x3d0fd413	0.03511436
241	0x3e1f4245	0.15552624
242	0x3e0837da	0.13302556
243	0xbc075793	-0.008260625
244	0x3a8fe249	0.0010977472
245	0x3e273b0a	0.16331115
246	0xbe39860e	-0.18117544
247	0x3e15d342	0.1463137
248	0x3e274633	0.16335373
249	0x3dcd446a	0.100228146
250	0x3d91f6e0	0.07127166
251	0x3c08518b	0.008320223
252	0x3d4369de	0.047708385
253	0xbdb90d14	-0.090356976
254	0xbce356c7	-0.02775134
255	0xbde7991f	-0.113085024

actor.customer_encoder.0.BN1.weight f4 [32]
0	0x3f80995c	1.0046802
1	0x3f834432	1.0255187
2	0x3f80c89a	1.0061219
3	0x3f788139	0.9707218
4	0x3f7ea947	0.99477047
5	0x3f7cec0d	0.98797685
6	0x3f800954	1.0002847
7	0x3f836520	1.0265236
8	0x3f7f5d01	0.9975129
9	0x3f7dcd55	0.99141437
10	0x3f807ecd	1.0038697
11	0x3f82402b	1.0175833
12	0x3f7f0d0a	0.9962927
13	0x3f807dcf	1.0038394
14	0x3f7911f2	0.9729301
15	0x3f7f46d3	0.99717444
16	0x3f7c4165	0.98537284
17	0x3f803326	1.0015609
18	0x3f84933e	1.0357435
19	0x3f805c9d	1.0028263
20	0x3f7e1614	0.9925244
21	0x3f7d09d3	0.98843116
22	0x3f7f7df8	0.9980159
23	0x3f7f8655	0.9981435
24	0x3f806d5b	1.0033373
25	0x3f7efe7c	0.9960706
26	0x3f7daafa	0.99089015
27	0x3f7f3245	0.9968608
28	0x3f8030cf	1.0014895
29	0x3f798b50	0.974782
30	0x3f82731e	1.0191381
31	0x3f8066c1	1.0031358

actor.customer_encoder.0.BN1.bias f4 [32]
0	0xbc859535	-0.016306499
1	0xbcff8b3d	-0.031194324
2	0xbc2b0351	-0.010437802
3	0x3b4662eb	0.0030271362
4	0xbbeea120	-0.007282391
5	0xbb142574	-0.0022605332
6	0x3bf86318	0.0075801723
7	0x3cec2205	0.028824816
8	0x3c1c8103	0.009552243
9	0x3c1ab3ad	0.009442252
10	0xbd13b91f	-0.036065217
11	0xb8e43c93	-0.0001088317
12	0xbbb5bc48	-0.0055461265
13	0x3bca6e29	0.006177683
14	0xbc892ee0	-0.016745985
15	0xbbd309ec	-0.0064403918
16	0x3bc68cde	0.006059273
17	0x3b641079	0.0034799858
18	0xbc439847	-0.011938161
19	0xbb080aef	-0.002075847
20	0xbc6b4444	-0.0143595375
21	0x3c498880	0.012300611
22	0x3c7935d4	0.0152105875
23	0x3c465c65	0.0121069895
24	0x3c9cc268	0.019135669
25	0xbc41697a	-0.011804933
26	0xbc634ad7	-0.013872824
27	0xbc0a4ca0	-0.00844112
28	0xbc63389b	-0.013868476
29	0x3cf10de3	0.029425567
30	0x3cb8ea74	0.022572733
31	0xbb78bb68	-0.00379535

actor.customer_encoder.0.BN1.running_mean f4 [32]
0	0x3f3bb00d	0.7331551
1	0xbeca1f23	-0.3947688
2	0x3eeba9a8	0.46027875
3	0x3f150403	0.58209246
4	0xbf53140d	-0.8245247
5	0x3ee2979c	0.44256294
6	0x3e09b714	0.13448745
7	0x3dfa315d	0.122164465
8	0xbe9b56c5	-0.30339637
9	0x3e94a5e9	0.2903283
10	0xbe71eb3b	-0.2362489
11	0x3e8b3a48	0.27192903
12	0xbf1b40fb	-0.6064603
13	0x3f8cdfe8	1.1005831
14	0x3f0d6279	0.5522838
15	0x3eaccaa0	0.3374834
16	0xbe44a19a	-0.19202271
17	0xbea85599	-0.32877806
18	0x3dff72b9	0.124730535
19	0x3e443b1a	0.1916317
20	0xbe8562a9	-0.26051834
21	0xbef4592f	-0.47724292
22	0xbf0d3dbd	-0.5517233
23	0xbef04524	-0.4692775
24	0x3e35deb2	0.17760733
25	0x3d7a5f2f	0.06112593
26	0x3e379315	0.17927201
27	0x3ecae703	0.39629373
28	0x3e101355	0.14069875
29	0xbd8b3173	-0.06796541
30	0x3d61293b	0.05497096
31	0xbd960f1b	-0.073271

actor.customer_encoder.0.BN1.running_var f4 [32]
0	0x3c9fbee6	0.019500207
1	0x3b3705a9	0.0027926958
2	0x3d09dc45	0.03365733
3	0x3c92cc96	0.01791982
4	0x3cfdc394	0.030977048
5	0x3cfc515d	0.030800516
6	0x3c796d8d	0.015223873
7	0x3b37fdb1	0.0028074796
8	0x3c2d0590	0.010560408
9	0x3b39c22a	0.002834449
10	0x3cd05979	0.025433289
11	0x3c6ac518	0.014329217
12	0x3ca7847a	0.020448912
13	0x3d683894	0.056694582
14	0x3c3417d5	0.01099201
15	0x3c3c2010	0.011482254
16	0x3bb1f1f4	0.0054304544
17	0x3bffafb9	0.00780293
18	0x3c350121	0.011047632
19	0x3bdad754	0.006678501
20	0x3c08091f	0.008302956
21	0x3d061bcb	0.03274135
22	0x3c493985	0.01228178
23	0x3ba0648d	0.004894799
24	0x3c774161	0.015091271
25	0x3b027768	0.0019907597
26	0x3c7d5b73	0.015463698
27	0x3c78fbd3	0.015196758
28	0x3d1c7fd3	0.03820784
29	0x3c80a9f6	0.015706044
30	0x3b7e9d33	0.0038851022
31	0x3c5c3fb0	0.013442919
