output/282nodes_entropy0.01_0.4_0.85_2_230823/epoch81.pth (torch, 519145 bytes, 129 tensors)

critic.ff_layer1.weight f4 [32, 283]
0.1374861 0.097280875 0.002420719 0.03540138 -0.008370288 -0.007817133 -0.011488101 0.03414644
0.03974593 -0.026321935 0.03916807 0.010399936 0.02312253 0.027286261 0.03378337 0.005380162
0.032712426 0.009404593 0.011416615 0.027067967 -0.017032132 0.041567832 -0.007881192 0.06094611
-0.012633547 -0.0031673228 -0.03245559 -0.017306494 0.0036974747 -0.011131094 0.062405065 -0.014060513
0.061450988 0.02790776 -0.0055014417 0.04772885 0.022436636 0.072066 -0.0074918265 -0.014710922
0.04416845 -0.007924565 0.0014743429 0.04195605 0.041103724 -0.00073954306 0.0009143751 -0.01641045
0.014430225 -0.0058919294 -0.02015658 -0.009799663 0.006109108 0.04047641 0.0076887603 0.023978598
-0.008529317 0.016137015 0.08376404 -0.027636917 0.051714543 -0.020870717 0.034876157 -0.028492438
-0.0074494136 0.0037406257 0.027098734 -0.0030742602 7.5572636e-05 -0.0045415717 0.13268088 -0.0058720075
0.06810816 -0.007570501 -0.0250878 -0.012217046 0.019234458 0.012727997 0.024506057 0.106985696
-0.03710566 -0.009494488 0.0051475614 -0.04672874 0.04621522 0.016191542 0.034184754 -0.008126202
0.016061055 0.01149746 0.0010234358 0.017463507 0.039773814 0.037853945 -0.011851264 -0.015829427
0.059043303 -0.0021608048 -0.023954194 0.009557999 -0.018905152 -0.019415477 -0.021415146 -0.036544345
0.011519335 -0.022913165 -0.010002552 -0.0088118 -0.036921397 -0.008415225 0.052315213 -0.0015177901
0.043482874 -0.016326109 -0.0067611984 -0.01777154 0.016618133 -0.011945907 -0.0150494175 -0.014851166
-0.006486071 0.032368895 -0.013353424 -0.004967631 -0.010782206 -0.018401949 -0.006822059 -0.00072828616
0.04160601 0.0018963254 0.029550552 0.013693141 -0.036787238 0.026743675 0.0037616766 -0.0023119038
-0.042579945 -0.027032427 0.016337248 -0.02616627 0.0011026303 -0.00084927434 0.062371835 0.019636221
-0.019242214 0.012206678 0.03735079 0.05302412 0.0148110045 -0.032529138 -0.006320307 -0.026190488
0.020031853 -0.0027415634 0.108970016 -0.031981017 -0.002501508 -0.0075517194 0.009508938 -0.0082119955
0.07766308 -0.042115863 0.0151681295 -0.012737937 0.054542873 0.036107603 -0.0055319797 0.075775355
-0.010164839 -0.023379622 -0.019994305 -0.023514269 0.06773533 -0.009606313 -0.052105885 0.01515772
0.0077975946 0.029948762 0.057934042 0.0006855405 -0.004982158 0.04728451 -0.016383274 -0.0041728215
0.0020714914 0.02006212 -0.010787416 0.03178026 -0.011936474 -0.013134912 -0.0024540122 -0.034449067
0.057266723 0.011332578 0.006286415 0.0019187854 0.05441409 -0.022635173 -0.011121974 0.010457241
-0.0112883495 -0.010358405 0.06916368 0.045661744 -0.010339399 -0.027907932 -0.0025051197 -0.022799712
-0.0017874105 0.067000784 0.048434384 0.054439086 -0.0143105555 -0.031387925 -0.00514214 0.033616006
0.0040539503 0.007369165 0.024922427 0.0022635444 -0.015400585 0.09251725 0.002057671 -0.024945254
-0.018883105 0.06528843 0.055596452 0.008705271 -0.019296303 -0.009633455 -0.013503407 0.061227974
0.005166018 0.05032364 0.0029864982 0.0034449843 -0.012045346 -0.002165692 -0.035203595 0.009943682
0.033641554 -0.018936003 0.0086195655 -0.01665141 -5.1983887e-05 -0.010789853 -0.037824802 -0.0026841562
-0.016146123 0.085895054 0.035319682 -0.02396284 -0.021605093 0.00073458446 0.0008516729 -0.01313248
00000000: 28c9 0c3e 323b c73d eda4 1e3b 0a01 113d
00000010: 8823 09bc 6f13 00bc 9738 3cbc 23dd 0b3d
00000020: a1cc 223d 19a1 d7bc b36e 203d 7e64 2a3c
00000030: 766b bd3c 7087 df3c 6e60 0a3d 124c b03b
00000040: 77fd 053d b915 1a3c c10c 3b3c a4bd dd3c
00000050: f886 8bbc 0843 2a3d 1d20 01bc a1a2 793d
00000060: f0fc 4ebc dc92 4fbb 27f0 04bd 59c6 8dbc
00000070: 5551 723b 315f 36bc 749c 7f3d 115e 66bc
00000080: 08b4 7b3d d19e e43c 7045 b4bb 547f 433d
00000090: 09cd b73c 5797 933d ff7d f5bb 1406 71bc
000000a0: fae9 343d 09d6 01bc bd3e c13a 1bda 2b3d
000000b0: 615c 283d e5dd 41ba adb2 6f3a 356f 86bc
000000c0: c06c 6c3c 1611 c1bb 691f a5bc c48e 20bc
000000d0: ea2e c83b 98ca 253d fff1 fb3b c46e c43c
000000e0: 8cbe 0bbc c631 843c 7b8c ab3d d166 e2bc
000000f0: a1d2 533d 11f9 aabc 4dda 0e3d f968 e9bc
00000100: 361a f4bb 4925 753b 2afe dd3c 8779 49bb
00000110: c07c 9e38 77d1 94bb 7fdd 073e f869 c0bb
00000120: 4a7c 8b3d f711 f8bb ee84 cdbc 012a 48bc
00000130: 9591 9d3c 1789 503c edc0 c83c 511b db3d
00000140: 1bfc 17bd c58e 1bbc e0ac a83b a366 3fbd
00000150: 2c4c 3d3d 20a4 843c 5005 0c3d c323 05bc
00000160: 7992 833c d85f 3c3c cf24 863a a10f 8f3c
00000170: dee9 223d bd0c 1b3d ce2b 42bc b7ac 81bc
00000180: 64d7 713d 4a9c 0dbb 963b c4bc 2799 1c3c
00000190: fade 9abc 350d 9fbc d16e afbc 86af 15bd
000001a0: 98bb 3c3c 64b4 bbbc bee1 23bc 5e5f 10bc
000001b0: e43a 17bd 03e0 09bc 7a48 563d 96f0 c6ba
000001c0: 191b 323d 55be 85bc 0b8d ddbb 9f95 91bc
000001d0: c022 883c c4b8 43bc d591 76bc 4e52 73bc
000001e0: 1b89 d4bb 3f95 043d 52c8 5abc 82c7 a2bb
000001f0: daa7 30bc afbf 96bc 948b dfbb 75ea 3eba
00000200: 106b 2a3d 1f8e f83a 0014 f23c 3259 603c
00000210: 37ae 16bd 8d15 db3c 7686 763b 4f83 17bb
00000220: 4f68 2ebd 1c73 ddbc b1d5 853c a55a d6bc
00000230: 2286 903a d6a1 5eba 9c79 7f3d 24dc a03c
00000240: d9a1 9dbc 85fe 473c 24fd 183d d22f 593d
00000250: dba9 723c 463d 05bd 941a cfbb 6f8d d6bc
00000260: d719 a43c cdab 33bb ac2b df3d 87fe 02bd
00000270: 57f0 23bb 6a74 f7bb 60cb 1b3c 9b8b 06bc
00000280: d20d 9f3d af81 2cbd bf83 783c c8b2 50bc
00000290: 5968 5f3d 91e5 133d 9c45 b5bb 1c30 9b3d
000002a0: 6d8a 26bc 9f86 bfbc 19cb a3bc ffa0 c0bc
000002b0: d2b8 8a3d cc63 1dbc fb6c 55bd 1658 783c
000002c0: f782 ff3b 1b57 f53c 3f4c 6d3d d8b5 333a
000002d0: 5f41 a3bb 67ad 413d 3736 86bc 2abc 88bb
000002e0: dcc1 073b 5159 a43c b4bd 30bc 052c 023d
000002f0: 3391 43bc d033 57bc 7ed3 20bb 771a 0dbd
00000300: 8390 6a3d 47ac 393c 45fe cd3b c17f fb3a
00000310: 4fe1 5e3d 666d b9bc f138 36bc d954 2b3c
00000320: c5f2 38bc 4db6 29bc b0a5 8d3d cf07 3b3d
00000330: 9566 29bc 2d9f e4bc ef2c 24bb 76c6 babc
00000340: 8b47 eaba b537 893d 2263 463d 85fb 5e3d
00000350: d276 6abc a090 00bd 667f a8bb f0b0 093d
00000360: 00d7 843b 0979 f13b 1e2a cc3c f957 143b
00000370: bc52 7cbc af79 bd3d fed9 063b fd59 ccbc
00000380: beb0 9abc f1b5 853d 1bb9 633d 8ea0 0e3c
00000390: 4813 9ebc a4d5 1dbc 653d 5dbc 2fca 7a3d
000003a0: b347 a93b 2920 4e3d 20b9 433b 3fc5 613b
000003b0: d859 45bc 48ee 0dbb a531 10bd d3ea 223c
000003c0: bacb 093d ad1f 9bbc 1439 0d3c 8a68 88bc
000003d0: 4609 5ab8 ecc7 30bc 2eee 1abd abe8 2fbb
000003e0: e044 84bc bfe9 af3d 5fab 103d b84d c4bc
000003f0: 2afd b0bc 2191 403a cd42 5f3a 9d29 57bc

critic.ff_layer2.weight f4 [283, 32]
-0.098928936 0.42513558 0.022079507 -0.22812508 0.21013625 -0.12217388 0.20666517 -0.021630632
-0.18069708 0.08552862 -0.08821636 0.12498161 -0.191842 -0.1757 0.016748717 0.5276764
-0.116121195 -0.14685154 0.25639567 0.28790924 0.5028827 -0.12929589 -0.04220656 -0.16238855
0.46497658 0.22170644 0.15923998 -0.20844865 0.15857898 0.16463082 0.22670005 0.4037541
-0.116089486 -0.1029902 0.1399809 0.052393567 -0.03455064 -0.056718003 -0.15880777 -0.22558735
-0.12520441 -0.12454412 -0.02312981 -0.19623698 0.081499465 -0.15682572 -0.10326488 -0.077871494
-0.106113486 0.05748445 0.040051613 0.109558895 -0.032859765 0.026608476 -0.037099157 0.064007446
0.046050016 0.037797496 0.16317987 0.05522382 -0.059183776 0.12192476 -0.098151416 -0.05930584
-0.0772322 -0.019108932 0.04332263 -0.16763431 -0.1380479 -0.028665747 0.010776861 0.14448082
-0.13674505 0.04405735 0.069901 -0.13632546 0.033416767 -0.04823621 0.028530752 -0.029634861
-0.10325704 -0.07371905 0.1368356 -0.0018795626 -0.05314387 0.03612772 0.13003795 -0.09783393
-0.06317757 -0.0690179 -0.08221073 -0.035709716 -0.016476246 -0.065328404 -0.055656638 -0.11558017
-0.14101699 -0.03255952 0.08128957 0.069144614 0.13566038 0.061222453 -0.12523776 -0.04875121
-0.12690304 0.040391803 -0.009805764 0.04064034 -0.14318594 0.076458946 -0.13956001 -0.044627693
-0.16010824 0.04763238 -0.11870109 -0.17936742 -0.034536134 0.10048505 -0.045294408 0.037998833
-0.0005387883 -0.17779492 0.057590883 0.025475968 -0.13577035 0.057717618 0.13662848 0.11080368
-0.14969477 0.024797278 0.14190799 0.00025423637 -0.084578864 0.054980546 -0.19627239 -0.094576366
-0.022913055 0.101716325 -0.0672237 0.10087564 0.017562555 0.0040864535 0.06893744 -0.01359235
0.062454317 0.054784615 -0.0682425 0.065265685 -0.033355247 -0.11811384 0.027889112 0.017167777
-0.123450086 0.06399952 0.08641121 0.027949737 -0.03618323 0.02385387 0.039640594 -0.046478696
0.026504314 -0.098637514 -0.016783753 -0.027861781 0.07111116 0.043746036 0.12130058 -0.12326317
-0.050433353 -0.02457357 0.11307428 0.12625344 0.056435104 -0.10470847 -0.11280492 -0.016962562
-0.20021863 -0.07922602 -0.050441265 0.046924282 -0.07226936 -0.1578144 0.07036408 -0.14183488
-0.010628185 0.11648319 0.047553226 -0.13394564 -0.017197372 -0.03632003 0.06800199 0.10253951
0.10309646 -0.03977607 0.093438 -0.13924621 0.10964026 0.07075025 -0.15773372 -0.04848017
-0.06588612 -0.06152269 -0.015812626 -0.06644839 0.0605746 -0.06869922 0.123680145 -0.018517882
-0.07558203 -0.020355346 0.048496027 -0.09365349 -0.045272823 -0.13441068 0.10231988 -0.0022290642
-0.03619881 0.06461285 0.0056262366 -0.082693174 -0.04314676 -0.008802586 0.13652238 -0.09068405
-0.15308018 -0.15763281 -0.125274 -0.06789169 0.06416372 0.030198619 0.026592337 0.007299855
-0.012655327 -0.14011198 0.11519681 0.12402775 0.00089607993 0.0041228044 -0.005214564 -0.024804449
-0.011893883 0.016126463 -0.097873054 -0.011036365 -0.025093842 -0.12888066 0.046087336 0.058874156
-0.012929624 0.04727425 -0.060130205 0.019623362 -0.15002435 0.038677335 -0.12701945 -0.10307754
00000000: 419b cabd 5fab d93e 15e0 b43c 9f99 69be
00000010: f52d 573e 4d36 fabd 09a0 533e b932 b1bc
00000020: a808 39be a129 af3d c7aa b4bd 5cf6 ff3d
00000030: 3b72 44be b3ea 33be 9b34 893c cd15 073f
00000040: f3d0 edbd 4060 16be 4b46 833e d768 933e
00000050: ecbc 003f 2466 04be c9e0 2cbd 2f49 26be
00000060: 6911 ee3e 0307 633e ce0f 233e 9073 55be
00000070: 8762 223e fb94 283e 0f24 683e dbb8 ce3e
00000080: 53c0 edbd 87ec d2bd 2757 0f3e a39a 563d
00000090: f984 0dbd 2351 68bd 819e 22be 5f00 67be
000000a0: 9635 00be fd10 ffbd ba7a bdbc 59f2 48be
000000b0: 31e9 a63d ec96 20be 8a7c d3bd 177b 9fbd
000000c0: 0752 d9bd d174 6b3d 290d 243d 6a60 e03d
000000d0: f697 06bd 05fa d93c 49f5 17bd 5616 833d
000000e0: f19e 3c3d 8cd1 1a3d a018 273e 5f32 623d
000000f0: b06a 72bd b0b3 f93d 9c03 c9bd aeea 72bd
00000100: ea2b 9ebd 568a 9cbc 1273 313d 54a8 2bbe
00000110: 6e5c 0dbe 6ed4 eabc 6e91 303c c8f2 133e
00000120: e506 0cbe 7b75 343d 4128 8f3d e798 0bbe
00000130: 05e0 083d 5593 45bd 53b9 e93c cfc4 f2bc
00000140: 6d78 d3bd 03fa 96bd a21e 0c3e a85b f6ba
00000150: 63ad 59bd a9fa 133d ab28 053e 285d c8bd
00000160: 3e63 81bd 4259 8dbd 195e a8bd 5a44 12bd
00000170: 31f9 86bc e6ca 85bd 37f8 63bd 4cb5 ecbd
00000180: c266 10be 225d 05bd 257b a63d b19b 8d3d
00000190: 8eea 0a3e 65c4 7a3d 543e 00be 59af 47bd
000001a0: dff2 01be e071 253d 5ba8 20bc 7c76 263d
000001b0: 569f 12be 8296 9c3d d2e8 0ebe 87cb 36bd
000001c0: 6af3 23be 2c1a 433d 8f19 f3bd 18ac 37be
000001d0: c375 0dbd 1bcb cd3d a186 39bd aaa4 1b3d
000001e0: 793d 0dba df0f 36be 6be4 6b3d fab2 d03c
000001f0: 6207 0bbe 4f69 6c3d 56e8 0b3e 0aed e23d
00000200: 9649 19be a923 cb3c 5450 113e 074b 8539
00000210: af37 adbd 4833 613d a1fb 48be 41b1 c1bd
00000220: 29b4 bbbc a650 d03d 94ac 89bd e397 ce3d
00000230: 59df 8f3c a8e7 853b 132f 8d3d 73b2 5ebc
00000240: 19d0 7f3d d565 603d b9c2 8bbd 04aa 853d
00000250: 839f 08bd abe5 f1bd b577 e43c 70a3 8c3c
00000260: 66d3 fcbd 2e12 833d 5cf8 b03d d9f6 e43c
00000270: de34 14bd 3169 c33c 2d5e 223d 7260 3ebd
00000280: 931f d93c 7702 cabd 157e 89bc 643e e4bc
00000290: baa2 913d 0b2f 333d 706c f83d 6771 fcbd
000002a0: 3493 4ebd 834e c9bc 7d93 e73d 9548 013e
000002b0: 7f28 673d 6571 d6bd 4406 e7bd 12f5 8abc
000002c0: 1d06 4dbe 4041 a2bd 809b 4ebd ad33 403d
000002d0: f501 94bd 199a 21be 0b1b 903d 2a3d 11be
000002e0: d721 2ebc bd8e ee3d 2cc7 423d 0c29 09be
000002f0: 81e1 8cbc 50c4 14bd a144 8b3d 3c00 d23d
00000300: 3d24 d33d 3bec 22bd 6c5c bf3d 8f96 0ebe
00000310: 138b e03d 82e5 903d f384 21be 2593 46bd
00000320: 4def 86bd 37ff 7bbd 7b89 81bc 1816 88bd
00000330: 121d 783d 2db2 8cbd 044c fd3d d0b2 97bc
00000340: c0ca 9abd 41c0 a6bc c5a3 463d 67cd bfbd
00000350: ff6f 39bd f4a2 09be 168d d13d 7e15 12bb
00000360: 3445 14bd be53 843d 4b5c b83b 0a5b a9bd
00000370: a8ba 30bd b938 10bc 86cc 0b3e 8fb8 b9bd
00000380: 0dc1 1cbe 7f6a 21be d447 00be cc0a 8bbd
00000390: 4568 833d 1863 f73c 2cd8 d93c 9f33 ef3b
000003a0: 4a58 4fbc 8479 0fbe 4eec eb3d 4302 fe3d
000003b0: e8e6 6a3a 9718 873b efde aabb b332 cbbc
000003c0: 90de 42bc a51b 843c ab71 c8bd dfd1 34bc
000003d0: 9a91 cdbc 4bf9 03be 13c6 3c3d 0726 713d
000003e0: c6d6 53bc a5a2 413d 174b 76bd 2cc1 a03c
000003f0: fc9f 19be 206c 1e3d 6311 02be 511a d3bd

actor.customer_encoder.0.attention.query_embed.weight f4 [32, 32]
0.37144592 0.02178773 0.17587195 0.36410034 -0.37312406 -0.07779943 -0.17129587 -0.2166159
0.2061502 0.1726419 0.30758062 0.414285 -0.24909319 0.08100981 0.1502095 -0.07544659
0.23181541 0.3240591 -0.41390288 -0.1305646 0.13034473 -0.3010633 -0.13610877 0.15673131
0.12561649 -0.20037729 -0.018228745 0.075231604 0.41649136 -0.25658596 0.04718132 -0.12941316
0.38435316 0.26977983 -0.015966214 -0.1361851 0.31646475 -0.017296867 -0.092939146 0.28744256
0.086560294 0.014512821 0.3406306 -0.13823046 0.24952815 0.21464026 -0.20429945 0.3293824
0.13047823 -0.25160608 0.24124214 -0.32149237 -0.0004590233 0.13654028 0.15144996 -0.3384838
0.3346827 0.30254275 0.23138972 0.15759203 -0.1854617 0.25085577 0.06720998 -0.07980924
-0.16130085 0.088139184 -0.13019562 -0.32718807 -0.17687495 -0.15932657 -0.037404846 -0.20075087
-0.08667721 -0.21022227 -0.27530354 0.15436445 -0.04231453 -0.17374519 -0.06452223 0.022036871
-0.27360058 0.20228866 0.19291657 0.21014564 -0.20030864 0.35798147 0.24455069 0.15861219
0.16782673 -0.1916215 0.065977916 0.2630638 0.08901781 0.0023884021 -0.37699643 -0.08979648
-0.20372944 0.27421167 -0.027869146 -0.06810749 -0.38145912 -0.28365332 -0.15523419 0.15857145
-0.06374734 0.15320219 0.3550478 -0.18232305 0.06931546 0.06350982 -0.27423358 -0.03173758
0.083555855 -0.162847 -0.28037584 0.2678797 0.1048084 -0.33872026 -0.36865258 0.040665645
-0.1712613 0.07752857 0.18426058 0.08363082 0.24910282 0.1421165 -0.019638555 0.058063906
-0.12338426 -0.18592067 -0.37960243 0.13095486 0.30745798 -0.12338427 0.21853642 0.27571076
0.06555554 0.17602889 0.00017619965 0.16844006 0.2005627 0.20307358 0.30214196 -0.13872644
0.10247987 0.13518302 -0.22652894 -0.27371547 -0.036269773 0.18022817 0.30423337 -0.11251351
-0.16679169 -0.30895007 0.18852524 -0.20688565 0.0795993 0.14078505 -0.06935649 0.339802
0.26519695 -0.041733064 0.0018705562 0.2344169 -0.21658511 -0.28863773 0.23261398 -0.18432674
0.022980008 0.020802625 0.26076376 0.06459877 0.02836886 0.08414825 -0.1485339 -0.3516795
0.29779696 -0.2687916 -0.27398437 -0.092762426 0.21850233 -0.15220106 0.25952786 0.123094894
0.24375945 -0.1346548 0.16900182 0.08768758 0.32430568 -0.16838142 0.32374924 -0.2293397
-0.20643663 0.3285645 0.21281537 0.23121953 -0.20981897 0.3191816 -0.09470378 0.30637994
0.2122217 -0.32902923 -0.06862889 0.39803058 0.18781798 0.07927097 -0.008821741 0.14734246
-0.097733095 -0.10695945 -0.2620211 -0.055802647 -0.2539093 -0.21463776 0.2127195 0.20370367
-0.15424396 -0.07552027 -0.14253496 0.20348775 -0.18159217 -0.19912636 0.17940946 0.008034297
0.13269964 -0.037627492 0.37405613 -0.04089667 0.2794637 0.05322608 0.33685687 -0.20977719
0.19669002 -0.123453744 0.20669046 -0.2548567 0.18892638 -0.07291539 -0.13537824 -0.12812051
0.2564216 -0.05357173 -0.09217643 0.29824612 0.22689943 0.0116938995 -0.13593243 0.08864688
-0.07267073 0.3037989 0.14339438 0.26476386 0.2225767 -0.09318924 -0.2592167 -0.13177699
00000000: 292e be3e 2e7c b23c c717 343e 5c6b ba3e
00000010: 1e0a bfbe 4f55 9fbd 2f68 2fbe 8fd0 5dbe
00000020: 0a19 533e 0ac9 303e 357b 9d3e 2a1d d43e
00000030: 4912 7fbe 79e8 a53d 85d0 193e be83 9abd
00000040: 0561 6d3e 13eb a53e 14eb d3be bab2 05be
00000050: 1779 053e f824 9abe 1960 0bbe 2c7e 203e
00000060: 9ca1 003e b42f 4dbe 7354 95bc 0713 9a3d
00000070: 5b3e d53e 3c5f 83be 3341 413d e284 04be
00000080: f0c9 c43e 9520 8a3e 94cb 82bc 1b74 0bbe
00000090: ab07 a23e 29b2 8dbc e156 bebd ac2b 933e
000000a0: 8646 b13d 2fc7 6d3c 2267 ae3e 498c 0dbe
000000b0: 4f84 7f3e a8ca 5b3e e033 51be cfa4 a83e
000000c0: 169c 053e 83d2 80be 2e08 773e a69a a4be
000000d0: 10a9 f0b9 37d1 0b3e b315 1b3e c04d adbe
000000e0: 885b ab3e e2e6 9a3e 6df1 6c3e ce5f 213e
000000f0: ace9 3dbe 2b70 803e 63a5 893d 0773 a3bd
00000100: 0d2c 25be 5182 b43d 0052 05be 3285 a7be
00000110: b51e 35be 8126 23be d335 19bd a391 4dbe
00000120: d283 b1bd 8244 57be 96f4 8cbe b711 1e3e
00000130: 0052 2dbd 42ea 31be 3b24 84bd ab86 b43c
00000140: 6015 8cbe c224 4f3e ec8b 453e 6b30 573e
00000150: b51d 4dbe 5949 b73e 7f6b 7a3e 3c6b 223e
00000160: c5da 2b3e 6d38 44be 6e1f 873d 4cb0 863e
00000170: f84e b63d bd86 1c3b ad05 c1be 38e7 b7bd
00000180: 739e 50be 7965 8c3e d64d e4bc f17b 8bbd
00000190: 9c4e c3be 023b 91be b6f5 1ebe 8e60 223e
000001a0: f78d 82bd 09e1 1c3e d3c8 b53e e5b2 3abe
000001b0: 44f5 8d3d 7011 823d 5868 8cbe 44ff 01bd
000001c0: 551f ab3d 5dc1 26be 6c8d 8fbe 8727 893e
000001d0: c9a5 d63d be6c adbe 08c0 bcbe 0591 263d
000001e0: 1f5f 2fbe 4dc7 9e3d ceae 3c3e a346 ab3d
000001f0: cf14 7f3e fd86 113e 09e1 a0bc 6bd4 6d3d
00000200: e3b0 fcbd fd61 3ebe 405b c2be 0819 063e
00000210: 226b 9d3e e4b0 fcbd 03c8 5f3e f629 8d3e
00000220: fc41 863d eb40 343e 3cc2 3839 8d7b 2c3e
00000230: 4f60 4d3e 85f2 4f3e 5ab2 9a3e 4e0e 0ebe
00000240: f7e0 d13d 6b6d 0a3e 34f7 67be 6f24 8cbe
00000250: 9d8f 14bd bc8d 383e 7ac4 9b3e 7c6d e6bd
00000260: 71cb 2abe b42e 9ebe c30c 413e d5d9 53be
00000270: f504 a33d f529 103e c70a 8ebd 87fa ad3e
00000280: e5c7 873e 4af0 2abd 732d f53a fc0a 703e
00000290: 7dc8 5dbe 53c8 93be 5c32 6e3e 26c0 3cbe
000002a0: 9240 bc3c 446a aa3c d482 853e 5c4c 843d
000002b0: d065 e83c eb55 ac3d 4519 18be 560f b4be
000002c0: d878 983e 0d9f 89be ae47 8cbe 3afa bdbd
000002d0: 13bf 5f3e 98da 1bbe d6e0 843e 2d19 fc3d
000002e0: 149c 793e f3e2 09be d00e 2d3e 8c95 b33d
000002f0: 650b a63e 2e6c 2cbe 76c2 a53e 07d8 6abe
00000300: 2064 53be 9b39 a83e 46ec 593e d0c4 6c3e
00000310: c9da 56be c56b a33e 0ef4 c1bd d5dd 9c3e
00000320: a550 593e 8576 a8be 4e8d 8cbd aaca cb3e
00000330: 5b53 403e d158 a23d 1089 10bc f1e0 163e
00000340: 4a28 c8bd 8e0d dbbd a127 86be 5191 64bd
00000350: 6600 82be 00ca 5bbe 24d3 593e b297 503e
00000360: 21f2 1dbe 5faa 9abd aff4 11be 185f 503e
00000370: 4cf3 39be c8e7 4bbe 1db7 373e 49a2 033c
00000380: 6ae2 073e 491f 1abd 4984 bf3e 4483 27bd
00000390: de15 8f3e 9703 5a3d 8178 ac3e d5cf 56be
000003a0: 1c69 493e 51d5 fcbd aaa6 533e 947c 82be
000003b0: eb75 413e aa54 95bd 98a0 0abe 0632 03be
000003c0: b149 833e 086e 5bbd ffc6 bcbd b7b3 983e
000003d0: 5358 683e c597 3f3c df31 0bbe 7f8c b53d
000003e0: 64d4 94bd 888b 9b3e fad5 123e 218f 873e
000003f0: 25eb 633e 00da bebd 0db8 84be 8cf0 06be

actor.customer_encoder.0.attention.key_embed.weight f4 [32, 32]
-0.1353684 0.02370774 0.06977421 0.39937764 0.34114322 -0.33069205 0.13710007 -0.23334475
-0.17518066 0.16525705 -0.2774116 0.33242097 0.08738936 0.07245343 0.24559014 -0.33298114
0.07480067 0.08911887 -0.19968762 -0.14965096 0.09644937 0.33553997 -0.13258179 0.22166796
0.16560143 -0.19659555 -0.25599584 -0.035265412 0.25707257 -0.24666749 -0.24159388 0.28297052
-0.20701276 -0.24117854 -0.012909262 0.32325387 0.23041052 0.19369045 0.056195416 -0.19541228
-0.28124136 0.18351793 0.11489396 0.08828129 -0.112511806 -0.35788986 0.027167078 -0.048889417
-0.026338322 0.04592702 -0.197369 -0.21176977 -0.085639425 0.12729701 -0.22509381 0.33122388
-0.34110713 -0.21509787 0.10070544 -0.34193274 -0.20476288 0.16161789 -0.24105488 0.10930463
-0.1781193 -0.14878163 0.055330686 0.027272837 0.32825914 0.07318843 0.064675644 -0.20420188
0.28011706 -0.01606988 0.20614454 -0.27931118 0.19077398 0.28077748 0.2085414 0.28164867
-0.15279868 -0.24321346 0.13860478 0.16289122 -0.20600715 -0.11202979 -0.0035047622 -0.0065477598
0.17123076 0.26137123 0.10330408 -0.14340878 -0.22689784 0.3007042 0.02914706 -0.17467716
-0.25139913 -0.26098374 0.32699263 -0.18443829 -0.3404446 -0.28695324 -0.18971632 0.022319593
-0.23531626 0.16332975 -0.078167036 -0.13355464 -0.24869892 -0.08325725 0.38125286 -0.005415321
0.09947583 -0.36611843 0.19209044 0.034951236 -0.07350131 0.025537612 -0.16056389 -0.27604985
-0.19104414 0.10511381 0.3057738 -0.24861804 0.18399087 -0.13717788 0.27374214 0.05259295
-0.31274152 -0.27786097 0.09163621 0.17676035 0.102723055 0.10577603 -0.047274 -0.21278517
0.03430918 -0.29157197 0.18096378 -0.12822512 -0.30163318 0.028781865 0.09698202 -0.2686616
-0.2156453 -0.04715026 -0.13580182 0.29619455 0.071369275 -0.11682953 -0.28532374 -0.24741141
0.12740335 -0.06968133 0.053277392 0.07202377 0.24152543 -0.013923044 0.1560431 -0.32766882
0.2561505 -0.32654816 -0.1239307 -0.31888422 0.19978894 -0.12037784 -0.36466825 -0.15823244
0.19672857 0.26220277 0.22115202 -0.33658132 -0.16223666 0.064728566 0.0031144088 -0.20370096
0.35059038 -0.24250577 0.23608115 0.2169066 -0.31581828 -0.21010216 -0.21578339 0.2733351
-0.32728848 0.0041374126 -0.110524066 -0.10441001 -0.20901453 -0.27235538 -0.3178353 -0.017220216
0.01822876 0.06645509 0.092334434 -0.12551057 0.20940639 0.19063832 -0.28869197 0.3405972
-0.027271772 -0.0012224606 -0.35271847 0.18208371 0.12958129 0.095081225 0.18689536 -0.3283525
0.35110694 0.22022128 -0.10191204 0.18076977 -0.13844343 -0.097546704 0.0002331712 0.22640379
0.18332216 -0.12958243 -0.29769787 -0.01855762 -0.15214391 -0.0019837918 0.16720808 0.24627323
0.015559829 0.1675428 0.0667928 -0.18897822 0.20568655 -0.23133798 -0.007397067 -0.17749289
0.008518742 0.279881 0.12437534 -0.028339544 -0.310683 -0.26626253 -0.0945839 -0.16682985
0.06682333 -0.32516026 0.34007156 -0.087186106 0.22888017 0.23868307 0.28292224 -0.05058545
0.026822696 0.18244119 -0.26997107 -0.022798434 0.13493386 -0.034296364 -0.2528075 0.047860656
00000000: 049e 0abe bc36 c23c c8e5 8e3d 3a7b cc3e
00000010: 53aa ae3e 7850 a9be f663 0c3e edf1 6ebe
00000020: 8f62 33be 2539 293e e508 8ebe 1533 aa3e
00000030: 31f9 b23d 7762 943d fb7b 7b3e 817c aabe
00000040: 1831 993d f483 b63d e97a 4cbe 1a3e 19be
00000050: 3f87 c53d e5cb ab3e 85c3 07be edfc 623e
00000060: 6c93 293e 5850 49be e311 83be 7772 10bd
00000070: 049f 833e 6796 7cbe 6364 77be 83e1 903e
00000080: 27fb 53be 82f7 76be 5f81 53bc 8881 a53e
00000090: bcf0 6b3e ca56 463e 2a2d 663d 281a 48be
000000a0: defe 8fbe 20ec 3b3e 864d eb3d d2cc b43d
000000b0: 976c e6bd 573d b7be 7e8d de3c 4540 48bd
000000c0: 77c3 d7bc f91d 3c3d 191b 4abe 2dda 58be
000000d0: b963 afbd 265a 023e fe7e 66be 2d96 a93e
000000e0: 98a5 aebe 9e42 5cbe a73e ce3d cf11 afbe
000000f0: 5cad 51be 297f 253e 17d7 76be 1bdb df3d
00000100: e864 36be 365a 18be 6ea2 623d 496b df3c
00000110: 9511 a83e d1e3 953d aa74 843d 4c1a 51be
00000120: 816b 8f3e fba4 83bc 8e17 533e e001 8fbe
00000130: 415a 433e 11c2 8f3e e08b 553e 4134 903e
00000140: 4277 1cbe f30c 79be 69ee 0d3e f5cc 263e
00000150: 8af3 52be e06f e5bd 27b0 65bb 978e d6bb
00000160: 1e57 2f3e 73d2 853e 1791 d33d c0d9 12be
00000170: e857 68be e7f5 993e d1c5 ee3c 92de 32be
00000180: 63b7 80be a99f 85be 946b a73e 64dd 3cbe
00000190: c14e aebe 89eb 92be ff44 42be 94d7 b63c
000001a0: bff6 70be ea3f 273e 0a16 a0bd 8cc2 08be
000001b0: eeaa 7ebe c782 aabd 9333 c33e 0173 b1bb
000001c0: fcb9 cb3d e073 bbbe 5bb3 443e 0729 0f3d
000001d0: db87 96bd 4134 d13c dc6a 24be 6856 8dbe
000001e0: 13a1 43be e945 d73d 628e 9c3e ba95 7ebe
000001f0: 1a68 3c3e 5c78 0cbe ee27 8c3e b56b 573d
00000200: a81f a0be cb43 8ebe c4ab bb3d aa00 353e
00000210: 7760 d23d 1aa1 d83d 62a2 41bd 5be4 59be
00000220: c887 0c3d ec48 95be 924e 393e 724d 03be
00000230: aa6f 9abe f2c7 eb3c 829e c63d 038e 89be
00000240: 1fd2 5cbe a220 41bd a20f 0bbe d0a6 973e
00000250: 0e2a 923d 5244 efbd f415 92be 6b59 7dbe
00000260: 0676 023e 16b5 8ebd 6539 5a3d 3381 933d
00000270: 7152 773e 7b1d 64bc c3c9 1f3e 35c4 a7be
00000280: 2926 833e 5231 a7be 61cf fdbd cb44 a3be
00000290: 7995 4c3e a888 f6bd ccb5 babe af07 22be
000002a0: 3773 493e 713f 863e ad75 623e 6354 acbe
000002b0: 5e21 26be 6990 843d 1c1b 4c3b fc96 50be
000002c0: 9580 b33e 6f53 78be 42bf 713e c41c 5e3e
000002d0: efb2 a1be 0525 57be 52f6 5cbe 94f2 8b3e
000002e0: 5b92 a7be 2293 873b 715a e2bd ead4 d5bd
000002f0: e807 56be 2a72 8bbe 4fbb a2be 6911 8dbc
00000300: 7b54 953c 9b19 883d d619 bd3d d885 00be
00000310: a16e 563e b136 433e 6fcf 93be c262 ae3e
00000320: 0d69 dfbc f93a a0ba 8497 b4be 2774 3a3e
00000330: f5b0 043e f2b9 c23d 7f61 3f3e d21d a8be
00000340: 4ac4 b33e b081 613e 42b7 d0bd b61b 393e
00000350: 1dc4 0dbe 91c6 c7bd 6b7f 7439 65d6 673e
00000360: ceb8 3b3e 42b1 04be db6b 98be 2606 98bc
00000370: 9dcb 1bbe 8102 02bb 9838 2b3e 0d2f 7c3e
00000380: a7ee 7e3c 5790 2b3e aaca 883d 8283 41be
00000390: 7f9f 523e dde3 6cbe 1863 f2bb b2c0 35be
000003a0: 3292 0b3c 904c 8f3e 80b8 fe3d 5528 e8bc
000003b0: d811 9fbe 9053 88be 34b5 c1bd 72d5 2abe
000003c0: acda 883d 687b a6be dc1d ae3e a18e b2bd
000003d0: 905f 6a3e 5669 743e 2fdb 903e b032 4fbd
000003e0: 45bb db3c ddd1 3a3e a639 8abe c8c3 babc
000003f0: 1a2c 0a3e 587a 0cbd fc6f 81be 8909 443d

actor.customer_encoder.0.attention.value_embed.weight f4 [32, 32]
0.061875112 0.33031896 0.11238672 0.13023835 -0.33379087 0.1421214 0.18948966 -0.108406074
-0.22025837 -0.04291826 -0.3040828 0.32529408 -0.21434091 0.31820825 -0.35074902 0.22537816
-0.14778249 -0.27227965 0.09943187 0.3255131 -0.16854154 0.04963082 -0.23154189 0.23037434
0.31827697 -0.09637901 0.33872348 0.18297578 0.047714993 -0.15210928 0.2437863 0.018186701
-0.14952488 -0.34780785 -0.3426746 0.35248893 -0.18684368 -0.26377052 0.224172 -0.10113865
-0.26363224 0.07137619 -0.052258085 0.13640495 0.32850468 -0.089004405 0.20135623 -0.098783866
-0.11662446 0.117913306 -0.07902408 0.09498032 0.07873276 -0.2831402 -0.08286644 0.31901702
-0.0021708156 0.33517605 0.26719102 -0.09921916 -0.15990375 0.1166283 -0.05838312 -0.0456396
-0.024169153 -0.2283354 0.22255829 -0.13815509 -0.28794718 -0.27615908 -0.22554924 0.065203406
-0.3404307 0.1306041 -0.21779822 -0.010519221 -0.08563907 -0.1059219 0.22814071 -0.12061741
0.12049649 0.24064185 0.17466079 0.15042518 -0.03314407 -0.18342957 -0.2610411 0.3358287
-0.32077473 -0.0863441 0.2994995 -0.06721478 -0.29690966 0.34803155 -0.09103938 0.14768437
0.16082908 -0.11259105 -0.34259665 -0.050298806 -0.28059188 -0.17370705 -0.29740945 0.16488108
-0.24887802 0.17229176 0.29733947 0.1762462 0.21003503 0.060051672 0.23662896 0.33241808
0.0753997 0.15023707 0.22281665 -0.00016723869 0.30392244 0.08559746 -0.21555313 -0.26848325
0.08997117 -0.27941102 -0.31904194 0.3285271 0.26686195 -0.095588036 0.17623691 0.119662195
0.3269105 0.107832074 0.1636235 -0.25284013 0.116859846 -0.27239394 -0.27008522 0.19463646
-0.17302465 0.27388993 -0.0892988 0.18372132 0.32945478 0.045943942 0.32106426 -0.22270891
0.1875504 0.111118264 0.2690048 0.32522985 -0.07347325 0.07591575 -0.17843176 0.15005037
-0.0013875164 -0.16291948 -0.19536759 0.08816539 0.3148179 -0.3129572 0.22828086 0.24874589
-0.30569214 0.16129573 0.03127309 0.26717663 0.29893774 0.19826981 -0.13819727 -0.3089738
0.24680124 0.0007681684 0.14374916 0.11150197 0.046873026 0.2675823 -0.08849371 0.14293973
0.16411178 -0.16054404 0.15177375 0.02511653 -0.35137388 0.19554912 -0.31244808 0.16016228
-0.16285016 -0.1719181 0.1982409 -0.01476265 -0.25820234 0.12256708 -0.19457155 -0.3226011
0.28441647 -0.29822367 -0.15064977 -0.21327321 0.27012315 -0.031880762 -0.29531184 0.2074963
0.26562697 0.10890307 -0.03906115 -0.34002155 -0.05434132 0.19399537 -0.24037224 -0.34836957
-0.002499013 0.056617882 -0.13851996 -0.14599027 -0.27421364 -0.053510565 0.32890165 0.29444003
0.058903635 0.0011779623 0.3158453 0.052736666 -0.048789866 -0.25101715 0.326577 -0.33761567
-0.1236025 0.07715663 0.04317873 -0.115491174 -0.32931942 0.03527451 -0.08498862 -0.24782178
-0.21930914 -0.17268085 -0.327092 0.17154606 -0.0052435314 -0.30607378 0.17956032 0.2696713
0.07882337 -0.11869151 -0.113410465 0.11432374 0.3339079 0.03518225 -0.13465142 -0.048129678
0.13554317 0.30846453 0.33861974 0.3525026 -0.24241118 0.058729105 0.018899953 0.072863005
00000000: c270 7d3d 911f a93e 022b e63d 345d 053e
00000010: a3e6 aabe 4688 113e 9409 423e 0104 debd
00000020: 698b 61be 0fcb 2fbd beb0 9bbe f28c a63e
00000030: 2f7c 5bbe 31ec a23e 6095 b3be 88c9 663e
00000040: 4b54 17be 3d68 8bbe f0a2 cb3d a7a9 a63e
00000050: 2796 2cbe b049 4b3d 5119 6dbe 40e7 6b3e
00000060: 33f5 a23e 5c62 c5bd 2a6d ad3e 015e 3b3e
00000070: cc70 433d 89c2 1bbe 1ea3 793e 47fc 943c
00000080: 0d1d 19be df13 b2be 0c73 afbe 6e79 b43e
00000090: f353 3fbe ee0c 87be 588d 653e c821 cfbd
000000a0: cefa 86be ae2d 923d 930c 56bd bdad 0b3e
000000b0: c431 a83e f147 b6bd 5430 4e3e 324f cabd
000000c0: ced8 eebd 887c f13d 60d7 a1bd 0b85 c23d
000000d0: a43e a13d c1f7 90be e1b5 a9bd 3356 a33e
000000e0: 3e44 0ebb 329c ab3e 43cd 883e 6a33 cbbd
000000f0: cfbd 23be d1da ee3d 2323 6fbd 97f0 3abd
00000100: 63fe c5bc c1d0 69be 52e6 633e 8778 0dbe
00000110: d06d 93be b964 8dbe 61f6 66be 5d89 853d
00000120: ef4c aebe 15bd 053e 7f06 5fbe d058 2cbc
00000130: 8963 afbd 95ed d8bd b89d 693e 4306 f7bd
00000140: ddc6 f63d d16a 763e 47da 323e 0f09 1a3e
00000150: 14c2 07bd f6d4 3bbe 2ea7 85be bdf1 ab3e
00000160: 963c a4be 2dd5 b0bd 0058 993e e7a7 89bd
00000170: 8b04 98be 3131 b23e db72 babd 923a 173e
00000180: 61b0 243e 2396 e6bd d468 afbe 1f06 4ebd
00000190: bda9 8fbe 43e0 31be 0d46 98be 96d6 283e
000001a0: e1d9 7ebe 406d 303e e13c 983e e279 343e
000001b0: 6c13 573e bef8 753d dd4e 723e b432 aa3e
000001c0: 286b 9a3d bfd7 193e 0c2a 643e cb5c 2fb9
000001d0: b99b 9b3e b94d af3d f6b9 5cbe a376 89be
000001e0: ce42 b83d f60e 8fbe 7759 a3be b434 a83e
000001f0: 21a2 883e a9c3 c3bd 7377 343e 7411 f53d
00000200: d060 a73e 10d7 dc3d eb8c 273e 4374 81be
00000210: 3754 ef3d 3877 8bbe 9c48 8abe c84e 473e
00000220: 602d 31be 4d3b 8c3e 4ae2 b6bd 7121 3c3e
00000230: 4cae a83e b72f 3c3d 8962 a43e ce0d 64be
00000240: 360d 403e f991 e33d ffba 893e 8784 a63e
00000250: 2579 96bd b779 9b3d d1b6 36be cea6 193e
00000260: 53dd b5ba 5dd4 26be 710e 48be 0e90 b43d
00000270: d02f a13e ed3b a0be 75c2 693e 3eb7 7e3e
00000280: ae83 9cbe b52a 253e 3618 003d 60cb 883e
00000290: 5e0e 993e 3e07 4b3e 9683 0dbe d031 9ebe
000002a0: 77b9 7c3e e95e 493a fb32 133e 255b e43d
000002b0: eefd 3f3d 8c00 893e 313c b5bd cb5e 123e
000002c0: eb0c 283e a865 24be 946a 1b3e 2ec1 cd3c
000002d0: 47e7 b3be 073e 483e 32f9 9fbe 9501 243e
000002e0: 31c2 26be 4c0b 30be aaff 4a3e 0bdf 71bc
000002f0: 1933 84be 7304 fb3d c43d 47be f92b a5be
00000300: 099f 913e c6b0 98be ef43 1abe 4b64 5abe
00000310: 954d 8a3e 6795 02bd 1d33 97be e979 543e
00000320: 4200 883e 9308 df3d 96fe 1fbd 4e17 aebe
00000330: 0195 5ebd b9a6 463e 2424 76be 7f5d b2be
00000340: 7bc6 23bb 27e8 673d 2dd8 0dbe 797e 15be
00000350: bb65 8cbe e52d 5bbd cc65 a83e d8c0 963e
00000360: f044 713d db65 9a3a 7ab6 a13e 6702 583d
00000370: e2d7 47bd 5285 80be 1a35 a73e f6db acbe
00000380: 4f23 fdbd 4c04 9e3d 2edc 303d a386 ecbd
00000390: 8e9c a8be 017c 103d 830e aebd fec4 7dbe
000003a0: 9392 60be 40d3 30be 9a78 a7be c5a9 2f3e
000003b0: eed1 abbb b4b5 9cbe a9de 373e 5b12 8a3e
000003c0: 266e a13d 8914 f3bd bf43 e8bd 9122 ea3d
000003d0: faf5 aa3e 431b 103d 10e2 09be a023 45bd
000003e0: d4cb 0a3e 10ef 9d3e 915f ad3e 397b b43e
000003f0: a33a 78be ee8d 703d 13d4 9a3c 3339 953d

actor.customer_encoder.0.attention.combine.weight f4 [32, 32]
-0.02999528 -0.12817627 0.070539005 0.11465472 0.033874385 0.02009043 0.15393527 -0.062050164
-0.02376562 0.052136224 -0.10416343 -0.14383699 -0.034104947 0.10261739 -0.088155404 0.05674264
-0.007041128 0.15257168 0.10012715 -0.093544446 -0.17439692 0.0966264 -0.17147785 -0.11002959
0.15481745 0.046570446 0.011838169 -0.12562123 -0.03976902 0.015481843 0.09690422 -0.08043715
-0.026589047 0.041919783 -0.1718622 -0.051161956 -0.16627476 -0.062053822 -0.10040271 0.09218015
-0.11109454 -0.16976918 -0.02358251 -0.084337585 -0.09448494 -0.056088954 0.07302239 -0.15015443
-0.13275376 0.025992882 0.092218325 0.0038720346 0.16522488 0.08520424 -0.13203497 0.09180068
-0.08724843 0.1268318 -0.028065054 0.14312944 -0.027976781 -0.044033278 -0.12835614 0.1662617
-0.11429445 -0.08227214 -0.082916446 -0.19415939 -0.0779068 0.1562239 0.11255389 0.03920036
-0.067752905 0.0053566354 -0.052633386 -0.1636304 0.13930374 0.08957056 0.16022429 -0.14561673
0.04085213 0.08917892 -0.010046645 0.0976891 0.10575616 -0.104660295 0.11830321 0.041513305
-0.038344633 0.061501116 0.1348168 0.051463246 0.088139415 -0.13716681 -0.10015904 -0.026646726
0.0966367 0.09979906 -0.048223514 -0.040281042 -0.029862363 -0.067657866 0.14822826 0.090284266
0.10467133 -0.06303826 -0.050687555 -0.14870924 0.14381014 -0.06731196 -0.019559594 -0.11365525
0.04742869 0.08280725 -0.17190243 0.14050278 0.04923125 0.08693027 -0.14355616 0.05634528
0.17113298 0.12422735 -0.09501941 0.021164687 -0.11110838 0.059157427 0.07231454 0.09057674
-0.15137582 0.08897542 -0.002919513 -0.12589823 -0.08096143 0.16491747 -0.14542152 0.119482115
0.15756965 -0.11819671 -0.15976019 -0.12219764 0.0056396564 -0.1661654 0.12470415 0.14646377
-0.015983218 0.09118922 0.11182241 0.047010876 -0.08161281 0.0133234 0.14973313 -0.04389414
0.035200484 -0.0034224598 -0.064314604 -0.039320398 -0.07909596 -0.04952113 0.17269698 -0.034752708
-0.018122518 0.16031016 0.05792918 -0.134475 -0.050472178 -0.06466025 -0.07030895 -0.14751412
0.08758652 0.13466276 -0.13952972 0.17042857 0.08124017 0.16931559 -0.11434869 0.058778964
0.1233094 0.114638954 -0.033117764 0.12845096 0.0942796 -0.12829138 0.07763821 -0.10051192
0.1403562 -0.07727219 -0.09374413 0.079134226 -0.09412166 -0.06193486 0.11145938 0.16472274
0.053670626 0.16360213 0.07472474 -0.031352025 -0.06786157 -0.034785952 0.00018980686 -0.0096447775
0.0245838 0.035997573 -0.12555085 -0.10673129 0.15743269 -0.092173256 0.080978006 0.17478469
-0.15726642 0.011559853 0.035880383 -0.11282241 -0.03764516 -0.08702962 -0.17110083 -0.041019756
0.15041624 0.18790977 -0.103388175 -0.043042246 -0.09571161 0.10064193 -0.15326825 -0.067761235
-0.055192098 -0.076685406 0.14475694 -0.15683113 -0.12935548 -0.1541378 -0.0705248 0.08636078
0.027792545 -0.0064929635 0.14094718 0.11880204 0.042200413 0.0538685 -0.06400596 -0.17182717
0.037717354 0.15519778 0.1312102 -0.007356758 0.003605692 0.16447054 -0.17865916 0.14770249
0.16698717 0.10078309 0.06698988 0.0069595687 0.04899787 -0.08810935 -0.027385266 -0.10882105
00000000: a9b8 f5bc a440 03be c176 903d 18d0 ea3d
00000010: debf 0a3d af94 a43c 35a1 1d3e 5028 7ebd
00000020: 1eb0 c2bc cb8c 553d a353 d5bd 014a 13be
00000030: a1b1 0bbd 1129 d23d d28a b4bd f86a 683d
00000040: 43b9 e6bb c03b 1c3e 770f cd3d 3b94 bfbd
00000050: 1b95 32be 10e4 c53d e497 2fbe 3257 e1bd
00000060: 7788 1e3e a7c0 3e3d e1f4 413c daa2 00be
00000070: d7e4 22bd 8ea7 7d3c b875 c63d 3cbc a4bd
00000080: 46d1 d9bc 14b4 2b3d a5fc 2fbe 338f 51bd
00000090: ee43 2abe 262c 7ebd f09f cdbd f2c8 bc3d
000000a0: 8985 e3bd f9d7 2dbe 1c30 c1bc 2fb9 acbd
000000b0: 5281 c1bd 88bd 65bd c38c 953d 15c2 19be
000000c0: 9af0 07be 06ef d43c f6dc bc3d f6c1 7d3b
000000d0: b630 293e 907f ae3d 2d34 07be ff01 bc3d
000000e0: 4eaf b2bd 32e0 013e afe8 e5bc 8690 123e
000000f0: 902f e5bc 3d5c 34bd cb6f 03be 8240 2a3e
00000100: 3513 eabd 4c7e a8bd 19d0 a9bd b8d1 46be
00000110: 9a8d 9fbd 28f9 1f3e a782 e63d 8f90 203d
00000120: 09c2 8abd b786 af3b 1b96 57bd ba8e 27be
00000130: a4a5 0e3e c570 b73d d611 243e 8d1c 15be
00000140: 9054 273d 70a3 b63d af9a 24bc 3911 c83d
00000150: b096 d83d 2358 d6bd f448 f23d db09 2a3d
00000160: 430f 1dbd 98e8 7b3d 6a0d 0a3e 20cb 523d
00000170: 7082 b43d 7575 0cbe 2f20 cdbd 3c4a dabc
00000180: 76e9 c53d 7363 cc3d 0586 45bd bcfd 24bd
00000190: eaa1 f4bc 3590 8abd 26c9 173e f5e6 b83d
000001a0: ec5d d63d 341a 81bd c19d 4fbd 3c47 18be
000001b0: f742 133e dada 89bd 713b a0bc 15c4 e8bd
000001c0: 9644 423d d996 a93d 3107 30be f6df 0f3e
000001d0: b5a6 493d 7f08 b23d 6300 13be 4fca 663d
000001e0: 7c3d 2f3e e96a fe3d 8999 c2bd 9161 ad3c
000001f0: ca8c e3bd 0f4f 723d a519 943d 4c80 b93d
00000200: 4302 1bbe bf38 b63d 4d55 3fbb 77eb 00be
00000210: 1bcf a5bd 20e0 283e 61e9 14be 0ab3 f43d
00000220: f059 213e 1e11 f2bd 2d98 23be c242 fabd
00000230: decc b83b 4327 2abe e464 ff3d 99fa 153e
00000240: 3def 82bc 6ac1 ba3d 2603 e53d 7a8e 403d
00000250: 9e24 a7bd 644a 5a3c a453 193e 57ca 33bd
00000260: 622e 103d 594b 60bb 60b7 83bd 6d0e 21bd
00000270: 10fd a1bd abd6 4abd 7ad7 303e db58 0ebd
00000280: ad75 94bc 5928 243e 2647 6d3d d0b3 09be
00000290: eabb 4ebd 986c 84bd 24fe 8fbd f10d 17be
000002a0: 9060 b33d 09e5 093e e1e0 0ebe d484 2e3e
000002b0: 3f61 a63d 1161 2d3e a52f eabd 36c2 703d
000002c0: a489 fc3d d4c7 ea3d 7ea6 07bd a688 033e
000002d0: aa15 c13d d15e 03be c800 9f3d 32d9 cdbd
000002e0: 89b9 0f3e e240 9ebd ecfc bfbd 2011 a23d
000002f0: dbc2 c0bd 68af 7dbd d144 e43d 14ad 283e
00000300: bbd5 5b3d 5187 273e 4909 993d fb6a 00bd
00000310: 02fb 8abd b77b 0ebd e406 4739 2105 1ebc
00000320: f763 c93c 3172 133d 6790 00be ef95 dabd
00000330: 0936 213e 55c5 bcbd ccd7 a53d c2fa 323e
00000340: 730a 21be 8a65 3d3c 4ff7 123d 700f e7bd
00000350: d031 1abd 963c b2bd 0e35 2fbe 5504 28bd
00000360: b706 1a3e 6b6b 403e 2ebd d3bd 114d 30bd
00000370: 7304 c4bd 5b1d ce3d 5af2 1cbe 67c6 8abd
00000380: 1c11 62bd 3d0d 9dbd 2a3b 143e 5798 20be
00000390: c375 04be 4dd6 1dbe 4e6f 90bd ecdd b03d
000003a0: 31ad e33c edc2 d4bb 7554 103e 7c4e f33d
000003b0: 57da 2c3d 37a5 5c3d 8f15 83bd 76f3 2fbe
000003c0: 837d 1a3d 2bec 1e3e f75b 063e f610 f1bb
000003d0: 794d 6c3b f76a 283e 6df2 36be 523f 173e
000003e0: affe 2a3e 5d67 ce3d fd31 893d 180d e43b
000003f0: feb1 483d ad72 b4bd 1157 e0bc 92dd debd

actor.customer_encoder.0.BN1.weight f4 [32]
1.0040802 1.0251595 1.0057125 0.971668 0.99614275 0.9863992 1.0003874 1.030142
0.9963907 0.9906297 1.0060557 1.0150489 0.99555093 1.0024248 0.9717606 1.0006034
0.9810161 1.0010954 1.0384929 1.0028007 0.99086946 0.98978394 0.9987102 0.9955517
1.0059699 0.9956426 0.98984337 0.9978249 1.0004572 0.97451913 1.0207062 1.0022582
00000000: b385 803f 6d38 833f 30bb 803f 3cbf 783f
00000010: 3603 7f3f a884 7c3f b20c 803f b1db 833f
00000020: 7613 7f3f e899 7d3f 6fc6 803f 1fed 813f
00000030: 6ddc 7e3f 754f 803f 4dc5 783f c613 803f
00000040: df23 7b3f e523 803f 56ed 843f c65b 803f
00000050: 9fa9 7d3f 7b62 7d3f 79ab 7f3f 7adc 7e3f
00000060: 9fc3 803f 6fe2 7e3f 6066 7d3f 7471 7f3f
00000070: fb0e 803f 167a 793f 80a6 823f ff49 803f

actor.customer_encoder.0.BN1.bias f4 [32]
-0.015318172 -0.034306638 -0.006402963 0.0015581298 -0.009547584 -0.002670434 0.0060441885 0.032449495
0.013169412 0.009244172 -0.036483813 0.0016451475 -0.005968226 0.007380415 -0.022391431 -0.0026061058
0.000234881 0.003296253 -0.0130455615 -0.0010690842 -0.01569293 0.016342066 0.016169956 0.015201918
0.020730041 -0.017241241 -0.009276597 -0.0032766636 -0.015223747 0.030826082 0.024225086 -0.005604151
00000000: 12f9 7abc 1e85 0cbd f2cf d1bb 293a cc3a
00000010: 786d 1cbc 7302 2fbb 540e c63b c3e9 043d
00000020: 84c4 573c de74 173c 0d70 15bd fda1 d73a
00000030: 1c91 c3bb 69d7 f13b 3c6e b7bc 33cb 2abb
00000040: 634a 7639 f305 583b 0dbd 55bc 8320 8cba
00000050: 768e 80bc ccdf 853c db76 843c 7711 793c
00000060: 0cd2 a93c 813d 8dbc defc 17bc 4bbd 56bb
00000070: 066d 79bc fb86 fc3c b073 c63c 07a3 b7bb

actor.customer_encoder.0.BN1.running_mean f4 [32]
0.7186449 -0.4125742 0.47211045 0.6135063 -0.8276176 0.4589779 0.107552856 0.121544026
-0.29934433 0.27332377 -0.21575987 0.2697227 -0.6188551 1.0977514 0.5408782 0.31728348
-0.19892742 -0.3216426 0.14557742 0.18221162 -0.23607384 -0.46755147 -0.5404648 -0.45498347
0.16217038 0.029587202 0.18976207 0.3993555 0.13689247 -0.09475317 0.07312128 -0.074956834
00000000: 1df9 373f ed3c d3be 76b8 f13e c00e 1d3f
00000010: bfde 53bf 27ff ea3e ac44 dc3d 13ec f83d
00000020: a943 99be 18f1 8b3e 28f0 5cbe 1819 8a3e
00000030: 4a6d 1ebf 1e83 8c3f fe76 0a3f fb72 a23e
00000040: a1b3 4bbe 57ae a4be 3f12 153e af95 3a3e
00000050: 57bd 71be e862 efbe e75b 0abf 98f3 e8be
00000060: fe0f 263e dc60 f23c fd50 423e 5378 cc3e
00000070: 8a2d 0c3e f30d c2bd 9cc0 953d f882 99bd

actor.customer_encoder.0.BN1.running_var f4 [32]
0.019343084 0.0028004705 0.031969447 0.017275771 0.029079312 0.03092009 0.015352457 0.0027671459
0.010214072 0.002603662 0.025703428 0.013953549 0.0196258 0.054026105 0.0102128275 0.01142844
0.0053764936 0.007995551 0.010863062 0.006751928 0.008098342 0.032357406 0.011599455 0.0046690092
0.01500546 0.0020266904 0.015011763 0.014449827 0.03715352 0.015622643 0.0036220758 0.013596292
00000000: 6375 9e3c 1988 373b 65f2 023d eb85 8d3c
00000010: bd37 ee3c 214c fd3c df88 7b3c 0159 353b
00000020: ec58 273c 33a2 2a3b ff8f d23c 6d9d 643c
00000030: 49c6 a03c 7a4a 5d3d b453 273c 5a3e 3b3c
00000040: 4c2d b03b c6ff 023c fcfa 313c 473f dd3b
00000050: e9ae 043c 3389 043d a40b 3e3c 7dfe 983b
00000060: 76d9 753c 39d2 043b e6f3 753c f8be 6c3c
00000070: 4a2e 183d 1df6 7f3c 5960 6d3b fbc2 5e3c

actor.customer_encoder.0.FFN_layer1.weight f4 [32, 32]
-0.016819807 -0.17009498 0.0926022 -0.08138276 0.10948972 -0.124663085 0.15089044 -0.02162781
0.16950579 0.0766836 0.11623959 0.027116979 -0.110349104 0.021247884 0.15776776 -0.15795608
0.054642145 -0.023745311 0.12671795 -0.12568262 -0.13744819 0.045463145 -0.046268623 -0.069039255
0.038538862 0.12742127 -0.12882632 -0.01443202 -0.074144326 -0.015645675 -0.08247723 0.16943373
0.105615936 0.07637982 -0.052431084 0.09448654 -0.10637272 -0.14392246 -0.10779725 -0.06195724
-0.13645247 0.112687446 -0.0076864166 -0.06529484 -0.10953176 0.148319 0.1654249 -0.11695156
0.13760161 0.010530575 -0.063013524 0.08511998 -0.1350002 -0.17826663 -0.018181873 0.118564785
0.14932309 0.15360516 0.07775455 0.042174693 0.016188169 -0.122689925 0.15120862 0.14490052
-0.15383798 -0.23231429 -0.03088416 -0.07097949 -0.083615035 0.1668947 -0.028142015 0.20441319
-0.016922941 -0.028168302 -0.011399329 -0.0591068 -0.059434723 -0.07304649 -0.07882303 0.020880599
0.0697829 0.017655555 0.058499258 -0.062250514 -0.16995376 0.06261935 0.027259244 -0.19735906
0.17943507 -0.05310085 -0.12467334 -0.10467634 -0.044761807 -0.15386546 0.027859785 -0.10340167
-0.114683844 0.18221419 -0.057479694 -0.021433724 -0.10536424 -0.006339883 -0.10370433 -0.11115133
-0.0916232 -0.04040241 0.063700445 0.06826107 0.11013013 -0.08427418 -0.14460416 -0.020248884
0.12990628 0.03197974 0.15015012 0.14222313 0.10637519 -0.022179145 0.022391321 -0.12624961
0.035860468 0.024052167 -0.13617045 -0.11706811 -0.08763575 0.0046628183 -0.01058688 0.044400807
-0.079316154 0.15167467 -0.08905761 0.1003868 0.17232268 0.14989394 -0.09237957 -0.10547354
-0.07468657 -0.1121724 -0.048920244 -0.05573129 0.07524966 0.14048739 0.057008058 0.033707317
-0.037019372 -0.058883864 0.19770174 -0.157759 0.007345474 -0.15869077 -0.052849177 -0.12334321
-0.19112143 0.10176885 -0.08145872 0.035861038 0.15024476 -0.02972965 0.042354934 -0.059106193
0.111175515 0.18270992 -0.06126916 -0.15067367 0.13165317 0.13416395 0.08369439 -0.0016116187
0.044229683 0.033036225 0.021370059 -0.05405616 0.04997873 0.15624116 -0.053801876 -0.1371109
-0.1137635 -0.003158928 0.07210704 0.010692026 0.17234519 0.04021058 0.0724786 -0.15790251
0.114713505 0.1493952 0.04684136 0.07139107 -0.16217494 0.14777316 -0.013970033 -0.16920598
0.072974235 0.09770387 0.13438654 0.17414434 0.011286313 0.11828241 0.19130746 0.079780735
0.04791163 -0.04228493 -0.119682886 0.081348896 -0.14789602 0.023567703 -0.1540905 -0.16829534
-0.058630675 -0.16623399 0.092793934 0.033122893 -0.06838963 0.14497583 0.058494862 0.09438263
-0.098957844 -0.16478668 -0.036293052 0.13635989 -0.13268939 -0.13825125 0.022858854 0.052579362
0.08059447 0.007217662 -0.029643435 -0.078725934 -0.00419377 0.13631676 -0.114485085 -0.16391367
-0.005648952 0.0076481113 0.11672146 0.048295885 0.18291493 -0.087430105 0.07360789 -0.08352146
-0.11281575 -0.08312312 0.20889549 -0.108016476 -0.02463283 0.034852892 -0.10457429 0.0346081
-0.12604009 0.1469893 0.13696484 0.07176734 0.113294244 0.0700339 0.018056525 0.025433782
00000000: b1c9 89bc 612d 2ebe 39a6 bd3d 01ac a6bd
00000010: 253c e03d 5c4f ffbd 0683 1a3e ce2c b1bc
00000020: ed92 2d3e 4b0c 9d3d 060f ee3d 6d24 de3c
00000030: b6fe e1bd 0b10 ae3c df8d 213e 3dbf 21be
00000040: 71d0 5f3d 8785 c2bc 5ac2 013e f2b2 00be
00000050: 38bf 0cbe 9037 3a3d 2b84 3dbd 7464 8dbd
00000060: edda 1d3d b97a 023e 0ceb 03be 4774 6cbc
00000070: fbd8 97bd 5c2b 80bc d2e9 a8bd 0980 2d3e
00000080: 2b4d d83d 066d 9c3d fac1 56bd 2982 c13d
00000090: f1d9 d9bd 6960 13be cec4 dcbd e0c6 7dbd
000000a0: 32ba 0bbe adc8 e63d 56de fbbb 4db9 85bd
000000b0: 3052 e0bd f0e0 173e 2565 293e 4d84 efbd
000000c0: 70e7 0c3e 6f88 2c3c 3c0d 81bd 6253 ae3d
000000d0: 7e3d 0abe 878b 36be 27f2 94bc 18d2 f23d
000000e0: 27e8 183e ac4a 1d3e c73d 9f3d 5fbf 2c3d
000000f0: 0d9d 843c db44 fbbd 6fd6 1a3e cd60 143e
00000100: b487 1dbe cce3 6dbe c700 fdbc b25d 91bd
00000110: 5c3e abbd 72e6 2a3e 158a e6bc b151 513e
00000120: fba1 8abc 36c1 e6bc 40c4 3abc f919 72bd
00000130: d371 73bd 6699 95bd f86d a1bd ca0d ab3c
00000140: 56ea 8e3d 62a2 903c eb9c 6f3d 65fa 7ebd
00000150: 5c08 2ebe 933e 803d c74e df3c 7e18 4abe
00000160: d4bd 373e 4780 59bd bc54 ffbd 8d60 d6bd
00000170: 2858 37bd e88e 1dbe 343a e43c 41c4 d3bd
00000180: 5ddf eabd 5b96 3a3e d46f 6bbd c795 afbc
00000190: 35c9 d7bd cbbe cfbb f062 d4bd 4fa3 e3bd
000001a0: f2a4 bbbd ff7c 25bd 6175 823d 76cc 8b3d
000001b0: e88b e13d f197 acbd 1d13 14be fde0 a5bc
000001c0: 2706 053e 30fd 023d f4c0 193e f1a2 113e
000001d0: 3cdb d93d 0ab1 b5bc 016e b73c 9447 01be
000001e0: 6de2 123d 0d09 c53c 4470 0bbe 68c1 efbd
000001f0: 5f7a b3bd 8eca 983b 9874 2dbc 9fdd 353d
00000200: 8270 a2bd 9b50 1b3e d663 b6bd 9897 cd3d
00000210: 5b75 303e cc7d 193e 8031 bdbd 8302 d8bd
00000220: 46f5 98bd a5ba e5bd 9860 48bd 7e46 64bd
00000230: 7e1c 9a3d eddb 0f3e 4881 693d af10 0a3d
00000240: a0a1 17bd 3530 71bd 5372 4a3e 938b 21be
00000250: 4db2 f03b d57f 22be 6178 58bd 5d9b fcbd
00000260: 56b5 43be 306c d03d d4d3 a6bd 06e3 123d
00000270: c3d9 193e 988b f3bc 5e7c 2d3d 5619 72bd
00000280: fdaf e33d 4f18 3b3e 5ff5 7abd 334a 1abe
00000290: 17d0 063e 4662 093e f767 ab3d f33c d3ba
000002a0: 2f2a 353d fe50 073d 4310 af3c fe69 5dbd
000002b0: 7fb6 4c3d affd 1f3e 5b5f 5cbd cd66 0cbe
000002c0: d6fc e8bd 0406 4fbb dbac 933d 9b2d 2f3c
000002d0: 427b 303e d9b3 243d a96f 943d 32b1 21be
000002e0: eaee ea3d 0efb 183e badc 3f3d 7b35 923d
000002f0: 3011 26be d951 173e 91e2 64bc 5544 2dbe
00000300: 8473 953d f718 c83d a09c 093e e552 323e
00000310: 3aea 383c 0c3e f23d 1ae6 433e 1564 a33d
00000320: fc3e 443d f632 2dbd 4d1c f5bd 409a a63d
00000330: 0e72 17be 0e11 c13c e6c9 1dbe 9d55 2cbe
00000340: b826 70bd 3e39 2abe bf0a be3d dfab 073d
00000350: dd0f 8cbd 8b74 143e 4f98 6f3d ae4b c13d
00000360: 69aa cabd d7bd 28be 06a8 14bd eda1 0b3e
00000370: badf 07be bc91 0dbe 7e42 bb3c 755d 573d
00000380: b70e a53d 2382 ec3b cad6 f2bc 103b a1bd
00000390: e46b 89bb 9f96 0b3e 2877 eabd fcd8 27be
000003a0: d81a b9bb 029d fa3b a90b ef3d e8d1 453d
000003b0: 0d4e 3b3e 8e0e b3bd bcbf 963d 4d0d abbd
000003c0: f20b e7bd 743c aabd b3e8 553e be37 ddbd
000003d0: caca c9bc e8c1 0e3d 0c2b d6bd 39c1 0d3d
000003e0: a710 01be 5d84 163e 8340 0c3e c1fa 923d
000003f0: d006 e83d ef6d 8f3d 47eb 933c 825a d03c

actor.customer_encoder.0.FFN_layer1.bias f4 [32]
0.03778327 0.07885984 -0.009262765 0.085350916 0.013013718 -0.13008036 0.1743498 -0.010806603
-0.06819413 0.07732991 0.032327335 -0.1566976 0.1450606 -0.01774362 0.06639871 -0.0119449515
-0.15679678 -0.12362172 -0.031970445 -0.0480135 0.13700645 0.03310251 0.14505099 0.17300542
0.022506159 -0.05771312 -0.0061929426 -0.053006016 -0.17842858 0.06144039 0.07267164 -0.05221444
00000000: a1c2 1a3d 4581 a13d dac2 17bc 76cc ae3d
00000010: 7d37 553c c933 05be c188 323e 2e0e 31bc
00000020: 5da9 8bbd 255f 9e3d ab69 043d 5675 20be
00000030: c48a 143e 115b 91bc 0cfc 873d c2b4 43bc
00000040: 568f 20be 622d fdbd 71f3 02bd cea9 44bd
00000050: 6b4b 0c3e 7f96 073d 3f88 143e 5528 313e
00000060: d65e b83c 9864 6cbd 2bee cabb d61c 59bd
00000070: fbb5 36be eba8 7b3d ded4 943d cfde 55bd
