output/282nodes_entropy0.01_0.4_0.85_2_230823/epoch34.pth (torch, 519145 bytes, 129 tensors)

critic.ff_layer1.weight f4 [32, 283]
000000 d7 27 f8 3d 54 fc 9f 3d 4a 93 42 ba 8e c6 f4 3c
       0.12116974 0.078118 -0.00074224605 0.029879835
000010 65 89 05 3c b7 c1 86 bc 2f 0e 60 bc a2 d4 18 3d
       0.008150433 -0.016449792 -0.013675257 0.037312157
000020 5d 98 5e 3d 19 ab d4 bc 35 8d 52 3d 16 77 34 3c
       0.054344524 -0.025960492 0.051404197 0.01101472
000030 53 c3 2b 3d f9 4c c3 3c 85 96 37 3d b4 0e 9d 3c
       0.041934323 0.023840414 0.04482128 0.01917205
000040 e1 38 4b 3d 45 d3 ca 3c 55 0f 31 bb bf 73 e2 3c
       0.04961479 0.024758944 -0.0027017195 0.027643083
000050 83 a3 dd bb ee 7c 0a 3d e9 17 a9 bb b5 59 5b 3d
       -0.006763877 0.03381055 -0.005160321 0.05355235
000060 d0 7e cf bc 54 28 9f bc 63 1b 8c bc 73 2c 9b bc
       -0.025329024 -0.01942841 -0.017102903 -0.018942093
000070 c7 73 7b 3b 06 d4 aa bc 4f 86 8f 3d bc ed 09 bc
       0.003836857 -0.020853054 0.07008039 -0.008418497
000080 dd 99 77 3d 20 6a 98 3c 58 b5 88 bc 16 64 72 3d
       0.06044947 0.018605292 -0.016688034 0.05917748
000090 c2 2e 17 3d f4 a3 79 3d fb af 22 3c 00 aa cb bb
       0.036909826 0.060947374 0.009929652 -0.006215334
0000a0 0c ce 02 3d 4c 69 1f 3b fd 51 6a 3c dc 7f 3d 3d
       0.031934783 0.0024324236 0.014301774 0.046264514
0000b0 4a 19 39 3d 36 5c dd bb fe 40 89 3c 7b 68 b3 3b
       0.045190133 -0.006755377 0.016754624 0.0054751015
0000c0 78 16 05 3d 59 51 eb bc b7 c9 9a bc 7c bb 8a bc
       0.03249213 -0.028725313 -0.018895013 -0.016935103
0000d0 d4 81 25 3c 01 05 6e 3d 83 67 b9 b9 7c ed c8 3c
       0.010101754 0.05811024 -0.00035363072 0.024527304
0000e0 f8 1c e3 3c 13 ec 96 3c 46 0f 8e 3d 26 6e f8 bc
       0.027723774 0.018423116 0.06936507 -0.03032596
0000f0 93 67 57 3d 6f a8 b8 bc 1c af 17 3d 15 70 06 bd
       0.05258901 -0.022541253 0.03703223 -0.032821734
000100 ff c0 2b 3c aa 31 f5 38 b2 c2 d5 3c 7d 93 12 bc
       0.010483026 0.00011691761 0.026093815 -0.008946297
000110 b2 6f 8c bc c6 3a 15 ba 45 d4 a6 3d d1 eb 3e bb
       -0.017143104 -0.0005692657 0.08145956 -0.0029132257
000120 91 da 7c 3d f6 7b 95 bc 6d 9f 17 bd 52 6f dc bc
       0.06173188 -0.018247586 -0.037017275 -0.02690855
000130 41 02 81 3c 60 e1 3a 3c c7 11 0d 3d 30 da 6a 3d
       0.015748145 0.011406273 0.034440782 0.057336986
000140 72 bc 07 bd 4a cb 18 3b f8 30 f0 3c 74 3c 22 bd
       -0.0331387 0.002331453 0.029320225 -0.039608434
000150 06 68 34 3d 76 b0 3e ba 00 69 61 3d da 31 aa bc
       0.044044517 -0.00072742195 0.055031776 -0.020775724
000160 06 5e bd 3b a8 1a 80 3b 64 3d 4f 3c 28 9e 4e 3c
       0.0057790307 0.0039094277 0.012648914 0.01261095
000170 08 15 8b 3d e3 46 40 3d b8 e6 c6 bc 9e 33 08 bd
       0.06791121 0.046942603 -0.024279937 -0.03325235
000180 57 b8 68 3d 34 30 1d bc 7a 76 42 bc d8 2c 2f bb
       0.056816425 -0.009594012 -0.011869067 -0.002672961
000190 de a1 14 bd 0b 0c 66 bb 8f 76 41 bc 1d fc 01 bd
       -0.03628718 -0.0035102393 -0.011808052 -0.031734575
0001a0 dc fd e0 3c 1f 6a 26 bd 47 89 3d bc bb a8 b6 3a
       0.0274648 -0.04062855 -0.011568374 0.0013935784
0001b0 61 84 1b bd 0d 5e 01 bd ad f9 a0 3d 21 38 cf 3b
       -0.037968043 -0.031583834 0.07860122 0.0063238298
0001c0 3e 4e 58 3d 16 a9 c3 bc ea 0e 82 bc 3c 68 37 bc
       0.052808993 -0.023884337 -0.015876252 -0.011194285
0001d0 02 8e 64 3c 23 29 12 bd 22 01 16 bc 75 8c 1a bd
       0.013949873 -0.035683762 -0.0091555435 -0.037731607
0001e0 2f cb 96 3b 94 fe 85 3c 26 b0 e7 bc 8e cf 58 bc
       0.004601858 0.016356744 -0.028282236 -0.013233079
0001f0 33 60 ba bb ea 58 21 bc 61 59 b3 bc 9d bf e5 bc
       -0.0056877374 -0.009847859 -0.021893205 -0.02804547
000200 36 be 6c 3d 1d 57 80 3c ca ab 3c 3d 72 b3 03 3c
       0.057798587 0.015666539 0.04606227 0.008038389
000210 d5 04 14 bd e7 cd 4c 3d 5d 56 75 3c 72 75 8a 3b
       -0.03613742 0.05000105 0.014974204 0.0042254264
000220 05 d0 0c bd b0 2f 23 bd 18 f5 f0 3c fc 19 ef bc
       -0.03437807 -0.0398404 0.029413745 -0.029187195
000230 a5 c6 98 3c 54 58 32 bc b4 ee 9e 3d 31 81 9f 3c
       0.018649409 -0.010885317 0.07760373 0.019470783
000240 cd be b9 bc cf 77 be 3c 74 3e 53 3d 66 61 83 3d
       -0.022673989 0.023250489 0.05157323 0.06415062
000250 4b d5 0a 3d 38 a7 10 bd 2f 6c 41 3c 62 3d 2b bd
       0.03389482 -0.035315722 0.011805578 -0.041806586
000260 23 5a 09 3c 54 b3 a4 bb de fa c9 3d 2c 14 1e bd
       0.008383307 -0.0050262604 0.09862302 -0.038593456
000270 1d 10 89 3c 4e c9 fc ba 8e e9 b5 3c 8d 22 7f bc
       0.016731316 -0.0019286068 0.022206094 -0.015572202
000280 97 c3 80 3d 12 44 21 bd a7 a6 bc ba 65 3b 0c bd
       0.06287306 -0.039371558 -0.0014392928 -0.03423633
000290 d9 59 23 3d 2d d5 cf 3c f6 ab c4 bb 8d 43 a7 3d
       0.039880607 0.025370205 -0.0060019447 0.08167181
0002a0 a6 09 83 3c cc 26 fe bc f9 04 e8 bc 2f 3a a0 bc
       0.015995812 -0.03102436 -0.028322684 -0.019558994
0002b0 7e 61 29 3d fb e4 ef 3b 1f 52 09 bd 89 fb ae 3b
       0.04135274 0.007320998 -0.033525582 0.005340044
0002c0 07 a1 ec ba 54 30 0e 3d 1b e3 88 3d 93 d9 d5 bc
       -0.0018053361 0.034714058 0.06683942 -0.026104724
0002d0 d3 4b b3 bc 8e 30 2a 3d a2 df ee bb 39 76 62 bc
       -0.021886742 0.04155021 -0.0072898427 -0.013822132
0002e0 35 7d 76 3c 24 ee e8 3c 4f 54 85 ba e3 a5 be 3c
       0.0150445 0.028433867 -0.0010172221 0.02327246
0002f0 27 69 bf bc b8 6b 96 bc c3 ef 91 3b 35 00 ea bc
       -0.02336557 -0.018361911 0.0044536307 -0.028564552
000300 77 30 92 3d 85 8f b8 3c 23 7b 80 3a 8b 8b 9b 3b
       0.0713815 0.022529373 0.0009802323 0.0047468594
000310 30 43 0c 3d 1f ac fc bb f4 8d 18 3c 92 87 c1 3c
       0.034243762 -0.007710948 0.009311188 0.023624215
000320 7b 5e f3 bc 7c eb 7f 3b 69 27 5c 3d 5c 1a 40 3d
       -0.029708138 0.0039050272 0.053748522 0.04690014
000330 25 68 b0 3c df b8 d3 bc 68 35 17 bc 78 e9 9e bc
       0.021534035 -0.02584499 -0.009229042 -0.019398436
000340 c8 a8 92 bc 8e b0 2e 3d 8d d8 52 3d 5d c7 9e 3d
       -0.017902747 0.042648844 0.05147605 0.07752869
000350 94 93 3e bc 79 26 c2 bc 55 c5 14 3b bf 96 35 3d
       -0.011631865 -0.023699986 0.0022700627 0.044333216
000360 c4 98 4d 3b 6c 7e 0d 3c 17 f5 dd 3c 9f 58 c0 38
       0.0031371573 0.008636098 0.027094407 9.1717804e-05
000370 f7 de 8f bc 38 80 9c 3d 2a d9 93 3b cd df 79 bc
       -0.017562373 0.07641643 0.004511972 -0.015251112
000380 a3 1e a5 bc 46 02 47 3d 5a 89 36 3d d8 2d e4 3c
       -0.02015621 0.048586152 0.044564582 0.027853891
000390 52 58 12 bc 2a d9 1c bd 11 0b b8 bc 94 19 9d 3d
       -0.00893219 -0.03829304 -0.022466214 0.07670894
0003a0 73 11 88 3c 2e 10 3f 3d b0 cc 72 3c 2a 95 01 3c
       0.016609883 0.04664629 0.014819309 0.007909099
0003b0 07 e6 5f bc 10 88 dd bc 9b d0 a0 bc 29 70 cd bc
       -0.013665683 -0.027042419 -0.01963072 -0.025077896
0003c0 aa 32 2d 3d 0b eb b0 bc 92 5a de bb 4c 00 12 bd
       0.042284645 -0.021596452 -0.006785699 -0.035644814
0003d0 d7 86 87 3c d3 1a ef bb 64 c3 10 bd 4d 1c 32 3c
       0.016543789 -0.007296899 -0.03534259 0.010871005
0003e0 76 87 84 bc a1 54 70 3d a2 53 9d 3c 85 70 31 bd
       -0.016177874 0.05867446 0.019204918 -0.043320198
0003f0 05 ae b7 bc a3 3e 88 bb b0 dd bd bc a5 d0 0c bd
       -0.022421846 -0.0041578575 -0.023176998 -0.034378666

critic.ff_layer2.weight f4 [283, 32]
000000 54 f5 df bd 0f 72 b5 3e bb 9c 81 bd 93 79 70 be
       -0.109354645 0.35438582 -0.06328722 -0.23483877
000010 77 33 53 3e 62 fd 0e be 32 a8 4f 3e c6 93 a8 bd
       0.20625101 -0.13963845 0.20279005 -0.082313105
000020 27 55 56 be f4 44 26 bd 5f f2 d8 bd 2e 87 f6 3d
       -0.2093092 -0.040593103 -0.105931036 0.12037502
000030 7e 85 52 be b6 ce 50 be 4e 72 5d bd 3e 2c e2 3e
       -0.20558736 -0.20391354 -0.054064088 0.4417438
000040 93 b6 1c be b9 31 27 be df 48 26 3e 8f 23 91 3e
       -0.15304022 -0.16327561 0.16238736 0.28347442
000050 2c 78 da 3e 90 f8 12 be 98 1e b1 bd 00 18 3a be
       0.4266981 -0.14352632 -0.086484134 -0.18173218
000060 19 26 c8 3e e1 d6 5e 3e 68 fd 52 3c 0d b1 6f be
       0.39091566 0.21761657 0.0128778 -0.23407383
000070 14 2c 1e 3e ba 27 21 bd bb 50 f2 3d 9a 4c aa 3e
       0.15446502 -0.039344527 0.11831804 0.33261567
000080 89 67 8d bd 01 c3 a6 bd 54 83 1e 3e e0 41 79 3d
       -0.069045134 -0.08142663 0.15479785 0.06085384
000090 0d 65 20 bb ed 64 87 bd 3d 6e ea bd c5 e7 31 be
       -0.0024474293 -0.06611047 -0.114468075 -0.1737357
0000a0 dc 74 d9 bd 91 9b ee bd 4c 79 02 bc 2b 90 1b be
       -0.10617992 -0.11650766 -0.00796349 -0.15191714
0000b0 14 03 8f 3d cc 92 14 be 0f 74 e2 bd af 5f a2 bd
       0.06983009 -0.14509124 -0.11057293 -0.079284064
0000c0 0a a3 99 bd 5c 7d 8f 3d e1 3c 83 3d 7b 76 18 3e
       -0.075018 0.07006332 0.06408096 0.14888947
0000d0 b8 4a 3c bd 80 1d 15 3d 86 04 cd bc 5b 0c b3 3d
       -0.045969695 0.036405087 -0.025026571 0.08742591
0000e0 9f 3e 83 3d 0f 24 a2 3d 5d c9 26 3e 16 0e be 3d
       0.064084284 0.07917034 0.16287751 0.092800304
0000f0 0f 12 aa bc b5 a1 cd 3d 3f ea c9 bd 09 30 8f bd
       -0.020760564 0.10040609 -0.09859132 -0.06991584
000100 c8 a2 72 bd dc 04 b4 bc 7a 95 3b 3d 81 20 1e be
       -0.05923727 -0.021974973 0.04579685 -0.15442087
000110 0d 17 e9 bd af 0b f4 bb b4 3a 14 3d ba e1 f5 3d
       -0.1138135 -0.007447682 0.036188796 0.120059446
000120 99 1a ff bd 94 8e 5b 3d 5a 6b 8f 3d bf f2 e6 bd
       -0.12456245 0.05360277 0.070028976 -0.11276769
000130 e2 53 43 3d 6f 30 4a bd 4b fe 0a 3d 97 cc dc bc
       0.04768742 -0.049362596 0.03393392 -0.026953025
000140 a3 d8 86 bd 7f ca 91 bd b1 22 29 3e 55 fe ef 3c
       -0.06584289 -0.07118701 0.1651714 0.02929608
000150 8e 0d d2 bd f2 63 3a 3d e3 57 1a 3e 4d 39 a4 bd
       -0.102564916 0.04550547 0.15072589 -0.08018742
000160 2e ca 72 bd 02 68 2a bd 93 6f fe bd 71 9e 8a bc
       -0.059274845 -0.041603096 -0.12423625 -0.016921254
000170 f4 2c b7 3b e2 fe c2 bd 2e 69 d1 bd d8 27 b4 bd
       0.0055900756 -0.09521271 -0.102251396 -0.08796662
000180 58 e4 fc bd 6f e9 21 bd dd 03 aa 3d 87 46 c3 3d
       -0.123482406 -0.03952926 0.08301518 0.095349364
000190 37 12 2d 3e 35 fb a6 3d 57 82 b9 bd 0b 1b cf bc
       0.1690148 0.08153383 -0.090580635 -0.02528145
0001a0 eb fc c9 bd 9e 26 96 3d 6a f6 04 3c 27 8e 91 3d
       -0.098626934 0.073315844 0.00811539 0.071071915
0001b0 57 ed ee bd 6f 36 c9 3d 31 52 0d be c2 00 40 bd
       -0.11666363 0.098248355 -0.13800885 -0.046875723
0001c0 b0 55 29 be 1b 0e d4 3d 06 ec c2 bd 31 f0 12 be
       -0.16536593 0.10354253 -0.09517674 -0.14349438
0001d0 1b 36 83 bc 32 6d e5 3d d0 51 d2 bc 93 b5 78 3d
       -0.01601701 0.11202468 -0.025673777 0.060720038
0001e0 2d d9 a5 3a c7 cb 13 be f6 27 6e 3d 9e e1 59 3c
       0.0012653224 -0.14433204 0.05814358 0.01329842
0001f0 5f 77 e7 bd 8d 5b 8c 3d aa a8 12 3e c8 8f ba 3d
       -0.11302065 0.068533994 0.14322153 0.09109455
000200 c0 f1 f4 bd 39 60 af 3c 8a 3a 07 3e 1c c1 22 3d
       -0.11960173 0.021408187 0.13205925 0.039734945
000210 cc 3e 6b bd 86 8b 9d 3d de 1c 25 be 1a c3 a8 bd
       -0.057432935 0.076926276 -0.16124293 -0.08240338
000220 77 42 24 3d b3 34 fb 3d 8a 39 6d bd 07 98 03 3e
       0.04010245 0.12265911 -0.0579162 0.12850963
000230 f3 3e 72 3d 56 15 0b 3d e2 d0 d5 3d fb 48 74 3c
       0.059142064 0.033955894 0.10440232 0.014909978
000240 be 4b ac 3d 6a 1b b9 3d ed ce 41 bd 03 2f cd 3d
       0.08412884 0.09038432 -0.04731648 0.100187324
000250 39 6e 06 bd ad f4 81 bd 21 04 56 3d 34 68 0d 3d
       -0.03281996 -0.06345496 0.05225003 0.034523204
000260 ea ee 07 be f8 a4 c4 3d 5e e7 a5 3d 92 5f 7b 3d
       -0.13274732 0.09601778 0.081007704 0.06137044
000270 8d 74 29 bc d6 aa 25 3d 04 8f 60 3d bb 04 83 bd
       -0.010342729 0.040446125 0.05482389 -0.06397387
000280 ca 21 5c 3d 81 8c d1 bd 0b 26 39 bc 05 58 67 bc
       0.05374316 -0.10231877 -0.011300574 -0.014120107
000290 6d 14 e4 3d a0 dd 5c 3d aa 8a 23 3e c7 cc b1 bd
       0.111367084 0.053922296 0.15970865 -0.08681636
0002a0 a6 0c 31 bd 59 a3 80 bc 6e 81 04 3e ec 50 23 3e
       -0.043224953 -0.01570289 0.12939999 0.15948838
0002b0 02 b5 30 3d 27 26 04 be 38 91 e3 bd 77 b4 15 bc
       0.043141373 -0.12905179 -0.11111683 -0.009137264
0002c0 06 d9 2c be fe 40 ad bd c0 ed 9c bd 6e 26 a2 3d
       -0.16879663 -0.08459662 -0.07662535 0.07917486
0002d0 8b 9f a0 bd 7c e6 ff bd 02 b1 a5 3d bf b1 13 be
       -0.078429304 -0.12495133 0.08090402 -0.14423274
0002e0 0f 4d b6 bc 6f 61 1e 3e 6d 94 36 3d 1e 09 17 be
       -0.022253541 0.15466855 0.044575144 -0.14749572
0002f0 0a 6e 4d 3c 43 a9 4f bd 6e 59 99 3d 80 28 f5 3d
       0.012538442 -0.05069853 0.074877605 0.119706154
000300 5b 1d 06 3e 90 c1 ba bc 49 49 ad 3d 53 03 1a be
       0.13097136 -0.022797376 0.08461244 -0.1504033
000310 32 6a f5 3d c4 4d 9b 3d c0 b6 13 be 52 69 3a bd
       0.11983146 0.07583192 -0.14425182 -0.045510598
000320 13 c7 6d bd 5b ca a6 bd 9c c3 53 3c 90 93 6d bd
       -0.05805118 -0.08144065 0.012925055 -0.058002055
000330 2a ac 6b 3d 44 b9 8c bd 41 89 0f 3e 07 3b 1b bd
       0.057537235 -0.06871274 0.14017202 -0.03789809
000340 df 1c 65 bd 05 23 08 bd 0f eb 41 3d 64 e0 a8 bd
       -0.055935737 -0.033236522 0.04734331 -0.08245924
000350 0a 02 82 bd 63 1c 08 be a0 07 d7 3d e1 fa 6b 3c
       -0.06348045 -0.13292079 0.10499501 0.014403076
000360 a6 9e 87 bd 9c 85 99 3d 70 02 f0 3b a6 3d b0 bd
       -0.06622057 0.07496187 0.0073245093 -0.086055085
000370 10 37 2b bd 2a 31 0c bb 8c cd d4 3d d9 3c f6 bd
       -0.04180056 -0.0021391609 0.103907675 -0.120233245
000380 38 04 23 be af 99 2c be 29 19 10 be e8 a3 5a bd
       -0.15919578 -0.168555 -0.14072098 -0.05337897
000390 4a 69 ba 3d b6 6b 02 3d 64 37 4f 3d 8e bc b2 3c
       0.091021135 0.031841002 0.050589934 0.021818426
0003a0 14 d1 89 bc 16 3c 12 be a7 a9 06 3e 3a 93 1b 3e
       -0.016823329 -0.14280733 0.13150655 0.15192881
0003b0 5f 06 7e bb 1a 22 98 3c ec 8d 53 3c de 87 4c bb
       -0.0038761122 0.018570948 0.012912255 -0.0031208913
0003c0 aa 66 3f bc cf eb e2 3a d9 ca e7 bd c4 9e aa 3c
       -0.011682192 0.0017312708 -0.11317987 0.020827658
0003d0 ec 28 fb bb b7 0f 09 be c4 c1 1f 3d 08 a1 e9 3c
       -0.0076647904 -0.13384901 0.03900315 0.028519168
0003e0 29 17 b7 bc 92 cd 9a 3d e7 8c 95 bd 95 bb c2 3c
       -0.02234991 0.07558741 -0.073022656 0.023771087
0003f0 38 ad 02 be 8b 9b 81 3d 06 2b 20 be 2e f6 13 be
       -0.1276139 0.063284956 -0.15641412 -0.14449379

actor.customer_encoder.0.attention.query_embed.weight f4 [32, 32]
000000 b5 6f b9 3e cf 22 3f 3d 74 2b 23 3e dc ba b0 3e
       0.36218038 0.046664055 0.15934545 0.34517562
000010 ab ed b6 be d9 41 b3 bd 36 0a 2c be f7 d1 69 be
       -0.357282 -0.08752794 -0.1680077 -0.22834001
000020 c0 27 56 3e 82 e6 3e 3e 89 f6 98 3e 72 27 cc 3e
       0.20913601 0.18642619 0.2987559 0.39873844
000030 a8 94 6b be fe 53 7f 3d a9 be 08 3e 5d 26 ae bd
       -0.23005927 0.06233596 0.13353981 -0.08503411
000040 f3 82 63 3e 7c 1b ab 3e 1b 46 cc be af 47 ec bd
       0.22217922 0.33419406 -0.39897236 -0.1153711
000050 d6 35 1a 3e f7 78 94 be d7 d2 f6 bd 1b 76 34 3e
       0.150596 -0.2899854 -0.12051933 0.17623179
000060 17 a6 f1 3d 78 c3 46 be ef 0b 12 bd 46 7a 72 3d
       0.11799257 -0.19410503 -0.035655912 0.05919864
000070 c1 dd cb 3e 85 77 80 be 25 6c fb 3c 07 51 ec bd
       0.39817622 -0.25091186 0.030691216 -0.11538892
000080 ae 13 c4 3e 7a c0 91 3e 1e aa c7 bc 35 ed 16 be
       0.38296264 0.2846716 -0.02437311 -0.14738925
000090 6d 78 a6 3e 75 85 be bc d7 1a c7 bd f0 34 8b 3e
       0.32513753 -0.023256997 -0.09721916 0.27188826
0000a0 e6 d7 b7 3d 32 4e af 3c 15 7c ab 3e 25 8f 15 be
       0.08976726 0.021399591 0.33493105 -0.14605387
0000b0 80 69 84 3e 75 b2 51 3e 86 83 5a be e8 85 a3 3e
       0.2586174 0.20478232 -0.21339235 0.319381
0000c0 40 8f fe 3d 9a 82 7d be 08 6d 7e 3e 47 c3 9d be
       0.124296665 -0.24756852 0.2484628 -0.30813047
0000d0 ce e7 06 3c 14 44 13 3e 65 3e 23 3e 6b a9 a7 be
       0.0082339775 0.14381438 0.1594177 -0.32746443
0000e0 70 26 a8 3e 4d 99 9d 3e 43 89 64 3e a6 95 19 3e
       0.32841825 0.30781022 0.22317986 0.14998493
0000f0 6d ff 47 be a9 7f 83 3e 5c 5b 68 3d 36 c5 92 bd
       -0.19531031 0.25683334 0.056727752 -0.07166521
000100 c5 28 1b be 6b 42 87 3d 41 d0 ec bd fd 67 9f be
       -0.15152271 0.06604465 -0.11563159 -0.31134024
000110 21 46 43 be db 36 1b be c2 af 39 bd 91 c8 47 be
       -0.19069721 -0.15157644 -0.04533363 -0.19510104
000120 82 28 b3 bd 34 16 65 be fd 5d 89 be 9a d5 2b 3e
       -0.087479606 -0.22371751 -0.2682952 0.16780701
000130 17 de 74 bd 7c 87 21 be 02 c8 48 bd 06 54 ee 3c
       -0.059782114 -0.1577434 -0.049018867 0.0290928
000140 93 e2 87 be 59 41 43 3e 13 7f 37 3e df d9 49 3e
       -0.2654005 0.19067897 0.17919569 0.19712017
000150 aa ed 5f be 73 e1 b2 3e 16 7f 6c 3e e8 49 11 3e
       -0.21868005 0.3493763 0.23095354 0.14188349
000160 5d 74 30 3e 83 15 49 be 1f 23 a9 3d 71 08 8e 3e
       0.17231889 -0.19637112 0.08258652 0.27740815
000170 7d 71 d6 3d 48 01 2f 3a 75 6f ba be 8e d1 cf bd
       0.10470865 0.0006675911 -0.3641316 -0.10147391
000180 77 30 5b be 14 1e 91 3e ef e6 13 bd 89 80 98 bd
       -0.21405207 0.2834326 -0.036108907 -0.07446391
000190 69 af c0 be fb b4 92 be d8 a6 14 be 41 47 26 3e
       -0.37633827 -0.28653702 -0.14516771 0.16238119
0001a0 d0 aa 83 bd eb ac 21 3e 3a ca b2 3e 7a da 43 be
       -0.06429064 0.15788619 0.34919912 -0.19126311
0001b0 3b 4c 9f 3d af b6 63 3d 4e bc 8e be 6c a7 14 bd
       0.07778212 0.055594143 -0.2787804 -0.03629248
0001c0 c1 0c a5 3d 66 0a 1e be 25 0b 88 be ef e9 8e 3e
       0.08059073 -0.15433654 -0.26571003 0.27912852
0001d0 79 21 f6 3d b8 9c ac be fb 07 b9 be 61 1b 4f 3d
       0.12018103 -0.33713317 -0.361389 0.05056322
0001e0 5c 86 2e be db b8 a0 3d 8c e5 33 3e 6c 2d 96 3d
       -0.17043442 0.078477584 0.17568034 0.07332882
0001f0 ac 7e 73 3e 77 38 0f 3e d3 fb d7 bc 04 8e 87 3d
       0.2377879 0.13986383 -0.026365196 0.06618884
000200 bf 8a fa bd d0 58 4d be da 29 be be 84 c7 10 3e
       -0.12233495 -0.2005341 -0.37141305 0.14138609
000210 55 22 99 3e ab ef f0 bd 30 7a 63 3e 7e 6d 94 3e
       0.29909006 -0.11764463 0.2221458 0.28989786
000220 38 f4 80 3d d5 91 2d 3e 06 d5 c3 3b 82 02 34 3e
       0.06296581 0.16950162 0.005976322 0.17579082
000230 35 8f 44 3e af 8e 59 3e 3b 1e 9f 3e b4 e5 03 be
       0.19195254 0.21245836 0.31077752 -0.12880594
000240 bf b9 dd 3d fd ff 05 3e ac ee 6e be d6 66 92 be
       0.10826444 0.13085933 -0.23333234 -0.28594083
000250 b0 5b 36 bd cf 70 31 3e c3 d4 97 3e 3c 0b fd bd
       -0.044521034 0.1732819 0.29654512 -0.123556584
000260 33 df 24 be 36 ab a0 be 36 2c 49 3e 8d 36 4c be
       -0.16100769 -0.31380624 0.19645771 -0.19942684
000270 e6 66 b6 3d f5 5f 0a 3e 35 86 72 bd e3 c9 a9 3e
       0.08906345 0.13513167 -0.05921002 0.3316184
000280 a3 d8 88 3e 53 7c fe bc 0f 92 44 bb 71 5d 68 3e
       0.2672778 -0.031065142 -0.0029994284 0.22691895
000290 49 b4 57 be 2e fe 95 be 7e a4 67 3e 07 a6 4b be
       -0.21064867 -0.29295486 0.22621343 -0.19887553
0002a0 4a 54 d3 3c c7 d4 d0 3c 62 16 84 3e 5f 89 78 3d
       0.025797028 0.025492085 0.25798327 0.060677882
0002b0 23 a0 09 3d 4a 3f a0 3d 72 be 1e be ea e4 b7 be
       0.033599984 0.078245714 -0.15502337 -0.35916835
0002c0 d0 04 96 3e e5 de 88 be 41 3c 8e be a9 47 af bd
       0.29300547 -0.26732555 -0.27780345 -0.0855859
0002d0 8f 98 60 3e dd 06 16 be 83 4b 87 3e c6 ac 04 3e
       0.21933196 -0.14651056 0.26424798 0.12956533
0002e0 d4 22 74 3e 60 de 05 be b5 10 28 3e 91 79 ac 3d
       0.23841411 -0.1307311 0.16412623 0.084216245
0002f0 c7 b2 a3 3e 62 b1 26 be db 5f a2 3e 51 7b 66 be
       0.31972334 -0.16278604 0.31713757 -0.22507979
000300 04 e7 58 be 6e ed b1 3e 2f 37 4e 3e 7b 4f 5d 3e
       -0.21181875 0.34751457 0.20138238 0.2161235
000310 ea 9f 4b be dd c8 9f 3e ed ce c5 bd 1b d4 94 3e
       -0.19885221 0.31207934 -0.096586086 0.29068074
000320 29 25 5d 3e 36 e0 a3 be b5 53 9b bd 95 df c5 3e
       0.21596207 -0.32006997 -0.07584325 0.38647142
000330 b0 94 4d 3e 65 96 86 3d f3 ac a6 bc ea d5 0b 3e
       0.20076251 0.06571654 -0.02034614 0.1365582
000340 8d d8 d7 bd 34 ea cd bd 4c 20 7e be be 1e 20 bd
       -0.10539351 -0.10054436 -0.24817008 -0.039091818
000350 50 73 73 be 22 32 53 be 99 da 64 3e c6 69 5f 3e
       -0.23774457 -0.20624593 0.22349013 0.21817693
000360 c2 f2 24 be 12 77 8d bd 92 ae 1d be e0 fc 44 3e
       -0.1610823 -0.069074765 -0.15398625 0.19237089
000370 2e b4 48 be 92 dd 45 be f6 0d 2a 3e 50 6c 99 3c
       -0.19599983 -0.19322804 0.16606888 0.018728405
000380 d2 10 08 3e 1a 2f cb bc d4 f2 bb 3e 1d c3 4d bd
       0.13287666 -0.024802733 0.367087 -0.050234903
000390 bd ed 92 3e af 49 44 3d 72 ee a9 3e b3 c9 65 be
       0.28697005 0.047921833 0.33189732 -0.22440223
0003a0 d5 44 4c 3e f6 d5 f0 bd 43 ab 4e 3e a9 9e 85 be
       0.19948132 -0.1175956 0.20182519 -0.2609761
0003b0 9e f9 48 3e 7c f8 a5 bd ff a7 12 be 60 b5 0c be
       0.19626471 -0.08104035 -0.14321898 -0.13741064
0003c0 a8 8a 80 3e bf 11 4f bd 85 ad b5 bd 3d 58 9e 3e
       0.25105786 -0.050554033 -0.08870987 0.30926695
0003d0 53 f9 6d 3e 5b aa 95 3c 64 69 04 be 21 9d c8 3d
       0.23239641 0.018269708 -0.12930828 0.09795595
0003e0 d8 aa a0 bd ca ef 9d 3e 6f f0 0b 3e e8 7e 84 3e
       -0.07845086 0.30847007 0.13665937 0.25878072
0003f0 9f 07 5c 3e c3 0c b3 bd 14 50 89 be 24 ea ff bd
       0.21487282 -0.087426685 -0.26818907 -0.12495831

actor.customer_encoder.0.attention.key_embed.weight f4 [32, 32]
000000 05 9f 0f be 53 f0 e0 3c 06 31 8e 3d 00 4e c9 3e
       -0.14025505 0.027458346 0.06942944 0.39317322
000010 f1 19 ad 3e bc 97 a6 be 12 b9 11 3e fd 5e 73 be
       0.33808854 -0.3253764 0.14230755 -0.23766704
000020 ed cc 2f be 28 da 26 3e 60 5f 8b be 30 ad a7 3e
       -0.17168017 0.16294158 -0.27221203 0.3274932
000030 3c 5c bf 3d fa bc 88 3d 7b 2f 76 3e df 9b a7 be
       0.09343764 0.066766694 0.2404155 -0.32736108
000040 ff 47 92 3d 7b ea c0 3d 6a bb 47 be 66 24 14 be
       0.071426384 0.094197236 -0.19505087 -0.1446701
000050 f0 ca d1 3d 9f 2f a9 3e 60 4e 07 be 01 38 5f 3e
       0.102437854 0.33044145 -0.13213491 0.21798708
000060 ba 30 2e 3e 61 70 4c be 82 2e 85 be fe 2b 16 bd
       0.17010775 -0.19964744 -0.26012045 -0.036663048
000070 54 02 81 3e d8 5d 81 be 02 9f 77 be dc 8f 8e 3e
       0.2519709 -0.2526691 -0.2418175 0.2784413
000080 db f6 4f be b2 27 73 be 7d e6 71 bc ee c8 a4 3e
       -0.20309012 -0.23745611 -0.014764425 0.32184547
000090 20 b4 6e 3e 6d 8b 45 3e e0 90 67 3d 71 87 4c be
       0.233109 0.19291468 0.056534648 -0.19973542
0000a0 47 24 94 be 16 24 39 3e 1d a0 e6 3d 36 3d b6 3d
       -0.28933927 0.18080172 0.11261008 0.08898394
0000b0 73 3f e3 bd 3b 76 b8 be f0 6f be 3c 39 54 59 bd
       -0.11096086 -0.36027703 0.023246735 -0.053058837
0000c0 16 84 be bc 08 c3 46 3d 91 ea 46 be a2 44 55 be
       -0.023256343 0.04852584 -0.19425417 -0.20826963
0000d0 a3 51 aa bd f8 bd 03 3e d5 44 65 be 11 6b ac 3e
       -0.08316352 0.12865436 -0.22389539 0.33675435
0000e0 41 be ae be 9c 02 59 be ac 96 ce 3d 54 b6 af be
       -0.34129527 -0.21192402 0.10087332 -0.34318793
0000f0 e4 da 53 be e1 fe 24 3e 59 6d 7a be c6 a0 e6 3d
       -0.20688969 0.16112854 -0.24455775 0.11261134
000100 ff e4 3a be 43 e3 19 be e4 06 59 3d 88 bc db 3c
       -0.18251418 -0.150281 0.052985087 0.026823297
000110 19 9a a7 3e 7d d4 98 3d 4d d2 89 3d bf 0a 4b be
       0.32734755 0.07462404 0.06729565 -0.19828318
000120 c3 65 92 3e 60 22 5b bc fe c3 54 3e ad ec 90 be
       0.28593263 -0.013374895 0.2077789 -0.2830557
000130 ad 6f 44 3e 4d 20 8f 3e a8 57 5b 3e b1 bd 90 3e
       0.19183226 0.2795433 0.21420157 0.28269723
000140 32 bf 20 be 19 ee 77 be b5 2c 0f 3e 13 13 29 3e
       -0.15697935 -0.24211921 0.13981898 0.16511182
000150 08 41 52 be d8 72 e9 bd c1 11 bb ba c6 1c 0f bc
       -0.2053262 -0.11398858 -0.0014272259 -0.0087348875
000160 d7 c1 31 3e be 50 83 3e 4d 79 ca 3d 8b f6 15 be
       0.173591 0.2564754 0.098864175 -0.1464483
000170 f2 12 6b be 4b 7e 99 3e 7d 66 f2 3c f7 1a 35 be
       -0.22956446 0.29979166 0.029589886 -0.17686068
000180 59 5e 84 be e0 ce 83 be a5 4a a8 3e 2c c2 43 be
       -0.25853232 -0.2574377 0.3286945 -0.1911704
000190 a1 74 b1 be f9 59 8f be 26 8b 3b be 22 1f a7 3c
       -0.34659293 -0.2799833 -0.183148 0.020400587
0001a0 61 90 69 be d8 45 25 3e e7 c8 90 bd d7 b6 0e be
       -0.22808982 0.16139925 -0.07069569 -0.13936935
0001b0 9f a8 78 be 75 e8 b3 bd 91 1c c2 3e 87 b7 f7 3a
       -0.24283074 -0.08784572 0.3791242 0.00188993
0001c0 ec 1d bf 3d 23 96 b8 be da cb 46 3e 3e 45 23 3d
       0.09331879 -0.36052045 0.194137 0.039860956
0001d0 14 3a 8c bd f0 44 97 3c e6 42 26 be 26 28 91 be
       -0.06847015 0.01846549 -0.16236457 -0.28350943
0001e0 b5 5a 3d be 93 25 cc 3d 14 cf 99 3e 55 84 7e be
       -0.18491633 0.09968104 0.300408 -0.24855168
0001f0 05 78 37 3e d2 a5 13 be 69 49 8e 3e b5 8c 39 3d
       0.17916878 -0.14418724 0.27790383 0.045300204
000200 15 7d 9f be dc dc 90 be e1 6c ae 3d 8e 9c 3a 3e
       -0.31150118 -0.28293502 0.08516861 0.18223783
000210 2d 67 dc 3d 62 9b cf 3d 83 7c 49 bd f5 32 4f be
       0.10761867 0.10137059 -0.04919101 -0.20234282
000220 b3 39 07 3d 68 21 93 be 1b 29 34 3e 97 e1 03 be
       0.03301401 -0.28736424 0.17593805 -0.12879024
000230 2c 53 9c be 7d c3 f6 3c 55 5f db 3d 4a 95 8d be
       -0.30532205 0.030122513 0.107115425 -0.2765296
000240 b3 4f 5c be f6 7d 4b bd 23 05 0a be 82 ef 97 3e
       -0.21514778 -0.049680673 -0.13478522 0.29674917
000250 3b 8f 8b 3d a5 4b e7 bd 29 13 8f be 90 a1 78 be
       0.068144284 -0.11293725 -0.27944306 -0.24280381
000260 ff 57 00 3e 75 32 92 bd 5b 8f 52 3d 16 45 87 3d
       0.12533568 -0.0713853 0.051406246 0.06604974
000270 d1 7a 76 3e 25 13 0f bc 29 6f 1b 3e 0b be a5 be
       0.24070288 -0.008732592 0.15179123 -0.32371554
000280 02 79 82 3e be 5e a4 be 96 a4 e7 bd ec 57 a6 be
       0.25482947 -0.32103533 -0.11310689 -0.32488954
000290 6a fc 42 3e c2 bc e6 bd ac 8e b9 be 31 29 2c be
       0.19041601 -0.112664714 -0.36241663 -0.16812588
0002a0 98 25 4d 3e a7 49 81 3e ef 4a 6b 3e 02 f8 aa be
       0.20033872 0.25251505 0.22977804 -0.3339234
0002b0 29 fd 25 be 56 13 8b 3d db c1 1f b8 42 e1 47 be
       -0.16209854 0.067907974 -3.8089096e-05 -0.19519523
0002c0 75 a7 b1 3e 25 46 74 be 04 a3 69 3e 34 71 5c 3e
       0.34698072 -0.23854883 0.22816092 0.21527559
0002d0 c1 db a2 be 06 56 5e be b9 67 67 be e2 1d 87 3e
       -0.31808284 -0.21712503 -0.22598161 0.26389986
0002e0 ed 3b a5 be 0f 03 22 3b c2 42 db bd 60 21 c0 bd
       -0.32272282 0.0024721061 -0.107060924 -0.09381366
0002f0 19 d0 50 be 94 c8 8e be 14 22 9e be a5 67 d2 bc
       -0.20391883 -0.27887404 -0.30885375 -0.025684187
000300 3a d6 41 3c c3 ad 96 3d b7 9a cd 3d 6d 59 0a be
       0.011830861 0.07357361 0.10039275 -0.13510676
000310 c1 86 4c 3e 46 d6 4c 3e 1e 71 90 be 80 1a a9 3e
       0.1997328 0.20003614 -0.28211302 0.3302803
000320 c8 b3 a6 bc 0f be 01 bc 42 53 af be 8c 82 36 3e
       -0.020349398 -0.007918849 -0.34243208 0.17823237
000330 cc e0 0b 3e e8 2d ba 3d 36 a8 36 3e 68 e6 a1 be
       0.13659972 0.09090787 0.17837605 -0.316211
000340 b0 df b0 3e fb 62 68 3e 3b aa d1 bd d2 a4 3c 3e
       0.3454566 0.22694008 -0.10237547 0.18422249
000350 4c e3 07 be e1 21 da bd 86 61 eb bb e9 31 5d 3e
       -0.132703 -0.10650993 -0.0071832566 0.2160107
000360 1b b3 42 3e 24 57 08 be d6 ad 99 be 68 25 47 bc
       0.19013636 -0.13314492 -0.3001544 -0.012154914
000370 1d 4d 1e be 35 9d 3e bc 4e 0b 33 3e 3c 71 72 3e
       -0.15459104 -0.011634161 0.17484781 0.23676008
000380 44 d8 82 3c d0 cb 2a 3e 7c b4 80 3d 68 7c 42 be
       0.015972264 0.16679311 0.06284425 -0.1899277
000390 53 ef 56 3e 8d ae 6e be 86 5f ed bb 10 2f 36 be
       0.20989732 -0.23308773 -0.0072440533 -0.1779139
0003a0 57 c5 ad 3b a8 a4 90 3e 1a 85 f9 3d 80 38 f7 bc
       0.0053030658 0.28250623 0.1218359 -0.030178308
0003b0 12 51 9d be 65 85 8a be 8e bf c9 bd 77 53 2c be
       -0.30725914 -0.27054897 -0.09850989 -0.16828714
0003c0 cd 2c 8f 3d 6d 81 a6 be 5f b7 b0 3e 19 9c ae bd
       0.06990967 -0.3252062 0.345149 -0.08525867
0003d0 76 d0 6e 3e f6 75 76 3e 06 ef 92 3e df 91 3d bd
       0.23321709 0.24068436 0.28697985 -0.04628169
0003e0 37 03 ce 3c 5e a9 3d 3e 46 8e 8a be 4e f7 d8 bc
       0.025148017 0.1852164 -0.2706167 -0.026485112
0003f0 97 a5 06 3e 3c 2c 0d bd d7 fd 83 be c9 f4 51 3d
       0.13149105 -0.034466013 -0.25779602 0.051258836

actor.customer_encoder.0.attention.value_embed.weight f4 [32, 32]
000000 c2 70 7d 3d 91 1f a9 3e 02 2b e6 3d 34 5d 05 3e
       0.061875112 0.33031896 0.11238672 0.13023835
000010 a3 e6 aa be 46 88 11 3e 94 09 42 3e 01 04 de bd
       -0.33379087 0.1421214 0.18948966 -0.108406074
000020 69 8b 61 be 0f cb 2f bd be b0 9b be f2 8c a6 3e
       -0.22025837 -0.04291826 -0.3040828 0.32529408
000030 2f 7c 5b be 31 ec a2 3e 60 95 b3 be 88 c9 66 3e
       -0.21434091 0.31820825 -0.35074902 0.22537816
000040 4b 54 17 be 3d 68 8b be f0 a2 cb 3d a7 a9 a6 3e
       -0.14778249 -0.27227965 0.09943187 0.3255131
000050 27 96 2c be b0 49 4b 3d 51 19 6d be 40 e7 6b 3e
       -0.16854154 0.04963082 -0.23154189 0.23037434
000060 33 f5 a2 3e 5c 62 c5 bd 2a 6d ad 3e 01 5e 3b 3e
       0.31827697 -0.09637901 0.33872348 0.18297578
000070 cc 70 43 3d 89 c2 1b be 1e a3 79 3e 47 fc 94 3c
       0.047714993 -0.15210928 0.2437863 0.018186701
000080 0d 1d 19 be df 13 b2 be 0c 73 af be 6e 79 b4 3e
       -0.14952488 -0.34780785 -0.3426746 0.35248893
000090 f3 53 3f be ee 0c 87 be 58 8d 65 3e c8 21 cf bd
       -0.18684368 -0.26377052 0.224172 -0.10113865
0000a0 ce fa 86 be ae 2d 92 3d 93 0c 56 bd bd ad 0b 3e
       -0.26363224 0.07137619 -0.052258085 0.13640495
0000b0 c4 31 a8 3e f1 47 b6 bd 54 30 4e 3e 32 4f ca bd
       0.32850468 -0.089004405 0.20135623 -0.098783866
0000c0 ce d8 ee bd 88 7c f1 3d 60 d7 a1 bd 0b 85 c2 3d
       -0.11662446 0.117913306 -0.07902408 0.09498032
0000d0 a4 3e a1 3d c1 f7 90 be e1 b5 a9 bd 33 56 a3 3e
       0.07873276 -0.2831402 -0.08286644 0.31901702
0000e0 3e 44 0e bb 32 9c ab 3e 43 cd 88 3e 6a 33 cb bd
       -0.0021708156 0.33517605 0.26719102 -0.09921916
0000f0 cf bd 23 be d1 da ee 3d 23 23 6f bd 97 f0 3a bd
       -0.15990375 0.1166283 -0.05838312 -0.0456396
000100 63 fe c5 bc c1 d0 69 be 52 e6 63 3e 87 78 0d be
       -0.024169153 -0.2283354 0.22255829 -0.13815509
000110 d0 6d 93 be b9 64 8d be 61 f6 66 be 5d 89 85 3d
       -0.28794718 -0.27615908 -0.22554924 0.065203406
000120 ef 4c ae be 15 bd 05 3e 7f 06 5f be d0 58 2c bc
       -0.3404307 0.1306041 -0.21779822 -0.010519221
000130 89 63 af bd 95 ed d8 bd b8 9d 69 3e 43 06 f7 bd
       -0.08563907 -0.1059219 0.22814071 -0.12061741
000140 dd c6 f6 3d d1 6a 76 3e 47 da 32 3e 0f 09 1a 3e
       0.12049649 0.24064185 0.17466079 0.15042518
000150 14 c2 07 bd f6 d4 3b be 2e a7 85 be bd f1 ab 3e
       -0.03314407 -0.18342957 -0.2610411 0.3358287
000160 96 3c a4 be 2d d5 b0 bd 00 58 99 3e e7 a7 89 bd
       -0.32077473 -0.0863441 0.2994995 -0.06721478
000170 8b 04 98 be 31 31 b2 3e db 72 ba bd 92 3a 17 3e
       -0.29690966 0.34803155 -0.09103938 0.14768437
000180 61 b0 24 3e 23 96 e6 bd d4 68 af be 1f 06 4e bd
       0.16082908 -0.11259105 -0.34259665 -0.050298806
000190 bd a9 8f be 43 e0 31 be 0d 46 98 be 96 d6 28 3e
       -0.28059188 -0.17370705 -0.29740945 0.16488108
0001a0 e1 d9 7e be 40 6d 30 3e e1 3c 98 3e e2 79 34 3e
       -0.24887802 0.17229176 0.29733947 0.1762462
0001b0 6c 13 57 3e be f8 75 3d dd 4e 72 3e b4 32 aa 3e
       0.21003503 0.060051672 0.23662896 0.33241808
0001c0 28 6b 9a 3d bf d7 19 3e 0c 2a 64 3e cb 5c 2f b9
       0.0753997 0.15023707 0.22281665 -0.00016723869
0001d0 b9 9b 9b 3e b9 4d af 3d f6 b9 5c be a3 76 89 be
       0.30392244 0.08559746 -0.21555313 -0.26848325
0001e0 ce 42 b8 3d f6 0e 8f be 77 59 a3 be b4 34 a8 3e
       0.08997117 -0.27941102 -0.31904194 0.3285271
0001f0 21 a2 88 3e a9 c3 c3 bd 73 77 34 3e 74 11 f5 3d
       0.26686195 -0.095588036 0.17623691 0.119662195
000200 d0 60 a7 3e 10 d7 dc 3d eb 8c 27 3e 43 74 81 be
       0.3269105 0.107832074 0.1636235 -0.25284013
000210 37 54 ef 3d 38 77 8b be 9c 48 8a be c8 4e 47 3e
       0.116859846 -0.27239394 -0.27008522 0.19463646
000220 60 2d 31 be 4d 3b 8c 3e 4a e2 b6 bd 71 21 3c 3e
       -0.17302465 0.27388993 -0.0892988 0.18372132
000230 4c ae a8 3e b7 2f 3c 3d 89 62 a4 3e ce 0d 64 be
       0.32945478 0.045943942 0.32106426 -0.22270891
000240 36 0d 40 3e f9 91 e3 3d ff ba 89 3e 87 84 a6 3e
       0.1875504 0.111118264 0.2690048 0.32522985
000250 25 79 96 bd b7 79 9b 3d d1 b6 36 be ce a6 19 3e
       -0.07347325 0.07591575 -0.17843176 0.15005037
000260 53 dd b5 ba 5d d4 26 be 71 0e 48 be 0e 90 b4 3d
       -0.0013875164 -0.16291948 -0.19536759 0.08816539
000270 d0 2f a1 3e ed 3b a0 be 75 c2 69 3e 3e b7 7e 3e
       0.3148179 -0.3129572 0.22828086 0.24874589
000280 ae 83 9c be b5 2a 25 3e 36 18 00 3d 60 cb 88 3e
       -0.30569214 0.16129573 0.03127309 0.26717663
000290 5e 0e 99 3e 3e 07 4b 3e 96 83 0d be d0 31 9e be
       0.29893774 0.19826981 -0.13819727 -0.3089738
0002a0 77 b9 7c 3e e9 5e 49 3a fb 32 13 3e 25 5b e4 3d
       0.24680124 0.0007681684 0.14374916 0.11150197
0002b0 ee fd 3f 3d 8c 00 89 3e 31 3c b5 bd cb 5e 12 3e
       0.046873026 0.2675823 -0.08849371 0.14293973
0002c0 eb 0c 28 3e a8 65 24 be 94 6a 1b 3e 2e c1 cd 3c
       0.16411178 -0.16054404 0.15177375 0.02511653
0002d0 47 e7 b3 be 07 3e 48 3e 32 f9 9f be 95 01 24 3e
       -0.35137388 0.19554912 -0.31244808 0.16016228
0002e0 31 c2 26 be 4c 0b 30 be aa ff 4a 3e 0b df 71 bc
       -0.16285016 -0.1719181 0.1982409 -0.01476265
0002f0 19 33 84 be 73 04 fb 3d c4 3d 47 be f9 2b a5 be
       -0.25820234 0.12256708 -0.19457155 -0.3226011
000300 09 9f 91 3e c6 b0 98 be ef 43 1a be 4b 64 5a be
       0.28441647 -0.29822367 -0.15064977 -0.21327321
000310 95 4d 8a 3e 67 95 02 bd 1d 33 97 be e9 79 54 3e
       0.27012315 -0.031880762 -0.29531184 0.2074963
000320 42 00 88 3e 93 08 df 3d 96 fe 1f bd 4e 17 ae be
       0.26562697 0.10890307 -0.03906115 -0.34002155
000330 01 95 5e bd b9 a6 46 3e 24 24 76 be 7f 5d b2 be
       -0.05434132 0.19399537 -0.24037224 -0.34836957
000340 7b c6 23 bb 27 e8 67 3d 2d d8 0d be 79 7e 15 be
       -0.002499013 0.056617882 -0.13851996 -0.14599027
000350 bb 65 8c be e5 2d 5b bd cc 65 a8 3e d8 c0 96 3e
       -0.27421364 -0.053510565 0.32890165 0.29444003
000360 f0 44 71 3d db 65 9a 3a 7a b6 a1 3e 67 02 58 3d
       0.058903635 0.0011779623 0.3158453 0.052736666
000370 e2 d7 47 bd 52 85 80 be 1a 35 a7 3e f6 db ac be
       -0.048789866 -0.25101715 0.326577 -0.33761567
000380 4f 23 fd bd 4c 04 9e 3d 2e dc 30 3d a3 86 ec bd
       -0.1236025 0.07715663 0.04317873 -0.115491174
000390 8e 9c a8 be 01 7c 10 3d 83 0e ae bd fe c4 7d be
       -0.32931942 0.03527451 -0.08498862 -0.24782178
0003a0 93 92 60 be 40 d3 30 be 9a 78 a7 be c5 a9 2f 3e
       -0.21930914 -0.17268085 -0.327092 0.17154606
0003b0 ee d1 ab bb b4 b5 9c be a9 de 37 3e 5b 12 8a 3e
       -0.0052435314 -0.30607378 0.17956032 0.2696713
0003c0 26 6e a1 3d 89 14 f3 bd bf 43 e8 bd 91 22 ea 3d
       0.07882337 -0.11869151 -0.113410465 0.11432374
0003d0 fa f5 aa 3e 43 1b 10 3d 10 e2 09 be a0 23 45 bd
       0.3339079 0.03518225 -0.13465142 -0.048129678
0003e0 d4 cb 0a 3e 10 ef 9d 3e 91 5f ad 3e 39 7b b4 3e
       0.13554317 0.30846453 0.33861974 0.3525026
0003f0 a3 3a 78 be ee 8d 70 3d 13 d4 9a 3c 33 39 95 3d
       -0.24241118 0.058729105 0.018899953 0.072863005

actor.customer_encoder.0.attention.combine.weight f4 [32, 32]
000000 1c 89 f1 bc 9d fb 02 be 4e d1 90 3d 0f 21 e3 3d
       -0.029484324 -0.12791295 0.07071172 0.1109029
000010 c7 f8 0a 3d 5a 01 a5 3c 74 7a 21 3e 01 e2 7e bd
       0.03392866 0.020142246 0.15769368 -0.062227253
000020 88 dc de bc 35 84 4c 3d 53 11 d9 bd 39 00 17 be
       -0.027204767 0.04993077 -0.105990075 -0.14746179
000030 1e 38 03 bd 52 bb dd 3d bb 3e a7 bd b2 f1 7a 3d
       -0.03203594 0.10826744 -0.08166262 0.061265655
000040 2e f0 36 bb 4e de 1d 3e 2a 6c d1 3d a4 1b b3 bd
       -0.0027914154 0.15416834 0.10225709 -0.087455064
000050 df ce 2d be 25 2f b7 3d ac 5f 34 be 94 f0 e8 bd
       -0.16973446 0.08944539 -0.17614621 -0.11374012
000060 a3 75 1c 3e 26 b8 2f 3d e1 35 62 3c 32 ae fc bd
       0.1527925 0.042900227 0.013806791 -0.123379126
000070 e2 21 26 bd 26 cf 77 3c c3 ee c2 3d 19 f9 a3 bd
       -0.040559657 0.015125072 0.095181964 -0.08006496
000080 fe 77 ce bc 2d ba 25 3d e1 d5 33 be 4c aa 4c bd
       -0.025203701 0.040460754 -0.17562057 -0.049967095
000090 93 28 29 be ee 4c 83 bd 44 67 cb bd 60 2c b9 3d
       -0.16519384 -0.064111575 -0.09931806 0.09041667
0000a0 7a 36 e1 bd 7f 74 2c be 6c ae bc bc e1 38 ab bd
       -0.10996719 -0.16841315 -0.02303239 -0.08360458
0000b0 f2 c3 bf bd ad 28 4b bd f8 f4 93 3d d5 7c 1a be
       -0.093635455 -0.04959934 0.072244585 -0.15086682
0000c0 29 da 02 be 4b 5d e7 3c a0 48 bb 3d 1e a0 d3 3b
       -0.12778534 0.028242728 0.091447115 0.0064582964
0000d0 80 05 2c 3e 9b f7 b0 3d f7 c9 04 be c4 b1 bc 3d
       0.16798973 0.08640977 -0.12967668 0.092135936
0000e0 09 af a6 bd f0 4f 01 3e bb d9 0e bd e5 eb 11 3e
       -0.08138854 0.1262815 -0.034875613 0.14250143
0000f0 67 df af bc 69 57 2b bd 9f f7 04 be 1c 43 34 3e
       -0.021468831 -0.041831408 -0.12985085 0.17603725
000100 9b ca e2 bd 0f 49 9d bd 4b 3d b3 bd 35 54 42 be
       -0.110738 -0.076799504 -0.08751925 -0.18977435
000110 c1 79 b1 bd ce bf 25 3e bc 96 e6 3d 05 99 3f 3d
       -0.08665801 0.16186449 0.11259219 0.04677679
000120 7e cc 8c bd 67 4d 2d 3c 73 fd 45 bd bf 08 22 be
       -0.06874941 0.010577536 -0.04833741 -0.15823649
000130 33 dc 0b 3e 68 3c b4 3d 7e 7f 1a 3e bf 28 1c be
       0.13658218 0.08800584 0.15087697 -0.15249918
000140 45 b7 1d 3d 9f 5f a4 3d d1 0f ba bc f1 f0 ba 3d
       0.038504858 0.08026051 -0.02271262 0.09127987
000150 13 a8 d4 3d 15 6e c6 bd 4a ec 03 3e 02 04 4d 3d
       0.1038362 -0.09688965 0.12883106 0.05005265
000160 68 82 03 bd fc 24 8d 3d df 29 02 3e 19 8b 45 3d
       -0.032106787 0.0689182 0.12711285 0.048228357
000170 27 14 ae 3d be e7 0a be 6e 9a c3 bd 46 b5 ca bc
       0.084999375 -0.13564965 -0.095509395 -0.024744641
000180 b3 3c bd 3d 19 08 d6 3d 2e 90 30 bd d8 c7 47 bd
       0.09240093 0.10450763 -0.04310625 -0.04877457
000190 49 0c 13 bd 40 23 6c bd b0 82 16 3e e6 e0 c8 3d
       -0.035900388 -0.057650805 0.14698291 0.09808521
0001a0 62 1a c9 3d 07 06 86 bd af e5 60 bd 96 fb 19 be
       0.09819485 -0.065441184 -0.054906543 -0.15037379
0001b0 3c 39 19 3e 04 37 92 bd 12 28 df bc e0 2d e6 bd
       0.1496324 -0.071394 -0.027240787 -0.11239219
0001c0 ae 5e 50 3d 02 02 94 3d c8 d2 3c be 38 4e 0f 3e
       0.050871544 0.072269455 -0.18439782 0.13994682
0001d0 09 81 62 3d 4b 86 b6 3d 1c 3d 0b be fa 1d 8b 3d
       0.05529884 0.08912333 -0.1359753 0.06792827
0001e0 71 ba 31 3e 71 7c 0b 3e bf 87 d7 bd c2 3a cc 3c
       0.17356278 0.1362169 -0.105239384 0.024930362
0001f0 3c e2 e5 bd 20 5f 5a 3d 84 93 90 3d 7b e9 c0 3d
       -0.112247914 0.053313375 0.070593864 0.09419533
000200 4e 7e 14 be 1f 0a b6 3d d0 60 1f bc f0 ec fa bd
       -0.14501306 0.08888649 -0.009727672 -0.122522235
000210 03 82 9f bd d2 b8 23 3e cf 87 0a be df ea eb 3d
       -0.0778847 0.15988472 -0.1352837 0.115194075
000220 e7 79 26 3e 8d 60 ed bd 2a 97 20 be 63 41 f8 bd
       0.1625744 -0.11590681 -0.15682665 -0.121218465
000230 34 4b 60 3b a5 79 20 be ce 23 05 3e 26 1b 15 3e
       0.0034224512 -0.15671404 0.1300194 0.14561138
000240 cb 03 68 bc 09 8b c7 3d 57 f0 f3 3d 5e 2b 4e 3d
       -0.014161061 0.09743316 0.119110756 0.050334327
000250 8c e2 a6 bd 65 87 48 3c d3 8e 17 3e 0a 07 4c bd
       -0.08148679 0.012239312 0.14800577 -0.0498114
000260 16 6b 0d 3d 6b 62 2a bc 7e 98 80 bd 49 9d 2a bd
       0.034525953 -0.010399441 -0.062790856 -0.041653905
000270 ba c9 a7 bd cd 01 3a bd a7 c4 31 3e 2c 13 09 bd
       -0.08192773 -0.045411874 0.17360173 -0.03346555
000280 98 72 9a bc 29 54 25 3e 2e 71 6a 3d f1 fe 07 be
       -0.01885347 0.16145386 0.057236843 -0.13280846
000290 60 5c 61 bd a6 5a 78 bd ee 77 9b bd 59 45 12 be
       -0.055019736 -0.060633324 -0.07591234 -0.14284267
0002a0 8c 58 b2 3d 4b ce 0d 3e 01 4b 0c be a3 7c 33 3e
       0.08708295 0.13848226 -0.13700487 0.17528014
0002b0 44 37 a4 3d 46 e3 29 3e 13 f2 00 be cc 68 57 3d
       0.080183536 0.16590604 -0.12592344 0.052590176
0002c0 cd 9d f9 3d bc 0d d9 3d b3 5e 36 bd 2f 52 f9 3d
       0.12188301 0.10598323 -0.044523906 0.121738784
0002d0 5b e9 be 3d f6 17 f3 bd 7b df b6 3d 35 14 b8 bd
       0.09321853 -0.118698046 0.08929344 -0.08988229
0002e0 33 de 16 3e 84 87 8a bd f3 d6 d6 bd 76 71 9d 3d
       0.147332 -0.06764129 -0.10490217 0.076876566
0002f0 02 4f bf bd 08 d7 7e bd 0f 63 ea 3d 02 d3 2c 3e
       -0.093412414 -0.06221679 0.11444675 0.16877368
000300 7b cd 5b 3d f6 62 1f 3e b3 13 90 3d 6d 9d c6 bc
       0.05366276 0.15565094 0.07035007 -0.024244988
000310 f2 9d 7c bd a6 ef 36 bd 95 c3 aa bb 40 3d 91 bc
       -0.061674066 -0.04466214 -0.0052113035 -0.017729402
000320 71 99 d9 3c d6 30 25 3d 8e 6b f8 bd 83 38 d3 bd
       0.026562424 0.040329777 -0.121298894 -0.10313513
000330 38 5b 1e 3e 4f dd b2 bd 33 36 a3 3d 31 5a 2e 3e
       0.15464485 -0.087336175 0.07969322 0.17026593
000340 fe 0c 1e be f3 dc 9e 3c 1d c7 1e 3d f2 bd e6 bd
       -0.15434644 0.019392466 0.038764108 -0.11266698
000350 41 7d 21 bd c7 95 a8 bd 57 55 2d be c9 b9 37 bd
       -0.039426092 -0.08231693 -0.16927086 -0.044854913
000360 a0 d7 22 3e 84 79 3d 3e 25 8e dc bd b4 67 43 bd
       0.15902567 0.18503386 -0.107692994 -0.04770632
000370 a5 51 b2 bd 80 9b db 3d 2a 57 1b be 5b 3b 75 bd
       -0.08706979 0.10723019 -0.15169969 -0.05987106
000380 88 95 6e bd c5 ca a3 bd 82 f8 1a 3e be 86 1e be
       -0.058248073 -0.079976596 0.1513386 -0.15481088
000390 77 ea 00 be 95 ff 21 be 88 40 9c bd 5e c3 aa 3d
       -0.12589441 -0.15820153 -0.07629496 0.083380446
0003a0 67 60 f3 3c 31 6c 2a bc e9 6e 0e 3e e6 3d ee 3d
       0.029709054 -0.010401771 0.13909496 0.116329
0003b0 7e 5c 21 3d 46 0d 3a 3d 72 bc 73 bd 6c e1 2b be
       0.039394848 0.045422815 -0.059505887 -0.1678521
0003c0 b3 7f 02 3d 96 7e 22 3e 13 71 0c 3e 52 69 13 bc
       0.031860065 0.15868601 0.1371501 -0.008997278
0003d0 64 ea 6a bb 64 d9 24 3e f3 dc 3e be ed d8 10 3e
       -0.0035845274 0.16098553 -0.18638973 0.1414525
0003e0 69 13 24 3e 8c 9b c7 3d e6 8c a1 3d 75 6a 09 3c
       0.1602303 0.09746465 0.07888202 0.008387198
0003f0 99 0f 47 3d 16 92 b8 bd 2e d2 df bc 16 cc f3 bd
       0.04859886 -0.09012239 -0.027321901 -0.11904161

actor.customer_encoder.0.BN1.weight f4 [32]
000000 cf e9 80 3f be 00 83 3f 0b 14 81 3f 5d a9 79 3f
       1.0071353 1.0234601 1.0084242 0.9752405
000010 00 ef 7d 3f e5 5c 7d 3f 8c f8 7f 3f cb dc 82 3f
       0.9919281 0.9896987 0.9998863 1.0223631
000020 ac f1 7e 3f ba 4e 7d 3f 65 48 80 3f ef 13 82 3f
       0.9958751 0.9894825 1.0022093 1.0162333
000030 aa 27 7f 3f d5 cf 80 3f ed 29 79 3f cf cc 7e 3f
       0.996699 1.0063425 0.973296 0.99531263
000040 12 62 7d 3f 94 64 80 3f 29 8f 84 3f 94 29 80 3f
       0.9897777 1.0030694 1.0356189 1.0012689
000050 10 06 7e 3f fe 1d 7d 3f 57 e4 7e 3f 03 64 7f 3f
       0.99228 0.9887389 0.9956717 0.9976198
000060 46 7d 80 3f fb 8d 7f 3f e3 39 7e 3f 27 1f 80 3f
       1.003823 0.9982602 0.9930708 1.0009507
000070 cd db 7f 3f 6f 08 7a 3f 8a 7d 82 3f 6e 9c 80 3f
       0.99944764 0.9766912 1.0194561 1.0047739

actor.customer_encoder.0.BN1.bias f4 [32]
000000 9f 51 6a bc 02 ef b6 bc d3 d0 7b bc 80 eb a1 3b
       -0.014301687 -0.022330765 -0.015369612 0.004941404
000010 ad d2 39 bc 2b 08 09 bb 18 98 65 3b 22 c9 bd 3c
       -0.011341733 -0.002090941 0.0035033282 0.023167197
000020 17 e5 ab 3b 44 02 a6 b9 b7 7e 11 bd 87 e4 08 bb
       0.0052458155 -0.00031663675 -0.035521235 -0.0020888166
000030 16 ff 84 bb 18 63 81 3b e0 f6 7e bc 78 58 8d 3a
       -0.004058729 0.0039485805 -0.015561789 0.0010783812
000040 cf c9 02 3c de d7 e0 3b f6 f6 24 bc 11 fd 0b 3b
       0.007982685 0.006861671 -0.010068646 0.0021360556
000050 25 7f 48 bc 37 38 cf 3b ce 1c 54 3c 5e f9 29 3c
       -0.012237345 0.00632384 0.012946321 0.010374395
000060 75 fd b6 3c 6d 03 c4 bb 10 bb 49 bc bd d9 18 bc
       0.022337655 -0.0059818537 -0.012312666 -0.009329257
000070 44 b5 60 bc d3 fc bc 3c 36 6b 8d 3c 09 5a 19 bb
       -0.013715092 0.023069775 0.017263036 -0.0023399612

actor.customer_encoder.0.BN1.running_mean f4 [32]
000000 c0 19 3b 3f 0c 88 bd be ac 8e e5 3e 69 a7 11 3f
       0.73086166 -0.37017858 0.44835413 0.5689607
000010 f0 74 46 bf 7d e5 d6 3e f0 30 21 3e 55 cb 07 3e
       -0.7752218 0.4197196 0.15741324 0.13261159
000020 88 64 a2 be a9 52 a9 3e 4a 9e 86 be 7a 12 8e 3e
       -0.31717324 0.33070877 -0.2629264 0.27748471
000030 c0 6c 19 bf c1 55 89 3f a8 24 1c 3f ac 03 bf 3e
       -0.59931564 1.0729295 0.60993433 0.3730749
000040 78 13 42 be b8 14 c3 be bc 6d 08 3e f6 57 20 3e
       -0.18952739 -0.38101745 0.1332311 0.15658554
000050 24 fa 9f be b8 5e 0d bf 49 47 15 bf 5b c4 fb be
       -0.3124553 -0.55222654 -0.583119 -0.49173245
000060 ae 87 2d 3e 79 f5 75 3d e5 24 2b 3e 9f a0 cf 3e
       0.16946289 0.060048554 0.16713293 0.40552232
000070 c9 de e2 3d 5f 4b a9 bd 7e 32 40 3d 7c b4 43 bd
       0.11077649 -0.08266329 0.046923153 -0.047779545

actor.customer_encoder.0.BN1.running_var f4 [32]
000000 51 4b a1 3c 5b 95 3f 3b 3c 5b 18 3d e8 19 98 3c
       0.019689234 0.002923331 0.037196383 0.01856704
000010 91 48 0a 3d f3 87 00 3d ca ad 76 3c d5 13 40 3b
       0.03376061 0.03137965 0.015056083 0.0029308696
000020 a1 60 38 3c 4e 90 52 3b 54 76 ce 3c 38 00 6f 3c
       0.011253507 0.003212947 0.025202908 0.0145874545
000030 4a 79 b1 3c 3c 08 74 3d 36 23 48 3c 41 b0 34 3c
       0.02166428 0.059578165 0.012215426 0.01102835
000040 3c b0 ba 3b 5c 37 fe 3b 68 18 32 3c e9 11 d9 3b
       0.0056972783 0.007758064 0.010870077 0.0066244495
000050 86 a8 08 3c 08 1a 0d 3d e8 e7 58 3c c2 96 ad 3b
       0.00834096 0.034448653 0.0132388845 0.0052975127
000060 0b 26 7d 3c 4a 69 fb 3a 2a 90 87 3c d7 7c 87 3c
       0.015450965 0.0019181159 0.016548235 0.01653902
000070 35 fc 22 3d 05 d2 83 3c 68 b6 89 3b 9c 7a 57 3c
       0.039791305 0.016091356 0.0042026527 0.013151791
